results/ButtonPress1/ButtonPress/ButtonPress-499951.onnx (onnx, 496098 bytes, 13 tensors)

discrete_act_size_vector f4 [1, 4]
00000000: 0000 4040 0000 4040 0000 0040 0000 0040
3.0 3.0 2.0 2.0

network_body._body_endoder.seq_layers.0.weight f4 [256, 205]
00000000: 29aa fc3d 667a 573c d9b1 abbc 74b8 dabc
00000010: 2ad1 543d 45ad 093e 54ba 5fbd 6d6d 203d
00000020: c136 0b3e 2521 fe3c 3190 dc3c 1321 773c
00000030: 705b 513d e74e f1bd 8dcd 1e3d 0b08 e4bd
00000040: 5317 8bbc 74e7 0ebe 19b9 49bd a157 39bd
00000050: 4ffd d63d 0d9e 5f3d 1a70 06be 6788 07be
00000060: a2df 22bd 3938 e8bc e5b3 363d 50aa 73be
00000070: be36 6c3d 7c06 003d 0cf7 07bd 9e1e 85bc
00000080: bb82 4a3d 4f44 103a 9f81 08bc c014 2fbb
00000090: 16d9 513d 5225 323e 6c3a 1a3c 0290 7ebd
000000a0: affc c23b 9a3b 97bd 219d 9c3d 0f9e f43d
000000b0: 84a9 3a3e cea5 be3c cd00 d4bd 58c6 663d
000000c0: 09fc e0bc f51b 2dbd ad4f 11b9 dc60 2abd
000000d0: c12a 3ebe caa7 853d 169b 8a3c ff16 6f3d
000000e0: c39f 03bd 614b 973d 8512 19bc 0108 a4bd
000000f0: 21f2 1dbe 68cc 7f3d af87 acbd 6efd 083d
00000100: d61e 4fbd dbcd e53d db4b c8bd 82c9 42bd
00000110: 58b2 5b3c 3568 59bc 3b7c 2abe 11ed f53d
00000120: e692 e7bd 4a97 8f3d 892d 80bd e324 f1bd
00000130: 4365 da3d bbd6 82bd 30c4 153d 97f0 50bd
00000140: c77d b3bd 3832 32bd e7bd 293c 5774 24be
00000150: 7cf2 33bc 7d60 96bb 69ed 29be 5f58 8cbd
00000160: 6387 c63d e88e 9abd 23d7 293d 1579 43bd
00000170: e00d d63d 7b2c 523d 4983 c1bd 0d16 22be
00000180: c081 81bd d621 bbbc 0007 86ba 2f68 88bc
00000190: 64e6 c3bc 9caa a7bd f42d b23d 77ea b9bb
000001a0: 6e55 d33c e61f efbd b83e 9fbc cabc bd3c
000001b0: 8a1d aabc df6b eabc 9c0b f33b 25af ddbd
000001c0: c00f 47bd 4e57 c0bc c261 a7bc bb24 47bb
000001d0: 8570 5cbc d50c 9dbb ed54 a33c 5a56 323d
000001e0: b01b 8bbc 8ceb a1bd 8a61 65bd 7c7f aebd
000001f0: ade4 1f3d 4e10 1bbd bffc 09bc 2129 a93c
00000200: 558b dd3c f4bf 90bc 1192 4bbd b8fa 93bd
00000210: 55e3 ddbd 904d e63d 741c 68bd 5dab db3d
00000220: b759 103e 7f12 2fbc 6c59 89bc f15d a13c
00000230: 5877 923d 8c6a 38be 212e 5f3d 3f9d 88bc
00000240: 748e e53d 025d e8bc ec44 79bc 5d55 d93d
00000250: d32b 2e3d 1252 613d 87fb 39bc d84b b23d
00000260: ad42 653e 571b 44bd a719 70bd 0297 373d
00000270: ac8a ccbd e1fe 0e3d e5d8 b83d 86ee eb3d
00000280: e349 1b3d c1d4 8d3c 539e 4abd 168a 5c3d
00000290: 831d 083c a17b a33d c737 e4bd 5434 c73d
000002a0: 7f85 5bbc b861 373c 4ad9 4c3c e6d1 bdbd
000002b0: 4370 1bbd b877 b8ba fcce ce3c 0a2d 27be
000002c0: 962d 863b d384 7fbd 4dcc 19be d262 4e3d
000002d0: 6437 1cbb c461 65be c52b bfbc 4077 283c
000002e0: 1424 813b f871 94bc 640e eabc 6eff 8a3d
000002f0: d39a 113d 4429 dfbd b6b9 ef3a d9a1 2fbe
00000300: 9e46 69bd 3c31 4d3d ed28 e1b9 9f77 8dbc
00000310: 4959 a4bd 780c 693d 3038 7dbc 6eca 753d
00000320: db2a b33d a954 08bd 562d 61ba 20b2 bb3d
00000330: e3a1 6d3d 5f2f ba3d f38f a1bc 99e8 9c3d
00000340: 0c6e 1c3c b3b9 dcbc e5be f13b 5183 813d
00000350: e720 76bd 1ed3 57bc 398b 6b3d 56d9 b43d
00000360: 9f5c 08be 4561 dd3d 3590 2bbd 13c8 d93c
00000370: dba3 65bd 8b13 aebb 8e5f 223d 1641 3abe
00000380: ef20 d5bc edf8 e5bb d0a7 2c3d 24ce bcbb
00000390: 8fc4 333e e978 56bd fba3 3e3d fdc3 713d
000003a0: c65d 03bd b200 6d3d 564a 633c 408e 233d
000003b0: f137 84bd 7c26 273d 7c45 4f3d 3ca6 463c
000003c0: d654 cebc a9a7 073c 660c 8cbc f6a1 2bbd
000003d0: 2c6a 58bd dd66 773d 62f9 083c fa79 b3bc
000003e0: 62f1 6e3a 3762 2ebc 0dce ccb9 98be 82bd
000003f0: ace6 993d daa3 bfbc 6bbc 2b3d 2b8c a83c
0.12337143 0.013151741 -0.020958828 -0.026699282 0.051957287 0.13445003 -0.054621056 0.039166857
0.13595106 0.031021664 0.026924225 0.015083569 0.051112592 -0.117826276 0.038770247 -0.111343466
-0.016978895 -0.1395548 -0.04924879 -0.045249585 0.104975335 0.05459409 -0.13128701 -0.13235627
-0.039764054 -0.028347122 0.044605155 -0.23795438 0.057669394 0.031256184 -0.033194587 -0.016249951
0.04944108 0.0005503343 -0.008331685 -0.0026715249 0.05123242 0.17397049 0.009413343 -0.062149055
0.0059505324 -0.07384415 0.076471575 0.1194421 0.18228728 0.023272421 -0.10351715 0.0563415
-0.02746393 -0.04226299 -0.00013857959 -0.04159628 -0.18570997 0.06526144 0.016919654 0.05837154
-0.032134783 0.07387424 -0.009342794 -0.08009339 -0.15424396 0.062450796 -0.08424317 0.033444814
-0.050566517 0.112209044 -0.09780093 -0.047555454 0.01340922 -0.013269474 -0.16648953 0.120081075
-0.113073155 0.07011278 -0.06258685 -0.11774614 0.106638454 -0.06388613 0.036564052 -0.051010694
-0.087642245 -0.043504924 0.010360218 -0.16060005 -0.010983106 -0.004589139 -0.16594471 -0.06852793
0.09693792 -0.075467885 0.041464936 -0.047722895 0.10451865 0.05131195 -0.09448869 -0.15828724
-0.06323576 -0.022843283 -0.0010225475 -0.016651241 -0.02391357 -0.08186838 0.08700171 -0.0056737023
0.025797572 -0.11676006 -0.019439086 0.02316131 -0.020766038 -0.02861589 0.0074171554 -0.10824422
-0.048599005 -0.02347913 -0.020432357 -0.0030386883 -0.013454561 -0.0047927895 0.019937957 0.043539383
-0.016980976 -0.07906255 -0.056001224 -0.085204095 0.03903644 -0.037857346 -0.008422076 0.020649495
0.027043978 -0.017669655 -0.049699847 -0.07225555 -0.10834376 0.112452626 -0.05666776 0.10726044
0.14096723 -0.010685562 -0.016766272 0.019698115 0.07151669 -0.18009394 0.05448735 -0.016676543
0.112088114 -0.028364662 -0.015214186 0.10611985 0.042522263 0.05500991 -0.011351473 0.08705872
0.22388716 -0.047877636 -0.058618214 0.044821747 -0.09987387 0.03491104 0.09025744 0.11520104
0.03791226 0.017313363 -0.049467396 0.053842627 0.008307817 0.07982565 -0.11143451 0.09726778
-0.013398527 0.011192732 0.012502978 -0.092685506 -0.037948858 -0.0014073765 0.025245182 -0.16325775
0.0040947897 -0.06238253 -0.15019341 0.05038721 -0.0023836726 -0.22400576 -0.0233363 0.010282338
0.0039410684 -0.01812075 -0.028571315 0.067870006 0.035548043 -0.10896543 0.0018289599 -0.17151584
-0.05695211 0.05009578 -0.00042945836 -0.017268954 -0.08024842 0.056896657 -0.015455291 0.060007505
0.087484084 -0.033283863 -0.00085898244 0.09164834 0.058015715 0.090910666 -0.01972196 0.07661552
0.009547722 -0.026944017 0.0073774927 0.06323875 -0.060089972 -0.013172893 0.05750582 0.08830516
-0.13316582 0.10809568 -0.041885573 0.02658466 -0.056064468 -0.0053123883 0.03964191 -0.18188891
-0.02601668 -0.0070181997 0.042152226 -0.0057618786 0.1755545 -0.052361403 0.046543103 0.0590248
-0.03207185 0.05786199 0.013872704 0.039930582 -0.064559825 0.040808186 0.050603375 0.012124594
-0.025186937 0.008279719 -0.017095756 -0.041902505 -0.05283563 0.060400832 0.008360239 -0.021908749
0.00091149483 -0.010643533 -0.00039063432 -0.06384009 0.075147 -0.02339356 0.041927736 0.02057465

network_body._body_endoder.seq_layers.0.bias f4 [256]
00000000: 43c9 63bc 24e3 48bc 1a6f 443b 4f48 94bb
00000010: 81ff 5fbc 4b49 c63b 16a6 5b3c 55fd 57bc
00000020: 5c6b 64bc edf1 093c 0636 0abb e00f 1abd
00000030: f875 bcbb 27f8 a2bb ab13 c4bc e935 1fbc
00000040: e600 af3b 91a4 0dbc 775d 863b 6d93 1c3b
00000050: cca2 3ebd 6753 8e3c 78aa 05bc 3adc 90bc
00000060: 1b0e 76bd b30d 0dbc 6f9d 03bc d3d5 67bb
00000070: 9169 413c a012 d5bb d6ec b4bb 000f acbb
00000080: 14e9 603b b8a2 ae3b 801c c03b 104b 5fbd
00000090: a8a4 83bc 775c 1cbc ead8 d5bb 1289 11bc
000000a0: 0ba5 7cba abe4 c3bb b234 6eb8 f6fc dfbb
000000b0: b391 fe3b 7cf0 f7bb 7932 9b3b d9a9 05ba
000000c0: 9a61 f2bb eb18 6bbc 83d5 11bb ce88 153b
000000d0: 907e eb3a 067a 353c 6a83 62ba 5269 30bc
000000e0: 3090 7b3c 8715 a7bc aa24 403b c502 3b3b
000000f0: e244 853c 07a5 23bc 88b4 63bd 569a 04bc
00000100: b0c8 693b 15cc a63b 8c03 1e3b 5416 a5bb
00000110: 09d9 9c3b aaca 32ba 76f5 c3bb fcfb 13bc
00000120: 3144 d0bb d34e fcbb 44d6 37bb 5315 24bb
00000130: afb4 40bc 8e56 86bb e83e 9f3a f94c 2ebb
00000140: 3b1c 3d3b 1ae6 08bb 4dfb 033b 3af4 30bb
00000150: 73af 34bd 8007 2c3c b214 a8bb 40b8 d6bb
00000160: 9aec 5cbc a2d9 88ba fc5c 0fbc 664c 8b3b
00000170: df29 0bbb 2dff 4dbc 0d7e 92bb 4b50 763b
00000180: 0d53 f2bc cc09 50bc a744 29bc a4f7 1cba
00000190: c45f 59bb 1d57 cdbc 9e21 15bb e95c d739
000001a0: cc8a 11b9 5e26 1e3b 5d9c 59bd c67d 643b
000001b0: 31ad 6bbc 4eb3 0ebc 3f99 2bbc 56b1 38bb
000001c0: 06e3 54bc 58d9 0c3c 1655 31bc 1cb9 a73b
000001d0: 25e3 9a3a ccac d8bb 1d08 163b 0222 ecbb
000001e0: 884c e93a f534 18bc c5e3 33bd 09bb 81bc
000001f0: 2dce 87bc bdf7 a4ba 7172 febb 5f78 96bb
00000200: 1486 87bc 00e5 a13b b732 e2bc 7c99 80bc
00000210: a728 be39 a25f 913b 35ca 22bb f336 34bc
00000220: a4c8 9fbb daa8 41bb 5e31 c23b af4b 253a
00000230: da50 dbbc fc74 17bc c39a 34bc b1ef c4bb
00000240: e78d 7a3c d60b 8a3b 44cb 9cbc d079 7cbc
00000250: 4f17 863c bf8c 9d3c 5f35 46bc 3e59 61bd
00000260: cbf0 5fbc ee23 f1ba cc1b 13bc 15dc 15bb
00000270: 8529 033c 3e04 82bc 2390 5bbb 97a9 babb
00000280: 8a86 01ba 2260 d4bb 468e 64ba 124b 8e3b
00000290: d2bc a7bb 4daf 8fbb 5229 233c e959 b7bb
000002a0: 8dc9 34bc bd51 113c 5521 3c3b c433 433b
000002b0: adbb 29bc 3a05 00bc fcb0 8839 7690 90bc
000002c0: d5ae 4fbd f3ef 3b3b aba8 a7bc d314 3e3b
000002d0: 7b91 ba39 34a3 b6ba 1197 5dbc d690 c63b
000002e0: 74cb 08bc c53e c3bb dfef 0b3c c4ff 143c
000002f0: 6568 67bc bd44 833b 7c43 9bbc cd48 49bb
00000300: 3004 8c3c 41f3 8dbb 38cc 0ebb e273 75bc
00000310: f018 813a 58a5 183c 90f6 fabb 52e7 77bd
00000320: 271e efbb 5298 98bb 36e5 163b 7c75 373c
00000330: 54b2 34bd b61f a5b9 cf03 45bc d77c fd3a
00000340: 6665 8abb d317 8e3c f1d0 1ebb 80ba 273c
00000350: 5755 f9bb cb69 dc3a bab1 183c 8acf 093d
00000360: f5ee 84bb 1570 c43b 4d2b 4e3c 7a89 04bc
00000370: 60d8 d63a 35af bab9 4d77 bf3a d0c7 d2bb
00000380: 6b54 2bbd 3946 a6bc 3e62 1ebc 4ed7 19bb
00000390: c260 83bb 5c3f 0abc a760 62bc b51a 18bb
000003a0: d470 93ba 11a3 25bd 23b2 e5bb 2a74 bfbb
000003b0: e787 08bc b95e 27bc 57c3 d5bb b8cb 42bc
000003c0: a3ee 87bc 6f93 38bc 0d85 9b3b 716d bbbb
000003d0: 402f 21bd b831 70bc 7958 413b 347f 95bb
000003e0: bac1 9f3b b08b c43b 07f1 34bb c391 fcbb
000003f0: 622b ec3b 0b96 b73b ffdc 82bc fa49 8cbc
-0.013902965 -0.012261186 0.0029973448 -0.0045252214 -0.013671757 0.0060512177 0.013406297 -0.013182958
-0.013941612 0.008419496 -0.002108933 -0.037612796 -0.0057513677 -0.0049734297 -0.02393516 -0.009717443
0.0053406833 -0.008645193 0.0041004973 0.0023891584 -0.046541974 0.017373754 -0.008158319 -0.017683137
-0.060072046 -0.008609223 -0.008033141 -0.0035375252 0.011804954 -0.0065024644 -0.005521397 -0.0052508116
0.0034318613 0.005329456 0.0058627725 -0.054514945 -0.016069725 -0.00954353 -0.0065261023 -0.008882778
-0.00096376304 -0.005978187 -5.6792698e-05 -0.006835575 0.0077688335 -0.00756651 0.0047362414 -0.00050988566
-0.007396889 -0.014349203 -0.0022252507 0.0022817138 0.0017966796 0.011076456 -0.0008640798 -0.010767298
0.015354201 -0.020396007 0.0029318728 0.0028535586 0.016268197 -0.009988076 -0.05559209 -0.008093437
0.0035672598 0.0050902464 0.0024111 -0.005038062 0.004786615 -0.00068203604 -0.005980189 -0.009032246
-0.0063557853 -0.0076998263 -0.0028051296 -0.0025037124 -0.011761828 -0.0040996736 0.0012149485 -0.0026596172
0.0028855938 -0.0020889104 0.00201388 -0.002700104 -0.044112634 0.010499835 -0.00512942 -0.006552726
-0.013484145 -0.0010440836 -0.008750197 0.0042510508 -0.0021234674 -0.012573046 -0.004470593 0.003758448
-0.029580617 -0.012697648 -0.010331309 -0.0005987829 -0.0033168653 -0.025065953 -0.0022755633 0.0004107722
-0.00013879983 0.0024131755 -0.053127635 0.0034865006 -0.014384554 -0.008709742 -0.010473548 -0.0028181872
-0.01299358 0.008596741 -0.010823509 0.0051185023 0.0011816962 -0.006612396 0.002289302 -0.0072062025
0.0017799297 -0.00928997 -0.04391839 -0.015836256 -0.016577804 -0.0012586039 -0.0077651073 -0.004591986
-0.016543426 0.004940629 -0.027612073 -0.015698187 0.00036269912 0.004436449 -0.0024839763 -0.010999429
-0.004876213 -0.0029550106 0.005926295 0.0006305528 -0.026771951 -0.0092442 -0.011023226 -0.0060100188
0.015292621 0.0042128367 -0.019139893 -0.015409902 0.016368536 0.019232152 -0.012097686 -0.05501675
-0.013668249 -0.0018397549 -0.008978795 -0.0022866775 0.0080055045 -0.015871163 -0.003350266 -0.005696486
-0.00049410074 -0.0064811865 -0.000871871 0.004342445 -0.0051189447 -0.004384911 0.009958582 -0.005595435
-0.011034382 0.008869586 0.002870639 0.0029785493 -0.010359687 -0.007813746 0.00026071805 -0.01764701
-0.050703842 0.0028676956 -0.02046617 0.0029004111 0.00035585076 -0.0013934136 -0.013524787 0.0060597463
-0.008349288 -0.0059584104 0.008541076 0.009094182 -0.014124011 0.004005997 -0.018953077 -0.0030713559
0.01709184 -0.0043319766 -0.0021789204 -0.014981242 0.0009849351 0.009316765 -0.007658787 -0.06052334
-0.0072972956 -0.00465683 0.0023024804 0.011197444 -0.04411538 -0.0003149488 -0.012024834 0.0019339573
-0.0042235134 0.017345345 -0.0024233426 0.010237336 -0.0076090503 0.0016816197 0.009319717 0.03364519
-0.004056806 0.0059948065 0.012583566 -0.008089418 0.0016391389 -0.00035607224 0.0014607698 -0.006432511
-0.041828554 -0.020297157 -0.009666977 -0.002347428 -0.004009337 -0.008437958 -0.013816989 -0.0023209278
-0.0011248835 -0.040438715 -0.007009761 -0.0058427053 -0.008333183 -0.010215455 -0.0065235305 -0.011889391
-0.016593283 -0.01126562 0.0047460855 -0.0057198335 -0.0393517 -0.014660291 0.0029502197 -0.004562283
0.004875389 0.0059980974 -0.0027609484 -0.007707806 0.00720732 0.0056026033 -0.01597452 -0.017125119

network_body._body_endoder.seq_layers.2.weight f4 [256, 256]
00000000: c905 223c e224 d63d 6660 f13c c061 a93d
00000010: 2739 b3bc 808b e83d 1eac ac3c 3c52 e13d
00000020: 151d 463d 34b1 d83a 61ef 4dbd a088 2bbd
00000030: bd2d 0d3d b0e2 94bd 3084 9ebd 9c07 34bd
00000040: dd2e d43d e67b 2dbd ca26 313d 2a62 3b3b
00000050: d123 b53c 6cee 2cbb 3ccd 673c 9d03 153e
00000060: f057 04bd 326f 2d3c fe7f 9d3c d071 293d
00000070: 1b41 213e 0229 593d cf47 d1ba 74ed 24bd
00000080: 097b 2a3e 6567 ae3c b84b 223d 5114 c73b
00000090: ae79 bf3c 08d4 513d 24d1 393d 1ff2 b3bd
000000a0: 82ae 7f3c e7d3 873a 7f88 17bd bf31 d2bc
000000b0: e54f b2bd 7d6a 153d fd2f 00bd c89b 1bbc
000000c0: 7b8f 253d 5d42 bebd 64a2 573d b9b4 cdbd
000000d0: 61fd 4ebd cde4 b63d 9502 263e fc20 ecbc
000000e0: 183d 9d3c c511 783d ab29 903d 5ea3 d43c
000000f0: 9f8e 573d 2788 683d f8d5 ddba f6c0 a13d
00000100: b939 2ebd 58cb bb3d fbd7 c5bd 85ea 6dbc
00000110: b2b6 4d3d 301c 00bc c8ab 503d f6fb efbd
00000120: baa4 68bc 110b 5f3d c837 69bc d3db ea3a
00000130: 1e85 8dbd ded0 01bd 1a3b 803d ff42 9b3d
00000140: 20c0 eebd 7f30 8ebc 6289 acbd 6edc 293d
00000150: f9b4 983c 682f 053e bab5 673d 85fe b0bb
00000160: b12d 9dbc 497d 8ebb a35e 983d 8c58 8e3c
00000170: 23e4 003c 03cf 51bd 808b d33d 7ef1 403d
00000180: 6541 8f3d d4ee 2cbd 5bc1 0a3d 8932 25bd
00000190: caa9 2ebd 09cf 26bd 03e7 82bc 5133 523c
000001a0: 96a5 d43d 7e0b 023d 7792 2d3d 6d73 82ba
000001b0: f473 21bd 1027 bc3c dc02 9fbd b648 7c3d
000001c0: 33bf ac3d 095f 0d3d 5054 0b3d 38b3 5b3b
000001d0: df6e 8e3d 8c80 503d 2dbd c93d 64ca 213d
000001e0: bad1 c6bd 7928 b6bb 2b15 e33d 3eb7 babd
000001f0: 7819 52bd 9ed9 003e 9223 3dbb 2e0a 60bd
00000200: 3a1e 4f3d e93d 903d 8a50 893c 2425 ddbd
00000210: 1851 e03d a8de 913d 48ab cd3c 282f 33bd
00000220: 3d8e ce3d dbe8 0e3c 01f6 fbbd 2dcf 663d
00000230: 6040 903c 8a14 dabc c5df e83c 3356 dd3d
00000240: a680 f13c 0dbb babb ac1b 0ebe 9a22 52bd
00000250: f0a2 33be 46d5 abbc ba26 beba 57f8 013d
00000260: a8c8 8a3c 4ac5 563e c845 d53c 0d0c 433c
00000270: 2af0 bbbc 0794 a43c 13d7 4fbd ebe6 82bd
00000280: 947a e83c ee4d c2bd 6fb7 6ebc eb0d c2bd
00000290: e1db 59bb 426d 55bc 62d5 94bd 13e6 a93d
000002a0: 608b ef3d 932f 6fbd 1a4a bd3c 3a1d 163d
000002b0: 5462 abbd 9636 db3c 56d9 833d 72fd 023e
000002c0: e7fc 9abb 442b d3bd 719a 2d3c 93c4 943d
000002d0: 3256 953d a46f a63d b092 e33c 72c1 85bd
000002e0: a832 8ebd 52c8 633d 5e67 843d 8599 283d
000002f0: 9c4f 3d3c 86cc 103d e4b8 0ebd 97c3 1b3d
00000300: c4bb c13d 18d3 a03d cd98 943d a4eb a3bb
00000310: f830 32bd 9ec0 f33c c451 50bd 6da9 673d
00000320: 5226 82bb 8377 c639 c1fc e83b 49da 033c
00000330: 063a 62bd e957 21be c2ab 863d 76b6 0abd
00000340: 335e f63c e250 1cbc 5764 a33b 03da 4c3c
00000350: 6539 8cbc 8b2a 51bb 85ae 1f3d 4730 dd3d
00000360: ae1c babd f0b3 2c3c 89eb 923d 55e5 0a3d
00000370: e663 433d 392e 5a3d 6485 0dbe f1e5 273d
00000380: ecc4 b9bb 18e1 6fbb 9624 8ebd 0720 1b3d
00000390: 2fe9 353d b09d c33d d7d2 013d cdaa 8cbd
000003a0: 6b43 113c 3064 94bc 4e0b 3abd eae8 3fbd
000003b0: 7e6d f9bc f4ed c43c 6e0a da3c 12f0 fcbd
000003c0: ab7d 683c 1275 0bbd cd8c 16bd d45c 053e
000003d0: b701 c03d ae83 b0bc 9c49 8cbd e734 b43d
000003e0: 60ee c73a 361b b9bd 71f0 e0bc 1af5 b6bd
000003f0: b5e0 33be fe52 e43d 534b ff3c 3009 b23d
0.009889075 0.104562536 0.029464912 0.082705975 -0.021877838 0.113547325 0.021078166 0.11002013
0.04836758 0.0016532303 -0.050277118 -0.041878343 0.034467448 -0.072698 -0.077400565 -0.04395257
0.10360501 -0.042354487 0.043249883 0.0028592446 0.022111805 -0.0026387228 0.014148053 0.1455216
-0.032310426 0.010585593 0.01922607 0.041368306 0.15747492 0.053017624 -0.0015966835 -0.040265515
0.16648497 0.021289537 0.039622992 0.00607542 0.023373451 0.0512276 0.045365468 -0.08786415
0.015605571 0.0010362834 -0.036995407 -0.025658486 -0.08706645 0.03647851 -0.031295765 -0.00949759
0.040420037 -0.092900015 0.052645102 -0.10044236 -0.05053461 0.08930359 0.16211922 -0.028824322
0.01919417 0.06056382 0.070391975 0.025956806 0.05262625 0.05677047 -0.001692473 0.078981325
-0.042535517 0.09169644 -0.09660336 -0.014521246 0.05022306 -0.00781922 0.050945073 -0.117179796
-0.01419943 0.054453913 -0.014234491 0.0017918296 -0.06910156 -0.031693332 0.06261273 0.07581138
-0.11657739 -0.01735711 -0.08424641 0.041469984 0.018640982 0.13006365 0.056569792 -0.005401435
-0.019186826 -0.0043484312 0.074399255 0.017376207 0.007866892 -0.051222812 0.10329342 0.047105305
0.06994895 -0.04221995 0.033875804 -0.040331397 -0.042642392 -0.040724788 -0.015979296 0.012829618
0.103831455 0.03174924 0.042376008 -0.0009952612 -0.039417222 0.022967845 -0.07764217 0.06159278
0.08434906 0.03451446 0.034015954 0.003352357 0.06954741 0.05090384 0.098505355 0.039499655
-0.09707971 -0.005559024 0.11088022 -0.09116982 -0.05129382 0.12583014 -0.0028860313 -0.054697208
0.050565936 0.070430584 0.016762037 -0.107981 0.109529674 0.071225464 0.025106087 -0.043746144
0.100857235 0.008722509 -0.12302781 0.056349922 0.017608821 -0.026621122 0.028427014 0.10807457
0.02948029 -0.0056985677 -0.13877743 -0.05130253 -0.17542624 -0.02097572 -0.0014507391 0.031730976
0.016941383 0.20973697 0.02603425 0.011904729 -0.022941668 0.020090116 -0.05074222 -0.063917
0.028378762 -0.0948752 -0.014570101 -0.09475311 -0.003324263 -0.013026537 -0.07267262 0.08295836
0.116965055 -0.05839498 0.023106623 0.036648966 -0.08368364 0.026759427 0.06437938 0.12791994
-0.0047298553 -0.10310987 0.010595904 0.07264056 0.07291831 0.081267625 0.027779907 -0.065310374
-0.06943256 0.055610962 0.06465028 0.041162033 0.011554625 0.0353513 -0.034844294 0.038028326
0.094596416 0.07852763 0.07255707 -0.005002456 -0.04350373 0.029754933 -0.050859228 0.05655806
-0.0039718533 0.00037854546 0.0071102087 0.008047649 -0.055231117 -0.15756191 0.06575729 -0.033865415
0.030074215 -0.009540768 0.0049863267 0.01250315 -0.017117212 -0.0031916227 0.038984794 0.10800224
-0.090875015 0.010540947 0.07173831 0.033910114 0.047702692 0.053266738 -0.13820416 0.040990774
-0.005669227 -0.0036602672 -0.06940572 0.03787234 0.044411834 0.09551561 0.031695213 -0.06868515
0.008866171 -0.01811418 -0.045420937 -0.046852984 -0.030447718 0.024039246 0.026616301 -0.12350477
0.014190118 -0.034047194 -0.03675537 0.13023692 0.09375327 -0.021547165 -0.068499774 0.08799153
0.0015253536 -0.09038393 -0.027458401 -0.08933468 -0.17566188 0.11148642 0.031163847 0.086931586

network_body._body_endoder.seq_layers.2.bias f4 [256]
00000000: d167 53bc be60 c03a 7288 a3bc bb28 96bb
00000010: a54d 49bc 90b8 03bd 2656 0e3c 73ec 03bc
00000020: ee4e 8abb 3dc1 2cbc d27c 3dbc e543 20bd
00000030: 49e4 37bc aac4 dbbb 6b27 003c d136 393c
00000040: 1c0d 34bc 4a18 53bb 8b40 10bc 8f4c 96bb
00000050: 97b4 15bc b66c 68bc 3fab 18bc 4701 03bc
00000060: 4b21 7bbc 283e 8dbc b466 2fbc 1913 00bc
00000070: 07b5 c5ba d009 6d3a 1ffa 7bbc 401a 35bc
00000080: feaa dfbb 8420 ccbc f902 f5bc 0210 92bc
00000090: 2fa3 653c fd3e 77bc 05c1 debb 15e3 0dbc
000000a0: 921b febb 2c45 cdbb b7ca 8bbc 7e8e c2bb
000000b0: 0a9a bebb e630 52bb 39bf 863c 25e3 f4bb
000000c0: 61e8 8abc 6c61 97bc 56b6 383c ce48 46bc
000000d0: 93cd 8abc 284e 07bc bf2d 8cbc c567 1c3c
000000e0: c317 6cbc a971 82bc 4ea4 9eba 44c2 7d3b
000000f0: de75 863b 5121 95bc 8b4f 55bc 6031 36bb
00000100: 3063 78bb 7143 aabb 959f 1cbc 6ff4 cd3b
00000110: 9ac4 18bc e8e6 d3bc 3db2 9dbc d1ec 96bc
00000120: bf67 28bc aaa5 4abc 4d55 febc 4b4e 42bc
00000130: 1967 05bb 0a87 f8bc 991b 16bc 161d 0d3b
00000140: 020e d3bb 6411 43bc c568 e7bb 2716 8dba
00000150: 77c8 a03b c039 82bc e313 31bc f68e 7bbc
00000160: 631f afbc b31c 2dbc bc43 f13a 7072 6db9
00000170: 38ff 90bc e1a6 eabb 6f27 dcbc 4ebc 8cbb
00000180: 79e2 59bb fb33 23bc d162 47bc 94db c9bb
00000190: 2f7f 85bc b607 9bbb 6d76 d0bb 0c9b 4d3b
000001a0: 2ad0 e3bc 9d97 48bc bc80 debc 3957 4d3c
000001b0: fd31 0d3a ea85 9cbb 14e5 88bc e613 82bc
000001c0: 4f94 6cbc 9d31 b9bb 89c2 49bc fe0f eebb
000001d0: a96f 8cbc 3c3b 53bc 78bf 63bb bb33 fdbb
000001e0: f38d b5bc 2b9f 9eba 916d 68bb e13a 45bb
000001f0: b305 a5bc 98c1 eebc 7fac 5bbc 7ad4 c63b
00000200: 8700 43bc b8db 04bd cc83 74bc edb8 15ba
00000210: f48e c0bc f04b c0bc 372a ccbc 50f7 06bc
00000220: 1149 8e3b 0324 523a caa7 a83b 3358 9ebc
00000230: ef7f 22bc d095 93bc 88e5 4cbc 4bbb 6abc
00000240: 73f6 a1bc dda5 2d3c 01d3 07ba abeb bebc
00000250: a605 b7bc 4a28 4fbc 2697 843b c652 96bb
00000260: 43cf 84bc 3ca9 ccbb a9a6 6bbb 916c 0fbd
00000270: 3b70 81bc aa9b bcbc 3835 2a3b a20e 47bc
00000280: 8e5e aabb 7538 02bd 0448 8cba 9e17 2ebc
00000290: ee18 efbb b625 1bbc 8b21 cebb 995d 42bc
000002a0: 72d3 2dbb 6f3e 82bc ec84 67bc f7ca 3abd
000002b0: 30fe edbc 8104 40bc 776d a2b9 70bc 79bb
000002c0: 7361 50bc c3ce fcbb 61d2 99bc ca24 2b3c
000002d0: 4676 9cbc 7800 a0bc a5bc c2bb 80db 89bc
000002e0: ebf9 a1bc 388a 2c3b d00d c3ba 6e9e c4bc
000002f0: acd7 c4bc e988 2ebb b0db 2d3b fa0d 3fb9
00000300: e05f a2bc f756 12bd f638 18bc 6a4b 33bc
00000310: d82d bbbc c9a0 83bb 9333 c6bb dbe7 afbc
00000320: 1667 4ebc a29f 9d3b 5bd2 06bd b979 edbc
00000330: 72c3 a5bc d302 45bc 3771 37bc 30b4 da3a
00000340: d220 debb e1b0 8eba b214 80bc d1af 18bc
00000350: 6b9d 60bc ae66 b2bc c121 86bc fbb4 41bc
00000360: 474e d4ba aa9e 103a c41a cabb 9ace 1dbc
00000370: 6846 2cbc 204a 6dbb 7423 d23b db0d 07bc
00000380: f7d1 3cbc 1b5d 11bc a9e2 89bc 164d a1bc
00000390: 8ee4 30bc 5404 abbc fca2 b6bc 0043 37bc
000003a0: 4e95 ecbb 68bd 46ba c2e7 a3bc 20af c0bc
000003b0: aa5e 31bc 1846 493b f99f c93b 82aa 9dbc
000003c0: 2e3b 9dbc a2a8 71bc 7aea 69bc 0229 18bc
000003d0: 0649 5dbc 5c9f a63b 0dd0 49bb 7f32 04bc
000003e0: 3578 a9bc 8c72 fdba f2b1 aabb 3506 fdbc
000003f0: b19c 99bc 57f3 9fbb ae8a fa3b bf06 76ba
-0.01290317 0.0014677269 -0.019962523 -0.004582492 -0.012286578 -0.032158434 0.008687532 -0.008051979
-0.004220835 -0.0105441185 -0.011565404 -0.03912725 -0.011223861 -0.006706794 0.007821898 0.011304573
-0.010989454 -0.0032210522 -0.008804451 -0.004586763 -0.009137294 -0.014186075 -0.009318172 -0.00799591
-0.015327762 -0.017241552 -0.010705639 -0.007817053 -0.0015083858 0.00090422947 -0.015379458 -0.011053622
-0.006825804 -0.024917848 -0.029908644 -0.017829899 0.014015957 -0.015090701 -0.006797912 -0.008660098
-0.0077547515 -0.0062643494 -0.017064435 -0.0059373965 -0.0058167027 -0.0032072603 0.016448604 -0.007473367
-0.01695651 -0.018479072 0.011273941 -0.012102319 -0.016943729 -0.00825838 -0.017111657 0.009546225
-0.014409962 -0.015923338 -0.001210341 0.0038720528 0.0041034063 -0.018204363 -0.013019453 -0.0027800426
-0.0037900917 -0.005196028 -0.009559532 0.0062852423 -0.009324217 -0.02586694 -0.01925003 -0.01842347
-0.010278641 -0.012368599 -0.031046534 -0.011859487 -0.002035564 -0.03033783 -0.009161853 0.002153223
-0.006440879 -0.011906002 -0.00706205 -0.0010764048 0.00490671 -0.015896678 -0.010807964 -0.015353909
-0.021377271 -0.010565924 0.0018407027 -0.00022644713 -0.017699823 -0.007161007 -0.026874272 -0.0042949086
-0.003324656 -0.009961124 -0.012169556 -0.006160209 -0.016295997 -0.004731144 -0.0063617737 0.0031372933
-0.027809221 -0.012243179 -0.027160995 0.0125330025 0.0005386172 -0.004776706 -0.016710795 -0.015878629
-0.014439656 -0.0056516663 -0.012314447 -0.00726509 -0.017143087 -0.012892541 -0.0034751575 -0.007727114
-0.022162413 -0.0012101879 -0.0035465697 -0.003009491 -0.02014432 -0.029145047 -0.0134078255 0.0060678096
-0.011901981 -0.032436103 -0.014924001 -0.0005711455 -0.023505665 -0.02347371 -0.024922473 -0.008237675
0.0043422063 0.00080162304 0.005146955 -0.019329166 -0.009918197 -0.018015772 -0.012505896 -0.014326881
-0.019770836 0.010598627 -0.00051812833 -0.023305735 -0.02234156 -0.012643883 0.0040463386 -0.004587504
-0.016212111 -0.0062457602 -0.0035957491 -0.035015646 -0.015800586 -0.023023445 0.0025971662 -0.012149485
-0.00519926 -0.031792123 -0.0010702615 -0.010625748 -0.007296673 -0.00946944 -0.0062906197 -0.011863136
-0.0026523736 -0.015898911 -0.014130812 -0.04560372 -0.02905187 -0.011719824 -0.00030980606 -0.0038106702
-0.012718546 -0.0077150776 -0.018777074 0.010445783 -0.019099366 -0.019531474 -0.0059428983 -0.016828299
-0.01977249 0.0026327502 -0.0014881436 -0.024001326 -0.024028622 -0.0026631898 0.002652865 -0.00018220386
-0.019821107 -0.035727467 -0.009290924 -0.010943273 -0.022849008 -0.00401697 -0.0060486286 -0.021472862
-0.01259782 0.0048102895 -0.032915454 -0.028988706 -0.020234797 -0.012024599 -0.011196426 0.001668578
-0.006778815 -0.0010886454 -0.015634868 -0.009319262 -0.013709406 -0.021777477 -0.016373517 -0.011822934
-0.0016197645 0.0005516807 -0.0061677415 -0.009631777 -0.010514833 -0.0036207512 0.0064129177 -0.0082430495
-0.011524669 -0.008872296 -0.016831713 -0.019690078 -0.010796679 -0.020876087 -0.022294514 -0.011185408
-0.007219947 -0.00075813243 -0.020007972 -0.023521006 -0.010825792 0.0030711945 0.0061531034 -0.019246344
-0.019193258 -0.014749678 -0.014277095 -0.009287121 -0.01350618 0.005084915 -0.0030794174 -0.00806868
-0.020687202 -0.0019336506 -0.005209201 -0.030886749 -0.018751474 -0.0048813033 0.0076459264 -0.00093851605

action_model._discrete_distribution.branches.0.weight f4 [3, 256]
00000000: d6fa 993c 22f6 723c 90d5 343d df7a 85bc
00000010: b34d cdbc 28e8 bb3c 1d1f e73c e026 a938
00000020: 769e 423d 0daf 5d3b ddbd b73c f285 353c
00000030: 81e9 3bbc a728 04bd 5c3c e93c 2b8b bcb8
00000040: bd01 0f3d 4053 84bc 5827 233d 64d2 52bd
00000050: 8cc4 d5bc dbac 563c eb2c 3d3d 7c54 c33c
00000060: abee 9abc b0b3 223d 9e71 9f3c ad9a 493d
00000070: aa58 1dbd 9c55 063c 8a9f a13c 3135 fe3c
00000080: c4c7 113d 51f7 cb3c 10f7 26bd f5db cd3c
00000090: a17b 163c 8f57 82bb feac eb3c 782d 943c
000000a0: 61ca 093c 2c5e 28bd d77f 133c 47a8 dbba
000000b0: 9c89 24bd 947a 003d 364e 5d3c 88f9 313d
000000c0: ef6f efbc ed6f e7bc 2095 363d a30d cd3c
000000d0: fb10 39bc 3796 283c 3220 913c 5202 e0bc
000000e0: 194c a5bb 155c f1bc f766 01bc 1291 963c
000000f0: 8241 c23a cf98 063d f108 69bd 66e1 b53c
00000100: 7823 86bd fcf8 6f3d fbd1 213d 053c dfbc
00000110: cf05 cf3b 2f1a 743c f72f 773b 71c4 cdbb
00000120: c73f 38bd 1776 f23c 0f77 0c3d 2f07 d13c
00000130: 29dc 3d3d fbeb 1c3c 2158 7d3c 77b8 f73c
00000140: 097b efbb 5b11 ca3c 476b a9bc 7735 343d
00000150: 0426 b7bc 5bc2 e93b aba0 393d b88f 17bc
00000160: 935d 4a3c 66c5 093d f3a5 4d3d 94be cd3b
00000170: dffe 783c 1596 d23c 8583 423c fe01 d0bc
00000180: ff93 a63c f406 d4bc 1bcf 803c dbad debc
00000190: 7c53 12ba e2ed b43c 7f0f 0bbc 0718 ff3c
000001a0: 0164 963c 155b d2bc e1dd 7a3c 15af 07bd
000001b0: 815d f23a 3555 493d a3da 64bc 1f61 b3bc
000001c0: 2efa 52bd 4a4a ac3c c18f 1cbd 53fb c13c
000001d0: 16ee 863c 9a92 ff3c d5d9 513c 6c83 c33c
000001e0: e815 8dbc 60c5 74bc ac6b 2ebd 585d 093d
000001f0: c04d b03c 1f45 b53c 2018 70ba 7757 57bd
00000200: 954e 043d 74ba c23b 1757 09bc 7fc6 53bd
00000210: 14ce 133d e640 c6bc 096a 1a3d fda2 943c
00000220: 1049 8abb 4d3f bfbb 595a a63c 6254 ccbc
00000230: e83d 10bd 25a7 143d 4196 31bc 6331 1dba
00000240: b458 95bc 7eb2 03bd 80ef 223d b94e 033d
00000250: 4758 f23b 5ba6 e339 e3f3 c23c f2d1 343d
00000260: edf5 82bb d225 19bc 99a5 39bd 472d 4a3c
00000270: 8f9b 91bc be95 bc39 5f7d 063d 53ea 43bc
00000280: 4870 223c fe03 a43c 70cb d33c e8f7 773c
00000290: 02bc 0c3d bd0c 403d 5a9e 5d3c 882f 633d
000002a0: 165d d7bc 37f6 01bb c161 6fbc 7ff1 133d
000002b0: d6f2 ca3c da6b 093d 9920 013c d190 b13c
000002c0: 0280 b1bc 86b0 30bd a049 79bc 8331 123d
000002d0: 30d0 483c 37f2 e43c f8c4 903c b5db 183c
000002e0: 5b87 d1bc a8f0 0ebd 03c0 3a3c d59a 08bd
000002f0: 2d04 813c cd6e 623d 2cf4 c3bb eb06 1f3d
00000300: 7ba3 1f3d 820b 9ebc 78c3 b03c 5132 7c3d
00000310: a766 003c 59e8 45bd 2772 b03b c234 cdbb
00000320: 0cd4 cfbc c0a7 873c 63d6 ad3c 92ed 6b3c
00000330: 52c4 e43c 7389 703c 7ee9 e8bb d898 4c3d
00000340: 6840 cf3c f0a0 efbb da32 9ebc 6205 9a3c
00000350: 370f 09bd 979c a03c 5ebd 2cbc 6806 ed3b
00000360: d001 f8bb 4178 8fbc a954 583d 6793 133d
00000370: 729b 523d 8745 c9ba 8f86 883b 547e ab3b
00000380: b191 af3c efc9 883c fd07 68bc 4bb9 b4bc
00000390: 6905 513d 3ddc f9bc 9cf8 dcbb 414c d3bc
000003a0: fa04 da3c 9064 f23c 437e 28bb dbde aabc
000003b0: 35f6 c4bc 6f02 a53d b8b4 54bc 5f3a 12bd
000003c0: 4c0c f0bb dec9 ed3c c0df 58bc 7a2b 043d
000003d0: f9e8 4c3c a098 9bbc 142b 4f3d 0c79 513d
000003e0: 4bad d93c d846 bd3c 0cf3 223d 65a9 ed3c
000003f0: a3ad 783c e37c 8abc fb06 72bb 1c45 6c3c
0.018796366 0.01482919 0.04414898 -0.016293941 -0.025061464 0.02293785 0.028213078 8.065789e-05
0.0475144 0.0033826262 0.022429401 0.011079298 -0.011469246 -0.03226533 0.028471164 -8.9904606e-05
0.034913767 -0.016152978 0.039832443 -0.051470175 -0.026094697 0.013102735 0.046185415 0.023843996
-0.018912634 0.039722145 0.019463357 0.049219776 -0.038414635 0.008199122 0.019729394 0.031031223
0.035590902 0.024898203 -0.04076296 0.025129298 0.009184749 -0.003977723 0.028769013 0.018088087
0.008410067 -0.041105434 0.009002647 -0.0016758525 -0.040170297 0.0313669 0.0135074165 0.043450862
-0.029228179 -0.028251613 0.04457581 0.025030917 -0.011295552 0.01028972 0.017715547 -0.027344856
-0.005044472 -0.029462853 -0.007898084 0.018379722 0.0014820548 0.032860573 -0.056893293 0.022202205
-0.06549734 0.05858706 0.039506894 -0.0272503 0.006317831 0.014898821 0.0037717798 -0.006279521
-0.044982698 0.029597325 0.03429323 0.02551612 0.04635254 0.0095777465 0.015462906 0.030239327
-0.007308368 0.024666479 -0.020681037 0.0439963 -0.022356994 0.0071337647 0.04531924 -0.009250574
0.012351411 0.03363552 0.05020709 0.006278822 0.015197485 0.02570633 0.011872177 -0.025391575
0.020334242 -0.025882222 0.015723756 -0.02718251 -0.0005581898 0.022086088 -0.008487581 0.031139387
0.018358232 -0.025678197 0.015311689 -0.033125956 0.0018491001 0.049153525 -0.013968143 -0.021896897
-0.05150812 0.021031518 -0.038223032 0.023679411 0.01647095 0.031197835 0.012808283 0.023866378
-0.01722236 -0.014939636 -0.042583153 0.033536285 0.02152145 0.022127686 -0.00091588683 -0.052573647
0.032301504 0.005942637 -0.00838258 -0.051702973 0.036085203 -0.024200868 0.03769878 0.018144125
-0.0042201355 -0.0058364035 0.020306753 -0.02494258 -0.03521529 0.036292214 -0.010839046 -0.0005996434
-0.018230774 -0.032152645 0.039779186 0.032057498 0.0073957774 0.00043420758 0.023797935 0.044145532
-0.003996602 -0.009347396 -0.04532394 0.0123398965 -0.017774371 0.0003596972 0.032834407 -0.011957723
0.009914465 0.020021435 0.025853842 0.015134789 0.034358986 0.04688715 0.0135265235 0.05546525
-0.026289504 -0.0019830593 -0.014610709 0.03611898 0.024773996 0.03355012 0.007881307 0.0216755
-0.021667484 -0.043137096 -0.0152153075 0.03569175 0.012256667 0.027947528 0.017672047 0.009329726
-0.025577238 -0.034897476 0.011398318 -0.033350784 0.015749061 0.05528145 -0.0059800353 0.038824957
0.038974266 -0.019292597 0.021577582 0.061571423 0.007836974 -0.048317287 0.005384702 -0.0062623927
-0.025369667 0.016559482 0.021220392 0.014399903 0.027925644 0.014681208 -0.0071079126 0.04995045
0.025299266 -0.0073128864 -0.019311357 0.018801395 -0.033461776 0.019605918 -0.0105431955 0.0072334297
-0.0075685754 -0.017513396 0.052815113 0.036029246 0.051417775 -0.0015355804 0.0041664313 0.0052335653
0.021431776 0.016697852 -0.014162061 -0.02206101 0.05103055 -0.030500526 -0.0067435037 -0.025793197
0.026613701 0.029588968 -0.0025710023 -0.020858219 -0.024043182 0.08057105 -0.01298254 -0.0357002
-0.0073256847 0.029026922 -0.01323694 0.032268025 0.012506717 -0.018993676 0.050578192 0.05114083
0.02657189 0.02310507 0.03978257 0.029011438 0.015178117 -0.016905254 -0.003693043 0.014420774

action_model._discrete_distribution.branches.0.bias f4 [3]
00000000: dcdb b8bc 77df c63c e8e5 04bb
-0.022565775 0.024276478 -0.0020278636

action_model._discrete_distribution.branches.1.weight f4 [3, 256]
00000000: d3ac be3b 4420 233c a24b 5a3b a414 e63b
00000010: a3d7 07bd 400a ed3c 862d 29bd 9525 2fbc
00000020: b59b b4bb 6ceb 69bc 6813 be3c d65d bc3c
00000030: 3e11 0fbd b6d3 e33b 45c7 8cbc 4ae5 94bc
00000040: 158d b03c 09a0 fb3b 0f86 a7bb a52e c43b
00000050: 067f 8bbb 069c 7eba c409 46bc 8b1a c2ba
00000060: 0259 743c f17f 9b3c 6775 653b 56be 56bc
00000070: a261 ea3a dcb9 01bd d8cd 373b fed8 243c
00000080: 12f7 f83c 1d7e c23c 0da4 4bbc 9d97 913c
00000090: 1504 493c 7432 983b 5a41 b9bc 464f 7c3c
000000a0: 81cb ca3a 5696 0f3d cac3 023c b83b 843c
000000b0: 6fdc 963c 2552 be3b e086 7fbb 13e7 f5bc
000000c0: 4bfc ae3b 9536 c83c 1cae 123b 9abd 27bc
000000d0: 8aa0 64bc ed29 4e3c dbe3 a13c c484 33bc
000000e0: fe58 d03b 263c d83c 2833 d13b 73f9 29bc
000000f0: d30f 55bc 6d79 f43b 4f48 7c3c 0cfd 9abc
00000100: ae1b 033c e34b 2a3d 8595 7fb8 c0a9 92bc
00000110: 1cc3 003d 7a47 0dbb bfcc b73c 7811 9f3b
00000120: 23fa febb 8f2f 043c cb98 c13b 4a45 b6bc
00000130: c161 d0bc 15da 00bd a129 663a 2509 67bc
00000140: 92c5 9cbb 6227 46bc 77e8 b2bc 7726 263d
00000150: 5587 01bb 95c5 773c cc73 d33c 2f77 633c
00000160: dd8f f6ba 039f 68bc 19b8 a0bc 1b74 bcbc
00000170: e23a 08bb a642 073d 4562 1d3b c593 8b3c
00000180: f2fd f139 d8a3 253c 411a f93c d322 813c
00000190: f241 cc3b 22d9 85bb 5d51 073c 5ef9 69bb
000001a0: d28c 973c b4f7 ed3a e73b debc 2f6c 69bd
000001b0: 427c d4bc daa2 41bc 570d 043c 00bc 793c
000001c0: 5ec5 7ebc 8d7c 783c f24c 133c 4c8c b8bb
000001d0: cdea 243b 4b4e bd3b 3184 2dbc ffbf 2e3c
000001e0: 062d 103d 0aa8 2d3a 1186 c93c e707 8a3c
000001f0: 13d1 e33c 6aa5 37bb f198 253c 8d91 523c
00000200: 3d45 393c c31d a83c de17 813c 090e d63a
00000210: 5e3d fdbc bf70 023d 0cda 073d 0250 59bc
00000220: 770c 2fbc 8009 103c 8832 2d3c 0934 9f3c
00000230: d512 473c e0be 53bc de6c c9bb 6d16 7a3c
00000240: 2e90 5e3b 8dc4 2cbc 5a08 b4bc 69a6 34bc
00000250: e8ea 883b 5eb3 8c3c 872d c4bc b39f f83c
00000260: a52e 2d3c 52ed fbba 4e00 e7bb 18d7 323d
00000270: 581c a0bb d331 0c3d 9c6b 303c 6cb4 063c
00000280: 0d3b e53b c691 383c df9b 8ebc 3522 b5bc
00000290: df2a 303c 8cf4 16bc c954 09bc e20c 003c
000002a0: 37a2 a5bb ecb3 9a3a e4ab 9b3c ce81 673c
000002b0: 87cf 78bc 99af 263d aaa5 3f3b 991e b8ba
000002c0: 9d96 b43c e480 393c bb78 953c 2b93 dabc
000002d0: 21f3 c4bb 6f3b a63c 14a5 97bc c49e 32bc
000002e0: a356 023d f6d1 11bd dbeb c9ba 4106 b8bc
000002f0: 25cc 113d 1153 a9bc 12f9 c83c 7695 7f3c
00000300: b9d3 303c f476 d1bc 7022 85bb 0a94 af3c
00000310: 0714 483c 921a 9a39 71f2 13bc 38f6 bcb8
00000320: b1ae 07bd 5214 88bc 95ed c93c 9858 1e3d
00000330: c853 ec3b affc 353c 18ec 783b e218 db39
00000340: 7b6b fa3b 4f6f d9bb 4e8f 933c a48e 9fbc
00000350: 148c 3cbb 8d96 fa3c f368 9a3c b20f 8fbb
00000360: 926a 7d3c 275a 80ba 17e3 b0bc 48a5 2a3c
00000370: dfcc 8b3c b29d a13a 8a58 dabc d299 34bc
00000380: 5b6d 1e3d 6475 3ebd ba06 01bc 68a2 d43c
00000390: f107 89bc c75a 8bbb 4f9e cc3b 1a70 c43b
000003a0: ec1b 98bc 76a3 a8bb 5a88 9d3c 3c76 ebbc
000003b0: 6b49 ac3c 0101 10ba 3e85 b93c 2c2b 983c
000003c0: bb0e ed3b 6983 123c 7a0d 4fba 37d4 423c
000003d0: 9161 da3c d573 c4bb b23b f33c f069 f53b
000003e0: 89f8 053c ba9a 9d3c 10c4 413b 05e1 61ba
000003f0: 2142 3c3c a32b 16bc a8bb e8bc 476e 0dbd
0.005818942 0.009956423 0.003330924 0.0070215035 -0.03316463 0.028935552 -0.04130318 -0.010690113
-0.005511726 -0.01427732 0.023202613 0.022993963 -0.034928553 0.006952728 -0.017184863 -0.01817574
0.021551648 0.00767899 -0.0051124166 0.005987006 -0.0042570857 -0.00097125804 -0.012087289 -0.0014808936
0.014913799 0.018981906 0.0035012604 -0.013106903 0.001788188 -0.03167139 0.0028046276 0.010061501
0.03039125 0.023741776 -0.0124292495 0.01777249 0.01226904 0.0046446864 -0.02261417 0.01539976
0.0015472026 0.03505548 0.00798125 0.016141757 0.018415658 0.0058081322 -0.0038990304 -0.030017411
0.0053401343 0.02444009 0.002238161 -0.010238076 -0.013954291 0.012583238 0.01976197 -0.010956947
0.006358265 0.026395869 0.006384272 -0.010374415 -0.013004261 0.007460764 0.015398099 -0.01891949
0.008002205 0.041576277 -6.093599e-05 -0.017903209 0.03143607 -0.0021557496 0.022436498 0.0048543774
-0.0077812835 0.0080679795 0.005908107 -0.022249836 -0.025437238 -0.03145798 0.0008780007 -0.014101301
-0.0047842944 -0.0120943505 -0.021839364 0.040564027 -0.0019764502 0.015122791 0.025812052 0.013883396
-0.0018811185 -0.014198068 -0.019619035 -0.023004582 -0.002078705 0.033022545 0.0024014872 0.017038235
0.00046156306 0.010109864 0.030408027 0.015763676 0.006233447 -0.004084722 0.008259145 -0.0035701613
0.018499766 0.0018155486 -0.027128173 -0.056987938 -0.025938157 -0.011818612 0.008059821 0.015242577
-0.015549986 0.015166414 0.008990513 -0.005631959 0.0025164366 0.0057771555 -0.010590599 0.010665893
0.035199188 0.0006624466 0.02460006 0.016849471 0.027809655 -0.0028022178 0.010107265 0.012852085
0.011308012 0.020522004 0.015758451 0.0016331087 -0.030913051 0.031845804 0.03316693 -0.013263704
-0.010684124 0.0087913275 0.01057113 0.019433992 0.012150486 -0.012923926 -0.006147011 0.015264136
0.003396045 -0.010544908 -0.021976639 -0.011026003 0.0041783936 0.017175373 -0.02394749 0.030349588
0.010570203 -0.0019220507 -0.007049597 0.04366216 -0.0048861913 0.034227204 0.010767844 0.008221727
0.006995565 0.011265224 -0.01740831 -0.022111038 0.010752409 -0.009213578 -0.008382031 0.0078155715
-0.005054738 0.0011802888 0.019002862 0.014130069 -0.015186197 0.040694807 0.002924303 -0.0014047205
0.022044474 0.011322234 0.018246045 -0.026681503 -0.0060104285 0.020292012 -0.018511333 -0.0109021105
0.031820904 -0.035600625 -0.0015405373 -0.02246392 0.035595078 -0.020669492 0.024532828 0.015599599
0.010792666 -0.025569417 -0.004062943 0.021432895 0.012211806 0.00029392965 -0.0090299705 -9.0104004e-05
-0.033125583 -0.016611252 0.02464942 0.03865871 0.007212136 0.011107608 0.003798252 0.00041789474
0.007642207 -0.0066355835 0.018012669 -0.019477196 -0.0028770017 0.030589366 0.018848872 -0.0043658847
0.015467303 -0.0009792492 -0.02159266 0.010415383 0.017065464 0.0012330322 -0.026653547 -0.011023002
0.03867851 -0.04649867 -0.007875139 0.025956348 -0.01672742 -0.004252765 0.006244458 0.005994809
-0.018568002 -0.005146439 0.019230057 -0.028742902 0.021031102 -0.00054933137 0.022646543 0.018575273
0.007234422 0.008942463 -0.00078984315 0.011891416 0.026657851 -0.0059952536 0.02969155 0.0074894354
0.008176931 0.019238818 0.0029566325 -0.00086165994 0.011490376 -0.009165677 -0.028409794 -0.034528997

action_model._discrete_distribution.branches.1.bias f4 [3]
00000000: a616 2dbc 1917 b23c 5ff8 19bc
-0.010564482 0.02173953 -0.009397595

action_model._discrete_distribution.branches.2.weight f4 [2, 256]
00000000: 7ec8 093c 1a67 0a3d c446 0f3d 23df a3bb
00000010: 619c dc3c a7a6 bc3b 827b 623c 3bf6 cabc
00000020: 0027 383c b2ba 023c 212f d43c 8291 bcbb
00000030: 4fc6 7e3c a094 37bc 4cf6 343d b4e5 be3c
00000040: d882 ee3c 2262 e6bb 394f 29bc 6e15 f63b
00000050: 117f 883c 2b16 73bc 4dce 86bc 5152 8a3a
00000060: dbc6 9c3c b649 103d 4b94 b039 29a2 0d3c
00000070: 97f4 033c c002 c83c e0d6 593b 35f5 c93c
00000080: d88c c93c 7734 55ba 01c9 283d e4cd c33c
00000090: 55b7 ee3c 3d4d e63b 7101 a43c f589 85bc
000000a0: 4efa 983b 1c7f 1dbb 16db e5bb c237 ecb9
000000b0: 9ca2 41bc 156a 92bc b13f 0a3d ad8a b63c
000000c0: a87b afbb c0e9 58bb b532 94bc 2194 0ebc
000000d0: fc00 ce3c 06d6 17bc 17ff 083d 42f2 d13c
000000e0: 429a ac3c 00c0 063c 6c9d ec3a 4e45 d43b
000000f0: d8e5 773c 1f32 4e3c 8041 193c 8102 8f3c
00000100: 0d09 403c b2fd 3e3c 9d15 22bc 74ac 943c
00000110: 4b06 44bc 542c 6fbc 5992 2abc f6d1 4dba
00000120: 8fb4 9a3c c9b9 193b 7e11 073d 8b15 c13b
00000130: f128 9a3c 3b09 b03c 2e79 52bb 18e0 053c
00000140: 206e 3fbb f47b 6bbc db98 863c 04c4 df3c
00000150: f31a 723c 9c96 853c b33b 263c a48a 89bb
00000160: eab2 f33c b507 4d3c 0c80 863c bc22 063d
00000170: 010f 31bb f056 5b3c dce3 8c3c d1df efba
00000180: e04f 67b9 5968 9e3c 6918 c23b 2e32 833b
00000190: 76a1 e2bc 9841 a2bc 17a7 95bc 3749 45bc
000001a0: c5d0 1d3b e6f8 953b a4b8 133c 6631 683c
000001b0: 75f3 243c 5361 39bc d8b0 30bc 3687 f4b9
000001c0: 831c fb3c d366 153d 152f 483c c3ec cb39
000001d0: 2d49 ddba 1939 a23c ab1d a43c 28ec e9bb
000001e0: 101c 4bbb 6fd4 443c afbb 0dbc ed4e 56bc
000001f0: 04eb 82bc 9512 4ebc a3a9 5cbc 2620 e83c
00000200: e065 643c 244f 5dbb 61f2 a6bc 78e7 e43c
00000210: 5a83 b93c 8877 9c3b 7384 cd3c 2bfb b3bc
00000220: b257 6cbb dd1b bd3b e3c9 a23c f3e2 513c
00000230: 424e 973b 3bbd e0ba c729 2c3c 4fdf 3abc
00000240: c47e 803c cbc6 56bc 64da 49bb 867f 9bbc
00000250: d850 3a3c 4044 e2bc a8f9 983c 179e 2c3d
00000260: f175 cb3c a78f 313c bebc 153c 0226 e83b
00000270: 99d2 f53b 7b47 5abc 303e b5bc 7584 083c
00000280: 1d97 00bc 4045 8a3c 2c53 80bb 5a74 f3bb
00000290: 9608 92bc 7054 943b 7fb9 ec3c e806 c73c
000002a0: 1670 5a3c 30f2 f63c f461 30ba b5e7 2c3c
000002b0: 71eb 943c c172 9d3c d295 1c3d ef64 0cbc
000002c0: 64c1 cdbb 0b4a 3fbc 7776 ea3b 9704 1f3c
000002d0: fde9 e8bb e759 14bb 8ac4 0c3c 5e1a 67bc
000002e0: 1be5 8eba f53c 8a3d a812 793c b6a5 973c
000002f0: f5f8 383b 2dc8 6dbc 7c27 a1bb 85d6 c7bc
00000300: dda5 173d 582e d83c 0f1a c5bc a8b7 9d3c
00000310: db3d a33a 3b4c 163c 42b4 7ebc 1705 bf3b
00000320: e492 db3c 3969 0e3d fc32 58bc f3e5 debb
00000330: aa35 89bb c29b a5bc 754e 7a3c faa6 c23c
00000340: 4465 47ba 5ab1 b73c 2ec9 303c cd48 a03c
00000350: 9923 9e3c 4405 823c 5ea3 9f3c aade 9a3c
00000360: eef8 153d 2009 1e3c ae8f b83c 30ff f4b9
00000370: 105d cc3c 636c a63b 4d3f a3b9 5c70 65bc
00000380: bfb9 f6ba 379f ab3a 570e 8ebb 14b6 01b7
00000390: c94b 863c 7ca0 603c be4f 003c c5f9 833c
000003a0: 817e 013c 1748 61bc 6be2 2ebc 37d1 4b3d
000003b0: 422e 2bbc aa70 d13c 66be 68bc b7dd b8bb
000003c0: 7fdc 86bb 4dc6 b6bc 8582 bd38 9288 c8bb
000003d0: 91e1 bf3c fc20 b83b 7d4c b93c 20ee 6b3c
000003e0: 099e b03c febd 81bc 2d83 133c 8651 d63c
000003f0: 0752 bf39 d297 783c a5f5 0a3d 2b33 7a3c
0.0084096175 0.03378973 0.034979597 -0.005000965 0.026930036 0.005757171 0.013823392 -0.024775615
0.011239767 0.007979082 0.025901379 -0.0057546506 0.01555021 -0.011204869 0.0441802 0.02330289
0.029115126 -0.0070307413 -0.01033383 0.007509879 0.016662152 -0.014836828 -0.016455794 0.0010553097
0.01913779 0.035226546 0.00033679823 0.008644619 0.00805392 0.024415374 0.0033239648 0.024653057
0.024603292 -0.0008133123 0.041207317 0.023901887 0.029140154 0.0070282505 0.020020219 -0.016301135
0.0046685105 -0.0024032062 -0.0070146425 -0.0004505497 -0.011818554 -0.01787285 0.033752147 0.022282923
-0.005355317 -0.003309831 -0.018090585 -0.008702309 0.025146954 -0.009267336 0.033446398 0.025628213
0.02106965 0.008224487 0.0018052286 0.0064779883 0.015130483 0.012585192 0.009353995 0.017457249
0.011720908 0.011657165 -0.009892848 0.018148638 -0.011964391 -0.014597971 -0.010410869 -0.0007851416
0.018884925 0.0023456684 0.032975666 0.0058924607 0.01881835 0.021488776 -0.0032115686 0.008171104
-0.0029209927 -0.014372814 0.016430309 0.027315147 0.014776933 0.016307168 0.010146069 -0.0041974355
0.029748399 0.0125140445 0.01641848 0.03274797 -0.0027017 0.013387427 0.017198496 -0.0018300955
-0.00022059632 0.019336866 0.00592332 0.0040037846 -0.027664881 -0.019806668 -0.018268151 -0.012041382
0.0024080735 0.00457679 0.00901619 0.014171934 0.01006781 -0.011314708 -0.01078435 -0.00046640047
0.030653244 0.036475014 0.0122182565 0.00038895578 -0.001688277 0.019802617 0.020033678 -0.0071387477
-0.0030992068 0.012013539 -0.008650704 -0.013080341 -0.015981205 -0.0125776725 -0.013468179 0.028335642
0.0139403045 -0.0033769095 -0.020379247 0.027942404 0.022645641 0.0047749914 0.02508757 -0.021970352
-0.0036063013 0.005771144 0.019871658 0.012810457 0.0046174834 -0.0017146239 0.010508007 -0.01140578
0.015685447 -0.013108919 -0.0030800337 -0.018981706 0.011371814 -0.027620435 0.018673733 0.042142954
0.024836512 0.010837472 0.009139238 0.007084609 0.007501912 -0.013322706 -0.02212438 0.0083323615
-0.007848528 0.016878724 -0.003916165 -0.0074296417 -0.01782636 0.0045266673 0.028897045 0.024295285
0.013332387 0.03014478 -0.00067284633 0.01055329 0.018178673 0.019219758 0.038228817 -0.008568986
-0.0062791575 -0.011675368 0.0071552354 0.009705684 -0.0071079717 -0.0022636594 0.00859178 -0.0141054075
-0.0010902019 0.06749908 0.015202202 0.018511634 0.0028224562 -0.014513058 -0.004918037 -0.024394283
0.037023414 0.026389286 -0.024060277 0.019252613 0.0012454347 0.009173448 -0.0155459065 0.005829464
0.026803441 0.034768317 -0.013195749 -0.0068023144 -0.0041873055 -0.020215873 0.015277495 0.023761261
-0.00076063373 0.022423435 0.0107901525 0.019565964 0.019304084 0.015871651 0.01948708 0.018905003
0.03661435 0.00964573 0.02252945 -0.00046729436 0.02494672 0.0050788387 -0.00031136945 -0.014003839
-0.0018823667 0.0013093714 -0.0043352055 -7.7313925e-06 0.016393559 0.013710137 0.007831512 0.01611031
0.007903696 -0.013750098 -0.010674099 0.04976007 -0.01044804 0.025566418 -0.014205551 -0.005641665
-0.0041156407 -0.022311354 9.0365334e-05 -0.006119796 0.023422988 0.0056191664 0.02261948 0.014400035
0.021559732 -0.015837666 0.009003443 0.02616192 0.00036491474 0.0151729155 0.03392567 0.015270988

action_model._discrete_distribution.branches.2.bias f4 [2]
00000000: 5a82 21bb 3482 213b
-0.0024644346 0.0024644258
