results/MoveToButton_2/ButtonPress.onnx (onnx, 352736 bytes, 13 tensors)

discrete_act_size_vector f4 [1, 4]
3.0 3.0 2.0 2.0
00000000: 0000 4040 0000 4040 0000 0040 0000 0040

network_body._body_endoder.seq_layers.0.weight f4 [256, 65]
0.06349189 -0.1709137 0.18798131 -0.008493003 -0.06573927 -0.15276349 -0.05912523 -0.19659105
0.0023228272 0.0140178185 0.0016725333 -0.2923666 -0.1307794 0.058120534 0.08403501 -0.17441349
0.0786142 0.0725181 -0.13546686 0.040358596 0.0827009 0.107560135 -0.092730924 -0.10189734
0.011228534 -0.001652226 0.120597236 0.03218267 -0.3341669 -0.16681805 0.34472936 0.020382581
-0.010387244 -0.036664072 -0.09698554 -0.2350908 -0.025037093 0.08007586 0.2783603 0.12716526
-0.0020243067 -0.02941834 -0.0100982245 0.2773222 -0.09844037 -0.10662583 -0.048962463 0.0033380764
0.23891592 -0.054171976 0.07557408 0.043373507 -0.30230215 0.0810545 0.071361355 -0.058293205
-0.024011493 0.03257479 -0.111686334 -0.07498595 -0.23207054 -0.15700096 -0.17006874 0.25310552
-0.124323756 -0.095228165 0.0477557 -0.13804516 -0.0599075 0.15394847 0.07019404 -0.14099488
0.013470056 -0.04392745 -0.07855565 0.06933136 0.20347999 0.039344296 -0.2381085 0.14164554
-0.30927214 -0.16443203 -0.21494375 -0.11704394 0.24696968 0.18763912 -0.08474405 0.15797473
-0.021905348 0.024489477 -0.10403046 0.18750924 -0.12813036 -0.18114433 0.18797235 -0.10397385
-0.16239998 0.16289543 -0.01696949 0.07777593 -0.07056021 -0.12990078 0.2428961 0.10976802
0.04916572 -0.08210772 0.083088435 -0.092836104 -0.20579283 -0.13979965 -0.12320421 -0.1747259
0.20218822 0.11586322 0.010798481 -0.1529223 0.011391581 -0.15545744 -0.33256897 -0.061109927
-0.15068929 0.16267432 0.017303616 0.055140525 -0.04226698 -0.22145472 0.16231786 0.15061899
0.15940543 0.21614358 0.085225455 -0.1112121 0.042577166 0.07294141 -0.12885666 0.24619502
0.14385195 -0.07220482 -0.019316152 0.19385014 0.11356467 -0.1807319 -0.050336543 0.17196947
-0.11846902 0.14618106 -0.009300306 -0.06110342 -0.10579202 0.22738002 -0.28990182 0.31228527
-0.019768998 0.10213958 0.1329205 0.19462232 0.06919486 -0.16920868 -0.07655605 0.055014372
0.094159186 0.02596348 0.12553827 0.10404041 0.109614246 -0.14458868 -0.11915728 0.021286167
-0.09638537 0.2029269 -0.0004347066 0.30208534 -0.20498443 -0.2274999 -0.047421157 -0.14873861
-0.06266421 -0.027027182 0.057387143 -0.056740727 -0.2664179 0.3786237 -0.027584221 -0.15522373
-0.11986686 0.062299456 -0.028424228 0.101160884 -0.051970877 0.01337945 -0.036514863 -0.015012923
0.020073988 -0.050151475 -0.12816873 -0.035758372 -0.0652669 0.021093313 0.08214792 0.15821669
-0.22058763 0.16594946 0.15523528 0.13545276 -0.08974123 0.030297095 0.08712104 -0.06373145
0.10431162 -0.16789061 -0.015381156 0.11352482 -0.014207235 -0.09372022 -0.19386578 0.05953966
0.1852298 -0.13878125 -0.09693147 0.13642335 0.0033196325 0.14253041 -0.27920493 -0.03283883
-0.091334194 0.23830764 0.17783552 -0.062718906 -0.044130445 -0.016961701 0.10415474 -0.15341297
-0.1281075 -0.022435643 -0.1578511 -0.08551213 -0.09857525 0.21336569 0.0033000673 0.08701887
-0.035681043 0.019375496 -0.1309548 -0.06424787 0.14728858 -0.060695898 0.057801444 0.11814782
0.1274952 0.088038735 -0.08390974 -0.09362531 -0.07401991 0.002274272 0.11621195 0.35606828
00000000: 0908 823d 0004 2fbe 2c7e 403e 3d26 0bbc
00000010: 4fa2 86bd 086e 1cbe 4c2d 72bd 2a4f 49be
00000020: 933a 183b feaa 653c e838 db3a 13b1 95be
00000030: 09eb 05be cc0f 6e3d 8c1a ac3d 7399 32be
00000040: 7b00 a13d 5f84 943d d3b7 0abe 0e4f 253d
00000050: 175f a93d 7d48 dc3d b6e9 bdbd 8daf d0bd
00000060: e3f7 373c 818f d8ba affb f63d fad1 033d
00000070: ed17 abbe 5ad2 2abe 5e80 b03e 5ff9 a63c
00000080: 422f 2abc 112d 16bd 5ba0 c6bd a5bb 70be
00000090: 971a cdbc d0fe a33d 3e85 8e3e 9c37 023e
000000a0: 3baa 04bb bbfe f0bc 0673 25bc 2dfd 8d3e
000000b0: 1b9b c9bd a55e dabd dd8c 48bd a1c3 5a3b
000000c0: 60a6 743e 6fe3 5dbd 95c6 9a3d 6ba8 313d
000000d0: 59c7 9abe e7ff a53d e725 923d dbc4 6ebd
000000e0: c0b3 c4bc 256d 053d cebb e4bd 3c92 99bd
000000f0: e6a3 6dbe dcc4 20be 8026 2ebe 0c97 813e
00000100: 749d febd fc06 c3bd 7b9b 433d b65b 0dbe
00000110: 9161 75bd aba4 1d3e e5c1 8f3d f660 10be
00000120: 82b1 5c3c 45ed 33bd c9e1 a0bd 9afd 8d3d
00000130: 0f5d 503e 7c27 213d b7d2 73be 870b 113e
00000140: eb58 9ebe df60 28be 371a 5cbe bcb4 efbd
00000150: 9fe5 7c3e 7824 403e 4a8e adbd 21c4 213e
00000160: d872 b3bc 289e c83c ec0d d5bd 6c02 403e
00000170: 9b34 03be e67d 39be d37b 403e 3ef0 d4bd
00000180: 2e4c 26be 0fce 263e 9a03 8bbc fd48 9f3d
00000190: df81 90bd b604 05be c1b9 783e 0ece e03d
000001a0: fe61 493d 1828 a8bd 452a aa3d db20 bebd
000001b0: 5bbb 52be a427 0fbe 7d52 fcbd 59eb 32be
000001c0: 6e0a 4f3e b249 ed3d 1dec 303c aa97 1cbe
000001d0: c1a3 3a3c 3c30 1fbe 7b46 aabe 674e 7abd
000001e0: 4b4e 1abe 1994 263e 50c0 8d3c 08db 613d
000001f0: 2420 2dbd 07c5 62be a736 263e dd3b 1a3e
00000200: 2d3b 233e be54 5d3e af8a ae3d 2bc3 e3bd
00000210: 6565 2e3d 4e62 953d 00f3 03be 8c1a 7c3e
00000220: ed4d 133e 1fe0 93bd e83c 9ebc a780 463e
00000230: 9894 e83d c811 39be b12d 4ebd c418 303e
00000240: e39f f2bd 7db0 153e 5060 18bc 9447 7abd
00000250: 7da9 d8bd 4fd6 683e 036e 94be dbe3 9f3e
00000260: 98f2 a1bc 8e2e d13d 501c 083e 134b 473e
00000270: 09b6 8d3d 0a45 2dbe 6bc9 9cbd c056 613d
00000280: 88d6 c03d 5db1 d43c 1b8d 003e 2313 d53d
00000290: 6f7d e03d 0e0f 14be bb08 f4bd 5460 ae3c
000002a0: b165 c5bd 12cc 4f3e 55e9 e3b9 eeaa 9a3e
000002b0: 70e7 51be bcf5 68be b03c 42bd ef4e 18be
000002c0: 1856 80bd 1c68 ddbc c80e 6b3d f768 68bd
000002d0: ed67 88be f7da c13e 4ef8 e1bc f8f2 1ebe
000002e0: c27c f5bd b72d 7f3d edd9 e8bc 702d cf3d
000002f0: 6adf 54bd 7b35 5b3c 9c90 15bd c3f8 75bc
00000300: 3472 a43c a26b 4dbd aa3e 03be 5f77 12bd
00000310: a7aa 85bd e2cb ac3c 2b3d a83d 8e03 223e
00000320: b9e1 61be a8ee 293e fff5 1e3e 21b4 0a3e
00000330: 40ca b7bd 9d31 f83c 846c b23d a285 82bd
00000340: 55a1 d53d 84eb 2bbe 3e01 7cbc b37f e83d
00000350: 76c5 68bc 63f0 bfbd c084 46be dcdf 733d
00000360: e1ac 3d3e ac1c 0ebe 0284 c6bd 90b2 0b3e
00000370: 318e 593b 7ef3 113e f3f3 8ebe 0282 06bd
00000380: 6c0d bbbd eb06 743e 841a 363e c572 80bd
00000390: 20c2 34bd 44f3 8abc 154f d53d 4a18 1dbe
000003a0: 9d2e 03be f4ca b7bc b8a3 21be fc20 afbd
000003b0: d2e1 c9bd 897c 5a3e f145 583b f336 b23d
000003c0: 4926 12bd 5cb9 9e3c 0419 06be 6394 83bd
000003d0: d1d2 163e 439c 78bd 35c1 6c3d 7cf7 f13d
000003e0: 1a8e 023e a74d b43d dfd8 abbd a0be bfbd
000003f0: c097 97bd f40b 153b 8800 ee3d 954e b63e

network_body._body_endoder.seq_layers.0.bias f4 [256]
0.005643878 -0.00367476 0.017479315 0.04544987 -0.015562645 -0.015538388 0.0039344463 -0.010500232
0.017562397 -0.026672069 -0.0067344275 -0.013743018 -0.015262323 0.011876885 -0.032741357 -0.023950057
-0.025886388 0.021688819 -0.008005295 0.01992895 -0.011061799 0.022818604 -0.022414302 -0.02827552
0.0022599068 0.008427865 0.067830615 -0.03241912 -8.162034e-05 0.06300962 -0.02630678 0.002455477
-0.014140778 0.009543643 -0.019041827 0.015111503 -0.03965642 0.0033791957 -0.10533622 -0.06615148
0.019300109 -0.02923572 -0.037839882 0.0148359975 -0.014835283 -0.0063919523 0.029832868 0.02809065
0.010222922 0.012145328 -0.04811414 -0.028779373 -0.0051200152 0.013688302 -0.039745074 0.018272825
0.00664937 0.0014488625 -0.015609148 0.035896342 -0.0013924849 0.0033506076 0.047343876 0.015521018
0.014574082 -0.006542422 -0.048562057 -0.0073438366 0.028522 0.03291063 0.0036343231 -0.054072924
-0.017848182 -0.05007317 -0.02846548 -0.0013271559 -0.02466055 -0.03747196 -0.0035182482 -0.06711481
0.0052589756 -0.000996468 -0.0015281909 -0.009147496 0.005874051 0.0062494483 -0.02266823 -0.007365394
-0.022536632 -0.006123008 -0.026153382 0.04959461 0.011532877 0.001402152 -0.034899954 -0.022278227
-0.01241111 -0.034704465 -0.0033204446 -0.069223315 -0.011504708 -0.0046986034 0.008635983 0.013581875
-0.07792828 0.0047747726 0.03543983 0.007671702 -0.0011005263 0.005465361 -0.04017356 0.002200576
-0.012234435 -0.053381965 -0.024697172 -0.004429237 -0.09220345 -0.031942353 -0.0035207618 -0.022433342
0.0021155153 0.031106018 0.02254638 -0.026765525 -0.023170233 0.022662412 -0.03511075 -0.021996038
-0.027938414 -0.021548579 -0.013615816 0.014870705 -0.02731496 -0.015562498 -0.009095672 0.012063932
-0.021723026 -0.036772586 -0.018181693 0.004609938 -0.010805656 -0.015134427 0.020562919 0.0005463371
-0.035480723 0.024807667 0.006518174 -0.015262819 -0.034772918 -0.017066102 -0.019698083 -0.008813574
-0.007902749 0.009196207 -0.039959814 -0.03321836 -0.027289981 -0.009234984 -0.009367041 -0.014817461
-0.016369257 0.0026708916 -0.03744514 -0.01993792 0.050527833 -0.036093067 -0.0006756425 -0.02552614
-0.011105071 0.009906335 -0.01983327 -0.013821351 -0.017076291 -0.12791322 -0.029082395 0.020384856
0.01317355 -0.017107645 -0.0117074065 0.006962208 0.00029144486 -0.009176622 0.017669994 -0.012811409
-0.006879421 -0.016378755 -0.011526144 -0.003846114 0.0028189993 -0.00096594746 0.00585697 -0.002022469
-0.004162062 -0.04326886 0.0095378645 0.012529566 0.02481315 0.0048467065 0.0059554083 -0.029057551
-0.036835343 -0.005506674 -0.03950156 -0.033744168 -0.0488764 0.044019174 -0.017536486 -0.0048827296
-0.023014797 0.014392694 -0.04136123 0.015725741 0.017670572 0.010380807 -0.022720393 -0.031014126
0.01570505 0.018056082 -0.016239045 -0.02137025 -0.02637589 -0.0071095 -0.008028777 -0.017718954
0.012434777 -0.042075202 -0.03550703 -0.040820807 -0.013903024 -0.016745802 0.019657796 -0.009306669
-0.02467816 -0.0077391327 -0.014332216 -0.026283348 -0.008241092 -0.0676961 -0.0075033177 -0.024759224
-0.013729284 0.019474965 0.022662118 -0.022511771 -0.048715197 -0.010484933 0.023790758 0.037227828
0.0046110186 0.011056563 0.0060669566 0.00033783747 0.019838747 -0.030353999 -0.024665374 -0.015845368
00000000: 48f0 b83b 3ed4 70bb c830 8f3c a529 3a3d
00000010: 77fa 7ebc b994 7ebc 87ec 803b 2a09 2cbc
00000020: 04df 8f3c 627f dabc 79ac dcbb 652a 61bc
00000030: d30e 7abc 4497 423c cd1b 06bd e932 c4bc
00000040: b10f d4bc c0ac b13c a428 03bc 0a42 a33c
00000050: 8c3c 35bc 15ee ba3c 339e b7bc 10a2 e7bc
00000060: f21a 143b 0715 0a3c c7ea 8a3d e9c9 04bd
00000070: 962b abb8 300b 813d 5181 d7bc 11ec 203b
00000080: b9ae 67bc f15c 1c3c 9bfd 9bbc 3d96 773c
00000090: c56e 22bd 7f75 5d3b 84ba d7bd 6d7a 87bd
000000a0: 431b 9e3c c07f efbc fefd 1abd af12 733c
000000b0: b00f 73bc 9573 d1bb 0f64 f43c 5d1e e63c
000000c0: 0b7e 273c 33fd 463c 5513 45bd b8c2 ebbc
000000d0: cdc5 a7bb e644 603c bbcb 22bd e4b0 953c
000000e0: f5e2 d93b c2e7 bd3a 83bd 7fbc 0b08 133d
000000f0: 0a84 b6ba de95 5b3b a7eb 413d de4b 7e3c
00000100: 21c8 6e3c d061 d6bb 02e9 46bd 91a4 f0bb
00000110: f8a6 e93c 4ccd 063d d32d 6e3b 927b 5dbd
00000120: 5a36 92bc 8619 4dbd 7030 e9bc f6f3 adba
00000130: ec04 cabc 337c 19bd 6992 66bb 7d73 89bd
00000140: 7c53 ac3b eb9b 82ba 944d c8ba 61df 15bc
00000150: 1c7b c03b 2cc8 cc3b b9b2 b9bc 6759 f1bb
00000160: be9e b8bc 84a3 c8bb 9e3f d6bc b823 4b3d
00000170: 64f4 3c3c 6ac8 b73a 41f3 0ebd d480 b6bc
00000180: f857 4bbc 4526 0ebd d19b 59bb f4c4 8dbd
00000190: 3e7e 3cbc bef6 99bb f07d 0d3c 8386 5e3c
000001a0: dd98 9fbd b275 9c3b 5b29 113d e762 fb3b
000001b0: 893f 90ba c516 b33b 088d 24bd 8a37 103b
000001c0: f172 48bc 0ca7 5abd b951 cabc 2223 91bb
000001d0: 2ad5 bcbd fcd5 02bd 95bc 66bb 21c6 b7bc
000001e0: 75a4 0a3b 0cd2 fe3c 30b3 b83c 6043 dbbc
000001f0: 80cf bdbc 86a6 b93c 4ad0 0fbd 0931 b4bc
00000200: 1adf e4bc a586 b0bc df14 5fbc 42a4 733c
00000210: 9fc3 dfbc d9f9 7ebc 0306 15bc cca7 453c
00000220: 7df4 b1bc da9e 16bd c6f1 94bc f60e 973b
00000230: 350a 31bc 63f6 77bc 9173 a83c 1038 0f3a
00000240: 3c54 11bd 7339 cb3c 6896 d53b e710 7abc
00000250: 0c6e 0ebd 36ce 8bbc e05d a1bc cf66 10bc
00000260: 887a 01bc b0ab 163c e7ac 23bd fa0f 08bd
00000270: 3d8f dfbc 554e 17bc 3878 19bc f0c4 72bc
00000280: d218 86bc 200a 2f3b 1360 19bd d954 a3bc
00000290: 46f6 4e3d 53d6 13bd 9a1d 31ba 321c d1bc
000002a0: 0bf2 35bc 2e4e 223c 6279 a2bc f372 62bc
000002b0: 94e3 8bbc affb 02be 343e eebc 24fe a63c
000002c0: e0d5 573c 5525 8cbc 6cd0 3fbc 3c23 e43b
000002d0: 11cd 9839 8b59 16bc aac0 903c f2e6 51bc
000002e0: c46c e1bb bd2c 86bc 27d8 3cbc 160f 7cbb
000002f0: f6be 383b a337 7dba d3eb bf3b 668b 04bb
00000300: e861 88bb b03a 31bd b444 1c3c cf48 4d3c
00000310: f244 cb3c 1fd1 9e3b 9625 c33b 1a0a eebc
00000320: a8e0 16bd 5471 b4bb 63cc 21bd 5337 0abd
00000330: 9f32 48bd 734d 343d ada8 8fbc 4eff 9fbb
00000340: 8789 bcbc 56cf 6b3c 656a 29bd 45d3 803c
00000350: e0c1 903c 4314 2a3c 1e20 babc 5611 febc
00000360: e1a7 803c 59ea 933c bf07 85bc aa10 afbc
00000370: 4012 d8bc cff6 e8bb 228b 03bc 5727 91bc
00000380: 3cbb 4b3c 0c57 2cbd d26f 11bd b833 27bd
00000390: 82c9 63bc 7e2e 89bc 6309 a13c 007b 18bc
000003a0: da29 cabc 8d98 fdbb acd1 6abc 2d50 d7bc
000003b0: a505 07bc 41a4 8abd 64de f5bb dbd3 cabc
000003c0: caf0 60bc f689 9f3c e8a5 b93c 9b6a b8bc
000003d0: 9689 47bd ffc8 2bbc d6e4 c23c 357c 183d
000003e0: 0718 973b 9626 353c 52cd c63b c71f b139
000003f0: de84 a23c f3a8 f8bc 0a0f cabc 25ce 81bc

network_body._body_endoder.seq_layers.2.weight f4 [256, 256]
-0.026067099 -0.08760595 -0.06853158 -0.07777124 -0.0921137 0.1173088 -0.030577842 -0.022517228
0.0072051836 -0.12871182 -0.07179859 0.015231188 0.05948498 0.09482145 0.09108357 0.089163736
-0.030955344 -0.16590202 0.013883793 -0.031707697 0.0369563 -0.07277699 -0.08606277 0.083512925
-0.14135578 0.061372846 0.002987539 -0.043325726 0.006122179 -0.22791143 0.024766516 -0.011197381
-0.008246347 0.08853013 0.029583141 -0.07025695 -0.084546275 0.094232574 0.12616538 0.019350097
0.04914201 -0.031478036 -0.061004467 0.046273194 0.0059965462 -0.009251564 0.054556575 -0.079248324
0.056229796 -0.032455128 -0.13175152 -0.052207287 0.024714239 -0.0799729 0.04948423 -0.1152713
-0.00082862854 -0.051661555 0.12709853 -0.22098403 -0.0823555 0.061198723 -0.0046539335 0.003568121
-0.06344183 0.040090587 0.08581876 0.09498512 -0.13828693 -0.08950231 -0.017282538 -0.062000427
0.004453824 0.1080354 -0.06491358 -0.0040177885 0.036333904 -0.023209624 0.00875944 -0.15988356
0.034434903 0.07230094 -0.008535874 -0.044851378 -0.023488874 -0.0031282408 -0.10605862 -0.038979553
-0.073469795 -0.007297769 -0.09322222 -0.034797654 -0.0067238933 -0.027620671 0.031124137 0.026988786
0.1618928 0.06134721 0.008603113 0.043163553 0.0849881 0.064182125 0.04117265 0.047056664
0.00491614 0.07901629 -0.028849805 -0.026735263 0.13825364 -0.12068138 0.101570405 -0.051105767
-0.053554714 -0.072193645 0.009745492 -0.046577122 0.09061556 -0.048170798 -0.0045481883 -0.05228526
0.03423483 -0.041443855 0.033307236 0.123514235 -0.054159213 -0.0995464 0.0423257 0.018433904
0.06716816 0.01053771 0.008263641 0.018959668 -0.027828649 0.018125258 -0.10029308 -0.10761697
-0.0524925 -0.061186854 -4.8504095e-05 -0.07090745 0.045801133 0.002838486 -0.12553594 0.09894152
-0.0038764982 0.0010149789 0.0031791765 0.18839021 0.1728656 0.12796855 -0.058033593 -0.07906922
-0.059413202 0.083945826 -0.0034951682 0.08825343 0.041674472 -0.03074677 -0.017477566 -0.036505595
0.051777203 -0.017555451 0.008388367 -0.009533283 -0.017423727 0.0697811 0.033161312 0.022346018
0.05505378 -0.068439454 0.14058901 -0.06901335 0.031891678 0.06708288 0.023600763 -0.028166233
-0.088249825 0.0760078 0.015265386 -0.00070527324 0.038518347 0.043685365 -0.03313169 -0.039068565
0.1521362 0.089250244 -0.0019754127 0.018073203 0.118024595 -0.02140184 -0.020443616 0.086182
-0.071645774 -0.09017901 0.013160396 -0.10673143 0.13142103 -0.03560116 -0.036315236 0.014935054
0.04688358 0.06857044 -0.0832566 -0.036780883 -0.08398059 -0.03090582 -0.007729405 -0.13059531
0.14304867 0.06004561 -0.0218298 0.0037408553 -0.034884267 0.048273556 0.03028253 0.03124428
-0.031038221 -0.10849428 -0.009993432 0.023658607 -0.05088181 0.044558972 0.021394486 -0.07437997
0.021540735 0.07576824 -0.0022845052 -0.034615986 -0.048083175 -0.023359662 0.114209585 0.11827742
-0.009672494 -0.08129294 0.096990064 0.0044278554 -0.12315375 -0.01605013 0.166142 0.12727766
-0.024145585 -0.100840114 0.052646175 -0.09811961 0.052804604 -0.05128913 -0.01234191 -0.14000618
-0.07860175 -0.04520666 0.01637796 0.06409369 0.07117333 -0.056199644 0.059126403 -0.19058113
00000000: ab8a d5bc c06a b3bd 495a 8cbd 8746 9fbd
00000010: 1ca6 bcbd 993f f03d 627e fabc 0d76 b8bc
00000020: 7619 ec3b 08cd 03be 240b 93bd 3c8c 793c
00000030: 86a6 733d c031 c23d 068a ba3d 7a9b b63d
00000040: 1096 fdbc 38e2 29be d978 633c eedf 01bd
00000050: 7d5f 173d 1a0c 95bd ad41 b0bd d308 ab3d
00000060: 92bf 10be 1862 7b3d 96ca 433b 5176 31bd
00000070: 8f9c c83b 9d61 69be 26e3 ca3c 3875 37bc
00000080: b01b 07bc 494f b53d 5858 f23c e0e2 8fbd
00000090: 9926 adbd 02fd c03d 7f31 013e 1884 9e3c
000000a0: 2249 493d 1def 00bd d2df 79bd f688 3d3d
000000b0: ad7e c43b df93 17bc b776 5f3d f24c a2bd
000000c0: 3751 663d abef 04bd dfe9 06be 4fd7 55bd
000000d0: 8475 ca3c d5c8 a3bd faaf 4a3d 5c13 ecbd
000000e0: 5238 59ba 119b 53bd 1e26 023e a349 62be
000000f0: 00aa a8bd 83ab 7a3d 0680 98bb 23d7 693b
00000100: caed 81bd 0736 243d bfc1 af3d 8f87 c23d
00000110: 179b 0dbe fd4c b7bd 1c94 8dbc 29f4 7dbd
00000120: 62f1 913b aa41 dd3d 69f1 84bd a7a7 83bb
00000130: dcd2 143d 1c22 bebc c183 0f3c 84b8 23be
00000140: 9d0b 0d3d 8412 943d 0dda 0bbc 14b6 37bd
00000150: bd6b c0bc 2c03 4dbb 4335 d9bd 06a9 1fbd
00000160: 5577 96bd 2022 efbb 4beb bebd fc87 0ebd
00000170: 1b54 dcbb bf44 e2bc 0cf8 fe3c 9617 dd3c
00000180: 3ac7 253e 3647 7b3d 12f4 0c3c 44cc 303d
00000190: 3e0e ae3d eb71 833d a7a4 283d 7dbe 403d
000001a0: 9217 a13b 4bd3 a13d 6d56 ecbc e903 dbbc
000001b0: 5d92 0d3e cd27 f7bd 2504 d03d 4854 51bd
000001c0: 305c 5bbd 43da 93bd 8eab 1f3c a7c7 3ebd
000001d0: a794 b93d be4e 45bd f808 95bb 1229 56bd
000001e0: d239 0c3d 08c1 29bd 2b6d 083d 08f5 fc3d
000001f0: 0dd6 5dbd fcde cbbd b75d 2d3d b302 973c
00000200: 768f 893d 5ca6 2c3c 3964 073c 4e51 9b3c
00000210: e8f8 e3bc 6c7b 943c 7566 cdbd 4966 dcbd
00000220: 6002 57bd 119f 7abd e070 4bb8 ed37 91bd
00000230: f899 3b3d e505 3a3b 7e8c 00be daa1 ca3d
00000240: d90c 7ebb 0a09 853a bb59 503b 5de9 403e
00000250: ae03 313e 300a 033e a2b4 6dbd 0bef a1bd
00000260: 425b 73bd caeb ab3d 310f 65bb 37be b43d
00000270: dab2 2a3d a6e0 fbbc 1d2d 8fbc e486 15bd
00000280: 5514 543d 73d0 8fbc 5c6f 093c 7d31 1cbc
00000290: 34bc 8ebc 65e9 8e3d 28d4 073d ff0e b73c
000002a0: 1380 613d fc29 8cbd 91f6 0f3e df56 8dbd
000002b0: d9a0 023d c062 893d 6356 c13c dfbc e6bc
000002c0: 53bc b4bd faa9 9b3d ab1b 7a3c 16e2 38ba
000002d0: 6ac5 1d3d 6def 323d 18b5 07bd 5c06 20bd
000002e0: 98c9 1b3e d5c8 b63d ed75 01bb 410e 943c
000002f0: e1b6 f13d e952 afbc 5f79 a7bc 3080 b03d
00000300: 05bb 92bd c6af b8bd b49e 573c 0296 dabd
00000310: 3c93 063e 86d2 11bd 49bf 14bd 28b2 743c
00000320: ff08 403d a96e 8c3d 7082 aabd 8da7 16bd
00000330: 04fe abbd 342e fdbc f346 fdbb c7ba 05be
00000340: 5a7b 123e 63f2 753d 69d4 b2bc 2329 753b
00000350: cee2 0ebd 7eba 453d 1113 f83c 01f4 ff3c
00000360: de43 febc 4032 debd 7ebb 23bc b2cf c13c
00000370: 7269 50bd 7883 363d 7d43 af3c 8754 98bd
00000380: 3276 b03c 612c 9b3d a3b7 15bb 7ec9 0dbd
00000390: ddf2 44bd c35c bfbc b7e6 e93d 6f3b f23d
000003a0: 6179 1ebc ea7c a6bd baa2 c63d 8b17 913b
000003b0: 0938 fcbd 907b 83bc 2121 2a3e 1355 023e
000003c0: f6cc c5bc 4385 cebd 84a3 573d eff2 c8bd
000003d0: a449 583d 8d14 52bd b935 4abc c85d 0fbe
000003e0: f4f9 a0bd 9e2a 39bd 122b 863c 8d43 833d
000003f0: 53c3 913d 9931 66bd 872e 723d b327 43be

network_body._body_endoder.seq_layers.2.bias f4 [256]
-0.028210932 0.025277115 -0.027301077 -0.010826901 -0.03188932 -0.011631895 0.012003905 -0.00028163622
-0.025524136 -0.01592834 -0.0007667029 0.005950449 -0.022608362 -0.018633772 -0.0036573727 -0.037663497
-0.034343164 -0.03106602 -0.00464717 -0.038698543 -0.0027459925 -0.013317335 -0.012487062 0.009804976
-0.017572867 -0.021587554 -0.052665383 -0.034344867 -0.044138074 -0.008550349 -0.0010378615 0.0010323443
-0.008808561 -0.0066139763 0.005753915 -0.017097145 -0.0032622446 -0.016183745 -0.031013643 -0.045163058
0.0056301523 0.0044865203 -0.0023827234 -0.017574774 -0.032647744 0.008043214 -0.011936812 -0.019094845
-0.017209524 -0.00044167295 -0.04296603 -0.010200583 -0.0040352037 -0.03484949 -0.00538363 0.014512098
-0.029390475 -0.031967673 -0.03739258 -0.015040413 0.0022534742 -0.01457764 -0.021016482 -0.015286049
0.005456291 -0.048921533 -0.01473966 -0.017018873 -0.029040288 -0.04088286 -0.007712631 -0.029164126
-0.025657885 -0.008195686 -0.026858512 -0.0061048833 0.0002878786 -0.027738418 -0.023028113 -0.033008326
-0.059507817 -0.0053164177 -0.022962488 -0.013417507 -0.01062894 -0.008596727 -0.015337746 -0.028020874
-0.031403117 0.010441652 -0.040289596 -0.020512702 -0.011398475 -0.013778372 -0.0016983823 -0.012254919
0.015284072 -0.01520719 -0.008736354 -0.06021357 -0.020505631 -0.011617933 -0.032496262 -0.051840603
0.0020661526 -0.011592219 -0.016683605 -0.015214798 -0.022190066 -0.02068708 -0.018439734 -0.031072496
-0.015024643 -0.037745904 -0.017673267 -0.012998231 -0.028767532 -0.042201128 -0.011164669 0.004640818
-0.03928081 -0.03676212 -0.016138421 -0.012619532 -0.021930695 -0.0143458955 -0.020864993 0.017578809
-0.013593715 -0.027413478 -0.0056298673 0.011385381 -0.019735247 -0.019390218 0.006782038 -0.03395327
-0.031992137 -0.016407045 -0.02846172 -0.010687912 -0.012360619 -0.0042146686 -0.023369636 -0.029151957
-0.035354454 -0.024409764 -0.03766422 -0.031040309 -0.02859839 -0.0057693734 -0.0017464454 0.00033421625
-0.03984068 -0.027901705 -0.013642762 -0.00173425 -0.034287296 -0.015858054 -0.0073429625 -0.01364858
-0.036548577 -0.042089794 -0.038487744 -0.010763664 0.009356104 -0.04034193 -0.0043777972 -0.021281883
-0.049328838 0.003606819 -0.05231417 -0.004773158 -0.0034881716 -0.011566237 -0.05100355 -0.022804772
-0.019148985 -0.02512531 -0.03166464 -0.026882933 -0.014699588 0.0074414015 -0.039001625 -0.016014853
0.00731783 -0.012226477 -0.037050206 -0.019981416 -0.022437306 -0.009913464 -0.03549851 -0.027666397
-0.045661755 -0.019122848 -0.022413718 -0.020117767 -0.005018456 -0.0066871317 -0.018124273 -0.018212244
-0.040027313 -0.027613038 -0.0031967992 -0.002958331 -0.013132628 -0.009876449 -0.034565993 -0.022237366
-0.0037660277 -0.03243649 -0.012756987 -0.012642252 -0.028810626 -0.020276563 -0.016064094 -0.04156719
-0.003945613 -0.028353455 -0.031467803 0.007019981 -0.034072783 -0.01821281 -0.005152656 0.019901235
-0.015692968 -0.015970124 -0.031281568 0.01422888 0.002185761 -0.015539393 -0.0042127245 -0.018758517
-0.013861204 -0.010753176 -0.016151194 0.0041581085 -0.01797167 -0.04276894 -0.004596568 -0.024895536
-0.0098649 -0.035994176 -0.03796301 -0.011904968 -0.008957641 0.009499315 0.007968767 -0.022548368
-0.021655578 -0.025886828 0.013463994 -0.019855041 -0.017440673 -0.005721031 -0.0130077535 -0.024109574
00000000: 9d1a e7bc f411 cf3c 82a6 dfbc 5063 31bc
00000010: 609e 02bd b493 3ebc 07ac 443c 93a8 93b9
00000020: fe17 d1bc 267c 82bc 90fc 48ba fcfb c23b
00000030: 2c35 b9bc daa5 98bc 88b0 6fbb 0a45 1abd
00000040: 6bab 0cbd 2a7e febc 4a47 98bb 5d82 1ebd
00000050: 1cf6 33bb f430 5abc 8996 4cbc 0da5 203c
00000060: f9f4 8fbc 62d8 b0bc a8b7 57bd 34ad 0cbd
00000070: 20ca 34bd c316 0cbc da08 88ba ba4f 873a
00000080: c851 10bc 0eba d8bb 568b bc3b 500f 8cbc
00000090: 62cb 55bb c693 84bc 5310 febc e6fc 38bd
000000a0: 247d b83b a903 933b 7727 1cbb f9f8 8fbc
000000b0: a4b9 05bd afc7 033c 9e92 43bc cb6c 9cbc
000000c0: fdfa 8cbc 5790 e7b9 26fd 2fbd 5920 27bc
000000d0: be39 84bb 57be 0ebd 2969 b0bb 27c4 6d3c
000000e0: 4bc4 f0bc 89f0 02bd f628 19bd 106c 76bc
000000f0: 06af 133b 0ed7 6ebc c22a acbc 5672 7abc
00000100: b0ca b23b f261 48bd 9d7e 71bc 2a6b 8bbc
00000110: e6e5 edbc c974 27bd 3dba fcbb 9be9 eebc
00000120: 7c30 d2bc 3347 06bc 6206 dcbc 790b c8bb
00000130: 69ee 9639 ae3b e3bc 74a5 bcbc bd33 07bd
00000140: 78be 73bd 5835 aebb d41b bcbc 1ad5 5bbc
00000150: 0125 2ebc 49d9 0cbc 2b4b 7bbc 088c e5bc
00000160: 8ea0 00bd 7613 2b3c b406 25bd 410a a8bc
00000170: abc0 3abc aebe 61bc 419c deba dbc8 48bc
00000180: 0b6a 7a3c 9427 79bc ed22 0fbc 81a2 76bd
00000190: 6dfb a7bc 2559 3ebc cd1a 05bd d056 54bd
000001a0: 4a68 073b 4aed 3dbc 0eac 88bc 7d47 79bc
000001b0: f1c7 b5bc f477 a9bc ed0e 97bc bf8b febc
000001c0: ec29 76bc 739b 1abd 87c7 90bc 88f6 54bc
000001d0: e3a9 ebbc 17db 2cbd 04ec 36bc 0112 983b
000001e0: eae4 20bd e093 16bd b934 84bc 27c2 4ebc
000001f0: 00a8 b3bc 0c0b 6bbc 10ed aabc 6f01 903c
00000200: 2cb8 5ebc 3b92 e0bc c07a b8bb c089 3a3c
00000210: d0ab a1bc 3cd8 9ebc dc3b de3b 9612 0bbd
00000220: 300a 03bd 1168 86bc 8e28 e9bc 5a1c 2fbc
00000230: 3284 4abc 341b 8abb ae71 bfbc 16d0 eebc
00000240: d5cf 10bd fcf6 c7bc cc45 1abd 3f48 febc
00000250: 2c47 eabc 030d bdbb fce8 e4ba bf39 af39
00000260: fb2f 23bd 1e92 e4bc e485 5fbc c64f e3ba
00000270: d670 0cbd c0e8 81bc 3c9d f0bb 4b9e 5fbc
00000280: f6b3 15bd 5966 2cbd 53a5 1dbd 145a 30bc
00000290: 584a 193c 943d 25bd a073 8fbb 5857 aebc
000002a0: 090d 4abd 6260 6c3b 6247 56bd 2768 9cbb
000002b0: cf99 64bb 5080 3dbc 19e9 50bd 13d1 babc
000002c0: 55de 9cbc 98d3 cdbc c8b2 01bd 9939 dcbc
000002d0: 8ad6 70bc 00d7 f33b 2bc0 1fbd 9531 83bc
000002e0: 68ca ef3b 9051 48bc f5c1 17bd 11b0 a3bc
000002f0: 71ce b7bc 156c 22bc e366 11bd a4a4 e2bc
00000300: d207 3bbd 85a7 9cbc f99c b7bc 04ce a4bc
00000310: dc71 a4bb ba1f dbbb 5b79 94bc d831 95bc
00000320: aef3 23bd bd34 e2bc 6481 51bb 8fe0 41bb
00000330: 3c2a 57bc d4d0 21bc 1295 0dbd 232b b6bc
00000340: 76cf 76bb 20dc 04bd ae02 51bc 7321 4fbc
00000350: 4304 ecbc 091b a6bc d998 83bc 5c42 2abd
00000360: 334a 81bb 8145 e8bc 62e4 00bd de07 e63b
00000370: e78f 0bbd 0833 95bc 9dd7 a8bb ea07 a33c
00000380: 8a8e 80bc c7d3 82bc 1a21 00bd 4020 693c
00000390: fc3e 0f3b f098 7ebc e50a 8abb 76ab 99bc
000003a0: 1a1a 63bc 172e 30bc 824f 84bc be40 883b
000003b0: 5339 93bc 7c2e 2fbd cf9e 96bb b9f1 cbbc
000003c0: 64a0 21bc a16e 13bd 1a7f 1bbd 0e0d 43bc
000003d0: 12c3 12bc 04a3 1b3c 6e8f 023c 5bb7 b8bc
000003e0: 0a67 b1bc 9d10 d4bc 1598 5c3c 0aa7 a2bc
000003f0: bedf 8ebc 7d77 bbbb 791e 55bc 7181 c5bc

action_model._discrete_distribution.branches.0.weight f4 [3, 256]
0.03859451 0.019739402 0.060542423 -0.029962052 0.059930183 -0.010685371 -0.040735107 0.022423588
0.026305668 -0.028170966 -0.014052941 0.01686629 0.003983342 0.016373144 0.021673081 0.008991945
0.03424059 0.01493136 -0.0430742 0.058902487 -0.010867045 0.013686861 0.02343928 -0.044547834
-0.023577925 -0.0016132387 0.0003781388 0.042179756 0.018806424 -0.013666311 0.0037673435 0.03244173
0.03343627 -0.042907838 -0.019119246 -0.010826169 0.02112111 -0.060224403 -0.05208604 0.011607988
0.019615538 -0.0119611705 -0.002854823 -0.047598235 0.059427753 -0.028717984 0.01925454 -0.028800065
0.012120644 0.024840707 0.04009193 0.0189013 0.013130915 0.029087929 -0.01729455 -0.032259244
0.014624129 0.05285521 0.0012586864 0.031986613 -0.016508335 0.041298818 0.0011663223 0.009563406
-0.055841092 0.025388302 0.047875382 0.0067218896 -0.0056113615 0.021524068 0.010606333 0.027260628
-0.022502637 0.014295781 0.007749535 -0.039257005 0.0164274 0.04285863 -0.010177504 -0.003729374
0.046779647 0.012638812 -0.005320024 0.044240963 -0.037116274 -0.010658422 -0.0342566 0.04162373
0.030095063 -0.051877625 0.039515384 0.07157274 -0.00803264 0.0575304 -0.002244813 -0.050346628
-0.042355116 0.048902165 0.05118976 0.0055322303 -0.01745737 -0.017937513 0.010349847 -0.030262532
-0.059360225 -0.021991843 0.023524217 0.03325982 -0.021011371 0.06347241 -0.0043782033 0.010590302
-0.02015519 0.06364689 -0.009678691 -0.019600628 0.029022861 0.029051155 -0.0029927392 -0.02975223
-0.018377744 0.036937166 0.041926753 -0.02406088 0.05779256 0.009629461 0.027528776 -0.040528357
-0.019830689 0.021724593 -0.010497188 0.036173835 0.04384024 0.01687347 0.028623525 0.034368526
0.041484818 0.046749085 0.01788382 0.06545813 -0.04230082 0.04340806 0.0058087893 0.028146602
0.007134342 0.054873038 -0.028947223 0.02525733 -0.022979332 -0.03536338 -0.010248594 -0.053669173
0.04482235 0.0009856734 -0.025245104 -0.039485637 0.006293534 0.03202576 -0.010422467 -0.016417062
0.028182022 -0.009563925 0.025231455 0.025485681 -0.019069647 0.048606813 0.020855721 0.020375708
0.040891625 0.0075684283 0.027762702 -0.022633176 -0.033834912 -0.029465057 0.01671112 0.06443914
0.008192923 0.0069442526 0.022597922 -0.0060901097 0.030983029 0.013083513 0.019399486 0.017210646
-0.06259115 0.011102995 0.014067997 0.0015968259 0.027474895 0.040375125 0.069204085 0.031849965
0.035703707 0.0010102574 -0.0059214695 0.03373707 -0.041210365 -0.02091654 0.052536506 0.008265078
0.044498466 0.013770941 -0.0031015924 -0.045085263 0.026529983 -0.038374603 0.024793897 0.04491567
0.014110572 -0.0031160351 -0.008306511 0.039206814 -0.026358044 0.054433625 0.0095916325 0.01889358
-0.0064867963 -0.008305711 -0.012211073 -0.004613356 0.019539732 -0.029418753 -0.018148791 -0.046228454
0.01126116 -0.03127909 -0.0007183332 -0.023064708 -0.04308381 -0.00642771 -0.053096555 0.040034626
0.048156388 -0.022808403 0.0068476335 -0.045618374 0.027887622 0.00050446944 0.0008754734 0.029254336
0.0680421 0.03126197 0.019863976 0.008756575 0.04827136 0.044206914 -0.007964831 -0.045852203
0.030249545 -0.012625498 -0.036282603 0.010072739 -0.0034447878 -0.035708144 0.012590318 0.06276406
00000000: 4715 1e3d 87b4 a13c 55fb 773d fa72 f5bc
00000010: 5a79 753d b211 2fbc dbd9 26bd acb1 b73c
00000020: fc7e d73c ccc6 e6bc 4f3e 66bc 2c2b 8a3c
00000030: b286 823b f920 863c bf8b b13c f352 133c
00000040: dc3f 0c3d aaa2 743c 936e 30bd bc43 713d
00000050: b10b 32bc db3e 603c bc03 c03c ca77 36bd
00000060: 7e26 c1bc 4f73 d3ba ee40 c639 aec4 2c3d
00000070: ee0f 9a3c aae8 5fbc 89e5 763b 9fe1 043d
00000080: 78f4 083d 21c0 2fbd f79f 9cbc 3e60 31bc
00000090: 2e06 ad3c ddad 76bd 2c58 55bd 6e2f 3e3c
000000a0: c4b0 a03c c9f8 43bc fb17 3bbb 5ef6 42bd
000000b0: 846a 733d fa41 ebbc b2bb 9d3c 1dee ebbc
000000c0: aa95 463c bd7e cb3c 7037 243d e6d6 9a3c
000000d0: 0d23 573c cf49 ee3c 4dad 8dbc 4522 04bd
000000e0: 0b9a 6f3c b47e 583d 82fa a43a 6504 033d
000000f0: 7d3c 87bc f328 293d 48df 983a d5af 1c3c
00000100: a1b9 64bd 21fb cf3c fa18 443d 4c43 dc3b
00000110: 83df b7bb 3e53 b03c 2fc6 2d3c ae51 df3c
00000120: 7357 b8bc da38 6a3c d0ef fd3b f4cb 20bd
00000130: c192 863c 888c 2f3d 8cbf 26bc 8368 74bb
00000140: 049c 3f3d 0513 4f3c 9953 aebb 0336 353d
00000150: 3c07 18bd a9a0 2ebc a650 0cbd a57d 2a3d
00000160: ec89 f63c a27d 54bd e2da 213d bb94 923d
00000170: 569b 03bc ffa4 6b3d b61d 13bb 4438 4ebd
00000180: 8f7c 2dbd a34d 483d 5bac 513d b647 b53b
00000190: c202 8fbc b1f1 92bc 6892 293c 21e9 f7bc
000001a0: b523 73bd 3d28 b4bc dcb5 c03c 733b 083d
000001b0: 0a20 acbc d3fd 813d 0877 8fbb f282 2d3c
000001c0: 7f1c a5bc 4d59 823d 5f93 1ebc 7f91 a0bc
000001d0: 5ac1 ed3c b0fc ed3c d521 44bb f3ba f3bc
000001e0: ec8c 96bc 6d4b 173d 63bb 2b3d 531b c5bc
000001f0: e4b7 6c3d e3c4 1d3c 0784 e13c 1001 26bd
00000200: f873 a2bc c6f7 b13c 66fc 2bbc 042b 143d
00000210: d391 333d 3b3a 8a3c e27b ea3c 03c6 0c3d
00000220: fceb 293d f87b 3f3d 1781 923c e90e 863d
00000230: a043 2dbd a6cc 313d a857 be3b b493 e63c
00000240: 33c7 e93b 8dc2 603d ba22 edbc 76e8 ce3c
00000250: 273f bcbc 31d9 10bd b8e9 27bc 35d4 5bbd
00000260: a497 373d b631 813a d2ce cebc b1bb 21bd
00000270: fd39 ce3b 712d 033d ffc2 2abc 137d 86bc
00000280: fcdd e63c 02b2 1cbc 32b2 ce3c 59c7 d03c
00000290: f337 9cbc f017 473d 9ed9 aa3c f5ea a63c
000002a0: fa7d 273d 9400 f83b 9b6e e33c 3669 b9bc
000002b0: 7a96 0abd b460 f1bc c2e5 883c abf8 833d
000002c0: 9c3b 063c 9d8c e33b 471f b93c 8b8f c7bb
000002d0: 1fd0 fd3c 3b5c 563c aceb 9e3c 57fd 8c3c
000002e0: ca2f 80bd 56e9 353c 757d 663c 964c d13a
000002f0: 0813 e13c 6360 253d dfba 8d3d 1c75 023d
00000300: 0d3e 123d 9d6a 843a e308 c2bb e22f 0a3d
00000310: 33cc 28bd 2a59 abbc 8530 573d 406a 073c
00000320: 0644 363d 839f 613c 1644 4bbb 53ab 38bd
00000330: 6855 d93c b02e 1dbd 921c cb3c 7ef9 373d
00000340: 0730 673c 6536 4cbb 0818 08bc 5397 203d
00000350: d3ec d7bc cbf5 5e3d 3926 1d3c b6c6 9a3c
00000360: 318f d4bb ad14 08bc f410 48bc a32b 97bb
00000370: ca11 a03c 99ff f0bc c6ac 94bc 0c5a 3dbd
00000380: ba80 383c 811e 00bd 864e 3cba 33f2 bcbc
00000390: a678 30bd 8a9f d2bb c67b 59bd 59fb 233d
000003a0: a23f 453d b0d8 babc 1d62 e03b 55da 3abd
000003b0: 9574 e43c 5f3e 043a 0680 653a caa6 ef3c
000003c0: a859 8b3d 8d0c 003d c7b9 a23c bd77 0f3c
000003d0: 31b8 453d 4f12 353d ec7e 02bc 85cf 3bbd
000003e0: e5cd f73c 2ddb 4ebc 119d 14bd 2108 253c
000003f0: f3c1 61bb b442 12bd 9f47 4e3c 728a 803d

action_model._discrete_distribution.branches.0.bias f4 [3]
-0.0020912637 0.05598488 -0.04769375
00000000: 950d 09bb 6750 653d 865a 43bd

action_model._discrete_distribution.branches.1.weight f4 [3, 256]
0.014517617 0.010661818 0.0076254345 0.018325934 0.022707913 0.006806075 0.015497179 -0.006158506
-0.014452193 0.044509582 0.040343173 -0.050519213 0.004431554 0.019342786 -0.0033793577 -0.0013592767
0.03429834 0.015908476 0.03554875 0.03565185 0.042376827 0.009410562 0.004664707 0.0423483
0.035096522 0.031464707 -0.02357971 0.018539181 0.004462812 0.03938901 0.021213764 0.00033722323
0.05876735 0.025582327 -0.0025777568 0.012849579 0.034980647 0.048226144 0.058670394 -0.0071474533
0.009105926 0.0009093279 0.043872207 0.008669183 0.02879504 0.037978824 0.040489655 -0.045458272
0.039088164 0.035910893 -0.012303546 0.033983026 -0.005810611 0.024712568 0.030524982 0.03318606
0.01554721 0.0311383 -0.0018464007 -0.0034994874 0.026285166 0.00581444 0.021918284 0.0064003533
0.036601074 0.0014738236 0.010645031 0.04733556 0.035875265 -0.0055959285 0.015355869 0.04383793
0.023090431 -0.020404156 0.039835356 0.031220788 -0.0005220389 -0.037220966 0.038704377 0.034166273
0.007407745 -0.009102617 0.008412601 0.05346223 0.03577813 0.025014313 0.023038222 0.022329742
0.03416241 0.04560597 0.013250765 0.010328391 0.009103308 0.002500888 -0.034237772 -0.014018965
-0.033479877 0.016356716 -0.0031936953 0.011167985 0.03005329 0.027127659 -0.053840753 0.00041201146
0.035797823 -0.0047873566 0.01591221 0.03184078 0.02987662 -0.011817475 0.029792685 0.0216545
0.02466643 -0.018216733 0.028425492 0.01642525 -0.009489738 0.0020260909 0.019899607 -0.00048790756
0.034565475 0.04405501 0.0277715 0.028258184 0.035691604 0.04974195 0.018907754 0.01366119
0.019800328 -0.017306566 0.009412787 -0.042376623 -0.037482433 0.01681889 -0.02124437 0.010423078
0.008069635 -0.036285244 0.03019929 -0.026044585 0.021796476 -0.0032434002 0.02844776 0.008573073
-0.005030609 0.020379825 0.0697656 -0.008425012 0.05816324 0.04040102 0.023033826 0.04200403
0.027727328 0.036444962 0.024976276 0.02602354 0.030084549 -0.00089397235 0.023245808 0.029330993
0.013116824 -0.024531515 0.031242682 0.019591913 -0.014633515 0.016633864 0.017957138 -0.0033257778
0.021234687 -0.031310357 0.028632034 0.027889527 0.035825316 -0.015226297 -0.017625941 0.031779252
0.04697405 0.04278086 -0.00602499 -0.0022945139 0.050422445 -0.036591046 0.017907549 -0.04576517
0.03437949 0.009343874 0.013247998 0.006311761 0.015761737 -0.012514448 0.038144607 0.03164271
-0.021182539 0.04901527 0.03227791 -0.016414898 0.0067135682 0.001988287 -0.009788775 -0.048089124
0.010022116 0.029450588 0.028752482 0.021967197 0.009026148 0.015688868 0.005530581 -0.0016820414
-0.013147975 0.0222882 0.017013198 -0.025901891 0.01924889 0.0019847765 -0.010480577 -0.007133511
0.010294415 0.025893418 0.0005891884 -0.019193916 -0.00892659 0.022767866 -0.035092525 0.032546356
-0.006805248 0.04559927 0.02194822 0.018777935 0.023228362 0.004723181 0.030305691 -0.0040836628
0.042211067 0.03355901 0.040554877 0.03911184 0.018245116 0.02361576 0.010235553 0.026746228
0.0039826715 0.0039604437 -0.0156073095 -0.009744121 -0.00055027555 -0.05674001 -0.0127295125 -0.008647054
-0.021542039 0.019175142 0.006710464 -0.0050807144 0.0150411865 0.010246555 0.03279126 0.0034900473
00000000: 4ddb 6d3c e8ae 2e3c c8de f93b 4520 963c
00000010: f205 ba3c 7f05 df3b e1e7 7d3c 4bcd c9bb
00000020: e4c8 6cbc ae4f 363d e23e 253d 3ced 4ebd
00000030: 9236 913b c374 9e3c 3778 5dbb c229 b2ba
00000040: 6b7c 0c3d 7e52 823c 919b 113d ad07 123d
00000050: 5393 2d3d c22e 1a3c 66da 983b 6975 2d3d
00000060: 5fc1 0f3d 23e1 003d 3c2a c1bc 7bdf 973c
00000070: c83c 923b 5f56 213d 7dc8 ad3c 56cd b039
00000080: 08b6 703d 0792 d13c 95ef 28bb 0a87 523c
00000090: de47 0f3d c788 453d 5e50 703d 2f35 eabb
000000a0: 0631 153c f65f 6e3a 58b3 333d 3009 0e3c
000000b0: 93e3 eb3c af8f 1b3d 7bd8 253d 7432 3abd
000000c0: e91a 203d 4d17 133d d094 49bc c931 0b3d
000000d0: f066 bebb 0372 ca3c 870f fa3c 1bee 073d
000000e0: bab9 7e3c c015 ff3c ed02 f2ba a857 65bb
000000f0: fd53 d73c 0f87 be3b f98d b33c 0eba d13b
00000100: 02eb 153d 502d c13a 7f68 2e3c efe2 413d
00000110: f1f1 123d 0d5e b7bb 2f97 7b3c 678f 333d
00000120: 2528 bd3c 9e26 a7bc 662a 233d bdc2 ff3c
00000130: 70d9 08ba 0375 18bd 7b88 1e3d eff1 0b3d
00000140: abbc f23b 2523 15bc 02d5 093c 36fb 5a3d
00000150: 178c 123d d1ea cc3c a7ba bc3c ddec b63c
00000160: e2ed 0b3d 53cd 3a3d bd19 593c 6938 293c
00000170: 0b26 153c f0e5 233b e83c 0cbd cdaf 65bc
00000180: 3222 09bd 85fe 853c 514d 51bb edf9 363c
00000190: 5132 f63c d33a de3c 1f88 5cbd 3e03 d839
000001a0: bda0 123d 42df 9cbb 535a 823c 7a6b 023d
000001b0: d0bf f43c 159e 41bc ca0f f43c c764 b13c
000001c0: 4111 ca3c 423b 95bc 94dc e83c 3f8e 863c
000001d0: d97a 1bbc 2ac8 043b 8004 a33c d8cd ffb9
000001e0: 8794 0d3d 0773 343d 0f81 e33c b57d e73c
000001f0: 5c31 123d 37be 4b3d 6fe4 9a3c 2fd3 5f3c
00000200: 4c34 a23c 80c6 8dbc 1738 1a3c 1c93 2dbd
00000210: 2e87 19bd c5c7 893c ac08 aebc 8fc5 2a3c
00000220: 8136 043c d69f 14bd 8064 f73c 745b d5bc
00000230: 868e b23c 3a8f 54bb 470b e93c 1376 0c3c
00000240: cfd7 a4bb 97f3 a63c 44e1 8e3d 1009 0abc
00000250: 943c 6e3d 8a7b 253d 6fb1 bc3c 6b0c 2c3d
00000260: 6c24 e33c 5047 153d 0c9b cc3c 522f d53c
00000270: df73 f63c 7859 6aba fe6d be3c 8d47 f03c
00000280: f3e7 563c 51f6 c8bc a7f0 ff3c 387f a03c
00000290: 69c1 6fbc be43 883c d91a 933c 4bf5 59bb
000002a0: 5ef4 ad3c 4a3f 00bd ba8d ea3c 9478 e43c
000002b0: 91bd 123d b877 79bc 4764 90bc f62a 023d
000002c0: dd67 403d fc3a 2f3d 486d c5bb 8e5f 16bb
000002d0: c487 4e3d 7ee0 15bd dab2 923c 4274 3bbd
000002e0: 82d1 0c3d 0c17 193c 220e 593c e4d2 ce3b
000002f0: c21e 813c 6609 4dbc 853d 1c3d c99b 013d
00000300: 0187 adbc 3cc4 483d d735 043d 8978 86bc
00000310: 7efd db3b ec4d 023b 1961 20bc 1af9 44bd
00000320: cd33 243c 5c42 f13c 538a eb3c 8df4 b33c
00000330: 69e2 133c f185 803c e039 b53b f277 dcba
00000340: 9b6a 57bc be95 b63c 435f 8b3c 3430 d4bc
00000350: d9af 9d3c 0613 023b bab6 2bbc 3ac0 e9bb
00000360: e8a9 283c 6f1e d43c c473 1a3a 8f3c 9dbc
00000370: d540 12bc ad83 ba3c 2ebd 0fbd 544f 053d
00000380: 8ffe debb 4dc6 3a3d c1cc b33c 2fd4 993c
00000390: 6849 be3c eac4 9a3b a443 f83c 3fd0 85bb
000003a0: 83e5 2c3d 2c75 093d df1c 263d bd33 203d
000003b0: c876 953c d775 c13c 05b3 273c e81a db3c
000003c0: 1281 823b 9cc6 813b cdb5 7fbc cea5 1fbc
000003d0: 5e40 10ba 3668 68bd 728f 50bc 60ac 0dbc
000003e0: ee78 b0bc 3015 9d3c 74e3 db3b 1f7c a6bb
000003f0: 4f6f 763c 2be1 273c 2150 063d 47b9 643b

action_model._discrete_distribution.branches.1.bias f4 [3]
0.02344173 0.0009749932 -0.027215347
00000000: df08 c03c b096 7f3a b8f2 debc

action_model._discrete_distribution.branches.2.weight f4 [2, 256]
0.016953373 0.085748814 0.009358913 0.012031211 0.0341137 -0.0022339614 0.011084446 0.012257053
-0.06552361 -0.032250524 0.011022967 -0.044456072 -0.03706687 0.0042207884 -0.03196689 -0.050230578
-0.021789609 0.0035805753 0.03859174 0.025451975 0.007937198 0.01128963 0.016716264 0.04235374
0.038759854 0.030995214 -0.007028256 0.014814231 0.0029756553 -0.032604866 -0.018193614 0.05597222
-0.00194234 0.025640786 -0.012241868 -0.0024000253 0.027596194 0.025662992 -0.007627716 -0.00027692903
-0.027393943 0.035992716 -0.003196968 0.029627454 -0.0062956326 0.021896077 0.010147737 -0.019711057
0.02096786 0.010881936 0.0012799255 0.025345312 -0.029404188 0.02513955 -0.0007118579 0.038960114
-0.02789952 0.017391037 0.020165479 0.045740623 0.015396516 0.034766585 0.020411504 -0.046963565
0.034133036 -0.04242699 -0.011941004 -0.011779117 0.0076216967 0.032576997 0.003011616 0.012093106
0.012850599 -0.03445799 -0.027581388 0.027426694 0.06887431 -0.047439236 0.039933287 0.005676209
0.009582842 -0.0056895954 -0.014919127 0.022820812 0.008899087 0.031991687 0.0041291094 -0.0067288084
0.012377573 0.0439177 -0.023122676 0.015855117 -0.007710957 -0.027796304 0.0012146175 0.032756936
0.011115038 0.059295844 0.052088983 -0.030661592 0.014230551 0.04086158 -0.06248046 -0.0030540945
0.03236954 -0.0033805394 0.01870316 0.021339087 0.014035574 -0.01057476 0.01718055 -0.007927929
-0.021435631 -0.017245974 -0.018070683 -0.024591047 -0.037609484 -0.0035285337 0.02000463 0.0101660555
0.006422146 0.0007297177 -0.02509784 0.01919255 0.009845843 -0.01424775 0.009222692 -0.0065988107
0.041509755 -0.056177218 0.026443083 -0.040115573 -0.046665072 -0.0036721716 0.07500263 -0.008397211
0.0072909743 -0.057059806 0.02310048 -0.030885393 0.02618633 0.041319814 -0.018780742 -0.046435427
-0.0061559896 0.023999717 -0.008636691 -0.018402217 -0.014514775 0.033561524 -0.0023183085 0.018471548
0.017660515 0.013810854 0.03511072 0.01409688 0.022725957 0.0041132816 0.031057958 -0.02092659
0.01341362 -0.017382918 -0.0058649695 -0.02920611 0.000491958 -0.0058456217 0.046233114 -0.03441017
-0.010407485 -0.032068312 -0.015558283 0.0493839 0.03353101 -0.0007135475 -0.068932876 0.019892948
0.010511807 0.018474892 0.0010936018 -0.046803858 -0.001417097 -0.028390586 -0.007980946 -0.03670906
0.024171438 -0.010454745 0.0035871866 0.000722783 0.0030357197 0.04091133 0.02474505 0.011837318
-0.01571632 0.007495922 0.025317356 0.064571254 0.013942365 0.04653964 0.04986816 0.056917418
-0.02399891 -0.033039626 0.03751034 0.05305159 0.015204898 0.004704329 -0.04506269 0.008454862
-0.017828528 -0.012483141 0.00823226 -0.07263877 -0.0030036657 0.03687663 -0.04719883 -0.027792653
-0.041852947 0.008194025 -0.023799153 -0.043683466 -0.040491067 0.020577507 -0.02662622 0.042775292
0.049580235 0.0017970611 -0.022844946 0.02097604 0.039027475 0.03450113 0.050671212 0.02329886
0.015658889 0.038360056 0.026173746 0.037663296 0.028704798 -0.0007495933 0.053086407 -0.0058467994
-0.036198817 -0.019045118 -0.029421108 -0.043386824 0.0015230551 -0.08435732 -0.018936552 -0.0024147015
-0.04136879 -0.058300115 0.005792323 -0.029962482 0.029163169 -0.01823669 0.008240112 0.032951083
00000000: cde1 8a3c 139d af3d 2056 193c 8e1e 453c
00000010: cfba 0b3d a767 12bb 899b 353c ced1 483c
00000020: 3e31 86bd 2019 04bd ad99 343c 9217 36bd
00000030: 6ed3 17bd 8a4e 8a3b b7ef 02bd 94be 4dbd
00000040: 1f80 b2bc 16a8 6a3b 5f12 1e3d a980 d03c
00000050: 050b 023c 24f8 383c 8cf0 883c 1e7b 2d3d
00000060: a7c2 1e3d ade9 fd3c 494d e6bb 63b7 723c
00000070: 3603 433b ae8c 05bd c60a 95bc 2043 653d
00000080: 1e96 feba a00c d23c 1e92 48bc be49 1dbb
00000090: 6a11 e23c 323b d23c ebf1 f9bb c930 91b9
000000a0: 4369 e0bc 196d 133d 3984 51bb 46b5 f23c
000000b0: 984b cebb 675f b33c b242 263c 1579 a1bc
000000c0: cac4 ab3c 264a 323c 2cc3 a73a f9a0 cf3c
000000d0: 0de1 f0bc 75f1 cd3c fa9b 3aba a494 1f3d
000000e0: 898d e4bc a677 8e3c 1332 a53c 855a 3b3d
000000f0: ab41 7c3c 6867 0e3d 0736 a73c de5c 40bd
00000100: 15cf 0b3d ecc7 2dbd 33a4 43bc 33fd 40bc
00000110: 6dbf f93b 756f 053d 885e 453b 2a22 463c
00000120: 528b 523c d223 0dbd 5df2 e1bc f2ad e03c
00000130: f90d 8d3d a54f 42bd 1691 233d 7eff b93b
00000140: 5a01 1d3c c96f babb 5b6f 74bc b6f2 ba3c
00000150: 7acd 113c b709 033d 7b4d 873b 567d dcbb
00000160: 4ecb 4a3c 0ce3 333d c46b bdbc 97e2 813c
00000170: 32ac fcbb 13b5 e3bc cd33 9f3a 232c 063d
00000180: d91b 363c 33e0 723d 425b 553d 052e fbbc
00000190: 4227 693c 795e 273d 83eb 7fbd 3427 48bb
000001a0: ec95 043d 0a8c 5dbb 5f37 993c 4fcf ae3c
000001b0: 77f5 653c c241 2dbc 3abe 8c3c 25e4 01bc
000001c0: c799 afbc 6e47 8dbc f808 94bc 2a73 c9bc
000001d0: 670c 1abd f93e 67bb c0e0 a33c 878f 263c
000001e0: de70 d23b 874a 3f3a fc99 cdbc b239 9d3c
000001f0: 7550 213c 656f 69bc c61a 173c d63a d8bb
00000200: 2206 2a3d 151a 66bd 2a9f d83c 3a50 24bd
00000210: e023 3fbd d1a8 70bb fb9a 993d 7594 09bc
00000220: 20e9 ee3b 8bb7 69bd 383d bd3c 5d03 fdbc
00000230: b784 d63c f73e 293d 12da 99bc 1333 3ebd
00000240: 2fb8 c9bb 0e9b c43c e880 0dbc 3fc0 96bc
00000250: 61cf 6dbc cf77 093d c3ee 17bb a551 973c
00000260: c9ac 903c ec46 623c 42d0 0f3d 9af6 663c
00000270: c92b ba3c b5c8 863b 426d fe3c 3d6e abbc
00000280: cdc4 5b3c 9f66 8ebc ee2e c0bb a741 efbc
00000290: bef6 003a a18c bfbb ef5e 3d3d aef1 0cbd
000002a0: 2884 2abc 105a 03bd 2be8 7ebc c646 4a3d
000002b0: d057 093d 5d0d 3bba ae2c 8dbd 89f6 a23c
000002c0: b739 2c3c a858 973c 3057 8f3a 67b5 3fbd
000002d0: e3bd b9ba 6093 e8bc 84c2 02bc 3d5c 16bd
000002e0: 2e03 c63c 614a 2bbc 0117 6b3b 2579 3d3a
000002f0: edf2 463b a492 273d 22b6 ca3c 4ff1 413c
00000300: 83bf 80bc 5aa0 f53b 5866 cf3c ef3d 843d
00000310: 846e 643c 59a0 3e3d 8e42 4c3d 3d22 693d
00000320: 5d99 c4bc 8f54 07bd 71a4 193d a04c 593d
00000330: f71d 793c c626 9a3b a893 38bd 4386 0a3c
00000340: 220d 92bc 1786 4cbc 9ae0 063c a3c3 94bd
00000350: 26d9 44bb f30b 173d 8f53 41bd 6bad e3bc
00000360: ff6d 2bbd 3b40 063c 71f6 c2bc 6fed 32bd
00000370: f6d9 25bd 2992 a83c 3b1f dabc 2535 2f3d
00000380: a514 4b3d 5d8b eb3a 5325 bbbc f2d5 ab3c
00000390: 46db 1f3d 0f51 0d3d 9e8c 4f3d 40dd be3c
000003a0: 1247 803c 6f1f 1d3d 536a d63c d444 1a3d
000003b0: 5326 eb3c 5b80 44ba 2271 593d 8296 bfbb
000003c0: 3645 14bd 8204 9cbc 8904 f1bc 62b6 31bd
000003d0: 40a1 c73a 88c3 acbd d420 9bbc f83f 1ebb
000003e0: 5272 29bd 1acc 6ebd 87cd bd3b e173 f5bc
000003f0: 99e7 ee3c 1c65 95bc 8901 073c b7f7 063d

action_model._discrete_distribution.branches.2.bias f4 [2]
0.017576886 -0.017576883
00000000: 67fd 8f3c 65fd 8fbc
