results/MoveToButton_8/ButtonPress.onnx (onnx, 352736 bytes, 13 tensors)

discrete_act_size_vector f4 [1, 4]
000000 00 00 40 40 00 00 40 40 00 00 00 40 00 00 00 40
       3.0 3.0 2.0 2.0

network_body._body_endoder.seq_layers.0.weight f4 [256, 65]
000000 8b bc d1 bd 1a d7 75 3e fb ac 64 be e0 79 83 3d
       -0.1024104 0.24007836 -0.22331612 0.0641973
000010 50 a0 5b 3c bd ba c5 bc 61 89 9f 3e 7f 5f 04 3b
       0.013404921 -0.024136895 0.311595 0.0020198522
000020 ab 11 3b be 0c 81 8c bd c1 ec 5b 3c 43 5f 10 3f
       -0.18268459 -0.06860551 0.013423146 0.5639536
000030 42 ce 89 3e aa 9d 02 be 50 27 08 be 81 5b 1c 3c
       0.26915175 -0.12755457 -0.13296247 0.009543301
000040 e8 9e 15 3f 7c 7c 7e 3e 1a 86 34 3e 89 86 2d 3e
       0.58445597 0.24852175 0.1762928 0.16945852
000050 71 e0 20 be 9e 0f 9d 3e 64 d8 0f 3d b6 4a 21 3d
       -0.15710618 0.30675977 0.035118476 0.03937789
000060 18 ad f7 3d a8 e4 3e be 46 40 87 3e fd cc 89 3e
       0.12093562 -0.18641913 0.26416224 0.26914206
000070 12 d2 0a be ae 10 8e be 04 cf 90 3d 3c fb 75 3e
       -0.13556698 -0.277471 0.07070735 0.2402162
000080 fa 10 eb 3d 71 ff fb bd b8 50 b0 3c 61 70 37 3c
       0.114778474 -0.12304581 0.021522865 0.011196227
000090 53 40 9b 3e 7b e2 c4 3c e9 e7 0d bc ca 73 fe bd
       0.30322513 0.024033776 -0.008661249 -0.12424429
0000a0 98 34 56 be 33 37 32 3e 01 4b 84 3d 7b 0a d1 bd
       -0.209185 0.1740387 0.06459618 -0.10207077
0000b0 1a 51 4e 3d f9 28 16 be 80 33 34 bc 1e 10 73 3e
       0.050370313 -0.14664067 -0.010998607 0.23736617
0000c0 3c 2b c5 3d 1a ac 74 bd be cd 70 3e 31 d4 68 3e
       0.09627387 -0.05973444 0.23515984 0.22737195
0000d0 2e c9 53 be af e1 72 bd cc 35 69 bd b6 f2 c2 bd
       -0.20682213 -0.05929726 -0.05693607 -0.0951895
0000e0 03 39 2f 3d 50 18 9d 3e cd be a9 3d 16 f0 64 be
       0.04277898 0.3068261 0.082883455 -0.2235721
0000f0 e2 c2 0c bd 3e f9 18 3e 44 6f 0b be 16 32 23 3d
       -0.034365542 0.14938828 -0.13616663 0.039842688
000100 c3 a6 0e 3d 71 8d e6 3d 57 67 aa 3d 99 1c 37 bd
       0.034827005 0.112574466 0.08320492 -0.044705007
000110 98 bb 05 be 9e 9f 73 3e 18 80 b0 3d 2b 0e f3 3d
       -0.13059843 0.23791358 0.08618182 0.11867937
000120 11 93 05 be 50 77 93 3d 44 ee c3 bd 47 ee 0e bd
       -0.13044383 0.072004914 -0.0956693 -0.034895208
000130 fc 1c 64 be 55 36 ba 3d 97 0a 51 3e 4b 75 bb 3d
       -0.22276682 0.09092394 0.20414196 0.09153231
000140 bb c8 0c be 3b ef b6 3e 96 e3 74 be d6 62 00 be
       -0.13748448 0.35729393 -0.23914942 -0.12537703
000150 c7 fc 51 be 81 b7 b7 bc fe 88 82 3d 24 21 de bd
       -0.20506583 -0.022426369 0.063737854 -0.10846165
000160 b0 68 a8 bd c4 d4 b7 bd be f9 e3 3d de 13 b4 3d
       -0.082230926 -0.08976129 0.11131619 0.08792852
000170 9d fe 06 be a4 ab 76 be 17 2a fa bd 0e 40 46 be
       -0.13183065 -0.24088913 -0.12215059 -0.19360372
000180 b4 44 67 be bb 8e 93 be d7 d7 0e 3e 97 17 bc bd
       -0.22584802 -0.28819832 0.13949524 -0.09184187
000190 50 41 4f 3e c7 59 c8 3d 46 1f d7 bd cd 03 78 3d
       0.20239758 0.09782749 -0.10504012 0.0605505
0001a0 f4 9b 5d 3e 26 b4 1c 3e 7a 97 f2 bd fd 1d 1a 3d
       0.21641523 0.15303096 -0.11845298 0.037626255
0001b0 4f 1c 3e bd 5a e5 33 3e e1 30 10 3e 46 b4 2f 3e
       -0.046413716 0.1756796 0.14081146 0.17158613
0001c0 28 ee 97 3d 59 26 2c be dc 68 69 3b d8 a2 8e 3d
       0.074184716 -0.16811503 0.003561548 0.06964654
0001d0 ff 40 b6 be e9 03 e6 bd af 51 83 3e 77 38 db bd
       -0.35596463 -0.112312146 0.25648257 -0.10704129
0001e0 44 3e f1 bd b1 9d df 3d cf b7 89 3d 3f d1 34 3d
       -0.11779454 0.10918749 0.06724512 0.044144865
0001f0 79 ea 56 3e 7e 8d 19 be 7f 1f ea bd aa cc 8b be
       0.20987882 -0.14995381 -0.11431789 -0.27304584
000200 34 34 86 3e 73 01 34 be 6b 4d 39 be 90 b8 57 be
       0.26211703 -0.17578678 -0.18095939 -0.21066499
000210 6a e2 30 3e 18 7a 96 be cf 91 9d 3c 36 9a 26 bb
       0.1727387 -0.29390025 0.019234566 -0.0025421507
000220 46 69 02 bd 2f 4c bd bd ec c7 a6 3d be 4b e2 3c
       -0.031838678 -0.092430465 0.08143601 0.027624007
000230 4d 79 20 3c fa 42 ba 3c 91 5f 5d 3e 06 62 27 be
       0.009794545 0.022737015 0.21618487 -0.16345987
000240 d6 88 86 bd ed 9f 16 bc 3b 1f 89 3d 71 27 d3 3e
       -0.06569068 -0.009193403 0.0669541 0.4124103
000250 f2 e7 c5 bd bc 2a a2 3b 49 60 d0 3d ed c5 dd 3c
       -0.09663381 0.004948942 0.10174615 0.027071917
000260 4b ab 8e 3c 16 93 10 be 0a a3 28 3e 66 34 6c bd
       0.017415663 -0.14118609 0.16468444 -0.05766716
000270 fb 43 e4 3d b0 31 d9 3c 78 94 04 3e 9d 98 82 3d
       0.11145779 0.02651295 0.12947261 0.06376765
000280 20 2a 15 3e 5d f1 05 3e 0a 89 f0 3d 41 80 24 be
       0.1456685 0.13080354 0.11744888 -0.1606455
000290 72 54 92 3b f5 95 9c bc 81 fe 09 3e 14 cb 21 3d
       0.004465633 -0.019114474 0.13475992 0.03950031
0002a0 80 3d 68 3e c6 37 19 3e a0 8f 5d be a2 36 01 be
       0.2267971 0.14962682 -0.2163682 -0.12618497
0002b0 e4 5b c9 bd 0c a1 5a bd 78 ec aa 3c 01 95 2e bd
       -0.0983198 -0.053376243 0.02086471 -0.04262257
0002c0 2e 86 96 be 3a 05 56 3e 16 61 d2 3b df 9c d5 39
       -0.29399246 0.20900431 0.006420265 0.00040743404
0002d0 f0 df 74 3e d4 04 30 3e ee 0d 50 bd 11 38 7f be
       0.2391355 0.17189342 -0.050794534 -0.24923731
0002e0 d3 a6 dd bd 26 e2 4f 3e 98 80 a6 be 96 70 51 bd
       -0.10822835 0.20301113 -0.32519984 -0.05113276
0002f0 4d 48 bd 3d 62 11 bd 3d 1b bc bc bd 04 c2 fe 3d
       0.09242306 0.09231831 -0.09215566 0.12439349
000300 8c 81 c5 bc 98 d0 11 3e b6 3f 44 3e 33 70 35 3c
       -0.024109624 0.14239728 0.19164929 0.011074114
000310 da 17 4a 3d e3 75 1e be ec 88 44 3d a7 80 a2 3d
       0.049339153 -0.15474658 0.04798214 0.07934695
000320 82 56 e3 3d 1f 0c 76 be b7 9d 0d be ed 1c 88 bd
       0.111004844 -0.24028061 -0.13829695 -0.06646142
000330 28 a1 97 bc 2d 27 a8 bb 63 75 ad 3e 6b e1 90 3e
       -0.018509462 -0.0051316232 0.3387862 0.2829698
000340 04 3a 0f bc df c5 d1 bd 56 26 92 3c b9 5a 80 3d
       -0.008741859 -0.10242819 0.017840546 0.06267304
000350 e2 96 0d be b9 a5 dd 3d 59 0b 69 ba 3d eb cf bd
       -0.13827088 0.10822625 -0.00088899356 -0.1015229
000360 ca 3c 24 3d 58 8e b7 3d bd 1c 5b be 62 02 61 bd
       0.040097035 0.08962697 -0.21397682 -0.054933913
000370 ba 1f 2d be e7 77 f8 3c 54 2b 66 bd 96 69 7e ba
       -0.16906634 0.030330611 -0.056193665 -0.00097050646
000380 fa c7 0b 3e 2e 36 43 3c fe 53 1f 3d 5f 9c 34 3c
       0.13650504 0.011914773 0.03889846 0.01102361
000390 66 c2 58 be 97 49 29 be 9a 19 09 be 94 0d d0 3d
       -0.21167907 -0.16531979 -0.13388672 0.1015884
0003a0 bf 50 a9 be 5b f7 bd bd e3 bb 98 be a5 a5 ef bd
       -0.33069417 -0.09275695 -0.29830846 -0.11701516
0003b0 30 43 54 3e 59 80 c2 3d d2 79 01 be 3f b2 5b 3e
       0.20728755 0.094971366 -0.12644127 0.21454714
0003c0 e5 81 23 be 4f ae bf 3d 09 9d f4 bb 66 ca 33 3e
       -0.1596752 0.093594186 -0.007465009 0.17557678
0003d0 93 b5 8d 3d 62 df e4 3c f6 fe 71 be 56 b1 a0 3d
       0.06919398 0.027938548 -0.23632416 0.07846324
0003e0 df ef 00 be d3 8e 8d bc 79 ff 91 bd 76 4b ae bd
       -0.12591504 -0.017280018 -0.07128806 -0.08510487
0003f0 69 cb bf be be b0 0e 3e 01 0e dc 3c 61 02 1b be
       -0.37459877 0.1393461 0.026862146 -0.15137626

network_body._body_endoder.seq_layers.0.bias f4 [256]
000000 fb 90 f7 bd 0d 02 9f bd f3 9d 6a 3d fa 7a e6 3c
       -0.120882 -0.07764063 0.05727954 0.028134812
000010 33 04 ba bc 00 ae a3 ba a0 66 21 bd 5a 99 2a 3c
       -0.02270708 -0.0012487769 -0.03940451 0.010412538
000020 1d d6 6c bd cb 05 9a 3b d6 9f b7 bc 77 06 d3 bc
       -0.05782138 0.0047003976 -0.022415083 -0.025759919
000030 fb 9f 66 bd 06 a7 46 3d d8 4d b0 be 5c 84 5c 3c
       -0.056304913 0.04849913 -0.3443439 0.013459291
000040 cf 7f 00 bd df e8 df 3c 4a 97 09 bc ff 10 b8 3d
       -0.031371888 0.027332721 -0.0083978865 0.08987617
000050 93 d0 88 3c 9c 9f 4e 3c be 68 bd 3c dc 01 06 3d
       0.016701018 0.012611296 0.023121234 0.032716617
000060 dd d2 8a bd 0a 09 94 3c 48 03 b9 bc 53 83 97 3d
       -0.067785 0.018070716 -0.022584572 0.07398095
000070 36 af 44 bd 3d 49 cc be 4f 66 59 3c c7 71 09 3d
       -0.048018657 -0.39899626 0.013269021 0.033555772
000080 b6 12 50 3c 01 85 43 bd 68 0e 39 3d 94 46 a5 3b
       0.012699774 -0.047734264 0.045179754 0.005043814
000090 06 30 ae 3b 24 cd d9 3c 44 7b d2 bc 26 19 bd 3c
       0.0053157834 0.026587076 -0.025693543 0.02308328
0000a0 11 43 10 bd 0a a5 86 3c 00 33 a5 3c 75 39 f3 3b
       -0.03522021 0.016436119 0.02016592 0.007422621
0000b0 d9 fd 42 bb c3 1b a9 bd 12 cb 87 3b e3 82 67 bc
       -0.0029753356 -0.08257248 0.004144081 -0.014130327
0000c0 1d 99 1c 3d 5f 9c 08 3d 0b cc 08 bd bb d7 77 bd
       0.038231958 0.033352252 -0.033397716 -0.06050847
0000d0 df af 72 3d e5 d9 9c 3d 47 d2 d8 3d 0d 60 21 bd
       0.059249755 0.076587476 0.10586982 -0.03939824
0000e0 0f e5 b7 3c 86 47 60 3d 84 7d 5f bd be 8a 35 bd
       0.02244809 0.05475571 -0.05456306 -0.044321768
0000f0 80 08 8c 3c ca 6b ae 3b 2f 98 b1 bc 97 17 40 bd
       0.017093897 0.005322908 -0.021679012 -0.046897497
000100 56 eb 60 bd cb c9 15 bc 50 0b 35 bd bc b5 cc 3c
       -0.054911934 -0.0091423495 -0.04420024 0.024989001
000110 2a db cd bc be e3 a4 3d f6 67 c2 3d cc f7 f8 3c
       -0.02512892 0.08051251 0.09492485 0.030391596
000120 38 b0 83 3d 52 17 1d bb 5e 39 ba 3d a6 ff 27 bd
       0.064300954 -0.0023970199 0.09092973 -0.04101529
000130 af 29 6f bd b6 fe 99 3d fb 26 6b 3c 13 a1 9a 3c
       -0.058389362 0.075192854 0.014352555 0.018875634
000140 a4 3e f8 bc f4 72 02 3c 89 1b 70 3d 69 67 c5 bc
       -0.030303307 0.007961977 0.05862001 -0.024097161
000150 20 d1 04 bd 23 7c b5 3d 58 23 7a 3d a6 40 7f 3d
       -0.032426 0.08861568 0.061068863 0.062317513
000160 90 09 bb 3c 47 0c 5d 3d e7 df 47 3d 1c f1 c1 3c
       0.022831708 0.053966787 0.048797514 0.02367454
000170 27 64 54 3d ea 49 3b 3d 28 aa d6 3c 61 fd ab bc
       0.051853325 0.045724787 0.026204184 -0.020994844
000180 b1 11 4e 3d bf 1f a5 3c 0e a0 06 3d fb 38 5b bc
       0.05030984 0.02015674 0.032867484 -0.013380284
000190 e7 8f 4d 3d b3 63 ab 3c dc 96 90 3b 4a 39 04 bd
       0.050186064 0.020921564 0.004412515 -0.032281198
0001a0 3c 46 b9 bd 06 51 d6 3b e4 cd 05 bd 98 e1 00 bd
       -0.09046599 0.0065404205 -0.032667056 -0.031465143
0001b0 5d da 8f bd d5 31 3e 3c be eb 52 3d d6 18 23 3c
       -0.07024071 0.011608561 0.051494353 0.009954652
0001c0 e2 3d 6a 3d ca 21 a6 bc 3c ec 87 bb af 1b 5d bc
       0.057187922 -0.020279784 -0.0041480344 -0.01349537
0001d0 1b b6 b9 3c ba 00 59 3c 02 f4 da 3b 48 72 19 bd
       0.022669842 0.013244802 0.00668192 -0.037462503
0001e0 3b 8a 95 3c 17 d9 95 bd f5 ad 9f 3b c4 8e 86 3c
       0.01825439 -0.07316797 0.004873032 0.016425498
0001f0 ab db 39 3d c8 81 bd 3c 23 f6 49 3d 20 60 92 bc
       0.045375507 0.023133174 0.049307 -0.017868102
000200 5e d2 8d be 09 83 d8 3b 08 84 53 bc 84 bb 78 3d
       -0.2769956 0.0066074175 -0.012909897 0.060725704
000210 fe 0e 20 3d 67 31 10 bd 1c bd 96 be ed 8b b6 bc
       0.039076798 -0.035203364 -0.29441154 -0.022283519
000220 9f 40 2d 3c 36 08 3d bc 20 b8 f1 ba 26 5a c6 3c
       0.010574489 -0.011537602 -0.0018441714 0.024212908
000230 53 6f 90 bd d7 b5 0b bd e5 59 ce 3c 58 fc 5f 3d
       -0.070524834 -0.034108963 0.02518935 0.054684013
000240 65 9e ea bc ef b5 07 3d 1b 77 ae bd 8a 8c 78 3c
       -0.028639982 0.03313249 -0.08518811 0.015170226
000250 38 ba 51 3c c3 69 94 3c b3 77 fb ba e5 6a 06 bd
       0.012800746 0.018116837 -0.0019185453 -0.032816786
000260 26 f0 66 bd c4 d4 ef 3c af 9a ae bc a4 2a 8f bd
       -0.056381367 0.02927626 -0.021313993 -0.06990555
000270 34 42 f5 3c f8 25 96 bd 9d 29 4a bd ae 9c 08 bc
       0.029938795 -0.07331461 -0.04935609 -0.008338137
000280 8d 4d a9 3c f9 11 b3 3d ec 81 c2 39 3a d6 ba 3d
       0.020666862 0.087436624 0.00037099363 0.09122892
000290 37 bc ad 3c 14 2e 21 3c a4 74 83 3d de 90 88 be
       0.021207912 0.009837646 0.06418732 -0.26673025
0002a0 df e1 27 3c a1 fd df bc 65 ac 87 bd 16 d4 03 bc
       0.010246723 -0.02734262 -0.066246785 -0.008046171
0002b0 ab ff 85 3d 42 4a 5f 3d ae c0 8f bd 76 10 87 3d
       0.065429054 0.054514177 -0.070191726 0.065949365
0002c0 35 00 d7 3c 1b ed ce bc a7 16 8c bd f8 5e 13 3d
       0.026245216 -0.025259545 -0.06840258 0.03597924
0002d0 0d c0 75 3d cd 68 7f 3d c2 14 bb 3b 4c d8 17 bc
       0.059997607 0.062355805 0.0057092616 -0.009267878
0002e0 18 ff a6 bd bc 10 8f bc 50 82 5d 3a 07 5b 5b 3d
       -0.08154124 -0.017464034 0.0008449899 0.053553607
0002f0 7a a1 09 3d 33 52 4b 3d 6d 4b 57 bb 09 c1 c5 bc
       0.03360126 0.04963894 -0.0032851354 -0.024139898
000300 de 4d 5b bd 60 74 3c 3d b8 c0 08 bd da 30 f1 3c
       -0.053541057 0.04600942 -0.033386916 0.02944224
000310 dc 66 3a 3d 9a 34 82 bd 71 ff 2a bd 01 79 80 be
       0.04550825 -0.06357689 -0.041747514 -0.2509232
000320 f4 35 6c 3c 5e 42 a3 3d cc dc aa 3d 3b 4b cf bc
       0.01441716 0.07971643 0.08342895 -0.025304427
000330 81 a6 25 3d 69 4a 90 bc cf 4a 14 bd 51 a3 82 3b
       0.040441994 -0.017613607 -0.036204156 0.003986754
000340 7d f1 95 3d 66 e7 7c be 9a 2e 17 3c 02 c9 ea bb
       0.07321451 -0.24697646 0.009227419 -0.0071650753
000350 fc 99 bc bc a9 f1 0b bd 78 e2 71 3d 0d 13 de 3c
       -0.023022644 -0.034166012 0.059053868 0.027108693
000360 38 ea c4 bb ff 46 b9 3c 2b 98 b0 3d 64 84 78 3d
       -0.0060093664 0.022616861 0.08622774 0.060673133
000370 e8 0c d9 3d a3 20 1a bd ea f4 8c 3c 54 b9 ae bd
       0.10598165 -0.03762878 0.017206628 -0.08531442
000380 82 53 92 bd 4d 66 79 bb c7 2d 90 bd 5a bf 6a bd
       -0.07144834 -0.003805536 -0.07039981 -0.057311393
000390 d0 9d fa 3c 4e 4f 1a 3d 26 a7 87 bb e9 96 42 bd
       0.030592829 0.037673287 -0.0041397987 -0.0475072
0003a0 ea a9 83 bc 26 73 c0 bd dd 2a d2 bc 34 a8 17 3d
       -0.016072232 -0.09396963 -0.025655204 0.037025645
0003b0 31 95 ad bc cb 2b 7a bc ac 4e 2a bd 00 71 e2 3c
       -0.021189304 -0.01526923 -0.041578934 0.027641773
0003c0 55 a9 80 bd 11 f6 10 3d 5b 47 07 bc 10 35 2b bd
       -0.062822975 0.035390917 -0.008256759 -0.04179865
0003d0 c2 99 45 bc da 2d 14 bd 57 44 84 bd 5e 98 83 bd
       -0.0120605845 -0.03617654 -0.06458347 -0.06425546
0003e0 a0 9d 57 3d 07 ba 4d bd 82 49 06 3c 06 62 df bb
       0.052640557 -0.050226238 0.008196237 -0.006817105
0003f0 d4 8f c5 3c 7d 8e a6 bc c9 70 20 bd a0 44 57 bd
       0.024116434 -0.020331616 -0.03917006 -0.05255568

network_body._body_endoder.seq_layers.2.weight f4 [256, 256]
000000 dd a3 be bd 9e 27 c2 3c 4f 4e 06 be b2 d4 4e bd
       -0.09308598 0.023700532 -0.1311581 -0.05049581
000010 cd a4 cd bd 9b a0 0b bc 8a fa c6 bd 42 76 62 bd
       -0.10041199 -0.008522178 -0.09715755 -0.05528856
000020 8d c0 04 bc 1f f4 b2 3d cf ad c3 3d 22 ba b9 bc
       -0.008102548 0.08737969 0.09554636 -0.022671763
000030 84 63 99 bd 1f 94 46 bd 4d d6 f0 bd 9a 80 5a 3e
       -0.07489684 -0.048481103 -0.11759625 0.2133812
000040 58 96 72 bd 0d 01 91 bd 91 f3 f5 bc 09 fa 1e bd
       -0.05922541 -0.070802785 -0.030023368 -0.03881267
000050 4a 4c ca bd ea 55 96 3d 12 51 63 3d f7 b4 a7 bd
       -0.09877832 0.073406056 0.055497237 -0.08188813
000060 82 51 12 bd ba 90 56 3d 45 00 03 bd cb aa 2d bd
       -0.035722263 0.052384116 -0.03198268 -0.04239921
000070 59 17 2d be 4e 62 98 be a8 b5 d7 bc e7 2c 06 bc
       -0.16903438 -0.297625 -0.026331738 -0.0081894165
000080 60 fe e9 bd 46 43 a2 3d 99 d5 68 3d ec b4 53 3e
       -0.11425471 0.07922988 0.056844328 0.20674485
000090 6d 19 86 3c 98 cc 8b 3d 96 75 f1 bd c0 d2 94 bc
       0.016369546 0.068261325 -0.11790006 -0.0181669
0000a0 5f 5f ee bc e2 e4 cd bd 2b d0 dc bd 3e fa 08 be
       -0.02909821 -0.100534216 -0.107818924 -0.1337671
0000b0 df 36 98 bc 97 b7 ad 3c 0b 45 9a bb ee 00 cf 3d
       -0.018580852 0.021205707 -0.0047079376 0.10107599
0000c0 d7 65 b4 3d 2c d0 ed bd fa f7 a8 bd 28 66 09 be
       0.08808487 -0.11611971 -0.08250423 -0.13417876
0000d0 1c 75 8a bb 7f 00 0f bd 33 ec 21 bd 21 21 c8 3d
       -0.0042253863 -0.034912582 -0.039531898 0.09771944
0000e0 d4 a5 5d 3d 98 af 22 3e d1 95 ac bd 23 f6 71 3d
       0.054113224 0.15887296 -0.08427013 0.059072625
0000f0 e5 0a ab bd 58 c2 9d 3c cb 13 8d 3d 81 94 17 3c
       -0.08351687 0.01925771 0.06888541 0.009251715
000100 fb e3 b8 3b 07 63 c3 bd 91 57 37 be b7 e2 2b 3e
       0.0056424118 -0.09540372 -0.17904498 0.16785704
000110 79 9b d8 bd 8f a4 6d 3e eb 57 a8 3d 61 b3 18 3d
       -0.10576529 0.23207305 0.08219894 0.037280444
000120 92 9b 4e 3c 0e d2 90 3d c3 56 72 3e 9c 4f 9a 3d
       0.012610333 0.07071315 0.2366591 0.075347155
000130 17 7f 85 3d 0a 4b 8d 3d fe 3f aa 3c 95 2e 8f bc
       0.06518381 0.06899078 0.020782467 -0.017478267
000140 9b ea a6 bb 1c c5 ae bc f8 19 fa 3d 12 82 69 3d
       -0.005093885 -0.021334223 0.122119844 0.05700881
000150 bc fe 26 3d 71 c4 dd 3d 41 c1 f3 3d c0 df 1a 3e
       0.040770277 0.10828484 0.11902095 0.15124416
000160 93 6d e7 bd b6 9f f6 3d b4 f1 75 3d 2f 9c 03 3e
       -0.113001965 0.12042181 0.06004496 0.12852548
000170 58 d6 a5 3d 8b a5 bd 3b 0b 4a 01 bd f8 4e 48 be
       0.080975235 0.0057875565 -0.031564754 -0.19561374
000180 cf 91 36 be 3e 1f f4 3b 6b b7 7a 3d 41 21 22 3e
       -0.17829059 0.0074500134 0.061210077 0.15832998
000190 a7 37 9b bd b1 67 ce bd a8 4d 0e be c8 52 99 3d
       -0.07578974 -0.10078371 -0.13896811 0.074864924
0001a0 ce 9a 31 be 01 1e 89 3d 52 f7 81 3d 00 17 36 3d
       -0.1734421 0.06695176 0.06346001 0.04445553
0001b0 2f 70 06 3e f3 6d 94 bd dc 2b a7 bc 61 8a 7b bd
       0.13128732 -0.07247534 -0.020406656 -0.061411265
0001c0 80 39 b5 bd 82 e2 d0 3d 0f 15 95 3d 53 de 8d bd
       -0.08848858 0.10199453 0.07279407 -0.069271706
0001d0 d9 26 a8 3c c3 15 d4 3b 32 78 d8 bc 1c 7b 07 3d
       0.020526337 0.0064723208 -0.026424501 0.03307639
0001e0 f2 aa 3c 3d 47 cb a4 3d 6b 7f bb 3c 9c 89 00 3e
       0.046061464 0.080465846 0.022887906 0.12552494
0001f0 aa 97 ba 3c 7d 4e 08 3e 22 86 e3 3d 4d 8a 96 3c
       0.022777397 0.13311191 0.11109568 0.018376494
000200 de fe ce bd ba da 30 3e fb fe 3f bd 10 a2 1e bc
       -0.10107206 0.17270938 -0.046874028 -0.009682193
000210 bb ba 8a 3b da 26 a0 3d ce 37 0d 3d db 0e 16 bd
       0.004233686 0.0781991 0.034477048 -0.03663526
000220 45 e9 7f be c9 6a 9a bd aa 3b 98 3d c7 7d fb bc
       -0.24991329 -0.07539899 0.07433255 -0.030699624
000230 d4 e5 24 bc f8 00 4c bd 76 f9 26 3d b0 d2 c6 bd
       -0.010064561 -0.04980561 0.04076525 -0.09708154
000240 2d bf a5 bd cb 9c c9 3d d0 e6 dc bd 9e 04 86 3d
       -0.080931045 0.09844359 -0.107862115 0.065438494
000250 b7 43 b5 bd 24 8b 15 3d 63 98 9c bc cd 97 8e bd
       -0.08850806 0.036509648 -0.019115632 -0.069625475
000260 e2 ca 2d 3e 46 f4 c3 3d 2d 3d a8 bd d0 74 17 be
       0.16971925 0.09568076 -0.08214793 -0.14790654
000270 1c 65 bb bd 5c a3 ca bd 9b 78 a1 3c b5 7d 8c bd
       -0.091501445 -0.098944396 0.01971083 -0.06859914
000280 10 b9 eb 3c d6 87 7d bb 27 39 23 be 26 e7 1c bd
       0.028774768 -0.00386857 -0.1593977 -0.038306378
000290 7d 6a 86 bd 6b 2c 12 3d c4 00 42 3d 34 16 9c bd
       -0.0656328 0.03568689 0.04736401 -0.076214224
0002a0 f6 ae d3 bd 1c 5e d0 3c 9e 4b 15 3c d3 31 06 3e
       -0.103361055 0.0254355 0.009112267 0.13104944
0002b0 2d 4c 36 3c f0 49 25 bd 85 30 82 bd 07 be f8 3c
       0.01112656 -0.040353715 -0.063569106 0.03036405
0002c0 74 3a c7 3d f1 1d 3b 3d f7 e9 4f 3d 7a 8e 1e bd
       0.09727946 0.04568285 0.050760236 -0.038710095
0002d0 a4 06 a4 3d a5 08 ca 3d 2c 9b f6 3d 30 e9 84 3d
       0.08009079 0.0986493 0.120413154 0.064897895
0002e0 c4 ef 67 bd 00 87 17 3e 67 fe b0 bd 74 e0 93 bd
       -0.056625143 0.14797592 -0.086422734 -0.072205454
0002f0 fb 7b 58 3d aa f2 d2 3d c2 dd d3 bb 0e c6 b5 3c
       0.052852612 0.10300191 -0.0064656446 0.022189166
000300 ff 78 a0 3c 7f 67 d2 3d 8b 43 98 3d c2 98 2a be
       0.019588945 0.102736466 0.07434758 -0.16659835
000310 ec 2c b0 3d e8 44 53 bc fb 7b d6 3d dc 68 ae bd
       0.08602318 -0.0128948465 0.10472866 -0.08516094
000320 5c 68 b3 3c 03 6c 0f 3e 85 99 5f 3d 3d 07 7e bd
       0.021900348 0.14006047 0.054589767 -0.06201862
000330 b1 f0 a7 3d d0 45 69 3d a3 b3 27 3d 5f 1f 14 3e
       0.08200205 0.056951344 0.0409428 0.14465092
000340 ba 40 bc bc a9 5a ad bd 50 a2 e4 3d 64 a6 2f 3e
       -0.022980083 -0.08464558 0.11163771 0.17153317
000350 4e e0 8b bc 46 8e a9 bd 7b 87 da 3c f6 8d be bd
       -0.01707473 -0.0827909 0.02667593 -0.09304421
000360 d0 65 8e 3c aa f1 9f bd ac e8 10 3c 7a 31 11 3e
       0.017382532 -0.07809766 0.008844536 0.1417903
000370 b5 b2 c8 3b 81 6a 93 3d 07 dd 8a bd 26 a0 00 be
       0.006124819 0.071980484 -0.06780439 -0.12561092
000380 b1 a4 f5 bc a4 e3 1e be f1 be 43 be 72 e3 b7 bd
       -0.029985758 -0.15516526 -0.19115807 -0.089789286
000390 c8 96 da bb 15 b8 d2 3b 32 c4 85 3c 3c ad 9d 3d
       -0.0066708066 0.0064306357 0.016328905 0.076990575
0003a0 05 9a 98 3d cb 86 98 3d 7b 87 94 bd a9 df 5b 3d
       0.07451252 0.07447585 -0.07252403 0.053680096
0003b0 3b d5 a7 bd 8f 3a 44 3e 8a fd f2 bb 2c 98 9a 3d
       -0.08194967 0.19162963 -0.007415478 0.07548556
0003c0 8e d3 19 3d f4 55 16 3d 64 ae c9 bc 10 28 99 3d
       0.03755527 0.036703065 -0.024619289 0.074783444
0003d0 4f 87 1f 3d 88 84 d9 3d f1 9c c5 3d f8 44 f4 3c
       0.0389474 0.106209815 0.09649075 0.029818043
0003e0 f9 ce 42 3c 9c 53 fa bb 64 27 3d bc ee 2e 96 3e
       0.011890166 -0.0076393615 -0.011545036 0.2933268
0003f0 ae 12 18 be 33 6b 94 3d 8b db 1c be a8 bf 8c bd
       -0.14850876 0.07247009 -0.15318124 -0.06872493

network_body._body_endoder.seq_layers.2.bias f4 [256]
000000 82 b4 95 3d d3 57 53 bb 81 3c 2a 3d 01 48 96 3c
       0.0730982 -0.0032248392 0.041561607 0.018344881
000010 f6 74 f8 b8 9d ab 08 be 92 94 eb bc 7e 4f 48 3c
       -0.00011847347 -0.13346715 -0.028757367 0.012225984
000020 02 91 a4 bd df f2 98 3c 1e 21 b4 3d f8 7a 20 3d
       -0.080354705 0.018670497 0.08795379 0.039179772
000030 d9 8b b2 bd f2 d2 46 bd 1f b4 22 bd f5 ee ea b8
       -0.0871808 -0.048541017 -0.039722558 -0.00011202499
000040 87 dc 2a bd 85 89 b4 3d 77 cd e1 3c 13 fb 9a bd
       -0.041714218 0.08815292 0.027563794 -0.0756742
000050 f3 c8 45 bd 2d 9d 6e bd 2f d3 3c 3d 00 ae ea 3c
       -0.048287343 -0.058255363 0.046099838 0.028647423
000060 c0 bb e0 bd 7e 9f 3c 3d bc 25 c9 3d 97 7a 70 bd
       -0.109733105 0.04605054 0.098216504 -0.05871066
000070 28 ad bb bc ec e9 a8 bc 2e 39 33 bd 16 18 80 bd
       -0.022909716 -0.020619355 -0.043755703 -0.06254594
000080 48 38 46 bd 5d 8b 98 3c a3 66 05 bd b1 b9 b4 bc
       -0.048393518 0.018621141 -0.032568585 -0.0220612
000090 b8 51 3a 3d 48 60 38 3d c6 eb 18 3c 3b d1 96 3c
       0.04548809 0.045013696 0.0093335565 0.018410316
0000a0 f9 42 0b bd 23 86 b8 bb 0b 11 83 3d e0 0b bd 3d
       -0.033999417 -0.0056312247 0.06399735 0.092307806
0000b0 81 13 17 bd e1 e8 39 bc 78 5a 2e bd fe 92 ae 3c
       -0.036883835 -0.011347027 -0.042566746 0.021310326
0000c0 49 4f 84 3c 55 13 0a bd fa 40 c6 bc c1 7f 81 3c
       0.016151087 -0.033709843 -0.024200905 0.015807988
0000d0 34 b3 9a 3d fc 16 73 bd 17 e3 50 3d 92 12 4a 3d
       0.075537115 -0.05934809 0.05099782 0.049334116
0000e0 19 66 80 bc 6b e6 98 3d ca 62 b4 bc 1d 05 5e bc
       -0.015673684 0.07465824 -0.022019763 -0.013551024
0000f0 56 b6 e9 3c 9a 3e 33 3d ac 55 bf 3b f5 9b 9e 3c
       0.028529327 0.043760873 0.0058390703 0.019361475
000100 9d 20 3f bc f5 c9 5b 3d 3d d0 38 bd 83 69 b3 bd
       -0.01166549 0.053659398 -0.045120467 -0.08760359
000110 55 ea d4 3c 03 09 d8 3c cd e8 23 3d 3a 65 33 3d
       0.025990644 0.026371485 0.040016938 0.04379771
000120 dd ca 76 bc e0 50 2e bc 3b 5b 85 bd 91 cc 35 bd
       -0.015063015 -0.010639399 -0.065115415 -0.044384543
000130 69 aa 92 bd c0 f5 23 bd cc 88 82 3d 1d 2c 48 bc
       -0.071614094 -0.040029287 0.06373748 -0.012217549
000140 b8 d7 54 3d f7 16 19 3d f9 6a b2 bc dd f5 a7 3b
       0.051963538 0.037375417 -0.021779524 0.0051257447
000150 ac 21 23 3d a3 ad ac 3c e8 30 5f bc 21 f2 d9 bb
       0.039827034 0.02107889 -0.0136225 -0.0066511785
000160 fb d8 a7 bb 01 d3 fe 3c dc ad c4 bd ce 9c b5 bd
       -0.0051223016 0.031106474 -0.096034735 -0.08867799
000170 7e 6d 11 be 75 b7 6c bd 1a 23 a6 bd 29 c8 44 bd
       -0.14201924 -0.057792146 -0.08112164 -0.04804245
000180 a6 71 4f 3d 5c 61 93 bd 99 2f f4 bc ba bc 96 3c
       0.050645493 -0.07196304 -0.029807853 0.018400539
000190 f9 dc f7 ba a3 d1 2f bd be 40 16 3c 0c 3b 0a bb
       -0.001891046 -0.042924535 0.009170709 -0.0021092324
0001a0 ea 50 a5 3b d7 f1 74 bd 25 5f 7e bd ea 9b 8d 3d
       0.005045046 -0.05980095 -0.062102456 0.06914504
0001b0 15 0b 66 bd 90 bb 9b 3c fc a6 da bc 68 85 64 bd
       -0.056162912 0.019010335 -0.026690952 -0.05579129
0001c0 79 f0 dc 3c de 38 3d 3d 64 89 98 3d 6e 59 71 bd
       0.026970135 0.04619681 0.0744808 -0.058923177
0001d0 90 d1 3b bd 9b c8 90 bd 6c 0f 15 bd fa d4 2d 3d
       -0.04585415 -0.070695125 -0.03639166 0.04243944
0001e0 7f 72 8f bd 82 dc d5 bd f2 93 f5 3c 73 77 95 3c
       -0.0700426 -0.10442449 0.029977772 0.018245434
0001f0 40 9a cd bd 88 a4 a3 3c 81 ca 8e bc af d7 5c bd
       -0.100391865 0.019975916 -0.017430546 -0.05391663
000200 17 5c b7 3d bb 1d 32 bd 2a 74 88 3d a4 04 70 bd
       0.089531116 -0.043485384 0.066627815 -0.058598176
000210 2f 24 6b 3d 15 c0 ac bc 52 8a ef bd 37 d2 40 bd
       0.057407554 -0.021087686 -0.116963044 -0.047075476
000220 6c fe 12 bd 2f ad dc bc 6c 9d c7 3c 3b 1e 78 bd
       -0.035887167 -0.02693805 0.024367057 -0.060575705
000230 be d5 07 bd 64 23 86 3d 56 0e 41 bd af d3 2a bd
       -0.033162825 0.06549719 -0.047132812 -0.041705783
000240 11 d8 7a 3d ad 64 41 bc 44 fd 72 3d e8 ab 22 bd
       0.061241213 -0.011803788 0.059323564 -0.039714724
000250 96 ad 45 3d df ff a4 bd b3 64 54 bc f3 40 99 bc
       0.048261248 -0.08056616 -0.012963462 -0.018707728
000260 8b 9b 32 bd d4 cb 29 bd b0 be 02 bd b2 d4 6e bc
       -0.04360537 -0.04145415 -0.031920135 -0.014577078
000270 77 c8 b1 bc 23 1b 09 bd e8 26 76 bd 53 bb a6 3c
       -0.021702034 -0.033473145 -0.060095698 0.020352995
000280 83 77 39 bd b3 cb fb 3c 94 b8 1c bd 66 3a 19 3d
       -0.04527999 0.03073678 -0.038261965 0.03740921
000290 a2 a1 e5 bb a2 62 25 bc d9 14 3b bd 90 a9 82 bd
       -0.0070077935 -0.010094317 -0.04567418 -0.06379998
0002a0 eb 39 df 3a 34 52 63 3d b8 a1 c0 bd 98 65 87 bc
       0.0017030811 0.055498317 -0.094058454 -0.016527936
0002b0 21 a4 a8 3c 83 98 ba bd 7f 71 97 3c f7 a3 c2 3c
       0.020586075 -0.091111206 0.018486736 0.023759825
0002c0 79 26 39 3d 69 b1 14 3d d4 1f 4a 3d 94 74 64 bd
       0.045202706 0.036302004 0.04934676 -0.05577524
0002d0 91 57 4b bd aa 91 07 bd 33 98 93 3d 74 9a 52 3d
       -0.049644057 -0.0330979 0.07206764 0.05141683
0002e0 af 14 94 bc a1 b2 26 bd 88 b8 4a 3d 48 7f 56 3d
       -0.018076269 -0.040697698 0.04949239 0.05236748
0002f0 6d 86 8a bd f1 64 a0 bd a6 27 ae bb c2 da 48 3d
       -0.06763921 -0.07831753 -0.005314785 0.04903675
000300 35 98 92 bd 54 86 90 3d b7 5f 31 3d 57 da f4 bc
       -0.071579374 0.07056871 0.04330417 -0.029889269
000310 6d 5a 98 3b 67 6e 75 bd e9 9c 93 3d 99 07 43 bd
       0.0046494515 -0.05991974 0.072076626 -0.047614668
000320 f7 b5 08 bd 5a 40 08 3d 0d c1 4b 3d a4 54 8e bc
       -0.03337666 0.033264495 0.049744654 -0.017374344
000330 5d 84 c7 3d dd 58 32 bb 12 c9 53 bd 98 05 ce 3d
       0.09742043 -0.0027213611 -0.051705427 0.10059661
000340 17 d6 00 3d 49 cb 43 bd 2f fc c5 bc 81 48 05 be
       0.031454172 -0.04780129 -0.024168102 -0.1301594
000350 f6 00 bf bd 7f a9 3c 3d 70 97 52 3b fa 84 fb 3b
       -0.09326355 0.04606008 0.003213372 0.007675764
000360 eb 66 8c 3d 39 b7 83 bd ed a5 ce ba c8 4c e4 bc
       0.068555675 -0.06431431 -0.0015766002 -0.027868643
000370 b7 62 a0 3d 71 57 61 3d 10 62 37 bd 8c 7f 1c bd
       0.07831328 0.05501503 -0.044771254 -0.038207576
000380 80 bd 0f 3d 6f 15 c7 bd ff 97 8c bc 11 0e 06 bc
       0.03509283 -0.09720885 -0.017162321 -0.008182065
000390 70 82 66 3c 99 17 fa bc 91 b1 99 3a 68 43 be bb
       0.014069185 -0.03052883 0.0011725893 -0.0058063753
0003a0 83 9e 52 bd b1 75 96 3c 83 56 95 3d 7d 1c 71 bd
       -0.0514207 0.018366667 0.072918914 -0.05886506
0003b0 99 42 cb ba 7f 91 6a bd d2 51 5a bc 32 a1 29 bc
       -0.0015507519 -0.057267662 -0.013325172 -0.010353373
0003c0 7e 82 07 be 77 c8 e3 bb 6c d7 f3 3d 7e fc c2 3d
       -0.13233373 -0.0069513875 0.11906323 0.09520815
0003d0 12 9c 8f bd 2e f0 a4 3b 77 a0 10 be ac cf e4 bc
       -0.0701219 0.0050335145 -0.14123712 -0.027931057
0003e0 47 71 87 bc cc 65 26 bd 6b b4 b1 bb cc c6 cf bd
       -0.016533507 -0.040624425 -0.005423119 -0.10145339
0003f0 10 bb 5b bd e5 ff 29 bd 6c 26 bd 3c d2 83 ad bd
       -0.053645194 -0.041503806 0.02308961 -0.08472408

action_model._discrete_distribution.branches.0.weight f4 [3, 256]
000000 19 15 b7 3c 5d 23 b1 bd 19 41 f4 bc 54 39 08 3c
       0.022348927 -0.08649323 -0.029816197 0.008314449
000010 21 d3 7d ba 5b 8b 04 bd 51 7b 50 bd 90 1b 44 bd
       -0.0009682645 -0.032359462 -0.050898854 -0.04787785
000020 27 a7 3a 3d be 7b a2 3c 6c 3d 15 3d 5d 6b 95 3b
       0.045569565 0.019834395 0.03643553 0.004559918
000030 9e 92 fc bb 18 51 ea 38 5f 1e 0b 3c 71 9a b6 bc
       -0.007707908 0.000111730944 0.008491128 -0.02229044
000040 e1 53 9e 3d 6e b1 35 3d 21 63 0f bc 16 d6 64 bb
       0.077308424 0.044358663 -0.0087516615 -0.0034917644
000050 f3 8c b9 3c bc 08 8d 3d 2d 22 b3 bc 23 6b f3 bb
       0.022650218 0.068864316 -0.021866882 -0.007428543
000060 a6 c0 52 3c f1 92 26 bc cf 61 35 3d d7 21 35 3d
       0.012863314 -0.0101668695 0.04428273 0.044221725
000070 de 93 af bd 1c 7b 29 3d 58 63 ec 3b dd 05 a5 37
       -0.08573125 0.041377172 0.007213991 1.9672263e-05
000080 84 f7 58 3d f8 4a 53 3d f2 cc e8 3b 16 0a 8e 3b
       0.052970424 0.051585168 0.0071045095 0.0043346984
000090 01 26 cd bb 1a 6b 84 bc 90 8e 68 bb fe 3e cc bc
       -0.006260634 -0.016164351 -0.0035485364 -0.02493238
0000a0 65 23 a6 3c c5 89 cb bd 20 f6 c7 3b b5 7f 5d bc
       0.02028055 -0.09938387 0.0061023384 -0.013519217
0000b0 33 85 f3 bc 79 18 56 bd 7f 5b 1d 3c f6 bf 4e 3c
       -0.0297266 -0.052269433 0.009604334 0.012619009
0000c0 c5 ff a4 3c 77 49 a7 3d 55 b4 03 3d c0 16 e5 bc
       0.020141492 0.08168309 0.0321544 -0.02796495
0000d0 da e9 11 3b d5 b2 60 bd 12 66 56 3d b5 ce 82 3d
       0.002226463 -0.054858048 0.052343436 0.063870825
0000e0 66 ad db ba 9f 1d f9 bb c5 0d 82 bc 15 a4 c6 bc
       -0.0016760051 -0.007602408 -0.015875706 -0.024248162
0000f0 df 45 c6 bc 15 1a 12 bd 83 ac 19 bd 6a cd 0b bd
       -0.024203239 -0.035669405 -0.037518036 -0.034131445
000100 8d 24 0f 3c 84 fd 48 3d c7 d4 01 3c c7 6f 69 3d
       0.008736742 0.049069896 0.007924265 0.056991365
000110 63 ef 5b bb da 52 04 bd 86 97 ad bc 16 30 01 3b
       -0.0033559434 -0.032305576 -0.021190416 0.00197125
000120 ee f9 75 3c 9c 74 4e bd 76 d5 91 3d 33 5b 84 bc
       0.015013201 -0.050404176 0.071207926 -0.016156768
000130 63 f1 2c 3d 70 24 17 bb 52 68 92 3a e3 0a 25 bd
       0.04222239 -0.002306249 0.0011170006 -0.040293586
000140 bd 2c 80 bb ed ff 84 bb d0 46 52 bd 28 36 bd 39
       -0.003911583 -0.004058829 -0.051337063 0.0003608924
000150 59 c0 75 bc 26 93 1a 3d 98 5e 37 3b 6a b6 ce bc
       -0.014999473 0.037737988 0.0027979966 -0.025233466
000160 82 8d b4 bd 13 e6 2d bc 06 04 18 bd 0a 74 c9 3c
       -0.08816053 -0.010613936 -0.037113212 0.024591465
000170 8d 1d 04 bd 37 a8 15 bc d1 a7 86 3d 7c 4e 2d bc
       -0.032254744 -0.009134344 0.06574977 -0.010577794
000180 f5 aa 3d bb d7 a8 b8 3d 1a df da ba 30 ae a4 3b
       -0.002894101 0.09016579 -0.001669857 0.0050256476
000190 68 50 0e bd f0 d9 ce bc c1 5e ef bc f1 1e ca bc
       -0.03474465 -0.025250405 -0.029219987 -0.024672957
0001a0 09 55 ff bc 9f 52 24 3d 42 15 da 3a 9b 80 3d 3d
       -0.031168478 0.040117856 0.0016638415 0.046265226
0001b0 10 e7 1a 3d f4 a1 ab bc 81 4c 08 bc 13 ee 06 3d
       0.037818015 -0.020951249 -0.008319021 0.03294189
0001c0 4a 3c 3e bd 8a e2 12 3c 45 eb c4 bc 4e 8a e9 b9
       -0.046444215 0.008965144 -0.024037967 -0.00044544268
0001d0 93 8a c4 bb 89 ca c8 3d d0 e6 31 bc e8 0a 95 bc
       -0.0059979646 0.098042555 -0.010858253 -0.018193677
0001e0 a1 e9 13 3c 9e 8e af 3c 0f 6d 97 bc 8d bd 84 bd
       0.009027869 0.02143031 -0.01848462 -0.064814664
0001f0 02 07 c5 bc 76 fe 14 3c a0 cd 5d bc 5e 7a e4 bc
       -0.024051193 0.009093871 -0.013537794 -0.02789038
000200 63 6e 3c bc fa 3c c6 3b 9a a8 f5 bc b5 c0 f4 bc
       -0.011500928 0.0060497494 -0.029987622 -0.029877046
000210 13 de 15 bd 49 d2 5a 3d 54 b2 ee 3c de 6e e7 3c
       -0.03658874 0.0534232 0.029137768 0.028251108
000220 11 88 a8 bb e3 51 83 3c 66 09 26 3d 64 4a 1a 3d
       -0.0051431735 0.016030258 0.040536307 0.0376686
000230 ac 2a 83 bd 1b 16 8b bb 7f e4 6c 3d da e4 cd bb
       -0.064046234 -0.0042445785 0.0578351 -0.0062833847
000240 c9 17 b6 3c 61 12 11 bc e7 15 bb 3c f3 ff c6 bc
       0.022228139 -0.0088544795 0.022837592 -0.024291968
000250 73 f3 de bb b2 2b fd bc bc 04 3a 3a b9 b5 46 bc
       -0.0068039238 -0.030904625 0.00070960424 -0.012128287
000260 0f 20 4a bc eb 00 d6 3d e8 ae 8e 3d 7b b6 1f bd
       -0.012336745 0.10449394 0.069669545 -0.038992386
000270 31 16 5a bd 3f 65 af bc d0 c6 cb bc 99 3a da bc
       -0.05324382 -0.021410583 -0.024875075 -0.02663927
000280 31 ab f0 3d cc ca b0 3c 3f c4 ec bb b6 77 0d 3c
       0.11751402 0.021581076 -0.007225543 0.008634498
000290 d5 0a 8e 3b e3 64 79 3c b9 0e 6e 3d de e1 a5 3c
       0.0043347874 0.015221807 0.05811951 0.020249303
0002a0 ae 3f 15 bd 38 4b 62 3c 31 9a aa 3b cd 41 b8 bc
       -0.036437683 0.013811879 0.0052063693 -0.022492314
0002b0 2c 5e fd bc 87 13 11 bd a3 88 5d 3c cd 44 d6 bc
       -0.030928694 -0.035419013 0.013521346 -0.026155854
0002c0 ab b0 a1 bc fd f2 bd 3a 05 5b 25 bd 54 80 99 3b
       -0.019737562 0.0014491972 -0.040370006 0.0046844874
0002d0 e0 59 b8 3b 16 26 45 bd 41 b2 b3 3c d7 92 ec bc
       0.0056259483 -0.048132025 0.021935584 -0.028878612
0002e0 87 41 24 bd b4 6d c1 3d fc e9 9f bc d9 29 a4 bd
       -0.040101554 0.09444752 -0.019520752 -0.08015794
0002f0 1c c6 36 3d e6 23 86 3c 77 f9 96 3c e8 b2 30 3c
       0.044622526 0.01637454 0.018429501 0.010784842
000300 f5 c4 9d bc 48 ec 99 bc 5a 43 36 3c 23 d2 9e 3d
       -0.019258955 -0.018789425 0.011124456 0.07754924
000310 d2 4a 94 bc 6e b5 05 3c e7 8f 9e bc 4a 4c ec bc
       -0.018102083 0.008160932 -0.019355727 -0.028844971
000320 0c 64 85 bc 05 1e 12 bd 8a bc 86 3d 09 3f 84 ba
       -0.016283058 -0.03567316 0.0657893 -0.0010089587
000330 66 ad d9 3b e8 55 29 bc 6c 4f 31 bd 29 03 70 bc
       0.006642985 -0.010335423 -0.043288633 -0.014649191
000340 b4 20 07 3c 0d cc 54 3d 4d 4c d0 3b b8 2d 65 bb
       0.008247543 0.05195241 0.006356752 -0.0034969877
000350 3e a6 c2 bc 5c ba e4 3c 30 69 13 3d 3c 43 b8 3c
       -0.023760911 0.027920894 0.035988986 0.022492997
000360 91 01 91 3b 37 9f 65 3d 7c 18 9a bd 41 7f 8c 3d
       0.0044252356 0.056060042 -0.07524201 0.06860209
000370 30 74 18 bd 4c 9c 24 3b 89 0a 4a 3d ad 20 29 bd
       -0.03722018 0.0025117574 0.049326453 -0.041290928
000380 7b 75 7e bb bf ff 01 3d f3 8f 0c 3d df c9 8e bc
       -0.0038827348 0.03173804 0.03431697 -0.017430244
000390 8e 83 3b 3c f9 d8 34 bd 7f f7 ad bc 8c 5b 7b 3d
       0.011444939 -0.044152234 -0.02123618 0.061366603
0003a0 e1 86 c8 bb 51 9c 56 bd a4 43 32 b8 b0 2a 45 3c
       -0.0061195944 -0.05239517 -4.2501502e-05 0.012034103
0003b0 e9 34 26 bd f5 27 33 3d e7 91 d4 3a d6 c1 10 bd
       -0.040577803 0.043739278 0.0016217799 -0.035341106
0003c0 ae 5b 6a bc 6c 90 c8 bc 12 75 14 3d c2 a4 0a 3d
       -0.014304085 -0.024482928 0.03624446 0.03384853
0003d0 6c 9d f5 bc 19 73 25 3d ed ac 42 bc c1 e6 e1 3c
       -0.029982291 0.04039297 -0.011882049 0.027575852
0003e0 49 9c b1 bd ce 36 22 bb 82 6f c7 bc fe 4a 59 3c
       -0.08672387 -0.0024751904 -0.024345163 0.013262508
0003f0 82 f8 9f 3d ec e2 77 3c 97 b1 3a bc 24 3d 9a bc
       0.07811071 0.015129786 -0.01139488 -0.018827982

action_model._discrete_distribution.branches.0.bias f4 [3]
000000 54 75 40 3d b1 7e 8c 3d 8d ac 2c be
       0.046986893 0.06860102 -0.16862698

action_model._discrete_distribution.branches.1.weight f4 [3, 256]
000000 52 45 08 bd 9b 46 5d 3d e5 48 87 bb de 25 95 bc
       -0.033269234 0.054022413 -0.0041285628 -0.018206533
000010 97 b1 91 3c 10 aa 65 bd 15 40 e8 bb 64 db 90 bc
       0.017784877 -0.056070387 -0.0070877173 -0.017682739
000020 28 07 8b bc ae 7a 9f bc b0 92 ff bc aa bb c5 bc
       -0.016971186 -0.019467678 -0.031197876 -0.024137337
000030 ca 36 ab bc 0d 06 8e bb 24 0e 98 bc 3a 9b ff bb
       -0.020900149 -0.0043342174 -0.01856143 -0.007800487
000040 06 49 81 bd bd 36 0b 3a ed d8 14 3a ca 89 9a bd
       -0.06312756 0.0005310586 0.00056780764 -0.075458124
000050 99 48 d6 3b 20 fa 78 bd 0f c8 0f 3d 9d d5 a0 3c
       0.006539416 -0.060785413 0.0351029 0.019633109
000060 ac 41 56 3c 8b 24 40 3b 42 cb 37 bc 01 dd 54 bd
       0.013077181 0.0029318656 -0.011217894 -0.05196858
000070 35 09 19 bd 2b 21 a3 bc 96 e7 a6 3b e1 d5 25 3c
       -0.037362296 -0.019913277 0.005093525 0.0101217935
000080 d1 93 9d 3d 10 01 b4 3b e9 e1 11 3d 8b 27 91 3a
       0.07694209 0.0054932907 0.035615835 0.0011074407
000090 7c c4 46 bd ba 39 34 3c e4 9e 25 3a cd ba a9 3c
       -0.048527226 0.011000091 0.0006317927 0.020718956
0000a0 f7 95 0a 3a ed 00 a0 3c 90 d7 1e bd 8e f6 ad 3c
       0.0005286629 0.019531691 -0.038779795 0.02123573
0000b0 09 15 2d 3d d3 b8 0b bc 6f cc b0 bc 35 1f 7e bc
       0.04225639 -0.008527952 -0.021581857 -0.01551037
0000c0 90 04 14 3c ee 62 0e bd 9b ba 8a bb 71 2a e6 3c
       0.009034291 -0.034762315 -0.004233671 0.02809641
0000d0 cd 5e 12 bd 00 9e dd 3c cd dd 26 3a 44 81 ee bb
       -0.03573494 0.02705288 0.00063654484 -0.0072785933
0000e0 2e bd 46 3d 7f 6a b4 3c bf 60 97 bb f5 66 85 3c
       0.04852026 0.022023438 -0.0046196873 0.016284445
0000f0 61 83 d9 3c ba ee 97 3c 5b c5 9e bc 67 c2 99 bc
       0.026551904 0.01854645 -0.019381216 -0.018769456
000100 c5 18 f0 bb 94 ff e3 bc 3e 15 0d bb 3a 55 e0 bc
       -0.0073271715 -0.02783183 -0.0021527554 -0.02738439
000110 92 bf 0a bd 35 55 d2 3c 57 a7 e5 3b e6 48 36 b9
       -0.033874102 0.025675396 0.007008474 -0.0001738403
000120 2a 8c 8c 3c ab 86 f6 3c 12 36 d7 bc 3b 4e 5c bc
       0.01715668 0.030093512 -0.0262709 -0.013446386
000130 77 de 6c 3d 93 4b 41 3b d6 f0 09 3c 1c 9f 0c bd
       0.057829347 0.0029494509 0.008419236 -0.034331426
000140 38 8e 6d 3c 52 f2 1c 3d 85 01 65 3d 35 67 5a bc
       0.01449924 0.038317032 0.055909652 -0.013330271
000150 f0 31 32 3b 78 ec 07 bd 9a e5 d5 bc 59 67 20 bd
       0.002719041 -0.0331845 -0.02611046 -0.03916106
000160 bd ce 05 bd a5 27 67 bc 84 5a 0f 3c 8a 4f af 3b
       -0.032667864 -0.014108573 0.008749608 0.005350058
000170 be dd 14 bd 7f 31 05 3a 87 3e 95 bb 17 83 69 3b
       -0.036344282 0.0005080923 -0.004554573 0.0035631114
000180 c7 19 a6 bb 93 f9 86 3c d8 ca 1f 3d 92 b9 91 3a
       -0.005068991 0.016476428 0.039011806 0.0011117926
000190 03 e5 7a bd 39 e5 1c 3c ba 39 5c 3c ab 4f 89 bb
       -0.06125356 0.009576135 0.013441497 -0.0041904054
0001a0 f6 d5 a3 3c 4b e5 18 bd be e3 d4 3c 8b ac 09 bc
       0.019999485 -0.037328046 0.025987502 -0.008402954
0001b0 e9 a2 07 bd ef 9a 08 3d 52 2e e3 bc 5a 55 e7 bc
       -0.033114348 0.03335088 -0.027732048 -0.028238941
0001c0 33 9d 10 3d cd 56 0f 3c f0 43 a6 3c 4e 9e 4f bd
       0.035306167 0.008748722 0.020296067 -0.05068808
0001d0 89 d9 89 3c f8 7c ba 3b e0 34 2d 3d 78 b1 9b 3c
       0.016827362 0.005691167 0.042286754 0.019005522
0001e0 ae 3e 26 bd 8a b0 03 bd 4a 20 44 bb df 21 10 3d
       -0.04058712 -0.032150783 -0.0029926472 0.035188552
0001f0 b8 e8 0b bc d9 f5 f9 bc ea 23 27 3d 74 b7 69 bd
       -0.008539371 -0.030512737 0.040805735 -0.05705972
000200 22 37 29 bb 01 b7 3e bd 7b 77 af 3b 22 a2 45 bd
       -0.0025820215 -0.046561245 0.0053548194 -0.048250325
000210 a2 38 d3 3c 83 f5 85 bc 84 5b 13 bd 85 07 2b bd
       0.02578384 -0.01635242 -0.035975948 -0.041755218
000220 e0 82 8a bc a6 76 51 3d b2 dc 45 bb 5e 6a cd 3c
       -0.01690811 0.051138543 -0.003019136 0.025075134
000230 c2 7b fb bc a8 26 37 3c cf dc 48 bc 78 b5 99 3c
       -0.03069866 0.01117865 -0.012259676 0.018763289
000240 e6 92 fc bb 95 de c8 bb 0d 0f 33 3d 7b f3 36 bd
       -0.0077079413 -0.0061300495 0.043715525 -0.044665795
000250 f4 4a cc bc ad 3d 58 bd f5 ba 15 bd d0 ff 29 bc
       -0.024938084 -0.052793194 -0.03655525 -0.010375932
000260 11 92 0e 3d 2f 3a 6b bc 29 e1 1b 3d cf 34 f2 bb
       0.03480727 -0.014357134 0.038056526 -0.007391549
000270 5c 80 c5 3c 7a e8 63 3c fc 74 dd bd 5b ef 75 bc
       0.024109058 0.013910407 -0.108133286 -0.01501068
000280 98 62 a2 bb 16 be 94 38 9f a0 b4 bc a3 a4 09 bc
       -0.004955601 7.092596e-05 -0.022049246 -0.008401069
000290 24 e4 63 3d 6d eb 93 3c 04 3b f4 bc a8 be b5 3d
       0.055637494 0.018056596 -0.029813297 0.088742554
0002a0 b0 44 17 bc 99 b6 63 ba d3 cc ee 3c 19 8c d1 3c
       -0.009232685 -0.0008686572 0.029150402 0.0255795
0002b0 01 e9 44 bd 16 30 d3 bc 48 70 0c bc 29 97 1f 3d
       -0.048073772 -0.025779765 -0.008571692 0.038962517
0002c0 2f e5 fa 3c 35 7a 6d bc 9d b1 70 3c 08 80 eb bc
       0.030626861 -0.014494468 0.014690784 -0.028747573
0002d0 e6 77 26 3c b2 2e 19 bc a4 fb 9e 3c ef 39 f9 3b
       0.010160422 -0.009349512 0.019407101 0.007605783
0002e0 40 13 a6 bc dd 79 07 bd b3 d7 08 3d a4 39 43 bc
       -0.020272851 -0.033075202 0.03340883 -0.011915598
0002f0 43 e2 9c 3d 8c 40 74 3d 98 e3 a3 bd 5e 13 ad 3c
       0.076603435 0.05963187 -0.080023944 0.021127399
000300 f1 ba 84 bb 71 e6 39 3d 0f 95 a0 bc 96 fd 44 3d
       -0.0040506055 0.04538578 -0.019602327 0.0480934
000310 d0 54 6e 3d 7e a9 2f bd e5 1e b7 3c d4 e4 38 bd
       0.058186352 -0.04288625 0.022353599 -0.045140103
000320 3b c2 86 3c 5d 6c be bb ff c0 85 bb 7d 14 b8 bc
       0.016450038 -0.0058112578 -0.004081845 -0.022470707
000330 2c 34 09 3d ce c0 a3 bb 18 96 aa 3b 70 db 38 3d
       0.03349702 -0.0049973493 0.005205881 0.045131147
000340 87 c9 cb 3b f0 88 73 bb 6e ad 1b 3b 7c 64 26 bd
       0.0062190923 -0.0037160479 0.0023754495 -0.040623173
000350 4e 29 4d 3b 23 cd 76 bc 2d 19 b9 3c ad a2 45 bb
       0.0031305137 -0.015063557 0.022595013 -0.0030156777
000360 ae 96 9d 3c 8a a8 a3 bd e4 9f 58 3d 0c 22 21 bd
       0.019236889 -0.07991131 0.05288686 -0.03933911
000370 0f ac c3 3c 54 02 8d 3c 66 f0 d4 bb f6 ce e5 3c
       0.023885755 0.017213024 -0.0064983843 0.028052788
000380 15 ee 9f bc 4e 5d 48 bc d5 28 2f 3d fc 28 9d bc
       -0.019522706 -0.012229277 0.04276355 -0.019184582
000390 ec ae ae bb 7b da cf bc d2 ce e9 bc f1 cf 6c 3d
       -0.005330911 -0.025372734 -0.028541002 0.057815496
0003a0 0b 6a 18 bd 60 0b 25 3d d0 eb 86 bb 40 19 b8 3d
       -0.037210505 0.04029405 -0.0041174665 0.08989191
0003b0 66 34 80 bd 02 f9 ce bc a6 3d ac bc c8 54 36 3a
       -0.06259994 -0.02526522 -0.02102549 0.00069553824
0003c0 45 78 6c bd 17 d4 95 3c 41 51 17 3a 98 64 d5 bc
       -0.057731885 0.018289609 0.00057723006 -0.026048943
0003d0 b6 ed 8d 3b 0a a4 61 3c 2a 64 1d bd df dc 31 3c
       0.004331316 0.01377202 -0.038425602 0.010855882
0003e0 52 fb 03 3d 53 d5 88 3c 05 dd 71 bb 08 e2 41 bd
       0.0322221 0.016703283 -0.003690542 -0.0473347
0003f0 72 2d 94 3c 43 65 1e bd b2 41 be bb 6b cf ac bb
       0.018088076 -0.03867079 -0.0058061713 -0.0052737496

action_model._discrete_distribution.branches.1.bias f4 [3]
000000 bc cc 7f 3d 49 fa 63 bc db 37 55 bd
       0.06245111 -0.013914653 -0.05205522

action_model._discrete_distribution.branches.2.weight f4 [2, 256]
000000 2f ab 43 3c ef 07 61 3c 36 0c 08 3d 49 a8 a4 bc
       0.011942669 0.013734802 0.03321477 -0.020099776
000010 14 90 29 3d 96 01 4c 3c 62 f1 17 3d d1 64 2d 3c
       0.04139717 0.01245155 0.037095435 0.010583119
000020 db cb 44 bb 76 fe ac 3c cf c9 ec bb 2d 9b 13 bb
       -0.0030028734 0.02111743 -0.007226206 -0.0022522912
000030 4d a5 72 3c 56 00 0d 3d 6f 0b 69 3d 23 21 63 3d
       0.014809919 0.03442415 0.05689567 0.055451524
000040 2f 0a 44 3d 81 de 62 3b 74 00 29 bc 63 ff 19 3e
       0.047861274 0.0034617486 -0.010315049 0.15038829
000050 55 ef b9 bd 9f 77 98 bd f4 42 d5 39 57 cf 37 bd
       -0.09078852 -0.07444691 0.0004067641 -0.04487547
000060 03 dc 35 3d 8a a4 e2 bb 8b 0e 56 bc 68 71 f7 bc
       0.044399273 -0.0069165872 -0.013064991 -0.030205444
000070 63 9a d2 3b 0c 66 72 3d f6 96 a1 bc cd dc a6 bc
       0.0064270957 0.05917935 -0.019725304 -0.020368958
000080 06 fb 03 3c 4f 8f 3f bc fc da bd 3c 9c fe b0 3c
       0.008055454 -0.011691882 0.023175709 0.021605782
000090 3b 82 0d 3c 2c 35 cf 3c f5 88 26 bc 11 bb 97 bc
       0.008637006 0.025293909 -0.010164489 -0.018521817
0000a0 09 cb b8 3c f1 43 2a 3d b8 32 01 bd 4a 44 14 3c
       0.022557752 0.0415687 -0.03154251 0.0090494845
0000b0 6b 8b ce 3c 66 4e f4 bb 5a 9a 24 ba 33 29 51 3d
       0.025212964 -0.007455635 -0.00062791037 0.05106468
0000c0 22 45 b5 3c 7d 21 a4 3d 14 2d 4e 3d 3d 2a 57 3c
       0.022127692 0.080142 0.05033596 0.013132629
0000d0 05 97 d6 bb 56 fc cb 3c 56 15 4d bc 04 97 4c bc
       -0.0065487646 0.024900597 -0.012517294 -0.012487177
0000e0 6b f3 12 3c 31 27 b7 bb 1a 1b d0 bc 82 4d 79 bb
       0.008969168 -0.005589389 -0.025403548 -0.0038040583
0000f0 6e a0 78 bc bc 96 d8 3a 83 b1 a4 3c 39 e2 45 3c
       -0.015174968 0.0016524415 0.020104175 0.012077861
000100 04 b4 16 3b 71 66 59 3c d6 80 5e bc 77 5c 5a bd
       0.0022995481 0.013269053 -0.013580522 -0.053310838
000110 fc 5f bf 3b 7f 1f 56 bc c6 e7 d8 bc 5e f6 e7 bb
       0.0058402997 -0.013069033 -0.026477706 -0.00707893
000120 09 f0 07 3b 97 d4 47 3d b6 41 a2 bc 96 ef 4a 3d
       0.0020742437 0.048786726 -0.019806724 0.049544893
000130 be 25 56 3d 0a 57 09 3d e5 12 02 bc 2f 2c 3f 3d
       0.052282088 0.033530273 -0.007939075 0.046672996
000140 3e 7b c6 b8 a8 74 a5 bc e2 26 bc 3d fa 5a b6 bc
       -9.4643314e-05 -0.020197228 0.09187104 -0.022260178
000150 8e 29 49 3c 71 e7 a4 3d a9 71 4f bc 5a 01 05 3d
       0.012277974 0.080519564 -0.012661376 0.032471992
000160 c5 17 f6 3b f3 b1 4a 3c 7e b1 08 bc 60 ca bf b6
       0.007510158 0.012371528 -0.008343099 -5.715803e-06
000170 37 35 01 3c 22 88 61 bc 3f d6 cd bc bc c9 46 3d
       0.007886223 -0.013765367 -0.025126575 0.048532233
000180 9f 2a 7b bc b0 d9 65 bd 76 76 6d 3c 6b f5 05 bd
       -0.015329986 -0.056115806 0.014493575 -0.032704752
000190 b2 43 0c 3b 4e 9a 82 3d d3 4d 73 bc 44 63 b5 3c
       0.0021402654 0.063770875 -0.014850098 0.02214206
0001a0 af ae b0 bb 27 3f 13 3d a5 bd b6 3c a1 04 a4 bb
       -0.0053919177 0.0359489 0.022307226 -0.0050054346
0001b0 bb d7 5e 3d d4 a6 0c bc cc 77 9d 3c 87 83 1f bd
       0.054404955 -0.008584697 0.019222163 -0.038943794
0001c0 8f c3 c4 3c 1d 40 98 bb 22 1f 24 3d 55 0b b3 bb
       0.02401903 -0.004646315 0.040068753 -0.0054639974
0001d0 f1 61 ad bd 99 f8 d9 3c d8 b3 88 3d 3d 52 a5 3c
       -0.084659465 0.026607798 0.066749275 0.020180816
0001e0 f9 91 c4 3c a0 01 c0 bc 54 26 17 3d 7a 7d 3b 3d
       0.023995386 -0.023438275 0.036901787 0.04577396
0001f0 aa 6e b2 bc 5a a4 c9 3c 4c 88 56 ba 1c a0 9a bb
       -0.021781284 0.024614502 -0.0008183762 -0.0047187936
000200 31 80 1b bd c6 85 54 3a 1d 65 29 3d 3d 6a 90 bc
       -0.03796405 0.0008107092 0.041356195 -0.017628783
000210 3d b3 79 3c c0 9b 17 3c 41 3e 3c bc 68 af 6b 3d
       0.015240488 0.009253442 -0.011489452 0.057540327
000220 17 3e d2 bc 04 8a 9a 3d 80 78 c5 3c df d0 0e 3d
       -0.025664372 0.07545856 0.02410531 0.034867164
000230 eb 01 a4 3c 0e 85 aa 3b d0 c4 0e bd d7 9c ae 3c
       0.020020446 0.0052038496 -0.034855664 0.021315021
000240 62 97 7b bb 7c b6 a4 bc 54 eb a5 bd 44 b1 c5 3d
       -0.0038389792 -0.020106547 -0.08101526 0.09652951
000250 87 d9 e0 ba 5e 74 e2 bc 9c db ba bb 83 a0 4b 3d
       -0.0017154672 -0.027643379 -0.005702449 0.049713623
000260 4c 0e ee bb 83 ae 36 bc 6a 98 84 bd a7 88 27 3b
       -0.007264888 -0.011150005 -0.06474383 0.002556363
000270 6a e6 a2 3d 4a ff f2 3c 0a 9d b6 bc 30 46 64 3d
       0.07954104 0.029662747 -0.022291679 0.055731
000280 b9 da 44 3c c3 35 ca 3b 1c 7d 13 3d ca ce 06 3d
       0.012015038 0.0061709597 0.036007985 0.032912053
000290 5b d2 0c bd d9 d7 97 3d bb ef 21 bd 59 42 e2 bc
       -0.034380298 0.074142165 -0.039535265 -0.027619528
0002a0 89 4f c0 3c 84 7e 47 3c 08 c1 39 3c b9 60 97 bc
       0.023475425 0.01217616 0.011337526 -0.018478738
0002b0 09 07 69 3c 83 c6 d9 bb 4f a5 02 3d 66 4a 27 bc
       0.014222869 -0.006645979 0.03189593 -0.010210609
0002c0 38 51 09 bd 37 64 87 bd 24 a0 ce 3c 72 79 88 3c
       -0.03352472 -0.06610911 0.025222845 0.016659472
0002d0 4a f7 62 3d d7 7f c4 3d 68 9a 1d 3c 20 ce 20 3d
       0.055411614 0.09594696 0.009619333 0.039259076
0002e0 96 58 dd 3c a0 12 80 3d 34 23 38 3d a9 cc db 3b
       0.02701978 0.062535524 0.044955447 0.006707747
0002f0 da 4d 45 3d c2 d4 31 3d a3 11 16 bd 36 d8 1c bd
       0.04816995 0.043415792 -0.036637913 -0.038292132
000300 49 80 8c 3c 20 12 83 bb 80 7f 83 3d ed bd b1 bd
       0.017151015 -0.0039999634 0.06420803 -0.086788036
000310 91 af b4 bd ed 69 38 3d 9d 4f 8b bc 4d a5 bf 3c
       -0.08822549 0.045022894 -0.017005736 0.023394251
000320 8f 02 36 3d 34 82 02 bd 2e 1f 40 bc a2 e0 84 bc
       0.044436034 -0.031862453 -0.011726184 -0.016220395
000330 f5 df d5 bc aa 6b 1e 3c 21 91 cc bc c1 a0 b3 bc
       -0.026107768 0.009669224 -0.024971547 -0.02192724
000340 04 c2 43 3c 8d 75 8f 3d 1b 65 86 3d 47 bd a6 3c
       0.011948112 0.07004843 0.06562253 0.020353926
000350 72 86 9d 3c 98 d4 77 3d a7 4a 76 3d e6 96 02 3d
       0.019229148 0.06050548 0.060129788 0.03188219
000360 b7 99 4a bc 1a 12 7a 3d 0b 88 ca 3d 4b 22 27 3d
       -0.01236575 0.06105242 0.098892294 0.04080419
000370 42 d9 07 bb ae 38 2e bd 07 7d b7 bc 6d da 9b 3c
       -0.002072886 -0.042534523 -0.022398485 0.019025052
000380 33 15 8b bc 34 59 13 3d b0 eb 3a bd 4f ed 72 bb
       -0.016977882 0.035973743 -0.045634925 -0.0037067716
000390 dc a6 88 3c 96 db 2b 3d 46 e9 70 ba 46 ff 09 bc
       0.016681127 0.04195746 -0.0009190034 -0.008422678
0003a0 99 d0 a5 3c 9c 04 f3 bc c1 b4 9b bc 85 ea cd bc
       0.020241069 -0.029665284 -0.019007089 -0.025136242
0003b0 6b 27 46 3b 28 18 d4 bc 14 01 3f 3c 26 91 09 bd
       0.0030235897 -0.025890425 0.011657972 -0.03358569
0003c0 5d 5f bb ba c5 92 bc 3c f0 5c 08 bd 03 35 c3 3b
       -0.0014295388 0.023019204 -0.033291757 0.005957247
0003d0 2a a2 2c 3d 8a 8b 12 bd f7 79 f1 bc ef e7 e7 bc
       0.04214684 -0.035777606 -0.029477103 -0.028308837
0003e0 c0 25 e6 3d 8f fe 6e 3d f7 df 56 bb 31 fc a8 bc
       0.11237669 0.058348235 -0.0032787302 -0.020628067
0003f0 46 5e a0 bc 53 a2 3f 3c 40 15 f0 bb 0b cc 8f 3c
       -0.019576203 0.011696416 -0.007326752 0.01755335

action_model._discrete_distribution.branches.2.bias f4 [2]
000000 8e d2 24 bc 8f d2 24 3c
       -0.010059966 0.010059967
