results/MoveToButton_4/ButtonPress/ButtonPress-999977.onnx (onnx, 352736 bytes, 13 tensors)

discrete_act_size_vector f4 [1, 4]
00000000: 0000 4040 0000 4040 0000 0040 0000 0040
3.0 3.0 2.0 2.0

network_body._body_endoder.seq_layers.0.weight f4 [256, 65]
00000000: 4f4a 383d 24ed 37be 635b 16be 65c9 d7bd
00000010: 1038 e13d d56e 4e3c 4738 c6bd 3686 d8bc
00000020: b3e4 993e ea65 20be 1985 293c c323 abbd
00000030: 0128 bd3a 0d04 e43d e75a 393b 8ffa 533e
00000040: ebf6 41be c30f 2cbe 4ce4 1f3d 0460 a23c
00000050: 9f1a 20be 1ce9 4bbc 1c0d 853d d09e 47be
00000060: 8ac0 e1bc 344c e2bd afe4 b43e 7861 d43d
00000070: 8aae e3bc 5505 a4bd 0c61 b4bd 2162 cd3d
00000080: 76d9 27bd 928f 1e3e 789a b03d 3ac4 6dbe
00000090: 787e 193e 4fbd 0dbd 683e 793e 2d28 cb3d
000000a0: d7bd a5be 43cf 033c 581f ea3d c056 333e
000000b0: 4590 383d 2e93 b7bd 180e 53be 2b08 93bc
000000c0: ebc3 b43d 7da4 eabd dcce 23bb 2fcf a4bd
000000d0: d092 a93d 3a77 883d 889b 8abb dae8 043e
000000e0: 3ac0 e2bd 2846 1fbe df03 de3d 7a69 53be
000000f0: 35cd 0c3d 9d59 073e 6af1 633d 8f6e 6b3e
00000100: fa4c 50be cdb4 1f3e cbed 6f3e a7b7 f7bb
00000110: b764 56bd a79e b6bd 45a9 f7bd a927 993d
00000120: ca5f 67bd 402f 7cbd 757e 29be 814c 483e
00000130: ee5a 003e 187e e33d 41da 79bd b174 80be
00000140: 9fa7 8f3e ee06 fa3d 4821 e8bd 25ce 2bbd
00000150: 4b51 8cbe a3a9 563c 0ba0 903e f130 a53d
00000160: aabb 99be 10d3 dcbd 962c 333d 430a 993e
00000170: 86f6 bb3d 5cff 3abe c5f8 bcbe 2696 5bbd
00000180: 9e2f 843e 76a1 ffbc bb2a 01be 5235 bcbe
00000190: 6dff 9bbd dab7 47bd 527f 1cbd b199 3bbe
000001a0: 8a3a 52be de13 f0bd 53a9 8f3c 05ff ab3d
000001b0: 61fc 2dbe dafc 443d 69a7 a0bd ff6c 4a3e
000001c0: 6e18 ccbc 2c3d b9bd ad61 fcbd ece6 973c
000001d0: b592 74be 0624 15bd ea4b 1fbe 15c0 e8bd
000001e0: 82f5 9cbc 49ae 253e aa61 a8bc 7112 53bc
000001f0: 2064 4bbe d8ac 32be 66dd 963e 0931 8fbd
00000200: 3bae e1bd 3cf6 68bc 8cbc 34bd a1b7 893e
00000210: 6ed2 91bd 17ec c8bd 0941 833d ddfc 2c3d
00000220: b75c a43e 77e0 3ebd a25a debd 059f 42bd
00000230: 84d2 52bc 84d8 a33e 3f33 82be 29ad a2be
00000240: f468 7f3e 43ce 033e c3af 2c3d 9ce7 dabd
00000250: 91a1 3fbd 023e 833e fdd6 28be c8de f33e
00000260: 2125 5dbe e68d 333e dd98 4abb 3425 8e3e
00000270: ae74 8e3c 1a7c 843b fdb0 9b3d 122f 05be
00000280: f7fd 75be fa03 b53d d967 fe3c b9a9 373d
00000290: 093a 29bd 02cf 05bd e57c a43d 45e4 8bbe
000002a0: 74a5 18be cd22 fbbc 9dff 743d 3a11 933e
000002b0: fbc6 59be bcb7 663e f235 0ebe f77b 79bc
000002c0: 6367 a73c 43af 18bd 216a f33d aae1 043d
000002d0: 4994 4dbd fa1f 843c d468 6b3c 9253 80bd
000002e0: d258 c13b 9516 703e a37c 9e3e d925 7b3e
000002f0: a17f c13d 8b9f 9dbd 0a07 893e f7d1 843e
00000300: 55fa 833e f647 31be 0605 763d b238 efbd
00000310: bea3 273e e796 39be 68fa 19be b11b 9a3d
00000320: 4c03 14bc e690 3bbb 801b 63bc 36d9 5cbe
00000330: 643a 083c c619 00bc 2961 093e 913b 4dbe
00000340: 46de 3e3e 4801 1cbe d107 eabc bbf9 6e3c
00000350: 10af fcbd 50a1 403e 4123 71be 9cf8 0fbd
00000360: 32a9 943e 9b86 da3d d2bb b1be 0699 93bd
00000370: 86de 7e3d b50c 62be 9f14 6e3d 3cec 16be
00000380: 5d03 1b3e a4be 11be 757b aa3e fbb6 62be
00000390: e8c7 e13d cea3 d43d 494c 43be 26bf cebd
000003a0: 4824 a23d 6541 d73d 142f 7c3e 561e a3bd
000003b0: bf08 7a3e f3b4 e2bd e4f4 9d3c 9c81 e1bd
000003c0: 21ad 5fbd 6fb0 2f3e ec58 0d3e f985 293e
000003d0: 8e2e 383e a3a7 2a3d e5da 8a3e b2ad 0dbc
000003e0: f607 6bbd c029 09be d950 e33d 4daf 8bbd
000003f0: 7ea3 96bd 8a0f 44bc e467 f73d 02f7 e6bd
0.04499274 -0.17961556 -0.14683299 -0.1053646 0.10997021 0.012599667 -0.09678703 -0.026431184
0.30057296 -0.15663877 0.010346674 -0.083564304 0.0014431478 0.11133585 0.0028282942 0.2070105
-0.18941848 -0.16802888 0.03903608 0.019821174 -0.15635155 -0.012445714 0.06496641 -0.19494176
-0.02755763 -0.11049691 0.35330722 0.10370153 -0.027793188 -0.080088295 -0.08807573 0.10028482
-0.04097887 0.15484455 0.086232126 -0.23219386 0.1498965 -0.034604367 0.24340212 0.09919772
-0.323714 0.0080450205 0.114317596 0.17513561 0.04505946 -0.08963619 -0.20610845 -0.01794823
0.08826431 -0.11457155 -0.0024995124 -0.0804733 0.082799554 0.06663366 -0.0042299666 0.12979451
-0.110718206 -0.15554106 0.10840582 -0.20645705 0.03437539 0.13217779 0.055650152 0.22991394
-0.20341864 0.15596314 0.23430555 -0.007559735 -0.052342143 -0.08916979 -0.120928325 0.07478268
-0.056487836 -0.0615685 -0.16552146 0.19560434 0.12534687 0.11108035 -0.06099916 -0.25089028
0.28057572 0.12208353 -0.11334473 -0.04194464 -0.27405772 0.013101968 0.28247103 0.080659755
-0.3002599 -0.107824445 0.043743692 0.29890642 0.0917788 -0.18261474 -0.36908546 -0.05360999
0.2581758 -0.03120492 -0.12613957 -0.3675943 -0.07617078 -0.04875932 -0.03820736 -0.18320347
-0.20530143 -0.11722539 0.017536795 0.083982505 -0.16990806 0.0480927 -0.07844431 0.19768141
-0.024913993 -0.09044871 -0.12323318 0.01854273 -0.2388409 -0.036411308 -0.15556303 -0.11364762
-0.019160036 0.16179766 -0.020554382 -0.012882815 -0.19862413 -0.17448747 0.2946579 -0.069917746
-0.1101956 -0.014218863 -0.044125125 0.2689791 -0.071202144 -0.098106556 0.06408889 0.042233337
0.32101986 -0.046600785 -0.108571306 -0.047514934 -0.012867574 0.32001126 -0.25429723 -0.31772736
0.2494238 0.12871651 0.042159807 -0.10688707 -0.04678494 0.25633246 -0.16488262 0.47630906
-0.21596195 0.17534599 -0.0030913868 0.2776276 0.017389622 0.0040431144 0.07602117 -0.13006237
-0.24022661 0.08838649 0.031055378 0.044839595 -0.041315112 -0.03266812 0.08031634 -0.27322593
-0.14906865 -0.030656243 0.059814084 0.2872408 -0.21267311 0.22531027 -0.13887766 -0.015227309
0.02043504 -0.037276518 0.11885477 0.032441773 -0.050190244 0.016128529 0.014368255 -0.0626594
0.005900481 0.23446114 0.30954465 0.24526156 0.094481714 -0.07696446 0.26763183 0.2594144
0.25776926 -0.17312607 0.060063384 -0.11680736 0.16371056 -0.18123971 -0.15036929 0.07524813
-0.009033989 -0.0028620302 -0.013861537 -0.21567234 0.008314703 -0.007818645 0.1341597 -0.20042254
0.18639478 -0.15234864 -0.02856818 0.014585908 -0.12338078 0.18811536 -0.23548605 -0.0351492
0.29035336 0.10670205 -0.34713608 -0.07206921 0.062223934 -0.2207516 0.058125135 -0.14738554
0.15138002 -0.1423288 0.33297315 -0.22140114 0.11024457 0.10382806 -0.19072069 -0.100950524
0.07917076 0.1051052 0.24627334 -0.079647705 0.24417399 -0.110696696 0.019281812 -0.11011049
-0.054608468 0.17157148 0.13803452 0.16555013 0.17986509 0.041663777 0.27120128 -0.008647369
-0.05738064 -0.13394833 0.11099405 -0.06820545 -0.073554024 -0.011966595 0.120803624 -0.11277582

network_body._body_endoder.seq_layers.0.bias f4 [256]
00000000: ec6d 6f3d 4674 47bd 3b32 8f3d 974d 623c
00000010: ad61 b63b 98b6 a3bd 2e63 68ba 4e3c 84bc
00000020: 1018 d4bc 1b9f 35bb 1966 a13d 8d68 59bc
00000030: 9891 59bd 8eff 9e3d 245c b1bc 9ef0 1f3c
00000040: d17e a83b 9a25 183d 7cdd e83b 667f 253c
00000050: f561 bd3b 8843 46bc a5db bebc ca28 c03a
00000060: 7365 413d e4c4 07bd 8f16 963b bc6b 1dbc
00000070: 2bc5 033d 2041 c63c 73e9 ebbc c280 90bb
00000080: bb20 30bc cc39 8a3c 3c0f 203b 00cb ebbb
00000090: 5b44 c93b 90e2 f5bc 0fcf c0bc 17a3 863b
000000a0: 3422 283b 0392 443c 3698 21bc 3348 073d
000000b0: 4e84 cb3c 2679 32ba 41e3 d7bb 6aba 053b
000000c0: 6e19 f93c 97de e0bc db58 03bd fbc2 1c3b
000000d0: 379c c23b 6112 35bc af83 023d f8d8 28bc
000000e0: a473 e73b 3b0e 8cbc 444e cc3b d263 e23c
000000f0: b51a 91bc d03d 7e3c bc35 8b3b adcc 853c
00000100: aaf4 903c cf12 c7bc df75 0ebd 5895 f43b
00000110: aedf 11bd b7fd 0ebc e96a efbd e8eb 1ebc
00000120: 5252 673c 68aa d7bc 26e5 943b 5cf6 80bc
00000130: 67a9 32bc 194c 30bd 1258 b43c 91dc 30bd
00000140: 3734 32bc 8524 c53c a991 223d b6ca da3c
00000150: 2b4a b33c 3095 8cbc f4b5 393d 9fa2 973b
00000160: 2bec 23bb b7d1 893c 438f 82bc 7b98 cf3a
00000170: 31ac 3dbb 4778 79bc 4a3f 3dbc 5e8f 7dbc
00000180: cf0a 3cbd 8484 0c3d 822e c9bc 73eb f83c
00000190: 08a1 1dbc 86e5 203c 751d 1a3d cf04 313d
000001a0: c783 773d 194c 7e3c c9ee c93c 3d24 25bd
000001b0: ec7d ab3b 5e59 6c3c 7581 623c 03e8 143d
000001c0: 4df1 a8bc bc87 fe3c 9211 573c 3c4d 2ebd
000001d0: 26aa 0e3d e7ad 1f3c 9f02 393c a798 3dbc
000001e0: 864f 7e3c ff62 773d 8610 743d 26d9 1abb
000001f0: 6bda 463d fb80 663c 7481 81bd b5ac 4cbc
00000200: eebd 0e3d 37e3 2c3c eb5f 8b3c ccfe a4b9
00000210: 49e4 d23c 9023 53bd 9efa 423d 5b75 153c
00000220: 6ef4 15bd 6d42 eabb f40c 31bc d584 033d
00000230: 76ad 513d 2b28 af3b 4367 bd3b 8291 c2bb
00000240: 5975 b03c 87d7 e1bb f344 c23a 7566 dc3b
00000250: e7c4 ffbc d51b 563c a71e 10bc 9afe 123b
00000260: 3b0d 8fbd f22d 0dbd 4d63 253c 8ef6 f83b
00000270: ae17 6a3c 9012 a73b 4f37 603c 05c9 e9bc
00000280: a48a da3b cabe 193c 8257 b7ba 053a e2ba
00000290: a18c 803c 370c 32bd 2b85 94bc a619 b83c
000002a0: 876c 1f3d 21f6 413c 015d 663d 2d50 39bc
000002b0: ac4c 863c 0c00 883c b9b2 9c3c 76b9 0e3d
000002c0: a89a dcbb e184 2d3c 9f0f bf3c d1f9 2f3b
000002d0: dd5f 943c 76b0 81bc 695e b73c efbd d0bc
000002e0: bdc9 96bc 68cb 03bc 2874 ba3a 56a3 223d
000002f0: 63b0 cebc 484e de3c 8400 4cbc acdf fcbb
00000300: ea8b 9c3c 2015 46bd 272b ecbc 813c 2dbc
00000310: a4f8 003c fcdb f73c 6718 843b 40d0 db3b
00000320: 9b9d 853c c23b 2b3d ebc9 a83c e57a 503c
00000330: e15e 8a3c 2ea6 b2bc cc6e 063d a986 7abc
00000340: cb78 383c f310 9b3c b245 b3bb 78c4 cf3c
00000350: 1dc0 50bd a377 113c 9e46 eabc 7467 a1bc
00000360: 4445 403d 3ff5 b7bc 9905 5abd eeae 12bd
00000370: a64b d5bc b3ce 3bbb 7cb6 74bc 5e10 693c
00000380: f4f4 413b 18ad 873c eac5 95bb 2202 00bc
00000390: fa98 4a3b f90c 873c c6b0 a63c 20a0 173d
000003a0: a02c 983b 5167 ea3c f556 d83c a234 31bd
000003b0: 32ed 5abc 6b45 853b cb1a 193b a0b6 92bc
000003c0: b98e e93c d9c3 31ba 3851 173c 50e9 bbbc
000003d0: 3181 3e3a e9de 0d3c 6ebe 96ba 9631 da3c
000003e0: 9435 3f3c ac91 ccbc 8dac aeb9 ebd9 4f3d
000003f0: 4676 34bc a7ad 1d3d 529d bfbd 9ea2 fbbc
0.05845444 -0.04869487 0.069920026 0.013812444 0.005565843 -0.07993811 -0.00088648766 -0.016142037
-0.02589038 -0.0027713242 0.07880802 -0.013269556 -0.053117365 0.07763587 -0.021650381 0.009761957
0.005142071 0.037145235 0.007106481 0.010101175 0.0057794997 -0.012101062 -0.023298094 0.0014660594
0.04721589 -0.033146754 0.004580326 -0.009608205 0.032170456 0.024200976 -0.02879784 -0.0044098804
-0.010749991 0.016873263 0.0024423143 -0.0071958303 0.006142182 -0.03001526 -0.023536233 0.0041087973
0.0025655152 0.0119977025 -0.00986295 0.03302784 0.024843361 -0.00068082137 -0.00658837 0.00204053
0.030407634 -0.02744989 -0.03206716 0.0023919928 0.0059390324 -0.011051745 0.031863865 -0.010305636
0.007063346 -0.01709663 0.006234916 0.027635489 -0.01771293 0.015517667 0.004248349 0.016332949
0.01769479 -0.02430096 -0.03478038 0.007464092 -0.03561371 -0.0087274825 -0.11690313 -0.009699799
0.014118748 -0.026326373 0.004543918 -0.015742473 -0.0109046465 -0.043041322 0.022014651 -0.0431791
-0.010876707 0.024065265 0.039689694 0.026707988 0.021885952 -0.017160982 0.04533954 0.0046275402
-0.0025012593 0.016823633 -0.015937453 0.0015838289 -0.0028941745 -0.01522643 -0.011550734 -0.015476076
-0.045908745 0.034306064 -0.02455831 0.030385708 -0.009620912 0.009820348 0.03762575 0.043217476
0.060428407 0.015521073 0.024649994 -0.040317763 0.005233517 0.014425604 0.01382481 0.036354076
-0.020622874 0.031070583 0.013126748 -0.042554125 0.034830235 0.009746051 0.011292129 -0.01157204
0.01552189 0.060397144 0.05958607 -0.0023627966 0.048548143 0.014068837 -0.06323519 -0.012492348
0.0348491 0.010552219 0.01701351 -0.00031470356 0.02574362 -0.051547587 0.04760229 0.009122218
-0.03661006 -0.007149032 -0.010806311 0.0321091 0.051190816 0.0053453646 0.005780132 -0.005937756
0.02154033 -0.006892148 0.0014821574 0.006726081 -0.03122182 0.013068159 -0.008796371 0.0022429586
-0.069849454 -0.034467645 0.010094476 0.007597751 0.014287872 0.0050986484 0.013685062 -0.028538236
0.0066693593 0.009383867 -0.0013987871 -0.0017259723 0.015692057 -0.04346868 -0.018129906 0.022473168
0.03892186 0.011838467 0.05624104 -0.011310619 0.016393982 0.016601585 0.01912819 0.034844838
-0.0067323036 0.010590763 0.023322878 0.0026851783 0.018112117 -0.015831213 0.022383885 -0.025481192
-0.018406743 -0.008044101 0.0014225291 0.03970655 -0.025230592 0.027136937 -0.012451295 -0.0077170935
0.019109685 -0.04835999 -0.02882917 -0.010573507 0.007871781 0.030256264 0.0040312293 0.006708175
0.016310504 0.041805036 0.020604094 0.012724613 0.016890945 -0.021807756 0.032820508 -0.015290895
0.011259268 0.01892898 -0.005470955 0.025362238 -0.050964464 0.008878621 -0.028598126 -0.01970265
0.046941057 -0.02245581 -0.053227995 -0.035811357 -0.026037049 -0.0028657138 -0.014936086 0.014225094
0.0029595466 0.01656203 -0.0045707123 -0.0078130085 0.0030913935 0.016485678 0.020347964 0.03701794
0.0046439916 0.028613718 0.026408652 -0.043263085 -0.013362216 0.004067113 0.0023361917 -0.017909348
0.028510438 -0.0006781198 0.009235673 -0.0229384 0.0007267176 0.008659103 -0.0011500844 0.026634973
0.011670489 -0.024971806 -0.00033316427 0.050744932 -0.011014527 0.038495686 -0.09356178 -0.03071719

network_body._body_endoder.seq_layers.2.weight f4 [256, 256]
00000000: 3a59 0dbc b99c 903d 377f 06bd a84e ee3d
00000010: 6fcc 743d b8ef 913c f139 023d 24c5 fdbc
00000020: da3e 80bc 22bf 933d e196 73bd 5a1f 393c
00000030: 2df7 cebc cfc2 c2bd 8ba9 8abd e76d 103d
00000040: 34ad cbbd 2794 a53d 7f52 503e 7f1b c8bc
00000050: eeeb 663d 197f b2bd ad97 fd3d e903 23be
00000060: 8a20 853c 2403 b23b 935c a53d a431 4dbd
00000070: a48a 00be 1d18 00bd 7efd 97bd 3c6b 793d
00000080: b6d4 bc3c 4c08 2b3d 537b 333c 75d9 39bd
00000090: 6bbe b23b a53a 0d3d 72f6 f73d 65eb f23d
000000a0: 9bec c2bd e36c e4bc 70b3 aebc 99d0 eabd
000000b0: 3d03 433d e004 f6bc 4b56 e73d f831 bcbb
000000c0: 6646 2d3d 6ef3 c7bd 0385 063e 6e17 06be
000000d0: f760 edbb 3786 5cbd 3df1 2e3d 603f 3bbc
000000e0: 07f8 17bd bc65 853c df27 90bb 5ef2 4f3c
000000f0: 5541 0bbd 9e20 c83d 147b 84bc bd68 17bd
00000100: 3d4c f4bd 0004 083e 4f2c 2ebc 7f98 a33c
00000110: fdbc c7bd 9d38 30bd 87c5 ae3d fb40 e03d
00000120: 0577 a83d 4396 b1bc 710e b7bc c711 41bd
00000130: 16ee 54bd dfbf 00be b842 0a3d c182 093c
00000140: c80c e83d cf6d 9c3d 7eab c5bc bab9 8bbc
00000150: 9206 d73d d80d 073e 25dc f3bd 982d a7bd
00000160: 13b5 043d 02d5 11bd 96dc 193e 628e 19bc
00000170: 3e30 043e 4439 ab3d f626 a23d fe53 a3bd
00000180: 8217 6abd 947c c63d 307c b23b 83f2 9dbc
00000190: 6458 c5bd 8fc0 45bc 219e f23d 0790 9ebc
000001a0: 33ee eebc 208d a0bd 3955 483c abc9 4ebd
000001b0: 82e2 073d 50c8 ac3d ad7c 3e3d af0c a5bd
000001c0: b680 afbd a743 07bd eef9 f2bd c759 1dbe
000001d0: 53c9 903c ae9c f1bd 7684 763d d6d0 d2bd
000001e0: 2ca4 0c3e 5049 e1bc 1624 763d 46c6 dd3d
000001f0: 3481 e23d 6e3f 183e 32f6 963c a048 bebb
00000200: d193 d23d 6567 963c 93f2 bfbd fbd7 c03d
00000210: 592b 95bc 2803 003d 5135 593d 7a14 d7bd
00000220: f17d 413d 8ca3 2f3d 5953 c33d 7eb2 36bc
00000230: 668d cc3d de60 283e f912 6dbc b819 ecbc
00000240: 06bc 9a3d d619 3c3d bffa d1bd 31d7 0abe
00000250: 6456 ad3c bfe7 88bc 3f61 b03d be5e 803d
00000260: 4503 bfbc fdaf f03d 6944 f53d d26c 10be
00000270: 783f 1c3d 9c73 123c 564b e93d 0e8c 2c3e
00000280: a41a fc3c f645 0dbe 15b6 26be 5f96 223d
00000290: c885 d7bd ef24 573d e4e1 c73d 55f5 19bd
000002a0: ad17 64bd 0344 a63d 7b01 76bd 3bb7 b0bc
000002b0: bfa5 87bd 7b67 b23d 8054 2b3e 1b22 a33d
000002c0: 51bd 34bc 7d03 fe3c 5a96 9ebd 5f2d 0e3d
000002d0: 222e afbd cd3a 42bd 3709 1ebd 713e 233d
000002e0: 2e7c bf3d 4c52 713c 55f4 f3bd 7d52 4cbc
000002f0: ab01 b5bd b682 003e d2c0 22bd e866 f93d
00000300: 530c 53bc 5658 0e3e e152 a3bd 9d9b e0bc
00000310: ad87 993d 0fb6 b8bc 59f6 0e3c 1099 6dbc
00000320: d48a bbbd 867b f8bc 139d b1bd d882 43bd
00000330: bbff 333d 41d1 573c a39e 16bd 5e42 18bd
00000340: 0153 e7bd f85f 36bd b573 20bd 2a78 c03c
00000350: f245 943c d197 153c f83c 8c3d 0819 613d
00000360: 2d6c 86bd c8d3 86bd c2bf 33be 5f8d bcbd
00000370: 3882 413c ea47 233c 88d5 b4bd a2e6 9cbc
00000380: 6836 163d b0cd c3bd c2cb fbbd d208 5abd
00000390: 7fee aebd 50f0 0b3e db9f fabd a3f5 903d
000003a0: 66e1 8f3c ac82 8f3d 33f3 2c3d b8b8 533c
000003b0: de46 38bd 5a4b dbbc 9d77 4bbd 5bab debd
000003c0: 0c5f f3bc fae3 c93d b5ac 913d eca3 643d
000003d0: 335c 543d 9e91 69bd 7eac e6bc 3f5f 7cbd
000003e0: 9e69 09be 597b 863d 160c eabd 649b 513d
000003f0: ddd3 053e e04b eb3c c848 573d 2f42 e7bc
-0.00862723 0.070611425 -0.032836165 0.11636096 0.059765276 0.017814502 0.03179354 -0.030977793
-0.01565497 0.0721419 -0.05947006 0.011298979 -0.025264347 -0.09509813 -0.06770619 0.03526106
-0.09945145 0.080848984 0.2034397 -0.024427174 0.056377344 -0.08715648 0.123824455 -0.1591946
0.016250867 0.0054325033 0.08074298 -0.05009617 -0.12552887 -0.031272996 -0.07421397 0.060893282
0.023050647 0.04175596 0.010954696 -0.0453734 0.0054548285 0.034479756 0.121075526 0.11861304
-0.09517785 -0.027883952 -0.021325797 -0.11465568 0.04761051 -0.030031621 0.11295756 -0.0057432614
0.042303465 -0.097632274 0.13136677 -0.13094875 -0.007244225 -0.053838935 0.04271053 -0.011428684
-0.03710177 0.016283862 -0.0043992843 0.012692062 -0.033997852 0.09771846 -0.01617197 -0.03696512
-0.11928604 0.13282776 -0.010630681 0.019970177 -0.097528435 -0.04302274 0.08533769 0.10949894
0.08225826 -0.021678096 -0.022345753 -0.047136094 -0.05198487 -0.12573193 0.033755034 0.008392991
0.11330563 0.07638132 -0.024129625 -0.017056335 0.104993 0.13188875 -0.119072236 -0.08162993
0.03239925 -0.03560353 0.15025553 -0.009372326 0.12909028 0.08360532 0.079175875 -0.079750046
-0.057151325 0.0969173 0.005446933 -0.019280678 -0.09636 -0.012069835 0.11846567 -0.019355787
-0.029166317 -0.078394175 0.01222735 -0.050485294 0.033175 0.08436644 0.04650562 -0.0805906
-0.085694715 -0.033023503 -0.118640766 -0.15366279 0.017674124 -0.117974624 0.06018492 -0.102937385
0.13734502 -0.027500778 0.060093008 0.10828833 0.110598 0.14867947 0.018427942 -0.0058069974
0.102821 0.01835985 -0.09372439 0.09416195 -0.018209146 0.03125301 0.053029362 -0.105019525
0.047239248 0.04288058 0.09537382 -0.011150954 0.09987907 0.16443202 -0.014469855 -0.028820857
0.07555394 0.045923077 -0.10252904 -0.13558652 0.021159358 -0.016712068 0.08612298 0.06268071
-0.023316989 0.11752317 0.11975939 -0.14104012 0.038146466 0.008938696 0.11391322 0.16850302
0.030774422 -0.13796219 -0.16280396 0.039694186 -0.105235636 0.052525457 0.09759882 -0.037587482
-0.05568664 0.08118441 -0.060060006 -0.021571746 -0.066234104 0.087111436 0.16731453 0.079654895
-0.011031465 0.031007523 -0.07743521 0.034711238 -0.08553721 -0.047419358 -0.038583007 0.03985447
0.09349857 0.014729094 -0.11911837 -0.012470839 -0.08838209 0.12549862 -0.03973467 0.12177831
-0.012881356 0.13900885 -0.07974792 -0.027417952 0.07496581 -0.02254775 0.008725726 -0.014501825
-0.09157339 -0.030332338 -0.08672538 -0.047732204 0.043945055 0.013172449 -0.03677238 -0.037172668
-0.112951286 -0.044525117 -0.039172847 0.023494799 0.018099759 0.009130434 0.06847566 0.054955512
-0.06563602 -0.06583363 -0.17553619 -0.09206652 0.011810832 0.009965876 -0.0882979 -0.019152943
0.03667298 -0.09560716 -0.12294723 -0.053231068 -0.08541583 0.1366589 -0.12237521 0.070781015
0.017563533 0.070073456 0.04222412 0.012922458 -0.04498946 -0.026769329 -0.04967462 -0.10872527
-0.029708408 0.09857936 0.071130194 0.05582039 0.05184574 -0.057023637 -0.028158423 -0.06161427
-0.13419196 0.065664954 -0.114280865 0.051173583 0.130691 0.028722703 0.052559644 -0.028229801

network_body._body_endoder.seq_layers.2.bias f4 [256]
00000000: 791f d5bb 2ff1 ebbc e93b fe3c 4c5a d1ba
00000010: 8a5b df3a ce68 213b 3156 8e3c 2171 3e3c
00000020: 6c68 413c 8f46 dd3c 07b6 9b3c 2385 b93c
00000030: 05a0 98bc 109b 033b a8e5 f33c 05b9 b0bc
00000040: 434d 883c 1577 913b 587e 3f3a 890d 263c
00000050: 1e32 f53b 3ada 493c 554d 793c 1bf2 b93c
00000060: 18cc ba3c 472a c13c 0c45 ef39 1bc2 28bd
00000070: f49c a43b 72b1 04bc 0cc2 4a3c 28db 303d
00000080: 75bd cdbc 5c56 04bc 6edc 503c 70f7 d2bb
00000090: 6584 3e3a c0ac 2d3d 80b9 0c3d 0251 523d
000000a0: 4bef 103c dc3a a33b 0843 c03b 7619 04bd
000000b0: 0771 73bc 607c 1d3c a1cb f53b 5016 71bc
000000c0: bc79 bebc 0d2f 073d ad97 fcbc cb72 ae3c
000000d0: aa2e acbb ed10 07bc ea28 c5bc 158f b23c
000000e0: c325 d83c 90d8 cf3c 6b71 db3c 515c b03c
000000f0: fc9c abbc 2b1e b43c 3078 19bc e9c4 c5ba
00000100: 089b 92bc 2540 d83a 14f9 5c3c 3e3b 003d
00000110: 0076 ac3c d7ed 193d 3c0d 273d 4bc7 f63b
00000120: 49ae d63c e39f 1c3b b02a 6a3c 87c0 fb3c
00000130: 6fad 0d3c a353 cc3c 52a8 f7bb 07c4 7abc
00000140: d518 bd3b 4aba 1dbc f850 483b 8eb6 f53c
00000150: 4699 df3c aeac 37bc 69b5 123c 92a5 9d3c
00000160: d914 b33c ac48 2c3c ea72 c33b 9dcc d6bc
00000170: 2385 8e3c 1009 063d 20c2 7e3c 7f15 ff3c
00000180: f500 a33c 6b7a 943c 81a7 8b3c f0d1 b03c
00000190: a312 e03c 6f64 f73c cf16 c93c 1140 94bc
000001a0: 054c 583a 94f0 dd3c 1b52 f6bc 4412 b6bc
000001b0: a5f1 63bb c42c 6dba 390d 963c 9b4c cdbb
000001c0: a4b2 56bc d15b cbbc e4fb 83bc 832c 12bc
000001d0: bf18 a23c b6c4 2fba 19e6 4dbd c2a9 c4bb
000001e0: 872f 6fbc 4168 bd39 aa86 c63c 90f8 4abd
000001f0: 1638 a03c 2704 e23c e7db 103d 4cac 213c
00000200: cc0f 6f3c fa99 b2bc ab06 8cbb 7457 c83c
00000210: bb37 b63c d40c 52bb 6c9e 463c 0350 8e3c
00000220: 87e2 093c a2cf 473c cf8d 3dbd 1c79 0d3c
00000230: 246c b1bc 7d3f 133a fdeb ef3c 0f15 53bc
00000240: c783 ba3c 4ce6 743c 73ef 313c 3756 c2bb
00000250: f90c 5abc 2d6e 04bc 1f03 fabc 80c7 f1bc
00000260: def0 033d eb67 a63b 8274 4bbb 9e6a 9abc
00000270: cb80 df3b 2eab 2c3d 1845 df3b b2e7 583c
00000280: 294a d83c a22f 083d 9a2d 92bb d780 a5bc
00000290: bfe0 703c f8fb 25bd 4747 e83c d574 8c3c
000002a0: da58 7fbc e353 043d 3792 813c 6ff0 f4bb
000002b0: c12d da3c 7424 9cbb 6ddd 8d3c 5ae4 b239
000002c0: 6d87 d1bc fcd8 c83b 10f8 b33c f8d6 3a3c
000002d0: abc6 0a3d 4d1e 003c e1f7 9f3b 8f49 f4bb
000002e0: e685 063d cb6d 093d 195e b23c 8130 3ebc
000002f0: adf2 3bbc f903 e4b9 f309 df3b f0bb 9d3c
00000300: 7fd8 203d de78 cc3b 1e27 a83c be2f 383b
00000310: e4a8 f6bc aa2b 8abc 4f99 123d 523b b03c
00000320: 3536 fc3c 65ae 0e3c 1f98 b2bc ac00 c23c
00000330: 2037 d139 a0e6 dcb9 4afb 833c 063f 6b3c
00000340: 64b2 023d 5538 f43c c84d 273c 0b1b 4b3d
00000350: 1abd 71bc 8b4a d63c ff59 bfbc 5cee 2ebc
00000360: 33be ca3c bd14 873c 2175 3a3d a5f8 37bb
00000370: e275 933c c7df a1bb 605b d8bc 7c67 c0bb
00000380: 17eb 8fbc d1d7 5a3c 2be7 133c 05e5 a33c
00000390: 586c a1bc 3f3d 9dbc 7ecf 1f3d 1764 193c
000003a0: 6b45 31bb eb41 7b3c 76ed a8bb 2436 d13c
000003b0: 2aa2 c03c 612d 2f3d b395 5c3b 767a b83b
000003c0: 25b4 00bb cc68 c83c d6c1 bb3b ce72 303c
000003d0: ce4e afbc 5f44 9f3c 6ce9 033d bbbe 52bd
000003e0: 0914 14ba 1393 2c3c 0b6e 793b 760f de3b
000003f0: 5e98 1cbb 2040 5a3c 41bc a03c 0a7c 26bb
-0.006503996 -0.028801529 0.031034427 -0.0015972345 0.001704083 0.002462912 0.017375084 0.011623652
0.011804681 0.027011184 0.019007696 0.022646492 -0.01863099 0.0020081438 0.029772595 -0.0215726
0.016638404 0.0044392445 0.00073048985 0.010135063 0.007482781 0.012320096 0.015216191 0.022698453
0.022802398 0.02357973 0.00045637076 -0.04120074 0.005023593 -0.008098947 0.012375366 0.043177754
-0.025114754 -0.00807723 0.012747867 -0.0064381883 0.0007267653 0.042401075 0.034356594 0.051346786
0.008846114 0.004981382 0.0058673657 -0.032250844 -0.014858491 0.009612173 0.007501081 -0.014714792
-0.023251407 0.033003855 -0.030834043 0.021294972 -0.005254586 -0.0082437815 -0.02406736 0.021796742
0.026385194 0.02537182 0.02678748 0.021528395 -0.02094888 0.021987041 -0.009367034 -0.0015088591
-0.01789619 0.0016498609 0.013487119 0.031306498 0.02105236 0.037580337 0.040784106 0.007531082
0.026206153 0.002389901 0.014292404 0.030731453 0.008647307 0.024942225 -0.007557907 -0.015305526
0.0057707825 -0.009626934 0.003056584 0.029994275 0.027294766 -0.011210604 0.008954384 0.01924399
0.021860527 0.010515373 0.0059646266 -0.026220614 0.017397469 0.032723486 0.015549213 0.03113818
0.019897917 0.01812478 0.017047646 0.021584481 0.027352637 0.030199258 0.024547009 -0.018096955
0.0008251074 0.027092256 -0.030068448 -0.022225507 -0.0034781483 -0.0009047503 0.018316852 -0.0062652356
-0.013104115 -0.024824055 -0.016111322 -0.008921745 0.01978719 -0.00067050324 -0.050268266 -0.006001682
-0.014598734 0.00036126564 0.024234135 -0.049553454 0.019557994 0.02758987 0.035365965 0.009867739
0.014591169 -0.021801937 -0.004273256 0.024455763 0.022243371 -0.0032051103 0.012122732 0.017372137
0.008415825 0.0121955 -0.046277817 0.008634832 -0.02165801 0.00056170655 0.029287333 -0.012883439
0.022767914 0.014947485 0.010860312 -0.0059306878 -0.013308757 -0.008082909 -0.030519066 -0.029514074
0.03221213 0.005078306 -0.0031044786 -0.018849667 0.0068207732 0.042155437 0.0068136565 0.013238834
0.02640255 0.03324855 -0.0044610025 -0.020203037 0.014702021 -0.0405235 0.0283543 0.017145554
-0.015585149 0.032306563 0.015816791 -0.007474951 0.026633145 -0.0047650877 0.017317498 0.0003412094
-0.025577271 0.006129382 0.021968871 0.011403792 0.03388087 0.007819724 0.0048818444 -0.007455058
0.03284254 0.033551972 0.021773385 -0.011608244 -0.011471433 -0.0004349051 0.006806606 0.019254655
0.039268967 0.0062399944 0.020526465 0.0028104628 -0.03010983 -0.016866524 0.035790738 0.021512661
0.030787567 0.008708571 -0.021801053 0.023681961 0.00039904658 -0.000421335 0.016111035 0.014358288
0.031908408 0.029812017 0.010211416 0.049586337 -0.014754558 0.026158592 -0.023358343 -0.0106769465
0.024748897 0.016489381 0.04552186 -0.0028071788 0.018000547 -0.0049400064 -0.026410758 -0.0058717113
-0.017568154 0.013357119 0.009027283 0.020006666 -0.019704983 -0.019194243 0.03901624 0.009362242
-0.0027049433 0.01533554 -0.0051552607 0.025538512 0.023514826 0.042767886 0.0033658564 0.005629833
-0.0019638625 0.024464034 0.005729894 0.010769559 -0.021399882 0.019441782 0.03220503 -0.051451426
-0.00056487374 0.010533112 0.0038059975 0.0067767454 -0.002389453 0.013320953 0.019621016 -0.0025403523

action_model._discrete_distribution.branches.0.weight f4 [3, 256]
00000000: 4af0 ecbb a024 893c 05df 50bd ac13 8d3c
00000010: d35b d33c d8ce 78bc 587e 49bb 600e cebb
00000020: 36ab 30bc 035b 93bd 83a7 9abc 4325 323b
00000030: dce6 f13c 1dc1 02bd 3820 39bd 5962 ad3c
00000040: a126 1ebd 0149 be3c e530 6cbc deb9 efbc
00000050: aae0 2938 26c8 58bd 7138 efbc b4b8 ddbb
00000060: b980 0abd 8b68 77bc 1815 26bd 8442 923c
00000070: bf74 05bd e448 91bc a316 c1ba 33cf 4abd
00000080: dab6 b33b e096 52bb f2ba 25bc 2d60 86ba
00000090: 747e 0b3c 42a3 72bd 53fb 2abd 200a 46bd
000000a0: d76e 0e3c 05e8 c03c 5e4d a9bc 97e8 e83c
000000b0: 65d6 bc3b 4d46 40bd 06c0 3abd 4c5e 12bc
000000c0: e47a 0fbc fc5c 84bd 073c 053d 4ccd af3b
000000d0: b93d 2dbd 0d5a babc 737f 043b 294e a3bc
000000e0: 762f a3bc 3af5 bfbc 0b34 bfbc 3277 16bc
000000f0: 26c6 acbb 8f8f cdbc e220 febb 3bf0 903c
00000100: c1e6 e0bb 3e1d bebc 87bf 8dbc 8f51 a3bc
00000110: 901d b8bc 9a15 3fbd 2348 dabc cc97 8bbc
00000120: 47f0 8abc 99a2 b73b 4280 8fbc 468c 59bb
00000130: 1386 1f3c b245 25bd ffdd 1c3d b378 813b
00000140: 4479 6ebc 6e67 02bc 916b 3cbc 2c8f 4cbd
00000150: 60a9 2ebd 64ed 91b8 3a5e 4abb 9b9c 20bd
00000160: 30a0 9abc b8a8 693c 6e95 d0bc 8dbd 393c
00000170: 3b44 83bd 1da0 4abd 25b1 b1bc 3c75 33bd
00000180: ae2b 63bc 8164 48bd bf55 6ebc 2809 58bc
00000190: 656c 67bd 3df3 08bd b2a8 82bd 05df 5c3c
000001a0: 0823 a1bb 4d4d 50bd 14d2 0b3c 7eda 43bc
000001b0: fe1f c0bb dbc0 64bd 1c5d 2cbd 97ff 8cbc
000001c0: 23c0 a13b bfba b13c 0366 a43c 566e 783c
000001d0: 7200 a4bc abec a73b 5f26 b63c 1de2 833c
000001e0: a538 2abc 4f45 d93b 47f0 d6bc 51d6 1d3d
000001f0: ea00 9fbc 76eb 8bbb 5be7 91bd f221 58bb
00000200: 7b58 e5bc f25a 713c 5870 44bd 1254 debb
00000210: 386e 8cbd b73a 80bb 67cf dcbc 6b1c 8d3b
00000220: 3c76 223c 5089 2cbb c6ab ab3c b808 99bc
00000230: dbff 29bc 5007 18bc 530f 69bd 826e 083c
00000240: ac38 66bd 2bd0 8bbc ab33 63bb e531 2d3c
00000250: ae32 afbb 1a39 45bc eea8 ba3c 181b 313c
00000260: 4ef8 3dbc 9c22 4b3c f506 303b fe2d 97bc
00000270: 90dc cfbc 4180 31bd 5a18 b6bc 34b6 64bc
00000280: 1487 6fbc 60e2 97bc d0f1 153c b217 8a3c
00000290: d9f5 aabc 5f66 7e38 e024 5abc 08d3 a3bc
000002a0: c0c5 5bbc 5147 c2bc 3612 65bd 12fb c3bc
000002b0: 093a 62bd e757 5cbd ae22 013c b637 0ebc
000002c0: 7e8d 733c 6d2e 39bd b14c ccbc fa86 89bc
000002d0: 90db 24bc 511e 7d3b fbf4 0ebc 96a8 b03c
000002e0: 51ff f5bb 70a9 48bc d1af c9bc 7529 1c3c
000002f0: 3d1a b2bb bae9 a0bb 0090 9bbc 7d02 4bbc
00000300: 0167 84bd 11a4 893b a87e 4ebb 4e27 e93b
00000310: dcc1 603b 5f2b 3d3c e5ba 243c 9168 36bd
00000320: 3215 d2bb dc73 40bb 271c 42bc bc29 1ebd
00000330: 2dee 2b3c de82 0b3c bfb0 3e3c c32c 263c
00000340: 6241 c6bc 2141 bcbc a934 553c 2f31 dfbc
00000350: 9aa1 b73b 3f58 20bd ccf1 0cbc 56df 09bb
00000360: d92d 29bd 5a6f 41bd 810d 29bd 261f c73c
00000370: 0900 85bb abfb 88bc c8d3 debb 6ece 91bc
00000380: 7726 3d3c 2af6 09bd 041c 53bc 17c1 58bc
00000390: 7328 733b c08c c93c bc63 ccbc 6a33 46bd
000003a0: 5822 28ba 518e 46bc 3a14 133c d705 69bd
000003b0: 0d22 90bc 8e58 5abd bda7 4dbc 30aa 13bc
000003c0: 5a6e 81bc 7717 26bd a72f dabc 2841 a83c
000003d0: 2ad2 ce3c 3921 b9bc 2d80 33bd 3026 733c
000003e0: fa85 94bb dc69 2c3c 655d d0bc 08ec 1f3d
000003f0: 2b7e bf3c 23a5 e4ba 2c9a 1cbc 61e6 88bb
-0.007230793 0.016741097 -0.050993938 0.017221294 0.025800621 -0.015186034 -0.0030745473 -0.0062883347
-0.010783007 -0.071950935 -0.018878704 0.0027182854 0.029529028 -0.03192245 -0.04519674 0.02116506
-0.03861106 0.02322817 -0.014415954 -0.029263433 4.0501975e-05 -0.05292525 -0.029201718 -0.006766403
-0.033814166 -0.015100609 -0.04054746 0.017853983 -0.03258204 -0.017734952 -0.0014731478 -0.049514007
0.005484444 -0.0032133386 -0.010115372 -0.0010252051 0.0085140355 -0.059237726 -0.041743588 -0.0483495
0.008693418 0.023548136 -0.020666774 0.02843122 0.0057628625 -0.046942044 -0.045593284 -0.008933615
-0.008757327 -0.06463048 0.03252795 0.0053650495 -0.04229519 -0.022748018 0.0020217567 -0.01993473
-0.019920092 -0.023432363 -0.023340246 -0.009183692 -0.0052726446 -0.025092868 -0.007755385 0.017692676
-0.0068634455 -0.023207303 -0.017303241 -0.019936351 -0.022475034 -0.04665146 -0.026645726 -0.017040156
-0.016960276 0.0056041 -0.017517213 -0.0033195182 0.009736556 -0.04034967 0.03829765 0.003951156
-0.014555279 -0.00795923 -0.011500255 -0.049941227 -0.042641997 -6.958356e-05 -0.0030878917 -0.03921185
-0.018875211 0.014261417 -0.025461879 0.011336696 -0.06409498 -0.049469102 -0.021690914 -0.043812975
-0.0138653945 -0.048923973 -0.014546811 -0.013185777 -0.056499857 -0.033435095 -0.06379832 0.013480906
-0.004917506 -0.05085497 0.008533973 -0.011953948 -0.0058631888 -0.055847984 -0.042080984 -0.017211718
0.0049362346 0.021695493 0.020068174 0.015163025 -0.020019744 0.0051246486 0.022235094 0.01609903
-0.010389482 0.0066305767 -0.02623762 0.038534466 -0.019409616 -0.0042700125 -0.07124206 -0.0032979217
-0.027996292 0.014731156 -0.0479587 -0.0067849243 -0.0685696 -0.0039132494 -0.026954366 0.004306366
0.009915885 -0.0026326962 0.020955931 -0.018680915 -0.010375942 -0.009279087 -0.05689938 0.008327128
-0.05620639 -0.017067036 -0.0034668248 0.010570978 -0.0053466177 -0.01203754 0.02278563 0.010809682
-0.011594845 0.012398388 0.0026859615 -0.018454548 -0.025373727 -0.043335203 -0.022228409 -0.013959456
-0.0146196075 -0.018540561 0.009151891 0.016857002 -0.020869182 6.065366e-05 -0.013314456 -0.019998088
-0.0134138465 -0.023715647 -0.05592557 -0.02392343 -0.055231128 -0.053794768 0.007881803 -0.008680275
0.014865277 -0.04521029 -0.024938913 -0.016787995 -0.010062113 0.0038622806 -0.0087254 0.021564763
-0.0075072427 -0.012247428 -0.024619969 0.0095313685 -0.0054352568 -0.004910675 -0.018989563 -0.01239073
-0.06464959 0.0042004664 -0.0031508598 0.007115281 0.0034295237 0.011545985 0.010054325 -0.044533316
-0.006411218 -0.0029365933 -0.011847532 -0.03861402 0.010493797 0.008515088 0.011638819 0.010142508
-0.024201099 -0.022980275 0.013013043 -0.027245132 0.005603981 -0.039146658 -0.008602571 -0.002103766
-0.04130349 -0.047225334 -0.041272644 0.024306845 -0.004058842 -0.016721567 -0.0068001486 -0.017798629
0.011544815 -0.033682026 -0.012885097 -0.01322963 0.0037102967 0.024603248 -0.0249499 -0.048388876
-0.0006413809 -0.012118892 0.00897699 -0.056890335 -0.017594362 -0.05330711 -0.012552199 -0.009012744
-0.01579969 -0.04054972 -0.02663405 0.020538881 0.025246698 -0.02259885 -0.04382341 0.014840648
-0.004532573 0.010523286 -0.025435159 0.039043456 0.023375591 -0.0017444234 -0.009558242 -0.004177854

action_model._discrete_distribution.branches.0.bias f4 [3]
00000000: 19bf a7bb 869b bdbc f251 133d
-0.005119216 -0.023145448 0.03596682

action_model._discrete_distribution.branches.1.weight f4 [3, 256]
00000000: e7d7 743c ff7a a0bc c31e d63c 8f1c 383d
00000010: b7d4 a6bd c124 98bd 85e7 a0bc 377f 0139
00000020: ede4 83bd 5dcb 933c d158 ddbb ddac 243d
00000030: 6044 063d 21e5 c63b 7b21 d73c aa1d 6c3b
00000040: 0a5d 0abd b28b 81bc 2f67 4c3d a1b1 9fbc
00000050: 1f90 3dbc 588f 0f3d 8e53 163d 9b9b 4d3c
00000060: 2ac4 043d bdef 7ebd d2ce b13c fd24 a03c
00000070: 3598 06bc 477d fdbc 64e4 49bd b4e0 8fbb
00000080: d0fb 84bc e846 29bd 1ea7 d0bd 2083 c0bc
00000090: 95e4 4bbd 7a3d 6d3d 4d0f 373c dea3 1dbd
000000a0: fe44 84bc da36 c33a e238 03bd 94fc 3dbd
000000b0: b416 8d3c 28f0 c53c a2b8 f03c cefc 69bd
000000c0: 2a34 85bd 4012 103d add5 69bc ef52 89bd
000000d0: e8ca 0e3c 5857 3b3d 4101 aabd aa1c 2dbc
000000e0: c050 17bd 13b9 8b3c 1524 13bc d2b2 943c
000000f0: e3df 38bd 0d7c 20bc ae64 91bd 3177 10bd
00000100: 5866 24bd de32 063d 0d8d 7abb 57b1 dabb
00000110: ae6b 49bc e2e9 4e3c 97e7 b23b 532f 50bd
00000120: efb8 e7bd 4f75 113d 7580 4cbb 9a60 b4bc
00000130: 79a3 efbd 9781 0e3d 3f44 7abc 4b2b 8dbc
00000140: a589 7bbd d61a 6abd 4ae6 71bd 62be e43c
00000150: fd18 823c ebaf fbbd 557e 733c 033a 2c3d
00000160: e8f9 2aba e433 afbc 3c62 a03d 54b1 203d
00000170: 6d0a 0f3d c44b b03c 20fe f5bc 3c68 c53c
00000180: 2719 a4bd 3a16 fa3c 3fed 85bc 946c a5bc
00000190: 9f5d c3bb 7fad 4a3c b087 cd3c d22d 283d
000001a0: a563 aa3b c37a a7bb d54d d0bc 8c56 a2bd
000001b0: a35e a63c 6d2e 10bd c2be 913b e4e6 443d
000001c0: 5c72 f9bd 1289 a6bd 96e9 27bd 3ce9 6d3d
000001d0: c278 debc 99b6 a9bd 9191 8bbc 92d6 21bc
000001e0: 7a07 94bd c172 173d d10e 71bc 65a7 acbc
000001f0: 923a 7dbd b7e1 95bc 6aa4 4b3d e1d1 0bbc
00000200: 027e dabd f869 b63b 9aa6 373c e0f0 e8bb
00000210: dc6b 3a3d c2a1 1ebd 7532 5f3b b9c1 643c
00000220: cfc5 29bd ffe5 dabd 896c 66bc 81ca 043d
00000230: 333b 3ebc b581 723c a991 77bc 62ef 263d
00000240: 83f0 d23c b2d8 8dbc 376e adbd d4ea 093d
00000250: 25aa 99bc 7a48 8cbb 9ff7 96bd a322 a73c
00000260: dba2 16bd 9041 e5bd d08f 193d f8f9 8b3b
00000270: aeb7 a93a ea5c 3bbd 7bca 56bc b6fd ed3c
00000280: 163b 94bc 92f1 4fbb 104e aabd ee18 3fbd
00000290: 8f00 c6bb ae53 cdbc cf77 a7bc 5685 b83c
000002a0: e720 90bd 8547 f3bc c46c ec3c 5e84 403c
000002b0: 766f 823c 89fa ff3c 2f4e 7d3c 5b3e d0bc
000002c0: e269 2e3d 299a 743c 31c8 2cbc 5605 0dbd
000002d0: 5351 14bd fe8b 013d 4683 c23c d1f0 f8bd
000002e0: d3c9 553d df3f 48bc 7475 ce3c 099f e1bd
000002f0: 6481 5abd 44ec 6c3c f98a 263d 255f 2b3c
00000300: 2b98 133c 5c07 1d3d 7226 28bd 34fa 91bd
00000310: b181 4ebc 7925 013d 4eac 81bd 10e0 1a3d
00000320: 03a0 00bd 9233 fa3c 82d1 a83c 6a7b 223d
00000330: 7d55 293d e4f6 3d3d b87b d0bc 94c6 afbd
00000340: dedd 7ebc b202 77bd 2d59 a1bd f38e 573c
00000350: 7faf 563d 5a36 abbc 3a30 95bb 302b b3bc
00000360: 2b42 f03c fbd9 ea3b 0ba0 1c3d 9a39 c63c
00000370: 597b 02bd 253b c3ba c00d 50bd 08b9 3ebd
00000380: 2e61 47bd f9c7 84bc c9e8 403d f76b dabb
00000390: 74d8 86bd 201a 01ba 719b 0f3d 4718 9d3c
000003a0: 3670 86bc d3b7 b5bd 677a 053d 732d 013d
000003b0: 93b2 d1bc 2374 f63c fbbe 50bc bb4b c3bc
000003c0: 9934 9e3c c84c 0d3c 9d95 d73c bc99 0abd
000003d0: 80be 97bd 6d54 bc3c c15c 2a3c 8abb c4bc
000003e0: ab0e 953d d217 e53c e44b 3d3c bf85 11bd
000003f0: ab3f 053d 92cf 2abc f649 6abd 6443 7bbc
0.014944053 -0.0195899 0.026137715 0.04494911 -0.08146041 -0.07428885 -0.019641647 0.0001234979
-0.064401485 0.018041307 -0.0067549725 0.040203918 0.03278005 0.0060697948 0.026261082 0.0036028423
-0.033780135 -0.015813682 0.04990309 -0.01949388 -0.011570006 0.035048813 0.036700778 0.012549306
0.03241364 -0.06224035 0.021705065 0.019548887 -0.008215 -0.030943526 -0.049290076 -0.0043908004
-0.016233355 -0.041327387 -0.10188125 -0.023500025 -0.04977854 0.057919957 0.011173082 -0.038486354
-0.01614618 0.0014893666 -0.03203667 -0.046383455 0.01722274 0.024162367 0.029384915 -0.05712586
-0.0650409 0.035173655 -0.014272136 -0.067052715 0.008715369 0.045737594 -0.083010204 -0.010565916
-0.036942244 0.017056024 -0.008980771 0.018151674 -0.04513539 -0.009795201 -0.07099281 -0.03526992
-0.040136665 0.032763354 -0.0038231045 -0.0066739726 -0.012293739 0.012629004 0.0054597366 -0.050826382
-0.1131457 0.035512265 -0.0031204496 -0.02201872 -0.11701102 0.034791555 -0.01527506 -0.017232558
-0.061410565 -0.0571545 -0.05905751 0.027922813 0.015881056 -0.12289413 0.014861663 0.04204751
-0.0006522224 -0.021387048 0.07831237 0.039231613 0.034922052 0.021520503 -0.030028403 0.024097554
-0.0801261 0.030528177 -0.01634848 -0.020193376 -0.0059620882 0.012370466 0.025089115 0.041059323
0.005199867 -0.00511107 -0.025427738 -0.07926664 0.020308798 -0.035200525 0.004447789 0.048071757
-0.121800154 -0.08131613 -0.04099425 0.058083758 -0.027157191 -0.08286781 -0.017037185 -0.009877818
-0.072279885 0.036974672 -0.014713005 -0.021075914 -0.061823435 -0.018296106 0.049717344 -0.008533926
-0.10668565 0.0055668317 0.0112091545 -0.0071087927 0.04551302 -0.038728483 0.0034057174 0.013962203
-0.04144841 -0.106883995 -0.014063963 0.032419685 -0.011610794 0.014801432 -0.015110412 0.040755637
0.02574945 -0.017315242 -0.084682874 0.033671215 -0.018757889 -0.004281101 -0.07371449 0.020402258
-0.036776405 -0.11194146 0.037490666 0.004271742 0.0012948418 -0.045742907 -0.013109799 0.029051643
-0.01809458 -0.003172968 -0.083156705 -0.046654634 -0.006042547 -0.025064316 -0.020442871 0.022524517
-0.070375256 -0.02969719 0.028860457 0.011750309 0.01592229 0.031247394 0.015460535 -0.025420358
0.042581446 0.014929333 -0.010545776 -0.034428917 -0.03621037 0.031627648 0.023744237 -0.12155307
0.052194428 -0.012222259 0.02520249 -0.11016662 -0.053346053 0.014460627 0.04065988 0.010459696
0.009008448 0.038337097 -0.04105229 -0.071278006 -0.012604163 0.031529877 -0.06331693 0.03781134
-0.0314026 0.030542169 0.020607714 0.039668478 0.041341294 0.04637803 -0.025449619 -0.08582798
-0.015555827 -0.060305305 -0.07878337 0.01315664 0.05241346 -0.02089994 -0.004552868 -0.02187118
0.029328426 0.0071670986 0.038238566 0.024197388 -0.031855915 -0.0014894946 -0.050794363 -0.04656318
-0.048676662 -0.016208636 0.047097 -0.0066657024 -0.06584254 -0.00049248524 0.03506035 0.019176615
-0.016410928 -0.08872952 0.032587435 0.031537484 -0.025597846 0.030084675 -0.012740846 -0.023839822
0.01931219 0.008624263 0.026316458 -0.03383802 -0.07409382 0.022989476 0.010398091 -0.024015207
0.07278188 0.02796546 0.011553738 -0.03552794 0.03253142 -0.010425465 -0.05719944 -0.015335891

action_model._discrete_distribution.branches.1.bias f4 [3]
00000000: 22e6 b2b9 c3ec 1cbc d853 083c
-0.00034122268 -0.009577933 0.008320771

action_model._discrete_distribution.branches.2.weight f4 [2, 256]
00000000: ce9d 86bd 3db4 8d3c e410 c13b b80e c5bc
00000010: dfa8 903b d1c2 6e3d e10f 353d 26a9 1fbc
00000020: 00ac bb3d 864e 8f3d ecf0 c53d 9abf 64bd
00000030: 48e6 33bd ef94 913d 10e4 8c3d 4158 66bd
00000040: ceaa c23d fa72 d43b 4a08 38bd 03b6 bb3d
00000050: b1a2 cebc 4081 683d 85cd c9bc 736c 3f3d
00000060: d385 0b3c 4fca a33d 6fed d9bc 1e82 98bd
00000070: 47b4 1d3c d709 033d d24e 2b3d a7b4 bc3d
00000080: 23c7 fcbb 6cad 2bbd 2655 893d 94da 21bd
00000090: 138e b53d d14c d93d aa6d 013e 8d80 b43d
000000a0: 9a78 5a3a 248f 32bd d7e4 dc3d 345c 8dbd
000000b0: d9c5 a2bc 2082 b53d 162a cd3c b753 c93c
000000c0: 1010 96bc e505 9f3d 722f aebd e941 043d
000000d0: 2a68 503d 2e28 ca3c 637f 17bd 453a ca3d
000000e0: 7730 e93d 942f dd3d 93fa 9b3d fd13 01bb
000000f0: 6d86 0bbd 4b89 d43d f9b4 703d 7760 513d
00000100: 5452 f6bb 5ccf eb3c 672e c73d 8f6e f2b7
00000110: 1a33 f53d 0164 e03d 52c0 003e 9c1c 693c
00000120: 5baa b93d 15b9 ecbc 6b0d 933d ee6f 9a3d
00000130: 3c28 ab3d 38a3 b83d 793e 09bd 7f64 a0bd
00000140: a29e 593d e3ea a3bc eb0a 243d 5816 e73d
00000150: fc8d b33d 75b3 863d 4872 383c d742 5ebc
00000160: 8442 7f3d ec29 083d 1abf 9c3c 849a c4bd
00000170: 7bb2 653d 5fa0 e93d 307b cb3d 33bb de3d
00000180: 9403 063d 56e8 923d 61ce 713d d0a7 be3d
00000190: 85b2 973d c73a f53d 452a 803d 72b4 41bd
000001a0: 9966 49bd e22a a33d b528 abbd 2ed4 febc
000001b0: bafe 89bc d513 313d ba66 e63d 6159 48bd
000001c0: 5bfe 8f3b 17b9 60bd 02bd 723d 8936 4bbd
000001d0: 6344 f03d 12e6 633d c5d4 bfbd 35ee 0ebd
000001e0: 84da 583d 6b6b 6dbc bfeb 013e dd1e 93bd
000001f0: 15e5 b93d 5ac4 b43d a70e 0b3e 75d1 6ebc
00000200: 66c6 cf3d e943 b7bd f87f 9bbb 72f3 de3c
00000210: 8b51 823d 6dd6 813d 3473 0b3d b901 75bd
00000220: cb1e 753c bb55 723d 21a3 d1bd 6355 6e3c
00000230: 788d 4d3c 046a 86bd b7fb a03d ba52 5dbd
00000240: 1ec7 9e3d 50c1 e8bc 3397 423d c7bb 30bd
00000250: cf35 803d be49 10bd cf0b a0bd 019b 3bbd
00000260: 3615 b93d fafe e93c 343c 663c 2a19 d33c
00000270: 9818 393d cbfa db3d 1a74 6d3c 0463 0c3c
00000280: e698 ed3d 817b e03d 5190 483d 306c e2bc
00000290: a51b 903d 75ee df3b b0db b33d 695a 3f3c
000002a0: f9b3 05bc 0f0b ad3d aab3 8c3c d226 543d
000002b0: 76b3 be3d 787e ad3d 3430 00bd 4f6a ef3c
000002c0: 4abe 2cbd da8f 6b3d f2e0 a53d 19a9 c43d
000002d0: daf7 e63d 6a16 f9bc 7735 2dbd 2691 1c3d
000002e0: d66f 71bc 875c f83d 9ab9 ec3d a0fa 0c3b
000002f0: fc65 123d 80ad 6bbc f42f 163b 6686 0e3d
00000300: 0b51 ce3d d6d7 3dbb dd42 a43c 517f 673d
00000310: 0cb0 b7bd 7504 3abc 0bd6 243d 6e6d 383c
00000320: 5b25 ff3d af40 ecbb f776 55bd bab3 c43d
00000330: 8d92 65bd ac69 5abd 22ea 193c 6291 553d
00000340: bd35 793d 9c94 bc3d 0ad5 823d c46b ff3d
00000350: a2b5 42bd 49bc 843d 5323 a1bd 235e a0bc
00000360: 6aed bb3d 0652 cc3d e643 123e 493f 44bd
00000370: e6c0 49bd 6137 ad3d e9f6 89bd 4818 0ebd
00000380: 6687 2abd f0dd 4c3d 8ab3 6fbd a596 aa3d
00000390: 3397 7dbd 246b b1bd bf42 753d c84b 38bc
000003a0: a6b9 bbbc 8459 0bbd 94ee 41bd a896 c33d
000003b0: 7909 bb3d 8f16 0f3d 188f 4fbd 77a2 5bbb
000003c0: bee9 4cbd 45ef b83d 2839 92bb 0d18 673d
000003d0: 05ed f93a 8f0c 863d 5fc4 c93d 75da d2bd
000003e0: 9d4b 7fbd 75ba acbc 7a5d 61bd 4f8b c63c
000003f0: 5b65 e9bc 1f10 893d 186a e93d 4e19 23bd
-0.065730676 0.017297858 0.005891906 -0.02405487 0.0044146623 0.05829126 0.044204596 -0.009744918
0.09163666 0.06997399 0.09665093 -0.055846788 -0.043920785 0.07108485 0.06879437 -0.05623651
0.09505235 0.006483433 -0.04492978 0.09165575 -0.025224062 0.056763887 -0.024634132 0.046734285
0.008515793 0.07997572 -0.026602475 -0.07446693 0.009625501 0.031991806 0.041823216 0.09214144
-0.0077141686 -0.041913435 0.06705694 -0.039515093 0.08864989 0.10610355 0.1263949 0.088135816
0.0008334011 -0.04359354 0.10785835 -0.06902352 -0.019869732 0.0886271 0.025044482 0.024576051
-0.018318206 0.07764796 -0.08505143 0.03228942 0.05088059 0.024677362 -0.03698672 0.09874395
0.11386197 0.108000904 0.076161526 -0.0019695752 -0.034063745 0.10377749 0.05876634 0.051117387
-0.0075171385 0.0287854 0.097256474 -2.8900131e-05 0.119726375 0.10956574 0.12573364 0.014228012
0.09065696 -0.028896848 0.07180294 0.0754088 0.083572835 0.090155065 -0.033506844 -0.07831668
0.0531298 -0.020009464 0.040049475 0.112835586 0.08767316 0.065771975 0.0112577155 -0.013565741
0.062319294 0.033243105 0.019134093 -0.09599784 0.056078415 0.114075415 0.099356055 0.10875549
0.032718256 0.07173221 0.05903471 0.093093514 0.07407097 0.119741015 0.06258062 -0.047291227
-0.04917011 0.079671636 -0.083573736 -0.031107035 -0.016845096 0.043231804 0.11250062 -0.048913363
0.004394335 -0.054864015 0.059262283 -0.049612556 0.11731794 0.055639334 -0.093667544 -0.03489514
0.052942768 -0.0144909425 0.12687586 -0.07183621 0.09076897 0.088265136 0.13579808 -0.014576306
0.101452634 -0.089485 -0.0047454797 0.027215693 0.06363209 0.063397266 0.034045413 -0.059816096
0.014960955 0.05916379 -0.102361925 0.014546725 0.012545936 -0.065631896 0.07860511 -0.054033972
0.07752822 -0.028412491 0.047507476 -0.04314783 0.06260263 -0.035226576 -0.07814752 -0.04580212
0.09037249 0.028563965 0.0140524395 0.025768835 0.04518947 0.10741194 0.014493013 0.008568529
0.11601429 0.109610565 0.048965756 -0.027639478 0.07036523 0.006833846 0.087821364 0.01167927
-0.008160585 0.08449375 0.017175514 0.051794834 0.09311573 0.084713876 -0.03129597 0.029225497
-0.04217366 0.057510234 0.080995455 0.09602565 0.11277743 -0.030406196 -0.042287316 0.03822436
-0.014736136 0.12127023 0.11558838 0.0021511689 0.03574179 -0.014384627 0.0022916766 0.03479614
0.100740515 -0.002896776 0.020051414 0.056517903 -0.08969125 -0.011353602 0.04024319 0.011256559
0.12458297 -0.0072098593 -0.052115407 0.096045926 -0.056047965 -0.053323433 0.0093942005 0.0521406
0.060842264 0.092080325 0.0638829 0.124717265 -0.0475365 0.06481225 -0.07868066 -0.019576138
0.091761425 0.09976582 0.14283714 -0.047911916 -0.049256228 0.08457828 -0.067365475 -0.034691125
-0.041633032 0.050016344 -0.05852083 0.083295144 -0.061911773 -0.086630136 0.059878107 -0.011248536
-0.022915673 -0.034020916 -0.047346666 0.0955022 0.09132666 0.034933623 -0.050673574 -0.0033513585
-0.0500276 0.09030012 -0.00446238 0.05641942 0.001906783 0.06545364 0.09851908 -0.102955736
-0.06232797 -0.021085003 -0.055020787 0.02423635 -0.028490713 0.06692528 0.11397189 -0.039819054

action_model._discrete_distribution.branches.2.bias f4 [2]
00000000: c827 883d 9027 88bd
0.06648213 -0.06648171
