results/MoveToButton_4/ButtonPress/ButtonPress-499930.onnx (onnx, 352736 bytes, 13 tensors)

discrete_act_size_vector f4 [1, 4]
0	0x40400000	3.0
1	0x40400000	3.0
2	0x40000000	2.0
3	0x40000000	2.0

network_body._body_endoder.seq_layers.0.weight f4 [256, 65]
0	0x3d384a4f	0.04499274
1	0xbe26565f	-0.16243885
2	0xbe0a524a	-0.13507953
3	0xbe06c2b9	-0.13160218
4	0x3da8b516	0.082376644
5	0x3c4e6ed5	0.012599667
6	0xbd417579	-0.04723117
7	0xbc505bd3	-0.012717205
8	0x3e8a4161	0.27003005
9	0xbe3c9c9f	-0.18419121
10	0x3c298519	0.010346674
11	0xbcae22ae	-0.021256771
12	0x3b43e87c	0.002989321
13	0x3da661dd	0.08124135
14	0xbcb61383	-0.0222261
15	0x3e53fa8f	0.2070105
16	0xbd9fedc3	-0.07809021
17	0xbe215b9d	-0.15757604
18	0xbbf10e6b	-0.007356455
19	0xbc28a069	-0.010292151
20	0xbe201a9f	-0.15635155
21	0x3cb58696	0.022158902
22	0x3d7cbd43	0.06170393
23	0xbe6234a8	-0.220904
24	0xbd40a844	-0.04703547
25	0xbde24c34	-0.11049691
26	0x3ecdb066	0.40173644
27	0x3de1f122	0.110323206
28	0xbd8314f3	-0.0640048
29	0xbde7c783	-0.11317351
30	0xbdb4610c	-0.08807573
31	0x3e0db64d	0.13839073
32	0xbd257330	-0.040393054
33	0x3e0a3a45	0.1349879
34	0x3d8b8b14	0.068136364
35	0xbe6dc43a	-0.23219386
36	0x3e53b335	0.20673831
37	0xbc8e9877	-0.017406685
38	0x3e520e9c	0.20513386
39	0x3d91fe26	0.07128553
40	0xbea5bdd7	-0.323714
41	0x3d20325f	0.039110538
42	0x3dd27687	0.102765135
43	0x3e1fd840	0.15609837
44	0x3cdb0425	0.026735375
45	0xbdb7932e	-0.08963619
46	0xbdeb62a4	-0.114934236
47	0xbc313cf0	-0.010817751
48	0x3d652c5b	0.055950504
49	0xbe108732	-0.14114073
50	0xbb23cedc	-0.0024995124
51	0xbd509191	-0.050920073
52	0x3dd032ea	0.10165961
53	0x3d37f01e	0.044906728
54	0xbcb9281e	-0.022602137
55	0x3e04e8da	0.12979451
56	0xbd51d414	-0.051227644
57	0xbe1bd55a	-0.15218106
58	0x3d9cf7d0	0.07664454
59	0xbe6dae7f	-0.23211096
60	0x3d0ccd35	0.03437539
61	0x3dc6ee75	0.09713451
62	0x3d1579e0	0.036493182
63	0x3e5d83f2	0.21632364
64	0xbe60e5af	-0.21962617
65	0x3e1fb4cd	0.15596314
66	0x3dc554e4	0.09635332
67	0xb9ca51e4	-0.00038589456
68	0xbd642cd3	-0.05570681
69	0xbde48aa5	-0.11159257
70	0xbdf7a945	-0.120928325
71	0xbd43ffd6	-0.047851406
72	0xbd29b66a	-0.04143373
73	0xbd984869	-0.07435686
74	0xbe47534d	-0.1946537
75	0x3e484c81	0.19560434
76	0xbbf70fcc	-0.007539725
77	0x3de3e766	0.1112812
78	0xbd82fb60	-0.06395602
79	0xbe8b0044	-0.2714864
80	0x3e8fa79f	0.28057572
81	0x3c80924b	0.015694758
82	0xbdd0425c	-0.10168907
83	0xbd8582fc	-0.06519124
84	0xbe9f6af6	-0.31136292
85	0x3c56a9a3	0.013101968
86	0x3e1e9d0d	0.15489598
87	0x3da057eb	0.07829269
88	0xbe9edae4	-0.31026375
89	0xbe087d80	-0.13329124
90	0x3d332c96	0.043743692
91	0x3e58a761	0.211576
92	0x3db83856	0.0899512
93	0xbe66bd57	-0.22533165
94	0xbed65c42	-0.41867262
95	0xbd5b9626	-0.05360999
96	0x3de53888	0.11192423
97	0xbcc1125b	-0.023568323
98	0xbe092721	-0.13393833
99	0xbecc20f1	-0.39868882
100	0xbd9bff6d	-0.07617078
101	0xbe0545a2	-0.13014844
102	0xbd6fbeb5	-0.05853148
103	0xbe636740	-0.22207355
104	0xbe824885	-0.25445953
105	0xbdf013de	-0.11722539
106	0xbdc4b5ce	-0.09604989
107	0x3d9e90cb	0.07742461
108	0xbe4b56e5	-0.19857366
109	0x3bb6a144	0.0055734236
110	0xbda0a769	-0.07844431
111	0x3daf9ce9	0.0857485
112	0xbcadccf4	-0.021215893
113	0xbe040309	-0.12891783
114	0xbe32c062	-0.174562
115	0x3c97e6ec	0.01854273
116	0xbe900ba7	-0.2813389
117	0xbd3c9bd6	-0.046047054
118	0xbe5b3c6e	-0.21409771
119	0xbe3378c7	-0.17526542
120	0xbc9cf582	-0.019160036
121	0x3d311778	0.043235272
122	0xbcdada0f	-0.026715307
123	0xbd48d7b8	-0.04903385
124	0xbe81eef2	-0.25377613
125	0xbe32acd8	-0.17448747
126	0x3e5d72ef	0.21625875
127	0xbdb6c943	-0.089251064
128	0xbe20622d	-0.15662451
129	0xbd901953	-0.0703608
130	0xbd34bc8c	-0.044125125
131	0x3e4ff139	0.20306863
132	0xbd50b10d	-0.0509501
133	0xbdbfd1c2	-0.0936618
134	0x3d3aa025	0.045562882
135	0x3d2cfcdd	0.042233337
136	0x3e8a3ac7	0.2699797
137	0xbcd6f495	-0.026239673
138	0xbde89f34	-0.113584906
139	0xbd943710	-0.07237065
140	0xbc52d284	-0.012867574
141	0x3e45ea98	0.19327772
142	0xbe7513bb	-0.23933308
143	0xbe9d382e	-0.30706924
144	0x3e707611	0.23482539
145	0x3e03ce43	0.12871651
146	0x3c50fd83	0.012755754
147	0xbdc16ccb	-0.09444579
148	0xbd8a5a93	-0.06755557
149	0x3e6424da	0.22279683
150	0xbe28d6fd	-0.16488262
151	0x3ed2efe7	0.41198656
152	0xbe60db50	-0.21958661
153	0x3e2a6ba8	0.1664263
154	0xbcc30eb4	-0.023810722
155	0x3e8e2534	0.2776276
156	0x3cdd175d	0.02698868
157	0x3cdf1b71	0.027234765
158	0x3d203b8e	0.039119296
159	0xbe2e8ae5	-0.17045172
160	0xbe75fdf7	-0.24022661
161	0xbd29da7f	-0.04146814
162	0x3d28da3b	0.041223746
163	0x3d2e44a0	0.042545915
164	0xbd774c78	-0.06037566
165	0xbd05cf02	-0.03266812
166	0x3d917149	0.071016856
167	0xbe9649ec	-0.29353273
168	0xbe34a47a	-0.17640868
169	0xbd87fd5a	-0.0664012
170	0x3d74ff9d	0.059814084
171	0x3e3afc49	0.18260302
172	0xbe590e0b	-0.21196763
173	0x3e56c1f5	0.20972426
174	0xbe25a4db	-0.16176169
175	0xbc797bf7	-0.015227309
176	0xbd59a284	-0.053133503
177	0xbd090f83	-0.03346206
178	0x3db563b6	0.08856909
179	0xba8cc552	-0.0010739958
180	0xbd4d9449	-0.050190244
181	0xbd6ceef0	-0.057845056
182	0x3c5b439c	0.013382819
183	0xbdbf14f4	-0.09330168
184	0xbce8cb1d	-0.028417164
185	0x3e701695	0.23446114
186	0x3e5c676d	0.21523829
187	0x3e6fd1b1	0.23419835
188	0x3d8eacb2	0.06966533
189	0xbde5d85f	-0.1122291
190	0x3e89070a	0.26763183
191	0x3e3924c1	0.18080427
192	0x3e881419	0.26577833
193	0xbe40f253	-0.1884244
194	0x3cea7509	0.02862026
195	0xbdef38b2	-0.11680736
196	0x3d7ba2bc	0.061434492
197	0xbe414204	-0.18872839
198	0xbe0e0a08	-0.13871014
199	0x3d68ea24	0.05686392
200	0xbc14034c	-0.009033989
201	0xbd4afef3	-0.049559545
202	0xbcbe510a	-0.023232002
203	0xbe6815ad	-0.22664519
204	0xbcbd4ebe	-0.023108836
205	0xbc0019c6	-0.007818645
206	0x3c8dbd33	0.017302131
207	0xbe4ab8ed	-0.19797106
208	0x3e4c3a3e	0.19944093
209	0xbe28bde3	-0.16478686
210	0xbcea07d1	-0.02856818
211	0x3c905d2b	0.017622551
212	0xbde5300a	-0.11190803
213	0x3e1d537b	0.15363877
214	0xbe8ec091	-0.27881292
215	0xbd0ff89c	-0.0351492
216	0x3e2ea5ba	0.17055407
217	0x3db2c2ef	0.08728587
218	0xbea89963	-0.32929525
219	0xbda82116	-0.08209436
220	0x3d7ede86	0.062223934
221	0xbe3d5785	-0.18490417
222	0x3cf5be66	0.029998016
223	0xbe3eaa2b	-0.18619601
224	0x3de425e4	0.111400396
225	0xbe11bea4	-0.1423288
226	0x3e524399	0.20533599
227	0xbe4e43a4	-0.2014299
228	0x3ddc6a04	0.107624084
229	0x3da9e3a3	0.082953714
230	0xbe434c49	-0.19072069
231	0xbdd6b9a4	-0.10484627
232	0x3d717ba8	0.05895582
233	0x3da31b97	0.07964247
234	0x3e5b6cb1	0.21428181
235	0xbda31e56	-0.079647705
236	0x3e01cb3e	0.12675187
237	0xbe05b79a	-0.1305832
238	0x3c268864	0.010164354
239	0xbe0c9990	-0.13730454
240	0xbd5fad21	-0.054608468
241	0x3d8b2fab	0.06796201
242	0x3e15bac9	0.14622034
243	0x3e14b299	0.14521255
244	0x3e1ad988	0.15122044
245	0x3d2aa7a3	0.041663777
246	0x3e33d52e	0.1756179
247	0xbab066b1	-0.0013458339
248	0xbda602ed	-0.08106027
249	0xbe2c9493	-0.16853552
250	0x3de350d9	0.11099405
251	0xbe1b91d1	-0.15192343
252	0xbd922a71	-0.07137001
253	0xbd2273bc	-0.039661154
254	0x3db38b0d	0.08766756
255	0xbde6f702	-0.11277582

network_body._body_endoder.seq_layers.0.bias f4 [256]
0	0x3d258335	0.040408332
1	0xbddae957	-0.10689037
2	0x3d266377	0.0406222
3	0xbc9db6f0	-0.01925227
4	0xbc9b8598	-0.0189846
5	0xbd719f73	-0.058989953
6	0xb908d454	-0.00013049069
7	0xbcf3419e	-0.029694375
8	0xbced416d	-0.028961862
9	0xbc8280be	-0.01593053
10	0xbc93dcff	-0.018049715
11	0xbc915aed	-0.017743552
12	0xbdcfd4fc	-0.101480454
13	0x3d83b87f	0.06431674
14	0xbc7af635	-0.015317489
15	0x3c912476	0.017717581
16	0x3b161b66	0.0022904514
17	0x3c3fcb64	0.011706207
18	0xb9abd103	-0.00032771387
19	0x3bbb1497	0.0057092416
20	0x3b51ee59	0.0032032935
21	0xbc92f8d5	-0.017940918
22	0xbd18cfea	-0.037307657
23	0xbb0f06b2	-0.002182406
24	0x3c54b463	0.012982461
25	0xbd1063d4	-0.035251454
26	0xb9e529e4	-0.00043709495
27	0xbc1a62db	-0.009422983
28	0x3cd493bf	0.025949357
29	0x3c93c64e	0.018038895
30	0xbd3bdc40	-0.045864344
31	0xbb4abee4	-0.0030936534
32	0xbbed701e	-0.0072460314
33	0x3cb21027	0.021736218
34	0x3c11b1cf	0.0088924905
35	0xbcb359f1	-0.021893473
36	0x3c3573e9	0.011074998
37	0xbc967e92	-0.0183709
38	0xbc1effca	-0.00970454
39	0xbca84ce7	-0.020544482
40	0xbbde23b0	-0.0067791566
41	0xbc806a02	-0.015675548
42	0xbc439ec1	-0.011939705
43	0x3ca6e466	0.02037258
44	0x3cc0e225	0.023545334
45	0xbad49441	-0.00162185
46	0xbc690eba	-0.0142247025
47	0xbb8fa65a	-0.0043838443
48	0x3ce114e2	0.027475778
49	0xbd496601	-0.049169544
50	0xbdf68988	-0.12037951
51	0xbc9b3a05	-0.018948564
52	0xb9f15fd1	-0.0004603849
53	0xb96b6563	-0.00022449116
54	0x3cb40d43	0.02197898
55	0xbb2bb298	-0.002619898
56	0x3c45569b	0.012044574
57	0xbc370930	-0.011171624
58	0xbae955c4	-0.0017802049
59	0x3cade3d4	0.021226801
60	0xbc7e8e7c	-0.015536901
61	0x3c9f8856	0.01947419
62	0xbcbcd060	-0.02304858
63	0xb9ed2012	-0.00045228057
64	0xbb15df1c	-0.002286858
65	0xbc6064f4	-0.013695944
66	0xbd5481b4	-0.051881507
67	0x3ccfd978	0.025372252
68	0xbd0f77d5	-0.03502639
69	0xbc29a13e	-0.010353385
70	0xbdd84430	-0.10559881
71	0xbc90a9b2	-0.017659042
72	0xbc911f8b	-0.017715236
73	0xbd0aef7f	-0.033919808
74	0xbb68de3e	-0.0035532857
75	0xbcc65fbb	-0.02421557
76	0x3c153d77	0.009108893
77	0xbdd46e70	-0.10372627
78	0x3c9fb6c3	0.019496327
79	0xbd315e16	-0.043302618
80	0xbcbf163d	-0.023326034
81	0xbbc8b995	-0.0061256387
82	0x3c59b823	0.0132885305
83	0x3cda93fd	0.026681894
84	0xba9119dd	-0.001107033
85	0xbca00841	-0.019535186
86	0x3d12cb4c	0.03583841
87	0x3c69c627	0.014268435
88	0xbc6046d9	-0.013688766
89	0x3c2552d0	0.010090545
90	0xbc8ef2a8	-0.017449692
91	0x3b5dc495	0.0033839096
92	0xbc8fcd69	-0.017554002
93	0xbcd606bc	-0.026126258
94	0xbbf0861c	-0.007340206
95	0xbb5c36b4	-0.0033601942
96	0xbd08b95c	-0.033379897
97	0x3cdd3b0d	0.027005697
98	0xbd102749	-0.035193715
99	0xbb833ab3	-0.0040048
100	0xbc0728e1	-0.008249492
101	0x3bb6265c	0.005558772
102	0x3d15d405	0.03657915
103	0x3d3a73c5	0.045520563
104	0x3d29790f	0.041375216
105	0x3bfa76c2	0.0076435516
106	0x3cc14414	0.023592032
107	0xbd06597e	-0.03280019
108	0x3aa4493f	0.0012534036
109	0x3c5759b2	0.013143944
110	0x3c0e2aa0	0.008677155
111	0x3d119cf6	0.03555008
112	0xbc4c9a44	-0.012487952
113	0x3d0e3e76	0.034727536
114	0x3be5a4f0	0.0070081875
115	0xbd3863c3	-0.045017015
116	0x3ca0ad21	0.019613804
117	0xb82b467e	-4.0835228e-05
118	0x3c6a3750	0.014295414
119	0xbcd13765	-0.02553911
120	0x3c58d2f2	0.013233887
121	0x3ced9b1d	0.029004628
122	0xbd702e76	-0.05863806
123	0x3b2d0b70	0.0026404522
124	0x3d358e6e	0.044325285
125	0xbc4f4eb7	-0.012653044
126	0xbd4083df	-0.047000762
127	0xbc7394cc	-0.014867019
128	0x3caeb88a	0.02132823
129	0xbb34c041	-0.0027580413
130	0x3c6b504b	0.014362405
131	0xbbb8a7a4	-0.0056352187
132	0x3c8469f6	0.016163807
133	0xbd5510c4	-0.052017942
134	0x3d1defe3	0.038558852
135	0xbba7f11e	-0.005125179
136	0x3bf5e7f3	0.007504457
137	0xbbe00649	-0.0068366867
138	0xbc52162d	-0.01282267
139	0x3d243732	0.0400917
140	0x3d330d09	0.043713603
141	0x3bdda6b3	0.006764257
142	0xbc5a7a9d	-0.013334897
143	0x3a5b8806	0.0008374456
144	0x3c59a401	0.0132837305
145	0xbbd44450	-0.00647787
146	0x3b435797	0.0029806846
147	0x3c0d17f2	0.008611666
148	0xbd1bb63c	-0.03801559
149	0x3af9096e	0.0019000003
150	0x3bf32fa8	0.0074214526
151	0xbbb09a85	-0.005389514
152	0xbdf517db	-0.11967441
153	0xbd05c478	-0.03265807
154	0x3c1b98d6	0.009496888
155	0x3bdadf46	0.0066794483
156	0xbbbf8486	-0.0058446554
157	0x3c74d810	0.014944091
158	0xbc083029	-0.0083122635
159	0xbc9adf3d	-0.018905276
160	0x3c812504	0.01576472
161	0x3c8fa902	0.017536644
162	0xbbaf820c	-0.005356079
163	0xbcbb75cd	-0.02288332
164	0x3ba0eea0	0.004911259
165	0xbd2f2e80	-0.042768955
166	0xbb5ad5a8	-0.003339151
167	0x3c892e2f	0.016745655
168	0x3d16c3f6	0.036807977
169	0x3c02f49f	0.0079928925
170	0x3d42368a	0.047415294
171	0xbcd7b13a	-0.026329625
172	0x3b8753c0	0.004129857
173	0xbb28aee0	-0.0025739
174	0x3c369586	0.011144048
175	0x3c62aff9	0.0138359
176	0xbc25804c	-0.010101389
177	0x3c53f2b3	0.012936282
178	0x3b7cac1f	0.003855474
179	0xbb2a313d	-0.002596929
180	0x3be45f82	0.006969393
181	0xbcb95467	-0.022623254
182	0xbabe55c7	-0.0014521413
183	0xbcf17fdf	-0.029479919
184	0xbcd90f0a	-0.026496429
185	0xbcbde95d	-0.023182565
186	0xbbc551db	-0.006021721
187	0x3c7f2bc9	0.015574404
188	0xbcec4563	-0.02884168
189	0x3bb9499f	0.0056545283
190	0xbcd2b44b	-0.025720736
191	0xbcb2320f	-0.021752385
192	0x3c87f6aa	0.01659711
193	0xbd0d9b6e	-0.034572057
194	0xbcf31a66	-0.029675674
195	0xbc1f9156	-0.009739241
196	0x3a49b68a	0.0007694742
197	0x3ce8e9f3	0.028431868
198	0xbbca2a8f	-0.006169624
199	0x3b364947	0.0027814673
200	0xbd05689c	-0.032570466
201	0x3d3897f1	0.045066778
202	0x3bd65954	0.0065414105
203	0xbaeb62c7	-0.0017958515
204	0x3c8840bf	0.016632436
205	0x3a848246	0.0010109625
206	0x3c69c1e7	0.014267421
207	0xbcc351ba	-0.023842681
208	0xbc960805	-0.01831437
209	0xb8d5f436	-0.00010202119
210	0xbc872988	-0.016499296
211	0x3b5a5183	0.0033312745
212	0xbcda10ab	-0.026619276
213	0x39b4261e	0.00034360675
214	0xbd08920b	-0.033342402
215	0xbcc60516	-0.024172347
216	0x3cbdd1d7	0.023171348
217	0xbcbaad5d	-0.022787744
218	0xbd36e4aa	-0.044651665
219	0xbd21beb5	-0.039488513
220	0xbd014353	-0.031558346
221	0xbdd9518d	-0.10611258
222	0xbc8cebf6	-0.017202359
223	0x3c5625ef	0.0130705675
224	0xbc60d20b	-0.013721953
225	0x3c045d07	0.00807882
226	0xbbf7ec95	-0.0075660446
227	0xbc998d11	-0.018744024
228	0x3b9c51d1	0.0047704955
229	0x3bac3a17	0.0052559483
230	0x3c82f449	0.015985625
231	0x3cd7383a	0.026271928
232	0xbc874b61	-0.016515436
233	0xbb92c490	-0.0044789985
234	0x3d086784	0.033301845
235	0xbd024520	-0.031804204
236	0x3b08a925	0.002085277
237	0x3b71cf37	0.0036897191
238	0xbc5bf2e5	-0.01342461
239	0xbca270d1	-0.019829186
240	0x3c4864fa	0.012231106
241	0xbca57a18	-0.02019982
242	0x3c2f1c15	0.010687848
243	0xbcd0ad91	-0.025473388
244	0xbc9e5710	-0.019328624
245	0x3c08587f	0.00832188
246	0xbcc6a0e8	-0.024246648
247	0xbc4bd67e	-0.012441276
248	0x3bec0a7d	0.0072033987
249	0xbca7cd28	-0.020483568
250	0x3b86e374	0.00411647
251	0x3cbc2b24	0.02296979
252	0xbc91ae16	-0.017783206
253	0x3cdd3b44	0.0270058
254	0xbdb5489f	-0.08851742
255	0xbd07a59e	-0.03311693

network_body._body_endoder.seq_layers.2.weight f4 [256, 256]
0	0xbd8cecf8	-0.06881136
1	0x3d4edcdf	0.050503608
2	0xbd88e872	-0.066849604
3	0x3de457b9	0.11149544
4	0x3d68c813	0.05683143
5	0x3c57cb5b	0.013171042
6	0x3d465d07	0.04842856
7	0xbaf4f51e	-0.0018688773
8	0xbcafafcc	-0.021446131
9	0x3d023a7e	0.031794064
10	0xbd8c7e10	-0.06859982
11	0xbd0e4535	-0.03473397
12	0xbcbdb486	-0.02315737
13	0xbde90c82	-0.11379339
14	0xbdf10fb2	-0.11770572
15	0x3d322dfe	0.043500893
16	0xbe0b4c3a	-0.13603297
17	0x3d43181b	0.04763041
18	0x3e55bb8a	0.20872322
19	0xbcb7509b	-0.022377303
20	0x3d7b24b8	0.061314315
21	0xbde3a641	-0.11115695
22	0x3e09d169	0.1345879
23	0xbe4a5af0	-0.19761252
24	0x3ccd472c	0.025058351
25	0xbb8a46f9	-0.0042198864
26	0x3d587676	0.05284735
27	0xbd98c87e	-0.07460116
28	0xbe1a50bc	-0.1506986
29	0xbcf0d5c7	-0.029398812
30	0xbd8f6517	-0.07001703
31	0x3d0c3d0b	0.034237903
32	0x3ce8acd2	0.02840272
33	0x3d73305f	0.059372302
34	0x3d13428b	0.035952132
35	0xbd29a8a4	-0.041420594
36	0x3b31aca1	0.0027110951
37	0x3a9767fc	0.0011551376
38	0x3dc4a6c2	0.09602119
39	0x3ded5ae7	0.11589604
40	0xbddf36d4	-0.108991295
41	0xbd0aec43	-0.033916723
42	0xbd0c8dc2	-0.03431488
43	0xbdb03341	-0.08603526
44	0x3d8d6898	0.06904715
45	0xbc1f3c24	-0.0097189285
46	0x3e103db1	0.14086033
47	0xb9815980	-0.0002467148
48	0x3d82aad4	0.06380239
49	0xbd47a3e9	-0.0487403
50	0x3de23cb4	0.110467345
51	0xbdeaac9b	-0.11458703
52	0x3cb8c1ac	0.022553287
53	0xbd87406f	-0.066040866
54	0xbccbbb1d	-0.024869496
55	0xbc9feae5	-0.019521186
56	0xbdac69da	-0.08418627
57	0xbc75271e	-0.01496294
58	0x3bf2d99c	0.007411195
59	0x3d0e2b1f	0.034709092
60	0xbca76d62	-0.0204379
61	0x3d964b24	0.07338551
62	0x3caf6d41	0.021414401
63	0xbd7e3a52	-0.062067337
64	0xbde4f1be	-0.11178921
65	0x3e100596	0.14064631
66	0xbb820d84	-0.0039688963
67	0x3c1d88e7	0.00961516
68	0xbdbf859c	-0.09351656
69	0xbd8a774d	-0.06761036
70	0x3d9d56a2	0.076825395
71	0x3e0510a1	0.12994625
72	0x3da1c10a	0.078981474
73	0xbd0f324e	-0.034960084
74	0xbbb50cde	-0.0055252155
75	0xbcfca83c	-0.03084194
76	0xbd822b34	-0.063558966
77	0xbe10f2d4	-0.14155132
78	0x3d5ebb67	0.05437794
79	0x3bb6464e	0.00556258
80	0x3e19cee1	0.15020324
81	0x3dbdf814	0.09275833
82	0xbd1d40c1	-0.038391832
83	0xbce49b47	-0.027906073
84	0x3dc11567	0.0942791
85	0x3de292e7	0.11063176
86	0xbdde8383	-0.108649276
87	0xbd0ee58f	-0.034886893
88	0x3d03425f	0.03204572
89	0xbca7e3ce	-0.020494368
90	0x3e0cd6a8	0.1375376
91	0x3a727bc0	0.00092500076
92	0x3df679cc	0.1203495
93	0x3de3916c	0.111117214
94	0x3db39294	0.08768192
95	0xbd9a5c72	-0.07537164
96	0xbda5fba0	-0.08104634
97	0x3d8616e8	0.06547338
98	0x3d047e22	0.032346852
99	0x3bb132bf	0.0054076607
100	0xbdca614c	-0.09881839
101	0x3b8bca0b	0.0042660288
102	0x3db65329	0.0890258
103	0xbd4e1462	-0.050312407
104	0xbd4f37fa	-0.050590493
105	0xbd60b138	-0.05485651
106	0x3c1509fe	0.009096621
107	0xbcf587d0	-0.029971987
108	0x3c99ff16	0.018798392
109	0x3d09497b	0.033517342
110	0x3d523d3a	0.05132792
111	0xbdb1062f	-0.086437576
112	0xbda641f4	-0.08118048
113	0xbd1c9183	-0.03822471
114	0xbdfed5ea	-0.124431446
115	0xbe1e0cf2	-0.15434626
116	0x3c7a3ca6	0.015273249
117	0xbe07d0d9	-0.13263263
118	0x3da3bfe4	0.079955846
119	0xbddd615c	-0.108095855
120	0x3de33db3	0.110957526
121	0xbcb831f6	-0.02248476
122	0x3d559614	0.05214508
123	0x3ddfe407	0.10932165
124	0x3dfab95c	0.12242386
125	0x3e078e41	0.1323786
126	0x3d262018	0.04055795
127	0xbd5bb0c8	-0.05363539
128	0x3e0103a9	0.12599052
129	0x3c66af30	0.014079854
130	0xbd4b2f15	-0.049605448
131	0x3d92555c	0.07145187
132	0x3b1d1a5d	0.0023972013
133	0x3d1bfbe4	0.03808202
134	0x3c3a445e	0.011368839
135	0xbe01ce71	-0.12676407
136	0x3d2ee92d	0.042702843
137	0x3d8b9275	0.06815044
138	0x3d6326f9	0.05545709
139	0xbc57cc68	-0.013171293
140	0x3d6c9eff	0.057768818
141	0x3e129648	0.1431514
142	0xbc8f67e4	-0.017505594
143	0xbc5a6f12	-0.013332145
144	0x3d6b31d7	0.057420578
145	0x3d783c90	0.060604632
146	0xbda1b036	-0.07894938
147	0xbe0e9331	-0.13923337
148	0x3cfd1ec6	0.030898463
149	0xba1621ac	-0.00057270634
150	0x3db37d91	0.08764184
151	0x3d77f590	0.06053692
152	0xbd14100c	-0.036148116
153	0x3dbdafc3	0.092620395
154	0x3e0ad469	0.1355759
155	0xbe1203a4	-0.14259201
156	0x3d0b895f	0.034066554
157	0x3d4c79c0	0.049920797
158	0x3df17956	0.11790721
159	0x3dcff324	0.10153797
160	0x3b9740c4	0.004615875
161	0xbe1d8171	-0.15381409
162	0xbe33d143	-0.17560296
163	0x3cf48b97	0.029851718
164	0xbddc6a2c	-0.10762438
165	0x3ca8dae9	0.020612197
166	0x3de649a9	0.11244518
167	0xbd6e8488	-0.05823186
168	0xbdd67b9d	-0.10472796
169	0x3d4f5f5a	0.050628044
170	0xbda31e64	-0.07964781
171	0xbc9b852a	-0.018984396
172	0xbdb0933c	-0.08621833
173	0x3dc8436e	0.09778486
174	0x3e08d2a4	0.13361603
175	0x3d80da80	0.062916756
176	0x3cf3a62c	0.029742323
177	0x3ce7dd81	0.028303863
178	0xbd8237f5	-0.06358329
179	0x3cb601c2	0.022217635
180	0xbdf339cc	-0.11876258
181	0xbd1b59f5	-0.037927587
182	0xbc825fa0	-0.015914738
183	0x3aa1a8d7	0.0012333643
184	0x3d95674a	0.072950915
185	0xbb5fa18a	-0.0034123384
186	0xbdd7b796	-0.10533063
187	0xbd277f45	-0.040892858
188	0xbdc187f1	-0.09449757
189	0x3defdcd9	0.11712045
190	0x3aea65d4	0.001788313
191	0x3dca3835	0.09874002
192	0x3c173f86	0.009231454
193	0x3e0fd454	0.1404584
194	0xbd25e1b9	-0.04049847
195	0xbc92acd7	-0.017904682
196	0x3da1048d	0.07862196
197	0xbd44bd4d	-0.048032094
198	0x3d2db460	0.042408347
199	0xbd33d53d	-0.04390453
200	0xbdd064d2	-0.1017548
201	0xbd08f0b8	-0.033432692
202	0xbdc4177e	-0.09574793
203	0xbda65367	-0.081213765
204	0x3d156c41	0.036480192
205	0x3d5a153a	0.0532429
206	0xbd65cbf3	-0.056102704
207	0xbd335ba4	-0.043788567
208	0xbddc82f2	-0.10767163
209	0xbd49400e	-0.049133353
210	0xbd97610c	-0.07391557
211	0x3d04fbc2	0.032466657
212	0x3cc3cec6	0.023902308
213	0x3c994339	0.018708812
214	0x3d8f72f3	0.07004347
215	0x3d8908bf	0.06691121
216	0xbd737717	-0.059439745
217	0xbd939aa7	-0.07207232
218	0xbe2abb6e	-0.16673061
219	0xbda9ac1c	-0.082847804
220	0x3d042f16	0.032271467
221	0xbc3ed595	-0.011647602
222	0xbd8aaf00	-0.0677166
223	0xbd2c66d6	-0.04209026
224	0x3c436ae4	0.01192734
225	0xbe0702b6	-0.13184628
226	0xbe08745e	-0.1332564
227	0xbdaec8bb	-0.0853438
228	0xbdcb27b2	-0.09919681
229	0x3e20e30b	0.1571161
230	0xbdff70fa	-0.124727204
231	0x3d55111d	0.052018274
232	0x3711be2c	8.686951e-06
233	0x3dcf5ee0	0.10125518
234	0x3d17c616	0.037054144
235	0xbb83f90c	-0.0040274914
236	0xbc82ea03	-0.015980726
237	0xbc8f1dd2	-0.017470274
238	0xbd8b2e25	-0.06795911
239	0xbdf1bc26	-0.118034646
240	0xbca8212e	-0.020523634
241	0x3dedac99	0.11605186
242	0x3d62114d	0.05519228
243	0x3dc61733	0.09672394
244	0x3d91be65	0.07116393
245	0xbd1617e3	-0.036643874
246	0xbd6207e8	-0.05518332
247	0xbd6acdbe	-0.057325117
248	0xbe0150e8	-0.1262852
249	0x3cc20275	0.023682812
250	0xbd85c48c	-0.06531629
251	0x3d491826	0.049095295
252	0x3e119632	0.14217451
253	0x3bbbadd6	0.00572751
254	0x3d47d25e	0.048784606
255	0x3cc44661	0.02395934

network_body._body_endoder.seq_layers.2.bias f4 [256]
0	0xbb95448c	-0.0045552906
1	0xbca5cd48	-0.020239487
2	0xbbfb4499	-0.0076680896
3	0xbc2ac882	-0.010423781
4	0xbc5454cb	-0.012959669
5	0xbc5ecd0a	-0.01359869
6	0x3b92406d	0.0044632466
7	0x3c65cdb5	0.014026095
8	0xbbfa509c	-0.007639004
9	0x3bb12a05	0.0054066204
10	0x3babe1ee	0.005245439
11	0x3c8c5222	0.017129008
12	0xbc557770	-0.013028964
13	0xbc1bbd1d	-0.009505537
14	0x3bfb5ce7	0.007670987
15	0x3bec4d15	0.0072113373
16	0xbbd04913	-0.0063563674
17	0xbc142330	-0.0090415925
18	0xbb9e66e5	-0.0048340433
19	0xb88c1fe0	-6.6816574e-05
20	0xbc6cc333	-0.014450836
21	0xbbed7b47	-0.007247362
22	0xbc1767e1	-0.009241075
23	0x3b1d2087	0.0023975687
24	0x3baf14f1	0.0053430726
25	0xbc2ba398	-0.0104760155
26	0xbc7d3d7c	-0.015456554
27	0xbc220c88	-0.009890683
28	0xbc2a4cce	-0.010394288
29	0xbb750bc6	-0.003739105
30	0xbc424cb0	-0.011859104
31	0x3ccc4e05	0.024939546
32	0xbc5d1c26	-0.013495481
33	0xbcb14b07	-0.021642221
34	0xbc1dd3e1	-0.009633035
35	0xbc394407	-0.011307723
36	0xb9f7a041	-0.0004723091
37	0x3b49ff8f	0.003082249
38	0x3ba6da67	0.0050919536
39	0x3c858de4	0.01630301
40	0xbb7adaa7	-0.00382773
41	0x3afe35e9	0.0019394729
42	0xbd027944	-0.03185393
43	0xbc9a3959	-0.018826174
44	0x3bbe775b	0.005812568
45	0x3ba7b7fd	0.0051183687
46	0x3c83fdfc	0.01611232
47	0xbcdcb730	-0.02694282
48	0xbc81b4b3	-0.015833234
49	0x3bf3ea76	0.0074437214
50	0xbc235d67	-0.009970999
51	0xbbf115c5	-0.0073573315
52	0xbb21a3d0	-0.002466429
53	0xbca1f114	-0.019768275
54	0xbca0b278	-0.01961635
55	0x3c5d2a23	0.013498816
56	0xbb0dfa8f	-0.0021664237
57	0x3911fdb2	0.00013922786
58	0xba0529ac	-0.0005079757
59	0x3a90fb13	0.0011061154
60	0xbc122193	-0.0089191375
61	0x3c73eb57	0.014887652
62	0xbccd0417	-0.025026364
63	0xbc82d96f	-0.015972821
64	0xbb96620f	-0.004589326
65	0xbc050875	-0.008119692
66	0xbc2d6237	-0.010582498
67	0x3c1cee6c	0.009578329
68	0xbc37396e	-0.011183126
69	0x3b88fa60	0.0041802377
70	0x3bd7ca99	0.006585431
71	0xbb977578	-0.0046221577
72	0xbc352445	-0.011056011
73	0xbc36ff72	-0.011169301
74	0xbb0467e4	-0.0020203525
75	0x3c739bc9	0.014868685
76	0x3ae8a013	0.0017747901
77	0x3bcad892	0.006190368
78	0xbb2c2842	-0.0026269113
79	0x3c1f8e75	0.009738554
80	0xbc4dd971	-0.012564049
81	0xbb8dd347	-0.0043281647
82	0xbccca5ae	-0.024981346
83	0x3ad162e4	0.0015974906
84	0xbb174851	-0.0023083875
85	0xbc7c6cee	-0.01540683
86	0xbcdb6605	-0.026782045
87	0xbc37dce0	-0.011222094
88	0x3c37690f	0.0111944815
89	0xbc54120b	-0.012943755
90	0xbad31cfc	-0.001610666
91	0x3bae2373	0.0053142845
92	0x3c89a85b	0.016803911
93	0x3b947f36	0.0045317663
94	0xba2d486a	-0.0006610217
95	0x3b23df34	0.0025004866
96	0xbaf32ad4	-0.0018552192
97	0x3aed8828	0.0018122243
98	0xbc67b5b7	-0.014142445
99	0x3c593007	0.0132560795
100	0xbc2b689a	-0.010461951
101	0xbb195540	-0.002339676
102	0xbb0aaa3c	-0.0021158597
103	0xbbdd2f5f	-0.006750032
104	0x3bc3bd2d	0.0059734792
105	0xbbeb9406	-0.0071892766
106	0xbb8b5c42	-0.0042529413
107	0xbca843cd	-0.020540142
108	0x3b3de17f	0.0028973517
109	0xbc147754	-0.009061653
110	0xbbcfba10	-0.006339319
111	0xbc33dbc8	-0.010977693
112	0xbca0ef14	-0.019645251
113	0xbc015576	-0.007893911
114	0xbc7c8620	-0.015412837
115	0xbb21ff82	-0.0024718945
116	0xbba6952a	-0.0050836997
117	0x3b795e9b	0.0038050774
118	0xbc411106	-0.011783844
119	0xbb47cdfa	-0.0030487762
120	0xbc74286b	-0.0149022145
121	0xbc918ccb	-0.01776733
122	0xbb45960f	-0.0030149256
123	0xbc36ed73	-0.011165011
124	0xbc190d7b	-0.009341593
125	0xbb37dd01	-0.0028055313
126	0x3b943346	0.004522714
127	0xbb923ba2	-0.004462675
128	0xbc222c61	-0.009898276
129	0x3c7b6553	0.015343982
130	0x3b1d71b8	0.002402408
131	0x3bfda82c	0.007740995
132	0x3b2ea6e4	0.0026649768
133	0xbc6cff95	-0.014465232
134	0xbc209633	-0.009801435
135	0x3b648648	0.0034870077
136	0xbc2dfb17	-0.0106189465
137	0xbcb8adf7	-0.02254389
138	0xbbd779d2	-0.0065758014
139	0x3c4e6727	0.012597836
140	0xbcce9fc9	-0.025222676
141	0xbc8c6888	-0.017139688
142	0xbb93c983	-0.004510106
143	0xbaaeba56	-0.0013330679
144	0x3b929109	0.004472856
145	0xbb9e5372	-0.004831725
146	0xbc8301aa	-0.015992004
147	0xbaec0ff0	-0.0018010121
148	0xbc4b88c0	-0.01242274
149	0xbc492e17	-0.012279055
150	0xbc8e2a31	-0.017354103
151	0xbc739aa0	-0.014868408
152	0xbc6260ee	-0.013817055
153	0xbc11259c	-0.008859064
154	0xbc805317	-0.01566462
155	0xbc385345	-0.011250322
156	0x3b4f1689	0.0031599125
157	0x3bcb46df	0.006203517
158	0xbbe782f0	-0.0070651695
159	0x3c08ef27	0.0083578
160	0x3c2040b6	0.009781053
161	0x3c6a8209	0.014313229
162	0xbc089172	-0.008335458
163	0xbb9bdc51	-0.0047564884
164	0x3b06e973	0.0020585924
165	0xbd009a30	-0.031397045
166	0x3b4b9398	0.0031063315
167	0x3c8b3649	0.016993659
168	0xbbc8aad1	-0.0061238785
169	0x3b16467f	0.0022930203
170	0x3b009a83	0.0019623346
171	0xbc9b62da	-0.018968035
172	0x3b98ee18	0.004667055
173	0xbcaccfe5	-0.021095226
174	0x3c626732	0.013818549
175	0xbc149596	-0.009068867
176	0xbc0f3b74	-0.008742202
177	0x3bc678fa	0.006056902
178	0x3c3c90b9	0.011509114
179	0xbc6ca779	-0.0144442255
180	0x3c0e9862	0.008703323
181	0x390ccb01	0.00013427065
182	0x3b6a1c36	0.0035722381
183	0xbbc0e54f	-0.0058867107
184	0x3c3eef7b	0.011653776
185	0x3c187f73	0.00930773
186	0xbafcfde1	-0.0019301736
187	0xbc08b59a	-0.008344078
188	0xbc137b94	-0.009001631
189	0xbc6e5258	-0.0145459995
190	0xbb389f66	-0.002817118
191	0x3c105456	0.00880917
192	0x3b88759e	0.0041644117
193	0x3c2e3fb5	0.010635306
194	0xbc24aaa5	-0.01005045
195	0xbcb4e21a	-0.02208047
196	0x38169ae9	3.590706e-05
197	0xbc11f54c	-0.008908581
198	0x3b82e047	0.003994021
199	0x3c3c6a54	0.01149996
200	0xbb7058be	-0.0036673988
201	0xbb19c85c	-0.002346537
202	0xbb843f11	-0.0040358384
203	0x3a701785	0.0009158778
204	0xbb3e7562	-0.0029061665
205	0xbc06d33d	-0.008229074
206	0x3af36f30	0.0018572565
207	0xbb82656f	-0.003979377
208	0x3bcb9beb	0.006213655
209	0xbacbe844	-0.0015556891
210	0xbbd89d24	-0.0066105295
211	0x3c10593e	0.0088103395
212	0xbc6b50ee	-0.014362557
213	0xba484014	-0.0007638943
214	0xbb55f36f	-0.0032646318
215	0xbcd12753	-0.025531447
216	0xbb3a5a3f	-0.0028435139
217	0xbbb8c1e9	-0.0056383503
218	0x396eee97	0.0002278633
219	0xbada3821	-0.0016648808
220	0xbae699a5	-0.0017593397
221	0x3ac3049a	0.0014878691
222	0xbc9e52ea	-0.019326646
223	0xbcc6ba8b	-0.024258872
224	0xbc454add	-0.012041775
225	0x3aa111cd	0.001228863
226	0xbc5e7ca1	-0.0135795185
227	0x3aebbe35	0.0017985763
228	0xbc741d57	-0.014899573
229	0xbacd3875	-0.0015657084
230	0xbb1a7d71	-0.0023573304
231	0xba936e37	-0.0011248057
232	0xba0cafce	-0.0005366773
233	0x3bef0145	0.0072938525
234	0x3afeb94a	0.0019433883
235	0x3c30ac9d	0.010783342
236	0xbc008242	-0.007843556
237	0x3c3d7d23	0.011565479
238	0xba5d508f	-0.0008442485
239	0x3b708922	0.0036702831
240	0xb98c928f	-0.00026812076
241	0x3a72c300	0.00092606246
242	0x3addc41a	0.0016919405
243	0x398bff62	0.0002670242
244	0xbc4a2750	-0.012338474
245	0xb8e73459	-0.00011024689
246	0x3bdb5bd0	0.0066942945
247	0xbc88d573	-0.016703343
248	0xbc3d8af3	-0.011568773
249	0x3b3a4c6f	0.0028426906
250	0xbc4532b7	-0.012036017
251	0xbb794413	-0.003803496
252	0xbba08f0b	-0.0048998646
253	0x3be9a53d	0.0071302936
254	0xbb8e757d	-0.004347502
255	0x37f60ca9	2.933138e-05

action_model._discrete_distribution.branches.0.weight f4 [3, 256]
0	0x3c12d45e	0.008961765
1	0x3d4feac5	0.050761003
2	0xbc8cf5cc	-0.017207049
3	0x3aa1a0eb	0.0012331282
4	0x3cdd218c	0.026993535
5	0xbb03a669	-0.0020088202
6	0x3cf7f731	0.030269237
7	0x3c91a0f2	0.01777694
8	0xbb1039dd	-0.0022007145
9	0xbd3d9b78	-0.046290845
10	0xbcc14584	-0.023592718
11	0x3c8dfdc4	0.017332919
12	0x3b20ec96	0.0024555079
13	0x3b4b2968	0.0031000022
14	0xbd130857	-0.035896625
15	0xbbe1d1e0	-0.006891474
16	0xbb2c5cd8	-0.0026300456
17	0x3d5190fd	0.051163662
18	0xbcb94bbf	-0.022619126
19	0xbcb996d3	-0.022654926
20	0x3c9c9618	0.019114539
21	0xbd2f636c	-0.042819425
22	0xbc5f2a64	-0.013620947
23	0xbbd022b3	-0.0063517927
24	0xbc9f7029	-0.019462662
25	0xbbf6fc8e	-0.007537431
26	0xbd7350eb	-0.05940334
27	0x3c12ccc1	0.00895995
28	0xbc841dce	-0.016127493
29	0xbbce2121	-0.0062905704
30	0x3cbcb3f6	0.02303503
31	0xbd669912	-0.056298323
32	0xbc540f48	-0.012943096
33	0xbb3ead5d	-0.0029095032
34	0xba254fb2	-0.0006306126
35	0x3ccf9d61	0.025343599
36	0x3d34bb32	0.044123836
37	0xbced2f79	-0.0289533
38	0xbd194e95	-0.037428457
39	0xbd09369b	-0.03349934
40	0x3d19947e	0.03749513
41	0x3cc010e9	0.023445563
42	0xbbed9b01	-0.007251144
43	0x3cba57a5	0.02274687
44	0x39a7476c	0.00031905936
45	0xbc5e6278	-0.0135732815
46	0xbd2dc738	-0.042426318
47	0x3b23fdff	0.002502322
48	0x3cb57519	0.022150563
49	0xbcce1cbf	-0.025160192
50	0x3d325870	0.04354137
51	0x3c95331f	0.018212853
52	0xbd5dda54	-0.054163292
53	0x3c2785f2	0.010224806
54	0x3c757cd3	0.014983374
55	0x3c3cd268	0.011524774
56	0xbbe50df5	-0.006990189
57	0xbc9ce002	-0.019149784
58	0xbbf1a0ab	-0.0073738894
59	0xbc624e8f	-0.013812675
60	0x3cb0995a	0.021557499
61	0xbd0a5077	-0.033768144
62	0x3c9abe72	0.01888964
63	0x3d30d188	0.043168575
64	0x3be67ac1	0.0070336764
65	0xbd4d6ca2	-0.05015243
66	0xbc3b2072	-0.01142131
67	0x3b76fe50	0.0037688203
68	0xbcbb61c3	-0.022873765
69	0xbd15de19	-0.036588762
70	0xbc3cce01	-0.0115237245
71	0x3c0b44d3	0.008500296
72	0x3bfa30ac	0.0076351967
73	0xbc835430	-0.016031355
74	0xbcb69b25	-0.022290776
75	0x3d2362fb	0.039889317
76	0x3cc736b0	0.02431807
77	0xbcddfda9	-0.027098494
78	0x3da1d9ee	0.07902895
79	0x3c294553	0.01033147
80	0x3a56f19e	0.0008199456
81	0x3bbb676c	0.005719116
82	0x3b6c17f8	0.0036025029
83	0xbd0e5c14	-0.03475578
84	0xbc836677	-0.01604007
85	0x3c46667f	0.012109398
86	0xbc224d1b	-0.009906079
87	0x3c459d6e	0.01206146
88	0x3c5cbe64	0.013473127
89	0x3d28c7ca	0.04120616
90	0xbcee0e5a	-0.029059578
91	0x3cd05705	0.02543212
92	0xbcef9bea	-0.02924915
93	0xbd2ad702	-0.041708954
94	0xbb8500a2	-0.0040589133
95	0xbcf706df	-0.030154644
96	0x3b228281	0.0024797025
97	0xbcf042f0	-0.029328793
98	0x3bcb9f20	0.0062140375
99	0xbc9f724f	-0.019463686
100	0xbd0085f1	-0.031377736
101	0xbcd8a7d1	-0.026447209
102	0xbd502835	-0.050819594
103	0xbc746bf9	-0.014918321
104	0xbc3232a9	-0.010876336
105	0xbd164d80	-0.036695004
106	0x3c863d1a	0.016386557
107	0x3c19a548	0.009377785
108	0xbcbbbc4e	-0.02291694
109	0xbd2314fc	-0.039814934
110	0xbcf6a7ee	-0.030109372
111	0x3c14ee91	0.009090082
112	0x3ca8be4a	0.02059855
113	0x3cf2ab9a	0.029622842
114	0x3d4b3070	0.04960674
115	0x3c3752c4	0.011189166
116	0xbc8a0204	-0.016846664
117	0x3d21736c	0.039416716
118	0x3d13203b	0.03591941
119	0x3c325c3b	0.010886247
120	0x3c8d9853	0.017284548
121	0xbc514de0	-0.0127749145
122	0xbc9e77e3	-0.019344276
123	0x3d138356	0.036013924
124	0xbcbd4e10	-0.023108512
125	0x3c77930a	0.01511074
126	0xbd75f5b2	-0.060048766
127	0x3d0b8d45	0.034070272
128	0xbc34911f	-0.011020928
129	0x3cbd7094	0.02312497
130	0xbd844693	-0.064587735
131	0x3cf7d653	0.030253565
132	0xbd212ac8	-0.03934744
133	0x3ce1b77e	0.027553316
134	0xbbb2842a	-0.005447884
135	0x3cb259ed	0.021771396
136	0x3ce9226d	0.028458798
137	0x3b79b011	0.0038099329
138	0x3cc0a959	0.023518251
139	0xbd61ba5c	-0.055109367
140	0x3cc8a930	0.024494737
141	0x3cd1382b	0.025539478
142	0xbd31d67d	-0.043417443
143	0xbd0a1b2b	-0.033717316
144	0xbcd3d0cf	-0.025856404
145	0x3c49d7e4	0.012319539
146	0x3ba6d0f3	0.0050908267
147	0x3a24f1fa	0.0006292161
148	0x3cfe5dfb	0.031050673
149	0x3cb47e56	0.022032898
150	0x3cc3257c	0.023821585
151	0xbc584acb	-0.013201426
152	0xbc5fbe31	-0.013656185
153	0x3cc07750	0.023494393
154	0xbce40d51	-0.027838381
155	0xbd653354	-0.055957153
156	0xbd5ca69b	-0.053869825
157	0xbd305fd0	-0.043060124
158	0x3b9f24aa	0.0048566656
159	0xbd38d716	-0.045126997
160	0xbac0e40f	-0.0014716404
161	0xbc8214f8	-0.01587914
162	0x3c95ca41	0.018284919
163	0x3c8ea407	0.017412199
164	0xbc833c14	-0.016019858
165	0x3bd28c38	0.006425407
166	0x3cb4e7f0	0.022083253
167	0xbd4d8c79	-0.050182793
168	0xbb6d09fb	-0.003616928
169	0xbc02765b	-0.007962788
170	0xbd2b0656	-0.04175409
171	0xbd18908f	-0.037247237
172	0xbd3cab83	-0.046062004
173	0xbd4e7f7d	-0.05041455
174	0x3c0b084f	0.008485868
175	0xbc0ea048	-0.008705206
176	0x3aa8407a	0.0012836598
177	0xbd10bc0a	-0.035335578
178	0xbc7e28ea	-0.015512684
179	0x3be68cbb	0.0070358193
180	0x39ae0a66	0.00033195614
181	0x3d509bc1	0.05092979
182	0xbd22f0ee	-0.03978055
183	0x3ccbe287	0.02488829
184	0xbcc218a3	-0.023693388
185	0xbc01b816	-0.007917425
186	0xbcb39b62	-0.021924678
187	0x3bfa50cb	0.007639026
188	0xbbfc9609	-0.0077083153
189	0x3cfe7b7a	0.031064738
190	0xbd1cdca0	-0.038296342
191	0xbb7c2be5	-0.0038478312
192	0xbceffc40	-0.029295087
193	0xbcabf533	-0.020990944
194	0x3c2ce754	0.0105532
195	0x3ca6d845	0.020366797
196	0x3c7e7c54	0.015532572
197	0xbc8acc71	-0.016943188
198	0x3c1cacb7	0.009562663
199	0xbc4f3b41	-0.012648405
200	0x3c314637	0.010819963
201	0xbcf76459	-0.030199217
202	0xbd15fc4b	-0.03661756
203	0xbc4b3069	-0.012401679
204	0x3c5aaa23	0.013346228
205	0xbc530e47	-0.012881822
206	0x3d3782cc	0.044802472
207	0x3cd86ed1	0.026420029
208	0xbc5182df	-0.01278755
209	0xba49a2e8	-0.00076918164
210	0x3ceec9a6	0.029148888
211	0xbae82f48	-0.0017714286
212	0xbc472b0b	-0.012156258
213	0x3cba45e6	0.022738408
214	0x3c529cc9	0.012854763
215	0x3cae2825	0.021259377
216	0xbca0c2a9	-0.019624071
217	0xbd1cebea	-0.038310923
218	0xbcf4c324	-0.029878207
219	0x3bfb12e6	0.007662165
220	0x3b67deef	0.0035380682
221	0xbc434a19	-0.011919522
222	0x3c2f0b64	0.010683868
223	0xbbea021f	-0.007141366
224	0x3cb2f2b6	0.02184425
225	0xbc950a0f	-0.018193273
226	0xbc886c36	-0.016653161
227	0xbb969e41	-0.004596502
228	0x3b2b3eea	0.002613003
229	0x3d2c3793	0.042045187
230	0xbc591bdd	-0.013251272
231	0xbd62383d	-0.055229414
232	0xbc8886e6	-0.016665887
233	0x3b4e1e21	0.0031451064
234	0xbc0ec071	-0.008712874
235	0xbd407134	-0.04698296
236	0x3b262e45	0.0025357169
237	0xbcd14a16	-0.025548022
238	0x3c0a4331	0.008438871
239	0x3ca4f82f	0.020137874
240	0xbc6601e5	-0.014038538
241	0xbd364d82	-0.04450751
242	0xbcb024f3	-0.021501994
243	0x3d243795	0.04009207
244	0x3cee382a	0.029079515
245	0xbcbb547e	-0.022867437
246	0xbd186c3f	-0.037212607
247	0x3c97b04c	0.018516682
248	0xbcc45b49	-0.02396931
249	0x3bcc91f3	0.0062429844
250	0xba9b3c28	-0.001184349
251	0x3d91c089	0.07116801
252	0xba9e5b44	-0.0012081643
253	0x3ce09298	0.027413651
254	0x3bf69d5f	0.0075260843
255	0x3d0d5efd	0.034514416

action_model._discrete_distribution.branches.0.bias f4 [3]
0	0x3c6c9458	0.014439665
1	0xbd04a76c	-0.03238623
2	0x3caa5dbc	0.02079665

action_model._discrete_distribution.branches.1.weight f4 [3, 256]
0	0x3c45c525	0.012070929
1	0xbbc00bd3	-0.0058607846
2	0x3a64018f	0.0008697742
3	0x3caabe51	0.020842703
4	0xbca1770a	-0.019710083
5	0xbc616f4c	-0.013759445
6	0x3bf79ee8	0.007556785
7	0x3be8920c	0.0070974883
8	0xbd3b9f79	-0.04580638
9	0xbbb88c5f	-0.005631968
10	0xbcd17b08	-0.025571361
11	0x3c645def	0.013938411
12	0xbc046fc1	-0.008083285
13	0xbbf2d3de	-0.0074105104
14	0xbc45bf56	-0.012069544
15	0x3c1b419a	0.00947609
16	0xbc5c1836	-0.013433507
17	0x3c3e2808	0.011606224
18	0x3c9db6e6	0.019252252
19	0xbca34b91	-0.019933494
20	0x3b151486	0.0022747829
21	0xbb75f0f6	-0.0037527657
22	0xbc28e9b5	-0.010309626
23	0xbc5ebbea	-0.013594607
24	0x3c895faf	0.016769258
25	0xbc7e71f9	-0.015530103
26	0x3c172446	0.009224957
27	0x3c7a415e	0.015274374
28	0xbc141818	-0.0090389475
29	0xbd0b28b9	-0.033974383
30	0x3c830c97	0.015997214
31	0x3b70d81b	0.0036749903
32	0xbd05a05e	-0.03262364
33	0xbc2b5912	-0.010458248
34	0xbce32b78	-0.027730688
35	0x3c8fb1ee	0.017540898
36	0xbcb4d51e	-0.022074278
37	0x3ceb98e3	0.028759426
38	0xbbfe0569	-0.00775211
39	0xbd19749c	-0.037464723
40	0x3b00c608	0.0019649286
41	0xbbd36f50	-0.0064524785
42	0xbb6d4a33	-0.0036207556
43	0xbc415b89	-0.011801609
44	0x3c801892	0.015636716
45	0x3cc1a377	0.023637516
46	0x3c816f5f	0.015800176
47	0xbbbb547d	-0.005716859
48	0xbc4abbe5	-0.012373899
49	0x3c0ae181	0.008476616
50	0x3b2dc4d7	0.002651503
51	0x3be11742	0.0068692276
52	0x3bce6878	0.0062990747
53	0x3c4f4945	0.012651746
54	0xbd1badcf	-0.038007554
55	0x3c4d5bb5	0.012534072
56	0xbd07c9fa	-0.033151604
57	0x3c0eb9a3	0.008711251
58	0x3c149b2c	0.009070199
59	0xbc7f036a	-0.015564779
60	0xbd076877	-0.03305861
61	0xbca93022	-0.020652834
62	0xbbf7a1e2	-0.0075571397
63	0xbbd8413c	-0.0065995734
64	0xbcf379db	-0.029721191
65	0x3c3973f7	0.011319152
66	0xbc5144ed	-0.012772781
67	0xbc587539	-0.013211542
68	0xbb6b293b	-0.003588273
69	0xbbf99730	-0.0076169
70	0xbb320299	-0.0027162193
71	0xbb8f56b9	-0.004374352
72	0xbcacbbfc	-0.021085732
73	0x3acdf975	0.0015714603
74	0xbc3cd3c3	-0.011525097
75	0x3c625eee	0.013816578
76	0xbd0df15a	-0.034654
77	0x3c673dc4	0.014113847
78	0x3c83c6d1	0.016086014
79	0xbb8c1234	-0.004274631
80	0xbc0e56c4	-0.008687679
81	0xbd0a645d	-0.03378712
82	0x3be810b4	0.0070820693
83	0x3c5d5d5b	0.013511027
84	0xbb0479c2	-0.0020214175
85	0xbd554421	-0.052066926
86	0x3c8366d3	0.016040241
87	0x3bb03f0f	0.005378611
88	0x3c15228e	0.009102477
89	0x3d0a6af9	0.033793423
90	0x3d314be0	0.04328525
91	0x3c9ee315	0.01939539
92	0x3cceda88	0.025250688
93	0x3c44f119	0.012020373
94	0xbca0f73b	-0.019649139
95	0x3c3a7894	0.011381287
96	0xbc6cafbe	-0.014446197
97	0x3bc61b19	0.0060457108
98	0x3c2b888f	0.01046957
99	0xbca96feb	-0.02068325
100	0xbcb1615f	-0.021652875
101	0xba1b9f46	-0.00059365144
102	0x3bd62dea	0.006536235
103	0x3c02b633	0.00797801
104	0x3bd2b844	0.0064306576
105	0xbca99b2f	-0.02070388
106	0x3ac1ba92	0.0014780334
107	0xbcfad04d	-0.030616904
108	0x3cc4dbcd	0.02403059
109	0xbd07d277	-0.0331597
110	0xbb9c455b	-0.00476901
111	0x3c898c68	0.016790584
112	0xbd4d07f7	-0.050056424
113	0xbcec34b7	-0.02883373
114	0xbc3ee5d9	-0.01165148
115	0x3d1cabb3	0.038249683
116	0xbd1aced1	-0.03779489
117	0xbc8ecf9f	-0.017432986
118	0x3bc1352c	0.005896231
119	0x3b49010f	0.0030670797
120	0xbc9833e3	-0.018579429
121	0xbc3f41e1	-0.011673422
122	0xbc03e8ba	-0.008051092
123	0xbb6007c6	-0.003418432
124	0xbce48f94	-0.027900495
125	0x3b65d3bd	0.0035068833
126	0x3d032e56	0.03202661
127	0x3c92f894	0.017940797
128	0xbcee2c6a	-0.029073913
129	0x3c818342	0.015809659
130	0x3c80f29b	0.015740683
131	0x3cb7884b	0.022403857
132	0x3d183ba3	0.03716625
133	0xbb93f3ec	-0.0045151617
134	0xbc5b245b	-0.013375367
135	0x3cacc566	0.02109022
136	0xbb2f6dfc	-0.0026768437
137	0xbca9c16c	-0.020722114
138	0x3aa98f1c	0.0012936327
139	0x3c3f64a5	0.01168171
140	0x3ade6491	0.0016967227
141	0x3cbb91e7	0.02289672
142	0xbd049316	-0.032366835
143	0x3cec131e	0.02881771
144	0x3c9f7562	0.019465152
145	0xbb8d69aa	-0.0043155747
146	0xbca4413a	-0.020050634
147	0xb944ab84	-0.00018755911
148	0x3b772980	0.0037713945
149	0x3ce52cfc	0.027975552
150	0xbd072548	-0.03299454
151	0xbbdd1be3	-0.006747709
152	0xbb9b71f9	-0.004743811
153	0xbd3a3671	-0.045462076
154	0x3c5ac627	0.013352907
155	0x3c27530f	0.010212674
156	0xbc9ebeeb	-0.019378146
157	0xbce14abd	-0.027501458
158	0x3c104a1d	0.0088067325
159	0xbc392dea	-0.011302451
160	0xbc25e9af	-0.010126515
161	0xbbea765b	-0.0071552224
162	0xbce5a938	-0.028034791
163	0xbb6f825e	-0.003654621
164	0xbcbeedb3	-0.023306703
165	0xbca14ba9	-0.019689398
166	0x3c6899aa	0.014196793
167	0xbb6d1d15	-0.0036180664
168	0xbd4553ee	-0.048175745
169	0x3c283837	0.010267309
170	0x3c14d4ee	0.0090839695
171	0x3bdcb70a	0.006735687
172	0xb9a1cd3d	-0.00030861227
173	0x3d290f17	0.041274156
174	0x3a9150b3	0.0011086672
175	0xbc076b93	-0.008265394
176	0x3d268d44	0.040662065
177	0x3c7757d0	0.01509662
178	0xbc0d8978	-0.008638732
179	0xbc0e0d32	-0.008670138
180	0xbc5099df	-0.012731998
181	0x3cd1c710	0.025607616
182	0xba53aef9	-0.0008075084
183	0xbd2d62be	-0.042330496
184	0xbba8edae	-0.0051552868
185	0xbbf9a3a8	-0.0076183863
186	0x3bd69969	0.0065490496
187	0xbd85e125	-0.065370835
188	0xbd055e50	-0.032560647
189	0x3ccc0309	0.024903791
190	0x3d1391cf	0.036027726
191	0xbb5f347c	-0.0034058383
192	0xbc0c6bbf	-0.008570611
193	0x3cebb82d	0.028774345
194	0xbb3c0091	-0.002868686
195	0xbbb8fe84	-0.005645575
196	0xbb8acef3	-0.004236096
197	0x3cb44681	0.022006275
198	0x3c0cce87	0.008594162
199	0x3c87e0ed	0.016586745
200	0xbcaa87d8	-0.020816728
201	0xbb802af9	-0.0039113727
202	0x3c215a1f	0.009848147
203	0x3ca5a977	0.020222409
204	0x3c7a9a2e	0.015295548
205	0x3c52ace6	0.012858605
206	0x3c986ffa	0.018608082
207	0xbc97c46e	-0.018526282
208	0x3bc58dbe	0.00602886
209	0xbc4dd9b8	-0.012564115
210	0xbd0d2f7c	-0.034469113
211	0xbc87ea42	-0.016591195
212	0x3b3ea8b7	0.002909226
213	0xbc9c189a	-0.0190547
214	0xbc0e6402	-0.008690836
215	0x3c8e266f	0.017352311
216	0x3c85d397	0.016336245
217	0xbb9fea9a	-0.0048802616
218	0x3c9bfa3c	0.01904022
219	0xbb432971	-0.002977934
220	0xbcee1b38	-0.029065713
221	0xbc0a6f63	-0.008449408
222	0xbcd57eed	-0.0260615
223	0xbcad9793	-0.02119044
224	0xbc869241	-0.016427161
225	0xbcd2b2f2	-0.025720093
226	0x3c54a1f2	0.012978064
227	0x3ca02f35	0.01955376
228	0xbd0c7916	-0.034295164
229	0x3cbf7177	0.023369534
230	0x3ccc815b	0.024964025
231	0x3bb5342e	0.005529902
232	0xbc899d34	-0.016798593
233	0xbcfd860e	-0.030947711
234	0x3ba095d0	0.0049006715
235	0x3cc956d4	0.024577536
236	0xbc3783f6	-0.0112008955
237	0xbbf34076	-0.007423456
238	0xbc074bd3	-0.008257824
239	0xbcf711ca	-0.03015985
240	0xbb97de1d	-0.0046346323
241	0xbc17d3d7	-0.009266815
242	0x3b8e6a54	0.0043461714
243	0xbad22364	-0.0016032276
244	0xbcf90fe6	-0.030403089
245	0x3cb49782	0.0220449
246	0xbbc9a80b	-0.0061540655
247	0x3c015705	0.007894282
248	0x3d28e7f8	0.041236848
249	0xbbab5ca4	-0.0052295495
250	0x3ba1e84d	0.0049410225
251	0x3ca0f0de	0.019646104
252	0xbc292a53	-0.010325032
253	0x3a44f456	0.00075132155
254	0xbcfbda4d	-0.030743742
255	0x3c5cad2e	0.013469024

action_model._discrete_distribution.branches.1.bias f4 [3]
0	0x3b84d718	0.0040539615
1	0xbbc1a398	-0.0059093945
2	0x3b819b59	0.0039552865

action_model._discrete_distribution.branches.2.weight f4 [2, 256]
0	0xbd3614eb	-0.044453543
1	0xba26d982	-0.00063648087
2	0xbc8db3a7	-0.017297579
3	0xbcaba4e4	-0.02095265
4	0xbd27c626	-0.040960453
5	0xbcf09ee8	-0.029372647
6	0xbd0ad65a	-0.033895828
7	0xbd093499	-0.033497427
8	0x3b835567	0.0040079835
9	0x3d1860e1	0.037201766
10	0x3d3df068	0.046371847
11	0xbd50875c	-0.05091034
12	0xbc1b8298	-0.009491585
13	0xbbb7f969	-0.005614449
14	0x3cf26985	0.029591331
15	0x3c99b9fb	0.01876544
16	0x3ca7db13	0.020490205
17	0xbd01493f	-0.031563994
18	0x3cc99b00	0.024610043
19	0x3cf96194	0.030442037
20	0xbd0cae48	-0.034345895
21	0xba196f22	-0.0005853047
22	0xbc6e98a8	-0.014562763
23	0x3cf1eb02	0.029531006
24	0x3c9b3b45	0.01894916
25	0x3c6856f0	0.014180884
26	0x3c30f321	0.010800154
27	0x3afdd1a9	0.0019364852
28	0xbd1a1f8c	-0.03762774
29	0x3c5ff242	0.013668599
30	0xbd0dd7d3	-0.034629654
31	0x3d0f653e	0.03500866
32	0x3d411371	0.04713768
33	0xbd28b390	-0.04118687
34	0xbb759301	-0.0037471654
35	0xbd3f2f10	-0.04667574
36	0xbb9fe979	-0.004880127
37	0x3d314e83	0.043287765
38	0x3d5b7666	0.05357971
39	0x3c840b6c	0.016118728
40	0xbc53cda1	-0.012927444
41	0xbd2f0e5d	-0.042738307
42	0x3a830f0d	0.0009998992
43	0xbd371141	-0.04469419
44	0x3c2d41da	0.010574782
45	0x3d05a1e4	0.032625094
46	0x3d851554	0.06498209
47	0xbd54dddc	-0.051969394
48	0xbd2b3434	-0.04179783
49	0x3d2ab223	0.04167379
50	0xbcf55381	-0.029947044
51	0xbd377420	-0.04478848
52	0x3cdbd988	0.026837125
53	0xbc627ba5	-0.0138234245
54	0xbd5bc860	-0.05365789
55	0xbc0210fe	-0.007938622
56	0x3c9d3b64	0.019193359
57	0x3cf2d357	0.02964179
58	0x3ca95516	0.020670455
59	0xbbd035e2	-0.0063540796
60	0xbd57375f	-0.05254304
61	0x3d49e8bf	0.04929423
62	0xbc2faa1f	-0.010721712
63	0xbbf168be	-0.0073672226
64	0xbcce53eb	-0.0251865
65	0xbc26d1c2	-0.010181846
66	0x3c9357ff	0.017986296
67	0xbba1b586	-0.0049349694
68	0x39fe2625	0.00048475075
69	0x3d16ae5c	0.036787376
70	0x3d008de8	0.031385332
71	0xbd47dc16	-0.048793875
72	0xbced8c5a	-0.028997589
73	0xbc9062bc	-0.017625205
74	0x3cfec83d	0.03110134
75	0x3b44c826	0.0030026524
76	0xbb6e0a7c	-0.0036322167
77	0x3d16b51c	0.036793813
78	0xbd41cb2e	-0.047312908
79	0xbd4f090c	-0.050545737
80	0xbd0c3639	-0.0342314
81	0xbd0ce096	-0.03439387
82	0xbd10c13d	-0.035340536
83	0x3cf526ac	0.029925667
84	0x3c84c905	0.016209135
85	0xbc818bd1	-0.01581374
86	0xbccac439	-0.02475177
87	0x3c13de63	0.009025189
88	0xbb34c7d4	-0.0027584927
89	0xbcc0077f	-0.023441074
90	0xbab6bb22	-0.0013941268
91	0xbae2ec2e	-0.0017312819
92	0x3d5b1812	0.053489752
93	0x3d232f4c	0.039840028
94	0x3c8c3405	0.017114649
95	0x3d359df8	0.044340104
96	0xbbeb6e73	-0.0071847974
97	0x3d6aa375	0.05728479
98	0xbd0cdd79	-0.0343909
99	0x3d4ee0b9	0.05050728
100	0x3bc88220	0.0061190277
101	0x3d0c7674	0.034292653
102	0x3ce1cedd	0.02756446
103	0x3c9e000c	0.019287132
104	0xbc48d08f	-0.0122567555
105	0x3b0f6d26	0.0021885126
106	0xbd9be09d	-0.07611201
107	0xbd3b2e06	-0.04569819
108	0x3c2898a1	0.010290296
109	0xbbedadbe	-0.0072533777
110	0x3d09bc79	0.033627007
111	0x3c24fe96	0.010070464
112	0xbd71486b	-0.058906954
113	0xbd892513	-0.066965245
114	0xbc369191	-0.011143104
115	0xbb59fd35	-0.0033262495
116	0x3d208ac4	0.039194837
117	0xbcea0d93	-0.028570926
118	0xbd230a1c	-0.039804563
119	0xbcec7ade	-0.028867181
120	0xbd01e777	-0.031714883
121	0xbbfb6914	-0.0076724384
122	0x3cad9c6a	0.021192748
123	0xbd07f1bc	-0.03318952
124	0x3cd6f796	0.026241105
125	0x3cae0952	0.021244679
126	0x3d74f2d4	0.05980189
127	0xbcea7b48	-0.028623238
128	0xbc199a00	-0.009375095
129	0xbd6bc360	-0.05755937
130	0x3c31beb8	0.010848694
131	0xbcd4a8cb	-0.025959393
132	0x3d3daf73	0.0463099
133	0xbce66e82	-0.028128866
134	0x3c77230b	0.0150840385
135	0x3c22c90d	0.00993563
136	0xbd282742	-0.041053064
137	0xbc877d2a	-0.016539175
138	0xbd4b0ece	-0.049574666
139	0x3c3a155d	0.011357632
140	0xbcf880e0	-0.03033489
141	0xbd168657	-0.03674921
142	0xba32aac6	-0.00068156084
143	0xbcc5bd52	-0.024138127
144	0x3cc3454e	0.023836758
145	0xbd17e5d5	-0.03708442
146	0xbc76ba41	-0.015059055
147	0x3d1cde49	0.038297925
148	0xb9f72684	-0.00047140208
149	0xbd7821ef	-0.060579237
150	0xbd919fbe	-0.071105465
151	0x3cde0d47	0.02710594
152	0xbc681b27	-0.01416663
153	0xbcd8a4c6	-0.026445758
154	0x3d008c5f	0.03138387
155	0xbb82be4f	-0.0039899717
156	0x3ca9c56b	0.020724019
157	0x3b98f55e	0.004667922
158	0xbd12f26a	-0.035875715
159	0x3d5687fa	0.05237577
160	0x3c9a3f36	0.01882897
161	0x3ce9ede0	0.02855581
162	0xba33b811	-0.0006855736
163	0xbd3763fc	-0.044773087
164	0x3cc18864	0.023624606
165	0xbbbd54fc	-0.005777953
166	0x3b8aa772	0.004231387
167	0x3ca97ded	0.020689929
168	0xbc81e539	-0.015856372
169	0xbc36220f	-0.011116519
170	0x3cb4b3b4	0.022058345
171	0xbc93498d	-0.017979408
172	0x3cf6c3aa	0.030122597
173	0x3c9c62f4	0.019090153
174	0xbc53a378	-0.012917392
175	0xb9bfbf7d	-0.0003657303
176	0xbc335e2e	-0.010947747
177	0x3d2cfbe7	0.04223242
178	0x3c9bb791	0.01900843
179	0xba156f45	-0.00057004794
180	0x3ce7e4a4	0.028307267
181	0xbcefb0dc	-0.029259138
182	0xbcc1b37f	-0.02364516
183	0xbd131220	-0.035905957
184	0xbaa7bfd6	-0.001279826
185	0x3d027de5	0.031858344
186	0x3d288d09	0.041150127
187	0xbce3a153	-0.027786886
188	0x3c0f4e91	0.008746759
189	0xbce6d5f5	-0.028178195
190	0x3cda2479	0.02662872
191	0x3d251dfc	0.0403118
192	0x3c8d9092	0.01728085
193	0x3c637d17	0.013884804
194	0xbce3ad23	-0.027792519
195	0xbcee53bb	-0.02909266
196	0xbd626aaa	-0.055277504
197	0x3cda30e9	0.02663465
198	0x3c2045da	0.009782279
199	0xbbcd6f61	-0.006269381
200	0x3c4931f9	0.012279981
201	0x3bd77798	0.006575536
202	0x3ce4758b	0.02788808
203	0x3d23fff1	0.040039007
204	0xbce7e5da	-0.028307844
205	0xbc38985a	-0.011266792
206	0xbd39bf27	-0.045348313
207	0xbca31656	-0.019908112
208	0x3c9037fd	0.017604822
209	0xbc9da1cf	-0.019242195
210	0xbc5bf93c	-0.013426121
211	0x3cd9b050	0.02657333
212	0xbcf1e617	-0.02952866
213	0xbb3c374d	-0.0028719485
214	0xbd384459	-0.044987056
215	0xbd65b0a5	-0.056076664
216	0x3cdf01fb	0.027222624
217	0x3cbec84f	0.023288874
218	0x3d561613	0.052267145
219	0xbce4db40	-0.027936578
220	0xbc55cba5	-0.013049041
221	0x3d1f8567	0.03894558
222	0xbd415132	-0.047196575
223	0xbc8a6191	-0.016892226
224	0xbccfbe3c	-0.025359266
225	0x3c225b5e	0.009909479
226	0x3bb29577	0.0054499465
227	0xbb5486f7	-0.0032429078
228	0xbd45a9e1	-0.048257712
229	0xbd05a47e	-0.032627575
230	0x3c62e5ae	0.013848705
231	0x3cab47de	0.020908292
232	0xbc4fd974	-0.012686122
233	0xbd84de31	-0.06487692
234	0xbc9cfcde	-0.019163545
235	0x3d526ae0	0.051371455
236	0x3bfee9d2	0.0077793384
237	0x3c63eab9	0.013910943
238	0xbd731c51	-0.059353177
239	0xbc911b3e	-0.017713185
240	0xbd13287a	-0.035927273
241	0x3cc53d7e	0.024077173
242	0xbc8f9725	-0.017528126
243	0xbc2de76d	-0.010614258
244	0xbc9c44f6	-0.019075852
245	0x3b828b83	0.0039839162
246	0x3d0f80f4	0.03503509
247	0xbd861dbe	-0.065486416
248	0xbcbf4773	-0.0233495
249	0xbc345138	-0.011005692
250	0xbd592f8e	-0.053023867
251	0xbd19a770	-0.037513196
252	0xbc6010e5	-0.013675903
253	0xbae88aa7	-0.0017741517
254	0x3c85773b	0.016292205
255	0xbd37da55	-0.044885952

action_model._discrete_distribution.branches.2.bias f4 [2]
0	0x3c2ff84d	0.010740352
1	0xbc2ff862	-0.010740371
