results/pressButtonAgent_1/ButtonPress/ButtonPress-499924.onnx (onnx, 352736 bytes, 13 tensors)

discrete_act_size_vector f4 [1, 4]
3.0 3.0 2.0 2.0
00000000: 0000 4040 0000 4040 0000 0040 0000 0040

network_body._body_endoder.seq_layers.0.weight f4 [256, 65]
0.041962814 0.24623698 -0.1955746 -0.049721796 0.11178271 0.16663581 -0.11059515 0.057687093
-0.06701951 0.20130317 -0.0059542353 -0.17876197 -0.18822499 0.1339785 0.101820044 -0.2233263
-0.033389043 0.3422947 0.34923518 0.20310523 0.21585876 -0.07744774 -0.52859896 -0.09580913
0.1463414 -0.07240754 0.11689641 -0.069812804 0.098808534 0.123709105 0.05550496 0.46631175
-0.30778924 -0.20780393 -0.05576535 0.05515148 0.2417845 0.06066749 0.3086994 0.091035716
0.11699427 -0.33001322 -0.3211158 -0.16724542 0.04631944 0.4685615 0.0553479 0.08849516
-0.25594386 -0.041975524 0.27712318 0.12772252 -0.20339948 -0.09741703 -0.0068419324 0.10799435
0.06295126 0.17246273 0.06689778 -0.2657282 0.03250742 -0.20485264 -0.45136374 0.19139019
0.04455745 -0.035183646 0.21149835 -0.063824065 0.20709452 -0.18524879 -0.23352748 -0.17834482
0.11867433 -0.053587 0.21124995 -0.31225064 0.021029906 0.09565519 -0.0993407 0.14376785
-0.013316256 -0.028547686 0.11424903 -0.0361844 0.103327736 0.043602016 -0.0022419898 -0.2352942
0.0807884 -0.07721382 -0.10391863 0.3007312 0.14105171 0.014646486 0.30909044 -0.0959788
0.015981419 -0.09030274 -0.103753746 -0.054008365 -0.12188483 0.08127687 0.36711752 0.12019928
0.09446328 -0.17584258 0.12243506 -0.008857975 0.011347265 0.059773218 -0.061470762 0.119254716
0.31930885 0.09814726 -0.091300264 0.13515705 -0.13807015 -0.084267385 -0.12869906 -0.18293272
0.13992383 0.20989293 -0.225758 0.05312903 0.15653665 -0.011321393 -0.06845285 -0.11306203
-0.30078626 0.023072265 -0.45872408 0.30482143 -0.1639392 -0.07265076 -0.15422238 -0.23789494
-0.016918404 0.12476779 0.04395085 0.19727695 -0.51283133 -0.060240418 0.15388992 0.089802206
0.00092717615 -0.004171493 -0.06185382 -0.13878657 0.32502484 0.117442735 -0.17603695 0.049950395
0.059118632 -0.043781117 -0.032663297 -0.25577262 0.022723474 0.1261381 0.27986395 0.05080741
-0.34127462 0.25403902 -0.13464327 -0.033860754 0.34921247 -0.054595686 0.13250697 -0.106273524
0.093490474 -0.15655413 0.05102124 -0.15832381 -0.15675497 0.031704653 -0.051923104 -0.056198504
0.32784754 -0.23194167 -0.08201739 -0.03366431 0.079292364 0.14606307 -0.11504056 -0.09612215
0.12633805 0.2610708 -0.14679793 -0.14104655 -0.12528682 -0.0656429 0.06950245 -0.06944929
-0.013886409 -0.024671618 -0.061079096 0.022908052 0.0004079416 -0.08401544 0.2475812 0.137806
-0.17046374 0.02377711 0.0889802 0.039556578 -0.22308919 -0.053719025 0.3110731 0.22284804
0.06550851 0.025055863 -0.07711456 0.108755544 -0.12907548 0.17276226 0.1490955 -0.13294947
0.08775918 0.2271008 0.0803952 0.07029953 0.27768642 -0.005114903 -0.015305007 0.06942666
-0.10224317 0.3274109 0.11313056 0.19895853 -0.0951146 0.068794124 0.0029010784 -0.034536354
-0.021716632 -0.071227714 -0.012625337 -0.025998686 -0.034012478 -0.2728802 -0.049160402 -0.020591434
-0.14147839 -0.0066236104 -0.5344342 0.09557063 -0.22325167 0.107211314 -0.20431694 -0.26046753
-0.07240253 0.10669809 0.09747425 0.031275492 -0.15889886 -0.08652739 -0.17163676 0.050826494
00000000: 33e1 2b3d 8c25 7c3e b544 48be 15a9 4bbd
00000010: 55ee e43d 94a2 2a3e b67f e2bd 4d49 6c3d
00000020: 8641 89bd 6b22 4e3e bf1b c3bb 610d 37be
00000030: 0dbe 40be a931 093e 0787 d03d a6af 64be
00000040: f3c2 08bd 4041 af3e f4ce b23e d1fa 4f3e
00000050: 140a 5d3e ec9c 9ebd 4352 07bf 9437 c4bd
00000060: 85da 153e 684a 94bd 6367 ef3d 04fa 8ebd
00000070: 215c ca3d 335b fd3d 2b59 633d 6ac0 ee3e
00000080: 8d96 9dbe 8eca 54be 356a 64bd 85e6 613d
00000090: 5b96 773e 797e 783d d90d 9e3e ef70 ba3d
000000a0: b19a ef3d 7ef7 a8be 4a69 a4be 6242 2bbe
000000b0: 74b9 3d3d 4be7 ef3e 7bb4 623d f33c b53d
000000c0: 130b 83be 87ee 2bbd 17e3 8d3e b1c9 023e
000000d0: f447 50be 9482 c7bd 4a32 e0bb 242c dd3d
000000e0: 97ec 803d 129a 303e b401 893d 870d 88be
000000f0: 8026 053d e4c4 51be 2619 e7be cafb 433e
00000100: df81 363d ba1c 10bd 0693 583e 31b6 82bd
00000110: 9610 543e dcb1 3dbe d421 6fbe 06a0 36be
00000120: 870b f33d 0b7e 5bbd e851 583e 51df 9fbe
00000130: e946 ac3c dee6 c33d 2373 cbbd e137 133e
00000140: 6d2c 5abc d6dc e9bc 65fb e93d 1836 14bd
00000150: 7e9d d33d 0798 323d 59ee 12bb f6f0 70be
00000160: 6374 a53d 4722 9ebd 4ad3 d4bd 71f9 993e
00000170: dc6f 103e d1f7 6f3c 1a41 9e3e 8890 c4bd
00000180: 77eb 823c a5f0 b8bd d87c d4bd e037 5dbd
00000190: c19e f9bd 7d74 a63d d4f6 bb3e 0a2b f63d
000001a0: f775 c13d 1410 34be 3cbf fa3d 0a21 11bc
000001b0: e1e9 393c c3d4 743d c4c8 7bbd d13b f43d
000001c0: 737c a33e 6e01 c93d a2fb babd 9c66 0a3e
000001d0: 4362 0dbe 6194 acbd b0c9 03be b752 3bbe
000001e0: 3148 0f3e 2cee 563e 1b2d 67be d39d 593d
000001f0: 254b 203e 5d7d 39bc 0231 8cbd 118d e7bd
00000200: a800 9abe 0c02 bd3c e2dd eabe 8e11 9c3e
00000210: addf 27be ecc9 94bd 79ec 1dbe bb9a 73be
00000220: 7798 8abc 4186 ff3d ce05 343d f802 4a3e
00000230: ea48 03bf a8be 76bd 5295 1d3e 38ea b73d
00000240: bd0d 733a 05b1 88bb 6e5a 7dbd 111e 0ebe
00000250: a869 a63e d185 f03d 0843 34be c998 4c3d
00000260: 6126 723d d453 33bd f3c9 05bd a1f4 82be
00000270: 9426 ba3c 592a 013e 544a 8f3e 6e1b 503d
00000280: 8cbb aebe 6711 823e eddf 09be 93b1 0abd
00000290: facb b23e ba9f 5fbd e8af 073e efa5 d9bd
000002a0: ef77 bf3d ba4f 20be a6fb 503d a31f 22be
000002b0: 6084 20be bddc 013d 52ad 54bd 6730 66bd
000002c0: a2db a73e 1e82 6dbe bcf8 a7bd 96e3 09bd
000002d0: 0964 a23d 8f91 153e 639a ebbd b1db c4bd
000002e0: c35e 013e 12ab 853e 3252 16be 826e 10be
000002f0: 304b 00be c96f 86bd 4d57 8e3d 6e3b 8ebd
00000300: d283 63bc 221c cabc 132e 7abd aba9 bb3c
00000310: ffe0 d539 4910 acbd ed85 7d3e 041d 0d3e
00000320: 0c8e 2ebe 37c8 c23c 403b b63d 1406 223d
00000330: 7e71 64be 7b08 5cbd f944 9f3e 4732 643e
00000340: 5329 863d f441 cd3c 3dee 9dbd 3abb de3d
00000350: 5d2c 04be 97e8 303e 7eac 183e e823 08be
00000360: 16bb b33d 1d8d 683e 3da6 a43d 33f9 8f3d
00000370: ea2c 8e3e eb9a a7bb dac1 7abc 912f 8e3d
00000380: de64 d1bd 67a2 a73e ffb0 e73d c9bb 4b3e
00000390: 72cb c2bd efe3 8c3d 0520 3e3b fe75 0dbd
000003a0: 14e7 b1bc d6df 91bd 80da 4ebc 32fb d4bc
000003b0: ab50 0bbd f4b6 8bbe 6b5c 49bd 5eaf a8bc
000003c0: b6df 10be df0a d9bb aed0 08bf 89ba c33d
000003d0: 169c 64be 9b91 db3d 7638 51be 005c 85be
000003e0: c747 94bd 8784 da3d 94a0 c73d bb1a 003d
000003f0: 62b6 22be 4635 b1bd 8cc1 2fbe 712f 503d

network_body._body_endoder.seq_layers.0.bias f4 [256]
-0.015604186 -0.030611804 0.014739009 -0.07624616 0.010441571 0.15191592 0.035333645 -0.026696466
-0.026988024 0.18667021 -0.017667307 -0.0063636974 0.1954522 -0.023547057 -0.003345873 0.05057423
0.033201024 -0.06579332 0.022619901 0.054569054 -0.055202823 0.005345697 -0.04787301 0.07435621
0.13773571 -0.046753425 0.04207933 -0.14057764 0.08089248 0.013348976 0.02403599 0.1332257
0.075602956 -0.034994062 0.105017975 0.014016294 0.07051211 -0.0047464026 -0.1781633 0.12418514
0.07006941 0.034426462 0.007189639 0.18327744 0.07630964 -0.16297702 0.057412513 -0.01968399
-0.02596169 0.13553616 -0.013865882 0.08024401 -0.20850004 -0.08640451 0.021075314 -0.04122246
-0.111695826 0.06913091 -0.013652804 -0.003037588 -0.029790442 -0.03220977 0.012602958 0.1359324
0.11535212 -0.0008564022 -0.0075480184 0.06310769 -0.035534352 -0.047673248 0.08537212 0.0065649487
0.016335387 0.07093325 -0.06555323 0.15516265 -0.055649728 -0.1520117 0.034632638 -0.08322498
-0.063741125 0.069204755 -0.09039285 0.029774264 -0.07965065 -0.057437655 0.0076988167 0.010071812
-0.09199373 -0.18315278 0.08581147 -0.07963754 0.028657153 -0.12743181 -0.009719688 0.16715662
0.011377954 -0.034904227 -0.07028498 0.0059281155 -0.0032382451 -0.086365856 -0.015984062 0.0060655023
-0.019826028 0.08306885 -0.014084698 -0.009792674 0.10623067 0.045395706 -0.09315764 -0.11341321
0.020321872 0.057953414 -0.038401134 -0.014818572 0.12364858 -0.052572835 -0.17764094 0.008645713
0.063995846 -0.023707338 -0.05754978 -0.008940023 0.016545812 -0.014232189 -0.029625276 0.061706048
0.03811776 -0.059746373 -0.014912043 -0.018055195 -0.15559469 0.065393366 -0.044698007 -0.03915741
-0.012143301 -0.026559606 -0.040242653 0.0003821041 0.08718666 0.1905798 -0.15579164 -0.02616693
-0.025090389 -0.09721563 -0.03807814 -0.058044225 0.08743532 -0.029291516 0.0718049 -0.020331616
-4.7169156e-05 -0.10753638 0.044794366 -0.028496725 -0.09990739 0.034507554 0.043714374 0.07341891
-0.02051891 -0.04627841 -0.12350785 0.05609148 -0.12866586 -0.077971585 -0.009717155 0.050823025
-0.084158085 -0.0046018288 -0.03559975 -0.028593848 0.027420295 -0.0015859592 -0.08181633 -0.06422647
0.00551075 -0.09900744 0.022049047 -0.016308503 0.035913475 -0.051284097 -0.03831094 -0.05793321
-0.042765304 0.059253816 -0.10645293 -0.089395836 0.05019847 0.036938854 -0.078238636 0.07595786
0.16032584 0.041951433 -0.03497837 0.15234531 -0.033630826 0.016144738 -0.10764582 0.023568138
-0.10080187 0.059161782 -0.045772858 -0.11396235 0.010773087 -0.008157884 -0.066026375 -0.2919441
-0.00043765275 -0.025974175 -0.1207445 -0.012303612 0.0053524207 0.0018202234 -0.0025817745 -0.29822227
0.027539723 -0.06887453 -0.106363356 -0.021895112 -0.024045838 0.060596325 -0.07383955 0.09877185
-0.06825091 -0.04269574 0.06209353 0.044385247 0.02825637 -0.020076975 -0.019301342 0.05401529
-0.18233185 -0.06382918 -0.015606497 -0.010089802 -0.024430804 0.021198692 -0.019408396 -0.008008804
0.124372646 0.06847231 -0.013307393 0.0032801304 -0.022333683 0.03823112 0.09753766 -0.022126919
-0.030346794 0.122609146 -0.021733394 0.0024152054 -0.054308843 0.026401522 0.08344565 0.06758388
00000000: b3a8 7fbc 9bc5 fabc e27b 713c f226 9cbd
00000010: 1f13 2b3c d98f 1b3e 03ba 103d 8cb2 dabc
00000020: fd15 ddbc 7a26 3f3e 07bb 90bc 9086 d0bb
00000030: 9f24 483e c2e5 c0bc 6f46 5bbb ec26 4f3d
00000040: ccfd 073d a6be 86bd 5f4d b93c cd83 5f3d
00000050: 5b1c 62bd f52a af3b 7d16 44bd 1248 983d
00000060: 970a 0d3e 8580 3fbd 605b 2c3d 96f3 0fbe
00000070: f5aa a53d aab5 5a3c 20e7 c43c 516c 083e
00000080: b9d5 9a3d ef55 0fbd aa13 d73d 99a4 653c
00000090: a768 903d b687 9bbb 7170 36be c754 fe3d
000000a0: 8d80 8f3d c302 0d3d 1097 eb3b 15ad 3b3e
000000b0: 3b48 9c3d 73e3 26be 6229 6b3d 5240 a1bc
000000c0: 9cad d4bc fec9 0a3e b92d 63bc f956 a43d
000000d0: 0981 55be d9f4 b0bd 23a6 ac3c e2d8 28bd
000000e0: c8c0 e4bd 8294 8d3d 03b0 5fbc 4512 47bb
000000f0: 160b f4bc 64ee 03bd a37c 4e3c dd31 0b3e
00000100: bb3d ec3d 2e80 60ba 5e55 f7bb 9b3e 813d
00000110: 788c 11bd 0645 43bd 94d7 ae3d c81e d73b
00000120: cad1 853c 7445 913d c640 86bd f5e2 1e3e
00000130: f8f0 63bd f5a8 1bbe f4da 0d3d dc71 aabd
00000140: b58a 82bd 39bb 8d3d e31f b9bd 28e9 f33c
00000150: e11f a3bd bf43 6bbd 5b46 fc3b 3e04 253c
00000160: 3567 bcbd 678c 3bbe edbd af3d 0219 a3bd
00000170: 68c2 ea3c 7c7d 02be 543f 1fbc 1b2b 2b3e
00000180: 996a 3a3c bcf7 0ebd 92f1 8fbd a340 c23b
00000190: bd38 54bb 95e0 b0bd 02f1 82bc 1fc1 c63b
000001a0: 326a a2bc 0020 aa3d 81c3 66bc 7471 20bc
000001b0: 778f d93d d9f0 393d 6fc9 bebd 2f45 e8bd
000001c0: 0e7a a63c 8f60 6d3d 824a 1dbd 99c9 72bc
000001d0: 773b fd3d 9d56 57bd 82e7 35be c0a6 0d3c
000001e0: 4110 833d e435 c2bc 51b9 6bbd 2d79 12bc
000001f0: 158b 873c 212e 69bc b5b0 f2bc 7bbf 7c3d
00000200: 5e21 1c3d 9db8 74bd a451 74bc 7de8 93bc
00000210: 3754 1fbe f5ec 853d 4215 37bd 8563 20bd
00000220: b2f4 46bc 8893 d9bc 7bd5 24bd 2555 c839
00000230: eb8e b23d 5a27 433e d887 1fbe 085c d6bc
00000240: 5c8a cdbc fd18 c7bd d3f7 1bbd c8bf 6dbd
00000250: 4a11 b33d c3f4 efbc 730e 933d 7d8e a6bc
00000260: 7fd7 45b8 093c dcbd 4c7a 373d f771 e9bc
00000270: 3f9c ccbd cb57 0d3d d80d 333d a75c 963d
00000280: 4617 a8bc 6e8e 3dbd aff1 fcbd 2ec0 653d
00000290: fcc0 03be 91af 9fbd b434 1fbc ce2b 503d
000002a0: 135b acbd f0ca 96bb 0bd1 11bd a53d eabc
000002b0: 87a0 e03c f6df cfba 528f a7bd 2b89 83bd
000002c0: 8693 b43b 6ac4 cabd 34a0 b43c 6999 85bc
000002d0: 021a 133d 460f 52bd efeb 1cbd 604b 6dbd
000002e0: ac2a 2fbd 21b4 723d fe03 dabd 2a15 b7bd
000002f0: e99c 4d3d 324d 173d 943b a0bd cb8f 9b3d
00000300: 752c 243e 44d5 2b3d 7b45 0fbd 6900 1c3e
00000310: 7ac0 09bd f841 843c 6975 dcbd f811 c13c
00000320: 3671 cebd a053 723d 527c 3bbd 1865 e9bd
00000330: 9a81 303c a5a8 05bc d638 87bd b279 95be
00000340: c274 e5b9 cbc7 d4bc e448 f7bd 1795 49bc
00000350: 5c63 af3b 9094 ee3a fd32 29bb 97b0 98be
00000360: fc9a e13c 170e 8dbd 08d5 d9bd 615d b3bc
00000370: c7fb c4bc da33 783d 3139 97bd e548 ca3d
00000380: 22c7 8bbd bae1 2ebd c955 7e3d 4ecd 353d
00000390: e779 e73c 7878 a4bc d91d 9ebc 233f 5d3d
000003a0: 33b5 3abe e0b8 82bd 65b2 7fbc b24f 25bc
000003b0: 1c23 c8bc e1a8 ad3c 5bfe 9ebc 5c37 03bc
000003c0: 16b7 fe3d 363b 8c3d 4007 5abc 75f7 563b
000003d0: 21f5 b6bc 3c98 1c3d d3c1 c73d 8343 b5bc
000003e0: d799 f8bc 811a fb3d 3b0a b2bc 6c48 1e3b
000003f0: f372 5ebd 0148 d83c 8ee5 aa3d 6b69 8a3d

network_body._body_endoder.seq_layers.2.weight f4 [256, 256]
-0.06026739 0.09386997 -0.016913662 0.030901223 0.002858275 -0.0045229015 -0.1574619 0.06123743
-0.13177751 0.027804995 -0.11434647 -0.05273329 -0.08118239 -0.14247863 -0.19092596 -0.094553016
-0.14343199 -0.063131526 -0.087796025 -0.011698818 -0.057674084 -0.15628664 -0.041507445 -0.24374062
-0.1317599 -0.107145794 0.04804578 0.14936827 -0.108028606 0.24043661 -0.24794824 -0.04700582
0.07796512 -0.13437833 -0.16267848 0.15227449 -0.17783442 -0.21919446 0.26898313 -0.011284633
0.11146873 -0.29299825 0.11726696 -0.012328722 0.010512354 0.09972009 -0.059240337 -0.2169294
-0.27136472 -0.21515702 -0.035351604 -0.016598511 0.23630266 -0.11486227 -0.02861454 -0.2880665
-0.062061407 -0.0656913 -0.0843075 -0.017505705 -0.03578612 -0.16772078 -0.055362646 -0.17054535
-0.22336006 -0.16558515 -0.1729034 -0.082693696 -0.013185195 -0.02213546 0.07969149 -0.041107476
-0.15280564 -0.11214461 0.16779724 0.03324419 -0.15504563 -0.0696587 -0.2091292 -0.07045909
-0.22918232 -0.14944014 0.024330297 -0.121223494 0.09831211 -0.10004306 -0.011120434 -0.034896426
0.081803665 0.06174616 -0.0029865135 -0.106471226 -0.06522409 0.065008245 0.033596046 -0.07189467
-0.08319431 -0.096429594 0.12980916 -0.0005162935 -0.16040373 -0.0931004 -0.14052463 0.031348202
-0.0306368 0.02625058 -0.116848424 -0.15701126 -0.18408799 0.055779718 0.0409594 0.1581856
-0.1727125 -0.12537992 0.118158415 -0.057649147 -0.18515146 -0.035249688 0.22214608 -0.081671655
-0.16151743 -0.048171222 -0.06973854 0.07521178 -0.26349068 0.15153009 0.0007071021 -0.23232985
-0.093761615 0.07640868 0.06054152 0.054081492 0.08424786 0.09146378 0.012055933 0.039385952
-0.32804865 0.17908901 -0.03001009 -0.21734448 -0.08835632 -0.11964147 -0.008654458 -0.18920325
-0.10394832 -0.12744996 -0.10915288 -0.06767493 -0.15576935 -0.1007387 -0.19118619 -0.036164
-0.1617393 0.30596435 -0.15596855 0.08904702 -0.009690772 -0.1730584 0.2627701 -0.043204077
0.089356184 0.1179365 0.034135535 0.16151625 0.14312291 0.011180755 0.15753154 -0.21289197
-0.010307402 -0.008902308 -0.053490575 -0.16031283 0.035503868 -0.08441712 0.06304374 0.021175718
0.0081421 0.07200564 -0.09343728 -0.017786037 -0.060461875 0.19444093 -0.018359121 -0.07963524
-0.21816258 -0.023359125 -0.09183794 0.067950785 0.039838083 -0.07112612 -0.06501843 -0.016196925
-0.040916815 -0.09393566 -0.09946926 0.01737242 -0.026827242 -0.0992198 0.08245573 -0.023248088
-0.025673922 -0.1788838 -0.16629642 0.17832592 0.15337399 -0.051363055 0.13593039 0.041233156
-0.056764815 0.050966024 0.090323575 0.036804482 0.010149625 0.3355673 0.0101428935 -0.008196694
0.027122302 -0.018262604 0.034187216 0.023118883 -0.14788304 -0.29564992 -0.18054913 0.08289633
0.16437219 -0.041887145 -0.112612076 -0.14320134 -0.056012057 -0.21261674 -0.20732112 -0.04705344
-0.02849569 0.12241105 0.15916647 0.063233055 -0.13137835 -0.024557648 -0.1848018 -0.024235304
-0.10607599 -0.017271504 -0.14136389 -0.14699596 -0.038425665 -0.05131202 -0.24598955 -0.05827247
-0.3061196 -0.2113616 -0.12268798 -0.17406005 -0.056080054 0.122389406 -0.0048779384 -0.12940972
00000000: f0da 76bd e63e c03d 858e 8abc 9024 fd3c
00000010: e651 3b3b d934 94bb b13d 21be 19d4 7a3d
00000020: aff0 06be 4dc7 e33c 7b2e eabd ddfe 57bd
00000030: f442 a6bd ebe5 11be 1882 43be 03a5 c1bd
00000040: d6df 12be 1a4b 81bd 67ce b3bd 66ac 3fbc
00000050: a93b 6cbd 9b09 20be b603 2abd 2497 79be
00000060: 11ec 06be 416f dbbd a7cb 443d fff3 183e
00000070: 1a3e ddbd 0435 763e 25e6 7dbe 2d89 40bd
00000080: 2dac 9f3d 799a 09be 3095 26be d8ed 1b3e
00000090: 3a1a 36be 8374 60be 28b8 893e 2ee3 38bc
000000a0: b849 e43d de03 96be a929 f03d 68fe 49bc
000000b0: 023c 2c3c 0c3a cc3d ffa5 72bd be22 5ebe
000000c0: 51f0 8abe 1f52 5cbe d8cc 10bd 9af9 87bc
000000d0: 53f9 713e e93c ebbd 0a69 eabc 747d 93be
000000e0: 1a34 7ebd 2989 86bd 69a9 acbd 2068 8fbc
000000f0: 7794 12bd ffbe 2bbe f1c3 62bd 71a3 2ebe
00000100: 80b8 64be 278f 29be 970d 31be 505b a9bd
00000110: b706 58bc 6d55 b5bc 4b35 a33d 5060 28bd
00000120: 1579 1cbe 13ac e5bd 0ad3 2b3e 0f2b 083d
00000130: 48c4 1ebe 38a9 8ebd f725 56be db4c 90bd
00000140: c5ae 6abe d606 19be 5550 c73c 0644 f8bd
00000150: dc57 c93d 60e3 ccbd 7b32 36bc 8eef 0ebd
00000160: ae88 a73d 8be9 7c3d 62b9 43bb 960d dabd
00000170: 3594 85bd 0b23 853d 029c 093d 833d 93bd
00000180: c761 aabd e17c c5bd b1ec 043e df57 07ba
00000190: e040 24be 6cab bebd b0e5 0fbe f966 003d
000001a0: 07fa fabc 750b d73c 3a4e efbd 8fc7 20be
000001b0: 9081 3cbe 4679 643d 0bc5 273d 68fb 213e
000001c0: 8cdb 30be 9863 00be 0afd f13d 8321 6cbd
000001d0: 5898 3dbe fa61 10bd 437a 633e 7843 a7bd
000001e0: d364 25be 304f 45bd 14d3 8ebd a208 9a3d
000001f0: 40e8 86be b42a 1b3e d25c 393a e0e7 6dbe
00000200: 1706 c0bd 277c 9c3d 63fa 773d 8e84 5d3d
00000210: 248a ac3d 5d51 bb3d 3f86 453c 2a53 213d
00000220: fef5 a7be 1c63 373e b8d7 f5bc 8d8f 5ebe
00000230: 29f4 b4bd 9606 f5bd 6ecb 0dbc 7fbe 41be
00000240: dbe2 d4bd 3e82 02be 8c8b dfbd 2799 8abd
00000250: 0082 1fbe 1750 cebd 50c6 43be b420 14bd
00000260: fd9e 25be 5ca7 9c3e 38b6 1fbe 495e b63d
00000270: 0bc6 1ebc 3936 31be cd89 863e c2f6 30bd
00000280: 6000 b73d b188 f13d b4d1 0b3d 8464 253e
00000290: d08e 123e 7c2f 373c f34f 213e 5a00 5abe
000002a0: 61e0 28bc fcda 11bc ef18 5bbd 0c29 24be
000002b0: 816c 113d e2e2 acbd 141d 813d b378 ad3c
000002c0: 7166 053c b177 933d 0b5c bfbd 06b4 91bc
000002d0: dfa6 77bd 861b 473e de65 96bc cd17 a3bd
000002e0: 0366 5fbe a35b bfbc 8815 bcbd c829 8b3d
000002f0: 422d 233d 92aa 91bd 6228 85bd 6aaf 84bc
00000300: 6498 27bd 5761 c0bd 8ab6 cbbd 9b50 8e3c
00000310: cec4 dbbc c033 cbbd 8dde a83d c672 bebc
00000320: 1e52 d2bc 512d 37be 9c49 2abe 129b 363e
00000330: 120e 1d3e 1162 52bd 5631 0b3e 19e4 283d
00000340: 3982 68bd c0c1 503d 91fb b83d 4cc0 163d
00000350: 9d4a 263c 7acf ab3e 612e 263c 6d4b 06bc
00000360: 972f de3c 759b 95bc e507 0c3d d063 bd3c
00000370: a76e 17be 6d5f 97be dfe1 38be 8dc5 a93d
00000380: 2f51 283e db91 2bbd 29a1 e6bd 5fa3 12be
00000390: e66c 65bd 34b8 59be fd4b 54be 1cbb 40bd
000003a0: cb6f e9bc a5b2 fa3d 89fc 223e 5580 813d
000003b0: 0c88 06be 1f2d c9bc af3c 3dbe 1e89 c6bc
000003c0: 5e3e d9bd f87c 8dbc b2c1 10be 1c86 16be
000003d0: 3b64 1dbd 8d2c 52bd afe4 7bbe 1daf 6ebd
000003e0: b5bb 9cbe 2d6f 58be d643 fbbd cc3c 32be
000003f0: 33b4 65bd 4ca7 fa3d 1dd7 9fbb fb83 04be

network_body._body_endoder.seq_layers.2.bias f4 [256]
-0.04575028 0.15933794 -0.089774966 0.04294371 -0.0068606683 -0.031543422 0.0547147 -0.08598511
0.09859914 -0.05049307 0.023155106 -0.009193661 0.02400921 0.025846198 0.0109577235 -0.123919696
-0.096015066 0.11245662 -0.067291945 0.0476678 0.022643108 0.026469499 -0.05889028 -0.002523768
0.05509522 0.01483952 0.03558509 0.02350501 -0.061449338 0.039565146 -0.15210706 0.049174257
-0.026781859 0.058470055 -0.03074625 -0.050576743 -0.06895304 -0.07488253 0.04499612 0.05701898
-0.08173967 0.011951141 0.018444818 0.034273252 0.0009233461 -0.058606252 -0.12305957 0.06423035
0.072333746 -0.023086853 -0.0036213053 0.09433454 0.08063877 0.0036660994 0.02815557 -0.006291442
0.16481876 -0.05429162 -0.008357927 -0.15444195 -0.09736267 0.0100826165 0.022244468 -0.112707764
-0.10686975 -0.10448932 0.03217927 0.066867955 0.056784797 -0.034832135 -0.14664054 0.017051952
-0.0022213662 0.07616405 -0.107130356 -0.16702044 -0.017617267 0.12262036 -0.00047672814 0.069509394
-0.08281763 0.039022133 0.04621698 -0.07623258 0.029624917 0.0030945856 -0.043244287 0.043506216
0.1434038 -0.033490825 0.020412665 0.005582782 0.020066546 -0.030948216 0.019888094 0.0050847
-0.0072473846 0.025437577 0.018284028 0.025214534 0.024565065 -0.0027913677 0.017204704 0.0140043255
-0.09430953 -0.019877473 0.026983302 -0.2008681 -0.1489059 -0.0986741 -0.073190406 -0.021929365
0.034384694 0.029090192 -0.02936788 -0.18034253 0.064049944 0.06263671 0.10785884 0.0397684
0.07206531 0.06665853 -0.075174384 0.11160046 -0.102788925 0.13537678 0.044517003 0.015955288
-0.1159183 0.029336853 -0.09842802 0.06387355 0.11071792 0.013472756 -0.2058211 -0.004382084
-0.057782922 0.12437282 0.038318448 -0.0074764937 -0.004764857 0.037718385 -0.15177059 -0.14289495
0.038376477 -0.062348887 -0.048677877 -0.12521999 -0.026169345 -0.05064597 -0.09804609 0.045403183
0.03974005 -0.07523228 -0.116437644 0.057763077 -0.006686096 0.080263 0.036662593 0.034327187
-0.019526958 0.049342155 -0.024811726 0.0029859256 0.011100377 0.042275134 0.009745916 0.037019793
-0.0030190174 -0.039576124 0.13965918 0.09649352 0.025679147 -0.14480054 0.054405775 -0.023206642
0.11907946 -0.14919694 -0.076091096 -0.0765234 -0.18195593 -0.033850808 -0.004929699 -0.09015357
-0.13305686 0.1272382 0.047276445 0.077669226 0.0049530193 0.09604407 -0.025474373 -0.12834312
0.020405313 0.026347939 0.021440068 0.09964359 -0.16765104 0.17132325 0.024067037 -0.14662755
-0.08339573 -0.07850865 0.031731382 0.034678113 0.04078449 -0.017684681 -0.09996341 -0.0035320618
0.008092178 -0.049520817 0.039540194 0.009801188 0.10527113 -0.12053736 -0.0042533614 -0.04925872
-0.10550949 -0.0051440885 0.026182462 -0.054688666 0.033871487 0.027255557 0.018562157 0.02042406
0.051327936 -0.023736589 -0.021029856 0.08902012 0.05825356 -0.080528826 -0.15334438 0.0003046356
-0.10686618 0.03697475 -0.0487749 0.014355635 -0.12452051 0.09134711 0.014382609 0.08034629
-0.000838841 0.043913186 0.09410519 0.017586533 0.06891207 -0.033828378 -0.020089293 -0.093602166
0.0188409 -0.0022659071 -0.03543788 0.078329965 0.12276527 0.006256593 0.015365121 0.024238408
00000000: a564 3bbd 7c29 233e f0db b7bd bee5 2f3d
00000010: 75cf e0bb ad33 01bd 851c 603d f618 b0bd
00000020: 59ee c93d d2d1 4ebd c7af bd3c 02a1 16bc
00000030: f6ae c43c 68bb d33c 0688 333c 9cc9 fdbd
00000040: 8ca3 c4bd a84f e63d 5cd0 89bd 503f 433d
00000050: 0a7e b93c 90d6 d83c ef36 71bd cd65 25bb
00000060: 87ab 613d 7521 733c acc1 113d 948d c03c
00000070: 4db2 7bbd 100f 223d f4c1 1bbe f26a 493d
00000080: a165 dbbc 4c7e 6f3d 8fdf fbbc 8f29 4fbd
00000090: 4037 8dbd 035c 99bd da4d 383d bc8c 693d
000000a0: 2167 a7bd b8ce 433c 9619 973c 1c62 0c3d
000000b0: b50c 723a 1c0d 70bd a806 fcbd 348b 833d
000000c0: b723 943d a420 bdbc 6c53 6dbb 7832 c13d
000000d0: f025 a53d f142 703b 83a6 e63c 7128 cebb
000000e0: 40c6 283e e460 5ebd b0ef 08bc 0826 1ebe
000000f0: 1466 c7bd 8f31 253c 083a b63c 54d3 e6bd
00000100: 87de dabd 7ffe d5bd 69ce 033d 11f2 883d
00000110: 2d97 683d 24ac 0ebd f028 16be 89b0 8b3c
00000120: 5794 11bb e6fb 9b3d 2967 dbbd 6807 2bbe
00000130: 1652 90bc 6220 fb3d 5ef1 f9b9 f15a 8e3d
00000140: 4a9c a9bd acd5 1f3d 044e 3d3d d41f 9cbd
00000150: f4af f23c 88ce 4a3b ec20 31bd 9333 323d
00000160: 72d8 123e ad2d 09bd 7638 a73c c5ef b63b
00000170: 9962 a43c 1d87 fdbc 5bec a23c 8e9d a63b
00000180: 787b edbb 7762 d03c 63c8 953c b68e ce3c
00000190: ad3c c93c 61ef 36bb e1f0 8c3c 6672 653c
000001a0: 5b25 c1bd 15d6 a2bc 160c dd3c 5eb0 4dbe
000001b0: ca7a 18be a615 cabd dae4 95bd 36a5 b3bc
000001c0: f7d6 0c3d 8e4e ee3c e994 f0bc b6ab 38be
000001d0: 9e2c 833d ad47 803d 18e5 dc3d 31e4 223d
000001e0: fa96 933d 4484 883d 07f5 99bd c88e e43d
000001f0: 0083 d2bd 36a0 0a3e 7657 363d aab4 823c
00000200: 9366 edbd d753 f03c a194 c9bd 23d0 823d
00000210: 14c0 e23d d6bc 5c3c c4c2 52be 9697 8fbb
00000220: c9ad 6cbd 2db7 fe3d cef3 1c3d 60fd f4bb
00000230: 8422 9cbb 987e 1a3d c069 1bbe 0e53 12be
00000240: a730 1d3d 8c61 7fbd 7462 47bd ab39 00be
00000250: 1861 d6bc 2672 4fbd 63cc c8bd b0f8 393d
00000260: 76c6 223d 6213 9abd dc76 eebd fa98 6c3d
00000270: 0a17 dbbb ee60 a43d 842b 163d aa9a 0c3d
00000280: 00f7 9fbc 001b 4a3d f641 cbbc 85af 433b
00000290: 5bde 353c b128 2d3d 56ad 1f3c 11a2 173d
000002a0: b5da 45bb 931a 22bd d102 0f3e 659e c53d
000002b0: 135d d23c 9846 14be 97d8 5e3d db1b bebc
000002c0: efdf f33d 15c7 18be a6d5 9bbd 4db8 9cbd
000002d0: a852 3abe 25a7 0abd 5089 a1bb 6fa2 b8bd
000002e0: 0f40 08be bb4a 023e f2a4 413d 0b11 9f3d
000002f0: f04c a23b c1b2 c43d a2af d0bc 616c 03be
00000300: 0b29 a73c a2d7 d73c 15a3 af3c f011 cc3d
00000310: b7ac 2bbe 5d6f 2f3e 3c28 c53c 8825 16be
00000320: 61cb aabd 25c9 a0bd c4f8 013d a30a 0e3d
00000330: a30d 273d 77df 90bc 9eb9 ccbd 2a7a 67bb
00000340: 0e95 043c 57d6 4abd e6f4 213d 2995 203c
00000350: 6498 d73d 4bdc f6bd c85f 8bbb 83c3 49bd
00000360: 5c15 d8bd be8f a8bb 9a7c d63c 3901 60bd
00000370: d4bc 0a3d 0c47 df3c aa0f 983c 5c50 a73c
00000380: 3e3d 523d 3c73 c2bc ce46 acbc 2e50 b63d
00000390: 499b 6e3d 4cec a4bd 4f06 1dbe 80b7 9f39
000003a0: a8dc dabd d672 173d 31c8 47bd e633 6b3c
000003b0: 9c04 ffbd 3214 bb3d 09a5 6b3c 988c a43d
000003c0: abe5 5bba 50de 333d 39ba c03d a211 903c
000003d0: c521 8d3d a08f 0abd 4d92 a4bc 7eb2 bfbd
000003e0: 3b58 9a3c 9d7f 14bb 4f27 11bd 766b a03d
000003f0: 5c6c fb3d 1b04 cd3b fdbd 7b3c a08f c63c

action_model._discrete_distribution.branches.0.weight f4 [3, 256]
-0.056409698 0.028078118 -0.012283041 -0.02697082 0.12585267 -0.051186595 0.0011026792 -0.034029055
-0.080660395 -0.034123406 -0.043126576 0.14111763 0.035057016 -0.1365811 0.056253746 0.0024487006
0.07898827 0.038276248 0.20895328 0.02577649 0.011424197 -0.014520991 0.069121435 0.10056429
0.07108072 0.042624228 -0.011602933 -0.06286569 -0.070622094 0.09369171 0.035016943 0.053858936
-0.09120267 0.037996806 0.05958362 0.13043325 -0.03142249 -0.14501278 0.015704196 -0.10068458
-0.028698474 0.072349794 -0.02980073 -0.084514365 0.041903447 0.06785653 -0.098172404 0.047812868
0.039227203 0.03882791 -0.0591805 -0.2834507 -0.020665122 0.028428534 0.14089 0.07298426
-0.019181605 0.03217898 -0.015158659 0.011308203 -0.030296192 -0.009184896 0.027770063 -0.053252958
-0.034212977 0.011056314 -0.03504697 -0.07111041 0.056948993 -0.12942529 0.023095848 0.051708907
-0.012466474 0.026567217 0.024444986 0.0106736915 -0.029689534 0.026763681 -0.052367806 -0.009414111
-0.06541965 0.032255422 0.10314404 0.034655053 -0.070670545 -0.02579637 0.31955615 -0.07630139
0.0016063224 0.13108012 0.0022855913 0.021740641 0.08395724 -0.01688211 -0.07269194 0.04335743
0.07261799 -0.29645547 0.03191462 -0.058209226 -0.03875565 -0.13507763 0.020411823 0.04388453
-0.061459508 0.13417491 0.051679716 0.05148962 0.06017361 -0.00010455232 0.04853412 -0.0155042205
-0.0039051229 0.011724316 0.061412152 0.012978908 -0.063165575 -0.058681116 0.059484188 0.10760774
-0.059255745 0.0086904215 -0.10338782 -0.13587648 0.007899918 -0.1760948 -0.1291583 0.008054858
-0.022075905 0.045922972 0.0035181444 0.012068123 -0.062173408 0.047109853 0.0038532072 0.056605313
0.07847878 -0.13170424 -0.06746908 0.085777365 -0.009844708 -0.055357363 0.06036945 0.04336342
0.008599426 -0.07815791 -0.08478053 -0.031844556 0.11350656 -0.12347005 -0.04580371 0.051866025
-0.06002469 0.16601232 0.0124977315 0.05561506 0.06889505 -0.17303269 0.0050201467 -0.071585506
0.040708672 0.049489327 -0.0040509496 -0.0073822676 0.048113223 -0.020709107 0.048160728 0.038562644
-0.017336905 0.035745393 -0.09670735 -0.21667244 0.030379923 0.06808584 0.008983193 0.045250814
-0.080645874 0.05687599 0.110900566 -0.05527716 0.03153149 0.10881048 0.035928957 0.18247147
0.103081286 0.06593255 0.026580509 -0.13831435 0.050289657 -0.069252886 0.16471574 0.009416909
-0.06178132 -0.07489286 -0.011206618 0.039026182 -0.01252077 -0.08939572 -0.048117258 -0.041148838
-0.0742732 -0.085572086 -0.11779933 0.049078647 0.037657566 0.07084622 0.07897984 0.069725
0.04144514 0.16910385 0.015896065 -0.053126477 -0.009096552 0.027728554 0.044773713 -0.009753991
0.009258969 -0.19664831 0.016409518 0.00085639686 0.046070296 0.019072479 -0.025956618 -0.048478663
-0.047908276 -0.011720217 -0.0905992 -0.06398714 -0.03464523 0.092759565 0.06599455 0.0010082253
0.18917756 0.04214062 -0.047620248 -0.043381292 0.059979696 -0.12542406 -0.07283532 -0.20962353
0.043947134 0.06260974 -0.0011516053 0.002320294 -0.16725428 0.090575844 0.14490147 0.0004481189
-0.046306442 -0.02806739 -0.06850213 -0.20746805 -0.08258169 0.07822509 -0.024426633 0.04849846
00000000: db0d 67bd 1504 e63c cf3e 49bc e9f1 dcbc
00000010: 86df 003e 09a9 51bd c687 903a 0d62 0bbd
00000020: 4731 a5bd fcc4 0bbd 7ea5 30bd 2481 103e
00000030: f297 0f3d eadb 0bbe 546a 663d 617a 203b
00000040: 9ac4 a13d 8ec7 1c3d d9f7 553e 3829 d33c
00000050: 8e2c 3b3c 73e9 6dbc 8a8f 8d3d a7f4 cd3d
00000060: c592 913d be96 2e3d 3a1a 3ebc babf 80bd
00000070: 51a2 90bd 70e1 bf3d ed6d 0f3d 309b 5c3d
00000080: 77c8 babd 8aa2 1b3d f40d 743d 4b90 053e
00000090: deb4 00bd 3b7e 14be 16a6 803c b833 cebd
000000a0: 1019 ebbc 212c 943d a920 f4bc de15 adbd
000000b0: f3a2 2b3d 5df8 8a3d 9d0e c9bd 6dd7 433d
000000c0: b4ac 203d 040a 1f3d 4167 72bd 7320 91be
000000d0: e749 a9bc f5e2 e83c 7845 103e c678 953d
000000e0: be22 9dbc 1bce 033d 065c 78bc 0b46 393c
000000f0: b82f f8bc 3f7c 16bc 0b7e e33c c61f 5abd
00000100: e822 0cbd 8b25 353c 698d 0fbd 56a2 91bd
00000110: 5943 693d 1088 04be 8133 bd3c b8cc 533d
00000120: 2f40 4cbc 7ea3 d93c da40 c83c b5e0 2e3c
00000130: 7737 f3bc 823f db3c a07f 56bd a53d 1abc
00000140: bdfa 85bd 431e 043d 2f3d d33d 75f2 0d3d
00000150: b8bb 90bd e952 d3bc dd9c a33e e743 9cbd
00000160: 3c8b d23a de39 063e dcc9 153b 6e19 b23c
00000170: c6f1 ab3d 5a4c 8abc 83df 94bd 8f97 313d
00000180: beb8 943d 03c9 97be e8b8 023d cc6c 6ebd
00000190: 3fbe 1ebd ca51 0abe b236 a73c 44c0 333d
000001a0: f7bc 7bbd 2665 093e 1cae 533d c8e6 523d
000001b0: 9a78 763d 1943 dbb8 b7cb 463d 6a05 7ebc
000001c0: 17ed 7fbb 5817 403c 4f8b 7b3d 7ca5 543c
000001d0: f45c 81bd 9c5b 70bd b1a5 733d 7261 dc3d
000001e0: 27b6 72bd 4562 0e3c febc d3bd 3423 0bbe
000001f0: a86e 013c 3252 34be 1342 04be 86f8 033c
00000200: 87d8 b4bc ba19 3c3d ab90 663b 60b9 453c
00000210: 8ba9 7ebd 43f6 403d 1786 7c3b f9da 673d
00000220: 7cb9 a03d 7add 06be 3b2d 8abd 0bac af3d
00000230: b34b 21bc 67be 62bd f545 773d d79d 313d
00000240: 9be4 0c3c 4111 a0bd 6aa1 adbd 706f 02bd
00000250: 2176 e83d dedd fcbd ac9c 3bbd 7871 543d
00000260: 73dc 75bd 22ff 293e 49c3 4c3c 9ecc 633d
00000270: d918 8d3d 7b2f 31be 0b80 a43b 6c9b 92bd
00000280: 23be 263d 52b5 4a3d d4bd 84bb f3e6 f1bb
00000290: 5f12 453d 25a6 a9bc 2f44 453d ddf3 1d3d
000002a0: 2006 8ebc c369 123d 810e c6bd 61df 5dbe
000002b0: 51df f83c 9770 8b3d 3e2e 133c eb58 393d
000002c0: aa29 a5bd ccf6 683d d61f e33d 4e6a 62bd
000002d0: 2a27 013d 07d8 de3d 3e2a 133d cdd9 3a3e
000002e0: 481c d33d a507 873d 5ebf d93c 47a2 0dbe
000002f0: 87fc 4d3d 75d4 8dbd 3eab 283e 6149 1a3c
00000300: 690e 7dbd 6e61 99bd f69b 37bc ebd9 1f3d
00000310: ea23 4dbc 1a15 b7bd 9a16 45bd af8b 28bd
00000320: 8c1c 98bd 6b40 afbd c640 f1bd b106 493d
00000330: d23e 1a3d d317 913d 2fc0 a13d fbcb 8e3d
00000340: 61c2 293d 8f29 2d3e 7738 823c 269b 59bd
00000350: b409 15bc fe26 e33c a464 373d 34cf 1fbc
00000360: eeb2 173c 2d5e 49be 416d 863c d27f 603a
00000370: 35b4 3c3d e33d 9c3c f9a2 d4bc 9091 46bd
00000380: 783b 44bd 2706 40bc 138c b9bd b10b 83bd
00000390: 28e8 0dbd baf8 bd3d 2728 873d 6d26 843a
000003a0: c3b7 413e a59b 2c3d 730d 43bd 95b0 31bd
000003b0: 45ad 753d 2a6f 00be af2a 95bd 8da7 56be
000003c0: e901 343d 8939 803d 76f1 96ba 1310 183b
000003d0: b544 2bbe d47f b93d 0d61 143e 80f1 ea39
000003e0: d3ab 3dbd 95ed e5bc d84a 8cbd 8172 54be
000003f0: 9720 a9bd 7a34 a03d 5d1a c8bc 52a6 463d

action_model._discrete_distribution.branches.0.bias f4 [3]
-0.019540735 0.09787965 -0.13008635
00000000: e413 a0bc 2075 c83d 5b35 05be

action_model._discrete_distribution.branches.1.weight f4 [3, 256]
0.025208779 -0.0046206354 -0.0055244886 0.004749215 -0.029401373 0.10146615 0.07546787 0.025384719
-0.0014906724 0.08211953 -0.0054039015 -0.021037826 -0.019638633 0.067801125 -0.0076323235 -0.02647883
-0.06296996 0.011406957 -0.05053238 -0.0038063992 -0.017199216 0.0010471317 0.023493197 -0.024896897
-0.00033611368 -0.009179008 -0.0007327798 -0.041051168 0.066910416 -0.1764255 -0.009152953 0.0641991
0.018554378 -0.018265678 -0.027405826 -0.07994095 0.079560414 0.06528963 0.072373874 -0.046602655
-0.057839517 -0.050825473 0.0075364923 0.02461501 0.012367729 -0.023228006 -0.04965817 0.009142902
0.024227954 0.006338985 0.012009048 0.12376067 0.03281364 0.054467827 0.11907753 -0.033593293
0.111481965 -0.09847543 0.0067374413 0.014409071 0.024343507 -0.0076584173 0.0154192215 -0.010467197
0.046389654 -0.1080332 -0.008179059 -0.0015331984 0.027297368 0.049641773 0.02730848 -0.005964598
0.034545448 0.007933826 0.010649029 0.008946807 -0.030736553 -0.009737659 -0.0012742911 0.034428608
0.105964705 0.006896014 0.21764071 0.04345646 -0.035412148 0.015925758 0.0004151998 -0.04864372
0.019030541 -0.011196807 0.0003588995 -0.055997044 -0.0076991688 -0.015074459 -0.087189525 -0.016691329
-0.045947384 0.043091197 0.024794031 -0.009123705 0.022339886 0.092365265 -0.02049099 -0.004552759
0.032066293 -0.00824193 0.026533639 -0.037458334 -0.00615202 0.019265391 -0.01736969 0.047057167
-0.057352133 -0.018195083 -0.011766878 -0.017883103 0.0045085554 -0.006151836 0.1388889 0.07109095
-0.035735596 0.020523183 -0.11994007 0.13759449 0.024410069 0.18443605 0.019085197 0.019134803
0.052106474 0.02089183 0.026557254 0.024029024 -0.026446503 -0.0014988873 -0.015481672 -0.05280629
0.007518972 0.08488484 -0.022884218 -0.051399417 -0.042119883 0.029071324 -0.11915839 -0.06259247
0.047034025 -0.04491515 0.06569914 -0.036409624 -0.037176 0.002889494 -0.09874406 0.040819865
-2.077688e-05 0.0016844276 0.0875311 -0.019134365 -0.03938339 0.08723672 -0.06388727 0.044199664
-0.0047447463 0.007885771 0.00014371582 -0.036851257 0.08103338 0.04473334 -0.02190354 -0.057554018
0.0055358876 0.002503394 0.008719375 0.060900528 -0.015809994 0.03758334 0.010845212 0.0133415
0.11282143 -0.018307026 -0.042859912 -0.044528857 -0.030534526 -0.10642072 -0.010857213 -0.022387972
-0.0011010653 -0.025599321 -0.016177574 0.0864198 -0.029301373 0.05131496 0.0026840044 0.021432655
-0.009894799 -0.037154492 -0.0088431025 0.0032149195 -0.02476304 0.07036849 0.01598667 -0.04507666
0.015649509 0.03156501 -0.024197888 0.013436943 0.00940255 -0.038751088 0.050376866 -0.042783372
0.056683283 -0.26841158 -0.022610659 0.030858602 -0.12156129 -0.015303496 -0.00723934 0.10267598
0.014900027 -0.031230755 -0.016890466 -0.048213255 -0.013920458 0.019615615 0.0812373 -0.016262842
-0.06893178 0.0041443855 0.03185713 -0.039494835 0.0011492132 -0.026228264 -0.06827875 0.002917571
-0.08513735 0.036017317 0.0752092 0.0052953647 -0.17587237 -0.0028321743 -0.0585685 -0.02333021
-0.029310394 0.027565736 0.029504038 -0.006708545 0.008229456 -0.20157431 -0.13549578 -0.016582765
-0.007844752 0.023044487 0.021850215 -0.036079783 0.028401352 -0.008487336 -0.008145349 -0.005422083
00000000: a482 ce3c b368 97bb c506 b5bb 4e9f 9b3b
00000010: 26db f0bc 7ccd cf3d e68e 9a3d 9df3 cf3c
00000020: aa62 c3ba 492e a83d 3613 b1bb 8557 acbc
00000030: 33e1 a0bc 51db 8a3d 9218 fabb 22ea d8bc
00000040: 65f6 80bd 3fe4 3a3c 0afb 4ebd c874 79bb
00000050: 5fe5 8cbc e93f 893a ce74 c03c 94f4 cbbc
00000060: 6a38 b0b9 8d63 16bc 0518 40ba 4525 28bd
00000070: 5408 893d e3a8 34be 44f6 15bc d17a 833d
00000080: 5aff 973c e7a1 95bc 2f82 e0bc 15b8 a3bd
00000090: 92f0 a23d 92b6 853d c138 943d 6de2 3ebd
000000a0: 21e9 6cbd 5f2e 50bd aef4 f63b 6ba5 c93c
000000b0: 04a2 4a3c a948 bebc 5e66 4bbd 1ccc 153c
000000c0: b479 c63c 43b7 cf3b 99c1 443c 3c76 fd3d
000000d0: 9867 063d a819 5f3d ecde f33d 1f99 09bd
000000e0: a850 e43d 7cad c9bd c1c5 dc3b 0614 6c3c
000000f0: 096c c73c 76f3 fabb e7a0 7c3c 9b7e 2bbc
00000100: 1403 3e3d 8340 ddbd 7601 06bc 9af5 c8ba
00000110: bb9e df3c 2c55 4b3d 09b6 df3c ad72 c3bb
00000120: 877f 0d3d e1fc 013c 4479 2e3c a195 123c
00000130: 39cb fbbc b48a 1fbc 1d06 a7ba 0305 0d3d
00000140: 0604 d93d f5f7 e13b 35dd 5e3e 67ff 313d
00000150: 540c 11bd bc76 823c 2caf d939 a33e 47bd
00000160: f0e5 9b3c d072 37bc ad2a bc39 285d 65bd
00000170: 4f49 fcbb ddfa 76bc 6c90 b2bd 41bc 88bc
00000180: 5333 3cbd 6580 303d da1c cb3c 987b 15bc
00000190: 2302 b73c 002a bd3d b8dc a7bc 502f 95bb
000001a0: f257 033d 2909 07bc 135d d93c e96d 19bd
000001b0: e296 c9bb 74d2 9d3c e14a 8ebc 04bf 403d
000001c0: 12ea 6abd db0d 95bc ddc9 40bc 967f 92bc
000001d0: 81bc 933b 5795 c9bb e438 0e3e 2298 913d
000001e0: 7d5f 12bd 3c20 a83c 24a3 f5bd 92e5 0c3e
000001f0: a0f7 c73c cedc 3c3e 8f58 9c3c 97c0 9c3c
00000200: 996d 553d 5825 ab3c 998e d93c 84d8 c43c
00000210: 56a6 d8bc 5076 c4ba d7a6 7dbc 694b 58bd
00000220: b561 f63b 1ad8 ad3d af77 bbbc 3288 52bd
00000230: e685 2cbd fc26 ee3c 5009 f4bd 7b30 80bd
00000240: c0a6 403d f3f8 37bd 458d 863d 4222 15bd
00000250: dd45 18bd aa5d 3d3b 533a cabd bb32 273d
00000260: 034a aeb7 03c8 dc3a 8143 b33d acbf 9cbc
00000270: 7a50 21bd 2aa9 b23d 54d7 82bd b50a 353d
00000280: d179 9bbb 5233 013c 6cb2 1639 58f1 16bd
00000290: d4f4 a53d 4f3a 373d 0d6f b3bc c3bd 6bbd
000002a0: 6466 b53b fb0f 243b b6db 0e3c d572 793d
000002b0: f683 81bc fdf0 193d 1eb0 313c 4f96 5a3c
000002c0: ec0e e73d 9ef8 95bc e08d 2fbd e463 36bd
000002d0: 8b23 fabc 1bf3 d9bd 74e2 31bc fb66 b7bc
000002e0: 9f51 90ba abb5 d1bc d586 84bc ddfc b03d
000002f0: 6f09 f0bc a32f 523d 1fe6 2f3b 8993 af3c
00000300: cc1d 22bc 4f2f 18bd a9e2 10bc 66b1 523b
00000310: dcdb cabc 5b1d 903d 7af6 823c 4ea2 38bd
00000320: 6633 803c 504a 013d a63a c6bc a026 5c3c
00000330: 270d 1a3c 76b9 1ebd f957 4e3d 9e3d 2fbd
00000340: bb2c 683d 3e6d 89be fd39 b9bc 2ecb fc3c
00000350: 20f5 f8bd 84bb 7abc fc37 edbb c947 d23d
00000360: 3e1f 743c a4d7 ffbc e05d 8abc 437b 45bd
00000370: a212 64bc edb0 a03c be5f a63d a739 85bc
00000380: 1b2c 8dbd a0cd 873b 9f7c 023d 56c5 21bd
00000390: 32a1 963a a8dc d6bc bbd5 8bbd b834 3f3b
000003a0: 7e5c aebd e586 133d 4807 9a3d bd84 ad3b
000003b0: e317 34be 009c 39bb 86e5 6fbd ff1e bfbc
000003c0: 5a1c f0bc 8ad1 e13c 74b2 f13c 5bd3 dbbb
000003d0: d7d4 063c 7f69 4ebe 68bf 0abe 94d8 87bc
000003e0: 4687 00bc cbc7 bc3c 39ff b23c 65c8 13bd
000003f0: f4a9 e83c 780e 0bbc 1274 05bc bbab b1bb

action_model._discrete_distribution.branches.1.bias f4 [3]
-0.04343046 -0.008612037 -0.04506483
00000000: 23e4 31bd 8019 0dbc e695 38bd

action_model._discrete_distribution.branches.2.weight f4 [2, 256]
-0.06052462 -0.032408636 -0.031968582 0.031164363 -0.012101038 0.029762682 0.105969906 -0.09815951
0.04877131 -0.04219754 0.016777936 0.13037202 0.037572894 -0.021047393 0.055341054 -0.060907252
-0.012176157 0.07523743 -0.009867776 -0.030326018 0.046673693 -0.011453763 -0.069392115 0.053443313
-0.032319516 -0.003995607 0.14238805 0.07168449 -0.022757586 0.03482067 -0.091121756 -0.012385719
-0.009321952 0.00054926146 0.021880616 -0.034868903 -0.10893155 -0.004156717 0.091980614 0.19493733
-0.023931066 0.09051509 0.04360525 -0.033150565 0.002663201 0.017648406 -0.05607262 0.0055110184
0.030123 -0.017628696 0.008755969 0.107592456 0.09243326 0.01854856 -0.18344764 0.011528402
-0.07512553 -0.031499695 0.023116088 -0.06076375 -0.037947223 0.013746454 -0.015570486 -0.07561205
-0.058011964 -0.09341492 0.0037230796 0.0048614936 0.0026722925 -0.018605411 -0.050471608 0.035722256
-0.013859306 0.17636473 -0.086733066 -0.08496766 0.011686598 0.036040273 -0.0018612887 0.12437272
-0.021318035 0.06610505 -0.06813684 -0.022214072 0.06597611 -0.016227104 0.10530897 0.030835561
0.05382841 0.021995177 0.0044728015 0.045246404 -0.053378444 0.00041086902 0.15904321 0.068745084
0.0705852 -0.020544326 0.03959616 0.060864042 0.0071808673 0.017223582 0.058490407 0.044454657
-0.055309474 0.11933658 0.023866378 -0.056579288 -0.08030282 -0.023509223 -0.017057382 0.029164042
0.18398124 0.06712686 0.029084774 -0.10340684 0.03735841 0.079405256 -0.097401775 0.07750794
0.033012725 0.020462705 -0.055148683 -0.07958255 -0.032965206 -0.045220874 -0.023760507 -0.04096157
-0.04615578 0.030602282 -0.006657465 0.056684278 0.059398632 -0.0029963064 -0.058835056 0.027576825
-0.022624861 -0.0059045344 0.067454636 0.06251987 0.030873064 0.048608463 -0.049053915 -0.06324283
-0.06008227 -0.07680442 -0.011039462 -0.09627379 -0.102495946 -0.018871939 -0.050683953 0.05705098
0.044982783 0.020326547 -0.021675028 -0.062456507 0.03043212 -0.027092746 0.059978236 0.0088831885
0.010449614 0.031680483 -0.020872915 0.097522914 0.017795268 -0.01652982 0.03457009 0.093687356
0.07300119 0.013964494 0.11761434 -0.073894106 -0.008706091 -0.054081965 0.10448744 0.03134825
-0.0790248 -0.078976475 -0.07720947 -0.05048315 -0.08281433 0.0037675975 -0.01638275 0.019765154
-0.04955123 0.07856557 0.030672183 -0.046379305 0.024743289 -0.16215551 -0.018178394 -0.105330504
0.011772755 0.28063506 0.00073619274 0.007306215 -0.09622611 0.028362107 0.0038388493 -0.057306368
-0.058380276 -0.037091196 0.01016268 0.052265245 0.023440579 0.00041488188 -0.034588955 0.04326855
0.031128097 0.05693206 0.035072166 -0.05427248 0.067601435 -0.094579786 0.022425765 0.007363839
-0.07915323 -0.021117391 0.089956574 0.022402156 0.02808465 0.047801394 -0.06389627 0.07573143
-0.016536955 -0.0073628095 -0.097073734 0.0056614573 0.035175096 -0.03905931 -0.10561257 -0.017554801
0.005317215 -0.018570742 -0.025609093 0.024909325 -0.048931826 -0.10645035 0.18860248 -0.033700492
0.029394392 0.019416854 0.24658611 0.010196032 -0.0076754307 -0.043972366 0.1572095 -0.047873005
-0.0019449064 -0.003615809 -0.031561326 0.09006972 0.044983476 0.051257927 0.10951557 0.05877436
00000000: aae8 77bd ebbe 04bd 7df1 02bd 684c ff3c
00000010: 6f43 46bc ded0 f33c c006 d93d da07 c9bd
00000020: 6dc4 473d 54d7 2cbd e271 893c 3e80 053e
00000030: 09e6 193d 956b acbc 4dad 623d e279 79bd
00000040: 817e 47bc 1516 9a3d 74ac 21bc 456e f8bc
00000050: ea2c 3f3d 90a8 3bbc 741d 8ebd 60e7 5a3d
00000060: 7861 04bd 95ed 82bb 2cce 113e 51cf 923d
00000070: 1e6e babc 1ea0 0e3d 0b9e babd 79ed 4abc
00000080: 1abb 18bc 50fc 0f3a fa3e b33c b2d2 0ebd
00000090: 8117 dfbd 1235 88bb 5560 bc3d a79d 473e
000000a0: 150b c4bc fa5f b93d 6b9b 323d e3c8 07bd
000000b0: 1989 2e3b 6493 903c 67ac 65bd c695 b43b
000000c0: 82c4 f63c 0e6a 90bc 3275 0f3c 6f59 dc3d
000000d0: a64d bd3d 26f3 973c b3d9 3bbe 9fe1 3c3c
000000e0: 6adb 99bd d305 01bd f35d bd3c 69e3 78bd
000000f0: 8c6e 1bbd cf38 613c 5a1b 7fbc 7eda 9abd
00000100: f49d 6dbd 5250 bfbd e9fe 733b 2a4d 9f3b
00000110: a121 2f3b 606a 98bc 51bb 4ebd 8051 123d
00000120: 2512 63bc f598 343e 1ba1 b1bd 8603 aebd
00000130: 2579 3f3c f79e 133d 7cf6 f3ba 20b7 fe3d
00000140: 29a3 aebc 1662 873d 548b 8bbd 49fa b5bc
00000150: 7c1e 873d b4ee 84bc 3bac d73d dc9a fc3c
00000160: 2e7b 5c3d 3b2f b43c 9490 923b 4b54 393d
00000170: 5ba3 5abd e869 d739 39dc 223e 39ca 8c3d
00000180: f98e 903d 934c a8bc 952f 223d 934c 793d
00000190: 7b4d eb3b 7818 8d3c a393 6f3d 1616 363d
000001a0: 308c 62bd bd66 f43d 6c83 c33c afbf 67bd
000001b0: ce75 a4bd 6a96 c0bc ecbb 8bbc 6ee9 ee3c
000001c0: 9465 3c3e cf79 893d 3143 ee3c f7c6 d3bd
000001d0: 2205 193d 399f a23d 957a c7bd 7cbc 9e3d
000001e0: 5a38 073d 67a1 a73c 96e3 61bd 2dfc a2bd
000001f0: 8606 07bd 8639 39bd 65a5 c2bc 52c7 27bd
00000200: d80d 3dbd a3b1 fa3c dd26 dabb c62d 683d
00000210: fb4b 733d ae5d 44bb 07fd 70bd cbe8 e13c
00000220: c657 b9bc d37a c1bb a825 8a3d 6b0a 803d
00000230: 82e9 fc3c ab19 473d c2ec 48bd 7585 81bd
00000240: d418 76bd a34b 9dbd dcde 34bc 312b c5bd
00000250: 65e9 d1bd 5399 9abc fa99 4fbd 4aae 693d
00000260: de3f 383d dc83 a63c d48f b1bc 65d2 7fbd
00000270: c84c f93c 9bf1 ddbc bdab 753d cb8a 113c
00000280: dc34 2b3c 65c3 013d adfd aabc 18ba c73d
00000290: 62c7 913c 8c69 87bc 5e99 0d3d 28df bf3d
000002a0: a681 953d 55cb 643c c9df f03d cb55 97bd
000002b0: fea3 0ebc 0d85 5dbd 83fd d53d 0667 003d
000002c0: c1d7 a1bd 6bbe a1bd 0020 9ebd 6bc7 4ebd
000002d0: 8f9a a9bd cce9 763b 1e35 86bc 88ea a13c
000002e0: 3bf6 4abd fce6 a03d 3b44 fb3c 3af8 3dbd
000002f0: 70b2 ca3c 180c 26be dbea 94bc 85b7 d7bd
00000300: 83e2 403c 66af 8f3e 0ffd 403a f968 ef3b
00000310: 3212 c5bd a657 e83c 3495 7b3b 15ba 6abd
00000320: 2820 6fbd f0ec 17bd 5f81 263c 1514 563d
00000330: 7506 c03c 8184 d939 26ad 0dbd 5d3a 313d
00000340: 5a00 ff3c 9731 693d d5a7 0f3d d24c 5ebd
00000350: 9f72 8a3d 0cb3 c1bd 3db6 b73c 5c4c f13b
00000360: 171b a2bd 61fe acbc 273b b83d ba84 b73c
00000370: c811 e63c 65cb 433d 0cdc 82bd 1419 9b3d
00000380: 8278 87bc b943 f1bb 98ce c6bd bf83 b93b
00000390: c313 103d a8fc 1fbd 674b d8bd 16cf 8fbc
000003a0: 083c ae3b ab21 98bc 29ca d1bc a40e cc3c
000003b0: bd6c 48bd a402 dabd 0221 413e 8709 0abd
000003c0: 82cc f03c 1810 9f3c 1281 7c3e 420d 273c
000003d0: 2e82 fbbb 5e1c 34bd 87fb 203e 7c16 44bd
000003e0: 3bec feba 35f7 6cbb 7346 01bd 7976 b83d
000003f0: 9840 383d d5f3 513d b349 e03d 62bd 703d

action_model._discrete_distribution.branches.2.bias f4 [2]
0.054283403 -0.05428342
00000000: 4658 5e3d 4b58 5ebd
