Assets/Neural Network/Button Press Test/ButtonPress6.onnx (onnx, 358918 bytes, 13 tensors)

discrete_act_size_vector f4 [1, 4]
000000 00 00 40 40 00 00 40 40 00 00 00 40 00 00 00 40
       3.0 3.0 2.0 2.0

network_body._body_endoder.seq_layers.0.weight f4 [256, 71]
000000 64 97 d4 3e bf d3 87 3e 6c 1a d1 3e d7 91 d8 bd
       0.41521752 0.26528737 0.4084047 -0.10574692
000010 22 a0 1c be f0 c5 2d bc f9 21 2c be b3 bf 8d 3c
       -0.15295461 -0.010606274 -0.16809835 0.017303323
000020 45 08 69 3e e2 a6 39 3e a3 b5 28 3e da ed 39 be
       0.22757061 0.18130067 0.16475539 -0.1815714
000030 4f 68 14 3c 50 72 30 3e 76 f3 a9 3c 37 57 b5 3e
       0.009058072 0.17231107 0.020745974 0.35418102
000040 5d aa 5f be 80 3b 9c be ff 61 aa 3d ea cd be bb
       -0.21842332 -0.30514145 0.083194725 -0.0058228867
000050 cc d9 17 3e 29 93 7a 3c cd 38 f9 bb 66 0e f4 bb
       0.14829177 0.015293875 -0.007605648 -0.0074480055
000060 9b 90 36 3e 45 98 96 bd da f7 02 bd b2 5d 3e bd
       0.178286 -0.07353262 -0.03197465 -0.046476074
000070 d5 17 65 be e6 08 43 3d 42 3a 99 3e d6 6f 41 bd
       -0.22372372 0.047615908 0.2992726 -0.047225796
000080 90 6d 47 3e 82 23 cc 3c 91 ad d1 bd f0 0a 52 be
       0.19475389 0.024919275 -0.10238183 -0.20511985
000090 55 58 48 3e cf 15 03 bd b6 d4 7f bd 73 57 bb 3d
       0.19564946 -0.03200322 -0.062458716 0.09147539
0000a0 28 30 22 be ad d0 59 3e 92 76 be 3e 90 59 88 3c
       -0.15838683 0.2127101 0.37199837 0.01664427
0000b0 8e 02 38 3e 3f 85 2c 3e 50 d7 8f 3e 3a dc fa 3d
       0.17969725 0.16847704 0.28093958 0.12249036
0000c0 29 6b 9b 3c eb 9b 9e bd c2 dd 5f 3d 0c 8d 9f 3e
       0.018971996 -0.07744583 0.054654844 0.31162298
0000d0 65 6c 75 3d 53 9b a8 bd 1e 3e 24 be 62 c6 bc 3e
       0.059917826 -0.08232751 -0.16039321 0.36870104
0000e0 16 1f 0d be db e6 72 bc 49 6b a0 be fc 11 c0 bc
       -0.1378139 -0.014825548 -0.31331852 -0.023446076
0000f0 f4 41 2b 3c c1 cc db bd 2b 79 b3 be 6c 21 54 3e
       0.010452736 -0.10732413 -0.3505338 0.20715874
000100 1a 4e 0b bd f6 76 73 3d 3a f6 2b 3e 06 e5 2c 3d
       -0.03401003 0.059439622 0.16793147 0.0422106
000110 60 25 b1 3d d6 07 66 3d 50 94 b2 be b4 ba 19 3f
       0.08649707 0.056159817 -0.34878778 0.6005051
000120 10 a3 a0 be 86 0b 44 bd 30 12 06 3d 3c fa 80 be
       -0.31374407 -0.047862552 0.03273219 -0.25190914
000130 f5 13 94 3d c2 05 0a be fa 60 2b be d5 ae 4c 3d
       0.07230369 -0.13478759 -0.16736212 0.04997142
000140 a2 a3 01 3d 9d 12 05 3e b8 ec a0 be 40 09 7f 3c
       0.031650193 0.12995382 -0.31430602 0.01556617
000150 bc ea e2 3c 60 c1 e2 3d ea 49 bb 3c 2d 21 81 be
       0.02769982 0.110720396 0.022862393 -0.25220624
000160 c5 a6 cc be 48 25 90 3e f0 64 19 3e 51 80 a0 3d
       -0.39970985 0.28153443 0.14979911 0.078369744
000170 a4 79 69 bd 54 e4 5f bd 62 aa 8c bd 8b a5 d9 bd
       -0.05700077 -0.05466111 -0.068684354 -0.10627278
000180 b3 01 b0 3e 34 d0 3f 3e 46 ca a6 be 41 05 8d be
       0.34376296 0.18731767 -0.32576197 -0.2754307
000190 f4 87 7d be 5f 9b 9c 3b 4f 65 6c 3c 79 3f 35 bc
       -0.24758893 0.004779264 0.014428451 -0.011062496
0001a0 e7 5a a9 bd b8 f9 b9 bd 5c 79 a4 3e 96 12 57 3e
       -0.08269291 -0.09080833 0.3212384 0.21003184
0001b0 e2 cb 91 be 59 9c 31 be 7c 8a db 3d af 18 dd be
       -0.28475863 -0.17344798 0.10719773 -0.43182895
0001c0 89 37 99 bd 03 51 d1 3c bc 9a 79 3d 4e 09 a3 bc
       -0.074812956 0.025551325 0.06093858 -0.019901898
0001d0 a1 2d 6b 3e 7c 0c 3d 3c 5e 95 c7 3e d6 6a 1c be
       0.22966625 0.011538621 0.38981146 -0.1527513
0001e0 b3 6e 01 bd ad 92 33 be 0c 51 50 3d 88 e3 a6 3d
       -0.03159971 -0.17536421 0.050858542 0.08148867
0001f0 3f 22 13 3e d7 88 5f bd 45 d8 ce be 22 38 91 3e
       0.14368533 -0.05457386 -0.40399376 0.28363138
000200 f7 5d a6 3d e1 48 ca 3d 02 70 4a 3d 6f 5a ad be
       0.08123391 0.09877182 0.049423225 -0.33858058
000210 cc 7a 92 be 44 4b 14 bd 32 1e 00 bd 0f 73 cc 3d
       -0.28609312 -0.03620459 -0.031278796 0.09982883
000220 37 16 35 bd ac 0b 1f 3d d5 8b 7f be 02 de af bd
       -0.04421064 0.03882949 -0.24955685 -0.085872665
000230 a0 96 12 3e a2 28 cc 3d 88 ed 29 bf 18 c6 4e 3e
       0.14315271 0.099686876 -0.6637807 0.20192754
000240 74 07 8b 3e 5d 87 64 3d d7 06 8a 3d c0 a5 ed be
       0.27154124 0.055793155 0.06739586 -0.4641552
000250 d5 01 72 bd 0e 14 b2 3e ca 76 9e 3e f0 fa 40 bd
       -0.05908378 0.34780926 0.30950004 -0.047114313
000260 50 05 4c be 3b 75 6c 3d f5 f3 a0 be 25 f5 31 bd
       -0.19923902 0.057728987 -0.31436124 -0.04344668
000270 32 5d 88 3d 60 6c c8 be 09 5c 8c be 62 ad e2 3e
       0.066584006 -0.39145184 -0.27413967 0.44272906
000280 8d 3d e7 3d cb 7f 33 3e 6b 3b f7 bc e2 b2 2b 3e
       0.11291037 0.17529218 -0.0301797 0.16767457
000290 83 e8 22 bc b3 09 b4 bd 24 57 ae bd e2 b3 07 3d
       -0.00994313 -0.087909125 -0.085127145 0.033130534
0002a0 f0 db 12 be 7e 51 28 3f 0a ea 05 3d 3e dc 18 be
       -0.14341712 0.6574935 0.0326939 -0.14927766
0002b0 09 10 ae be 0f df 72 3d 02 ec 8a be 10 ac c5 bc
       -0.3399661 0.059294757 -0.27133185 -0.024129897
0002c0 14 6f 2c bd c0 0a 88 be 9b c7 27 3e 40 f5 e0 3d
       -0.04209812 -0.26570702 0.16384737 0.10984278
0002d0 fa f8 9a 3d 11 a9 5f bc d6 62 25 be 68 b2 c5 bc
       0.0756702 -0.013651148 -0.16150984 -0.024132922
0002e0 ba 89 03 bd 44 a1 f5 3d 7f 24 88 3e 0b 99 af bd
       -0.03211377 0.119936496 0.26590344 -0.085741125
0002f0 79 18 17 3d b4 2f 18 3e b2 dc 27 be 3a 9c 60 bc
       0.036888573 0.14861947 -0.16392782 -0.013709122
000300 8d 08 ea 3e 78 44 06 be c0 6c 4e 3d 4a a3 7c bd
       0.4570965 -0.13112056 0.05039668 -0.061679162
000310 1f af 22 bd ab ef 98 be 19 0a 05 3d 48 b3 18 be
       -0.03971779 -0.29870352 0.032480333 -0.1491214
000320 30 0a b7 bc 1c 84 be bd ec 2b b8 3e 86 c9 52 bd
       -0.022343725 -0.093025416 0.3597101 -0.05146172
000330 40 4b da 3c ed b0 04 be 0d 27 ee bd c6 ee af 3d
       0.02664721 -0.12958117 -0.11628542 0.08590464
000340 a2 d8 83 bd d4 ad 86 3d fb 2f c0 bc 29 8d 02 3e
       -0.06437804 0.06576124 -0.023460379 0.12749161
000350 4c e0 e6 3d a7 99 d4 3e f2 64 88 be 96 0b a7 3c
       0.1127325 0.41523477 -0.26639515 0.020391267
000360 54 01 31 bd e5 e4 7b 3d 37 c7 0b 3e b1 46 e7 3c
       -0.043214157 0.061497588 0.13650213 0.02823195
000370 b3 4e 20 be 1d 14 d9 bc d4 fa 82 3d cd dd 89 be
       -0.15655021 -0.026498849 0.06395498 -0.26927033
000380 c4 12 dc 3d 21 50 8e bc 33 8b a9 3c b3 60 2d 3c
       0.10745767 -0.017372193 0.020696258 0.010582137
000390 63 2c 57 be 27 07 a2 3e e8 e8 09 be 7b b2 9e be
       -0.21013026 0.31646082 -0.13467753 -0.30995545
0003a0 9b 4c d4 bd 2e 42 cc 3e 71 da b5 3d 53 6c e0 be
       -0.10366174 0.3989424 0.08879555 -0.43832645
0003b0 86 75 d1 be 3a c5 06 be 4f 52 0a 3d b9 f0 d0 bc
       -0.40909976 -0.13161173 0.0337699 -0.02550541
0003c0 86 9e e0 be 88 94 78 3d c4 69 04 3e 68 58 f7 3e
       -0.43870944 0.060688525 0.12930971 0.48309636
0003d0 be 4d a8 be 4b 18 11 be d2 af b0 bd 43 19 93 3d
       -0.32871813 -0.14169423 -0.08627285 0.07182553
0003e0 52 09 a6 3e b2 38 16 be d9 c0 05 3d 6a a7 08 3e
       0.32428986 -0.14670065 0.032654617 0.13345113
0003f0 17 b3 a5 3d 83 bd cd 3c 8e d6 fb bd fb e2 d9 bd
       0.08090799 0.02511478 -0.122967824 -0.10638996

network_body._body_endoder.seq_layers.0.bias f4 [256]
000000 0f 3c 51 bd 5e 23 20 bc 07 2e 6d bc 50 b5 52 bd
       -0.051082667 -0.009774057 -0.014476306 -0.051442444
000010 84 d5 89 3c 72 b7 24 bd 29 24 b1 bd b9 0e 23 3c
       0.016825445 -0.04021401 -0.08649475 0.009952241
000020 59 4b 27 bd d8 71 e3 bb 16 43 db bc f9 51 9a bd
       -0.04084334 -0.0069410615 -0.026765388 -0.07535166
000030 95 7c 3d bc 26 a7 f8 bd 72 c7 42 bd 33 26 5e bd
       -0.011565347 -0.12141256 -0.047553487 -0.05423565
000040 ed 56 58 3c aa 91 1d bd 21 ba a5 bd 80 96 0b bc
       0.0132043185 -0.038468994 -0.08092142 -0.008519769
000050 50 63 15 3c 0f 01 18 3c 08 0a 29 bd 64 3f 8c bd
       0.009117916 0.009277596 -0.041269332 -0.06848028
000060 c3 b8 a7 ba fb 40 f3 3b e8 a5 f6 bb 68 d5 02 bc
       -0.0012796152 0.0074235178 -0.007527102 -0.00798545
000070 25 5b eb 3c 8a 4c de bc 59 30 f8 bc bd 34 a8 bc
       0.028729985 -0.027136106 -0.030296491 -0.02053296
000080 05 fd 0c bd f7 ee 77 bc a6 68 b9 bc ee 15 60 bd
       -0.034420986 -0.015132657 -0.022632908 -0.054708414
000090 62 fd 97 bd 30 07 90 3d bd 5a bc bb 28 4a a0 3c
       -0.07421376 0.07032621 -0.0057481215 0.01956661
0000a0 9b ac 80 3c cd fc 59 bd 5c e8 b8 bd 26 fb 3f bb
       0.015707305 -0.053219605 -0.09028694 -0.0029293983
0000b0 01 49 bc ba b3 4e 12 3d 70 6c 7a bd 5d 93 92 bc
       -0.0014365019 0.035719585 -0.06113857 -0.017892534
0000c0 bd 9f bb 3b f8 28 be bc dc 3d c4 bc eb 1e 1b 3b
       0.0057258294 -0.023212895 -0.023955278 0.0023669552
0000d0 4e 03 8e 3d 93 fb 3e bd 52 76 23 bd cb e7 74 3c
       0.06934224 -0.04662664 -0.03990776 0.014947842
0000e0 63 60 6a bd 3a 64 69 3d c4 38 34 bd 13 93 c2 bc
       -0.057220828 0.05698035 -0.04399945 -0.023751771
0000f0 3f 72 ed bc c2 1f ec 3c 80 c0 0a bc 95 29 be bc
       -0.02898514 0.028823737 -0.008468747 -0.023213187
000100 78 1c 7e 3c fc 50 9f bd 02 d0 86 3d b7 42 28 3c
       0.015509717 -0.077791184 0.06582643 0.010269812
000110 13 6d 8d 3b fa 6d 98 bc e3 0c c7 bc ec d1 d9 bc
       0.004315981 -0.018607128 -0.024298137 -0.026589356
000120 a7 c4 75 bd 62 05 77 bb 8e c0 64 bc 9c 9f c8 bc
       -0.060001995 -0.0037692417 -0.013961924 -0.02449017
000130 c4 d8 26 39 f2 30 46 bc 83 0f b3 3c b3 1d 08 bd
       0.00015911745 -0.01209663 0.021857983 -0.03323145
000140 ab 43 96 3c 5e 0d ac 3c dc 21 14 3d 42 15 6d bd
       0.018342813 0.021002468 0.036165103 -0.0578816
000150 c9 f4 9b bc af 4f 03 bc 86 bd 29 3b b9 db 40 3b
       -0.019037621 -0.0080146035 0.0025900318 0.002942784
000160 25 5a cd 3c 38 5c c3 bd 5a 48 3c 3d a0 11 09 3a
       0.025067398 -0.09539074 0.045967437 0.00052287616
000170 3f 52 93 bc d5 4b 6d ba 08 19 00 3d 45 b5 42 bc
       -0.017983554 -0.00090521324 0.03127387 -0.011884038
000180 66 f2 19 bd 42 f2 0d bd 8a 4e e9 bc 0c d6 47 bd
       -0.037584685 -0.034654863 -0.028479833 -0.048788115
000190 7d 5f 5f bd d8 f3 46 bd 0a d2 89 bd ab 96 c0 bc
       -0.054534424 -0.04857239 -0.06729515 -0.023509344
0001a0 fa 16 e5 3c af 35 93 bb 98 ec 51 3d 59 a1 74 3d
       0.027965058 -0.0044924836 0.051251024 0.059724186
0001b0 c7 81 36 bd 2d 82 ea 3b 8d 07 d2 bc 40 ce 28 bd
       -0.04455736 0.0071566314 -0.025638366 -0.04121232
0001c0 5a 58 89 3c 3c 7c 12 3d c9 32 19 bb c2 df 99 3c
       0.016765762 0.03576301 -0.0023376218 0.018783454
0001d0 8b b2 5e bc 05 00 67 bd a4 fc 56 bd ef f8 d3 bc
       -0.013592373 -0.056396503 -0.05248703 -0.025875537
0001e0 f1 30 61 3a 4a ba d2 3d f3 6d c2 3d f5 28 a8 bc
       0.00085903617 0.10289438 0.094936274 -0.020527342
0001f0 07 01 8b bc 8f d5 d3 bc 36 83 30 bd e8 ad 27 bd
       -0.016968263 -0.025858669 -0.043093883 -0.040937334
000200 46 f2 80 3d 5b 80 92 bc 4e 6d a0 3c 60 b3 d8 bd
       0.0629621 -0.01788347 0.01958337 -0.10581088
000210 85 7f 06 bd b0 26 87 b9 5d 04 b2 bc 21 72 11 bd
       -0.032836456 -0.0002577803 -0.021730596 -0.035509232
000220 01 a2 0b bd 3d d6 9c bc f4 29 c1 3d e5 c9 15 bc
       -0.034090046 -0.019145126 0.0943183 -0.009142374
000230 88 90 a9 3c 59 04 57 bd 45 f0 81 bc 8d 36 f1 3c
       0.0206988 -0.05249438 -0.01586164 0.029444957
000240 0b ca 1f 3d 66 d7 22 3c 07 38 5c bd 7c 10 78 3d
       0.039011043 0.00993905 -0.05376437 0.060562596
000250 fe d4 a3 3d 29 4e 89 bd 50 4c 5d 3d 8b 9c f3 bb
       0.079996094 -0.06704361 0.054027855 -0.007434433
000260 f3 53 df 3b a6 77 7a bc 60 ed 72 bc 04 57 1e bd
       0.0068154274 -0.0152873155 -0.014827102 -0.038657203
000270 0e 76 c8 3c 2b e4 55 bd 2e 20 36 bd a2 61 24 3d
       0.024470355 -0.05221955 -0.044464283 0.040132172
000280 40 92 9e 3d 44 b0 b0 3c d7 3c 91 3c 67 01 2c bb
       0.07742739 0.021568425 0.017729206 -0.0026245953
000290 43 fd 4a 3c e7 f7 a5 bc fe 76 d4 3c 3b b7 79 3d
       0.012389484 -0.02025981 0.025935646 0.060965758
0002a0 e8 58 78 bd 94 eb 2a 3d 38 ae 02 3b a3 33 36 ba
       -0.060631663 0.04172857 0.0019940268 -0.00069504435
0002b0 b4 fe 20 3d a2 67 fb bc 79 ed 5a 3c 05 76 c9 3b
       0.039305404 -0.030689064 0.013362282 0.006148102
0002c0 11 c3 99 3c a5 02 ab 3c 16 f9 6e bd 26 42 b8 bc
       0.018769773 0.020875284 -0.058343016 -0.02249248
0002d0 76 0c 1f bc 28 c3 72 3d d9 a2 00 bc fd 15 1b bd
       -0.009707561 0.059268147 -0.007851326 -0.037862767
0002e0 c3 91 cb bd f3 69 26 3d e9 b0 84 3d 78 ff 63 bd
       -0.09939911 0.040628385 0.064790554 -0.055663556
0002f0 01 4d 09 3d ed d7 49 bd f4 81 9e bc db 6f 2b 3c
       0.033520702 -0.04927819 -0.019349076 0.01046368
000300 99 db 28 bc 1c b3 d4 3c 62 47 ae 3c d6 ad 8b 3c
       -0.010306262 0.025964312 0.021274272 0.017050665
000310 11 49 2d bd de 54 4f bd 21 c1 50 3d 4e ad 6f 3b
       -0.04230601 -0.050618045 0.050965432 0.0036571804
000320 ce 05 0c bd 29 ec bf 3c 9b 1b 73 bc 63 e4 7d bb
       -0.034185223 0.02342804 -0.014838125 -0.0038740865
000330 75 d6 a5 bc 12 e3 a4 3d 1c fc 36 bd 15 7f 38 bd
       -0.020243863 0.08051123 -0.044674024 -0.04504307
000340 e8 21 1a 3d 02 91 bc 3c 68 c3 e4 bc eb 5e 36 bd
       0.03762999 0.023018364 -0.027925208 -0.044524115
000350 6d bf 14 bd 08 87 aa 3b c9 79 bb 3c d6 41 23 bd
       -0.03631537 0.0052040853 0.02288522 -0.039857708
000360 78 9d a9 bd a2 3f a2 3c 40 3d 01 3d e8 a2 92 bb
       -0.08281988 0.019805733 0.031552553 -0.0044749863
000370 f5 4f 04 3d f2 7c 08 3c 14 cf c9 bc 4e ee 11 bd
       0.032302815 0.0083305705 -0.024634875 -0.035627656
000380 02 45 43 bb b9 32 8a 3d 63 d3 c3 bc e7 18 97 bb
       -0.002979577 0.06747956 -0.023904508 -0.004611123
000390 16 5d 1a bd 6c 17 ce bd ba 72 9a 3c e1 b5 b8 ba
       -0.03768643 -0.10063061 0.018853534 -0.001409229
0003a0 ab a9 3e bc ed e8 8e 3c 05 cf 34 3d 06 22 0b bd
       -0.011637132 0.017445052 0.04414274 -0.033967994
0003b0 d6 a5 1e 3c 7e 22 f6 3c 78 81 ed bd 47 8e 97 3b
       0.009683093 0.030045744 -0.1159696 0.004625115
0003c0 39 96 4c bd 0e 5b 2f bd ca 6b a4 3c 85 19 1d bc
       -0.04994795 -0.042811446 0.02007093 -0.009588604
0003d0 30 bd c2 3b 8d e6 7b bb 6f 46 1b bc c4 a0 02 3c
       0.005942963 -0.003843698 -0.009477242 0.0079729
0003e0 86 3e 2a 3c cb c5 25 3c 2a c1 a1 3c f9 87 f1 3b
       0.010390883 0.010117958 0.019745428 0.0073709455
0003f0 6e d1 9e 3c 06 f6 ea 3b 10 05 29 3c 42 9a 31 bc
       0.019386973 0.0071704416 0.010316148 -0.010840001

network_body._body_endoder.seq_layers.2.weight f4 [256, 256]
000000 5c 49 4d be e7 a5 42 bd 0b 48 a5 3c b1 d1 f5 bc
       -0.20047516 -0.047521498 0.020175954 -0.030007215
000010 23 63 e6 3d c9 9f 6d 3e df f5 a9 bd ad a6 87 bd
       0.112493776 0.23205484 -0.08298849 -0.06623588
000020 9d af 86 3e 56 3a bb bd 57 8b b5 be 3b 7c 07 be
       0.26305857 -0.09141986 -0.3545787 -0.13230984
000030 17 37 a3 be a2 ba 47 3d 8f e3 79 3d cf 1c 8f bd
       -0.31877968 0.04876197 0.061008032 -0.06987917
000040 55 3c 47 be 2f 2d 8f bd f5 40 8d be d9 97 af bc
       -0.19456609 -0.0699104 -0.2758862 -0.021434711
000050 43 d2 26 3e 0e 2f 5f 3e 92 d2 18 be 71 6f 7e 3e
       0.16291146 0.21795294 -0.14924076 0.24847199
000060 c3 c7 7d be cf b7 9d 3d 9b 91 4f 3e 9c 77 ef 3b
       -0.24783234 0.07701074 0.20270388 0.0073079597
000070 54 75 c1 3d c2 8a 25 bd e7 23 85 3d 90 91 bd 3e
       0.09446207 -0.040415533 0.065009885 0.37025118
000080 9a bc 83 3d fa 2d 1b bd 89 e7 55 be e9 50 37 be
       0.06432457 -0.037885644 -0.20889105 -0.17901959
000090 49 34 e5 3d cc 66 dd 3d e5 76 5f 3d f3 51 16 be
       0.11191613 0.108106226 0.054556746 -0.14679699
0000a0 06 30 55 3d 6a b4 88 bd 3a 2c bc 3d 80 ea 38 3d
       0.05204775 -0.06675036 0.09188123 0.04514551
0000b0 d6 e4 90 be 9b 20 ce 3c a2 fb a1 bb 22 ff a3 be
       -0.28299588 0.025162032 -0.004943327 -0.32030588
0000c0 54 57 8e 3d 83 e9 48 bd d7 c9 43 be 35 ba 30 be
       0.0695025 -0.04905082 -0.19119965 -0.17258532
0000d0 30 6b 87 bd 9e 1b d1 3c 38 ad 10 bd bc f7 71 3d
       -0.06612241 0.025525864 -0.035321444 0.05907415
0000e0 c6 b6 f6 bd 7e 41 24 3e 46 83 1d bd 59 50 50 bc
       -0.1204658 0.16040608 -0.03845527 -0.012714469
0000f0 2c 0c 82 3e 81 5e 97 bd 29 05 59 be 17 b0 8b 3b
       0.2539991 -0.07391072 -0.21193375 0.004262935
000100 35 44 ad 3e 87 9e c0 bd 2f a2 74 be c9 7d e0 bd
       0.338411 -0.09405237 -0.23889993 -0.109614916
000110 10 1d 5d 3e e8 26 27 be 83 92 73 bd 8d e3 3c 3d
       0.21593118 -0.16323435 -0.059465896 0.046115447
000120 67 fb ff bd 75 5b 63 3a f5 e1 e5 bd e2 ac ad be
       -0.12499123 0.0008672991 -0.112247385 -0.33920962
000130 2f 63 1e 3e 41 e0 93 bd 56 e8 8d 3e 3a 3a 21 bd
       0.15467523 -0.072205074 0.2771632 -0.03936217
000140 ed d1 c4 be 3b 98 b3 3b 61 35 22 3e 69 7d 98 be
       -0.3844141 0.005480794 0.15840675 -0.2978318
000150 b8 e3 2b bd 0c ac 85 3e 63 dc 9b bd 4d 11 98 3d
       -0.041965216 0.26107824 -0.07610395 0.07425175
000160 46 93 03 3e 92 af 8c 3c 8e 40 28 3e 34 3b 88 3e
       0.12849149 0.017173562 0.16430876 0.26607668
000170 b2 34 b0 bd 76 6f e3 3d b3 12 54 3c ce 59 f6 3d
       -0.08603801 0.11105244 0.012943911 0.12028848
000180 c5 40 41 3e 03 0f bb 3c 38 08 56 3c de b9 25 be
       0.18872364 0.022834307 0.013063483 -0.16184184
000190 53 02 0a bc e5 74 e5 3d 26 a4 57 3e cf e5 6b 3e
       -0.008423406 0.112039365 0.21058711 0.23036884
0001a0 58 26 c0 bd 81 0a 61 be 14 d5 84 be f0 f4 34 be
       -0.093823135 -0.21976663 -0.25943816 -0.17671561
0001b0 3f 35 42 be 84 b7 29 3e 75 9d f9 3d 83 5f ea be
       -0.18965624 0.16573912 0.12188236 -0.45775995
0001c0 fd 49 44 3e e5 38 89 3c 0e 5b 97 bd ef 86 78 bd
       0.1916885 0.016750762 -0.07390414 -0.060675558
0001d0 f7 4d 83 bd da ce 66 be e2 16 5c 3c 75 a0 18 3e
       -0.06411355 -0.22539845 0.01343319 0.1490496
0001e0 5a 97 77 bc 18 9a 66 bc dd 22 f1 be 9a 01 a1 3d
       -0.015111769 -0.014074825 -0.4709691 0.078616336
0001f0 39 1c 3d be 91 9a 4e be 42 0e b7 be 3a 93 bc 3d
       -0.18467797 -0.2017615 -0.35753065 0.09207769
000200 03 d0 af bd a0 87 c7 bd 6a 4f a9 bd 93 4b 18 be
       -0.08584597 -0.09742665 -0.082671 -0.1487258
000210 95 d4 ad bc 38 d6 18 be bd 60 3f 3d 0c 19 97 bd
       -0.021219531 -0.14925468 0.046723116 -0.07377824
000220 ab 74 5f 3e d0 33 b8 3d a4 93 c9 bd a4 93 7b be
       0.21821849 0.089942575 -0.09842613 -0.24568039
000230 0a db 2b be a0 95 31 be c9 03 41 3e 67 59 fd bc
       -0.16782776 -0.17342234 0.188491 -0.03092642
000240 11 e7 07 bc 75 7b ce bb ac 32 87 be f9 73 2b 3d
       -0.008294837 -0.0063013383 -0.26405847 0.041858647
000250 3e 63 88 bd cf 8d ba 3c 5f 9b e1 3d 5f 3b 62 3e
       -0.06659554 0.022772698 0.11015963 0.22092961
000260 92 94 27 3e d3 e4 0b bc 25 c2 cf 3d 6a c4 94 be
       0.16365269 -0.008538443 0.10144452 -0.29056102
000270 7d 4c a6 be 16 99 b0 bd 75 d8 38 3f fc 36 eb 3d
       -0.3248023 -0.08622949 0.7220529 0.11485097
000280 f8 0c 6f bd 0d d5 27 3e fb db 3c bc e1 e1 65 3d
       -0.058361977 0.16389866 -0.011527057 0.056123618
000290 78 11 25 bd f5 20 a0 3d 2b b1 02 3e ad bc cd be
       -0.040299863 0.07818786 0.12762897 -0.4018301
0002a0 49 ca 1f bd a1 65 90 be ec d9 75 3c 40 67 cd 3c
       -0.039011274 -0.28202537 0.01500557 0.025073647
0002b0 71 20 c8 bd 42 23 d3 3d fb 5f 18 bd 2a 65 6e 3d
       -0.09771813 0.10309459 -0.03720091 0.058201946
0002c0 8d ea 4d 3e 6d 2c fc 3d 5e 53 50 3e 8c 68 d1 be
       0.20109005 0.12313161 0.20344302 -0.40900075
0002d0 e5 a7 93 be e2 d3 da bd d9 9c ae 3d 0a c3 24 3d
       -0.2883903 -0.10684945 0.0852601 0.040225066
0002e0 44 52 7a be ec d3 e9 3c 27 ac 57 bd 84 69 85 bd
       -0.24445444 0.028543435 -0.05265441 -0.06514266
0002f0 b5 2f 51 be a7 a3 99 bd bf c3 3b 3e 9d 17 e8 3d
       -0.20428355 -0.07501917 0.1833639 0.11332629
000300 47 a9 3d be 96 8e 8e 3e 4e 56 91 3d b9 8e 02 3e
       -0.18521605 0.2784316 0.070965394 0.12749757
000310 e1 a3 3a be ee b5 52 3d 3c c4 35 3d e3 c1 34 be
       -0.18226577 0.051443033 0.044376597 -0.17652087
000320 a3 60 82 bb 60 ae e9 bd 0c e1 3c 3e 14 ad 4e be
       -0.003978805 -0.114102125 0.18445224 -0.20183212
000330 4b e1 a8 be 74 25 aa be 2f db 6f 3a 92 40 d0 3e
       -0.32984385 -0.332317 0.00091497874 0.40674263
000340 ce 95 15 3e bb ad 01 be 0d 56 1e bd c6 70 c6 bd
       0.14607927 -0.12663929 -0.038656283 -0.096894786
000350 9f 72 c2 3d a8 09 59 be 3e d9 dd bb b8 2a 13 3e
       0.094945185 -0.2119509 -0.006770282 0.14371765
000360 f2 3d 03 bb 78 31 65 3e f2 68 61 bd f7 cd 94 3d
       -0.0020025936 0.22382152 -0.055031724 0.07265847
000370 08 88 be be c5 8a 2c 3d 9b 98 87 be d9 1e 65 bd
       -0.3721316 0.04212453 -0.26483616 -0.05593762
000380 27 e2 94 3e e6 26 56 be f3 a9 a9 be aa f6 5c 3e
       0.2907879 -0.20913276 -0.33137473 0.2157847
000390 34 27 8b bc 75 e2 61 bd 45 4f 10 3e 73 83 c9 3d
       -0.016986467 -0.055147607 0.14092739 0.09839525
0003a0 d4 98 34 be 1c 08 03 3e 62 4e 5a be b6 a8 a6 3e
       -0.17636424 0.12796062 -0.21318963 0.3255059
0003b0 48 34 ab 3b 88 0e dc 3b 7c f1 b8 bd 51 a4 b4 bd
       0.0052247383 0.0067155994 -0.090304345 -0.08820403
0003c0 19 92 5b 3d e2 d6 4a 3e aa 22 90 bd db b3 27 be
       0.053606126 0.19808534 -0.07037862 -0.16377203
0003d0 d3 42 74 3e 1c 0c ac bd ea b1 a6 3d 09 ea c0 3d
       0.23853616 -0.08400747 0.08139403 0.09419639
0003e0 52 73 24 3e a9 c3 7e bd ea 6c c7 bd a8 0a c0 bd
       0.16059616 -0.062198315 -0.097375706 -0.093770325
0003f0 6a e2 a9 3d 17 df 52 be 70 28 bd 3d 0e 1f 5b be
       0.08295138 -0.20592915 0.092362285 -0.21398565

network_body._body_endoder.seq_layers.2.bias f4 [256]
000000 33 98 f1 39 33 a5 2c bd 71 01 19 be 30 eb 10 be
       0.000460805 -0.042149734 -0.14941956 -0.14152217
000010 62 4e 8d bb 01 83 3c bd df c7 7e bc 84 43 b4 bd
       -0.0043123225 -0.046023373 -0.015550583 -0.0880194
000020 08 1f 12 bd ed 37 37 bc 2b 9d f4 bc 1e 69 9c bc
       -0.035674125 -0.011182767 -0.0298601 -0.019093093
000030 fb 2a 99 bd 75 51 c0 bd 2b e2 48 bd 12 d9 11 be
       -0.07478901 -0.09390537 -0.049043816 -0.14242962
000040 76 a7 23 3c 36 36 8e be 5d ee 30 be 5a 5f cf 3c
       0.009988656 -0.27775735 -0.17278428 0.025314022
000050 96 74 82 be b6 d7 67 bd b1 b5 f7 3a b7 4d e4 bc
       -0.25479573 -0.056602202 0.0018898753 -0.027869089
000060 75 9a 30 be 8a 29 73 be 44 bf 9d bd 75 bb 40 be
       -0.1724642 -0.23746315 -0.07702497 -0.18821509
000070 b5 20 43 3d aa 28 35 be 69 69 55 3b 66 74 68 3c
       0.047638614 -0.17691293 0.003256405 0.014187908
000080 7f 10 33 be ff 6d 44 be fa c2 80 bd 5f 67 a4 bd
       -0.17486762 -0.19182585 -0.06287189 -0.08027529
000090 ce 65 bc bc 22 90 46 be 1e a4 80 bb bc 96 3d bc
       -0.022997763 -0.1939092 -0.0039258143 -0.011571582
0000a0 c7 dd 9b be ab dc 23 bc e1 82 8a be d9 dd 18 bd
       -0.3044264 -0.010001342 -0.27052978 -0.037320945
0000b0 18 fe f4 bd 12 8a 67 be 2c fd 1b be 2d 7d b6 bd
       -0.11962527 -0.22611263 -0.15233296 -0.08910594
0000c0 fa 64 1f be d2 d0 80 bd de ac a9 bd 67 92 e3 bd
       -0.15565863 -0.06289829 -0.08284925 -0.111119084
0000d0 5c 49 be bd fb a9 70 be 20 ef 23 bd 8b 0a 4c 3c
       -0.09291336 -0.23502342 -0.04002297 0.0124536855
0000e0 b0 57 74 bc a5 7a d7 bd 36 51 b2 bd a9 c8 8a bc
       -0.014913484 -0.105214395 -0.08706896 -0.016941385
0000f0 84 42 bc bd f7 c6 10 be b5 89 3b bd 36 ac f8 bd
       -0.09192374 -0.14138399 -0.045785625 -0.12142222
000100 d6 4b 33 be 8f 15 16 be 48 a2 82 be 52 d4 a8 bb
       -0.17509398 -0.14656661 -0.25514436 -0.0051522637
000110 32 d3 35 bd ca 76 57 be 95 0d b8 bd 1c 46 c8 bd
       -0.044390865 -0.21041408 -0.089869656 -0.09778997
000120 fa 2b 8a be 9e 53 63 3c c0 3c 5a bd 73 e5 ee bc
       -0.26986676 0.013874916 -0.053280592 -0.029162144
000130 da da 94 bd 48 41 0e be 1f 57 13 ba ab 18 16 be
       -0.07268305 -0.1389209 -0.0005620587 -0.14657848
000140 29 4f 01 be f5 34 d3 bd 73 88 cf bb dc b7 07 3d
       -0.12627853 -0.10312835 -0.0063334047 0.033134326
000150 3b d0 64 bd d6 38 90 bd 8f 4e a7 bd cc b1 15 bc
       -0.055862647 -0.070420906 -0.08169281 -0.009136628
000160 4a 54 30 be 62 10 82 bd a0 42 89 3c 90 69 03 bd
       -0.17219654 -0.06350781 0.016755402 -0.032083094
000170 7c 3b e6 3b 73 4c d5 bd 07 9a cb bd 94 f5 52 bd
       0.007026134 -0.10414972 -0.09941488 -0.051503733
000180 77 ae 6b 3d 8b c5 10 3c 48 8c c4 bb e8 81 3f bd
       0.05753943 0.00883616 -0.005998168 -0.046754748
000190 5e 57 27 be d9 26 c1 bd 01 43 23 be 6d ae 3e be
       -0.16341922 -0.09431238 -0.15943529 -0.18621226
0001a0 fd 93 28 3d 98 bd 59 be f0 45 a6 bd a6 23 19 3c
       0.041156758 -0.2126373 -0.08118808 0.009346878
0001b0 c5 3d 9d bd 5c b3 89 be 8e 32 b6 bd 12 a2 19 be
       -0.07677797 -0.26894653 -0.08896361 -0.15003231
0001c0 f8 5d 7a be ef cf 41 3c 78 8a 2e bd 06 ba 56 bc
       -0.24449909 0.01182936 -0.042612523 -0.013105875
0001d0 01 17 01 bd a8 a8 03 bd c5 7f d0 bd 7e 25 4a bd
       -0.03151608 -0.032143265 -0.1018062 -0.04935216
0001e0 3f 73 08 be 8e ae 25 bc 00 77 67 bd 78 1b 81 bc
       -0.13325213 -0.010112418 -0.05650997 -0.015760168
0001f0 1b 62 7a be 7f 3e 59 3c cf 5d 0e be 50 bd 01 3b
       -0.24451487 0.013259529 -0.13902973 0.0019796677
000200 ef 96 a3 bd c3 74 20 be 5a 06 84 bb a8 5c 8f bd
       -0.07987773 -0.15669541 -0.0040290775 -0.07000095
000210 58 d0 d6 bc e7 0a e2 bc 11 fc 40 bd 75 3b 71 bd
       -0.026222393 -0.02759309 -0.04711539 -0.058894593
000220 74 31 40 be 13 ca ac bc b4 ee 33 be 6a d7 8a bb
       -0.18768865 -0.02109245 -0.17571527 -0.004237105
000230 fa 39 de bc 96 cd 00 be 8b 12 57 be ac e5 c8 bc
       -0.027127255 -0.12578425 -0.21003167 -0.024523579
000240 97 d6 5a be 95 2b 0e bd b3 1a 42 be 24 98 3d bd
       -0.21370922 -0.03470953 -0.18955497 -0.04628767
000250 b1 01 35 bd a7 0e 57 bd 0b 23 b1 bd 63 6d fe bc
       -0.044191066 -0.052504208 -0.08649262 -0.031058019
000260 d3 6d 1a be 70 74 81 be 9b b9 5c be af 97 70 be
       -0.15080957 -0.25284147 -0.21555178 -0.23495363
000270 48 c8 71 bd ae 20 f8 bc 41 2f e3 bd d9 7d 9b bd
       -0.059028894 -0.03028902 -0.11092997 -0.07592363
000280 28 b6 86 bc f1 40 da bd 9f 0d 18 bd 35 88 40 bd
       -0.01644428 -0.10656918 -0.037122365 -0.047004897
000290 11 41 2f be 74 d4 9e bd b5 45 e0 bc a7 1f 0d be
       -0.17114665 -0.07755366 -0.027376989 -0.13781606
0002a0 e5 28 cb bb c3 6c 84 bd 89 3d 10 3d 53 09 76 39
       -0.0061999434 -0.06466057 0.035214934 0.00023463862
0002b0 39 90 3a be 0f 09 e3 bc b2 16 bb bd 5d 44 c1 bd
       -0.18219079 -0.02771428 -0.09135188 -0.094368674
0002c0 99 c0 31 be c5 bd 2a bd 73 06 f6 bd 68 f8 f4 bd
       -0.17358626 -0.041684885 -0.12012949 -0.11961442
0002d0 1e 67 93 3d 35 3a 5c bc e2 4f 8f 3b b0 0b d7 bb
       0.071974024 -0.013441612 0.0043735364 -0.0065626726
0002e0 6c c6 13 bc 1f 30 ec bd 33 4b 1b be ec 85 9c bc
       -0.009019475 -0.11532616 -0.15165405 -0.019106828
0002f0 43 f3 3a be 7e 26 ef bd 22 c8 1b bd 1f 93 13 bd
       -0.1825686 -0.11677264 -0.03803266 -0.036028977
000300 48 a6 ac 3c 42 9f 50 be 9f 86 f6 bd 61 58 82 be
       0.021075383 -0.20373252 -0.12037396 -0.25458053
000310 58 ea 07 be ae 90 79 bd 95 61 f3 bd 34 9e 02 be
       -0.13272989 -0.060928993 -0.11883847 -0.12755662
000320 cc c2 a8 3c 4c 54 fa bc ef 50 98 be 6e 4c 21 be
       0.020600699 -0.030557774 -0.29749247 -0.15751812
000330 15 e5 94 be dd d8 8f bd 5e 22 50 be 21 e7 7d bd
       -0.29081026 -0.07023785 -0.2032561 -0.061988
000340 3f 84 58 3d ac f6 b4 3d a0 25 84 bd 5f 6e f1 bc
       0.052860495 0.088361114 -0.06452489 -0.029471574
000350 27 11 83 bc 91 73 6e 3c a3 31 27 bd 1e 65 ee 3b
       -0.01599939 0.01455392 -0.04081882 0.0072752377
000360 cf a4 27 bd 8d aa cb bd 90 c4 9b 3c 6a a0 cd bd
       -0.040928658 -0.09944639 0.019014627 -0.10040362
000370 84 19 d1 bd 3e 1a bc bc a5 62 10 be af 74 da bd
       -0.10209945 -0.022961732 -0.1410013 -0.10666787
000380 4d 22 e6 bc 35 3f 90 bc 9f 8f 8f bc 6c 49 c5 bd
       -0.028092528 -0.017608264 -0.017524539 -0.09633145
000390 ff 78 4d bd f7 42 03 bd ca 28 8f be 0e e9 6c 3c
       -0.05016422 -0.032046285 -0.27960807 0.014459861
0003a0 3c e4 be 3c 74 fa df bd 18 da b0 bd 0a 7d 61 bc
       0.02330219 -0.10936442 -0.08635348 -0.013762722
0003b0 7c 29 03 bd ab 66 0c bc b9 7b 23 bd b4 f5 36 be
       -0.032021984 -0.0085694 -0.039912913 -0.17867166
0003c0 4d 8f c9 bd d7 2d 1e 3d 06 c9 2c be 8c 59 c6 3c
       -0.098417856 0.038617935 -0.1687356 0.024212621
0003d0 e9 d8 99 bd 16 53 3d bd f4 d5 69 bd 02 f7 ad bc
       -0.075120755 -0.046221815 -0.057088807 -0.021235947
0003e0 f4 f4 34 be 2f 10 a9 bd b4 b1 b3 bd 4c 6e ae 3b
       -0.17671567 -0.0825504 -0.087741286 0.005323207
0003f0 9a e0 07 be 48 1e 21 bd e7 58 7f bd f7 92 22 3d
       -0.13269272 -0.03933552 -0.062340643 0.039690938

action_model._discrete_distribution.branches.0.weight f4 [3, 256]
000000 c5 83 7e bd 89 79 ee 3d 77 05 8b bd 37 93 d8 bc
       -0.062137384 0.11644275 -0.06788152 -0.026437385
000010 6c a7 15 bd 9b bd 20 bc 03 0a 2e bd 01 da 8a bc
       -0.03653662 -0.0098108305 -0.042490017 -0.016949655
000020 d9 7b ec bc 6e f3 3b 3a 94 b7 83 bc 6e 15 66 bd
       -0.028867649 0.0007169758 -0.016078748 -0.05617278
000030 fe a8 1a bb b9 e4 42 bd df 60 61 3c 82 79 5a bc
       -0.0023599262 -0.04758141 0.013756006 -0.013334634
000040 e3 b7 e2 bc 45 7f 7f bd 30 74 26 3d ed 4c ee 3b
       -0.027675575 -0.062377233 0.04063815 0.007272354
000050 55 7f 26 bd 93 26 4c bd f9 83 ff 3c 0d b7 0a bc
       -0.040648777 -0.049841475 0.03119086 -0.008466494
000060 6f 2c 40 3e c1 88 9a bd 3c 73 18 bd b6 fc d0 bc
       0.1876695 -0.07545615 -0.03721927 -0.025511127
000070 f9 2a 4d bd 1d b2 1e bd 9f 94 f2 bc 58 5d 10 bc
       -0.05008981 -0.03874408 -0.029611884 -0.008811317
000080 25 e7 9c bc f0 85 05 3c cb 4d fd 3a 78 ea a6 bc
       -0.019153187 0.008149609 0.0019325552 -0.020375475
000090 a7 7c 24 3d db 24 36 bd 53 be af bc 21 40 fa bb
       0.04015794 -0.044468742 -0.021453058 -0.0076370393
0000a0 81 dc e3 bd a5 60 9d bc f0 13 3b bd 23 02 1e bd
       -0.11126042 -0.019211123 -0.04567331 -0.038576256
0000b0 8a ff f2 bb eb fc 70 3c 4e e5 9a bc 0c 3c 7a 3a
       -0.0074157165 0.014708738 -0.01890817 0.0009545691
0000c0 6a 5b 84 bd 0c b4 ae 3a c0 39 45 bb bd a0 d2 3c
       -0.06462748 0.0013328805 -0.0030094236 0.025711412
0000d0 40 ba 7a bd 51 6a e5 3c 78 73 a9 bd b5 62 9c bc
       -0.061212778 0.028004797 -0.08273977 -0.019090036
0000e0 9b c0 70 3b 9d 60 9d 3b ba 9a 11 3c c9 d0 ca bc
       0.0036735896 0.004802777 0.008886987 -0.02475776
0000f0 92 40 10 3c 64 cd b0 bd 77 d6 1c bd 0d 0f 6e 3c
       0.008804457 -0.08632925 -0.038290467 0.014529956
000100 bb d4 1f bd 01 3d 10 bd 76 01 99 bd 67 9c 34 bb
       -0.039021235 -0.035214428 -0.07470982 -0.0027559043
000110 5d 04 4c bd c5 69 8f bd c2 cb e3 bd fa dc 99 3d
       -0.04980885 -0.07002596 -0.11122848 0.07512851
000120 81 e2 68 bd 40 28 29 bc 23 f3 99 3b c0 5f 09 3c
       -0.056856636 -0.010324538 0.0046981736 0.008384645
000130 94 c5 f2 bb 12 60 c8 bc 86 d0 0d bc 02 c7 4a bd
       -0.007408807 -0.024459872 -0.008655673 -0.049506195
000140 90 1f 85 3b 75 46 0a bd 10 c7 c2 3a d3 49 0b be
       0.0040626004 -0.0337586 0.0014860351 -0.1360238
000150 64 5a 05 be 55 97 91 3b b9 be de 3a d4 e5 ff bc
       -0.13022763 0.004443089 0.0016994096 -0.03123752
000160 be 26 0f bd a7 a0 69 bd bf 71 cc bc f9 27 a9 bc
       -0.034949057 -0.057037976 -0.024956582 -0.020648943
000170 c4 44 66 bd e6 64 85 bd d2 26 54 bd 57 e8 04 3d
       -0.056217924 -0.065133855 -0.051794834 0.03244814
000180 37 5a 25 bd ab c5 0b 3b 89 d9 51 bd 36 93 02 bc
       -0.04036924 0.0021327536 -0.05123285 -0.007969668
000190 5d 68 9b bc 54 66 6a bd cf 18 23 bc e1 4b 68 3c
       -0.018970663 -0.057226494 -0.009954645 0.014178247
0001a0 19 98 0b 3d 7d 19 a5 bd d6 16 a1 bd e5 ec 91 bb
       0.0340806 -0.08061502 -0.07865684 -0.004453289
0001b0 14 d4 a4 3c 07 26 b2 bd 59 15 13 3d 82 ef 68 bd
       0.020120658 -0.086986594 0.03590903 -0.056869037
0001c0 c0 52 15 bd b4 fb 2c bd 92 e7 d7 bb a0 3c 87 3d
       -0.03645587 -0.04223223 -0.0065888846 0.0660336
0001d0 a7 aa 20 bd 4c 01 52 3c a6 29 f0 bb 7e 4f 41 3d
       -0.039225247 0.012817692 -0.0073291836 0.04719495
0001e0 0b 5c fd 3c a1 fb c1 3c 2d 07 0e bb 1b 99 28 3c
       0.030927679 0.023679556 -0.0021671758 0.010290409
0001f0 91 a9 98 bd 5c c1 ba ba 9b 54 05 3c c8 05 c3 3b
       -0.07454217 -0.0014248299 0.008137847 0.005951617
000200 db 40 5e bd 44 69 80 3b 13 20 a0 bc 00 cf 5e 3c
       -0.05426107 0.0039187986 -0.019546544 0.013599157
000210 f3 1e 86 bc d8 11 ed 3b 5e a7 f2 3c 1c b2 8b bd
       -0.01637218 0.007234793 0.029620823 -0.06821081
000220 2f 38 41 bc 6b 1b d5 bc bd 40 6a 3b da 74 8d 3c
       -0.01179318 -0.02601405 0.0035744153 0.017267633
000230 8a f5 a0 3d e2 ec 58 3e 65 c3 a7 bd 58 d3 66 bd
       0.07859333 0.21184114 -0.081915654 -0.056353897
000240 7a 6f 24 bd de ba e2 bc 79 f6 29 bc b4 24 0a bd
       -0.040145375 -0.027676996 -0.010373705 -0.03372641
000250 79 e7 5a bd cd 56 0e be 9c 53 f8 bc c2 af a3 3d
       -0.053443406 -0.139003 -0.030313306 0.079925075
000260 9b 23 0d bd f8 70 24 bd 8b 64 87 bd f2 34 b3 bc
       -0.034457784 -0.040146798 -0.06610974 -0.021875832
000270 36 96 12 3e 23 a1 3d 3d 65 d9 c3 bc cd bb fd bc
       0.14315113 0.04629625 -0.023907373 -0.03097334
000280 26 0d 68 3b c8 66 0e 3c 31 b6 6a bd 9e 8e ba 39
       0.0035408228 0.008691497 -0.057302658 0.00035582943
000290 8a 55 1b bb b5 41 91 3d 5e e4 1e bc 88 3a 7c bc
       -0.0023702108 0.07092611 -0.009698002 -0.015394814
0002a0 b9 d8 db 3a df 81 ce bc 81 7d a2 bd 95 91 c4 bc
       0.0016772962 -0.025208412 -0.07934094 -0.0239952
0002b0 33 86 cb 3b 85 d3 80 3c 16 2b a3 bc fa bb cb 3c
       0.006211066 0.01572586 -0.019918006 0.024869908
0002c0 ef 10 12 bc 5e ed ff 3c 95 8b 0b bc 81 97 40 bd
       -0.00891517 0.031241115 -0.008517166 -0.047019485
0002d0 62 f5 56 bc 24 dd 34 bc cf dd 81 3b c8 b2 06 3d
       -0.013120027 -0.011039052 0.003963209 0.032885343
0002e0 ae 11 81 bb a3 11 88 3d a9 9d 44 3e 50 0d 8c bd
       -0.003938875 0.06643989 0.19200768 -0.06838477
0002f0 6b 0d c0 bd 87 5b 08 3c 54 00 d1 bd a1 19 c3 ba
       -0.09377559 0.008322603 -0.10205141 -0.0014884957
000300 49 fc db bd a8 d9 8f bd ea ae a5 bd 85 af 15 3c
       -0.10741479 -0.070239365 -0.08090003 0.009136085
000310 b4 bc c1 bb 05 78 fc 3c 96 bc db ba 5f 80 20 bb
       -0.0059123877 0.030818949 -0.0016764577 -0.0024490578
000320 1a 1e fa bd 1f ad 14 bc 3b 96 4f bd 5e 1f 75 bd
       -0.12212773 -0.009074478 -0.05068038 -0.059844367
000330 20 a3 8a bd 69 41 ce 3d a3 25 03 bd f2 97 0d bd
       -0.06769395 0.1007107 -0.032018315 -0.034568734
000340 82 53 2f bd 88 01 b7 bd 4e 8a 04 bd 8e 45 bb 3d
       -0.04280425 -0.08935839 -0.03235846 0.09144126
000350 b8 ca 43 3d 4d ac df bc ea 87 f7 bc aa ca b1 3c
       0.04780075 -0.02730384 -0.030216176 0.021703083
000360 3e b1 f3 3a 22 a5 d7 bc ee 38 dc 3b 45 f2 05 bd
       0.0018592251 -0.026323859 0.0067206537 -0.03270175
000370 0a 92 2e bc 94 c1 d3 bc 1a f6 1b bd 0a f6 d7 3c
       -0.010654936 -0.025849141 -0.038076498 0.026362438
000380 42 cf ae bd 2e 40 f0 bc 57 cc 58 bb 43 dc 07 3c
       -0.08535625 -0.029327478 -0.003308078 0.008292261
000390 25 75 54 bd 8a d6 99 3b b0 23 8f bd 90 1c 27 3c
       -0.05186953 0.0046947645 -0.06989229 0.010199681
0003a0 d3 29 92 bc c3 9f 9f bd 56 24 9b bd 1a 48 f1 bc
       -0.017842209 -0.07794144 -0.0757529 -0.029453326
0003b0 30 29 a0 bc ab ed f6 bc 3a 46 d3 3d 37 c2 2e bd
       -0.01955089 -0.030142626 0.10316129 -0.042665686
0003c0 db bf 3b 3d 1d cd 92 bc 04 06 b5 3d 5c cc 87 3a
       0.045837265 -0.017920071 0.08839038 0.0010360586
0003d0 06 8a 9c bc 3f 22 98 3c 95 d4 47 bd 91 e9 c4 bc
       -0.019108783 0.018571017 -0.04878672 -0.024037154
0003e0 fd 12 fd bd f3 3d 1d 3c 5e fa 97 3b 2b 23 0a bc
       -0.12357137 0.009597289 0.0046380004 -0.008431236
0003f0 b7 06 52 bc 0e 68 a4 3c e1 fd 09 bd ec 7e c8 3c
       -0.012818984 0.020069148 -0.033689383 0.024474584

action_model._discrete_distribution.branches.0.bias f4 [3]
000000 8b d6 ef 3d 29 4a 75 3d 31 75 32 be
       0.11710843 0.059885178 -0.17427517

action_model._discrete_distribution.branches.1.weight f4 [3, 256]
000000 d6 c6 8c 3b 39 11 70 bd 47 8b 86 3c 5f d8 22 3d
       0.004296164 -0.058610175 0.016423834 0.03975713
000010 1a 68 a7 bc 6d ea e6 bc 6e ff 20 bc 24 4f 88 bc
       -0.020435382 -0.028187955 -0.009826524 -0.0166393
000020 fc 81 ad 3c 8e 0e 05 3c 41 28 b0 3c 20 84 a2 3d
       0.021180145 0.008121146 0.02150357 0.07935357
000030 58 62 a4 bc 84 f2 f2 3c 1a c2 9a 3c 8c 41 ec bd
       -0.020066425 0.029656656 0.018891383 -0.115359396
000040 f0 a2 4f 3c f5 21 a9 3c fd 8c 8d bd 63 98 06 3c
       0.012673125 0.020646075 -0.06911657 0.008215043
000050 7d 7b 81 3c c1 41 2b bd 02 ca 03 bd b9 6d ac 3c
       0.015805954 -0.041810755 -0.03217507 0.021048414
000060 97 fa 6d bd d3 69 2a 3d e2 f4 b0 3b 3c c7 80 bc
       -0.05810031 0.041604828 0.005400286 -0.015720002
000070 3d fc 12 3d 76 79 d1 3c 43 55 7f 3d cc c5 c5 3c
       0.035885084 0.025570612 0.06233717 0.024142168
000080 5d 40 a3 3b 2f 65 28 bc 1f 19 4f bc 71 44 24 bd
       0.004982038 -0.01027803 -0.012640267 -0.040104333
000090 80 3a 3f bb 4b 78 bc bd f9 4f 42 3b ea 5e f9 3c
       -0.0029179156 -0.092026316 0.0029649718 0.030440766
0000a0 3e 3c 4f 3b 96 ce 57 bd 34 dd 0b 3d 0d 86 63 3b
       0.00316216 -0.05268725 0.034146503 0.0034717352
0000b0 ec 69 c5 3d f6 fb bf bc c6 76 e9 bc 66 8e db 3c
       0.096393436 -0.023435574 -0.028499018 0.0268013
0000c0 6b fb a7 3c 23 13 5b 3d c7 c3 e2 3c 8d 14 6c bc
       0.020505628 0.053485047 0.027681245 -0.014409197
0000d0 f8 6c 23 3d 68 8a f0 3b 21 db ac 3b a5 7a 2f 3d
       0.039898843 0.007340718 0.0052751456 0.042841572
0000e0 e2 a4 88 bd f5 bd 11 bd aa be a0 3d 95 46 14 3c
       -0.06672074 -0.035581548 0.07848866 0.009050031
0000f0 df 69 44 3b 7d 9e aa 3c 45 7f 24 3c 10 20 19 bb
       0.002997033 0.020827526 0.010040109 -0.0023365058
000100 47 ec 5b 3c 69 e7 d5 bc 29 fb 03 bd 6d e4 a9 3c
       0.013423032 -0.026111322 -0.032221947 0.020738805
000110 f0 57 f0 ba bc cf 04 3d 1e 28 38 3d cd 78 ee bc
       -0.0018336754 0.032424673 0.044960134 -0.029110337
000120 75 ab 40 3d 8f e2 5b 3c fa ee f2 bd 89 ed 6e bc
       0.047038514 0.013420715 -0.118619874 -0.014583
000130 9d ae 47 3d d9 04 95 3d 14 b0 32 bb 3a 31 f1 3c
       0.04875051 0.07276315 -0.0027265595 0.029442418
000140 0f 4d da 3c 5e f2 34 3d ae b5 36 3d d7 b5 13 3d
       0.026648073 0.04417645 0.044606857 0.036062088
000150 17 34 56 3d bd d0 9e 3b 8b 56 b8 bb cb 8c f8 3c
       0.05229577 0.004846661 -0.005625551 0.030340573
000160 2a 90 79 3c 73 95 b9 ba 3d b6 e3 3b 94 49 a1 3c
       0.015232125 -0.0014158919 0.0069492147 0.019688405
000170 4f d4 14 3d f0 0e f6 3c 36 0a 60 bd 3d a5 52 bb
       0.036335286 0.03003642 -0.054697238 -0.0032141947
000180 cd 9b 58 bd 9f 24 ab 3c 9a ae 0f bb 3a a8 32 3d
       -0.05288296 0.020891486 -0.002192414 0.043617465
000190 28 3d 30 bd 23 05 81 3d af 7d 7e bc ea 51 7e bd
       -0.043027073 0.06299808 -0.015532895 -0.062089838
0001a0 e7 e3 5d 3c bd 9d 92 3b 2b 76 0a be 97 0f 48 3c
       0.013543106 0.0044743703 -0.1352164 0.012210748
0001b0 af b4 5f bd 46 45 92 3c c5 63 41 be 38 53 64 3d
       -0.054615673 0.017855298 -0.18885715 0.055743426
0001c0 95 3c 4c 3d 99 bf 15 3d d9 8b 1c 3d 20 5e c3 3c
       0.049862463 0.036559675 0.038219307 0.023848593
0001d0 49 48 05 bd 39 56 86 3d 41 e3 ee bc 37 7a aa bc
       -0.03253964 0.065594144 -0.029161097 -0.02081023
0001e0 33 59 ee 3c d7 59 25 3d 95 66 b0 3c 76 dc af bc
       0.029095268 0.04036888 0.02153329 -0.021467429
0001f0 b0 07 1c 3d e6 a8 ca bc bf e1 cd bb 85 1a 97 ba
       0.03809327 -0.02473874 -0.0062830145 -0.0011528289
000200 75 30 33 3d 13 5d 77 38 b0 41 a2 3c 60 7b a6 bc
       0.043747384 5.897607e-05 0.019806713 -0.020322502
000210 40 0c 93 3c a4 1f 5b 3c 5a a4 11 be 46 2f 28 3c
       0.017950177 0.013374243 -0.14222851 0.010265177
000220 09 19 d2 3c 74 40 34 3d b8 84 61 3d a7 6a fe 39
       0.025646703 0.04400678 0.05505821 0.00048526117
000230 e3 0e 11 3d b6 60 c5 bd 93 bc a7 3c 49 60 05 3c
       0.035414588 -0.09637587 0.020475661 0.008140632
000240 2d c7 b4 3d d8 93 f3 3a 9d df d7 bd 70 2d 26 3b
       0.08827052 0.001858349 -0.10540698 0.0025356673
000250 1f 74 29 bd 7e 96 01 bd 9a 1a 48 bd 63 6e f2 bc
       -0.041370507 -0.03163766 -0.048853494 -0.029593652
000260 da d6 53 3a 32 78 13 bc 09 9e 4e bc ad 2a a9 3c
       0.00080810266 -0.009000825 -0.012610921 0.020650232
000270 48 7d ed bb 1e 39 5b 3d a8 10 a8 3b 24 eb 3b 3d
       -0.0072476007 0.053521268 0.0051289387 0.045878544
000280 3d ca 42 3c 54 1d 6a 3d c9 a3 4b bd 95 16 b7 3c
       0.011889038 0.057156876 -0.049716745 0.022349635
000290 55 b0 f8 3c 9c f8 8d bc 33 bb 24 3c 2c 34 04 3d
       0.03035752 -0.01733046 0.010054397 0.032276317
0002a0 80 60 5e b6 54 84 d9 ba 68 0c 1d 3d c3 29 0c 3d
       -3.3136748e-06 -0.0016595223 0.03834191 0.034219515
0002b0 c7 94 d5 bc 48 ad 03 3c c0 df 41 3d b4 db 19 3d
       -0.02607192 0.008036919 0.047332525 0.03756304
0002c0 74 3e 80 3c de 1d 44 3d 75 4f ed 3c bb f3 84 bb
       0.01565478 0.047880046 0.028968552 -0.0040573752
0002d0 91 41 be 3d a0 08 8a 3c f6 9c 69 3c cc b0 5f 3d
       0.092898495 0.016849816 0.014258614 0.054611966
0002e0 de b6 9d bc b3 44 bc bd d4 1b bb bd 7a b3 e3 bd
       -0.019252237 -0.09192791 -0.09136167 -0.11118217
0002f0 c7 06 48 bd 4a cb 81 bd b8 72 bf 3d 01 d7 56 3d
       -0.04883459 -0.063376024 0.09348053 0.052451137
000300 29 72 2f 3e 45 41 6a 3d 44 98 87 bd d3 93 c1 3c
       0.17133392 0.057191152 -0.06620839 0.023630058
000310 ce b9 22 3d 72 4c ab bb 5f 2c 3e bc 86 df 3e 3c
       0.03972798 -0.005227619 -0.011607259 0.011649972
000320 7f 42 91 3d 3a 24 e9 bd 31 97 8b 3d 08 0e bb 3d
       0.07092761 -0.11383863 0.06815947 0.091335356
000330 ae 14 b6 3c 06 7d 9f bd c7 01 65 3d 9c d6 4e bc
       0.022226658 -0.07787518 0.055909898 -0.012624409
000340 cf 5a 80 bd a8 f8 8d 3d 27 17 e6 3c 21 f2 5f bb
       -0.0626732 0.06932193 0.028087212 -0.003417142
000350 43 2b 27 3d 2e d7 26 39 bb 0c e8 3b 55 22 01 3d
       0.040812742 0.00015911154 0.0070815957 0.031526882
000360 6a 53 c6 3d 24 46 dd bd 36 7b 9b bc 83 8a bb 3c
       0.09683879 -0.10804394 -0.01897965 0.022893196
000370 55 ba 58 3d 8e 7b bd bc 21 a3 df bc a2 78 89 bb
       0.052912075 -0.023130205 -0.027299466 -0.0041952888
000380 39 49 2a 3d 93 26 15 3d 71 38 31 bc 0a 59 8b 3c
       0.041573737 0.03641374 -0.010816679 0.01701023
000390 3f c3 cf bd 12 1e 9f bc a7 2e ff 3c 5f 44 86 bc
       -0.10144662 -0.019423518 0.031150175 -0.016390024
0003a0 bc 9b 63 3c e1 a3 02 3c c0 a3 e6 bd e8 5e 67 3d
       0.01389211 0.007973642 -0.112617016 0.056486994
0003b0 c8 8f 8a 3c 45 97 28 3d 92 c9 9d bc f6 b0 58 3d
       0.016914263 0.041159887 -0.019261155 0.052903138
0003c0 1d 78 bb 3c 8a 5f 1b 3d 79 5e 30 bd 14 f2 af bc
       0.022884423 0.03793291 -0.043058846 -0.021477737
0003d0 e8 cd 7b 3d 27 2d 8f 3c ed 4f 71 3c 46 76 c6 bc
       0.061475664 0.017477585 0.014728528 -0.024226319
0003e0 39 a7 70 bc ff 51 98 3b e9 90 2a 3d 21 6c b6 bc
       -0.0146883065 0.0046484466 0.041642103 -0.022268357
0003f0 c8 71 5b 3d e3 55 94 3c 10 ee b0 bc 40 27 04 bd
       0.053575307 0.01810736 -0.021597892 -0.032263994

action_model._discrete_distribution.branches.1.bias f4 [3]
000000 f7 5e 63 3b 82 17 17 bd 86 04 5a 3d
       0.0034694055 -0.036887653 0.05322697

action_model._discrete_distribution.branches.2.weight f4 [2, 256]
000000 df 65 08 bd e3 2a d7 bd 9c a9 83 bc b7 4f 27 be
       -0.033300277 -0.10506227 -0.016072087 -0.16339003
000010 ec a9 14 3e 6c 98 08 bb 3d 8f 8c 3c 39 61 3e bd
       0.14517945 -0.0020842804 0.017158145 -0.046479438
000020 45 26 ce ba 72 73 dc 3b 38 28 23 3c 47 14 d8 3c
       -0.0015727958 0.0067276293 0.009958319 0.026376856
000030 37 86 51 3c bf 95 ef ba b0 81 67 bb 38 14 b8 bb
       0.012788347 -0.0018278881 -0.0035325103 -0.0056176446
000040 27 18 0a 3c a6 73 be bd 5d da e4 bb c0 86 7f bd
       0.00842861 -0.09299402 -0.0069840387 -0.062384367
000050 2b 20 49 3a 28 58 83 3c d1 cb 44 ba 33 f4 13 bb
       0.0007672335 0.016033247 -0.00075071777 -0.0022575974
000060 a4 fb 07 be 20 71 e3 bd 0f be f9 bc 59 bf ea bd
       -0.13279587 -0.11105561 -0.030486135 -0.11462278
000070 f1 3c 52 3e d2 e6 b5 3a 53 18 c0 bc a9 9e 49 3c
       0.2053106 0.0013877994 -0.023449099 0.012305894
000080 bd 8c 71 bd e7 e1 d0 bc 21 f3 2a bc df dd 2d bd
       -0.05897211 -0.025498344 -0.010433943 -0.04244792
000090 fe 2e 25 bd 9a b8 f0 bc d6 a2 d0 3b 8c f6 a6 bb
       -0.04032802 -0.0293849 0.006367068 -0.0050953086
0000a0 e6 41 ec bd ee c0 62 3d f5 9c 25 bd 77 26 40 bb
       -0.11536007 0.055359773 -0.04043289 -0.0029319802
0000b0 61 2f a8 bc a3 53 12 bc 74 b8 9a bc 99 be 47 bc
       -0.020530405 -0.008931073 -0.018886782 -0.012191438
0000c0 29 96 78 3b f7 4e cb 3b 2a c1 a1 3b b4 25 6a bc
       0.00379313 0.0062044817 0.004936357 -0.014291216
0000d0 ed 13 7f 3d 8c 2d b4 3b 70 bc 96 3b c3 da 13 3c
       0.062274862 0.0054985937 0.0046001 0.009024325
0000e0 5e 73 82 bb 68 c5 26 3c ef 76 6a bc 6e e5 ea 3d
       -0.003981038 0.010178901 -0.014310583 0.114695415
0000f0 bb eb b9 3b ae 47 02 3d 7a 2a 5d bd ec 82 39 3d
       0.005673853 0.03180664 -0.053995587 0.045290872
000100 23 35 be bd fb 84 3b bd bc 9d 09 be 60 87 41 bc
       -0.09287479 -0.045781117 -0.13439077 -0.011812061
000110 fc a4 c9 bc 3c 27 28 be 1c 73 b4 bb 2c 7b 67 3e
       -0.024614803 -0.16421217 -0.005506886 0.2260558
000120 00 59 b3 bd e8 1b b6 bc 22 fd df 3c 46 7b 1d bb
       -0.0875721 -0.022230104 0.027342383 -0.0024029776
000130 4a f7 35 3e 7a 93 99 bc 01 86 ae bc cd 97 94 bc
       0.17770115 -0.01874708 -0.021304132 -0.01813879
000140 2d 8b ba 3b 89 af da bb 33 f1 be bc 3a 4b f4 3c
       0.0056928606 -0.0066737575 -0.023308372 0.029821027
000150 42 74 60 3d 77 56 63 bc 8d 7e 75 3c c5 9a 92 3b
       0.054798372 -0.013875595 0.014983785 0.0044740164
000160 f9 7a 87 3c f6 57 c4 bc c4 69 e9 3b 5f 60 43 3c
       0.01653813 -0.023967724 0.007123204 0.011924832
000170 31 c9 f6 3c bc 89 93 bc 74 e5 9f 3c 04 9e 19 3c
       0.030125232 -0.018010013 0.019518591 0.009376053
000180 45 36 f5 3d e0 e9 ca 3b 70 40 c6 b9 5a 49 cc 3c
       0.11973242 0.006192431 -0.00037813513 0.02493732
000190 4b 0e 19 3d 3e 78 f8 bc ff 08 0d 3c 62 77 32 3d
       0.037367146 -0.030330773 0.008608102 0.043570884
0001a0 85 a0 55 bb 6a 67 1c be 00 12 e8 bc f3 cd f9 bc
       -0.0032596898 -0.15273824 -0.028328896 -0.030493712
0001b0 19 a7 79 bd 90 52 57 bd f3 69 8f 3c dc 44 15 be
       -0.060950372 -0.052568972 0.017506575 -0.14577049
0001c0 28 a7 5a bd b5 3e fe bb 7b 10 e0 ba bc 99 ce 3b
       -0.05338207 -0.00775894 -0.0017094755 0.0063049477
0001d0 49 4b 9f bc 56 b4 e3 bb f8 5f 18 bd 8b 44 93 3c
       -0.019445078 -0.006948988 -0.037200898 0.01797702
0001e0 91 c1 69 3b 9e c9 f7 bc 8d ca ef bc 07 01 6a bc
       0.0035668353 -0.030247506 -0.029271388 -0.0142824715
0001f0 32 2e a0 bd 5a bd df bc 30 47 f1 bc cb f5 87 3c
       -0.07821311 -0.02731197 -0.02945289 0.016596695
000200 c2 4b b9 bc b1 bd 04 3c 9a df 6d bc b7 e8 90 bd
       -0.022619132 0.008101867 -0.014518643 -0.07075637
000210 02 23 63 3c 13 f4 9d 38 9f 5a a0 3d a1 4b 92 bc
       0.013863327 7.531806e-05 0.078297846 -0.017858328
000220 2b 92 d4 bd f9 97 96 bd 3c 18 c2 bd 9f 8b 87 bc
       -0.10379442 -0.07353205 -0.094772786 -0.016546069
000230 e4 2b b3 3d 51 9c f7 bd d0 9a 87 bd cf 91 fc 3a
       0.08748606 -0.12090362 -0.06621325 0.0019269529
000240 57 02 51 bd 3b e8 c4 bc 01 c3 6b 3d 08 bd f5 bb
       -0.051027622 -0.024036517 0.057559017 -0.007499341
000250 4a 36 37 3c 55 82 6b 3d c5 8e 75 3e 7a d7 41 bc
       0.011182377 0.05749734 0.23980244 -0.011831159
000260 c9 ad 78 3d ad 3b 9d bc 1c 29 66 bd 68 16 73 bd
       0.06071261 -0.019193495 -0.05619155 -0.05934754
000270 c5 22 98 bd fd 08 15 3e a6 ab a7 bc 5a 3f 01 bd
       -0.07428507 0.1455421 -0.02046759 -0.031554557
000280 be 2b 3f 3c 03 76 b8 bc 6a 35 d4 3c 5a cb 69 bc
       0.011668144 -0.02251721 0.025904376 -0.014269674
000290 38 04 98 bd 2c fe b6 bc e9 80 d3 39 2e 0a 37 bc
       -0.0742268 -0.022337995 0.00040341102 -0.011171861
0002a0 c4 84 9b bb 00 0b 20 bd 8d 55 82 3e 2f 36 2f 3a
       -0.0047460515 -0.03907299 0.25455895 0.0006683794
0002b0 84 f9 5f 3b fc a0 ac 3c 2b 6d b0 bc f8 3a cb 3d
       0.0034175823 0.021072857 -0.02153643 0.09923357
0002c0 95 10 2f bd 4b 67 1d bc c7 3c ba bc 1c 1f c1 bd
       -0.042740423 -0.0096071465 -0.022734059 -0.09429762
0002d0 c8 32 0e 3e 50 76 da 3b 6e 90 5b 3b 8c d6 00 3c
       0.13886559 0.006666936 0.0033502835 0.007863652
0002e0 6c a7 b7 bc 93 9d bd bd 9b 93 0d be 61 d3 d1 3b
       -0.0224187 -0.092585705 -0.13825838 0.006403372
0002f0 6a 8c 81 b9 22 a9 c9 3b fa 9c f4 3c 20 96 94 bc
       -0.00024709414 0.0061541954 0.029860009 -0.018137991
000300 ca 8e 14 3e 53 16 f5 3a 1e ba 0d 3c 6f 4d a8 bc
       0.14507595 0.001869867 0.008650331 -0.020544736
000310 cb 2e 93 bd 44 86 36 bc 0d f1 e1 bd 8e 4a 3b 3c
       -0.071866594 -0.01114041 -0.11032305 0.011431349
000320 dc c5 64 bb 26 27 6f 3d af 39 99 bd a8 5a 68 3d
       -0.0034907972 0.058386944 -0.074817054 0.05672708
000330 e0 a8 4c bd 49 ad f7 3c 94 fc a8 bc 10 51 82 bb
       -0.04996574 0.030233996 -0.020628251 -0.0039769486
000340 7c 2f c1 3d 27 d4 05 3e b3 e7 ff bc 34 e6 7d 3c
       0.09432885 0.13069211 -0.031238412 0.015496779
000350 d3 8b 97 bc 54 97 38 bc 3c ed 09 bd bf fe 97 bc
       -0.01849929 -0.011266548 -0.03367351 -0.01855409
000360 c6 26 ed bc 31 8d 18 3d a5 89 34 3d 18 08 09 3d
       -0.028949153 0.037244026 0.04407658 0.033454984
000370 79 ed 01 3c ca 20 51 bc a5 39 f5 bd 6a 0c bb bd
       0.007930153 -0.012764165 -0.119738854 -0.09133227
000380 2c 86 66 3d 98 a9 35 3c 27 8d 79 bc 8c 79 d7 b8
       0.0562803 0.011087798 -0.015231407 -0.00010274639
000390 d1 23 90 3c 1c 7c d4 3a 73 96 d3 bd 3c fa 54 ba
       0.017595204 0.0016211304 -0.1033143 -0.0008124446
0003a0 06 fe 54 3a bd 11 ab bc 61 93 c2 3b 82 73 7a 3d
       0.00081250106 -0.020882482 0.005937979 0.061145313
0003b0 b7 02 5a 3c a9 29 41 bc cb e1 de 3c 19 15 7f bd
       0.013306311 -0.011789718 0.027207276 -0.06227598
0003c0 a6 ed 8b bd 51 84 5a 3c 9c ce f1 bd a4 7a a5 3d
       -0.06832437 0.013337211 -0.11806986 0.080800325
0003d0 29 d8 90 3b 99 d7 35 3d c7 55 4d bd 6c 17 77 bd
       0.0044202995 0.044395063 -0.05013063 -0.06032507
0003e0 94 81 87 bd da 61 70 bc ae d2 e4 3c af 74 c6 bb
       -0.06616512 -0.014671767 0.027932491 -0.0060563902
0003f0 83 2a 2e 3d c2 c4 6e bc a9 ca 3f bd ac a4 39 3d
       0.04252101 -0.014573278 -0.04682413 0.04532306

action_model._discrete_distribution.branches.2.bias f4 [2]
000000 83 41 6f 3e 6b 41 6f be
       0.23364834 -0.23364799
