Assets/Neural Network/Button Press Test/ButtonPress2.onnx (onnx, 358918 bytes, 13 tensors)

discrete_act_size_vector f4 [1, 4]
000000 00 00 40 40 00 00 40 40 00 00 00 40 00 00 00 40
       3.0 3.0 2.0 2.0

network_body._body_endoder.seq_layers.0.weight f4 [256, 71]
000000 09 78 99 3c 31 8e 95 3e 11 a6 54 3e 0b 72 4c bd
       0.018733995 0.29210046 0.20766474 -0.049913447
000010 90 2d 09 be d4 0d e5 bd 20 54 2d 3d 62 68 5b 3d
       -0.13396287 -0.11184278 0.042316556 0.053566344
000020 95 cd 04 3e 2d 62 d5 3d 49 b4 95 3d 1f bd 0b be
       0.12969048 0.10419116 0.07309777 -0.13646363
000030 e2 2e 2a be fa d8 3a 3e 89 bf 04 3d 56 0c b5 3d
       -0.16619447 0.18246832 0.032409225 0.088402435
000040 49 b8 13 be 36 c6 2b be 50 8e b4 3d f9 ed d7 bc
       -0.14425768 -0.1677483 0.088162065 -0.026358591
000050 ba a2 0d be d9 8d 85 3d 2f de 16 bc 08 46 38 3d
       -0.13831607 0.06521196 -0.009208246 0.044988662
000060 2a 33 6d 3e 3e 67 13 be aa 2d 79 bd 00 9f ea 3d
       0.23164049 -0.14394853 -0.060834564 0.11456108
000070 1e b5 64 be c0 c9 f0 3c 08 53 5c 3d d5 0b 9e 3d
       -0.22334716 0.029393077 0.053790122 0.077171005
000080 79 db fb bb 00 d9 0d 3d a1 d2 b1 bd 17 99 4e bd
       -0.0076860753 0.034630775 -0.086827524 -0.050438967
000090 35 34 26 3e c8 9e 3a 3d e3 6e 3a bd c9 b4 c5 3d
       0.16230853 0.04556158 -0.045515906 0.09653623
0000a0 6b 6a bf bd fe 4f d6 3d d5 94 16 3e 86 c4 80 3d
       -0.093464695 0.10464476 0.14705212 0.06287484
0000b0 b7 37 5e 3e 37 68 f3 bc 6c 4a 1a 3e b0 f8 83 3e
       0.21700941 -0.02971278 0.15067452 0.2577567
0000c0 d9 10 b0 3d 26 16 15 3b 5e 32 16 be cb 71 39 3e
       0.085969634 0.0022748797 -0.14667651 0.18109815
0000d0 ed 08 03 3d e1 d2 38 bc a2 44 cd bd bb fa 02 3e
       0.031990934 -0.011280746 -0.10022856 0.12790959
0000e0 b6 79 85 be 4f e4 65 3d 6b 14 7d be 59 88 42 3d
       -0.2606942 0.056125935 -0.2471482 0.047493313
0000f0 0e 76 4e 3d 8c 94 74 bd 5d a5 13 be e9 d4 55 3e
       0.050405554 -0.059711978 -0.1441855 0.20882
000100 ce 45 d1 bc 9c 9b 83 bd e9 1f 0e 3e 96 68 1b 3e
       -0.02554598 -0.064261645 0.1387936 0.15176615
000110 2a a9 24 3e b5 b9 83 3d f9 85 1e be 8d 0d 8f 3e
       0.16080156 0.06431905 -0.15480794 0.27940026
000120 e1 0f 0d be f0 17 01 be 2d 54 53 3d 16 1a 66 be
       -0.13775589 -0.12606788 0.05159395 -0.22470888
000130 06 85 c3 bd e2 c9 72 3d 62 b9 f1 bc 0c 08 d7 3a
       -0.095468566 0.05927456 -0.029507343 0.0016405596
000140 86 c8 be 3a ba 73 1c 3e 9f a8 7f be 9d 0b 9a bd
       0.001455561 0.15278521 -0.24966668 -0.07521746
000150 86 e5 fb 3c e3 b5 10 3e 2b d1 51 3d 9e d4 da bc
       0.030749094 0.14131884 0.05122487 -0.026712712
000160 81 69 17 bd db e3 1e 3e 3d 43 35 3d 5d d6 a8 bc
       -0.03696585 0.15516607 0.044253577 -0.020610029
000170 f9 10 60 bd 29 57 83 3c 87 b0 bf bc ec 4f 2b bd
       -0.054703686 0.016032772 -0.023399604 -0.041824266
000180 4f e5 bc 3d db 0f 1b 3e 88 19 ef 3d 5f 68 5c be
       0.09223425 0.15142767 0.116747916 -0.2152419
000190 83 04 6c be 87 9a f5 bd 4d 55 44 3d 22 39 89 bd
       -0.23048596 -0.119923644 0.04793291 -0.0670035
0001a0 6e 65 92 bd 4c 08 60 bd 97 e5 76 3e 35 a0 50 3e
       -0.071482524 -0.054695413 0.24111019 0.20373614
0001b0 1e ca 30 be 6a 7d 12 be 80 d2 d0 3d f7 67 ae bb
       -0.17264602 -0.14305654 0.101964 -0.005322452
0001c0 d5 06 08 be 6a 72 24 be 6e 36 9c 3d 3e a5 8f 3c
       -0.13283856 -0.1605927 0.07627569 0.017534848
0001d0 0e ca 53 bd a3 a6 c3 bd 91 df 05 3f 49 1a 6c bd
       -0.051706366 -0.09553268 0.5229426 -0.057642255
0001e0 58 24 6d 3d d5 02 e4 3d a9 2b 6e bd a0 a6 ec 3d
       0.05789599 0.11133353 -0.058147106 0.11555219
0001f0 a3 10 39 3e 25 9e 86 bb 4e d1 5d be b5 12 0a 3e
       0.18072753 -0.0041082078 -0.21661875 0.13483699
000200 70 c5 3a 3d f4 ed 06 3e 25 fa 95 3d 00 ab f1 3c
       0.045598447 0.1317671 0.07323102 0.029500484
000210 c4 d9 1c be b6 1c 9a bd 73 45 1f bd 86 ae dc 3d
       -0.15317446 -0.075250074 -0.03888459 0.10775475
000220 d4 69 97 bc eb a0 6f bc 08 3a 35 be f7 36 61 bd
       -0.01848308 -0.014625768 -0.17697918 -0.05498406
000230 d3 c4 25 3e 5b 73 2d 3e 8b 5e bc bd 88 e1 5e 3e
       0.16188364 0.16938536 -0.0919772 0.21765721
000240 56 43 a7 3d b8 7c 0b 3c 53 c6 7b 3d de 2f 9c bc
       0.0816714 0.008513622 0.061468434 -0.019065794
000250 47 05 3f 3d ac 17 4d 3b 52 72 6e 3e b4 b9 a0 bd
       0.046635892 0.0031294627 0.23285797 -0.0784792
000260 60 e7 62 3e 5c 53 57 3c 0a f4 db bd d2 02 97 bd
       0.22158575 0.013142433 -0.10739906 -0.07373585
000270 1e 15 1f 3d ca 68 68 bd 44 9d ca bd 09 79 78 3d
       0.0388385 -0.05674056 -0.09893277 0.060662303
000280 4a c8 52 3d 2d 5c 26 3e 9c 23 b1 3d 8c 51 38 3e
       0.05146054 0.162461 0.0864937 0.17999858
000290 d0 a1 ff 3d f6 1f d4 bd dc 84 c7 bd 39 8c 18 3e
       0.12482035 -0.103576586 -0.09742138 0.1489724
0002a0 43 02 8b bd 57 cf 3a 3e 3c 97 e9 3c 99 3e 07 be
       -0.06787541 0.18243156 0.028514497 -0.13207473
0002b0 18 73 c4 bd b5 46 29 3e 10 73 e1 bd 6a 66 9b bd
       -0.09592265 0.16530879 -0.110082746 -0.07587893
0002c0 99 4e ba bd 61 c8 e1 bc 6e d4 76 3d 92 3f b6 3d
       -0.090970226 -0.027561368 0.060261182 0.08898844
0002d0 76 9d 05 3e 2f 06 eb 3c 30 7b 69 be 1e f8 07 3e
       0.13048348 0.028689472 -0.22800899 0.13278243
0002e0 cc fd 19 3e 2b 59 ac 3d 6d c2 5c 3e 43 54 c4 bd
       0.15038222 0.08415445 0.21558543 -0.09586384
0002f0 07 c9 eb bc b6 02 22 bd c6 ca e4 bd 95 00 36 3d
       -0.02878238 -0.039553367 -0.111714885 0.04443415
000300 6c 0f 33 3e 02 8e cf bc dd 35 00 3d 7b 01 83 bd
       0.17486352 -0.02533627 0.031301368 -0.06396767
000310 cd f7 7a bd 78 93 d4 bd dd fb 7b bb 13 6b 21 be
       -0.061271477 -0.1037969 -0.0038449683 -0.15763502
000320 38 de 12 3c c4 b9 6a bd 94 2f 14 bd c3 68 df 3d
       0.008964114 -0.057306066 -0.036178187 0.109086536
000330 1f a8 08 be df a4 c0 bd 0e d3 93 bd fb b6 49 3d
       -0.13345383 -0.09406447 -0.0721799 0.04924677
000340 55 67 4a bc ce 62 78 3d 7d 7a 10 3c 8d 33 81 3d
       -0.012353738 0.060641102 0.008818266 0.06308661
000350 9e 2b 14 3e 0d ed 3d 3e d0 29 80 bd 72 2e 76 3d
       0.14469764 0.18547459 -0.06257975 0.060102887
000360 dc 57 7a bd f2 fc 5d 3d 58 38 b4 bc c6 f7 18 3e
       -0.061118945 0.054196306 -0.021999523 0.14938268
000370 ab be bf ba 0c e9 a8 bc 67 69 a2 3d 1b 8d 3f be
       -0.0014628967 -0.020618938 0.0793026 -0.18706171
000380 70 c7 0a 3e a3 75 1d 3e af 66 bc 3c 09 f0 d6 bc
       0.13552642 0.15376906 0.022998182 -0.026237505
000390 91 56 cf bd 67 54 92 3e a4 f0 d5 3d f8 37 7e be
       -0.10123933 0.2858002 0.10446289 -0.24826038
0003a0 7a 1b db bd bc 57 43 3d 9c 90 11 bb 79 80 dc bb
       -0.106986 0.047691092 -0.0022211438 -0.0067291823
0003b0 06 9d 7b be f2 25 8a 3c 21 dd 9d 3c 51 11 3f bd
       -0.24571618 0.016863797 0.019270482 -0.046647374
0003c0 b3 23 ea bd a3 53 b8 3d 19 48 00 3e 1c 63 14 3e
       -0.1143259 0.090003274 0.12527503 0.14490932
0003d0 33 e6 71 be c7 c4 9a bd d0 8e 89 bd e9 ed c8 3d
       -0.2362297 -0.075570635 -0.067166924 0.09811003
0003e0 2f 6e 54 3e 17 10 af bc b3 db ee 3d ee c9 cf 3d
       0.20745157 -0.021369977 0.11662998 0.10145937
0003f0 57 9b 5b 3d b6 77 cc bd 2a ba 17 bc e9 96 7d 3c
       0.05361494 -0.099837705 -0.009260694 0.015477874

network_body._body_endoder.seq_layers.0.bias f4 [256]
000000 8a 73 ad bc 0b da 9f 3c b6 8f 8f 3c 5c 5a 0f 3c
       -0.021173257 0.01951315 0.017524581 0.008749571
000010 5f a3 d2 bc 1f 01 d8 ba 44 82 10 bd 00 ae 1a 3c
       -0.025712667 -0.0016479826 -0.03528048 0.009440899
000020 03 20 26 bd 75 d5 45 3c 35 f8 50 ba 29 03 44 3b
       -0.040557873 0.012074818 -0.0007971556 0.002990911
000030 6e 72 ab 3c 0e d6 86 bc 3b c0 37 bc 66 85 1d bc
       0.020928588 -0.016459491 -0.011215265 -0.009614324
000040 74 8a 0a 3d 2e 6b 67 bc 5a f3 40 bc 74 6f 01 3c
       0.033823445 -0.014124675 -0.0117767695 0.007900108
000050 54 fa 11 3d 5c b7 57 3c bf 67 61 3a ca 5e 64 ba
       0.035639122 0.013166275 0.0008598528 -0.00087116344
000060 80 96 38 bc fb 0f c2 3c af 19 a6 3b df 64 60 bb
       -0.011266351 0.02368926 0.0050689797 -0.0034239811
000070 e1 ab 54 3c 01 a3 97 ba c9 4c 50 bc d3 f4 26 3c
       0.012980432 -0.0011568965 -0.0127136195 0.010190207
000080 c5 de c7 bc 0f 9b c5 bb 78 7c 9f ba ad 21 de ba
       -0.024398217 -0.0060304473 -0.0012167832 -0.0016947292
000090 d2 62 2f bc c3 9c 02 3d e2 24 ec bb ec d4 15 3d
       -0.010704713 0.03188778 -0.007206545 0.03658001
0000a0 b9 36 95 3c 31 0e 1f bd f4 19 76 bc 58 f7 0e bc
       0.01821457 -0.038831893 -0.015020836 -0.0087259635
0000b0 dc d4 95 bb 98 6a d5 3c 14 0e 0f bc bb a9 87 3b
       -0.004572494 0.026051804 -0.008731384 0.0041401065
0000c0 68 5c a4 bc de 61 c8 bb 42 2f 60 3c 93 85 c3 39
       -0.020063594 -0.0061151823 0.013683142 0.0003729282
0000d0 25 d2 33 3d a9 c7 ae bc 8e 2c db 3a 0b 68 a3 3c
       0.04390158 -0.02133544 0.0016721652 0.019947072
0000e0 60 06 21 bc cf 7c 0e 3c aa d5 d0 bc d0 9e 5a 39
       -0.00982818 0.008696749 -0.025492508 0.00020849262
0000f0 43 5a e0 3b d9 96 77 bd e6 9d 03 3d 37 7d e5 3c
       0.0068466975 -0.060446594 0.032133006 0.028013809
000100 80 78 94 3b 73 f2 6d 3b 11 54 90 3c b0 0e f5 ba
       0.0045309663 0.003630784 0.017618211 -0.0018696394
000110 7f 9e 83 3c 97 a0 94 bb 5b 20 e7 bc 45 68 b2 3b
       0.016066788 -0.0045357454 -0.02821367 0.005444559
000120 92 80 b9 bc 99 ba 91 3c c1 c5 3a bc ad 42 9b bb
       -0.022644315 0.017789172 -0.011399687 -0.004738173
000130 06 b5 59 3c 84 9c 00 3d c3 c5 09 3a d8 7a 19 bc
       0.013287788 0.031399265 0.0005255604 -0.009367667
000140 01 7a d0 3b 11 f4 48 3c a4 53 fc 3c 04 b5 54 bc
       0.0063622002 0.012265221 0.030801602 -0.012982611
000150 5b 38 09 bd 2b d8 22 bc 26 24 0e 3b c8 5a 09 3d
       -0.03350101 -0.009939234 0.0021689027 0.03353384
000160 9d ba 2e ba 39 42 42 bc ff f3 bc 3c da be e2 3c
       -0.0006665381 -0.011856609 0.023065565 0.027678896
000170 55 2f 59 bc 64 7a 2f 3c b3 5a 80 3c ab 10 af 3b
       -0.013255914 0.010710333 0.015668249 0.005342563
000180 92 66 27 3c 28 1d e0 bb 7f b9 8e 3c 54 5b 9b bc
       0.010217326 -0.006839413 0.017422436 -0.018964447
000190 c0 22 51 bb d6 9c 0b bd 0a 89 eb bc 84 0c 40 bc
       -0.0031911582 -0.034085117 -0.028751869 -0.011721734
0001a0 15 48 6e 3d b6 ea 58 3c 67 a9 52 3c 52 26 07 3d
       0.05817421 0.013239553 0.0128577715 0.03299553
0001b0 74 b3 4d 39 53 31 83 3c 64 9e 76 3c 1d 05 a5 bc
       0.00019617175 0.01601473 0.015052412 -0.02014404
0001c0 ae 04 29 3c a8 60 a5 3c 59 56 54 3c 0d ad b6 3c
       0.010316057 0.02018769 0.01296004 0.022299314
0001d0 7e 36 9c 3c 2c 50 99 bc a8 61 03 bd 28 73 8a 3c
       0.019068953 -0.018714987 -0.032075554 0.016900614
0001e0 d2 f2 d3 bb c1 60 ec 3c 38 7a da 3c 52 3c 00 bc
       -0.0064681554 0.02885473 0.026669607 -0.0078268815
0001f0 b7 1d 06 bd 7b 37 22 3c 70 41 31 bc 9e 16 79 3b
       -0.032743182 0.009900923 -0.010818824 0.0038007866
000200 01 a4 70 3c 54 27 17 3c 63 5c b3 3c 44 8d a5 bc
       0.014687539 0.009225685 0.02189464 -0.020208962
000210 37 9b 17 3a 89 01 39 3c 21 86 75 bc f2 b4 32 3c
       0.00057833217 0.01129187 -0.014985592 0.010907399
000220 5d 19 cc 3c d3 cc 5f bc 4e 6d 3e 3d 4f d1 37 bc
       0.024914438 -0.013659674 0.04649096 -0.011219337
000230 e0 6d 28 3d 64 94 13 3c dc 67 c6 bb 6a c2 5b 3c
       0.04112041 0.009007547 -0.0060548615 0.013413051
000240 51 d2 29 3d 5f be 34 3c 60 ad ec bc e4 85 13 3d
       0.04146034 0.011031716 -0.028891265 0.03601636
000250 40 90 df 3c 87 e7 59 bc b9 6e d1 3c ca f3 40 3c
       0.027290463 -0.013299829 0.025565492 0.011776874
000260 b5 c9 50 3a e1 24 38 3a 71 64 a0 38 ca 0a 3c bc
       0.0007964627 0.00070245384 7.648103e-05 -0.011477182
000270 a3 58 2b 3d 30 b9 b3 bc 26 e4 ae bc b1 60 ca 3c
       0.041832577 -0.02193889 -0.021349024 0.02470431
000280 46 a5 9d 3c 9e 71 70 3c 45 13 0b 3c 8b 9e 83 3c
       0.019243848 0.014675526 0.008488481 0.01606681
000290 89 06 aa 3c 9f 47 fe bc 2c 6d 6c 3b 99 cd a3 3c
       0.02075507 -0.031040011 0.0036075814 0.019995498
0002a0 0f 57 80 bc bb 97 e9 3c 4f a9 39 bc 75 f0 6f bb
       -0.015666513 0.028514734 -0.01133187 -0.003661183
0002b0 88 26 52 bc cc 50 eb 3b ac b6 61 3c 8f 72 8d 3b
       -0.012826569 0.0071812626 0.0137764625 0.004316635
0002c0 ed 0c 45 3c 5d d0 90 ba 4e 4e 9f bb 64 40 b2 bc
       0.0120270075 -0.0011048425 -0.0048616296 -0.02175922
0002d0 56 56 ac ba e6 27 f0 3c 0a b7 8b 3c ad 22 19 3c
       -0.0013148289 0.0293159 0.017055053 0.009346646
0002e0 b3 50 28 bd e2 1d 43 3d fb 17 96 3b 76 f3 10 bd
       -0.041092586 0.04763592 0.0045804954 -0.035388432
0002f0 fc 79 12 3c e7 b0 ff bb f4 69 4d bc 04 58 4f 3b
       0.008940216 -0.007803071 -0.012537468 0.0031638155
000300 a9 e2 33 bc 6a 65 d9 3c 58 01 0e 3c 11 e0 1b 3d
       -0.010979333 0.026537616 0.008667313 0.038055483
000310 53 dc 36 bc b5 61 84 bc d0 0b 81 3c 5c ba 46 bc
       -0.011160928 -0.016159872 0.015752703 -0.0121293925
000320 33 4a eb bb 32 e4 c4 3c 26 38 17 bb 34 51 47 3c
       -0.007180476 0.024034593 -0.0023074239 0.012165356
000330 e3 22 82 bc 09 58 29 3d 8c fa 95 bc 43 59 96 bc
       -0.015885776 0.041343722 -0.018307947 -0.01835311
000340 f9 5c 6b 3c 1b 99 11 3d f8 b2 00 bb 29 76 c0 bc
       0.014365428 0.035546403 -0.0019637924 -0.023493843
000350 83 a0 0f bc 4f 10 14 3c 19 15 2b 3d 15 12 fb 3a
       -0.008766296 0.009037091 0.041768167 0.0019155169
000360 1f 0d b5 bc 5a 28 65 3c 75 22 b0 3c 82 da 67 bc
       -0.022100983 0.013986671 0.021500805 -0.014151217
000370 ad cd 0f 3d fb 63 0a 3d 00 25 c0 bc c0 c2 a0 bc
       0.035108257 0.033786755 -0.023455143 -0.019624114
000380 bd e1 0a bc a2 e7 25 3d 50 e6 af bc e1 1a ea 3b
       -0.008476672 0.040504105 -0.021472126 0.0071443175
000390 88 75 5e bc fb 96 00 bd 98 7c 6e 3b ff 7b 18 3d
       -0.013577826 -0.031393986 0.0036390182 0.037227627
0003a0 99 97 f2 bb 0f 62 1a 3d 21 66 12 3d 92 d0 3b bc
       -0.0074033258 0.037691172 0.03574193 -0.011463301
0003b0 76 62 0d bd ec ed dd 3c f3 d8 53 bd 90 b8 0d 3d
       -0.034517728 0.027090989 -0.05172057 0.03459984
0003c0 2c a1 59 bc a1 0b ac bc 49 bf 56 3d 22 8a 8a 37
       -0.013283055 -0.021001639 0.052428517 1.6515205e-05
0003d0 f1 f8 8f ba ec 66 05 bd 93 17 f7 bb d9 0a cc 3c
       -0.0010984225 -0.032568857 -0.007540652 0.024907516
0003e0 d0 99 eb 3c 70 96 04 bc ef f9 75 3b 22 1b 8a bc
       0.028759867 -0.008092508 0.0037533005 -0.016858641
0003f0 7a be 46 3c 6a 07 99 3b ac 0b 0a 3c 34 02 0a 3c
       0.012130374 0.0046700733 0.008425634 0.008423377

network_body._body_endoder.seq_layers.2.weight f4 [256, 256]
000000 78 f7 d7 bc fa 40 02 3d 0f 15 c7 bc 87 6f 0c bd
       -0.02636312 0.031800248 -0.024302034 -0.03428605
000010 81 13 1b 3e 4f 4a b1 3d bd 14 e9 bd 75 6e 86 3c
       0.15144159 0.08656751 -0.11380909 0.016410092
000020 b8 7a a8 3d 3c 2b c4 3c b4 e4 23 bd 91 63 4c bd
       0.08226532 0.023946397 -0.04001303 -0.04989964
000030 7f 0b 96 bd d2 af ed 3d 31 d3 79 bc 8d 05 c1 bc
       -0.073264115 0.11605801 -0.015248106 -0.023562217
000040 32 f2 fc bd a0 ac 2a 3d 53 a0 aa bd 8f 79 ae 3d
       -0.123508826 0.041668534 -0.08331361 0.08519279
000050 27 32 b1 3c e2 9c 6c 3d d1 ae 58 bd a0 c8 07 3e
       0.02163036 0.057766803 -0.052901093 0.13260126
000060 02 1b 02 bd 46 12 50 bc 5a c1 b7 3c 25 e4 cb bc
       -0.031764038 -0.012699669 0.022431064 -0.024889061
000070 1c d8 8e 3d 75 02 88 bd a0 40 84 bc 01 26 d5 3d
       0.06974813 -0.06641094 -0.016144097 0.10407639
000080 85 23 a4 3c 6a b9 32 3e 6c 6c 85 bd 1d 05 57 bd
       0.020036468 0.17453542 -0.065148205 -0.05249511
000090 14 88 48 3d d7 4e 33 bd 49 20 9c bc 26 be 54 3c
       0.0489579 -0.04377636 -0.019058364 0.012984788
0000a0 cd c9 cf bc 91 bd 14 3d 20 a0 95 3d c1 e2 95 3b
       -0.02536478 0.036313597 0.07305932 0.0045741503
0000b0 4d 11 93 bd fe a3 5b 3d 15 50 01 bb 7d 43 fa bc
       -0.07181034 0.053623192 -0.001973157 -0.030549759
0000c0 4b ae 54 bc bd d8 5f bd 41 ed fd bc 95 99 71 3c
       -0.012981008 -0.054650057 -0.03099692 0.0147460895
0000d0 17 53 0b bc f2 80 92 3d 98 21 6b bd 85 eb 30 3d
       -0.008503697 0.071535006 -0.057405084 0.04319336
0000e0 17 8f e3 bd ae 73 bf 3d 09 96 5d 3d 55 df 8f bc
       -0.111112766 0.09348236 0.054098163 -0.017562548
0000f0 82 20 28 3d 5f 2b 93 bd ee 0e 59 bd 75 84 ea bb
       0.041046627 -0.07186007 -0.052992754 -0.0071569034
000100 ac ee 92 3b 77 e0 a8 3d 29 04 b0 bd da 54 d4 bc
       0.0044840183 0.08245938 -0.085945435 -0.025919367
000110 71 65 4a 3d 99 95 2b 3d 06 a1 1d bd 5c 61 5a 3d
       0.04941315 0.041890714 -0.038483642 0.053315505
000120 3a e4 c4 3d 77 09 4c bd e5 7f 17 be f5 eb a1 bd
       0.09613843 -0.049813714 -0.14794882 -0.07906333
000130 81 0b e2 3d e5 bd 2e be 2e 8d 1b 3e 30 93 1c 3e
       0.110373504 -0.17064627 0.15190575 0.15290523
000140 90 a8 1e be fd 62 7b 3c 0c e9 46 3d 67 9c 27 bd
       -0.15493989 0.015343425 0.048562095 -0.04092064
000150 4d cb 93 3d a1 42 67 3d 75 3d 0f bd c9 05 96 bb
       0.07216511 0.056460027 -0.03497072 -0.0045783264
000160 47 86 94 3d ef 09 36 3c e0 e2 ec bb 21 0f de 3d
       0.07252174 0.011110767 -0.007229194 0.10842729
000170 e9 2c 8e bd 06 9e 98 3d b5 dd 41 bd f9 43 c8 3c
       -0.0694216 0.074520156 -0.047330577 0.024446474
000180 3a ed 03 3e ff 36 9e 3d 9b f2 4a bd 57 76 77 bc
       0.12883464 0.077253334 -0.049547773 -0.015103898
000190 5e 50 9d 3d 91 a7 5c 3d 73 c8 1c 3e be e6 3e 3e
       0.076813444 0.05387074 0.1531084 0.18642709
0001a0 d1 80 62 3d ef 33 cd bd f0 42 c0 bd f8 98 4e bd
       0.05529863 -0.10019671 -0.09387767 -0.05043885
0001b0 fd 28 96 bd 8c 19 be bc d2 5d bd 3d d9 6b 36 be
       -0.07332037 -0.023205541 0.092464104 -0.17814578
0001c0 68 6b 8f 3d 1f a7 a8 bc 6f 12 b0 bd 00 fa 13 be
       0.07002908 -0.020587502 -0.08597266 -0.14450836
0001d0 db ab a8 3d 0b 88 23 be 7d 6c d8 3c 78 8c cc 3d
       0.08235904 -0.15969865 0.026418919 0.0998773
0001e0 3f 58 ba 3c f2 2c b3 3d 7f 49 0a bd 05 44 cb 3d
       0.022747157 0.08748807 -0.033761498 0.09925083
0001f0 c4 24 40 bc cb 79 e1 3b 51 36 7a bc bf e5 c3 3d
       -0.011727516 0.006880974 -0.015271739 0.09565305
000200 eb b8 30 bc 02 00 c7 bd b8 a3 a5 bc d7 26 ab bd
       -0.010786275 -0.09716798 -0.020219669 -0.083570175
000210 5d 2c 91 3d ee 89 72 bc cd 7b 7d bd bf 8d 39 bb
       0.0708854 -0.014803393 -0.061885644 -0.0028313247
000220 62 23 b0 b9 8d 28 9d 3d 6f 26 70 bd 76 eb 71 3d
       -0.00033595698 0.0767375 -0.058630403 0.059062444
000230 df 9a 6d bd b0 5f 83 bd f8 ea 78 3d dd 0d 45 3d
       -0.058009025 -0.06414735 0.06077096 0.048108924
000240 eb fa 5d bc b5 38 47 bd 6a ef 93 3d 9f 42 bc 3c
       -0.013548593 -0.048638064 0.07223399 0.022980986
000250 5a e1 a2 bd 5d fc 29 3d 3c 14 54 3d 60 86 3b 3c
       -0.07953139 0.041500438 0.05177711 0.011445612
000260 ce 4e 09 3d c7 66 cf bc e6 38 31 3b 37 1f 2d 3d
       0.03352242 -0.025317563 0.002704197 0.042266097
000270 5e 08 7e be 4a db b8 bd 31 b2 80 3e df 3a 7c 3d
       -0.2480788 -0.09026201 0.2513595 0.06157958
000280 87 2e d0 3b bf 30 e2 3d 29 0c 40 bd bd bd 28 3b
       0.0063532027 0.11044454 -0.046886597 0.0025747858
000290 19 c7 04 3d 52 45 3c 3b 39 e6 fb 3c bd 2c a9 bd
       0.032416437 0.0028727842 0.030749427 -0.08260486
0002a0 43 ea 36 3c c7 23 37 be 6f 78 8e bd da 69 25 3d
       0.011164251 -0.17884742 -0.06956565 0.04038415
0002b0 ca 0f 0a 3d 7c 9b 33 bd 83 a8 f0 bb 10 d0 3d 3d
       0.033706464 -0.043849453 -0.007344307 0.046341002
0002c0 23 d0 89 3d eb 4f f6 3a 58 b3 41 3d 51 21 fa bd
       0.06729152 0.0018792128 0.047290176 -0.12213386
0002d0 61 e6 28 be 49 e0 0b bc 85 3c 31 3c a9 a3 42 bd
       -0.16494133 -0.0085373605 0.010817652 -0.04751936
0002e0 da 0d 75 bd b9 53 1d 3c d5 ce 0f be 13 49 88 bd
       -0.059827663 0.009602481 -0.14043744 -0.06654563
0002f0 bf 63 05 bd 24 3c 00 3d 4e d0 ec 3d 40 88 1b 3c
       -0.03256583 0.031307355 0.115631685 0.009492934
000300 53 dd 50 3c fb 2a b2 3d 8e 8a 2d 3d 4e ec 83 3d
       0.01274808 0.08699604 0.042368464 0.06441556
000310 18 6f 6c 3d 18 3e b8 3d 3a 5a 5a 3b ab f8 a7 bc
       0.057723135 0.089962184 0.003331794 -0.020504316
000320 01 d7 f6 bd b7 68 3c bd c5 25 94 bc 8c 8a 56 bd
       -0.120527275 -0.0459983 -0.018084416 -0.052378222
000330 8e 8a e4 bd 20 5d f3 bd 83 1e b5 3d d2 0b 3b 3d
       -0.1115924 -0.118829966 0.0884371 0.04566557
000340 b6 fb 9c 3d 2c 05 a7 bd 56 f8 7e bd 19 d8 57 3c
       0.076651976 -0.08155283 -0.06224855 0.01317408
000350 21 2c d8 3d 10 70 0a be 50 c2 19 bd f6 86 ad 3d
       0.10555292 -0.13519311 -0.037538826 0.084730074
000360 3a e4 2f bd 78 8e ad 3d d0 ce 75 bd 60 87 ae bd
       -0.042942263 0.084744394 -0.060011685 -0.085219145
000370 d6 97 58 bd cb 2d ce ba 50 54 19 bd 1a 2c f5 bc
       -0.052879177 -0.00157302 -0.037433922 -0.029928256
000380 ed 19 b7 3d 49 f6 11 bd 66 ba e1 bc 94 3a b4 3d
       0.08940492 -0.035635266 -0.027554702 0.088002354
000390 2b 2c 61 3d 99 80 01 bc 17 f6 ee 3d e4 79 c6 3d
       0.054973762 -0.007904195 0.11668032 0.096912175
0003a0 32 2c de bd f2 3d 39 3d 70 31 bf bd da f3 8b bd
       -0.10848273 0.04522509 -0.09335601 -0.0683362
0003b0 2b 27 0a bd c4 a6 e2 3d 28 3b 01 3d 25 45 a8 bd
       -0.03372876 0.11066964 0.031550556 -0.08216313
0003c0 5b 96 c3 3c 11 64 c0 3d b5 7f 2c bd c9 eb 4c 3d
       0.023875406 0.09394086 -0.04211398 0.05002955
0003d0 fb 39 a2 3c 52 ef cb bd 95 29 6d bc 94 b0 09 bb
       0.019803038 -0.09957756 -0.014475246 -0.002100979
0003e0 7e 8a 97 3d 3f 15 1a bd d9 d1 2f bd 52 f3 7a bd
       0.07399462 -0.037617918 -0.042924736 -0.061267205
0003f0 69 f1 a3 3d b1 75 aa bc 25 42 e1 bd 7c cf d0 bd
       0.0800503 -0.020808073 -0.10998944 -0.101958245

network_body._body_endoder.seq_layers.2.bias f4 [256]
000000 20 b8 2f 3c a4 af 97 bb 5d 2c 46 bb bf f6 eb 3b
       0.010725051 -0.0046290923 -0.0030238845 0.0072010453
000010 58 1f 13 3c ea b3 c2 ba 64 90 c8 3c 40 b1 3b bd
       0.008979641 -0.0014854644 0.024482913 -0.045823336
000020 fb c3 00 bd 51 d0 43 3c 33 62 c8 3c 48 4f 04 3b
       -0.0314369 0.011951522 0.024460888 0.0020188857
000030 08 48 1e bd e3 e0 f2 bc 0c f9 84 bc ec 74 6a bb
       -0.038642913 -0.02964825 -0.016232036 -0.0035775257
000040 22 c7 c9 3c fb 90 1a bd 90 3f 9a 3c 08 c1 83 3b
       0.024631087 -0.03773592 0.018829137 0.004020814
000050 8b 70 43 bc 85 56 24 3c 35 ca 3d bc e4 44 7b 3c
       -0.011928688 0.0100303935 -0.011583854 0.015336249
000060 9b a3 40 bc fd 2b 9b bc cf aa 50 bc fa 22 f5 bb
       -0.011757757 -0.018941874 -0.012736036 -0.007480976
000070 b5 a0 da 3c 73 ea 03 3c 4d e5 53 bc 8c cf b8 3b
       0.02668796 0.0080515025 -0.012933088 0.005639976
000080 97 c0 10 bd 90 a9 03 bd d6 e8 fd 3b 44 3a 36 3b
       -0.035339918 -0.03214413 0.0077487035 0.0027805725
000090 06 fc d3 ba b0 ff 5e 3b 45 cc ab 3a 5e e7 a2 bb
       -0.0016173131 0.0034026913 0.0013107142 -0.004971429
0000a0 e0 45 8a bc 91 ee aa 3b ae 03 19 b8 84 e3 3c bc
       -0.016879022 0.0052164276 -3.648147e-05 -0.011528853
0000b0 53 57 99 bb 9f f1 5f bd c1 4f 84 3a aa ef fd 3c
       -0.0046795993 -0.054673787 0.0010094569 0.03099807
0000c0 94 6b 18 bb c2 60 13 3b ee 78 bb 3b e1 38 94 bc
       -0.002325748 0.0022488092 0.005721203 -0.018093528
0000d0 f2 9f 6a 3b 32 f3 9d 3b c8 54 22 bc 0b e7 26 3c
       0.0035800901 0.004820251 -0.009907909 0.010186921
0000e0 81 59 91 3c 74 4a 5c 3c 30 a0 6b bc ff d8 62 ba
       0.017742874 0.013445485 -0.014381453 -0.0008653551
0000f0 ee ea cf b9 9c 88 45 3c 1e 77 ad 3b ad 63 cc bc
       -0.00039657153 0.012056496 0.005293741 -0.024949873
000100 33 0c 19 bd 30 fd 30 3b de b9 86 bc 8d 6a 14 3c
       -0.03736515 0.002700638 -0.01644605 0.009058607
000110 e8 be c4 3b da 55 1c bc fc 2f 88 3c a6 77 9b 3c
       0.006004203 -0.009541953 0.016624443 0.018977951
000120 a8 e0 0d bd dd a9 22 bc b1 ab 4d 3c 45 74 4e bb
       -0.034638077 -0.009928194 0.012553141 -0.0031502408
000130 ec b3 41 3c 0d 3d 25 bd c1 95 78 bc a6 ca 9e 3b
       0.011822682 -0.040341426 -0.015172423 0.004845935
000140 17 22 9a bb da 47 9e 3c 6f 9a 20 3c f8 e7 ad bb
       -0.004703771 0.01932137 0.009802445 -0.005307194
000150 8c 96 24 3b 3a 58 45 bc dc 84 46 3b 48 3a d5 bb
       0.0025114147 -0.012044961 0.0030291593 -0.006507192
000160 dd 03 8e 3b 10 4a b9 bb 24 b5 45 3c 0a 21 1c ba
       0.0043339566 -0.005654581 0.012067113 -0.0005955851
000170 f1 39 bf 3c db 6c 35 3b 3d 3f 2f bc d4 f2 e0 bb
       0.023343058 0.002768329 -0.0106962295 -0.006864885
000180 84 0b bf 3c a7 ec e1 3b f2 ca e7 ba 58 ff 46 3b
       0.02332092 0.0068946662 -0.0017684384 0.00303646
000190 24 00 16 3b ae e6 51 3c c2 61 b3 bc db 4e ea 39
       0.0022888267 0.012811346 -0.0218972 0.0004469071
0001a0 40 ff 98 3c 4c 8d 53 bb 6c 2a 5e bb 86 ce f0 3b
       0.0186764 -0.0032280264 -0.0033899797 0.0073488383
0001b0 ae 07 dc bc f3 3f ca bb ed 32 26 3c 79 43 b9 bb
       -0.02685913 -0.006172174 0.010143978 -0.0056537953
0001c0 44 00 0b bc 7f 4d 11 3c 80 df 92 3c da 03 06 bc
       -0.00848395 0.008868574 0.017928839 -0.008179629
0001d0 48 f2 1e 3c 9a 0a 49 3c 04 c8 10 bd d7 01 a6 bb
       0.009701319 0.012270594 -0.035347 -0.0050661373
0001e0 05 a6 02 bc 40 fd 1e 3c 8b 01 38 3b 2c 7a 7f 3c
       -0.007974152 0.009703934 0.0028077092 0.015593093
0001f0 b6 32 74 bc 97 55 9e 3b bd 55 a7 bb e2 91 ff 3a
       -0.014904669 0.0048319804 -0.0051066563 0.0019498433
000200 c6 3f c9 bc 4b fd 25 bd 04 b4 c8 3b 4e 23 14 bc
       -0.024566542 -0.040524762 0.006124975 -0.00904162
000210 4e d2 48 3b fc 49 2a 3c 9b 02 59 3c e0 fc 58 bc
       0.003064293 0.010393616 0.01324525 -0.013243884
000220 68 f8 c2 3b 8f a8 ec bb e9 6b c9 bc 9a ca c2 3c
       0.0059500225 -0.007222242 -0.024587588 0.023778249
000230 2c 41 78 3c c1 37 2b bc d3 35 9e bb 20 b8 b7 3c
       0.015152257 -0.0104503045 -0.0048281937 0.022426665
000240 fc a8 b6 bb 31 19 2a bc 4a 1e 3f bc f4 0b 9a bb
       -0.0055743437 -0.010381983 -0.011664936 -0.004701132
000250 66 a3 f4 3c 32 d8 03 3a 8c 22 3c 3c a0 6d 12 bc
       0.02986307 0.0005029469 0.011482846 -0.008937269
000260 70 93 aa bc 8e c5 e9 ba 7c b0 0f 3c db fb 24 bc
       -0.020822257 -0.0017835365 0.0087701045 -0.010069813
000270 96 3b 58 ba 21 4e 82 3b 43 97 a1 bb db f2 e2 3b
       -0.0008248625 0.003976599 -0.004931362 0.0069259233
000280 a7 59 3d 3c 7d 00 27 bb 62 e9 98 3c 65 f7 b2 3b
       0.011557019 -0.0025482469 0.018665973 0.0054616206
000290 39 5d 2b bd f9 84 ca bc 6d d4 92 bb 7c 22 b1 bc
       -0.04183695 -0.02472161 -0.0044808895 -0.021622889
0002a0 3d 70 b0 bb ed 25 17 bc 1a 9a ad 3c 3f 87 83 bb
       -0.0053844736 -0.009225351 0.021191645 -0.0040139253
0002b0 48 cc 05 bc 66 28 44 3b 0b 90 a4 3b a5 f9 23 bc
       -0.00816638 0.0029931306 0.005022054 -0.01000825
0002c0 ca 71 ae 3b a9 24 ae bc 09 a0 a1 bc c7 bd 40 bd
       0.0053236233 -0.021257715 -0.019729631 -0.047055986
0002d0 b2 6f cd 3b a0 43 96 3b 92 1b 64 bb c7 ee 57 3b
       0.0062694186 0.0045856982 -0.0034806472 0.003294872
0002e0 6e 72 5e 3b d6 73 35 bc f2 31 11 3c 4e 72 68 3c
       0.0033942717 -0.011074981 0.008862006 0.014187409
0002f0 92 1d ce bb 06 ec 95 3b 1f 1b d2 3c 77 38 2c 3b
       -0.006290146 0.0045752553 0.025647698 0.0026278773
000300 a6 3a 76 bb 96 a6 0a 3b 37 25 92 3c 69 24 6d bc
       -0.0037571578 0.0021156422 0.017840011 -0.014474013
000310 43 df 21 bc 67 e3 13 bc 89 48 5d 3c c4 32 31 3c
       -0.00987989 -0.009026385 0.013506063 0.010815326
000320 d4 fa 11 bb af ac aa 39 92 e1 41 bd 43 36 a5 3b
       -0.002227475 0.00032553586 -0.04733426 0.005041869
000330 aa 42 a8 bb 13 c4 7b bc eb ab d8 bb 9e c0 59 bb
       -0.0051349 -0.015366572 -0.006612291 -0.003322638
000340 6c c8 a9 3c 3b 1f 76 3c 35 94 8e 3c 47 7d 67 bc
       0.020725451 0.015022094 0.017404655 -0.01412899
000350 90 ff 40 3c f0 7e af 3c bb 69 de bb 17 51 e5 3b
       0.011779681 0.021422833 -0.0067875064 0.006998192
000360 1b d1 89 ba aa ed dd 3c 2c 3e a6 3b 2f 01 1b 3b
       -0.0010514589 0.027090866 0.0050733294 0.0023651829
000370 12 95 57 3b d1 ee 4c bc 8c 7d 3b bd 50 37 9c 3b
       0.003289525 -0.01250811 -0.045774028 0.004767336
000380 9b c9 a0 3c 66 13 94 3a a1 b8 60 bb 43 dd a8 3b
       0.019627383 0.0011297285 -0.0034289735 0.0051533296
000390 99 67 41 3c b1 c5 8c 3c 7b 72 1c bd d8 59 cf 3c
       0.011804485 0.01718411 -0.038195115 0.025311396
0003a0 57 9c 28 3c f3 52 f1 bc a7 ea 22 ba 8e e3 fc 3b
       0.010291181 -0.029458499 -0.00062147755 0.0077175563
0003b0 9e 4d a3 3c 21 45 9c 3c 79 ae 2e bc 8e 62 b7 3c
       0.019934472 0.019075932 -0.010661715 0.022385862
0003c0 60 8d 88 bc c8 38 0b 3d ec aa 6a bc 15 f6 05 bb
       -0.016668975 0.033989698 -0.0143229775 -0.0020440866
0003d0 b7 77 b3 3c bf 79 5c 3c 54 9b 85 3c e1 97 aa bc
       0.02190767 0.013456761 0.016309418 -0.020824375
0003e0 1c 52 9a bb 92 21 a7 3b ec 3a d9 3c 79 18 3b 3b
       -0.004709495 0.0051004374 0.026517354 0.0028548522
0003f0 16 94 6a 3c 4d 11 df 3b 6b 41 ed bc 11 63 03 39
       0.014317533 0.0068074823 -0.028961858 0.00012530039

action_model._discrete_distribution.branches.0.weight f4 [3, 256]
000000 07 80 7c bb 8c 83 4e 3d 4e da 4f bd d4 52 01 3d
       -0.0038528459 0.05041842 -0.0507453 0.03157313
000010 f4 45 c6 bb 10 d1 ce 3c 76 e2 9c 3b e5 be ab bc
       -0.0060508195 0.025246173 0.0047877384 -0.020965049
000020 92 ae 83 bb da f5 75 39 80 19 9d 3b 81 3c 22 bc
       -0.004018613 0.00023456608 0.0047942996 -0.009902121
000030 d1 39 61 bc 12 4f 02 bd 2c 01 7b 3c 61 e5 2f 3b
       -0.013746695 -0.03181369 0.015320104 0.0026839601
000040 6d ae 2a 3c 0e 3e f5 3a a5 da 28 3c bc 2e 8e 3d
       0.010417563 0.001871051 0.010306035 0.069425076
000050 1b 89 6c bc fb 04 02 3d a1 fc 3a bc 30 be 06 3d
       -0.014436985 0.03174303 -0.0114127705 0.03289622
000060 2e 76 b6 3c f0 fa fc bb 2d 07 2d bb 5d 83 94 bb
       0.02227315 -0.007720344 -0.0026401982 -0.0045322613
000070 20 3b d7 bb a3 81 62 3c e7 25 d1 bb 54 09 cf 3c
       -0.0065683275 0.013824853 -0.006382692 0.025273003
000080 e7 0e 1a 3c a2 d7 c6 3c d1 fb 99 3c 8c 3e 6f 3d
       0.009402967 0.024272744 0.018796833 0.05840926
000090 82 2d d7 ba f0 03 33 bb c6 5c b1 3c 93 e9 b0 3c
       -0.0016416761 -0.002731558 0.021650683 0.021595752
0000a0 e0 4f 9b bc 13 aa 17 bd 15 bb 1d 3b 64 ec 35 3c
       -0.018958986 -0.03702743 0.0024067808 0.011103723
0000b0 e1 fa 01 3c fa 16 17 3c 7e 2d b1 bc 4d e7 60 3c
       0.007933349 0.009221787 -0.021628138 0.013727021
0000c0 04 97 c3 bc 03 78 6d 3b ce fe 78 3d 29 ec 11 3d
       -0.02387572 0.0036234863 0.060789876 0.03562561
0000d0 37 e9 73 3d ab 95 ce 3c 28 2f a7 bc 06 f3 bb 3b
       0.059548583 0.025217852 -0.020408228 0.0057357578
0000e0 6f 62 92 bc ee e7 20 3d cd db a0 bb 12 17 5b 3c
       -0.017869202 0.039283685 -0.004909015 0.0133722
0000f0 49 53 72 bc 91 64 8d bc c7 ae 1f bc f3 fb 47 bc
       -0.014790365 -0.017259868 -0.00974626 -0.0122060655
000100 6f 04 21 3b c9 b5 ad 3c 68 53 35 3c a0 26 3b 3c
       0.0024569293 0.021204846 0.011067249 0.011422783
000110 b4 97 d9 3c 64 05 fa 3b 94 77 aa bb 00 7d 9b 3c
       0.026561595 0.007630037 -0.005202243 0.018980503
000120 d4 0b 90 bc b2 5e 1f 3c 1b 91 f7 3c 86 ae b6 3c
       -0.017583765 0.009727167 0.030220559 0.022300016
000130 8c b8 c2 3a 1e d1 22 bb 61 e8 1c bd 5a 55 3b 3b
       0.0014856025 -0.0024843882 -0.03830755 0.002858481
000140 36 ea 94 3c 1c 42 35 bc 70 88 1f 3c db d3 dc bc
       0.018178087 -0.011063125 0.009737119 -0.02695649
000150 66 aa c5 bc 08 a3 e5 3c 99 fd 3a bb fa d2 d5 3c
       -0.024129104 0.02803184 -0.0028532504 0.026101578
000160 2c 1e 5d bc ac 1f 10 3d fe 9f 53 3b cb 39 64 3a
       -0.013495963 0.035186455 0.0032291408 0.00087061216
000170 50 8b 83 3c c8 85 c9 bc 6f d9 1a 3c 8d 6d 44 3c
       0.01605764 -0.024599925 0.009451254 0.01198901
000180 3b 2f 49 3c 16 e6 05 3d 54 5b 61 bc e3 d5 b2 3d
       0.012279327 0.03269013 -0.0137546845 0.08732202
000190 af 82 f1 3b 3d 38 4b bc 68 b3 36 3c 30 6d 67 3c
       0.007370315 -0.012403545 0.011151172 0.014125153
0001a0 87 d8 f0 3c 05 2f ad 3c 08 0f 94 3c a1 d7 5e 3d
       0.029400123 0.021140585 0.018073574 0.05440486
0001b0 6b ab 24 bc 8b 3a 15 bc 54 8c d1 3c a7 23 d0 bc
       -0.010050635 -0.009108196 0.025579609 -0.025407625
0001c0 4a 86 40 3c 72 26 3b 3a 6c 56 e0 3a f4 b8 85 3c
       0.011750767 0.00071392127 0.00171156 0.016323544
0001d0 9d f5 83 3c 03 d1 49 3b fb 9d d5 3b ec e9 03 3c
       0.016108328 0.0030794747 0.006519077 0.008051377
0001e0 55 62 b1 bb b1 bf eb 3c 5a 9d bf bb a2 94 e1 ba
       -0.0054133334 0.028777929 -0.005847615 -0.0017210434
0001f0 e7 ea e0 bc e5 02 1b 3d e7 a6 5c 3d b2 f4 a5 3c
       -0.02745576 0.037844557 0.053870108 0.020258281
000200 c0 2b 4b bb 7c e1 85 3a 4d d0 25 3d 46 1f 75 3d
       -0.0031001419 0.0010214294 0.040481854 0.059844278
000210 0b 7d 22 bc 76 ec a4 bc b4 75 62 3d a1 b4 35 bc
       -0.009917508 -0.020132285 0.05528803 -0.011090429
000220 61 7d 80 bc d8 d5 43 bc 06 af b6 bb 33 6c 8a 3c
       -0.015684785 -0.01195284 -0.0055750636 0.016897297
000230 a5 07 17 3d a7 be 91 3d f8 d3 98 bc 86 24 91 3c
       0.036872525 0.07116442 -0.018655762 0.017717611
000240 4f a4 cf bb d5 58 2c bc 22 bd af 3c e1 d0 89 bc
       -0.006336726 -0.010519226 0.02145249 -0.016823234
000250 20 5f 4c 3c 05 e5 62 bb 49 17 b3 3c d3 b9 9b 3b
       0.012473851 -0.003462137 0.02186169 0.0047523766
000260 55 90 76 3b d6 63 4c 3c 6a 07 12 3d 40 a6 3d bc
       0.003762265 0.012474975 0.0356516 -0.011575282
000270 30 2a 97 3d 5b f4 10 3b a7 62 4f 3c ba 9c 03 3d
       0.073810935 0.0022118303 0.012657798 0.032131888
000280 58 9e 9f bc c9 18 e1 3c 9a 45 be 3c ed 6a eb 3c
       -0.019484684 0.027477639 0.023226548 0.02873751
000290 fc 7c 79 bc 69 7f f9 bb 40 5d cd bc d1 21 1e bc
       -0.0152275525 -0.0076140654 -0.02506888 -0.009651617
0002a0 81 85 2a 3b 78 f6 52 bc 1b cc 8a 3c 6f 36 16 bc
       0.0026019516 -0.012876146 0.016943028 -0.009168251
0002b0 d2 62 f4 bb 10 11 fc 3c 3e 05 96 3a 68 2b 31 3b
       -0.0074580694 0.030769855 0.0011445654 0.0027033929
0002c0 84 43 1d 3c 1f fa 61 bc 90 fb 74 3c 75 84 25 bc
       0.0095986165 -0.013792544 0.014952555 -0.010102381
0002d0 e3 be 4c 3c 99 13 7d 3b 95 cd 0e 3c 4c c6 a5 3c
       0.012496683 0.0038616417 0.008716007 0.020236157
0002e0 74 83 3c bc ee 9c 63 3c 12 c3 5e 3d 45 eb 04 3d
       -0.01150595 0.013892395 0.054385252 0.032450933
0002f0 b5 20 94 bb 39 58 47 3d f5 d4 9a ba b2 7d e9 bb
       -0.0045205005 0.04866812 -0.0011812734 -0.0071255798
000300 1f 8d 7e bc fb a4 d0 bc c8 f7 07 3c a2 3f 02 3d
       -0.015536576 -0.025469294 0.008298822 0.031798966
000310 4e 7a 78 bc 3d 39 94 3c 24 a5 06 3d c9 93 f7 3c
       -0.015165878 0.0180937 0.032872334 0.030221837
000320 8d cf 83 3a 29 87 a5 3c 04 54 95 bc 3f b7 dd bb
       0.0010056362 0.020206051 -0.018228538 -0.0067662294
000330 f1 ef 15 bc 4e 15 a1 3c c6 b5 da bc ef ec be 3b
       -0.009151445 0.01966348 -0.026698004 0.0058265845
000340 f6 b5 80 3d 74 cd f9 bb 5d 90 07 3c 84 b1 4c 3b
       0.06284706 -0.007623369 0.008274165 0.0031233737
000350 22 72 8a 3d 81 87 69 bc 61 45 66 3d 4d 3d da 3b
       0.0676005 -0.014253498 0.05621851 0.0066601397
000360 9f b9 a2 3b d3 47 96 bb da 2a ee bc 08 51 81 bc
       0.0049659754 -0.004586199 -0.029073168 -0.015785709
000370 59 de 0a 3c 17 17 2e 3d e4 a6 38 bc 92 bc 18 3d
       0.008475863 0.04250249 -0.011270259 0.03728921
000380 b6 02 13 bc 1c f2 c4 b9 f6 b6 5d 3d 18 ac 30 bc
       -0.008972814 -0.0003756442 0.054129563 -0.010783218
000390 bc 81 ad bc c5 0f 17 3c 1f a4 ca ba 32 cc 8b 3c
       -0.021180026 0.009220068 -0.0015460289 0.017065141
0003a0 b5 b1 ab 3c 24 3b c6 3c 54 b2 ba ba 95 2b fd 3c
       0.02095876 0.024198122 -0.001424382 0.03090457
0003b0 7a 22 de bb e3 ac ed 3c 99 c8 31 3c 08 b3 08 3d
       -0.0067790123 0.029013103 0.010851049 0.033373863
0003c0 b7 07 2a 3d 74 43 1a 3c 3b e0 61 3d d6 cb 00 bd
       0.041511264 0.009415496 0.055145483 -0.031444393
0003d0 08 16 51 bc d8 4e 95 3d 59 67 8d bc f4 dc 78 bb
       -0.0127616 0.07290429 -0.017261194 -0.0037973495
0003e0 9e 62 a2 3a 8d 52 05 3d 7c fb 59 bb dd f1 11 3c
       0.0012389009 0.03254943 -0.0033261469 0.008907762
0003f0 2f 10 0c 3d f4 36 a5 bc 35 fd 11 bc 06 38 3c bc
       0.03419512 -0.020167805 -0.008910467 -0.011487966

action_model._discrete_distribution.branches.0.bias f4 [3]
000000 c2 6a cb 3b 27 87 30 3d 6d 37 58 bd
       0.006207795 0.04309764 -0.052787233

action_model._discrete_distribution.branches.1.weight f4 [3, 256]
000000 e3 3e e8 ba 52 58 93 3c 1a cf 31 3d 77 37 17 3c
       -0.0017718937 0.01798645 0.043410398 0.009229532
000010 b7 ef 2f 3c 07 9a 53 bc df ca 83 3c 00 33 92 bc
       0.010738305 -0.012915141 0.016087947 -0.017846584
000020 da 06 16 bc 7f 26 e2 3b 84 70 ec 3c 4b cc d4 bc
       -0.009156907 0.0069015617 0.028862245 -0.02597632
000030 e6 aa b0 bc 3a d3 e4 bc 85 e4 e6 3b ea fb 08 bd
       -0.021565866 -0.027932752 0.0070462846 -0.03344337
000040 dc 5f f4 3b 5e be 70 bc 33 fe 76 3c 3f 74 98 3c
       0.0074577164 -0.014693825 0.015075254 0.018610118
000050 b5 7b a5 bb dc 23 01 3c 29 56 9f 3c 6c 13 ff 3c
       -0.0050501474 0.007882085 0.019450264 0.03113719
000060 f4 51 7a 3c a8 5e 0c 3d 94 48 00 bd 2d a9 89 3c
       0.015278328 0.03426996 -0.031319216 0.016804302
000070 b8 33 82 bb 70 30 83 bc db d1 a5 ba f6 4c 81 3c
       -0.0039734505 -0.016014308 -0.0012651043 0.015783768
000080 56 40 98 bb 20 71 88 bc c3 32 32 3c e1 55 56 3c
       -0.0046463413 -0.016655505 0.01087636 0.013081999
000090 48 dc 93 bc 40 2c f9 bc 41 95 75 bc fe f3 b6 bc
       -0.018049374 -0.030416608 -0.014989198 -0.022333141
0000a0 5f 40 e1 3b 37 ae 56 3c fb 55 2b bc eb 4c 0b 3c
       0.0068741287 0.0131030595 -0.010457511 0.008502225
0000b0 2d 74 fb bb f7 25 7d bb c3 d5 87 bc e8 f9 01 3d
       -0.0076737613 -0.0038627365 -0.016581422 0.03173247
0000c0 3a 6e 88 3b fd 70 88 bb 17 9c 19 3c 98 1a 57 3a
       0.0041635307 -0.00416386 0.009375594 0.0008205562
0000d0 f8 22 6b bc 95 19 5a 3c be 93 9b 3b 58 dc ad 3b
       -0.014351599 0.013311763 0.004747837 0.005305808
0000e0 c7 cf 05 3b 5b a6 17 3d 1b b0 ba bc e8 fe 97 bb
       0.0020418034 0.037023883 -0.022789052 -0.0046385415
0000f0 07 46 c2 3b c2 a5 c0 3c f9 e6 28 3c 1d e8 a4 bc
       0.005928758 0.02351654 0.010308974 -0.020130211
000100 3c 60 88 bc 89 11 8f bc fd f4 3a 3c 70 59 9e 3c
       -0.01664745 -0.017464416 0.011410949 0.019329756
000110 b6 ab 05 3c 13 d3 45 3c b9 c7 63 3c 8e e6 f4 bc
       0.008158615 0.01207425 0.013902598 -0.029895093
000120 00 5f 28 bc 9f a5 71 3c 72 de 98 bb 05 4e 75 b9
       -0.010276556 0.01474896 -0.0046651894 -0.00023394085
000130 ad 0c d9 bc 3b 05 18 bd 45 88 f4 3c 61 09 40 3c
       -0.026495302 -0.037114363 0.029850135 0.011720986
000140 fa 99 99 3c d9 d9 b1 3c d2 aa 3f 3a 23 0b 4f 3c
       0.01875018 0.021710323 0.0007311526 0.012636933
000150 86 60 ab 3c c2 1f bd 3c 63 d0 c5 3b f0 a7 11 3c
       0.02092005 0.023086432 0.0060368045 0.008890137
000160 5c 73 91 3c ad 4a a7 3b cb 7b 36 3b ce 09 81 3c
       0.017755203 0.0051053376 0.0027844782 0.015751746
000170 d4 d9 b4 bb eb 9f 04 bb 78 fc c6 bb 37 19 04 3a
       -0.005519131 -0.002023692 -0.006072577 0.00050391577
000180 86 4d b7 bb 59 08 ca bb d1 a1 86 3c 10 f9 01 bc
       -0.0055939583 -0.006165546 0.016434582 -0.007932916
000190 a9 d6 c3 bc fa 59 46 bc 49 1a c5 bc 39 67 06 bc
       -0.023906069 -0.012106413 -0.024060385 -0.008203321
0001a0 32 9c d7 bb ea 4e 0e 3c 35 45 e4 bb e3 5e 9b bc
       -0.006579899 0.008685807 -0.006966258 -0.018966144
0001b0 ae 46 50 38 e7 5b c3 bb 09 ba d3 3c 50 d4 d2 bc
       4.965689e-05 -0.0059618833 0.025845544 -0.025736004
0001c0 da fc be bb 83 bd 64 3c 3d ba 03 bb 10 e6 e2 3c
       -0.005828482 0.013961199 -0.002010002 0.027697593
0001d0 3c b1 b3 3c b8 a2 e3 3b d3 49 c2 bc 79 15 2a bd
       0.021935098 0.006946888 -0.023716843 -0.041524384
0001e0 41 a1 8d bc ea ca d8 bc 97 90 a8 3c 8a 19 6d 3b
       -0.017288806 -0.026463944 0.020576758 0.0036178553
0001f0 bd ee c1 3b 16 1b 3e ba 66 9a a7 3c 64 c3 7f bc
       0.0059183524 -0.0007251961 0.020459365 -0.01561055
000200 c1 48 8c 3c cc 08 31 3b 43 58 ff 3a d6 82 fa 3b
       0.017124536 0.00270133 0.001948126 0.0076449914
000210 9c 88 e9 3b 72 3a a6 3b 35 1b 98 3a 4a 5d ad 3c
       0.007126881 0.005072885 0.0011604788 0.021162648
000220 58 7e ae bb 6c 47 cb 3c 4b 1f ad 3c 69 0c 70 3c
       -0.00532512 0.02481433 0.021133086 0.014651396
000230 37 f8 48 bb 08 d1 2b 3b 60 4a 85 3b ae 88 ca 3c
       -0.0030665526 0.0026217122 0.004067704 0.024723377
000240 27 b3 8e 3c 84 91 59 3c 1d 3c 93 3c b0 2a 93 bb
       0.01741941 0.013279323 0.017973 -0.0044911727
000250 21 10 c6 3c de ce 2b bd c0 78 08 bb fb 84 93 bb
       0.024177613 -0.04194533 -0.0020823926 -0.0045019365
000260 4e f6 3c bc 0f ed 93 ba 43 b0 15 3c e4 57 46 bc
       -0.011533333 -0.0011285859 0.009136262 -0.012105916
000270 4b f6 87 b9 4d 2d bc bc 90 78 98 bc ec 39 b6 3c
       -0.0002593271 -0.02297082 -0.018612176 0.022244416
000280 4d 48 b5 3c ec 22 34 ba 16 6f 58 3c 25 13 f0 3c
       0.022129202 -0.0006871659 0.013210079 0.029306004
000290 56 25 3a bc 4e 27 93 bb 33 14 be 3c 53 10 65 bc
       -0.011361441 -0.0044907695 0.023202991 -0.013980943
0002a0 31 54 af bc a4 ef 19 bc 5e b6 1b 3c 8b 25 98 bc
       -0.02140245 -0.009395514 0.009503929 -0.01857259
0002b0 c6 d7 13 bc 31 58 26 3c f0 ea 63 3c aa 76 b1 b9
       -0.009023612 0.010152862 0.013910994 -0.00033848482
0002c0 76 90 00 3d ac 2b 9c bc bf d0 2c bc 64 b3 a7 bc
       0.03138777 -0.019063793 -0.010547816 -0.020471282
0002d0 dd d3 66 bb e3 01 43 bb 93 05 5a bb 83 7d 59 bb
       -0.0035221495 -0.0029755763 -0.0033267483 -0.0033186383
0002e0 14 fd 00 3a 3e a6 18 bc 67 aa 95 3c ea 1e ec ba
       0.0004920524 -0.009316979 0.01826973 -0.0018014584
0002f0 05 68 21 bd d1 1b 8f ba ca db 90 3c 48 8c ee 3b
       -0.03940584 -0.0010918324 0.017682929 0.0072799064
000300 c5 4a dc bc e6 8c 32 3c e8 d0 17 3d 7e 45 72 3c
       -0.026891122 0.010897851 0.037064463 0.014787076
000310 7b 91 d0 3c fa f0 ae bb a7 72 19 3b c9 db f6 3c
       0.025459995 -0.0053387852 0.0023414285 0.030134099
000320 68 1a a9 3b c7 2e eb 3b 8f 92 bb bc 31 11 36 37
       0.0051606186 0.007177207 -0.022897033 1.0852048e-05
000330 62 e5 96 3c 2c 48 c8 bb 07 62 cc 3c ba fe 1c 3c
       0.018419925 -0.006112119 0.024949087 0.009582216
000340 0d 6a e1 bb 09 f4 5f bd cb f5 ae ba a4 fb 94 bc
       -0.0068790973 -0.05467609 -0.0013348398 -0.018186398
000350 99 7c 10 3c 70 6e 51 3c ee 96 79 bb 81 2a c3 bb
       0.008818769 0.012782678 -0.0038084346 -0.0059559946
000360 4b 76 2d bc b7 cf 0b bc b6 e9 32 3c ac 06 61 bc
       -0.010587285 -0.00853341 0.010919979 -0.013734501
000370 68 1c 2a bc b4 95 50 3c f5 22 c3 bc 05 ab eb 3b
       -0.010382749 0.0127310045 -0.02382038 0.007192018
000380 79 33 e7 3b 49 d5 89 bc 86 50 10 3b 32 08 13 3c
       0.0070556966 -0.016825335 0.0022020652 0.008974122
000390 6c d5 8b 3c 9c 7f 2d bb e0 b0 0d bd 10 d9 8d 3c
       0.01706954 -0.0026473766 -0.03459251 0.017315418
0003a0 8b 1c 50 3c 87 73 8e 3b 0f b4 29 bc 13 05 7a bc
       0.012702118 0.004347268 -0.010357871 -0.015259999
0003b0 32 e1 30 3c 45 02 5c 3c 00 58 8e 3b b0 41 76 3c
       0.010795878 0.0134282755 0.0043439865 0.01503031
0003c0 82 a4 55 3b cf 62 d6 ba 0f bf 2f 3c 5b d3 ce bc
       0.0032599275 -0.0016356352 0.010726704 -0.025247267
0003d0 da 2f f1 3c 36 d8 1b bc 1c cd c3 39 2f a2 b5 3a
       0.029441763 -0.009511998 0.00037346117 0.0013857539
0003e0 9d 3f 95 3c b8 c2 b6 3c f0 12 36 3c a5 c7 a2 bc
       0.01821881 0.022309646 0.0111129135 -0.019870589
0003f0 91 f6 87 bc 31 29 cd 3c 5b 98 40 bc 22 65 40 3b
       -0.016597064 0.025044056 -0.011755074 0.0029357155

action_model._discrete_distribution.branches.1.bias f4 [3]
000000 01 6e ae 3c fa 8d 37 bd 87 1f b3 3c
       0.021292688 -0.044813134 0.02186562
