Assets/Neural Network/Button Press Test/ButtonPress.onnx (onnx, 355846 bytes, 13 tensors)

discrete_act_size_vector f4 [1, 4]
0	0x40400000	3.0
1	0x40400000	3.0
2	0x40000000	2.0
3	0x40000000	2.0

network_body._body_endoder.seq_layers.0.weight f4 [256, 68]
0	0x3e0c08da	0.13675252
1	0x3dad05ea	0.08448394
2	0xbdc26d51	-0.09493507
3	0x3e0b68f6	0.13614258
4	0x3d3dc655	0.046331722
5	0xbd32f761	-0.04369295
6	0x3ebecb0d	0.3726429
7	0x3e2af964	0.16696697
8	0x3de6464c	0.11243877
9	0x3d916853	0.070999764
10	0x391e24f7	0.00015081825
11	0xbe50391d	-0.20334287
12	0xbdf2cbe7	-0.118552975
13	0xbdd10d34	-0.102075964
14	0x3d80b33f	0.062841885
15	0x3e4c0f64	0.19927746
16	0x3d9222e7	0.07135563
17	0x3ddbd5ff	0.10734176
18	0xbe4b1b30	-0.1983459
19	0x3bc58f31	0.0060290326
20	0xbe333f28	-0.17504561
21	0xbbfa4948	-0.0076381303
22	0xbd8463d1	-0.06464351
23	0x3da89fe1	0.082336195
24	0xbd61a6a5	-0.055090565
25	0xbcd27cd8	-0.025694296
26	0xbdc56ed4	-0.096402794
27	0xbdb0455a	-0.08606978
28	0x3d3078cc	0.04308395
29	0x3d681972	0.05666489
30	0xbc43ff39	-0.011962705
31	0x3dfd0967	0.12355309
32	0x3e0baf94	0.13641196
33	0x3d06f3fd	0.03294753
34	0x3e117cf5	0.14207824
35	0x3dadf068	0.084931195
36	0xbdef1f9a	-0.116759494
37	0x3c808003	0.01568604
38	0x3e325c95	0.1741813
39	0xbcd391bc	-0.025826328
40	0x3d7bc132	0.061463542
41	0xbe694c68	-0.22783053
42	0x3cff93bc	0.031198375
43	0xbd5ea4c5	-0.054356355
44	0xbe64f4bc	-0.22358984
45	0x3d96ac96	0.07357137
46	0x3d83ecfc	0.064416856
47	0x3d4b7aa8	0.04967752
48	0xbe10b766	-0.14132461
49	0xbd942ac0	-0.072347164
50	0xbe09b4bb	-0.1344785
51	0x3e1552c5	0.14582355
52	0x3ddcbfa0	0.10778737
53	0xbded18dc	-0.11577007
54	0xbd131782	-0.03591109
55	0xbe2b1a0a	-0.16709152
56	0x3de9784d	0.11399899
57	0xbe0eca3e	-0.13944337
58	0xbd98add5	-0.07455031
59	0x3cf7e75e	0.030261692
60	0x3d195461	0.037433986
61	0x3e6f8a9d	0.2339272
62	0x3df454c4	0.1193023
63	0xbdcd3448	-0.100197375
64	0x3bc15645	0.0059001767
65	0xbe176dc5	-0.14787968
66	0xbe8e9faf	-0.27856204
67	0x3dd4953a	0.10380025
68	0xbe315002	-0.17315677
69	0x3e015e8e	0.12633726
70	0xbe46a8cb	-0.19400327
71	0x3bd2dcf5	0.0064350315
72	0x3c5b0f12	0.013370292
73	0xbda321f7	-0.07965463
74	0xbdc80ad7	-0.097676925
75	0x3e37e96f	0.17960142
76	0x3e08437a	0.1330699
77	0xbe02b6f4	-0.12765104
78	0xbd2599a2	-0.04042972
79	0x3d1d788b	0.038445037
80	0x3ca2a05e	0.01985186
81	0xbe372a8a	-0.17887321
82	0xbcccb4bb	-0.024988523
83	0x3ca58241	0.020203711
84	0xbda72aa1	-0.08162428
85	0xbdfdf085	-0.12399391
86	0x3e1be473	0.15223865
87	0xbd7b05ff	-0.061285015
88	0x3e4ce24b	0.20008199
89	0xbe2676be	-0.16256234
90	0xbe0e866c	-0.13918465
91	0x3cb275b4	0.02178464
92	0xbe2384b8	-0.15968597
93	0x3c4a7447	0.012356824
94	0x3e34bce4	0.17650181
95	0xbba274a8	-0.004957754
96	0x3e3a33ea	0.18183866
97	0x3da50adc	0.08058712
98	0xbd0cc06e	-0.034363203
99	0x3d879d88	0.066218436
100	0xbe36e4c5	-0.17860706
101	0xbe2ca474	-0.16859609
102	0xbc919113	-0.017769372
103	0xbd734545	-0.059392232
104	0xbe0cda3d	-0.13755126
105	0x3d427d12	0.047482558
106	0xbda8bd4b	-0.0823923
107	0x3ca8a2af	0.020585386
108	0xbd438e79	-0.047743294
109	0x3d9ec947	0.07753234
110	0x3cd63996	0.026150506
111	0xbdd37431	-0.10324896
112	0x3dd9779a	0.10618515
113	0x3dc8da20	0.09807229
114	0x3ca96ed7	0.020682735
115	0x3d03e67c	0.03220223
116	0x3e4a15e4	0.19734913
117	0x3deaaffc	0.114593476
118	0xbde3283e	-0.1109166
119	0xbe17e431	-0.14833142
120	0x3e0ff66a	0.14058843
121	0x3c8ffb39	0.017575847
122	0xbe705416	-0.23469576
123	0xbe1377c1	-0.14401151
124	0xbe8e7a85	-0.2782785
125	0x3bd191a5	0.006395536
126	0x3d08fe81	0.03344584
127	0x3d7ec0bc	0.062195525
128	0xbdbc2cd6	-0.09188239
129	0xbd97cddd	-0.07412312
130	0x3e0780d5	0.1323274
131	0x3e539dfd	0.20665736
132	0xbd64965a	-0.05580745
133	0xbdb6b615	-0.08921448
134	0x3e7f9286	0.24958238
135	0x3d7e53bf	0.062091585
136	0xbd058335	-0.032595832
137	0xbdbfbe4c	-0.09362468
138	0x3e7d66e9	0.24746288
139	0x3dd3cdcf	0.10341989
140	0xbdc55721	-0.09635759
141	0xbdcf43f4	-0.10120383
142	0x3e59097e	0.21195027
143	0x3e5400f4	0.20703489
144	0xbdb110e6	-0.08645801
145	0x3df4814a	0.119387224
146	0x3d3d3785	0.046195526
147	0xbbf8652e	-0.007580421
148	0xbe7c5bcd	-0.24644394
149	0x3df8dbb2	0.121512786
150	0x3d576bed	0.05259316
151	0xbd8bab6f	-0.06819808
152	0x3e12a1df	0.14319561
153	0xbe3ed359	-0.1863531
154	0xbd38e9b8	-0.045144767
155	0xbdd5aaf2	-0.10432996
156	0x3d51c3fb	0.051212292
157	0xbe3a0224	-0.18164879
158	0xbdf40e2e	-0.11916767
159	0xbdb916d2	-0.09037556
160	0x3d5d4b74	0.054027036
161	0xbd8e913a	-0.069612935
162	0x3dae7ee3	0.085202955
163	0x3c9eaf92	0.019370828
164	0x3d03aba3	0.032146107
165	0xbe0c1b7f	-0.13682364
166	0xbdeb6e36	-0.114956304
167	0x3e776c12	0.2416232
168	0x3d57d5ed	0.05269425
169	0x3c48644b	0.012230943
170	0xbc501ab1	-0.012701676
171	0xbe320632	-0.17385176
172	0x3d610554	0.054936722
173	0xbd8b3e56	-0.06798999
174	0xbe482190	-0.19544053
175	0xbd93fb1a	-0.07225628
176	0xbd0971ed	-0.033555914
177	0x3ccf9538	0.025339708
178	0xbde6e4b3	-0.1127409
179	0x3d7299af	0.059228595
180	0xbdf854d0	-0.12125552
181	0xbdf306b6	-0.118665144
182	0x3e68bb2e	0.22727653
183	0x3ceb6025	0.028732369
184	0x3e0452c6	0.129222
185	0xbbffd097	-0.0078068483
186	0xbdaed7cf	-0.08537256
187	0xbde82f5c	-0.11337158
188	0x3dcf6640	0.101269245
189	0xbdf5e6e1	-0.12006927
190	0x3da60a3e	0.08107422
191	0x3e028e74	0.12749654
192	0x3da84bc1	0.08217574
193	0xbe042ebc	-0.12908453
194	0x3decdea6	0.11565904
195	0xbe220e0b	-0.1582567
196	0xbd36ce4a	-0.044630326
197	0x3e4e6ff5	0.20159896
198	0x3e2f2cf1	0.17106988
199	0x3d93af76	0.07211201
200	0xbc1fbbc3	-0.009749356
201	0xbd88e750	-0.06684744
202	0xbe77cfec	-0.2420041
203	0x3c0a1dbf	0.008429944
204	0xbc83f160	-0.016106308
205	0xbe037ef2	-0.12841395
206	0xbc7f6626	-0.015588319
207	0xbd552111	-0.052033488
208	0x3e4c63f8	0.1996001
209	0xbd886df8	-0.066616
210	0x3e54c0dc	0.20776695
211	0xbe3e0f4a	-0.1856052
212	0xbdc6b8e4	-0.09703234
213	0x3e0f76f9	0.14010228
214	0xbd1d18e7	-0.038353827
215	0x3d7b324c	0.061327264
216	0x3d041ff9	0.032257054
217	0x3d50d20a	0.05098156
218	0xbd1c6d76	-0.038190328
219	0xbe365330	-0.17805171
220	0xbd339e60	-0.04385221
221	0x3e0e7189	0.13910498
222	0xbc12f945	-0.008970563
223	0x3e4e0358	0.20118463
224	0x3c1477b2	0.009061741
225	0xbdc0690e	-0.093950376
226	0xbe2b3ffc	-0.16723627
227	0x3de5b255	0.11215655
228	0xbdd5e1e0	-0.10443473
229	0x3e7918cf	0.2432587
230	0xbd89a0f4	-0.067201525
231	0xbc64124b	-0.013920377
232	0x3c96e525	0.018419812
233	0xbd10a33b	-0.03531192
234	0x3df9611d	0.12176726
235	0x3e1e67ac	0.15469235
236	0xbe2de3e0	-0.16981459
237	0xbd1afaa1	-0.037836675
238	0xbddd52a1	-0.10806776
239	0x3dcba8b7	0.09944289
240	0x3cb3c672	0.021945212
241	0x3e5520ef	0.20813344
242	0xbdfed44a	-0.12442835
243	0x3e2e01c0	0.16992855
244	0xbd83ac31	-0.06429327
245	0xbd7ab107	-0.061203983
246	0x3e0aad74	0.1354273
247	0xbdccad6e	-0.099940166
248	0xbcfbf38e	-0.030755784
249	0x3e4ae827	0.19815122
250	0x3e12992b	0.14316241
251	0xbe41b6f7	-0.18917452
252	0xbe7cf496	-0.24702677
253	0x3de032bd	0.109471776
254	0xbe476aa4	-0.19474274
255	0xbd2713c6	-0.04079034

network_body._body_endoder.seq_layers.0.bias f4 [256]
0	0x3c32912a	0.010898868
1	0xbb18530e	-0.0023242864
2	0xbcdb8054	-0.02679459
3	0xbc55316d	-0.013012272
4	0x3ae3c66f	0.0017377863
5	0x3c30f0eb	0.010799627
6	0x3cbe2807	0.023212446
7	0xbc77421e	-0.015091447
8	0x3b8cd550	0.00429789
9	0xbca0f10d	-0.019646192
10	0x3d197568	0.037465483
11	0x3c5110e1	0.012760372
12	0xb9c17fe4	-0.00036907115
13	0xbc9da47a	-0.019243468
14	0xbbb19326	-0.005419153
15	0x3c2719cd	0.0101990225
16	0xbce93a4f	-0.028470187
17	0x3c0fafe2	0.008769961
18	0xbd03e0cb	-0.0321968
19	0xbc80fc71	-0.015745373
20	0xbc511304	-0.012760881
21	0x3c018f3c	0.007907685
22	0xbba7f40f	-0.0051255296
23	0x3b5c5c4e	0.0033624354
24	0xbb27c9a4	-0.0025602365
25	0x3d37bbbb	0.044856768
26	0x3c0cb3a2	0.00858775
27	0xbb5d9096	-0.0033808104
28	0xbb2d108d	-0.002640757
29	0xbd431703	-0.047629368
30	0x3c0156ec	0.007894259
31	0x3a9411c2	0.0011296796
32	0xbb981c4c	-0.004642045
33	0xbb1b0161	-0.0023651945
34	0xbcc66bb3	-0.024221277
35	0x3c117e13	0.008880156
36	0xbc5fea8e	-0.013666762
37	0xbac804d7	-0.0015260231
38	0x3c6f673e	0.014612017
39	0x3cc61548	0.02418007
40	0xbb8db786	-0.004324856
41	0xbb805244	-0.003916057
42	0x3c83df79	0.016097771
43	0xb71db210	-9.399388e-06
44	0xbbe4bef8	-0.006980773
45	0x3bc1de07	0.0059163603
46	0x3d01263b	0.0315306
47	0x3c32aeb2	0.010905908
48	0x3b86aa57	0.0041096616
49	0x3ca3dc67	0.020002557
50	0xbc8f65ac	-0.017504536
51	0x3c8ec872	0.017429564
52	0x3c043c20	0.008070976
53	0xbcd45fbf	-0.025924562
54	0xbb9e4706	-0.004830244
55	0x3cc583cb	0.024110695
56	0x3d03872d	0.032111336
57	0xba2daeb6	-0.000662546
58	0xbc15b68a	-0.009137759
59	0xbc49019c	-0.01226845
60	0x3d37db73	0.044887017
61	0xbb4cce36	-0.003125084
62	0x3d0de21b	0.03463946
63	0x3cc3b643	0.02389062
64	0x3d2f9f5a	0.04287658
65	0x3c97cf4e	0.018531468
66	0xbc8cb523	-0.017176216
67	0xbc495892	-0.012289183
68	0x3d154ee9	0.036452208
69	0x3baf5802	0.0053510675
70	0xbc4ae1e5	-0.012382959
71	0x3c0322a2	0.008003863
72	0xbba6cdfb	-0.0050904728
73	0xbc24cda8	-0.010058798
74	0xbd20bfc6	-0.03924539
75	0xbbff446c	-0.007790139
76	0x3b8d7c8c	0.0043178257
77	0x3c4e5636	0.0125937965
78	0xbc9679aa	-0.01836856
79	0xbbc89c0a	-0.006122117
80	0xbc5100d9	-0.01275655
81	0x3d115a36	0.035486422
82	0x3c3e7060	0.011623472
83	0x3c842504	0.016130932
84	0xbc4d8311	-0.012543456
85	0xba707edd	-0.00091741775
86	0x3c9d3428	0.01918991
87	0x3d37cd3d	0.044873465
88	0x3c9aef45	0.01891292
89	0x3ca9ddb5	0.020735601
90	0x3c7f7dd3	0.015593964
91	0x3bea0fae	0.0071429824
92	0x3cc051e8	0.023476556
93	0x3d4f1a51	0.050562207
94	0xbc9ac2ba	-0.018891681
95	0x3bc33c3a	0.0059581073
96	0x3c9eb8c7	0.019375218
97	0x3c0768c5	0.008264725
98	0x3b55be7a	0.0032614754
99	0xbc8e9c19	-0.017408418
100	0x3c83e87c	0.016102068
101	0xbce93185	-0.028465996
102	0x3b731011	0.0037088434
103	0xbb85ce3f	-0.0040834243
104	0xbc87a8cb	-0.016559979
105	0xba855aaf	-0.001017412
106	0x3ceee3c8	0.029161349
107	0xbb22d602	-0.0024846797
108	0xbb82bc4d	-0.0039897324
109	0xbadc2f92	-0.0016798845
110	0x3b342461	0.0027487504
111	0x3948364c	0.00019093713
112	0x3cbe7fe2	0.023254339
113	0x3cac73c2	0.021051291
114	0xbc3cfbbd	-0.011534628
115	0x3c72d4e8	0.014821269
116	0xbbd49d8f	-0.006488509
117	0xbd09f28e	-0.033678584
118	0xbc3026b0	-0.010751411
119	0xbc93849f	-0.018007575
120	0xbbc271f8	-0.0059339963
121	0x3d23c350	0.039981186
122	0x3cca9498	0.024729058
123	0xbc5d8086	-0.013519412
124	0x3c3898a2	0.011266859
125	0x3c81d68b	0.015849372
126	0x3c01ebeb	0.007929782
127	0x3c4432a0	0.011974961
128	0xbc3fca33	-0.011705923
129	0x3cbf65b1	0.02336392
130	0xbcd38bdf	-0.025823532
131	0x3c381b57	0.011236987
132	0xbc548145	-0.012970273
133	0xba0f98e1	-0.0005477798
134	0xbb71f459	-0.0036919324
135	0x3bc90893	0.0061350553
136	0x3bfe99db	0.007769806
137	0x3c7d502e	0.015461011
138	0x3b9c26da	0.0047653737
139	0x3cbd3270	0.02309534
140	0x3c987bf2	0.01861379
141	0x3cd06b89	0.025441902
142	0x3ca3e128	0.020004824
143	0x3d897b56	0.067129776
144	0x3c66b37e	0.01408088
145	0xbce8a1a6	-0.028397392
146	0x3c40b799	0.011762523
147	0x3c4298b9	0.011877232
148	0xbb92febb	-0.0044859326
149	0x3b94618f	0.0045282315
150	0x3c6958bb	0.014242346
151	0xbc40db75	-0.011771073
152	0x3cb7601e	0.0223847
153	0xbc854eed	-0.016272986
154	0x3c123577	0.00892388
155	0xbc3db68d	-0.011579168
156	0xbc24aff2	-0.010051714
157	0x3d06d988	0.032922298
158	0xbc51ed6b	-0.0128129525
159	0xbc93b80f	-0.018032102
160	0x3b800f50	0.0039080754
161	0x3a986dc2	0.001162939
162	0x3d0d90f8	0.03456208
163	0xbadaafc6	-0.0016684465
164	0x3c0e56da	0.008687699
165	0xbabbaf0f	-0.0014319139
166	0xbcb1180c	-0.021617912
167	0x3c989ceb	0.018629512
168	0x3c689b34	0.01419716
169	0x3cb21b53	0.021741545
170	0xbb5e236b	-0.0033895622
171	0x3b040420	0.002014406
172	0xbca1e059	-0.019760298
173	0xbba94e7f	-0.005166828
174	0x3c7c63a8	0.015404619
175	0xbc504ea1	-0.012714059
176	0x3c287fe6	0.0102844
177	0x3b0052a0	0.0019580498
178	0xbba50d3e	-0.005036979
179	0xbcecaa54	-0.028889813
180	0xbc3d45f6	-0.0115523245
181	0xbc08f09f	-0.00835815
182	0x3c6135d3	0.013745743
183	0x3c9b29cb	0.018940827
184	0xbb211a39	-0.002458228
185	0xbb3a7cf5	-0.0028455828
186	0x3c29fd74	0.010375369
187	0xbb53b36c	-0.0032302989
188	0x3c6a1e2c	0.01428942
189	0xbc72179a	-0.014776135
190	0x3cf2a884	0.02962137
191	0x3c6e3910	0.014539972
192	0xbbb93eab	-0.0056532226
193	0x3b8dc25d	0.0043261484
194	0x3c9c3078	0.01906608
195	0xbb92493a	-0.0044642957
196	0xbc9ce031	-0.019149872
197	0xbd202b40	-0.039103746
198	0xbc528aba	-0.012850458
199	0x3cc6a814	0.024250068
200	0x3c3deef8	0.011592619
201	0xbc95b620	-0.01827532
202	0x3d0e7cc1	0.034786943
203	0x3d213b84	0.0393634
204	0x3ccfd097	0.025368018
205	0xbc8612a5	-0.016366312
206	0x3bae9b05	0.0053285384
207	0xbab143e2	-0.0013524259
208	0x3cbf7b1e	0.023374137
209	0x3c4c87a2	0.012483509
210	0x3d613684	0.05498363
211	0x3d3159b7	0.04329845
212	0x3c6f36ab	0.014600436
213	0x3caa1869	0.020763593
214	0xbc0bbba9	-0.008528628
215	0x3b7a2baf	0.003817301
216	0xb9ce9aa0	-0.00039406586
217	0xbbdbd48f	-0.0067086886
218	0x3c5db2de	0.013531415
219	0xbb42cc38	-0.0029723775
220	0x3c2b34c9	0.010449597
221	0xbcf859c2	-0.030316237
222	0xbb809188	-0.0039235987
223	0xbcf0713d	-0.029350871
224	0x3ce8266f	0.028338639
225	0x3cebf26c	0.02880212
226	0x3cd341b2	0.025788162
227	0xbbadf786	-0.005309048
228	0x3c73518b	0.014850984
229	0xbcb52b48	-0.022115365
230	0xbaa16721	-0.001231406
231	0x3d03b91b	0.032158952
232	0xbc2357b9	-0.009969645
233	0xbb3681fd	-0.0027848475
234	0xbca07bbb	-0.01959025
235	0x3d200c3d	0.03907417
236	0xbd1d632b	-0.038424652
237	0x3d1fd503	0.039021503
238	0x3a93a924	0.0011265618
239	0xbc55fac8	-0.013060279
240	0xbcf9df47	-0.030501975
241	0x3b2b423b	0.0026132006
242	0xbacff1b1	-0.0015864876
243	0x3bea1af9	0.0071443287
244	0xbcba7333	-0.02276001
245	0x3c19c839	0.009386116
246	0x3c0791ae	0.008274479
247	0x3cfb09f9	0.030644404
248	0xbb57aa06	-0.0032907738
249	0x3b5a5201	0.0033313038
250	0xbcebe652	-0.028796349
251	0xb87ccc52	-6.027177e-05
252	0xbb464829	-0.0030255413
253	0x3c2a2526	0.010384833
254	0xbb6c6c7f	-0.003607541
255	0xbc7ae19e	-0.01531258

network_body._body_endoder.seq_layers.2.weight f4 [256, 256]
0	0x3d0b2879	0.033974145
1	0xbd375ae1	-0.044764403
2	0x3d2bb0f1	0.04191679
3	0x3c2079e4	0.009794686
4	0xbb27b5d2	-0.002559055
5	0x3de137ac	0.10996947
6	0x3cdc267c	0.02687382
7	0xbd435edc	-0.047697887
8	0x3d855761	0.06510807
9	0x3bfff7e7	0.0078115347
10	0x3dd222c9	0.10260541
11	0x3d484353	0.04889233
12	0xbdaae0ce	-0.08343659
13	0xbced7170	-0.028984755
14	0x3d5f9a2c	0.05459039
15	0xbd281f9c	-0.04104577
16	0x3b67f683	0.0035394735
17	0x3df7eca0	0.121056795
18	0xbc9cbf8c	-0.019134305
19	0x3d8856d7	0.066571884
20	0xbd2622f4	-0.040560678
21	0x3dce4f20	0.10073686
22	0xbdabf46d	-0.0839623
23	0x3bc52408	0.006016258
24	0x3e16ebf3	0.14738445
25	0x3d280e64	0.04102935
26	0xbdada4a6	-0.0847867
27	0x3c77433b	0.015091713
28	0xbcf949e6	-0.030430745
29	0x3d706e22	0.05869878
30	0x3dc38864	0.09547499
31	0x3c41bdb6	0.011825016
32	0xbd5091fb	-0.050920468
33	0x3cb55fdf	0.022140441
34	0x3d50e4b5	0.050999362
35	0x3cb5b7d4	0.022182383
36	0xbd258d94	-0.040418223
37	0xbd8a0b1b	-0.067403995
38	0xbcba0d37	-0.02271138
39	0xbca970c5	-0.020683656
40	0x3c1a7972	0.009428369
41	0x3c8dbd25	0.017302105
42	0xbd4a9235	-0.04945584
43	0x3d1f4f5f	0.038894054
44	0x3d934533	0.07190933
45	0xbcedbb85	-0.02902008
46	0xbd874645	-0.066052
47	0x3cbd69db	0.023121765
48	0x3d1f6ab3	0.038920116
49	0x3e031ab8	0.12803161
50	0x3cda7ba0	0.026670277
51	0xbd9ac24e	-0.07556592
52	0x3d4651f3	0.048417997
53	0xbdd98dfc	-0.106227845
54	0x3dc8df9c	0.09808275
55	0x3ca5e9a1	0.020253005
56	0xbd7fa017	-0.062408533
57	0xbd005360	-0.031329513
58	0x3cde2e5f	0.02712172
59	0xbd9f9024	-0.077911645
60	0x3dacc465	0.08435897
61	0x3d792f00	0.06083584
62	0xbdc496cb	-0.09599074
63	0x3c9532c7	0.01821269
64	0x3d4b41de	0.049623363
65	0x3d532e37	0.051557746
66	0xbd5641f4	-0.05230899
67	0x3dbba551	0.09162391
68	0x3e0726ed	0.13198443
69	0x3d989397	0.074500255
70	0xbd819186	-0.063265845
71	0xbd9fac76	-0.07796566
72	0x3d0f8751	0.035041157
73	0xbdbe3e6c	-0.0928925
74	0x3e05ea63	0.13077693
75	0xbd648dac	-0.05579917
76	0xbb3cc74c	-0.0028805314
77	0xbc47999f	-0.012182622
78	0x3aea00cd	0.0017853022
79	0xbda796fb	-0.08183094
80	0xbd06e556	-0.032933556
81	0x3d8d62ad	0.069035865
82	0xbc81be90	-0.015837938
83	0x3c655be6	0.013998961
84	0x3d2b642e	0.041843586
85	0xbd1aed86	-0.037824176
86	0x3d0ecd9c	0.034864053
87	0x3cb5627f	0.022141693
88	0xbd072b24	-0.033000126
89	0xbaa82df1	-0.0012831074
90	0xbc6ebe58	-0.014571749
91	0xbd07a9a3	-0.033120763
92	0x3d3ee982	0.04660941
93	0x3d2b0ba0	0.041759133
94	0xbd3e44ed	-0.04645245
95	0x3dbd875c	0.092543334
96	0xbd44be47	-0.048033025
97	0x3e0793a5	0.13239916
98	0xbd2f1d4f	-0.04275256
99	0xb9248cbd	-0.00015692688
100	0x3ce2f78a	0.027705926
101	0x3be8e2d3	0.0071071177
102	0xbd8f893f	-0.070085995
103	0x3ca810e9	0.020515876
104	0xbdaefa13	-0.085437916
105	0x3d89f629	0.067364044
106	0x3dafe2ce	0.085881814
107	0x3d4c9087	0.04994252
108	0x3d408c67	0.047008898
109	0x3bf3a0ad	0.0074349255
110	0xbd8b6f5f	-0.06808352
111	0xbd6432db	-0.055712562
112	0xbd820d3a	-0.06350179
113	0x3d06085a	0.03272281
114	0x3d3c6a10	0.045999587
115	0x3d2e3816	0.042533956
116	0xbd3cac15	-0.046062548
117	0xbb07026e	-0.0020600813
118	0xbda9392b	-0.08262857
119	0x3d0ad9a0	0.03389895
120	0x3d462317	0.048373308
121	0xbdeedc3e	-0.116631016
122	0xbc82d4e4	-0.015970655
123	0x3d84ac79	0.06478209
124	0xbd5b1e78	-0.053495854
125	0x3d0d8d86	0.034558795
126	0xbd9d9d4f	-0.0769602
127	0xbd4dd087	-0.050247695
128	0xbd479aaf	-0.048731502
129	0x3dbac41c	0.09119436
130	0xbdc7be7d	-0.0975313
131	0x3d8585a7	0.06519633
132	0xbdc4a525	-0.09601811
133	0xbd07235a	-0.0329927
134	0xbd700cab	-0.05860583
135	0xbd10b7ba	-0.035331465
136	0x3c523795	0.012830635
137	0xbd3350fe	-0.043778412
138	0x3d2c6e1e	0.042097203
139	0xbd92e90a	-0.07173355
140	0x3ca60a26	0.020268511
141	0xbdb5d095	-0.088776745
142	0x3e66e3ed	0.22547884
143	0x3d808e5e	0.062771544
144	0xbd0b4bd2	-0.034007855
145	0xbce0f58a	-0.027460832
146	0xbd50489e	-0.050850503
147	0xbe1df228	-0.15424407
148	0x3d6eeb72	0.058330007
149	0xbb3e3113	-0.002902095
150	0xbdaa59c0	-0.083179
151	0xbd508769	-0.050910387
152	0xbd546c31	-0.051860992
153	0xbdc7f5fe	-0.09763716
154	0x3e3127ce	0.1730034
155	0xbd20dd45	-0.03927352
156	0xbe02b89c	-0.12765735
157	0x3d333d5b	0.043759685
158	0x3ce0b599	0.027430343
159	0xbc17853f	-0.009248077
160	0xbd2cf675	-0.042227227
161	0x3d82f081	0.06393529
162	0xbda14cc9	-0.07875974
163	0x3c619720	0.013768941
164	0xbdc8ff92	-0.09814371
165	0x3cf34d69	0.029699998
166	0x3db29cf3	0.08721342
167	0x3ccd0b28	0.025029734
168	0xbc81747a	-0.01580261
169	0x3cf81f3c	0.030288331
170	0xbbe37b67	-0.006942201
171	0xbd2b36bc	-0.041800246
172	0xbc05bc86	-0.008162623
173	0x3c30def9	0.010795348
174	0x3ddc49f9	0.10756297
175	0x3ceeddc2	0.029158477
176	0xbd75c674	-0.060003713
177	0x3c73d7fd	0.014883039
178	0x3d433a0a	0.047662772
179	0x3bca2563	0.0061690076
180	0x3cb85151	0.022499712
181	0x3c8877b8	0.016658649
182	0xbd6f5b74	-0.058436826
183	0xbd710712	-0.058844633
184	0xbd73fdf3	-0.059568357
185	0xbd4a51dd	-0.049394477
186	0x3c83f65f	0.01610869
187	0x3e0c50dc	0.1370272
188	0x3c807a77	0.015683396
189	0xbdbd7e63	-0.09252622
190	0x3d773c58	0.060360283
191	0xbd259c35	-0.040432174
192	0xbce0ee62	-0.02745742
193	0xbc0b20b4	-0.008491684
194	0xbd8c2b19	-0.06844158
195	0xbd9b2b02	-0.075765625
196	0x3c3a2920	0.011362344
197	0x3c796799	0.0152224535
198	0xbe2a7786	-0.16647157
199	0xbc74785f	-0.014921277
200	0xbd962c53	-0.07332673
201	0xbda67bb8	-0.08129066
202	0xbc373c3f	-0.011183797
203	0x3e4467c0	0.19180202
204	0x3d60cef4	0.054884866
205	0xbd32205d	-0.043487895
206	0x3b46e375	0.0030347977
207	0xbddd88af	-0.10817086
208	0xbc578e32	-0.013156461
209	0xbd142e7a	-0.036177136
210	0x3ca81fea	0.02052303
211	0x3ce4667b	0.027880898
212	0xbd025801	-0.03182221
213	0xbd85aee3	-0.065274976
214	0xbd2a81c0	-0.041627645
215	0x3d8b946c	0.068154186
216	0x3d80b64d	0.06284771
217	0xbb9c7ae9	-0.004775394
218	0x3e22a7ad	0.15884276
219	0xbd07c196	-0.033143602
220	0x3d4f6fda	0.05064378
221	0xbe1f8007	-0.15576182
222	0xbca53640	-0.02016747
223	0xbcba7208	-0.022759452
224	0xbd9efbdf	-0.07762884
225	0xbd8e4759	-0.06947202
226	0xbdd00431	-0.101570494
227	0xbdfc9471	-0.123330005
228	0xbc8de017	-0.017318768
229	0xbbcfef96	-0.0063456995
230	0xbd187301	-0.03721905
231	0xbd61901b	-0.05506907
232	0x3c45d036	0.012073567
233	0xbced7b9c	-0.028989606
234	0xbdc28768	-0.09498483
235	0x3d6484b2	0.05579061
236	0x3af05358	0.0018335385
237	0x3e178fc2	0.14800933
238	0xbcd81fa4	-0.026382275
239	0xbdbff94e	-0.09373723
240	0x3d9120db	0.07086345
241	0xbdbafe0a	-0.09130485
242	0x3db96db0	0.09054124
243	0xbdbadfce	-0.091247186
244	0x3d925b6d	0.07146344
245	0x3d8ff329	0.07028801
246	0xbd8fc31a	-0.070196345
247	0x3e0bef4b	0.13665502
248	0x3d544dc9	0.051831994
249	0xbddce60a	-0.10786064
250	0x3d234528	0.039860874
251	0x3b7973c9	0.0038063398
252	0xbc31e11c	-0.010856893
253	0x3cb920bc	0.022598617
254	0xbc959d0b	-0.01826336
255	0x3cfc9b65	0.030835817

network_body._body_endoder.seq_layers.2.bias f4 [256]
0	0xbd085c4d	-0.03329115
1	0x3cd5e347	0.02610935
2	0x3ad04f08	0.0015892694
3	0x3bdefe3c	0.0068052094
4	0xbc6df487	-0.014523632
5	0xb865fe5a	-5.4834738e-05
6	0x3b4dbd08	0.003139319
7	0xbcaadeab	-0.02085813
8	0x3cbe9951	0.023266466
9	0xbb734b9b	-0.0037123922
10	0xbca1035d	-0.019654924
11	0xbc135575	-0.0089925425
12	0x3ba72c15	0.0051016905
13	0xbcab47b5	-0.020908216
14	0x3c0a4da3	0.008441362
15	0xbbf49c32	-0.007464909
16	0xbc531609	-0.012883672
17	0xbb2ca407	-0.0026342885
18	0x3b9da0e6	0.0048104404
19	0x3c05501f	0.008136778
20	0x3b06dc1f	0.002057798
21	0x3c9b747d	0.018976444
22	0xbc3a3e72	-0.011367427
23	0xbc48e80c	-0.012262356
24	0xbc25b2c5	-0.010113423
25	0xbc60b863	-0.013715836
26	0xbc207c09	-0.009795197
27	0xbc4fd364	-0.012684677
28	0xbc89606e	-0.016769614
29	0x3c83478c	0.016025327
30	0xbcb352de	-0.0218901
31	0xbc97961f	-0.0185042
32	0xbccd1d70	-0.025038451
33	0xbbc71724	-0.0060757566
34	0x3aa40333	0.001251316
35	0xbba9b486	-0.005178991
36	0xbcab41ed	-0.02090546
37	0xbbe5f0d6	-0.0070172353
38	0x3cbe5c28	0.023237303
39	0x3c2fbaa6	0.010725653
40	0xbd37b4c4	-0.044850126
41	0xbcaa5553	-0.020792639
42	0xbb02791c	-0.0019908613
43	0xbcaeb8eb	-0.02132841
44	0xbc0c3321	-0.008557112
45	0xbbfb1250	-0.007662095
46	0xbb329414	-0.0027248906
47	0x3c67f7eb	0.014158229
48	0xbc8d4e1b	-0.017249158
49	0x3b79c643	0.0038112558
50	0xbbc9af6f	-0.0061549465
51	0xbc0f2012	-0.0087356735
52	0xbcbd9695	-0.023143092
53	0x3c5c021d	0.013428238
54	0x3c63f002	0.013912203
55	0xbb37ed84	-0.0028065154
56	0x3bb0bcd1	0.0053936024
57	0xba79ece0	-0.00095338933
58	0x3c46f955	0.012144406
59	0xbcdbe505	-0.026842603
60	0x3c35e75f	0.011102526
61	0x3c967354	0.01836554
62	0xbd16ee16	-0.03684815
63	0xbc33f8a9	-0.010984578
64	0xbc260cca	-0.010134885
65	0xbc511b4f	-0.0127628585
66	0xbc661614	-0.01404335
67	0x3c0c814e	0.0085757505
68	0x3ccb75f4	0.024836518
69	0x3c70bc13	0.014693278
70	0xbc132954	-0.008982021
71	0xbb801327	-0.003908533
72	0x3ab72b07	0.0013974615
73	0xbc82726c	-0.015923701
74	0x3b37839b	0.0028002027
75	0x3b8b260c	0.004246479
76	0x3c33122f	0.010929628
77	0x3c30d94c	0.010793995
78	0xbc2e1933	-0.010626125
79	0x3c2ef9e3	0.010679695
80	0xbc95e7f3	-0.018299079
81	0x3cf6d865	0.030132482
82	0x3c0861ba	0.008324081
83	0xbba57b84	-0.0050501246
84	0xbaee4aa7	-0.0018180207
85	0x3b40c450	0.0029413886
86	0x3c28c7b5	0.01030152
87	0xbc35e40f	-0.011101737
88	0x3cd01324	0.025399752
89	0xbcf359b0	-0.029705852
90	0x3caa8f4f	0.020820288
91	0x3c82e2f9	0.01597737
92	0xbd39fa8c	-0.045404956
93	0x3c93a7af	0.018024294
94	0xbc4451ea	-0.01198242
95	0x3c08c2bc	0.00834721
96	0xbc8c3d3b	-0.01711904
97	0x3badefa5	0.005308109
98	0x3b1de909	0.0024095199
99	0xbc30ddf6	-0.010795107
100	0xbb8a3147	-0.0042173
101	0x3c6b4a17	0.014360926
102	0xb9764292	-0.00023485188
103	0xbac2a4f0	-0.0014850181
104	0xbcb83f75	-0.022491196
105	0x3d0965d2	0.03354437
106	0x3c51efc7	0.012813515
107	0x3c33cc3d	0.010973987
108	0x3cb144e0	0.021639287
109	0x3c83c933	0.01608715
110	0xbc08f1b8	-0.0083584115
111	0xbcd06748	-0.025439873
112	0x3c83bd4d	0.016081477
113	0xbc0f9d61	-0.008765549
114	0xbbc56d52	-0.006024995
115	0xbc815b84	-0.015790708
116	0xbc008aa7	-0.007845557
117	0xbc86323f	-0.016381381
118	0x3c1ee830	0.0096989125
119	0xbca16637	-0.01970206
120	0xbca2da22	-0.019879404
121	0xbd05b957	-0.032647457
122	0x3b8228e4	0.0039721597
123	0xbc399eb2	-0.01132934
124	0xbb25a6fb	-0.002527653
125	0xbb200473	-0.0024416714
126	0xbb415986	-0.0029502823
127	0xbcf7bd3e	-0.030241605
128	0x3ccd7ef3	0.025084948
129	0x3c04ec82	0.0081130285
130	0x3c598b7e	0.013277886
131	0x3c166542	0.009179415
132	0x3c6def70	0.014522418
133	0x3be8dae9	0.0071061742
134	0x3cdbbaad	0.026822412
135	0x3cc17dae	0.023619499
136	0x3c7b98fa	0.015356297
137	0xbd0aacf1	-0.033856336
138	0xbbe377d4	-0.006941775
139	0x3c9885c7	0.018618478
140	0x3ceb762e	0.028742876
141	0xbb99bb4d	-0.0046915174
142	0xbc929dae	-0.017897453
143	0xbc375086	-0.011188632
144	0x3c5c8978	0.0134605095
145	0x3c22c944	0.009935681
146	0x3c8027ad	0.015643919
147	0x3c9c708a	0.019096632
148	0x3c1c0a97	0.009524009
149	0xb881feaf	-6.198638e-05
150	0x3bc6f855	0.006072084
151	0x3cd64de8	0.026160195
152	0x3cd3ba69	0.025845723
153	0xbcb5ff20	-0.02221638
154	0xbabd5f1a	-0.0014447898
155	0xbc655f84	-0.0139998235
156	0xbc51bfc5	-0.012802069
157	0x3c997624	0.018733092
158	0xbab23c9b	-0.0013598384
159	0xbbf2c638	-0.0074088834
160	0xbc5766e7	-0.013147092
161	0x3d0b7469	0.034046564
162	0x3b0ea87f	0.0021767912
163	0x3c503bf8	0.01270961
164	0xbc772337	-0.0150840795
165	0xbc818ff7	-0.015815718
166	0xbc39742a	-0.0113192
167	0xbcd01917	-0.025402589
168	0x391c3ffc	0.00014901155
169	0xbc89c44c	-0.016817234
170	0xbc10a93a	-0.008829409
171	0xbcd41e2c	-0.025893293
172	0xbca8b353	-0.020593321
173	0x3bfc0f40	0.0076922476
174	0xbacf2ef9	-0.0015806846
175	0x3b1048d0	0.0022016056
176	0xbcbba626	-0.022906374
177	0x3c3d6b36	0.011561206
178	0xbbef0793	-0.007294604
179	0xbb8c6516	-0.0042845113
180	0x3c6db611	0.01450874
181	0xbbcd068c	-0.006256884
182	0x3d457ca7	0.04821458
183	0xbca01db1	-0.019545408
184	0x3b5532d5	0.003253152
185	0x3b2635c8	0.0025361646
186	0xbc95ea90	-0.018300325
187	0x3c3da4b6	0.011574915
188	0xbd0dcab0	-0.034617126
189	0xbba81e65	-0.0051305764
190	0x3ae660fa	0.0017576509
191	0xbc70c532	-0.0146954525
192	0x3bc9b037	0.0061550396
193	0x3c33b865	0.010969256
194	0xbd11abd2	-0.03556425
195	0x3c8bccf8	0.01706551
196	0x3c47dfe8	0.0121993795
197	0x3c2a5b0f	0.010397687
198	0x3c3464a3	0.011010322
199	0x3c4383ca	0.011933276
200	0x3c64bca7	0.013960994
201	0xbc9891e0	-0.018624246
202	0xbbea7aed	-0.007155767
203	0xbc7ec88d	-0.015550745
204	0x3b224746	0.002476172
205	0x3a93f51b	0.0011288257
206	0xbca380f7	-0.019958956
207	0xbc698f6c	-0.014255386
208	0xbc12a722	-0.00895098
209	0x3ac7f2df	0.0015254876
210	0x3af537d9	0.001870866
211	0x3b61110a	0.0034342431
212	0x3a2b3006	0.00065302884
213	0x3be87958	0.0070945434
214	0x3cb9ce6a	0.022681434
215	0x3c961734	0.018321611
216	0x3c2ad1a8	0.0104259625
217	0xbc95c604	-0.018282898
218	0x3bc45d3c	0.0059925597
219	0xbc544b16	-0.012957355
220	0x3c547031	0.012966202
221	0xbb352005	-0.0027637493
222	0x3be3b005	0.0069484734
223	0xbcff78fc	-0.03118562
224	0xbc69654e	-0.014245344
225	0xbc1652e1	-0.009175033
226	0x3be6a512	0.007038721
227	0xbc490724	-0.012269769
228	0xb8daade1	-0.000104274375
229	0xbc1d8010	-0.009613052
230	0x3b2e0f1a	0.0026559294
231	0x3c46cc8e	0.012133731
232	0xbcdef559	-0.0272166
233	0x3b62189d	0.0034499534
234	0xbb146241	-0.0022641572
235	0x3c54d593	0.012990373
236	0x3d086d02	0.033307083
237	0x3cee0554	0.029055275
238	0x3c82b583	0.015955692
239	0x3bc91998	0.006137084
240	0x3ce266cb	0.027636906
241	0x3cd03c9d	0.025419528
242	0x3c6fcdbf	0.014636456
243	0xbc360cf4	-0.011111487
244	0x3c9ed0a0	0.01938659
245	0xbc640e25	-0.013919388
246	0x3c7ec0d6	0.015548905
247	0x3ab37084	0.0013690148
248	0xbb073fb4	-0.0020637335
249	0xb96b38a8	-0.00022432453
250	0x3cc12b55	0.023580233
251	0x3b611658	0.0034345593
252	0xbc2123c0	-0.009835184
253	0xbc7c74e4	-0.015408728
254	0xbc3eb361	-0.011639447
255	0x3bb6b2dd	0.0055755214

action_model._discrete_distribution.branches.0.weight f4 [3, 256]
0	0xbc8fac96	-0.01753835
1	0xbd31ad6d	-0.043378282
2	0x3cc8ee98	0.024527833
3	0x3bc886e9	0.006119598
4	0xbc8f55a8	-0.017496899
5	0xbb74693a	-0.0037294165
6	0xbb25bbf3	-0.0025289028
7	0x3b96b1cb	0.0045988313
8	0xbc5f33a0	-0.013623148
9	0xbcc78222	-0.024354044
10	0x3a629f0f	0.00086449174
11	0x3bfc70a5	0.007703858
12	0xbc89405b	-0.01675432
13	0x3b870bfd	0.004121302
14	0xbba7b0e3	-0.005117522
15	0x3c06fb8c	0.008238684
16	0xbb997037	-0.0046825665
17	0x3bf2b6a2	0.0074070254
18	0x3ca448bc	0.020054214
19	0x3ceb7f18	0.028747126
20	0xbc0e5afe	-0.008688686
21	0xbc6fe05c	-0.014640894
22	0x3c0a598d	0.008444202
23	0x3c386fb4	0.011257101
24	0x3bf684f6	0.0075231744
25	0xbbc2cdc8	-0.005944941
26	0x3c9128cb	0.017719647
27	0xbcfddd7d	-0.030989403
28	0x3d42f505	0.04759695
29	0x3d1202af	0.03564709
30	0xbc9e1558	-0.019297287
31	0xbbbdc188	-0.005790893
32	0xbc99d470	-0.018778056
33	0x3c9d8d5a	0.01923244
34	0x3cdbe28a	0.02684142
35	0x3c8ce4a1	0.017198863
36	0xbc95e1e1	-0.018296184
37	0xbc72d871	-0.014822111
38	0x3aace468	0.0013190629
39	0x3c36b675	0.0111519
40	0xbcd939c9	-0.026516812
41	0xbbedbb63	-0.0072550043
42	0x3c3d4066	0.011550998
43	0x3c8498ae	0.016186085
44	0xbd19f462	-0.037586577
45	0x3c8a5149	0.016884463
46	0xbaeac295	-0.0017910773
47	0x3ca0ebfb	0.019643774
48	0xbc911032	-0.017707918
49	0xbc23f9c0	-0.0100082755
50	0xbc3bbbb8	-0.01145833
51	0x3cf4a53c	0.029863946
52	0x3bcc0e32	0.006227278
53	0xbaf49705	-0.001866073
54	0x3c892d6c	0.016745292
55	0x3bbfcada	0.005853039
56	0x3c82e321	0.015977444
57	0xbcb5c07d	-0.022186512
58	0x3c52a9f9	0.012857907
59	0x3d2624c5	0.04056241
60	0xbca90aad	-0.020634973
61	0x3c7246be	0.014787374
62	0xbb40edad	-0.002943854
63	0x3cd27e9c	0.025695138
64	0x3c195db8	0.009360723
65	0x3cca1abd	0.024670953
66	0xbcfe64c4	-0.031053908
67	0xbcccf593	-0.025019443
68	0xbd114a74	-0.035471395
69	0xbd469956	-0.048486076
70	0xbc1e0b3b	-0.009646232
71	0xbae52e22	-0.0017485062
72	0xbbdafd77	-0.0066830474
73	0x3c8c6c1a	0.01714139
74	0x3bcfd683	0.0063427105
75	0xbca7f554	-0.020502724
76	0x3d20b8ab	0.039238613
77	0xbc9a5180	-0.01883769
78	0x3ccd378b	0.025050899
79	0x3cccb321	0.024987759
80	0x3d59c7c3	0.053169023
81	0xbd090b92	-0.0334583
82	0x3cabade4	0.020956941
83	0xbc872fd7	-0.016502304
84	0x3c46e994	0.01214065
85	0xbd257a91	-0.04040009
86	0xbcbdc64f	-0.02316585
87	0x3ce88bf1	0.028387042
88	0x3b503dc3	0.0031775094
89	0x3c0b8efe	0.008517979
90	0x3bacaaf0	0.005269401
91	0xbcd302d1	-0.025758179
92	0x3ca927b6	0.020648818
93	0x3c24f314	0.01006772
94	0xbc7aeca2	-0.015315207
95	0xbd253881	-0.04033709
96	0x3c87e9e4	0.01659102
97	0x3c44771f	0.011991291
98	0x3b9b4979	0.004738983
99	0x3cc5f347	0.024163855
100	0x3c513c79	0.012770765
101	0x3b19d19a	0.002347088
102	0xbcc1db17	-0.02366404
103	0xbc6a1cfe	-0.014289139
104	0xbd132462	-0.03592337
105	0xbc239ffb	-0.009986873
106	0xbd290620	-0.041265607
107	0xbc1a1128	-0.009403504
108	0xbcb93c66	-0.022611808
109	0xbc8f0e17	-0.017462773
110	0x3952c271	0.00020099596
111	0xbd04418c	-0.032289073
112	0xbd0eefbf	-0.03489661
113	0xbc262058	-0.010139547
114	0x3d175a03	0.036951076
115	0x3d41d00e	0.047317557
116	0xbbe74d64	-0.007058786
117	0x3bd0c9ab	0.006371697
118	0x3d279294	0.040911272
119	0x3c4d50dd	0.012531486
120	0xbc428b4b	-0.01187403
121	0xbc599d20	-0.01328209
122	0x3caf4f76	0.021400195
123	0xbd0286c1	-0.031866793
124	0xbbfd0ca1	-0.0077224527
125	0xbc5a75a4	-0.013333712
126	0x3caaee96	0.02086572
127	0xbb98afcf	-0.00465963
128	0x3cbc16f9	0.022960173
129	0xbcb5c67e	-0.022189375
130	0x3cc87cc3	0.024473554
131	0x3bb782fa	0.0056003304
132	0xbbe7d140	-0.007074505
133	0x3d4f081b	0.05054484
134	0x3ca4ee67	0.02013321
135	0x39a3c20c	0.0003123436
136	0xbd1e1559	-0.038594577
137	0xbcc68dc2	-0.024237517
138	0xbc00b3ee	-0.007855399
139	0x3d09acae	0.033611946
140	0xbd0ae916	-0.033913694
141	0xbc8019e1	-0.01563734
142	0xbc522d63	-0.012828204
143	0x3c92cc2e	0.017919626
144	0xbc19d8d4	-0.009390075
145	0x3cceab49	0.02522816
146	0xbb8bdbf0	-0.004268162
147	0xbd0070bf	-0.031357523
148	0xbbf74c35	-0.0075469264
149	0xbc799789	-0.015233883
150	0x3c304ef0	0.010761008
151	0x397303d4	0.00023175712
152	0x3c97d390	0.018533498
153	0xbc9229a3	-0.01784212
154	0xb9d0daef	-0.0003983597
155	0xbc4b4eb4	-0.012408901
156	0x3d01007c	0.031494603
157	0xbcd21ccc	-0.025648497
158	0x3d15a060	0.0365299
159	0xbb75e45b	-0.0037520144
160	0xbca20655	-0.01977841
161	0xbc573035	-0.013134052
162	0x3d61d7c2	0.055137403
163	0xbcb29d60	-0.021803558
164	0xbc38dae8	-0.01128266
165	0xbb131702	-0.0022444134
166	0xbc2c8740	-0.010530293
167	0xbcce2014	-0.02516178
168	0x3ce32126	0.027725767
169	0xbba5239d	-0.005039646
170	0x3cd31c60	0.025770366
171	0x3c9987a5	0.018741438
172	0xbcac3dd9	-0.021025585
173	0x3c20614b	0.009788821
174	0xbc90115d	-0.017586404
175	0x3cd9348a	0.02651431
176	0xbc9bfcbb	-0.01904141
177	0xbd70a447	-0.058750417
178	0x3d37d7bf	0.044883486
179	0x3c26e48b	0.010186325
180	0x3bb875b3	0.005629265
181	0x3ccffa0c	0.025387786
182	0x3b214ad2	0.0024611247
183	0xbca0d72e	-0.019633856
184	0xbb7b7d9a	-0.0038374425
185	0x3c615eed	0.013755542
186	0xbd0f8f9f	-0.035049077
187	0xbcb3e151	-0.021958025
188	0xbc6c4c1d	-0.014422444
189	0xbcf1413f	-0.029450057
190	0x3cd24c74	0.025671221
191	0xbc99b8a6	-0.018764805
192	0xbcb6235e	-0.022233661
193	0xbc93cf6b	-0.01804324
194	0xbca1c602	-0.019747738
195	0x3cdb590b	0.026775857
196	0xbb8e4d3f	-0.0043427045
197	0x3b84cb6e	0.004052571
198	0xbbf6a306	-0.007526758
199	0xbd06c371	-0.03290123
200	0x3cdb603b	0.026779285
201	0xbd111ff3	-0.03543086
202	0xba4e62ce	-0.00078729994
203	0xbca3af09	-0.019980924
204	0x3d19de5f	0.037565585
205	0xbd2db326	-0.042407177
206	0xbcb7e368	-0.022447303
207	0xbcbd60f0	-0.023117512
208	0x3c96153e	0.018320676
209	0xbb625fd3	-0.003454198
210	0xbbff52f3	-0.0077918707
211	0x3ac8d8b8	0.0015323376
212	0x3c92cdd0	0.017920405
213	0x3a91ae2b	0.0011114528
214	0xbb846ee8	-0.0040415414
215	0xbcd7c20f	-0.026337652
216	0x3a9f680c	0.0012161746
217	0x3cf0f6d4	0.029414572
218	0xbc7a8c35	-0.015292217
219	0x3c9528f4	0.018208005
220	0xbc15adae	-0.009135647
221	0xbc9c941b	-0.019113591
222	0x3d2595be	0.04042601
223	0xbccc7fdf	-0.024963317
224	0x3d09dcc1	0.033657793
225	0xba5f4525	-0.0008517078
226	0xbc1fc4a8	-0.009751476
227	0xbbe4c4e3	-0.0069814785
228	0x3d5ef182	0.05442954
229	0x3b8a6f43	0.004224689
230	0x3ab44c4c	0.0013755648
231	0x3c415d8f	0.011802091
232	0x3cc2fa33	0.023800945
233	0x3c948da6	0.01813395
234	0xbcc863ba	-0.024461616
235	0xbcb18171	-0.021668168
236	0xbbda0b8a	-0.0066542076
237	0xbbe60c3d	-0.007020502
238	0x3c1ff734	0.009763528
239	0x3c35e448	0.01110179
240	0xbb93ab2b	-0.004506489
241	0xbc034483	-0.00801194
242	0xbd20d11c	-0.039261922
243	0x3c7ce823	0.015436205
244	0x3ce0a571	0.027422639
245	0x3ab4a420	0.0013781823
246	0x3b808f76	0.003923352
247	0x3c6376c0	0.013883293
248	0x3c56399f	0.013075261
249	0x3d4293bf	0.047504183
250	0xbcbcec8f	-0.023062019
251	0x3ca0abe4	0.019613214
252	0x3ce8abd2	0.028402243
253	0xbc0a715f	-0.008449881
254	0x3c80e89c	0.015735917
255	0x3abb8716	0.0014307227

action_model._discrete_distribution.branches.0.bias f4 [3]
0	0x3cf81afb	0.030286303
1	0x3d0d9bba	0.03457234
2	0xbd921ff8	-0.07135004

action_model._discrete_distribution.branches.1.weight f4 [3, 256]
0	0xbc582a89	-0.013193735
1	0x3bac46b1	0.0052574505
2	0x3ba9fb4e	0.0051874286
3	0x3c956b63	0.018239683
4	0xba37a988	-0.0007006158
5	0x3c261168	0.010135986
6	0xbb9d2b76	-0.0047964407
7	0xbc3b9fe8	-0.011451699
8	0x3c2b9cb9	0.010474377
9	0xbc97e13c	-0.018540017
10	0xbc2be626	-0.010491883
11	0x3c76fa5c	0.015074339
12	0xbc0a2165	-0.008430813
13	0xbc63396e	-0.013868673
14	0x3c0fe30b	0.008782159
15	0xbb86657d	-0.004101454
16	0xbc5aa7a0	-0.013345629
17	0xbbe63e3a	-0.007026461
18	0x3c945eb0	0.018111557
19	0x3c338ed0	0.010959342
20	0xbc8b4226	-0.016999315
21	0x3be045fd	0.0068442808
22	0xbb8d63d9	-0.0043148813
23	0x3c99204b	0.018692156
24	0xbb0339d8	-0.0020023491
25	0xbcca73a9	-0.024713354
26	0x3ab036c2	0.0013444053
27	0xbc040f51	-0.008060292
28	0xbc2221f7	-0.009895793
29	0x3c37982d	0.011205715
30	0xbc693176	-0.014232984
31	0xbc00e881	-0.007867933
32	0xbc3800df	-0.011230676
33	0x3bb87df0	0.0056302473
34	0x3bd971b8	0.006635871
35	0x3ba954f9	0.0051676002
36	0xbc4b8274	-0.012421239
37	0x3b2ffee9	0.002685482
38	0x3ca81d9f	0.020521937
39	0x3b4c8988	0.0031209905
40	0xbc9b6a62	-0.018971626
41	0xba84c688	-0.0010129968
42	0x3cb10b73	0.021611905
43	0x3a748d4c	0.0009328916
44	0xbc95825f	-0.018250642
45	0x3c01c61b	0.007920767
46	0xbc2165a8	-0.009850897
47	0x3c29bc2f	0.010359808
48	0x3a1fc0cb	0.0006094097
49	0xbbb56fbb	-0.005537001
50	0xbc55c99c	-0.013048556
51	0xbb929455	-0.004473249
52	0x3b4be428	0.0031111334
53	0x3bb1a834	0.0054216627
54	0xbb7403a0	-0.0037233606
55	0xb8485a22	-4.776766e-05
56	0xbc5824ee	-0.0131923985
57	0xbc0e95d2	-0.008702712
58	0x3c81ffd5	0.01586906
59	0xbb8274f6	-0.003981228
60	0xbc5dcdb4	-0.013537813
61	0x3b3d22e4	0.0028859908
62	0xbc2938c4	-0.010328475
63	0x3b425f23	0.0029658757
64	0xbb1728cc	-0.0023065088
65	0x3a6417d9	0.00087010633
66	0xbb288576	-0.0025714315
67	0xbcce2273	-0.025162911
68	0x3c6e4f58	0.014545284
69	0x3c787b7c	0.01516616
70	0x39ce44e0	0.00039342698
71	0x3c1d3da8	0.0095972195
72	0x3b660846	0.0035100146
73	0xbca02869	-0.019550519
74	0x3c51bd00	0.012801409
75	0xbd0353ee	-0.032062463
76	0x3b3e585f	0.0029044372
77	0x3be341f2	0.0069353515
78	0x3bad2bc8	0.00528476
79	0x3b7214c2	0.0036938642
80	0xbc7ca09e	-0.0154191535
81	0x3d11e8be	0.03562235
82	0xbb7eae58	-0.0038861241
83	0xbc8b79a0	-0.017025769
84	0xbc20c39d	-0.009812263
85	0x3c953c0d	0.018217111
86	0xbc9deb92	-0.019277368
87	0x3b2d5e2a	0.0026453831
88	0x3c88eba6	0.016713928
89	0xbc26bf35	-0.010177423
90	0x3cbbf2e2	0.022942964
91	0x3c355a7a	0.011068935
92	0xbd12c7fc	-0.03583525
93	0x3cbc1a46	0.022961747
94	0x3aa53a21	0.0012605825
95	0x3cba3da6	0.022734474
96	0x3c86ed05	0.016470442
97	0x3aa85495	0.001284259
98	0x3a9daca8	0.0012029605
99	0xbb4ebe43	-0.003154651
100	0x3ba1af98	0.0049342625
101	0xbb1a8bd5	-0.0023581882
102	0x3c76ea4d	0.01507051
103	0x3c970bf6	0.01843832
104	0x3c615cbc	0.01375502
105	0xbcba7f9c	-0.022765927
106	0x3bb8491b	0.005623949
107	0xbc25f2f1	-0.0101287225
108	0x3ce9b69e	0.028529461
109	0xbc2bd143	-0.010486904
110	0x391ff810	0.00015255832
111	0x3b692edb	0.0035580907
112	0x3bc63f3b	0.006050018
113	0x39de292b	0.00042373812
114	0xbbfb5056	-0.007669489
115	0x3b8ef877	0.0043631154
116	0xbb8d65d4	-0.0043151174
117	0x3c13275e	0.008981554
118	0xbb2698d7	-0.002542069
119	0xbc358b1f	-0.011080532
120	0xbcad9b10	-0.021192104
121	0xbc38dead	-0.011283559
122	0x3bdc97f2	0.0067319805
123	0xbc4f40be	-0.012649713
124	0x3bd16bc2	0.0063910196
125	0xbbfcbc95	-0.0077129104
126	0xbc4e384b	-0.0125866635
127	0xbc8574ec	-0.016291104
128	0x3a8d14f1	0.0010763687
129	0xbcd69b22	-0.02619702
130	0x3c6cbc03	0.014449122
131	0x3bc8e388	0.0061306395
132	0xbcee6489	-0.029100673
133	0x3baa922b	0.005205413
134	0x3a98c186	0.0011654354
135	0xba8e568a	-0.0010859531
136	0x3ccc9133	0.02497158
137	0xbd151837	-0.036400046
138	0xbb36cc2a	-0.0027892687
139	0x3c877e0d	0.016539598
140	0x3c94fc92	0.018186841
141	0xba3aa137	-0.000711936
142	0xbc505791	-0.01271619
143	0xbbcb2b54	-0.0062002335
144	0x3a7893cc	0.00094824727
145	0x3c6a1b8d	0.014288795
146	0xbc143afc	-0.009047266
147	0x3d0fe811	0.035133425
148	0x3950ff98	0.00019931642
149	0x3c89bba3	0.016813105
150	0x3b8135ad	0.003943166
151	0xbc8462e8	-0.016160443
152	0x3babc680	0.005242169
153	0xbc3c2d99	-0.011485481
154	0x3bd3b1ff	0.006460428
155	0xbc466305	-0.012108569
156	0xbc3827b9	-0.011239939
157	0x3c4016cd	0.011724186
158	0xbb331631	-0.002732646
159	0xbc410e2f	-0.011783167
160	0xbb8fe93b	-0.004391817
161	0x3be435c5	0.0069644176
162	0x3c89faa7	0.016843153
163	0x3c6c38e5	0.014417862
164	0xbc809c07	-0.0156994
165	0xbc1ba933	-0.009500789
166	0xbca96401	-0.020677568
167	0xbb26be1f	-0.002544291
168	0x3c68fe1a	0.014220739
169	0xbcac2872	-0.02101538
170	0xbc7ab826	-0.0153026935
171	0xbca4f431	-0.02013597
172	0xbca4133b	-0.020028701
173	0x3cc148ab	0.023594221
174	0xbc369dfc	-0.011146065
175	0x3b855fde	0.004070266
176	0xbb4781ea	-0.0030442425
177	0x3c45d85a	0.012075508
178	0xbc488a55	-0.012240012
179	0xbbafecfb	-0.0053688264
180	0x3b20fc64	0.00245645
181	0x3b467a6b	0.003028537
182	0x3d0feada	0.03513608
183	0xbb8931b7	-0.0041868347
184	0x3be6fc7a	0.0070491405
185	0x3c32da23	0.010916266
186	0xbc095e93	-0.008384365
187	0xbc85f741	-0.016353251
188	0xbd078b9c	-0.033092126
189	0xbd07a37c	-0.033114895
190	0x3c436b51	0.011927442
191	0x3ba4638f	0.005016751
192	0xbce65570	-0.028116912
193	0x3c2966b4	0.010339428
194	0xbb0cc471	-0.0021479393
195	0x3c941f94	0.018081464
196	0xbbb28ce9	-0.0054489267
197	0xbbfad43d	-0.0076546953
198	0xbd0c7cda	-0.034298755
199	0x3c8abea2	0.016936604
200	0x3c7c4645	0.015397613
201	0xbc297308	-0.010342367
202	0xbcb0c4c3	-0.021578198
203	0xbc7e4316	-0.015518924
204	0x3c350948	0.011049576
205	0xbc5f30d0	-0.013622478
206	0xbbe760ed	-0.007061115
207	0x3bba600b	0.0056877187
208	0xbc5ddc83	-0.013541344
209	0xbad157ce	-0.0015971602
210	0xbc27fd62	-0.010253282
211	0x3aa1d375	0.0012346344
212	0xbac88e1b	-0.001530114
213	0xbb291024	-0.0025796974
214	0xbc41a7c9	-0.011819788
215	0x3c43a401	0.011940957
216	0xbc39e249	-0.0113454545
217	0xbaf02cbf	-0.0018323882
218	0xbb31829e	-0.002708591
219	0xbc8d4cab	-0.017248472
220	0x3c904ee1	0.017615737
221	0xbc873175	-0.016503075
222	0xbbc0ce5f	-0.0058839764
223	0xbcdf36c4	-0.027247794
224	0xbc217566	-0.00985465
225	0x39cdb57b	0.0003923586
226	0xbcdd35cf	-0.027003197
227	0xbc47aecf	-0.012187674
228	0x3bc2d66e	0.005945972
229	0xbbc5300e	-0.0060176915
230	0xbb66b03b	-0.0035200256
231	0x3c61b62f	0.013776346
232	0xbcac2532	-0.02101383
233	0xbc3e8c84	-0.011630181
234	0x3baba2bd	0.005237906
235	0x3cee0d3f	0.02905905
236	0xbbdf9472	-0.006823116
237	0xbc0b67ec	-0.008508664
238	0x3c29617c	0.0103381835
239	0xbbfe5321	-0.0077613746
240	0xbcf1e6e2	-0.029529039
241	0x3c9da4c1	0.0192436
242	0x3c9299ab	0.01789554
243	0xbbcba745	-0.0062150084
244	0x3c4b3d78	0.012404792
245	0x3a8de295	0.0010824973
246	0x3c0cf5d1	0.008603529
247	0xbb4ba2d8	-0.0031072404
248	0x3b68c359	0.0035516827
249	0x3bbe0523	0.005798952
250	0xbce9d3e6	-0.028543424
251	0xbb82b8d9	-0.0039893207
252	0xbc2ece6b	-0.010669331
253	0xbc5ab9f1	-0.013349996
254	0x3c388841	0.011262954
255	0x3c36654c	0.0111325495

action_model._discrete_distribution.branches.1.bias f4 [3]
0	0x3ca59b57	0.020215673
1	0xbcec178d	-0.028819824
2	0x3bf638cf	0.0075140963

action_model._discrete_distribution.branches.2.weight f4 [2, 256]
0	0xbcd47c4f	-0.025938181
1	0x3da76166	0.08172874
2	0x3cfb3670	0.030665606
3	0xbc8632fd	-0.016381735
4	0xbd09252a	-0.033482708
5	0x3d893cbe	0.06701039
6	0x3d8b9a6d	0.06816564
7	0xbc3b9a94	-0.0114504285
8	0x3d9793b7	0.07401221
9	0x3cce0181	0.025147201
10	0xbb99ec01	-0.0046973233
11	0x3c102428	0.008797683
12	0x3c7e0254	0.015503485
13	0xbc877fe0	-0.016540468
14	0xbc59218a	-0.013252625
15	0xbc015583	-0.007893923
16	0xbabd2a81	-0.0014432223
17	0xbce150f2	-0.027504418
18	0xbce63a08	-0.028103843
19	0xbc6f1210	-0.014591709
20	0x3ca302e8	0.019898847
21	0x3da0e28e	0.07855712
22	0x3c4de49c	0.012566712
23	0xbbc982e2	-0.0061496357
24	0x3d1ec527	0.038762238
25	0x3c3c1fbd	0.011482176
26	0xbbda5b13	-0.006663689
27	0x3c422fdb	0.01185223
28	0x3c1bec0b	0.009516726
29	0x3caa185e	0.020763572
30	0x3c09f612	0.008420484
31	0x3c0b9308	0.008518942
32	0xbce0ff9b	-0.027465632
33	0xbc95a6a1	-0.018267931
34	0x3bf0d145	0.0073491656
35	0x3d1bade4	0.038007632
36	0x3b95ac38	0.004567649
37	0x3d495b97	0.049159613
38	0x3d1be3b3	0.038058948
39	0x3d262ada	0.04056821
40	0xbc5aed73	-0.013362276
41	0x3cd46c11	0.025930436
42	0xbd5b5380	-0.05354643
43	0xbc785607	-0.015157229
44	0x3b20a529	0.0024512506
45	0xbd6714e7	-0.05641642
46	0xbbc1a53d	-0.0059095905
47	0x3d413bd2	0.04717619
48	0xbc926f9c	-0.017875485
49	0x3b4ee83b	0.0031571526
50	0x3cc1d6cd	0.023661995
51	0x3c293b44	0.010329071
52	0x3c035631	0.008016155
53	0xbcf83e6b	-0.0303032
54	0x3d409a91	0.047022406
55	0xbd2af778	-0.04173991
56	0x3d4bcb82	0.049754627
57	0x3c8233b2	0.01589379
58	0xbc84308f	-0.016136436
59	0xbc773fe0	-0.015090913
60	0x3da5e464	0.08100203
61	0x3d3c4ab4	0.04596968
62	0xbcaf3095	-0.02138547
63	0x3d261182	0.04054404
64	0xbc884ae6	-0.016637277
65	0x3c8917be	0.016734954
66	0x3c846195	0.016159812
67	0x3d474dc9	0.048658166
68	0x3db4c5e5	0.08826808
69	0x3da64189	0.081179686
70	0xbd1becba	-0.038067557
71	0x3cfce919	0.030872868
72	0xbc88ad9d	-0.016684348
73	0xbd0457fb	-0.032310467
74	0xbd055dbf	-0.032560106
75	0x3d34f4a5	0.044178624
76	0x3bfc2433	0.007694745
77	0x3c6a6566	0.014306402
78	0xbc93a43b	-0.018022647
79	0xbd27803f	-0.04089379
80	0xbd305737	-0.043051925
81	0x3dccf93f	0.100084774
82	0x3bf19c20	0.007373348
83	0x3c34917b	0.011021013
84	0x3c0dca6a	0.008654216
85	0x3d99c256	0.0750777
86	0x3d636acc	0.05552177
87	0xbce4a889	-0.027912395
88	0x3d2a970a	0.04164795
89	0xbd37caad	-0.04487102
90	0x3d1c6481	0.038181785
91	0x3d5e44c8	0.054264814
92	0xbc8fbd44	-0.017546304
93	0xb9e3a65f	-0.0004342077
94	0x3d3ad085	0.045609016
95	0x3dc1cddc	0.09463093
96	0xbd166efb	-0.036726933
97	0x3d2e80dd	0.042603362
98	0xbc982cce	-0.018576052
99	0xbc94afea	-0.018150289
100	0xbc2147e1	-0.009843797
101	0x3d1725f4	0.03690143
102	0x3d7ade2f	0.061247047
103	0xbc8b113d	-0.016975993
104	0x3c0daba2	0.0086468775
105	0x3d904918	0.070451915
106	0x3dee6b31	0.11641539
107	0x3bd037f7	0.006354328
108	0x3d8dca05	0.06923298
109	0x3d8005a6	0.06251077
110	0xbc8a6d16	-0.01689772
111	0x3c7a0127	0.015259064
112	0x3d5beb2d	0.053691078
113	0xbd0ac9f6	-0.03388401
114	0xbb0c9ff4	-0.0021457644
115	0xbc4880fc	-0.0122377835
116	0x3cd4f180	0.025994062
117	0xbc9030de	-0.017601427
118	0xbc745af0	-0.014914259
119	0x3b41d9ef	0.0029579361
120	0x3b859f97	0.0040778625
121	0xbca68790	-0.020328313
122	0xbd8be5c6	-0.06830935
123	0x3d24bb72	0.040217824
124	0x3baac31f	0.0052112485
125	0x3d315269	0.043291483
126	0x3c99d064	0.018776126
127	0xbc3f466b	-0.011674504
128	0x3d1bb2fd	0.038012493
129	0x3d76632c	0.06015317
130	0x3c0950cf	0.008381083
131	0x3cc513d5	0.024057308
132	0x3cfaee49	0.030631201
133	0x3bdfe314	0.0068324897
134	0x3d2f1c2e	0.042751484
135	0x3d3262c6	0.04355123
136	0x3db41d37	0.08794635
137	0xbc6aa7ba	-0.014322216
138	0xbc422aa2	-0.011850985
139	0x3c7d9eaf	0.015479728
140	0x3da669f4	0.08125678
141	0xbcaaa319	-0.020829724
142	0xbcb7cca4	-0.022436447
143	0x3bfbe476	0.007687147
144	0x3d4aec05	0.049541492
145	0x3beb0c46	0.007173094
146	0x3d3a41f0	0.04547304
147	0x3d8f7884	0.070054084
148	0x3d616769	0.05503026
149	0x3b30ccee	0.0026977616
150	0x3d3f6821	0.046730164
151	0x3d1a39ba	0.03765271
152	0xbbbc6131	-0.005748891
153	0xbc33e1fc	-0.010979172
154	0xbc8efee4	-0.017455526
155	0x3bfc91dd	0.007707818
156	0xbcfd27b9	-0.03090273
157	0x3d4bc110	0.049744666
158	0x3c02c9fc	0.007982727
159	0x3ca0cc15	0.019628564
160	0xbc2c9928	-0.010534562
161	0x3d54df96	0.05197104
162	0xbd45f9cd	-0.04833393
163	0x3db6fd52	0.08935036
164	0xbc9a5812	-0.018840823
165	0xbca9a079	-0.020706402
166	0xbb8f91c4	-0.0043813903
167	0x3a89d0a8	0.0010514455
168	0x3c01b747	0.007917232
169	0xbce72570	-0.028216094
170	0xbd00a9b5	-0.031411845
171	0xbca2e5c1	-0.019884946
172	0xbd510083	-0.05102588
173	0xbd1f5550	-0.03889972
174	0x3d16a7bf	0.03678107
175	0xbcfeca52	-0.031102333
176	0xbc757e9d	-0.0149838
177	0x3da5039c	0.08057329
178	0x3b0c0720	0.0021366552
179	0xbcb7500f	-0.022377042
180	0x3cf6064e	0.030032303
181	0x3cfa4e8d	0.030555034
182	0x3cf4e7c9	0.02989568
183	0xbc3f282c	-0.011667293
184	0x3d9a279e	0.07527088
185	0x3cd17d62	0.025572482
186	0x3c6eb4f8	0.0145695135
187	0x3ce45ca8	0.027876213
188	0xbbfa3cfc	-0.0076366644
189	0x3c94a9d9	0.018147396
190	0x3c254f15	0.010089655
191	0x3a2c5b72	0.0006574906
192	0x3d0c051d	0.034184564
193	0x3d49dd84	0.04928352
194	0xbc55ce8c	-0.013049733
195	0xbcab0d08	-0.020880237
196	0x3d3c4ad4	0.0459698
197	0x3d747b16	0.059687696
198	0x3cebfecb	0.028808018
199	0x3dd01be4	0.1016157
200	0xbc00a5fd	-0.007852075
201	0x3c35d717	0.011098645
202	0x3b525f9a	0.003210044
203	0x3c17e335	0.009270479
204	0x3be1007b	0.0068665124
205	0x3d87947f	0.0662012
206	0xbc5f263e	-0.0136199575
207	0x3b79c074	0.0038109096
208	0x3d296d31	0.0413639
209	0xbb6cde9e	-0.0036143432
210	0x3ca0c001	0.019622805
211	0x3d22474d	0.03961878
212	0xbd66d13f	-0.056351896
213	0x3d39a751	0.04532558
214	0x3d76255b	0.06009422
215	0x3d9572cf	0.072972886
216	0x3d7b450a	0.061345138
217	0xb8be3374	-9.06949e-05
218	0x3cc41b1d	0.02393871
219	0x3c1f0aa9	0.009707131
220	0x3d8d47f2	0.06898488
221	0x3d3fa509	0.04678825
222	0x3c870eb9	0.016486512
223	0xbb25f4ad	-0.002532284
224	0xbcbeed8f	-0.023306636
225	0xbd79d695	-0.060995657
226	0x3d37119d	0.04469453
227	0xbc7204bf	-0.014771639
228	0xbd0035f5	-0.031301457
229	0x3d517718	0.051138967
230	0x3cc592a7	0.02411778
231	0x3b091428	0.0020916555
232	0xbcb7aab4	-0.022420265
233	0x3cc1c320	0.023652613
234	0x3d909da0	0.070613146
235	0x3d74dff9	0.05978391
236	0x3d9ab8d6	0.07554786
237	0x3d874ef6	0.066068575
238	0x3c4284f1	0.011872516
239	0x3d311cb1	0.043240253
240	0x3d3db321	0.04631341
241	0x3d77e65e	0.06052243
242	0x3dbf0f3d	0.09329078
243	0x3c9bd929	0.019024448
244	0x3d4d7c8c	0.050167605
245	0xbc8c456a	-0.017122943
246	0x3d798b81	0.060924057
247	0x3d0eb3f9	0.034839604
248	0xbcb8fa50	-0.022580296
249	0xbb051803	-0.0020308502
250	0x3d2f7287	0.04283383
251	0x3c2eff9f	0.010681062
252	0x3cf1f016	0.029533427
253	0xbc39459a	-0.011308098
254	0xbd2b5063	-0.04182471
255	0x3d65b02b	0.05607621

action_model._discrete_distribution.branches.2.bias f4 [2]
0	0x3c633f57	0.013870082
1	0xbc633f4e	-0.0138700735
