results/buttonPress_3/ButtonPress.onnx (onnx, 352736 bytes, 13 tensors)

discrete_act_size_vector f4 [1, 4]
00000000: 0000 4040 0000 4040 0000 0040 0000 0040
3.0 3.0 2.0 2.0

network_body._body_endoder.seq_layers.0.weight f4 [256, 65]
00000000: 5830 d5bc 99a9 c53d 6fd1 2b3d 33fb 8dbe
00000010: 4d2b d1bd f298 30be 65f1 f73c 3693 57be
00000020: ef98 bebd 01fb ba3d 4955 bd3d b6e3 8fbd
00000030: 95bd ee3d 5748 b7be a697 333e fc9e 97bd
00000040: 433b 3cbe e5fa b33d 2d14 babd fa8d 4fbe
00000050: 1559 3dbd e1fc 05be 8b8f 4e3e 9b75 373d
00000060: ec21 2b3d 8b4b 28be 698b a5bd e8ad 13bd
00000070: 6355 31be 7687 b8bc c095 293d 8700 26be
00000080: a317 3cbd 420a dbbd 5667 b8be 5832 61bd
00000090: 6cfe 63be 6ff3 00be f776 0fbe 3bcf 64be
000000a0: 40c5 63bc 7896 e83c 7f8b e4bd b6cf 82be
000000b0: e105 8dbd fe01 9f3e d21d be3a 3741 0cbe
000000c0: 22ac 34bd 6223 6bbe f25f 33be 1256 5cbe
000000d0: ce5d f73d edbe 20be 00d2 81bd 5fc1 14bd
000000e0: 42ad 26be 1b44 073e 9eb3 08be 47e0 4dbe
000000f0: 67be 563d 42d1 9bbc be4d 0e3e 22b2 a7be
00000100: 0825 85be 548f 0238 0056 70bd a3e2 d53d
00000110: e376 323d 4d01 b1bd b7b4 1f3d cb6d 22be
00000120: 2ee9 0bbd 95b3 a2b8 3fa9 8cbe a4f3 e63b
00000130: cabd 0dbe 3939 6fbe dbdc acbd 9db9 b43c
00000140: b8f4 093e 45df d53d 6bf1 e1bc ca71 b83d
00000150: 4496 023d 0eff 823d 4ca9 56bd c6f1 d4bb
00000160: eb3a d93c 9675 093e 2240 20be a4af 5d3c
00000170: 4876 d73c 000a 4ebd b073 b5bd e0c3 1abd
00000180: a7ff cd3d cda7 0b3e f21a 7bbe 41dd a33b
00000190: 55ce c7bd 9c23 cf3d 4c31 463d 8507 bb3a
000001a0: f60a b13d ea2e d8bc 739c 813d 5ff9 8cbd
000001b0: 013f 28be 0bde 36be 88b9 2c3d c262 343e
000001c0: d4a7 5e3e 0901 f83c 579f 233e d7bb 233d
000001d0: d16c 0b3e 7a14 393c eaa1 a03d d992 d8bd
000001e0: 48cd 033d 2551 e63d eab4 8c3c 98f1 28be
000001f0: ed6b 9f3d d9ea 1abe ed7a 1a3e 6dbf 9c3e
00000200: 4666 393e 21bc 403e 1476 e6bd 045d 93bd
00000210: e645 11be 6265 3bbd 9e87 5b3e f7d1 c1bd
00000220: 9be8 873d 839a 7b3e 4238 3f3d 30d8 85bd
00000230: d4a7 183e d470 20bd b2ee 7e3d 4885 843d
00000240: 4007 39bc 074f 4abd e1ad 9dbc b494 003d
00000250: 9bbe f9bd fbab 1abe 91ba c2bd c018 f83d
00000260: 2ebd e23d 26d0 833d c5e4 a2bd 9138 a9bb
00000270: bc3e 8d3c 4ed8 7bbd 1bce a7bd 7830 77bc
00000280: caec 543e 6350 f23d 0d0b 043e 370a 8f3d
00000290: 1e9e 3a3e de12 333d 611f 353d ee33 c8bb
000002a0: 001a 003e fe5d c3bd 42fb dcbd 872b 943e
000002b0: a2d2 3bbe a45e 023e d175 62be 4740 893c
000002c0: 2c0a 1a3e 4cd7 28be 7eda 403e b6b5 bdbe
000002d0: aa30 a63e e5bb 19bd aba6 883b d70c e9bc
000002e0: bdbc 1a3e b79e 6ebc 8a55 973d ae25 4cbe
000002f0: 22c6 36bd 9414 8abc 1f95 803e 9f4d 72be
00000300: 64e2 1cbe f33f 17bd 4607 b53d 1e08 85bd
00000310: 5996 e53d 7009 e63a da31 623d a54f 873e
00000320: 0830 8a3d 6a20 7abd 7586 4a3d 1c01 90bd
00000330: 4221 c1bd 8eba 83be 434c 45bd ee80 3abe
00000340: 4713 563d 59aa 09be c173 08be 3860 30bd
00000350: 1fed 5ebe 6c76 8e3e 3e13 9abc 2524 403d
00000360: e16d 3c3e b772 31bd d927 5d3e 7348 30be
00000370: 3704 1f3e 64fe 4dbe f2b5 9d3b 11de 883d
00000380: b5db a63d be7d 1fbd b9ca 75bc a07d 5f3d
00000390: 2eb5 70be 3440 49be a6da c53c 5fce 57bc
000003a0: 798b 08bd 67b2 96ba e628 0cbc eacf bc3c
000003b0: f04a 89bc 2eb8 aa3d 41e6 80be 49ee 2c3b
000003c0: 0374 b63d 6955 3bbc 87d8 3d3d eb65 093e
000003d0: 47a3 bd3d baa7 9ebd 5c2c 013e 032e 98bd
000003e0: 43ce b8bc 8518 673d d2af 433d 8da9 033d
000003f0: 2f88 f93d 24c7 f63c 74e8 aebd 1277 04be
-0.026024029 0.09651489 0.04194778 -0.27730712 -0.10213337 -0.17245844 0.030266473 -0.2105225
-0.093065135 0.091299064 0.092447825 -0.07025854 0.11657254 -0.35797378 0.17538318 -0.07403371
-0.18381982 0.08788089 -0.090858795 -0.20269004 -0.046227533 -0.13084747 0.20171945 0.04478989
0.041780397 -0.16435067 -0.08083231 -0.03605452 -0.17317729 -0.02252553 0.04140258 -0.16211139
-0.04592098 -0.10695316 -0.3601634 -0.054979652 -0.22265023 -0.12592863 -0.14010225 -0.22344677
-0.0139020085 0.028392062 -0.11159419 -0.25549096 -0.06885887 0.31056207 0.0014504737 -0.13696752
-0.04410947 -0.22962716 -0.17517069 -0.21517208 0.12078439 -0.15697832 -0.063388824 -0.036317226
-0.1627703 0.13209574 -0.13349769 -0.20105086 0.052427676 -0.01902068 0.13896844 -0.32753092
-0.26004815 3.11279e-05 -0.058675766 0.10443618 0.04357041 -0.08642826 0.038990702 -0.15862195
-0.034157924 -7.758212e-05 -0.27472875 0.007048087 -0.1384193 -0.23361672 -0.08440562 0.022061164
0.13472259 0.10442976 -0.027580937 0.090060785 0.031881586 0.06396304 -0.052407548 -0.006498548
0.026517352 0.13423762 -0.15649465 0.0135306455 0.026301518 -0.050302505 -0.08859956 -0.037784457
0.100585274 0.1363823 -0.24521998 0.0050007408 -0.097561516 0.10114214 0.048386857 0.0014269209
0.08644669 -0.026389558 0.063286684 -0.06883501 -0.16430284 -0.1785814 0.042169124 0.17615798
0.21743709 0.030273931 0.15978752 0.03997406 0.13615729 0.011296386 0.07843383 -0.10574884
0.032178193 0.11245946 0.01717611 -0.1649841 0.07784257 -0.1512865 0.15085955 0.30614796
0.1810542 0.18821765 -0.1125299 -0.07195476 -0.1418682 -0.045750983 0.21438453 -0.09463876
0.06636163 0.2457066 0.04668451 -0.06535375 0.14907771 -0.0391701 0.062239356 0.06470734
-0.011293232 -0.049391773 -0.019247951 0.031391814 -0.12194558 -0.15104668 -0.09508241 0.12114096
0.110712394 0.064361855 -0.079537906 -0.005164214 0.017241828 -0.06148558 -0.081936084 -0.015087239
0.20793453 0.11831739 0.1289484 0.0698437 0.1822438 0.043719165 0.04421938 -0.006109706
0.12509918 -0.09539412 -0.10790111 0.2893946 -0.18342069 0.12731415 -0.22115256 0.016754283
0.15042943 -0.16488379 0.18833348 -0.37052697 0.32459003 -0.037532706 0.004170259 -0.028448505
0.1511106 -0.014564208 0.07389362 -0.19936249 -0.044622548 -0.016855516 0.2511377 -0.23662423
-0.15320736 -0.03692622 0.08839278 -0.06495689 0.11210317 0.001755042 0.055223323 0.2642795
0.067474425 -0.06106607 0.049444634 -0.070314616 -0.094301715 -0.25728267 -0.048168432 -0.18213245
0.052264478 -0.13443889 -0.13325407 -0.04306051 -0.21770142 0.27824724 -0.018808004 0.04690947
0.1840129 -0.04332229 0.21597232 -0.17215137 0.15528952 -0.20116574 0.0048129493 0.06682981
0.081473745 -0.038938276 -0.015001946 0.054563165 -0.23506615 -0.19653398 0.024152111 -0.013171761
-0.033336136 -0.001149726 -0.008554673 0.02304836 -0.016759366 0.08335911 -0.2517567 0.0026387146
0.08908846 -0.011433938 0.046349075 0.13417785 0.09259658 -0.07746835 0.12614578 -0.07430651
-0.02255929 0.056419868 0.047775097 0.032144118 0.12184178 0.030124255 -0.08540431 -0.12936047

network_body._body_endoder.seq_layers.0.bias f4 [256]
00000000: 06b1 0cbe e2f2 383d 3ceb efbb 8ea0 e53c
00000010: 4fc2 db3c ed9a e33d 63cb 53bd 61f2 153d
00000020: a70e c63d 1bff c9ba f883 4c3c c447 7c3d
00000030: a930 36bc 1fc3 b7bc 8903 013d dba3 c73c
00000040: ea6b 973d 53f0 ffbc 894f 573d 48af bc3c
00000050: 7ca9 8a3c fc96 bc3c 3155 68bd 00e1 2fbb
00000060: e9f0 0bbe dd8a aaba 76b5 133d 7832 0ebe
00000070: 1a78 35be b5ea be3c 7455 92bc 1e79 f33c
00000080: 2446 c03d d704 d83a 0503 a83c 5dbe 03bd
00000090: 0782 b43d baef 1abd 9404 b8bc 0654 9e3a
000000a0: 31f5 763d 721d fc3c 3cc5 8dbd 8f08 adbc
000000b0: 4629 00bc bba9 1cbe a2ba de3b b069 22bb
000000c0: bd9e 2c3c 016c adbc 0eb4 443d e913 383d
000000d0: 2e76 0ebe d8a3 333a bd04 af3c a00a 343d
000000e0: 634c c63c 0090 40ba e2af 433d 0534 d53c
000000f0: 8c3d 04bd 5311 88bb 77a7 04bc e600 22bc
00000100: c3bd 1f3d 28bd ccbd 0b41 ae3b e52a e7bb
00000110: a510 67bc 672f 903d b5ba b43c 71d2 e73c
00000120: 7a79 4abc fe88 1abd 1bcd 6e3d b7af a5bc
00000130: 0f44 003d 26c2 37bd 3d25 a13c d73a 7d3d
00000140: d0c3 5dbc 65a0 26bc 27a7 8abb 5025 023d
00000150: 1a58 0b3d 02bc d83c 5992 e03c bc1e 513b
00000160: c978 cbbc 3b73 5abc 5576 0e3c 294c bb3c
00000170: c45c 86bc 2db6 bbbc 067d 1f3d e0f1 03bd
00000180: 4e20 c8bc 8e00 5dba ec00 0fbd 056d 603d
00000190: 6f1f b23c 9ccc 193d 01a0 c13c f231 063a
000001a0: d500 8d3d 7fe1 363d 6483 1d3b a391 083c
000001b0: bbf0 833d 3e45 6cbd 0d3f a83b 03ee 4cbc
000001c0: aa76 1b3d ae7d c53d c241 153c 7e8a 10bc
000001d0: 1ea3 1c3d 1eda 9339 b8a1 e7bc 5a57 0fbd
000001e0: 7ce5 633d 2099 bd3c 9072 ce3c 47cb 763d
000001f0: 447e 0d3d 783c 1a3d ce79 4a3d 139b bd3c
00000200: 3f34 a93d f615 b93d 526f 593c 7836 b93c
00000210: 7248 933d 16d2 b43c 1b05 48bd 4b0b 963c
00000220: b6ec 92bd 3e91 e73c 7f87 023d 31d5 0b3d
00000230: 5192 22bc 9f78 d6bc 5657 a53c 746c 72bc
00000240: e4c5 113d 3ee3 7f3b 4720 383d dae3 d3ba
00000250: 7e3a e8bc df06 34bd dfe0 21bd 297f 0cbc
00000260: eacf 33bc 314c 16be 424c 8fbc 652b 1b3b
00000270: 6314 8e3d b80e 623d 5dfd a8bc d4b6 903b
00000280: aaac 973a eed9 9b3c 2e3d 1a3d a08a b5bc
00000290: c64e 6ebd ffcb 923d 297f 16bc 14af edbc
000002a0: 35b9 2dbd ef75 9fbb e51e 29bc 4a81 4ebd
000002b0: e2d5 8abc 445e f63c 62ae 0ebd 232b 28bd
000002c0: a559 e03c a093 323d 0ebd cb3d 99dd bebb
000002d0: 62aa 3fbc 3237 3ebc 812c 643d 19fd 1dbc
000002e0: 4335 393d 24d9 4cbd f5ae 9ebc 87e6 a3bb
000002f0: 4277 e1bc e571 e53c b943 07be 94e7 05be
00000300: 6291 7b3c 60ad afbd cfbc c23c bf3a 16bd
00000310: 0ddd 563d fbe7 47bd 4ac7 21bc 63d3 e03c
00000320: 4b2a d8bc 1a25 97bd bc42 453c 069d b43d
00000330: b7c3 503d 4e89 2abe 83af 363d c65d eebc
00000340: e08c 563d 67dc 883d f6d5 3d3d 215f 20bd
00000350: 1ebf 3cbc 48ff f73a d864 87bd 1c64 04bd
00000360: 0347 c7bc bb60 50bd e7d0 5fbc 7da8 e23c
00000370: a631 64bd a8da e1bd 1150 2abe e773 313c
00000380: b7c1 dd3c 9ffa 823d 54e7 30bd ac66 b3bc
00000390: c43a 11bc 34a3 9a3d ac7a 643d 83fe 82bb
000003a0: 2c1e 46bc c36b f4bb 76f0 c2bc d3af 9539
000003b0: 8af0 a33d 2088 1e3d 8cf9 2c3a 4489 50bb
000003c0: dcaa a23c ca9c d63c 8979 a4bc 2dd4 31be
000003d0: c2b8 33bc ede2 13bd 8af1 6a3d 327f 16bd
000003e0: e73c 6c3d 5db8 3e3d fa8e 553d 4e4e 173d
000003f0: 2088 fabc d5e8 953d 5574 0fba 2e71 8cbb
-0.13739404 0.045153506 -0.0073217433 0.02803066 0.026826052 0.11113534 -0.051707637 0.036608104
0.096707635 -0.001541111 0.012482636 0.06159188 -0.01112 -0.022431908 0.031497512 0.024370125
0.0739363 -0.031242525 0.052566085 0.0230328 0.01692652 0.023021214 -0.05672187 -0.0026836991
-0.13666119 -0.0013011355 0.036061727 -0.1388644 -0.17721596 0.023305276 -0.017863013 0.02972084
0.09388378 0.0016480935 0.020509252 -0.032163966 0.08813863 -0.037826277 -0.02246312 0.0012079484
0.060292426 0.03077576 -0.06922385 -0.021122245 -0.00782234 -0.15299122 0.0067971507 -0.0024782233
0.010535893 -0.021169664 0.048023276 0.044940863 -0.1391227 0.0006852723 0.021364564 0.043955445
0.024206346 -0.00073456764 0.047775157 0.026025781 -0.03228526 -0.004152456 -0.008096567 -0.0098879095
0.03899933 -0.09997016 0.0053178123 -0.007054674 -0.014103089 0.07040291 0.022061685 0.028298588
-0.012358064 -0.037728302 0.058301073 -0.020225389 0.031314906 -0.04486289 0.019671077 0.061823692
-0.013535455 -0.010170077 -0.004231352 0.031773865 0.034019567 0.026456837 0.027413534 0.0031909188
-0.024837868 -0.013333137 0.008695205 0.022863464 -0.016401656 -0.022914017 0.03893759 -0.03221309
-0.024429467 -0.00084305636 -0.03491299 0.05479147 0.021743504 0.037548646 0.023635866 0.0005119137
0.06884924 0.044648644 0.0024034614 0.008335504 0.064424 -0.057683222 0.0051344694 -0.012507918
0.037954964 0.09643112 0.009109916 -0.008822082 0.0382415 0.00028200535 -0.028275356 -0.034995414
0.055638775 0.023144305 0.025201112 0.060252454 0.034544244 0.037655324 0.04943257 0.023145234
0.08261918 0.09037392 0.01327117 0.02260898 0.07191552 0.022072833 -0.048832994 0.018315932
-0.07174055 0.028267499 0.0318675 0.034138862 -0.00992258 -0.026180563 0.020183247 -0.014796365
0.035589114 0.003904536 0.044952657 -0.0016165928 -0.028348204 -0.043951865 -0.039521094 -0.008575239
-0.010974864 -0.14677502 -0.017492417 0.0023676988 0.06937482 0.05518982 -0.020628626 0.004416326
0.0011571844 0.019024815 0.037656 -0.022160828 -0.058180593 0.071678154 -0.009185591 -0.029014148
-0.042412955 -0.0048663537 -0.010322307 -0.05041627 -0.01694769 0.030074246 -0.034834273 -0.041056763
0.027386496 0.043597817 0.09948169 -0.0058247563 -0.011698337 -0.011609839 0.055706505 -0.009642863
0.04521681 -0.05001177 -0.019370535 -0.0050018462 -0.027522687 0.02800841 -0.13209428 -0.13076621
0.015354486 -0.085779905 0.023771672 -0.03667712 0.052456904 -0.04880522 -0.009874174 0.027444547
-0.026387354 -0.073801234 0.0120398365 0.08819012 0.0509679 -0.1665394 0.044600975 -0.029097449
0.052380443 0.066826634 0.046346627 -0.039153222 -0.011520175 0.0018920684 -0.06611031 -0.032322034
-0.024325853 -0.0508735 -0.013660646 0.027668232 -0.05571141 -0.110280335 -0.16632105 0.010830856
0.02706991 0.063954584 -0.04318936 -0.021899544 -0.0088641085 0.0755066 0.05578105 -0.0039976253
-0.0120921545 -0.0074591353 -0.023796301 0.00028550494 0.080048636 0.038704038 0.00065984647 -0.0031820098
0.019856863 0.02619781 -0.020077484 -0.17366095 -0.010969343 -0.036105085 0.057359256 -0.036742397
0.05767527 0.04656254 0.052138306 0.03693991 -0.030582488 0.073198 -0.0005472352 -0.004285953

network_body._body_endoder.seq_layers.2.weight f4 [256, 256]
00000000: b345 f33c 8ce0 b8bd 4df4 19bc b054 363d
00000010: f2de 6a3d a690 063c e0f2 163c 61b1 1f3d
00000020: 94ce 6abc 61b7 acbb a2d2 d83d 13a3 483d
00000030: bf27 ca3d 9847 90bd f5d9 c33d 2afc e43d
00000040: f186 0dbc a295 273e 6b0c 68bd 1546 7d3d
00000050: a13d 643c 12cb 423b 77d6 a83a ba5f 843c
00000060: 30e4 35bc 8ea7 c9bd 262c 763c e8da bdbd
00000070: e4e8 e9bc c997 2ebc 5a0f 9ebd e326 193d
00000080: c1b4 af3d 2a55 183d fe0e 03bc 260f ae3c
00000090: cad5 49bd 343c f63d 1542 00be 4601 15be
000000a0: 1029 483d 4b20 943d bb96 203d 31af 7dbb
000000b0: f3c7 0d3c 9739 0abe 189b 12bd 3e36 083e
000000c0: e2f0 bd3d 8a5d 313d 1d65 033e 8a70 023e
000000d0: 4f36 e7bc 9e4b cb3d 350e c13d 3a40 cd3d
000000e0: 3eef 3a3d 8c5f 50be 43bc d43d 3c02 773d
000000f0: 2648 f1bc 4495 4fbd 9211 9db9 e09b f23c
00000100: ab57 853d 5114 adbd cc63 84bd 801a 3cbd
00000110: 7f9f 303e 9eee e63d 0c7a 02be df89 b63d
00000120: d64d 13be e2f5 8ebc 47a1 47bd 836f 463d
00000130: 8fe0 4abd 6c3c 06bd 4ba8 89bd fc2a 2a3d
00000140: 5d8d a83d abcd 023e 20a6 f5bd 0070 1a3b
00000150: 73d4 59bc 5e51 f0bc b9b6 b3bb fbc7 b4bc
00000160: 7bb6 813c da03 6ebd 8d0b e6bc e853 aebd
00000170: ecc7 acbc 5ced 433d fa1c 92bd 2478 25bd
00000180: 2e5a cb3d 449a c3bc 1503 6d3c 4eff 9f3d
00000190: 074e 263e a864 f03d 380f 82bc 56a8 863c
000001a0: 01ed 4c3c be75 ce3d 7ab5 463d 150b 613d
000001b0: afa9 d03d 9de0 ba3d ea44 58bd 3fe9 0f3d
000001c0: 7cf4 23bd 3f64 e73d 7fd6 853d 704a 163d
000001d0: 3dba eb3c 308d 23bd afe9 633d d0c9 b73c
000001e0: 8031 453d d0cd 1a3d 0efa 0b3d 42cb e1bc
000001f0: 3d5b 213d e6e3 95bd 852f b1bc f47b aa3d
00000200: 20cc 72bd a955 063c b796 eb3d 0cb9 333c
00000210: 6c2e 3c3d 19e6 74bd 4f8a 90bd c3e9 d53c
00000220: 0f7e 883b b755 093e 662c 0cbd 939c a4bd
00000230: e082 89bd cb30 d6bd ed3a 233c f840 153e
00000240: 3475 0dbe 2ef9 a3bd 7bcf 29bd f5b9 c3bc
00000250: 83a6 b5bd bd53 433c c2cd d33d bfc0 6e3d
00000260: f142 a73d d906 97bd 5ec5 0abd ef00 ae3d
00000270: 94b1 6e3d 7f99 9a3d 1b57 21be c807 3f3d
00000280: e9ce 97bd f130 9dbd c0a6 383d 55e4 01be
00000290: eed6 e63d 657a 77bd 810c cbbc 17c1 7a3d
000002a0: b57a 863d 5f69 d13c fc84 303e 65ce 9ebd
000002b0: d036 37bd db6e 333d 4890 67bd ff60 c2bc
000002c0: 4a74 203b a1a7 2a3c eb02 a23d 2027 d4bc
000002d0: d0d8 3ebd cdc8 8ebc b193 f73b 2f86 803d
000002e0: 4446 ddbd bf7d 0ebd e9d7 2d3e df34 00bb
000002f0: 04a8 223c 8882 63bd e269 b6bc 8046 3cbc
00000300: 9805 0fbe bf6f 223d 35f6 803d 284b fdbd
00000310: f97e 95bd d0b8 a63d 25a4 ecbb 239a c53d
00000320: 2c27 593d 0f6f 69bd 77eb a13d 0a54 8ebd
00000330: f568 0cbe c7d7 25be d8f6 1c3e a5c2 60bc
00000340: f069 b4bc de7b 40bc 7700 a93d 0355 403d
00000350: d196 19bc 73bf 6dbc cc48 f3bc cabd e2bc
00000360: 860b 8b3d be39 2f3d 93a5 bcbd d400 9abd
00000370: c492 393c 1033 9dbd 6a58 d1bc 32f2 4d3e
00000380: 7f4e 313d bb89 d73a d82f 6ebd 9d80 95bd
00000390: c6b5 bf3d 9456 883c 3693 f23b 747a 043e
000003a0: f143 9fbc 6523 d2bd e60f 3bbd 52d5 0bbe
000003b0: b90a f6bc d765 2bbd 9a84 a23c 3907 14be
000003c0: 00ff d6bd 541e 21bd f982 adbd 312e 8a3d
000003d0: a2e1 0dbd 14c7 7dbc bf3b 073e 4d60 08be
000003e0: 39a6 ddbc 190e 5dbd a0f8 d43c 52bb a7bd
000003f0: d637 45ba 012f a3bd 8b94 29be f978 a1bd
0.029696321 -0.09027204 -0.009396625 0.044514358 0.057341523 0.008213198 0.009213179 0.03898752
-0.014331479 -0.005270884 0.1058705 0.048983645 0.09870862 -0.070449054 0.095630564 0.11180909
-0.00863813 0.16365674 -0.056652468 0.061834414 0.013930709 0.002972309 0.0012881298 0.016158927
-0.011101767 -0.09846412 0.015025174 -0.09270269 -0.028553434 -0.010656306 -0.07717772 0.0373906
0.08579398 0.037190594 -0.00799918 0.021247458 -0.04927615 0.120232016 -0.12525208 -0.14551267
0.048867285 0.07232722 0.039206248 -0.0038709159 0.008653629 -0.13498531 -0.03579244 0.13301942
0.092744604 0.043302096 0.1283154 0.12738243 -0.028224139 0.09926532 0.09426538 0.10022016
0.045638315 -0.20348948 0.103874706 0.060304865 -0.029453348 -0.05067946 -0.00029958464 0.029615343
0.06510862 -0.08451141 -0.06464347 -0.04592371 0.17248343 0.11275981 -0.1274187 0.089130156
-0.14385161 -0.01745123 -0.04873779 0.04844619 -0.049530562 -0.032772467 -0.067215525 0.0415449
0.08230088 0.12773769 -0.119945765 0.0023565292 -0.013295281 -0.029335674 -0.0054844287 -0.022068014
0.015834084 -0.058109142 -0.02808168 -0.085120976 -0.021091424 0.047833785 -0.07134433 -0.04039778
0.0992931 -0.02387727 0.014466067 0.078123674 0.16240703 0.11737949 -0.015876397 0.01643769
0.012507678 0.10081051 0.048512913 0.05494221 0.101886146 0.09124873 -0.052800097 0.03513455
-0.04002808 0.11298417 0.065350525 0.036692083 0.028775329 -0.03992957 0.05564278 0.022435099
0.04814291 0.037793934 0.034174018 -0.027562741 0.039393652 -0.07318859 -0.021629104 0.083244234
-0.0592767 0.008199134 0.11503356 0.010969412 0.04594271 -0.05978975 -0.0705763 0.026112443
0.004165418 0.13411604 -0.03422203 -0.08037677 -0.067144156 -0.10458525 0.0099627795 0.14575565
-0.1381424 -0.08006512 -0.041457634 -0.023892382 -0.0886965 0.01192182 0.103419796 0.058289286
0.08167065 -0.07374353 -0.03387963 0.08496272 0.05827482 0.07548808 -0.15755884 0.04663828
-0.07412512 -0.076753505 0.0450809 -0.12684758 0.11271463 -0.06041946 -0.024786236 0.0612193
0.06566373 0.02556294 0.1723823 -0.077542104 -0.044730008 0.043806892 -0.05653408 -0.023727892
0.0024483376 0.010415942 0.07910713 -0.025897563 -0.046593487 -0.017429734 0.007555448 0.062755935
-0.10804418 -0.03478789 0.16976894 -0.0019562764 0.009927753 -0.055544406 -0.022267286 -0.011491418
-0.13966978 0.03965735 0.0629696 -0.123678505 -0.07299609 0.08140719 -0.007221716 0.0964854
0.053015873 -0.05699068 0.079062395 -0.06949623 -0.13711913 -0.16195594 0.15328538 -0.013718282
-0.022023171 -0.011748282 0.08252042 0.046956073 -0.009374336 -0.014510977 -0.029697798 -0.02767839
0.06789307 0.042779677 -0.09211268 -0.07519689 0.011326496 -0.07675755 -0.025554854 0.20111921
0.04328775 0.0016444245 -0.058151096 -0.07299922 0.093608424 0.016642846 0.007402803 0.12937337
-0.019441577 -0.10260657 -0.04566946 -0.13655594 -0.03003441 -0.04184517 0.01983862 -0.1445588
-0.10497856 -0.039335564 -0.08472247 0.067470916 -0.03463901 -0.015489358 0.13206385 -0.13317986
-0.0270568 -0.053968523 0.02599746 -0.081900254 -0.0007523274 -0.0796795 -0.16560571 -0.07884402

network_body._body_endoder.seq_layers.2.bias f4 [256]
00000000: 85f8 f83c d485 e33c a479 9cbb de6e c33c
00000010: fcc5 90bc be20 41bb 66ac 423d f9c7 143c
00000020: a884 2b3c ed2a a1bc 0ded 033d 588f 1e3d
00000030: 6dbc 0d3d 618b a83b 5402 94bc 4703 173b
00000040: 711a cd3c a552 1a3b 5069 853c 354e a83b
00000050: fbfb 433d d321 f43c 7867 273d 972c cf3c
00000060: 01db e23c 9e4d 213c 60e2 c33c 0acf 283c
00000070: 80bb 113b d530 de3c d012 533d 6aec a1bc
00000080: f417 6d3c f584 b7bb b0c2 2b3d 7666 b63b
00000090: 2da2 003d c11e 95ba cca1 d4bc a874 913c
000000a0: 9f74 223c 5145 1f3d 3b12 2a3d 54c5 e0bc
000000b0: 1249 d53c fc6a 1f3c 8651 793c f63b 463d
000000c0: 2054 54bc 6a6f fd3c a9dd c7bc 804f 893c
000000d0: f8ad 893d 8d22 a73b eee1 c23b 4d21 853b
000000e0: 5c51 eb39 2c71 c33c 64b9 d6bb 694c 61bc
000000f0: 99e1 9b3c 3748 2ebc 1d2d 0bba 3110 233d
00000100: 1a6c c3bc c7ed a5bb 9885 983c 02c2 f53c
00000110: c40f e2ba 2643 213c e874 7c3d 73f9 cd3c
00000120: c05a 303d 99ef 5b3c 82ce bd3c 4e90 a13c
00000130: b2f5 1abd 7ce7 62bc 2e58 30bd c005 283d
00000140: 322d 793d c440 7b3d 1d23 35ba df8e 41bc
00000150: e9d3 813d a250 18bc b4b0 fe3c 6879 4639
00000160: c9f6 213d 354a 7a3c 3c96 f13b 910c a13c
00000170: c4bf d6ba 8203 4c3d eeff 2e3d e51e 263c
00000180: c5a7 823c 72b2 1b3d e114 113d 6590 803c
00000190: ee7d 0b3d bd93 9d3c b906 063c 177b 753c
000001a0: 3d79 5c3b 8041 0d3c 0990 4a3c 8b85 d83c
000001b0: beda 863c ae73 133d d472 ac3c d449 3b3c
000001c0: 28eb 013d 58f7 633b 9d34 413c 5160 3e3d
000001d0: 159e 5b3d e791 f7bc e20f 533c aef3 92bb
000001e0: 7619 6cba b761 b23a b797 393c 14d5 6e3d
000001f0: ba62 8c3c a4c0 d13b 2d2d 123d 5e35 0fba
00000200: 1fe0 d93b 7751 2a3d 3a41 943c a57e 7cbc
00000210: 50d1 223d b962 b03c 10ad 133d e019 abbb
00000220: 347f 4f3c d0c5 203d ec4c 55bb a25e af3b
00000230: de4e 813d f829 583c 666b 863d fe9f 1bbc
00000240: 1757 a33a 9397 383d e810 a43c 6f28 ecbc
00000250: b787 9c3c f960 f43c 1333 903c cbb7 6fbc
00000260: 0196 a43c 4ab5 753c 7c6a 1e3d 0dba 133c
00000270: 2468 3dba ebcd eb3c a0bb 223d cab2 bf3b
00000280: dd97 e93c b7c6 293d 4664 303c 5a94 2d3d
00000290: f46f 9cbc a427 f73c ca8b 033d dcaa 98bc
000002a0: 4940 973b d9a7 8c3b f285 6239 4be7 8d3d
000002b0: 9362 36bc b479 8b3c 2d00 033c 236f a03c
000002c0: 5960 2d3d 9aaa 7a3c 2571 d0bc 0527 343d
000002d0: 33e9 b73c 3ef7 143c 1444 96bb 668d 6e3d
000002e0: bb0f 623d 1a75 4fbc 9735 433d 4a81 543d
000002f0: d163 f9bc 4d4b 513d e318 b2bc 709b af3c
00000300: 8bfb 44bc 6315 c03c 3349 faba ef67 603d
00000310: eeb1 6ebb c8bd 893c a6ee 7a3c 719c 1e3d
00000320: afcb 083c 1da1 80bc 32c6 133d 45b3 973c
00000330: 322e ab3c 5306 15bc 979a 4ebc fdec 123b
00000340: 6b01 213c 2bcb 27bb a7c8 ddbc 4bfa 0d3d
00000350: 9b88 1ebd 1059 703c 7f49 3bbc 70fe 653d
00000360: 0089 d43b b787 d93c 2c1d febc d8c5 5e3d
00000370: 818e 2f3c 9141 1bbc 9515 1c3d e928 2abc
00000380: cbc1 09bc 14e5 89bc 47e1 a93c abb7 0e3d
00000390: edfe 903c 2791 1c3c b8af e63c 5fa2 1d3d
000003a0: c363 2a39 2b54 4e3c 490f 3e3c d58a 613b
000003b0: e1f4 08bd 4962 323d a36d c03c d44e 353c
000003c0: 5072 733d 1b1e 9f3b 1b62 51bc 3aa4 283d
000003d0: 7b17 aabc ec22 12bd 6fac 3b3d 5f84 103d
000003e0: 7bd3 943d 6373 6f3b ca6a d33c dc95 12bb
000003f0: c41c 8abb bbe5 0cba d66e b43c de00 a4bc
0.03039194 0.027773775 -0.004775243 0.023856577 -0.017672531 -0.0029468979 0.047527693 0.00908088
0.010468639 -0.019673789 0.03220849 0.038710922 0.034603525 0.0051435684 -0.018067516 0.0023042725
0.025037022 0.0023547795 0.016285568 0.005136276 0.04784773 0.029801285 0.04087016 0.025289817
0.02769232 0.009845166 0.023911655 0.010303268 0.0022237003 0.027122894 0.051531613 -0.019766051
0.014471043 -0.0056005665 0.041933715 0.0055664135 0.031404663 -0.0011376963 -0.025956057 0.017755821
0.0099155 0.038884465 0.041521292 -0.027437843 0.02603582 0.009730097 0.015217191 0.048397027
-0.01295951 0.030936915 -0.024397688 0.016761541 0.06722635 0.0051005543 0.005947343 0.0040628077
0.0004488331 0.023857675 -0.006552862 -0.013751128 0.019028472 -0.010637335 -0.00053091516 0.039810363
-0.023855258 -0.0050637457 0.01861839 0.029999737 -0.001724713 0.00984267 0.061634928 0.02514336
0.043055296 0.013423824 0.02316976 0.01972213 -0.03783197 -0.0138491355 -0.043052845 0.04102111
0.060834117 0.061341062 -0.00069098343 -0.011813848 0.06339247 -0.009296568 0.031090118 0.00018927979
0.039541993 0.015276481 0.0073726457 0.019659312 -0.0016384055 0.049808033 0.042724542 0.010139202
0.01594914 0.038011976 0.035420302 0.015693853 0.034055643 0.019235486 0.008180314 0.01498296
0.00336416 0.008621573 0.012363442 0.026430866 0.016461726 0.035998993 0.021050848 0.011431176
0.031718403 0.003478488 0.011792329 0.046478573 0.053617556 -0.030220939 0.012882205 -0.0044846153
-0.00090064795 0.0013609444 0.011327676 0.058308676 0.01713692 0.0064011384 0.035687614 -0.00054629694
0.006649032 0.041581597 0.018097509 -0.015411054 0.039750397 0.02153145 0.036053717 -0.0052215904
0.012664605 0.03925115 -0.003254707 0.0053518573 0.06313871 0.0131936 0.065634534 -0.009498594
0.0012461868 0.045066427 0.020027593 -0.028827874 0.019107683 0.029831396 0.01760248 -0.014631222
0.020091059 0.014996836 0.03867577 0.009016526 -0.0007225296 0.028784713 0.039729714 0.0058501707
0.028514797 0.041449275 0.010766095 0.042377807 -0.019096352 0.03017027 0.032115735 -0.01863616
0.0046158177 0.00429247 0.00021602938 0.06928881 -0.0111319 0.017025806 0.007995647 0.019584244
0.042328212 0.015299464 -0.025444577 0.043982524 0.022450065 0.00909215 -0.0045857523 0.058240317
0.055190783 -0.0126621965 0.04765853 0.051881112 -0.030443104 0.051097203 -0.021740383 0.021436423
-0.012022863 0.023447698 -0.0019095301 0.05478662 -0.0036421972 0.016814128 0.015315687 0.038723413
0.008349343 -0.015701825 0.036077686 0.0185181 0.020896051 -0.009095746 -0.012610099 0.0022419088
0.009826998 -0.0025603275 -0.027073218 0.034662526 -0.038704496 0.014669672 -0.011431097 0.056150854
0.0064860582 0.026553972 -0.03101977 0.054387897 0.010715128 -0.0094760815 0.03810652 -0.01038573
-0.00840802 -0.016832866 0.020737303 0.03484313 0.017699683 0.009556091 0.028159961 0.038484927
0.00016249628 0.012593309 0.011600324 0.0034415026 -0.03343666 0.043550763 0.023489779 0.011066157
0.05943519 0.004855884 -0.012779738 0.041172244 -0.02076315 -0.035677835 0.045818742 0.03528249
0.07266899 0.0036537282 0.025807757 -0.0022367155 -0.004214855 -0.00053748087 0.022025507 -0.020019945

action_model._discrete_distribution.branches.0.weight f4 [3, 256]
00000000: c08e b13c 4aa8 42bd b86d 1c3d ecd1 10bd
00000010: 8d1f 8d3c c74c c63c d615 d6bc 6b6c d13c
00000020: 0674 19bd 8727 013d 306a 44bd 3f6e 7fbd
00000030: 3f99 61bd a864 343b 64f7 603d 7255 a53c
00000040: 36ce 9fbc e751 353b c983 283d 5079 20bc
00000050: 8683 d4bc 675f c7bc 9bad 033b ea2f 21bc
00000060: 58a1 683c 5976 e33c d4b5 ca3c 1e3f 833b
00000070: bab7 ce3b 09e6 4abd 1592 dabc 6c31 fa3c
00000080: 6cb1 20bd b9b2 103c 4ce2 18bc 6506 583c
00000090: 6b26 6aba 25ca 023d 5bf5 243d 79b5 62bd
000000a0: 8d69 123d 84e4 cabc bbcf 4cbc da52 9e3c
000000b0: b67e 4dbd 2bdd e13c 9575 f73c 2046 c3bc
000000c0: f6fa a53c 1902 ffbc 3893 c83c bc0b e53c
000000d0: 4046 88bd 2794 d33c 74fb b93c 34ff ae3c
000000e0: 70e8 243d d66b 2bbd d63b 103d 098a 1e3d
000000f0: a787 55bc 43a7 063d 2c94 edba 647e 503c
00000100: f236 413c 9798 dd3c c08c 873c 2768 14bd
00000110: 7299 533c e30a b13c b3c4 35bd bab7 0cbd
00000120: 4208 3cbb 6e8c de3c 3cd3 82bc 5de8 ca3c
00000130: 5cd6 a13b 3f06 b13c 8da8 a6bb 4e75 26bd
00000140: 8a50 80bd 17f6 75bd a465 273d 14e3 6f3a
00000150: 15d5 26bd e9db bc3c 2e9d 26bc af57 dd3c
00000160: 6a6c 4dbc 3604 d63c 19fe d63b 3c1b 4f3d
00000170: a69a 103d 51da beba e323 0ebd 9aa7 d9bb
00000180: f9c9 cfbc fdc0 5cbd 2c4d dcbc 4a65 663b
00000190: 7c3e 9dbc 1d16 30bd 2b36 83bb a4bf 2cbd
000001a0: 87f7 683c dbb0 cc3c a70a bc3b 866d 4ebc
000001b0: b189 9fbc e25d a7bc b653 cfbc 9033 323c
000001c0: 5181 22bd a81a 2f3d b823 91bc 4e43 e5bc
000001d0: 01f6 3cbd a193 e83b 3511 c03c fbdf 113c
000001e0: 6621 a73c a3e7 c43c ef4d 9abb c1f6 19bd
000001f0: 7b7c 2cbc bbc9 503d 1ede 56bb 7e57 0fbc
00000200: 9a8d e23c f063 b9bb 2c3e cdbc 4109 0a3d
00000210: 42b8 a63c b674 a53c c446 a6bc d957 2d3d
00000220: 9e70 3a3d 9aa8 a9bc f83d 5a3d 248b 133d
00000230: 07e8 88bd 9a60 193d 796b 59bd 8e03 b13b
00000240: 1125 ab3c 2640 f0bc f72e bfbb 0e20 9b3c
00000250: 9e62 333c 0829 a7bc 949c 03bc 53d7 273d
00000260: 9eae 55bc c069 083d 107a 693a 118b 923c
00000270: 45a7 69bc b839 19bd 0eeb 23bd 625b f43b
00000280: cff7 06bc 9c1c 3cbd c400 423d fb6e 8fbc
00000290: 7f39 b639 877b 8cbc d182 26bb c18f 923c
000002a0: 2027 3fbc b26b d53c 122d 473d f4e6 18bd
000002b0: 4b93 d0bb 9df6 dd3b ebbc fc3c ec41 fabc
000002c0: a8e2 17bd fc2d 983c 54b1 323c 379f 0cbc
000002d0: b795 933c aa79 eebc 9c99 7d3c 773d 76bd
000002e0: 9284 6a3c 6f69 153c 17c7 93bd 99d9 88bd
000002f0: 10bb 3e3c 6008 80bd 2d33 903c 4c2b 09bd
00000300: da87 593c 9a6e 0abc cd83 d23c 7d14 6fbd
00000310: ea86 85bc 10a2 9f3c a340 7fbc 20ae e13c
00000320: e03a 5036 5525 a13b 73bb fdbc 02b6 2ebd
00000330: 47ae 88bb 3fbc 07bd 9935 b3bb e5bf 4fbc
00000340: b404 903c c720 6b3c 47e2 833c 973b 8e3c
00000350: 752f 91bb 2a84 26bd 506d acbb 5c07 82bd
00000360: 77fd c03c d4df b63c ee03 b33c 9234 a6bc
00000370: 18a1 88bb 8a60 30bc 7485 6dbd 9dd5 03bc
00000380: 4a93 143d 5ca2 033d 1bd6 44bd 9e02 f8bc
00000390: eeb7 323d 8c07 c2bc e896 9bbc 4ec7 1dbd
000003a0: 4031 973c c799 d43c f314 18bd 1c0a e33a
000003b0: 2553 ccbc 6c3c 61bd c955 da3c 4d94 1e3d
000003c0: 28c3 39bd 9698 5e3b 2758 523d 206b 6dbd
000003d0: e445 da3a 4427 8c3c 7ae0 49bc c6b9 193c
000003e0: cc25 79bd 20d0 2d3d c488 43bc 5dc2 463d
000003f0: 3b32 163d 8faa 463d 459b babb eda6 3f3b
0.021674514 -0.047523774 0.038190573 -0.035356447 0.017226959 0.024206532 -0.026133459 0.025564393
-0.037464164 0.031531837 -0.04795283 -0.062361 -0.055077787 0.0027525816 0.05492343 0.020182345
-0.019507509 0.0027667226 0.041141305 -0.009794548 -0.025941622 -0.024337484 0.002009249 -0.009838084
0.014198624 0.027766393 0.024744906 0.004005327 0.006308523 -0.049535785 -0.026680985 0.030541144
-0.039231703 0.008831673 -0.009331297 0.013185118 -0.00089321163 0.03193106 0.04027305 -0.055348847
0.035745192 -0.024767168 -0.012500699 0.019326616 -0.05016967 0.027571281 0.030207435 -0.02383715
0.020261269 -0.03112893 0.024484262 0.027959697 -0.06654024 0.02582748 0.02270291 0.021361925
0.040260732 -0.041850887 0.035213314 0.03870586 -0.01303283 0.032874357 -0.0018125824 0.012725446
0.011792885 0.0270503 0.016546607 -0.03623214 0.012915002 0.021611637 -0.04437704 -0.034354903
-0.0028691445 0.027166571 -0.015969865 0.024769003 0.0049388837 0.021609424 -0.005086011 -0.040639214
-0.062653616 -0.060049143 0.040868416 0.0009150964 -0.040730555 0.02305408 -0.0101693105 0.02701935
-0.012538055 0.026125055 0.0065610525 0.050563082 0.035303734 -0.0014560913 -0.034702193 -0.006642294
-0.025364863 -0.053894985 -0.026892267 0.0035155588 -0.019194834 -0.04298984 -0.00400426 -0.04217495
0.014219171 0.024986675 0.0057385745 -0.012599355 -0.019474836 -0.020430509 -0.025308471 0.010876551
-0.039674107 0.04275003 -0.017717227 -0.027986195 -0.046133045 0.007097677 0.023445705 0.008903499
0.020401668 0.024036234 -0.0047089974 -0.03758884 -0.010527725 0.050973635 -0.00327862 -0.008748887
0.027655412 -0.0056576654 -0.02505406 0.03370023 0.020351533 0.020197254 -0.020297416 0.042320106
0.045517556 -0.020710278 0.053281754 0.036021367 -0.06684881 0.037445642 -0.05308101 0.005402035
0.020891698 -0.029327463 -0.005834456 0.018936183 0.010948805 -0.020405307 -0.008032937 0.040976834
-0.01304212 0.033303976 0.00089064334 0.017888578 -0.014261072 -0.03740856 -0.040019087 0.0074571827
-0.008237793 -0.04592572 0.04736401 -0.017508974 0.00034756583 -0.017148746 -0.0025407562 0.017890813
-0.011667043 0.02605233 0.048626967 -0.03732963 -0.006365215 0.0067737834 0.030851802 -0.030549012
-0.03708139 0.018576615 0.010906536 -0.008582882 0.018015726 -0.029110748 0.015478518 -0.06011721
0.014313834 0.009119376 -0.07215708 -0.066821285 0.011641279 -0.062515974 0.017602528 -0.033488557
0.013277018 -0.008449221 0.025697613 -0.05836915 -0.016299684 0.019486457 -0.015579375 0.02754885
3.1028685e-06 0.0049177804 -0.030973172 -0.042654045 -0.004171166 -0.03313851 -0.005469036 -0.012680029
0.017580368 0.014351076 0.016099108 0.017362399 -0.004430706 -0.040653385 -0.0052620545 -0.0634906
0.023558361 0.022323526 0.02185246 -0.02028874 -0.0041695945 -0.010765204 -0.0579886 -0.008046535
0.03627328 0.03213726 -0.04805575 -0.030274685 0.04363244 -0.02368524 -0.018992856 -0.03852015
0.018456101 0.025952233 -0.037129354 0.0017321738 -0.02494199 -0.054989263 0.026652234 0.03871565
-0.04535213 0.003396546 0.0513536 -0.05796349 0.0016652909 0.017108567 -0.012321586 0.009382671
-0.06082706 0.04243481 -0.011934463 0.048525203 0.036668997 0.0485025 -0.005694779 0.0029243783

action_model._discrete_distribution.branches.0.bias f4 [3]
00000000: 3ff3 153c c46e 9a3c 4f10 e5bc
0.009152233 0.018851645 -0.027961878

action_model._discrete_distribution.branches.1.weight f4 [3, 256]
00000000: 3831 893b 5377 3abd 3610 ffbb ccba 7e3b
00000010: 9c4e 53bb 88e0 fb3b a4c5 463b 942b 983b
00000020: a123 85bb 04f3 8a3b 6726 49bc 1c9c 22bc
00000030: 7d52 ed3b 4ca9 5a3c a0e8 21bc 5df6 bfbc
00000040: 0759 4cbd d5a2 9ebb e78d fc3b 1193 63bb
00000050: d50b 503d e891 1d3d 400e 9d3c 0152 dd3c
00000060: fcf8 71bb 3750 92bc d4d3 f83c 8881 92bc
00000070: 073a 6abc 0a81 7f3c 35ee f83c 024f 3bbc
00000080: 6d9c c1bc 5b9d d7bc 1073 eebb a887 333c
00000090: 6d66 d93b e9d7 683c e194 093c 2127 62bc
000000a0: 683d 4a3c ba14 4b3d f8a7 333d e28a 81bc
000000b0: fbbe 59ba 7311 233c ccec 50bc 7712 acbb
000000c0: 6f85 36bc 1535 483c 94f1 e4bb d7a4 983c
000000d0: aa3a 093d 030e f2bc 22fe 91bc 32ab 583b
000000e0: 3a93 ad3b 0f93 85bc 2136 4f3c dd15 e6bc
000000f0: ab05 a33c 7628 a83c b403 3bbd 7988 98bb
00000100: 47c3 cdbb d313 c23c e343 b5bc de94 913c
00000110: 813a 19bd 8cd4 46bd 0d98 033d 8655 e339
00000120: 0407 ec3c 9852 de3c 4ab7 c63c 3fb2 8f3c
00000130: e7a4 3fbc a634 cdbc 71b9 13bc 2e01 f93c
00000140: 3657 6b3c 4ab7 543c 196c 533c 4b50 5fbb
00000150: c090 793c 46c5 cabc 4475 d23c 4cca 06bd
00000160: b544 8a3c 7bba cb3c 0501 2b3c 686f f63c
00000170: dcf1 33bc eec7 3d3d 946e d43c 6e07 76bc
00000180: 1006 dbbc 777c dd3c 0cda 4fbc 32fc 533b
00000190: 7892 43bb 5638 83ba 9f28 e5bc c244 bebc
000001a0: 5f42 a23c 6396 d13c f30e 0bbd 34e4 683b
000001b0: 0dc8 30bc 5076 85bc 5647 68bc f1b9 f23c
000001c0: a449 cd3c 5e8f d63c dc4e 8bbc 85cb a23c
000001d0: 58c7 de3a 1f62 da3b 817e 81bc c14d d5bc
000001e0: 6b88 d53c d548 4d3c 4ca9 93bc 2fc1 823c
000001f0: d7c8 203c 1fa3 133d f90c 393c 4b34 163c
00000200: 2201 d03c aaa9 8ebc 7537 c0bc 4813 6cbc
00000210: c8a3 323d e8e9 123d 083c a43c b6d1 83bc
00000220: 1199 04bd f94d 1c3d 26c4 cf3c b83a df3c
00000230: be08 853c 6cb4 443c b8af 563c 0536 343c
00000240: ae93 c7bc ed4d 103d c616 70bc db19 19bc
00000250: 2ef1 54bc 84a9 edbb 5a48 863c 0e60 783c
00000260: a933 20bc 7ec9 283d aa99 963c 527e 5f3b
00000270: 2100 05bd 623f de3b 8c1f 713c bae6 d4bb
00000280: 55e1 b5bc 2a2e a93c f3ef fb3c cc20 493d
00000290: e23b a83b df50 aa3c 8d56 333d 805b 1ebb
000002a0: 52a9 0c3c 7801 9cbc 2a16 173c e52d 823c
000002b0: f8da 32bc a371 b6bc 0999 0a3d e357 c2ba
000002c0: d16a 733c bf3b dd3c 3efd 37bc 7da8 d23c
000002d0: 3c05 e8bb f1c1 febb 8416 c23c f5ce 1e3c
000002e0: 96e4 eb3c b8c3 afbc c9ea 253c 26c6 e53a
000002f0: 93e1 19bc c91c a33b 029c a7bc 71c5 aebb
00000300: 635d a6bc b93d e23c 45e2 6d3c 1b90 9c3b
00000310: 8a3f 91bc 2267 a83b 1ac2 a9bc dc65 993c
00000320: 3648 033d 057a c5bc 54ad 613c 51c4 babc
00000330: 3530 f0bb a144 c1bc 7755 68bd 0592 783c
00000340: bd15 153c 1610 e9ba 22f2 87bc cec5 023d
00000350: 8d30 0bbd d97c ae3c f775 22bd c1f9 c53c
00000360: 3cc5 94bc dd7c 32bc 973d 64bc 56ba b13c
00000370: 750a b8bb 7a69 52bd 17ce 0abc 8eee 9cbc
00000380: 52e9 bbbc 815c 673b 49ff 4eb8 eea9 773c
00000390: 268d 583c d156 193d 90d9 2e3d bea2 7b3c
000003a0: 540a d2bc c1c7 993c 890c 66bc 9e2e 35bd
000003b0: 52aa 0abd 0190 fd3c 766f 76ba 5333 5d3c
000003c0: b809 083d 6ff6 163c da4d 193c a92c 923c
000003d0: 9290 f3bc 689f f1bc 2b99 1dbc 62a2 4f3d
000003e0: e0fc e53c 658f 083a a7dd e73c 186c fb3c
000003f0: 7e5d 88bc cb8b d43c 88ef 13bc 3234 36bd
0.0041867755 -0.045523953 -0.007783915 0.0038868664 -0.00322429 0.0076866783 0.0030330205 0.004643867
-0.004063085 0.0042403955 -0.012277222 -0.009924915 0.0072424994 0.013346028 -0.009882122 -0.023432905
-0.04988959 -0.0048411884 0.0077073458 -0.003472511 0.050792534 0.038469225 0.019171834 0.027016642
-0.0036922088 -0.017860515 0.030374445 -0.017884031 -0.014296061 0.01559473 0.030387023 -0.011432411
-0.02363416 -0.02632015 -0.0072769 0.010957636 0.0066345246 0.014211633 0.008397312 -0.013803274
0.012343742 0.049580313 0.04386136 -0.015813295 -0.00083063514 0.009952891 -0.012751769 -0.0052512246
-0.0111402115 0.012219687 -0.006986806 0.01863329 0.033503212 -0.029547697 -0.017821375 0.0033061025
0.005297092 -0.016305475 0.012647183 -0.028086597 0.019900164 0.020527106 -0.04565783 -0.0046549407
-0.0062793824 0.023691094 -0.022127097 0.01777118 -0.03740931 -0.048542544 0.03212743 0.00043360534
0.028811939 0.027138993 0.02425732 0.017541049 -0.011697031 -0.025049519 -0.009016381 0.03039607
0.014364054 0.012983153 0.01290419 -0.0034074958 0.015232265 -0.02475227 0.025690682 -0.03290777
0.016878465 0.024869194 0.010437255 0.03008242 -0.010982957 0.046333246 0.025931634 -0.01501642
-0.02673629 0.027036889 -0.012686264 0.0032346365 -0.002984194 -0.0010011296 -0.027973471 -0.023226146
0.019807039 0.025584405 -0.033949804 0.003553641 -0.010789883 -0.016291767 -0.014177164 0.02962968
0.025059529 0.02619141 -0.017005377 0.019872436 0.0016996665 0.006664529 -0.015807392 -0.026038053
0.026066026 0.012529572 -0.018025063 0.015961258 0.009813509 0.036044236 0.011294597 0.009167741
0.025391165 -0.017414887 -0.023463944 -0.014408894 0.043613225 0.0358676 0.020048156 -0.016091209
-0.032372538 0.038160298 0.025362086 0.027249679 0.01623952 0.012005907 0.013103418 0.010999207
-0.024362411 0.035230566 -0.014653867 -0.009344543 -0.012996955 -0.007252874 0.016391922 0.01515962
-0.009777942 0.041207783 0.01838382 0.0034102392 -0.032470826 0.006782458 0.014716994 -0.0064972313
-0.022202173 0.020651896 0.030754065 0.049103543 0.0051340917 0.020790515 0.043783713 -0.0024163425
0.008585291 -0.01904367 0.009221593 0.015891025 -0.010916464 -0.022270983 0.033837352 -0.0014827218
0.01485701 0.027006028 -0.011229811 0.025715107 -0.007080702 -0.0077745845 0.023692377 0.009692897
0.028795522 -0.02145563 0.010126778 0.0017530366 -0.00939216 0.0049777967 -0.020460133 -0.0053335954
-0.020308202 0.027617322 0.014519279 0.004777921 -0.017730493 0.0051392475 -0.020722438 0.018725328
0.032051288 -0.024106035 0.013774235 -0.02279869 -0.0073299655 -0.023592295 -0.05672213 0.0151715325
0.009099421 -0.0017781283 -0.01659495 0.031926923 -0.03398185 0.021299766 -0.03966328 0.024166944
-0.018160455 -0.010894028 -0.0139307 0.021695297 -0.005616481 -0.05137012 -0.008471987 -0.01915672
-0.022938404 0.003530294 -4.935198e-05 0.015116198 0.013217246 0.03743631 0.042687953 0.015358625
-0.02563969 0.018772008 -0.014041075 -0.04423391 -0.033853836 0.030952455 -0.0009400764 0.013501006
0.033212394 0.009214028 0.00935694 0.017843561 -0.029732022 -0.029494956 -0.009619038 0.05069197
0.028074682 0.0005209356 0.028303934 0.030691192 -0.016646143 0.025945565 -0.009029277 -0.04448337

action_model._discrete_distribution.branches.1.bias f4 [3]
00000000: f264 683c 8e37 a0bc e9ff c93b
0.0141842235 -0.01955774 0.00616454

action_model._discrete_distribution.branches.2.weight f4 [2, 256]
00000000: c6e5 873c 8961 43bc 034f b3bc 2f09 9d3c
00000010: 8ea5 d43b b36f 63bd 20dd 89bc 116c 293c
00000020: 611f 0d3d 464c e43b a675 c43b 45cd 1bbc
00000030: 22bd 1ebc 40a6 bd3c f31c 04bb 0e54 3cbc
00000040: b6d3 38bd 8eca 123d 80ad 11bd 8985 853d
00000050: c608 a23c 46ab 0d3c ea18 033c 4632 67bc
00000060: f7a8 953b 9199 753c 84db 92bb 498d 0a3c
00000070: 83f2 16bd 474f d23c 5f22 3b3c 1276 c7bc
00000080: 2ef5 89bc c5b7 03bd 9371 fc3c e3e3 f53b
00000090: 1125 0cbd f453 b5bc 2efd 9a3b de1f 943c
000000a0: 605e 52bd deae 3c3a 5077 393c 1f9e 193c
000000b0: 052b e83c c643 5a3b a6b3 b23c 7d9e 49bc
000000c0: 7685 163d 6336 8b3c b3fa aabc ee57 6d3c
000000d0: cf87 94ba b6fd c53b dfaa ca3b 8033 77bc
000000e0: e226 25bc 1e51 55bc 1067 c8bc 6784 2cbc
000000f0: b693 2b3d 78d9 f9bb c80e 11bd 7c34 0d3c
00000100: ef24 9a3c 7450 8c3c aecc 3abd e74f dfba
00000110: b1b5 dfbc f3c7 e13c 4c08 85bc 8027 ed3c
00000120: d114 f9bb 7b17 dcbc f1fa cb3c fe2a 1dbd
00000130: b0a3 a03b 4970 0bbd 5741 fb3a 8faa b83c
00000140: eed9 3439 5c60 be3b cd58 c2bc 1153 f6bc
00000150: d536 57bd 5f12 3fbc 223a 2a3c 8e85 d8bb
00000160: c339 4ebb 7eb8 b43c 61dc 98b9 8a88 9e3b
00000170: 6da1 51bc 709a 3e3d a879 e23a 0588 e1bb
00000180: 9515 96bc 0f09 b5bb 7a97 f7ba b6f7 13bd
00000190: 146d e0b9 56ad 273b 3523 8b3b 9631 f43c
000001a0: 765e 4dbb b72d 11bd e098 0dbc 718a b8bc
000001b0: 36dc 00ba 5530 8a3c 777b 303b 0970 383c
000001c0: 4875 063d b8b0 b3bc 8895 5a3c 9baa 55bc
000001d0: cb7b 703c c0b5 e73c 2a73 993c e11c bdbc
000001e0: c642 be3c 6a28 083c 6a36 96bc eb9e c8bc
000001f0: 1c5e b43d beaa 0bbd ad85 0ebd 0ea3 88bc
00000200: 06a8 733c 40a1 73bd 32ef 28bd 0bf2 59bc
00000210: 7129 983b 992d f83b 7f53 0a3c 7dcb 03bc
00000220: d0ba e43c 268d 803c 6b49 423c 477a bfbb
00000230: 922f 20bb 84a6 293c 9a8f a5bb 6399 b03c
00000240: 7065 45bc 42fe ef3b b768 3abd 2df9 3dbb
00000250: ce91 7e3b 3984 1bbc 992e 433d 1e7f e8bc
00000260: 3e9e d3bc 37e3 ccbc 2f21 393c c126 3e3c
00000270: 8d4b dfba c468 d63c 069b 14bd e86d a1bc
00000280: 215f 58bc 898d 463c 2294 44bd 3d0a 313c
00000290: 802f 6c3c cd09 d7bc 258b ad3c 5499 293c
000002a0: 9945 4b3d 5da6 febb 4a05 5cbc 76d0 8bbc
000002b0: ff01 a3bc 6cc1 0abd 332d b63b b739 3b3d
000002c0: a9b7 07bd aaad ef3b 9202 88bb c6d9 0b3d
000002d0: 91eb 2cbd bbc2 473d 0444 1c3d f424 11bb
000002e0: cda7 2abc 3ecc 37bc 16e7 543c 21e8 943c
000002f0: 1e8c 943c 71f4 9ebc 8707 913b b38a bf3c
00000300: 9484 76bb 440b b8bc f478 973c e4ad af3b
00000310: aa7f 00bd c4bf b6bc b90d 303d 22b3 053d
00000320: 6cf1 e53c 7cf2 84bc d7bb 7d3c 2021 9bba
00000330: eb5d 783b 1978 343b 8bf8 2cbd 9d27 e7bb
00000340: 3f51 163b 5995 11bc af53 0abc 1996 1b3b
00000350: ebb2 3a3c 3583 653d fe05 8a3c c62c d43b
00000360: 90a3 923a 38bf 12bb 66e1 433d 1500 7abc
00000370: b2ad 1cbd d09f 89bc e392 26bb b716 a13c
00000380: 873b 92ba 96fc 1bbc 7f1a 0b3d e277 c43c
00000390: cae4 54bd 322a a7bc db23 df3c a31d 703c
000003a0: 8088 7fbc 2df1 f0bc d375 a8bc bccb 63bd
000003b0: 75fa a1bc 115e 01bc 90a3 d13c 8eb2 8f3c
000003c0: 55a3 60bd 5ba8 203d 06d9 0e3c de26 8f3b
000003d0: 8ff0 86bc 9315 dd3c 4409 ffbc 0a8f d13c
000003e0: 7ed8 3cbb 121b 18bb ddbb 183d 43cc 98bc
000003f0: f815 05bc a4be 22bd 13eb 263d 4d25 31bc
0.016589057 -0.01192511 -0.021888262 0.019169418 0.006489462 -0.055526447 -0.016829073 0.010340706
0.034453753 0.0069671003 0.00599547 -0.009509389 -0.009688647 0.023150563 -0.0020158857 -0.01149465
-0.04512378 0.035837702 -0.035565853 0.065196104 0.019779574 0.008646792 0.008001545 -0.014111107
0.0045672613 0.014990226 -0.0044817347 0.008456537 -0.03685237 0.025672568 0.011421769 -0.024348292
-0.016840544 -0.03215768 0.030815875 0.007503973 -0.034215037 -0.022134759 0.0047298884 0.018081602
-0.051359534 0.0007197688 0.01131995 0.009376078 0.028340826 0.0033304556 0.021814179 -0.012305853
0.036748372 0.016993707 -0.020871496 0.014486296 -0.0011331978 0.0060422076 0.00618492 -0.015087962
-0.010080071 -0.013019828 -0.024463207 -0.010529614 0.041888915 -0.0076248012 -0.035414487 0.00861847
0.01881644 0.017128207 -0.045605354 -0.0017037363 -0.027308317 0.027561164 -0.016239308 0.0289495
-0.0076013585 -0.026866665 0.024899932 -0.03837108 0.0049023256 -0.03404263 0.0019169253 0.022542266
0.00017247323 0.005809827 -0.023723984 -0.030068906 -0.052542526 -0.011662095 0.0103898365 -0.006607718
-0.0031467534 0.022060629 -0.00029155894 0.004838054 -0.012794835 0.046534 0.0017278688 -0.00688267
-0.018320838 -0.0055247615 -0.0018889748 -0.036124907 -0.0004280588 0.0025585494 0.0042461404 0.0298088
-0.003133682 -0.035443988 -0.008642405 -0.022526952 -0.00049156265 0.01686875 0.002692906 0.01125718
0.032826692 -0.021934852 0.013341315 -0.013041164 0.014677952 0.028284907 0.018731672 -0.02308506
0.0232252 0.008310417 -0.018336494 -0.02448984 0.088070124 -0.03409838 -0.034795452 -0.016679313
0.014871603 -0.05947995 -0.04124374 -0.013302336 0.004643612 0.007573795 0.008442759 -0.008044121
0.02792111 0.015692305 0.0118583245 -0.005843434 -0.0024442417 0.010354642 -0.005052519 0.021557515
-0.01204811 0.007324011 -0.04551002 -0.0028987632 0.003884423 -0.009491974 0.04765186 -0.028380927
-0.025832292 -0.025010688 0.0112994155 0.011605919 -0.0017036066 0.026173003 -0.036280654 -0.019705728
-0.013206274 0.012118706 -0.047992833 0.010805664 0.014415622 -0.02624979 0.021184513 0.010351498
0.04962692 -0.007771297 -0.013428995 -0.017067175 -0.019898413 -0.033875868 0.0055595874 0.045709338
-0.033134136 0.0073144035 -0.004150697 0.03414323 -0.04221684 0.048769694 0.038150802 -0.002214727
-0.010415983 -0.011218129 0.012994548 0.018177094 0.01813322 -0.019403668 0.004425946 0.023381567
-0.0037615644 -0.02246631 0.018490292 0.0053613055 -0.03137175 -0.022308238 0.042981837 0.032641537
0.02806922 -0.016228907 0.015486679 -0.0011835434 0.0037897776 0.0027537404 -0.042229217 -0.007054283
0.002293661 -0.008885705 -0.008442803 0.0023740588 0.011395196 0.056033332 0.01684856 0.006475064
0.0011187661 -0.0022391807 0.04782238 -0.015258809 -0.038251586 -0.016799837 -0.002541714 0.019664152
-0.0011156657 -0.00952067 0.033960816 0.023982946 -0.051976003 -0.020405862 0.027238777 0.014655503
-0.015596509 -0.029411877 -0.020563995 -0.055614218 -0.019772748 -0.007895962 0.025590688 0.017541196
-0.054843266 0.039223056 0.008718735 0.004368647 -0.01647213 0.026987826 -0.031132348 0.025580902
-0.0028815563 -0.0023209495 0.037288535 -0.018652087 -0.008122914 -0.03973259 0.040751528 -0.010812116

action_model._discrete_distribution.branches.2.bias f4 [2]
00000000: 483c 8bbc 493c 8b3c
-0.016996518 0.01699652
