results/MoveToButton_9/ButtonPress/ButtonPress-499921.onnx (onnx, 352736 bytes, 13 tensors)

discrete_act_size_vector f4 [1, 4]
00000000: 0000 4040 0000 4040 0000 0040 0000 0040
3.0 3.0 2.0 2.0

network_body._body_endoder.seq_layers.0.weight f4 [256, 65]
00000000: 363f abbb 7169 84bc 8771 06be 5d51 60bd
00000010: 46b4 023e fc5b 953d 62ee 72be 515c 96bd
00000020: 00d3 81bd 487e 163b 2fbb c7bc ea95 22bd
00000030: 6929 8dbd ccab b9bd 055c 6fbc 4734 433d
00000040: 1972 f0bd 26e9 bcbd 2fd6 9cbd 9c50 993c
00000050: b3d6 d13d 6fb5 a9bd 52d3 aabd 4698 18be
00000060: 93ce 1a3e 4124 5b3d 9739 0a3c 201b 09bd
00000070: d6ab a0bd 45c9 663c d813 1fbc 3f1d d1bc
00000080: a1c8 353e 7d2c c43c fe66 30bd 8a92 b83d
00000090: 0280 ea3d b9fe eebc 08fb d43b 5fc8 993e
000000a0: 10ed b83d aa9d 86bc 84a1 ccbe 0d60 183d
000000b0: e28b d93d 618d 88be 447b 40be 317c 293e
000000c0: a160 f93d 492f 263e 5d91 863c b8fa 85bd
000000d0: 71df 9dbe 8e79 96bc b652 4e3e bc4f ac3b
000000e0: 96cd bdbd 9e81 d7bc 8930 73be baf9 67be
000000f0: 6181 fdbd 8aaf ed3d a23f babe e6db 0ebe
00000100: c30d 42be 03fd 84be 5b62 ae3d 9f20 b63d
00000110: 62ed a3be 5fe0 aabd 7478 5ebd 5511 9cbd
00000120: bf4f 233e de15 4cbd 9902 2ebd 404b efbd
00000130: 5fb2 283e 7574 ce3d 14de 973c d6dd 00be
00000140: 9982 71bd 04b5 49be e401 bcbc b96a 203b
00000150: 83ba f73c 4653 a6bd d823 813d e376 04be
00000160: 411f 0ebe 1b9b 11be b74d 1fbd 591f 333e
00000170: 51b5 b13e 5b25 97bd 64d0 d63c bbb6 353d
00000180: 3bd8 ac3c 58b2 8dbe 0b3f ba3c 7b5e 923e
00000190: d787 173c 8118 b0bd 446e 26be e4cf 1b3e
000001a0: 33d3 363d a9eb 5c3d e7bb cc3d 04e5 38bc
000001b0: f06f 8c3d 098f 833d 5578 1ebd 8d9f 35bd
000001c0: f645 89bd d38c 103e 8214 423d b5dc 3dbe
000001d0: 3585 8b3b 4acd 6dbe bdd1 60bc 341e a9bc
000001e0: 6391 c63d 44bc a9ba 6c0c 39bd 8909 abbd
000001f0: 5d13 393d 38ad 49be daf6 ca3e 6543 5cbe
00000200: 1a05 e53c 45d8 95bb 170a 5a3d 47aa a83c
00000210: c182 7abd a22e 783e 37e6 21bd e9f8 903e
00000220: 28c1 963d a1a8 43bb 37b1 0d3e fa02 39be
00000230: afc4 053d 6883 ca3d a96c ab3c 4a13 853e
00000240: 3bbe af3e 477f a03b 1bd9 43be 2951 833d
00000250: f110 123c 3f3c 05be 4a2c 3b3d f141 953e
00000260: 6dee 503e 2fda db3d cce1 2cbe 15ff 75bb
00000270: 9e71 a5be 77a8 12be 142a b03d 4388 22be
00000280: 91c4 efbc 407a 8cbd 68f8 e83d dfc6 b0be
00000290: 0be8 82be 9750 323e d249 86bd 07ae 2e3d
000002a0: eaa8 0abd 9d98 8ebd 974e 093c f8d8 73bd
000002b0: 1e28 12be be62 613e 94cd 183c 830f 5cbd
000002c0: 52e4 163d 8e8c bfbd 8452 5f3b 9538 2ebe
000002d0: 30c4 0dbe 4a5a 103e a120 9f3d e0f6 efbd
000002e0: a643 0e3e 46f6 b73d 3ce2 f5bd 51ff b73d
000002f0: b8fa 48bd 0770 d8bd fb36 3fbd d640 f4bd
00000300: 117c 9b3e 29d9 0a3e cc2f ccbb bce3 ba3d
00000310: 93a4 423b fc5e ca3e a755 a13d f143 e1bd
00000320: 5499 953c 7967 1c3e 3562 143c c025 19bd
00000330: 734d 55bd 091b abbd 1f00 4e3d 210c 343c
00000340: f659 5e3d 6fdb 1ebd 44d4 d1bd ad9f aebd
00000350: b7e5 d4bd b74c e5bd 90e4 8e3d dd7b e8bd
00000360: da44 923e 0c7b d5bc 164f 9e3c ad1c 773c
00000370: fe52 093c 9ccd 023d 6028 e03d 952f 493d
00000380: 040d 0abd 2ae9 523e aa2d e13d 8da1 14be
00000390: 5eb8 09bd 9a83 243e d346 823d 4678 aabd
000003a0: 1da7 443d 16ff 3c3d 7efd b13b 64d8 873d
000003b0: 5c8e c53d 5417 4d3e f88e 813d c04e 893e
000003c0: d0de 7fbd 399d 8ebc 100c 66bd db4e c1bd
000003d0: d439 4dbd 1cdd 083e 73a0 213e 4d8e 88bd
000003e0: 4b7e 84bb cdb8 683d d443 783e 0e06 a2bd
000003f0: 6ef8 20bd 9e10 ab3c 1505 77bc 7681 3f3e
-0.005226041 -0.01616356 -0.13129245 -0.054765094 0.12764081 0.07292935 -0.23723748 -0.07341827
-0.06339073 0.0022963453 -0.024381248 -0.03969375 -0.06892664 -0.09065971 -0.0146093415 0.047657277
-0.117405124 -0.09224157 -0.0765804 0.018715195 0.10246029 -0.08286559 -0.083410874 -0.14901838
0.15117864 0.05350137 0.008436582 -0.033473134 -0.07845275 0.014086072 -0.009709321 -0.025526641
0.17752315 0.023946995 -0.04306697 0.09012325 0.11450197 -0.029174196 0.006499652 0.30035684
0.09029591 -0.016432602 -0.39966977 0.037200976 0.10622384 -0.26670364 -0.18797022 0.16551282
0.121766336 0.16228975 0.016426736 -0.065419614 -0.30834535 -0.018368509 0.20148739 0.0052585285
-0.09267728 -0.026306923 -0.23748983 -0.22653857 -0.12378193 0.11605747 -0.36376673 -0.13951072
-0.18950562 -0.25974283 0.085148536 0.08892941 -0.32017046 -0.08343577 -0.05431409 -0.07620493
0.1594839 -0.04982554 -0.042482946 -0.11684275 0.16474293 0.10080806 0.018538512 -0.12584624
-0.05896244 -0.19697958 -0.02295012 0.0024477674 0.030240303 -0.08121352 0.06305665 -0.12935977
-0.1387911 -0.14219324 -0.038892474 0.17492427 0.34708646 -0.07380172 0.026222415 0.04436372
0.0210992 -0.27675128 0.02273514 0.28587708 0.009248695 -0.08598424 -0.16253 0.15216023
0.04463501 0.05393568 0.09996777 -0.01128507 0.06857288 0.06423766 -0.038688976 -0.044341613
-0.06702797 0.1411622 0.04738284 -0.18541224 0.004257823 -0.23222843 -0.0137218805 -0.020644285
0.09695699 -0.0012949784 -0.045177862 -0.08351428 0.045184482 -0.19694984 0.39641458 -0.21510084
0.027956534 -0.0045729005 0.05323228 0.020589007 -0.061159853 0.24236539 -0.03952619 0.28314903
0.073610604 -0.002985515 0.13837133 -0.18067542 0.032658275 0.09888345 0.020925837 0.2599128
0.34324822 0.004897985 -0.19125788 0.064119644 0.008915172 -0.13011263 0.045696534 0.29151872
0.20403452 0.107349746 -0.1688301 -0.0037536074 -0.32313246 -0.14322077 0.08601776 -0.15872292
-0.029268535 -0.06859255 0.11375505 -0.34526727 -0.2556766 0.17413555 -0.06557049 0.042646434
-0.033852495 -0.069627024 0.008380554 -0.05953309 -0.14273116 0.22010323 0.009326357 -0.05372573
0.036838837 -0.093529806 0.0034076283 -0.17013772 -0.13844371 0.14096943 0.07769895 -0.117170095
0.13892993 0.0898252 -0.120060414 0.089842446 -0.04906723 -0.105682425 -0.046683293 -0.11926429
0.30368093 0.13559403 -0.006231284 0.09125468 0.0029700145 0.39525592 0.07877665 -0.10999287
0.01826159 0.15273847 0.0090566175 -0.037389517 -0.052075814 -0.08354766 0.050293084 0.01098922
0.054285012 -0.038783487 -0.102455646 -0.085265495 -0.10395377 -0.11196273 0.069771886 -0.1135175
0.28568155 -0.02605965 0.01932482 0.01508252 0.008381603 0.031934366 0.10945201 0.049117643
-0.03370382 0.20596758 0.10995038 -0.14514752 -0.033623092 0.16065827 0.06361165 -0.083237216
0.048010934 0.046141706 0.00543183 0.0663307 0.096462935 0.2002843 0.06326097 0.26817894
-0.06246835 -0.017408954 -0.056163847 -0.094388686 -0.050103977 0.13365597 0.15783863 -0.06667767
-0.0040433756 0.056816865 0.24244624 -0.07911311 -0.03929942 0.020881947 -0.015076895 0.18701729

network_body._body_endoder.seq_layers.0.bias f4 [256]
00000000: 37a3 3ebd 3b8c edbc 5ad4 1e3d e961 8abd
00000010: 7a97 2f3b 5333 2a3a 26f5 363c 34f0 ab3b
00000020: 0d49 9cbc ff56 e43b 0c44 96bc ad89 9ebc
00000030: e2da 313c c777 97bb a3e3 e1bb 080a e1bb
00000040: 20b9 313d 5efe 91bb 03f0 f93c 80a3 5f3d
00000050: dd4b 863b d29f a0bc ed06 8ebd 6330 6ebc
00000060: 8d61 92bb d08f 933a 2b4a 8fbc f6da c73b
00000070: 6047 7ebc aa8e 71bc 160d 583c efee 8eba
00000080: 8674 e33c 2289 ca3b 67c0 5c3c d977 023d
00000090: cede da3c fc9b 593c 0430 8b3b cd73 a0bc
000000a0: 4ef4 a8bc 0856 96bc e6fa a7bd 4e4c 1f3d
000000b0: 8b87 b53b d37c d8ba 992c 443c d5cc f73c
000000c0: 62a7 b3bc a7df e43c 2891 063d 7141 9a3c
000000d0: c34e 20bd 0a10 0b3c ccd3 f5bc acdb 103d
000000e0: c1c6 c6bc 7f4c 9dbd 36ed 833c 3ab4 02bd
000000f0: 61e8 e83b 18bb c8bb 265a 133d 4e9e f9bc
00000100: c070 92bc 136a b23c b176 8b3b ce55 efbb
00000110: dcab 33bd 464b 6fbc cf81 fc3c 634b 6abd
00000120: b4af 2b3c 6d40 2dbb 2de1 683d 3178 c73c
00000130: c925 6f3b d302 97bd 666d 71bc 5ab5 6f3b
00000140: 22fe 07bc bc81 b53c 6309 d8bc 8e77 b1bc
00000150: 4286 4e3c 4594 1abd d629 283d 8044 053d
00000160: b093 283d 0be8 a9bc de2b e23c 46db 463d
00000170: b01c 3bbd d0d8 853c 9b90 7a3d 0e01 a93c
00000180: 284d 6eba 32eb ecbc 5d97 1c3c ef1b 773d
00000190: 1a56 bf3c c274 4f3b 8a1a 95bc 81b7 ccbb
000001a0: 9592 debc ba92 f63c 8095 e1bc 4b02 e9ba
000001b0: 21b4 a8bc fa96 c23c b46a 31bd baaf 7cbc
000001c0: ae15 13bd 41bf 8c3c 612e b3bc dabc 4bbc
000001d0: 25c2 d1bd f3ec b1bc 1663 923b af13 123c
000001e0: 2d35 07bd ba33 12bd cfd4 5e3c a3ba 69bc
000001f0: c0eb 01bb 1fa3 0bbd 1dd8 a33b 40de a03c
00000200: 2dfc 24bd 7ad0 df3c d544 91bc ba7b 3cbd
00000210: d95d 793c 2f37 793b 098e 013d 1245 1abc
00000220: 32f1 67bd 68ed b33c c4dd 12bd 1d72 0f3c
00000230: 82d3 253d 614d 44bd df3a be3c 4e0b f9bc
00000240: 82ff 5cbd fd0e 283c e73b c73a affd c53c
00000250: 57fa 003c f656 a43c 8996 ba3c 9177 c0bc
00000260: ce0f a03b df10 d8bc c139 5ebd 01c7 4a3c
00000270: 635b 843c 3c37 023c 5c42 673a a91f 42bd
00000280: c16e 533d 984d b9bb bcfb 12bd 3d32 07bd
00000290: 166c 723c 1946 7cbc e6d9 003b 376b 393d
000002a0: ea1a a83b 0be5 c1bc a51d d23c 9a90 2abd
000002b0: fecb a23c 3afa bc3c 9c7c f93c 76cd a0bc
000002c0: 0057 aa39 848a 813c dcd0 793d b71a e5bc
000002d0: 69e5 13bc 00ed b4ba 22a8 ab3b 6e09 9fbb
000002e0: 283b 99bc 902d d73c 031e 96bc 4497 073c
000002f0: 20f1 dfbd 719c fb3c 0935 39bc f65e b2bc
00000300: 0bdf 553c 6fa5 9abb 13d5 273c 2322 b23b
00000310: aeb0 b43c 0b69 743c d4bb 613c cb40 2fbd
00000320: 899f cd3c ddd5 133d a43f 8c3c 5669 28bd
00000330: 46d0 cebc 59ac 43bc 9d47 653b 2590 94bc
00000340: 06a2 fe3c 3c22 90bc 4c29 5d3d 5370 f4bd
00000350: 99f8 043d 34ca d13b aa9b 71bb 4221 503a
00000360: d797 eabc 44ec 98bb d980 aa3c 2efc e93c
00000370: 9dfe 80bd 3421 893b f458 60bc b389 18bd
00000380: 6ceb a8ba 41ba e33c 75ab 5abb b554 2bbd
00000390: ff93 0fbd 4a6b ee3b 9d8a d33c ed1b 423b
000003a0: b033 1c3d bd29 ba3c d777 d13c fb87 a3bc
000003b0: 3be4 113d ab5c 8b3c 8620 373d 1c68 1fbd
000003c0: 9e57 d73c 1d79 b43c 016a d9bc 4a89 d6bc
000003d0: 658a f03c 6fd3 34bc b4dc 633c a257 e8bc
000003e0: 2319 2cbd 0124 ce3c 31bc bcbc d418 d23c
000003f0: f420 37bb d701 813b fbde 59bd ea73 47bd
-0.046542373 -0.028997531 0.038776733 -0.06756956 0.0026793168 0.0006492633 0.011166846 0.0052471403
-0.019077802 0.0069683786 -0.018342994 -0.019352758 0.010855408 -0.004622433 -0.0068935915 -0.006867651
0.04338944 -0.0044553718 0.030509954 0.054599285 0.004098399 -0.019607458 -0.06934915 -0.0145379035
-0.0044671954 0.001125807 -0.01749142 0.0060991 -0.015519947 -0.014743486 0.013186714 -0.0010904948
0.027765524 0.0061808983 0.013473607 0.031852577 0.02671757 0.0132818185 0.0042476673 -0.019586468
-0.020624306 -0.01835157 -0.08202152 0.03889113 0.0055398396 -0.0016516693 0.011973524 0.030249039
-0.0219304 0.027938677 0.032853276 0.018830033 -0.039137613 0.008487711 -0.03000822 0.035365745
-0.024264695 -0.07680606 0.016104322 -0.03191016 0.00710778 -0.006125819 0.035974644 -0.030470993
-0.017876029 0.021779096 0.0042560925 -0.00730393 -0.04386507 -0.014605349 0.030823616 -0.0572008
0.010478903 -0.0026436106 0.05685537 0.024349304 0.0036491028 -0.073735856 -0.014735555 0.00365766
-0.008300336 0.022156589 -0.026371663 -0.021663453 0.012605252 -0.037739057 0.041055523 0.03253603
0.04115647 -0.02074053 0.027608808 0.04854896 -0.045681655 0.016338736 0.061173063 0.020630386
-0.00090904767 -0.028920744 0.009557572 0.060329374 0.023356486 0.0031655286 -0.018201131 -0.0062474613
-0.027169505 0.030099262 -0.027537107 -0.0017777173 -0.020593705 0.023753632 -0.04331465 -0.015422756
-0.035909347 0.01718104 -0.021872701 -0.012435162 -0.10242108 -0.021719432 0.0044673784 0.008915826
-0.033009697 -0.03569386 0.013600542 -0.014265689 -0.0019824356 -0.03409111 0.005000128 0.019637227
-0.040279556 0.027321089 -0.017733017 -0.046016432 0.015220129 0.0038027277 0.031629596 -0.009415882
-0.056626506 0.02196379 -0.035856023 0.008755234 0.040484913 -0.047925357 0.023221431 -0.030400898
-0.05395461 0.01025748 0.0015200347 0.024168817 0.007872186 0.020060997 0.022776859 -0.023494514
0.0048846966 -0.026375232 -0.054254297 0.012376548 0.016156858 0.007947739 0.0008821839 -0.047393475
0.051619295 -0.005655002 -0.035884604 -0.033006895 0.0147962775 -0.015397572 0.0019661128 0.045268264
0.0051301615 -0.023668787 0.025648901 -0.04164181 0.019872662 0.023068536 0.030454926 -0.019629221
0.00032489747 0.01581312 0.0609902 -0.02796684 -0.009026864 -0.0013803542 0.005238549 -0.004853419
-0.018704966 0.026266843 -0.018324858 0.008275811 -0.10934663 0.030714246 -0.0113041485 -0.021773797
0.013053666 -0.0047194283 0.010243672 0.0054361983 0.022056904 0.014917622 0.013777692 -0.0427864
0.025100486 0.036092628 0.01712019 -0.04111608 -0.025245797 -0.011942946 0.0034985312 -0.01813514
0.031083118 -0.01759445 0.053994462 -0.11935487 0.032463644 0.0064022783 -0.0036866465 0.0007939526
-0.028636856 -0.004666837 0.020813392 0.028562631 -0.06298564 0.0041848663 -0.013693083 -0.037240695
-0.0012887544 0.027798774 -0.0033366357 -0.04182883 -0.03505325 0.0072759734 0.025822932 0.0029618696
0.03813523 0.02272498 0.02556984 -0.019962301 0.03561805 0.017011961 0.04470875 -0.038917646
0.026286896 0.022030408 -0.026539804 -0.026188511 0.029362867 -0.011036738 0.0139076 -0.0283621
-0.04201616 0.025163652 -0.023038955 0.025646605 -0.0027943226 0.003936987 -0.053191166 -0.04869453

network_body._body_endoder.seq_layers.2.weight f4 [256, 256]
00000000: 313d 89bd ddfb 7abc dee2 20b9 512d 963d
00000010: 0082 44bd 71a6 e63d 6ff9 953b 7df4 b53d
00000020: 0829 abbd 8287 793c aaee 203d bdb5 ea3d
00000030: 6442 89bd 6ad5 f3bd 23ff 44bd b933 78bd
00000040: 8e70 7f3d 05f8 903d bf03 17bd 731e ddbd
00000050: 7b44 2cbd b8b5 4d3d 1ba9 073d 1395 843c
00000060: c696 75bc c024 7fbd b7e4 1cbd 560c cbbd
00000070: 8359 21bd cc56 0ebd 02ad 0b3e 0163 793d
00000080: 41fd 0c3d 6d2e 7bbd beb5 1ebd e55d bc3d
00000090: 71ed ca3d 8272 d2bd 163e 44b9 9b17 69bd
000000a0: 4d2b 80bc 2df2 df3d b1a9 c03c 5f50 32bd
000000b0: 9be4 a0bb 4c52 acbd ceff be3d 5bf4 4ebd
000000c0: 481e 853d e6b0 e93b 0681 4d3d 4d58 803c
000000d0: 9e0a 0cbc 8da9 77bd 97c3 e2bd 7c4d dcbd
000000e0: a06d 5a3c 2652 c4bb 867a 5d3c 4b26 3dbd
000000f0: 11f4 4d3d c401 cd3d 97a3 57bd 15dc 80bc
00000100: 93e8 92bd 61ea cebc 6763 0fbd 6662 5cbd
00000110: a64f ff3c 154c 5b3c 9338 2d3d 4edd 973d
00000120: 1e1e 4abd 6fe4 f0bd e3eb 1c3d 5ae7 80bc
00000130: ab70 ffbd 70c2 fbbc 260a 37bd 6f22 fabc
00000140: 4221 f8bb 33ce 313a 59df 9dbc 8190 82bd
00000150: 6459 98bd 6951 cc3d 46fb 23bd b342 4fbd
00000160: 1626 973d a210 0e3e 48fa cabb da70 b43c
00000170: dd99 f8bc ef6a 1cbe 5215 2b3c 529f 383b
00000180: e8f4 323e 07d4 063d 1cde 803c 47b0 1a3c
00000190: 5932 e13d 8b69 93bc 92d3 1abd 3957 0b3c
000001a0: 7817 4cbb e26d d0bc 60f2 12bd 5c1c 043d
000001b0: 52f4 bf3d c424 a43d 93ae 8d3d 1276 8b3d
000001c0: 80e1 263c 282e 863d 3929 903d b58b 55bd
000001d0: fca6 0c3d cae5 9f39 e4ab 14bd 66fc fc3d
000001e0: 65d4 a63d 63f0 683d a03d 373d 74c1 4b3d
000001f0: 634e 263d cac5 d2bc 20ce 87bd 9490 66bd
00000200: 6d0c bfbd 1d94 d5bb 71a4 143e 28ea d0bc
00000210: 0e38 dc3d 7f1f 523d d9b5 4d3c 3da3 44bc
00000220: e8ff ab3d 64c7 49b8 99c8 443e 0923 be3d
00000230: 71e3 a5bc 9f08 cf3a f234 05bd fa0e 913d
00000240: a99f 60bc e3d4 f43d 5a34 7dbe cc63 b33d
00000250: 52b3 3dbd 6a96 eb3b b41b 073e 88d3 93bd
00000260: 346d 8dbd c255 013d c0cc 03be b26f c4bc
00000270: 59a5 d6bd 276c 9a3d f27d 153d 80df ddb8
00000280: 5b36 0cbc 628f 0b3c 33ff bf3c 426f d4bc
00000290: 1501 dfbc 0017 0f3d 70a0 e8bd 890d 793d
000002a0: df61 05be d37c e03c 0a03 053d db42 a53d
000002b0: ae6d bbbc 61a5 8d3c 4d39 403c 4b99 1cbc
000002c0: 4537 a3bb f619 90bd e5e4 5c3c dc35 473e
000002d0: c132 bbba 186a b1b9 fd10 9b3d 74c1 aa3d
000002e0: 227c 203d 6ab4 28bd 59fe c0bc 2aa1 063c
000002f0: ca58 6bbd 31b2 48bd b31d 063c 9848 fe3b
00000300: 58f2 21be bb8f 933b febd 9ebd 230b d8ba
00000310: 56c0 c6bc 83b3 9ebd 5a7b 52bd 16d1 b2bd
00000320: 1bd0 1fbd 7b5d 3ebc f5d9 01bd a029 c13c
00000330: e475 513c c3ef 6cbc 0124 d1bd 3070 fa3c
00000340: 5f1c 70bd 79f7 9e3d 7f8f 283c 125d c13c
00000350: 2e68 b83d d036 efbc be17 58bc 137e ec3a
00000360: 371b 003e 60fc fe3d 87f4 5dbc 4378 9abd
00000370: 4fd1 b8bc 8589 893d 78f2 e13c 0334 febd
00000380: 3919 1b3e 2398 603d 2dfa 803d eea1 d53d
00000390: 752f 563d 728f 4a3d ac29 0cbd ad9f 813e
000003a0: e060 b0bd 4f10 1abb c6bc 4c3d 18b6 e53c
000003b0: 9b80 e43c c022 1a3d 6662 963d ca7b 96bd
000003c0: 72f7 2f3d cedd b4bc 426a 96bd b03f b6bd
000003d0: ab5f 253e 0e74 ebbd 9cfb bf3b 2738 cebd
000003e0: 0d12 15be f93b 8b3d 12e8 a5bd d280 73bc
000003f0: 2d25 8f3d 2e37 f6ba 5add a73c 085a 303c
-0.067011245 -0.015318838 -0.00015343304 0.07332862 -0.04797554 0.11262215 0.004576854 0.08884523
-0.083574355 0.0152300615 0.039290108 0.11460445 -0.06702116 -0.1190594 -0.04809488 -0.0605962
0.0623632 0.07078556 -0.036868807 -0.10796823 -0.042057496 0.05022213 0.033120256 0.016184365
-0.0149895605 -0.062290907 -0.038304057 -0.09914462 -0.039392006 -0.034750745 0.13640216 0.060885433
0.03442121 -0.061323572 -0.03874754 0.091975965 0.099085696 -0.10275747 -0.00018715145 -0.056907278
-0.015645647 0.10934863 0.023518415 -0.04353368 -0.0049100644 -0.084141344 0.093261346 -0.050526004
0.06499916 0.0071316836 0.050171874 0.015667105 -0.008547453 -0.06046443 -0.11072462 -0.107569665
0.013331801 -0.005991238 0.013517981 -0.046179097 0.050281588 0.100101024 -0.052646246 -0.015729943
-0.07173266 -0.025258245 -0.035006907 -0.053804778 0.031165909 0.013384839 0.04229028 0.074152574
-0.04934513 -0.1176232 0.038310897 -0.015735317 -0.124726616 -0.030732363 -0.044687413 -0.030533997
-0.007572324 0.000678274 -0.01927154 -0.06375218 -0.07438925 0.09976465 -0.040034555 -0.05060072
0.07380311 0.13873532 -0.0061943866 0.022026468 -0.030346805 -0.15275167 0.010442095 0.0028171134
0.17476237 0.03291705 0.01573091 0.009441442 0.10995931 -0.017994663 -0.037799425 0.008504682
-0.0031141918 -0.025443021 -0.035875678 0.032253608 0.09372772 0.08014825 0.06918063 0.068096295
0.010185599 0.06551772 0.070391126 -0.052135188 0.034338936 0.0003049805 -0.03629674 0.12352829
0.0814598 0.056869876 0.044736505 0.04974504 0.0406021 -0.025729079 -0.06631112 -0.056290224
-0.09328542 -0.0065179006 0.14515854 -0.02550228 0.10752879 0.05129957 0.012555563 -0.01200181
0.083984196 -4.810783e-05 0.19217147 0.09284026 -0.020250054 0.0015795416 -0.032521196 0.07082935
-0.013709941 0.119546674 -0.24727002 0.08759269 -0.04631359 0.0071895616 0.13194162 -0.07218081
-0.069055945 0.031575926 -0.12871075 -0.023979042 -0.10480756 0.0754016 0.036497064 -0.00010579731
-0.008557881 0.008518072 0.023437118 -0.025931958 -0.027222196 0.034934044 -0.11358726 0.060803924
-0.13025616 0.02740327 0.0324736 0.08069392 -0.022879448 0.017290773 0.011732412 -0.009558032
-0.004980954 -0.07036202 0.013482307 0.1945414 -0.0014282094 -0.00033839117 0.075716 0.083376795
0.039180882 -0.04118768 -0.023558782 0.008217135 -0.057457723 -0.04899806 0.008185792 0.0077601187
-0.15815103 0.004503218 -0.07751082 -0.0016482811 -0.024261635 -0.07749083 -0.05138717 -0.08731286
-0.039016824 -0.011618967 -0.031702 0.023579419 0.012784455 -0.0144614605 -0.10211945 0.030571073
-0.058620807 0.077620454 0.010288118 0.02360395 0.09004246 -0.029200941 -0.013189254 0.0018042944
0.12510382 0.124504805 -0.013547069 -0.07542469 -0.022560744 0.06715683 0.027581438 -0.12412264
0.1514634 0.05483259 0.06297717 0.10431276 0.052291352 0.049453206 -0.03421943 0.25317135
-0.086122274 -0.0023508256 0.049984716 0.02804093 0.027893355 0.037630796 0.07342987 -0.0734783
0.04296059 -0.022078421 -0.07344486 -0.08898866 0.16149776 -0.11496745 0.0058588516 -0.10069304
-0.14557667 0.06798548 -0.081009045 -0.014862256 0.069895126 -0.0018784755 0.02049129 0.010763653

network_body._body_endoder.seq_layers.2.bias f4 [256]
00000000: e002 7f3b 31a8 a6bb fb0b 43bc 423e 05bb
00000010: cb14 583b f954 423c d394 3cbc b435 97bc
00000020: 68e7 dc3b 1e3c 11bd 370d 17bb e0d5 da3c
00000030: 0508 f3bc 2bfd ca3b c614 54bc 91a0 51bc
00000040: c0ae 19bd 6714 573b 9eea 9bbc f41e 193c
00000050: 0c7b 78bb f1ba 323c 5329 03bd 01ef 24bc
00000060: 246e a1bc 283c 983b dca3 43bc 7914 97bc
00000070: 0a60 013d 0d57 3dbc 99e6 133c 75e4 0ebc
00000080: 61c5 a4bb de53 4dbc 05d1 25bb 93be 52bc
00000090: aca4 223c 104d 133c cee4 443d 9c2c 4d3c
000000a0: cde2 cfbc 4a53 82bc 8fb8 053a 7943 3f3d
000000b0: 6905 8bbb 43b0 1aba 289e 533c 0676 82bc
000000c0: 2965 b4ba 5c16 c93c 7a73 fdba fc6c 00bd
000000d0: 0f4f 88bb 2002 a03c cd54 51bc 5847 f7bb
000000e0: f46e 96bb 6bfd e33c 1631 003c 52c4 edbc
000000f0: 14c6 51bc 855f 183d fa60 a03a 72f3 a3bc
00000100: d98d 29bc 186d b5bc 31eb 8abc 930a f0bb
00000110: ade0 8cbc 9249 e8bb 52e9 0739 c288 ff3b
00000120: ebff 3d3d 0aa5 26bb 943c 6b3c 8110 92bb
00000130: f5a2 b43c bb12 3abb 5195 1d3c 080c 3b3c
00000140: 01d8 3fbc e8e3 0c39 d8a0 bdbc 9017 803c
00000150: fc70 133d 531b e63c 3d8f 6d3b ed97 363a
00000160: b21f 6c3b b516 a83b 56bb c9bc cfe6 cdbc
00000170: 889e adbc c8ad b9bc b9df dd3c 996e 833c
00000180: 97db 99bb d3fb b03c 5f3b 803b b7e2 bfbc
00000190: 09e0 04ba 0850 873c 8806 7bbc 83a7 5abc
000001a0: 01df 8fbc e088 9fbb bd18 04bc b07c 0ebc
000001b0: ff61 c2bc b750 453c 740b 67bc 4f7b b7bc
000001c0: c6c2 7f3b 01f0 4cbc 430a 87bc 6ab5 c63b
000001d0: 242f 35bc 92ee 753c 2a9f 32bc 19d8 143b
000001e0: 34ce a93c f898 5d3c 1768 833c adfd 9bba
000001f0: 735d d13c 04af ca3c 047a 09bc fd71 a0bc
00000200: 039c c2bb 09b6 c9bb 56d3 bfbc b6dc c3bc
00000210: 626f e53b e3c7 673a 88d3 18bd 065b 4ebc
00000220: 36a0 aebb 6a1c d5bc e8a1 5eba 9fee 2fbd
00000230: 0e87 b7bc 4dd7 c33c bb05 86bc 46ea 7bbc
00000240: 1ec0 40bb 5f20 2e3d 2eef 30bc b07c 8e3c
00000250: 44ac 56bc 0e14 27bc 48be dabc 26ea f8bb
00000260: 051b 003d a58b b5bc 227b 60bc 5484 4e3c
00000270: ecec eb3c 444a 3b3a 6aee 9bbc 48b4 05bc
00000280: bb64 cc3b f0b0 77bc 246d c43c 8f34 2b3b
00000290: a136 13bd 3506 e93c ab8d 73bc 82f1 923b
000002a0: fb82 8abb ad5a a6bc 7b97 91bc 82e2 81bc
000002b0: 3ce8 0ebc bf0a 9c3b 5e73 2fbc 6d08 5cbc
000002c0: 7c63 11bc 35f0 82bc 5134 0fbd 9486 02bc
000002d0: 47e6 dfbc c151 fcbb 1782 2bbc df9e 9fbc
000002e0: 11a8 853c 1cc7 10bc 91ca 30bc f252 d6ba
000002f0: fa38 dc3b f3a8 f0bc 12f4 023c a125 a4ba
00000300: c62f 0abc 9633 7dbc 1334 cebb 6b18 3cbc
00000310: 16dd ccbc c717 bbbc 4202 d63b 03fa 57bc
00000320: 11d9 6dbb 07f5 1dbc 0690 e2bb c5c7 4fbc
00000330: 40e0 27bc 0690 5b3b e318 2c3d de0e 183c
00000340: f64d 5abb 884f caba 74e4 2b3b 45ac 40bc
00000350: 5dc1 123c b358 a1bb 9d58 8c3c 77ca d8bb
00000360: cf67 b5bc c851 cfbc 6ed3 6abc 3297 aabc
00000370: 696a 0dbd 65d7 02bd 4426 f13c 69cf 31bd
00000380: 3d53 423c a50d 1d3d cfb3 93bc 8614 28bc
00000390: dbe9 583b adc9 8a3c f23b 9f3b e105 8dbc
000003a0: 12b6 91bc a60f 83bc a8c3 a33b 2840 1d3d
000003b0: 5fab 923c 7c9e 8fbc a74c debc 8bb6 9ebb
000003c0: 6be0 88bb 1510 8abc e130 793c 1b8a 88bc
000003d0: 4885 093c 22bb 153b 4d28 4e3a 5bf0 c4bb
000003e0: 4eee 063c cb28 703c 4086 503c 5933 faba
000003f0: b7f9 1f3c 8bff a3bb 4a29 d83c e194 13bd
0.0038911626 -0.005085968 -0.011904712 -0.0020331298 0.0032971378 0.011861079 -0.011510092 -0.018458225
0.006741453 -0.035457723 -0.0023048648 0.026713312 -0.02966691 0.0061947308 -0.012944406 -0.01279463
-0.03752017 0.0032818557 -0.019032773 0.009345759 -0.0037915139 0.010908828 -0.03202183 -0.010066749
-0.01970584 0.004645843 -0.011940923 -0.01844238 0.03158573 -0.011556399 0.009027147 -0.008721461
-0.005028412 -0.0125322025 -0.0025301587 -0.012862819 0.009926956 0.008990541 0.048069768 0.012522843
-0.025376702 -0.015908856 0.0005101049 0.046695206 -0.0042425883 -0.0005900899 0.012916125 -0.015925419
-0.0013763058 0.024546795 -0.0019336783 -0.031353936 -0.004159815 0.019532263 -0.012776566 -0.0075463466
-0.0045908634 0.0278308 0.007824203 -0.029024277 -0.012803573 0.03720047 0.0012235933 -0.020013545
-0.0103487605 -0.022146747 -0.016957851 -0.0073254793 -0.017196978 -0.0070888484 0.00012961522 0.007798285
0.04638664 -0.002542796 0.014357705 -0.004457534 0.02205036 -0.0028392512 0.009618119 0.011416443
-0.011709214 0.00013436342 -0.023147985 0.015636235 0.035996422 0.028089201 0.0036248707 0.0006965388
0.0036029634 0.00512966 -0.024625462 -0.025134472 -0.021193758 -0.022665873 0.027084218 0.016043948
-0.0046953666 0.021604454 0.0039133276 -0.023423536 -0.0005068784 0.016517654 -0.015321381 -0.013345602
-0.017562391 -0.0048686117 -0.008062539 -0.00869672 -0.023728369 0.01204317 -0.014101852 -0.022397665
0.0039026006 -0.012508393 -0.016484385 0.0060641067 -0.0110586025 0.015010493 -0.0109022055 0.0022711812
0.020728208 0.01352524 0.016040845 -0.0011901163 0.025557255 0.024741657 -0.008390907 -0.019585604
-0.005939008 -0.0061557335 -0.023416203 -0.023908954 0.0070018033 0.0008841736 -0.037311107 -0.012594944
-0.005329157 -0.026014525 -0.0008492754 -0.042952176 -0.022403266 0.023906374 -0.016360154 -0.015375679
-0.0029411386 0.04251134 -0.010799212 0.01739344 -0.013102595 -0.0101976525 -0.026702061 -0.007596272
0.031275768 -0.022161314 -0.013701232 0.012604792 0.028799497 0.00071445503 -0.019034583 -0.008160658
0.006237594 -0.015117869 0.023977824 0.0026123857 -0.03594077 0.028445343 -0.014865319 0.0044843564
-0.00422704 -0.02030691 -0.017772427 -0.015855078 -0.008722361 0.004762023 -0.010708658 -0.013429743
-0.008873817 -0.01598368 -0.034962002 -0.007966656 -0.027331484 -0.0077001755 -0.010468028 -0.019484935
0.016315492 -0.008836534 -0.010790483 -0.0016351624 0.0067206593 -0.029377436 0.007992761 -0.0012523421
-0.008434242 -0.015454194 -0.006292829 -0.011480431 -0.025007766 -0.022838486 0.006531031 -0.013182166
-0.0036292712 -0.009640939 -0.0069141416 -0.012681906 -0.010246336 0.0033502593 0.04201592 0.009280888
-0.0033310628 -0.0015435079 0.0026228698 -0.011759822 0.008957234 -0.004923904 0.017132098 -0.0066159326
-0.022144226 -0.025307551 -0.014332635 -0.020824049 -0.03452531 -0.031943697 0.029437192 -0.043410692
0.011860666 0.03834309 -0.018030075 -0.010258799 0.0033098373 0.01694187 0.004859441 -0.017214717
-0.017787013 -0.015998673 0.0049976893 0.038391262 0.017903982 -0.017531626 -0.02713616 -0.004843538
-0.0041771433 -0.016853372 0.015209408 -0.016667416 0.008393593 0.0022847136 0.00078642817 -0.006010098
0.008235527 0.014658163 0.01272732 -0.0019088789 0.0097641265 -0.0050048283 0.026386876 -0.036030654

action_model._discrete_distribution.branches.0.weight f4 [3, 256]
00000000: 44b8 33bd ae9f 7dbc 1c46 ad3c 46a1 09bc
00000010: 7b35 d03b 472d 3fbd cbd0 53bc 7a35 3dbb
00000020: 611c db3c 88bb 04bc 14a0 fdbc 63af 953c
00000030: b503 4abc 831d 323d 235c 0a3d 21aa 963b
00000040: cd1b c7bc dd86 413c 383f c53c 5d9b b53c
00000050: cd34 e7bc ff12 623d 77b7 bfbb a9b1 36bd
00000060: bf63 17bd f3ef 0c3d 6c90 4abd 867b f5bb
00000070: c9d1 a9bc 3f8b 553c 65d8 a13c d1f0 6ebd
00000080: e03b 6bbb 16e1 873c 2d10 7abd 53be e0bc
00000090: 31fa 2c3c 24a6 8f3c 43ce 953d 41c1 3a3b
000000a0: 83d8 543c 5b42 e3bb 22f5 18bd dff7 03bd
000000b0: b555 3b3d d2d4 483c 0897 ceba ae47 8a3c
000000c0: dd8f 23bc 61d1 57bb 767d 173d ffc2 a6bb
000000d0: a706 e1bc 8a88 943a 942a 6a3b 10fa cbbc
000000e0: 6e56 cdbc 8f88 0c3c cf0f 6f3c 32f2 123b
000000f0: 4164 743c 5b3d 9e3c 0ba0 81bc 6502 bebb
00000100: 3205 e5bc 5500 db3b a621 ab38 25b8 913a
00000110: 4961 d0bc 3da5 5cbc 74fd 103d 3ba4 cbbc
00000120: 5f79 503d 36cb a93c 2d40 d93c 3b97 4ebd
00000130: 089a 1abb b3f1 65bc b0d9 523c bc30 d7bc
00000140: af04 abbb 3381 703c b352 3bbc e02b 4cbd
00000150: 57e9 ec3c 36ef e63c 77f6 d4bc 9773 033c
00000160: 704e 37bc 560d 9fbc 7897 5dbc cf59 5c3c
00000170: fc41 2cbc 48c0 cd3b 07b2 c53c 7eb4 053c
00000180: 67f2 13bd 2021 ba3b 37f6 9abc 3a85 d0bb
00000190: b26a 7bbb 8de2 fdbb 3ca8 10bd cce2 fe3a
000001a0: 3fc6 653c 6c27 ba3c 3211 5e3c 1e0a f23b
000001b0: 0573 e0bc 6807 3ebd f3b1 3abd 2906 69bd
000001c0: 78c1 8fbb d827 ae3c d206 34bd 3bfb 73bd
000001d0: f0b9 38bc e10d 33bc 07a9 073d 84f1 95bc
000001e0: efb9 b53c 1318 1c3d 334d 563c d109 b4bc
000001f0: b706 51bb 674e 203d 3bc5 f1bb e061 a1bc
00000200: f233 f6bc 1a1b cbbc 97e1 2fbd db09 a33c
00000210: 777a 813c ac62 133d 3c88 f2bb 4418 dabc
00000220: a5ce 673c 2455 c3bc f04a 193d 7c87 45ba
00000230: 9592 2abc 982c 0b3d 521f f5bc 18b9 abbc
00000240: 9163 923b 7b89 e3bc 3d4f 923c 0bb7 2a3c
00000250: 320d 153c 6a6c ed3b 71ac 58bd 30fa f13c
00000260: cc83 223d 6205 02bd d8ba 38bd 727b e3ba
00000270: 7b24 953c 1b73 ec3b 386b 1cbd 95fb 05bd
00000280: c4c1 3f3c 2623 9e3c 476c 3539 91af d53c
00000290: f4fd 5cbc b849 d9bc 6125 01bb 2b10 d9bb
000002a0: 0776 96bc 9cca 53bb 4296 7cbc b6c6 b8bc
000002b0: 7498 963c d294 133d 7b13 19bc fceb b13b
000002c0: 251f cf3b 29c1 833b 9c13 c6bc c248 c1bc
000002d0: 30a9 29bc 642a eb3c daca 4abd df39 b4bc
000002e0: 520b 3e3c 00f5 e63b b6ed b03c 5c23 c93b
000002f0: 378f 483c 7ad6 d7bc 545c 86bc 9a4d 2a3b
00000300: 8d09 afbb fac8 8e38 7c56 0fbd b87a 0f3c
00000310: 733f 1dbd 2536 3cbd 9e34 9fba 3dbc 773b
00000320: d5eb bcbc 673f 15bc d4fc af3a 1f07 97bd
00000330: 106e b4bc 39e7 113c 8b30 153d c70b a5bc
00000340: 0301 0bbd eb95 333c c596 83bd 1206 9c3a
00000350: 961b 593d 9738 2e3c b26c 93bc bb59 d0bc
00000360: 113d 15bc 6b9f 72bc 69dd d2bb 3411 6dbc
00000370: 0fdf 293c 7db3 d8bc af97 24bb 53dd 643c
00000380: 7ec1 3f3d 9043 553d 0416 c9bc 9f0b e03c
00000390: ce32 db3c d9e5 46bd b76f 063c 61b7 06bd
000003a0: d0ed 6fbc c476 c73b 8087 89bc c8db 023d
000003b0: 6a6b 0e3c 6242 a23c b4e7 f3b8 8d28 383c
000003c0: 4035 6d3c b4ad ad3a 19fe 333c 2078 50bd
000003d0: 22a2 d63b c277 5cb8 0bec 1cbd 78d1 4cbd
000003e0: 758e cabb f1f5 163c 80ce a43c 95b0 5dbc
000003f0: 4870 da3c 5647 1ebd 9174 913c ed50 e73b
-0.0438769 -0.015479965 0.021151595 -0.008400267 0.0063540316 -0.04667404 -0.012928198 -0.0028870986
0.02674693 -0.008101352 -0.03096012 0.018272107 -0.012329985 0.043485176 0.033779275 0.0045979177
-0.024305249 0.011811939 0.024077997 0.02216881 -0.02822342 0.055193897 -0.005850728 -0.044603024
-0.03696036 0.03440852 -0.049454138 -0.007491532 -0.020729916 0.013033687 0.019756505 -0.05833513
-0.0035893843 0.016586822 -0.061050583 -0.027434504 0.010557697 0.017535277 0.07314732 0.0028496536
0.012991074 -0.0069354004 -0.037343152 -0.03221881 0.045736033 0.012257772 -0.0015761564 0.016879883
-0.00998303 -0.0032931196 0.036984883 -0.0050891633 -0.027468992 0.0011332196 0.0035730945 -0.024899513
-0.025065627 0.00857748 0.014591171 0.0022422192 0.0149164805 0.019316366 -0.015823385 -0.0057986253
-0.027956579 0.006683389 8.160183e-05 0.0011117501 -0.025437014 -0.01346713 0.03539796 -0.024858585
0.050897 0.020726781 0.02651986 -0.050437193 -0.0023590345 -0.014034676 0.012869284 -0.026268356
-0.005219064 0.014679241 -0.011433291 -0.04984653 0.028919859 0.028190237 -0.02599643 0.008023164
-0.011188135 -0.019415539 -0.0135248825 0.013449146 -0.010513779 0.006279025 0.024132742 0.0081607085
-0.036119845 0.0056802183 -0.018916233 -0.006363538 -0.0038363156 -0.007747954 -0.03531669 0.0019446253
0.014024316 0.022723876 0.013553904 0.00738646 -0.027398596 -0.046393782 -0.04557986 -0.05689064
-0.004387077 0.021259233 -0.043951817 -0.059565764 -0.0112748 -0.010928602 0.03312018 -0.01830364
0.022183387 0.038108896 0.013079929 -0.021977337 -0.0031894871 0.03913727 -0.007378248 -0.01969999
-0.030054066 -0.024793196 -0.04293975 0.01990216 0.015805466 0.035982773 -0.0074014943 -0.026622899
0.014148389 -0.02384431 0.03742498 -0.00075351424 -0.010410924 0.033978075 -0.029922161 -0.020962283
0.0044674356 -0.027775517 0.01786005 0.010419617 0.009097384 0.00724559 -0.052898828 0.029538244
0.039676473 -0.031743415 -0.045100063 -0.0017355515 0.018205872 0.00721587 -0.03818819 -0.03271063
0.011703912 0.01930387 0.00017301842 0.026084693 -0.0134882815 -0.02652441 -0.0019706117 -0.006624242
-0.018366827 -0.003231681 -0.015416684 -0.02255569 0.018383242 0.036030598 -0.009343023 0.005429743
0.0063208514 0.004020829 -0.024179272 -0.023594264 -0.010355279 0.028706737 -0.04950986 -0.022000251
0.011599379 0.0070482492 0.021597724 0.0061382484 0.012241176 -0.026347388 -0.016401447 0.0025986196
-0.0053417147 6.8085224e-05 -0.034994587 0.008757286 -0.038390588 -0.045950074 -0.0012146418 0.0037801408
-0.023061672 -0.009109355 0.0013426789 -0.07374405 -0.022025138 0.008905225 0.036423247 -0.020147217
-0.03393651 0.010961036 -0.064252414 0.0011903665 0.053004824 0.010633609 -0.017996166 -0.025433412
-0.009108798 -0.014808516 -0.0064350856 -0.014469434 0.010368123 -0.026452774 -0.0025114825 0.013968783
0.046815388 0.052066386 -0.02454663 0.027349291 0.026757624 -0.048559044 0.008205346 -0.032889728
-0.014644101 0.006087156 -0.016788244 0.03194788 0.008692602 0.019807044 -0.00011630301 0.011240137
0.014478028 0.001325062 0.010985875 -0.05089581 0.0065500895 -5.256362e-05 -0.038311046 -0.050004452
-0.006181533 0.00921391 0.020117998 -0.01353087 0.026664868 -0.03864225 0.017755779 0.0070592077

action_model._discrete_distribution.branches.0.bias f4 [3]
00000000: 0ee2 dd3c 51ea e23c 8a42 6fbd
0.02708533 0.027699621 -0.058413066

action_model._discrete_distribution.branches.1.weight f4 [3, 256]
00000000: 73d4 cf3c 705f b4bc ad79 92bb 70be e5bc
00000010: cc1c be3c 6596 e43c a297 54bd 6638 91bc
00000020: 3ad6 1b3c fba2 723c eb68 5b3c 2fb8 af39
00000030: 9fc2 24bd 84bf cf3c 2f5e f2bc 1d4b 123d
00000040: 5118 99bc 8932 753c 1c78 283d f78e 0b3d
00000050: 875e 523d 1716 17bd b6b9 c73b ceaf af3c
00000060: 020d 473d 70cf 3abd 17e2 4d3d a489 9bbc
00000070: dd30 0d3d 1d3e f5bc 332c 1dbc 3334 f93c
00000080: fb4d 563c 743c e93c c809 143d 02d8 d23b
00000090: 1423 953c a7cc 003d 58ed 52bd 747b 443d
000000a0: 6d26 4abd eed9 323b c03a 113d b368 b53c
000000b0: c876 b6b8 c0bf 1bbd 7228 dd3c 933b 3a3d
000000c0: 95b6 80bc 8b33 99bb 12d3 bfba db71 c2bc
000000d0: 28b6 00bc c97d dcbc 5ead 803c 828b b23c
000000e0: 1267 fa3c b8c4 a3ba e5df 033d 96a7 9cbb
000000f0: 1685 3538 12c0 ec39 fda8 0e3d 3b2d 9b3c
00000100: 46ee 09ba 6766 823c df3f 41bc e884 fa3c
00000110: 6bd3 50bc a91a cb3b 5b2f f33c 402d 4b3c
00000120: 05a0 81bc 5563 e03c b8c4 d33b 9eb2 063c
00000130: 0e58 fa3a c6b7 b43c 7da9 2a3c b902 09bc
00000140: 7271 14bc 67a2 1a3d 66f9 c43c 6f72 643c
00000150: 1ba8 dd3b 5cf4 0e3d 2f49 013d e5d7 023d
00000160: 90aa ab3c c7d1 fc3c dc3c a1bc cff2 6ebd
00000170: 3ad3 d1bc 24f6 273c 7692 10bc dd0e 1b3d
00000180: 9ec1 093a d52b 0f3c d151 583b 420d 43bb
00000190: 7639 5abb df8a 0fbd dd00 c33c eeea 33bd
000001a0: 0274 b33c f65d e43c e615 3fbc b3e0 5bbd
000001b0: aa23 b6bb 6632 153d 322c 9d3c 965f 44bb
000001c0: efd2 ca3c 8f4a 9c3c 0b73 0e3d dfb7 313b
000001d0: b1cf e6bb f60e 663c f3c9 d33c 4665 2ebc
000001e0: 95f9 253d f94f a0ba 24dc 143d e4f3 153c
000001f0: 8227 b7ba a106 41bd d64d aa3c 8d2e 4dbc
00000200: 8984 c13c 8055 5d3c bfd9 eb3a fcb7 15bc
00000210: 9adc eaba 5d01 0b3c e82b a9ba 8ad8 053c
00000220: 9e56 eabb e617 15bc 8ddc 823c 5dd2 6abc
00000230: 5e33 d8bc fd8b 6abd 0c87 6a3d 6d82 833b
00000240: 767a aabc 846b 2e3d e579 213d dfe0 de3a
00000250: 4d6d 9f3c 07ff 5b3b 97fb 223d 38a2 313b
00000260: b1bb dfbc 653e 4bbc 74e1 ec3c edae e6bb
00000270: a7fb 703c 4103 653c b4b2 7c3c f49e 69b9
00000280: c9c8 bb3c 82de 223d ba43 93bc cebe f1bc
00000290: 92f4 7b3b c74b 413d 8320 273c cf74 14bc
000002a0: 7eb4 e83b c44e 013c 1f8a 5ebc 906c fdbb
000002b0: 8d9d e7bc 8dc3 f13c 4221 183d 06dd f53b
000002c0: ccf2 b23c dae5 8cbb 50a8 483c 9296 0c3d
000002d0: 5088 32bb 4aae 9c3c 895b c73b 03e9 5d3c
000002e0: cced 71bc 993e 59bd d56e 563c 43fb 433c
000002f0: d59b 0fbd f2ab 413c 8d58 d2bc 54f9 a8bc
00000300: d695 ddbc 30e1 14bc e9af e0ba 450a 513c
00000310: 3c22 823c dd06 253c 7fc4 203c 3578 8dbc
00000320: ed7a 81bb c507 b13b d6c0 1f3c 0332 203d
00000330: 0630 3abb f206 47ba a842 45bc aa66 bd3c
00000340: 980b c73c 7f0a 943c 1664 9a3c eafe 85bd
00000350: a5a2 46bd 789d d13c a1c5 3d3b 0654 a6bc
00000360: c2fe 0dbb 6c54 a83c 60f8 273c e284 74bc
00000370: be24 123d a2d2 aabb 5343 3c3d c10f 19bd
00000380: 0036 f235 af26 7c3c 000d 0bbb db29 613c
00000390: 8167 093c feb4 e63c 99a8 893c f9d7 aebb
000003a0: f74e e63a de6b 4c3c 6828 ddbb 7655 423c
000003b0: f5a8 1bbc ad91 683c 305a f83c 64da aabc
000003c0: 2c83 43bd 2c8d b23c dadb e33c 798f 043d
000003d0: 29e2 84bc ce22 ac3c 98ae 7d3c a24e 353c
000003e0: 5243 f03c 2f16 01ba 83a7 f0bb 0d4f f9bc
000003f0: 34ca ef3b 5976 55bb 0d70 6c3c 55a9 953c
0.025369858 -0.022018164 -0.0044700713 -0.02804491 0.02320709 0.027903745 -0.05190242 -0.017727088
0.009511525 0.014809365 0.013391714 0.0003351583 -0.040224668 0.025359876 -0.029585926 0.035716165
-0.018688353 0.014965662 0.04113017 0.03407189 0.05135968 -0.0368863 0.0060951365 0.021446135
0.04859639 -0.045607984 0.050264444 -0.01898653 0.034470428 -0.029936844 -0.009593057 0.030420398
0.013080115 0.02847121 0.03614214 0.0064344415 0.018205203 0.03144517 -0.05149588 0.047969297
-0.049353052 0.002729054 0.03545642 0.022144651 -8.700561e-05 -0.038024664 0.026996825 0.04546697
-0.015712062 -0.004675334 -0.0014635047 -0.023735931 -0.007855929 -0.026915448 0.015707668 0.021795038
0.030566726 -0.001249454 0.032195944 -0.00478072 4.327771e-05 0.0004515653 0.03482913 0.018942466
-0.0005261641 0.01591797 -0.011795013 0.030580953 -0.0127457185 0.0061982465 0.029685667 0.012400925
-0.015823374 0.027391115 0.0064626597 0.008221297 0.0019099729 0.022060286 0.010416386 -0.008362466
-0.009060251 0.037752535 0.024044704 0.013943299 0.0067644245 0.034901008 0.031563934 0.031944174
0.020955354 0.030861748 -0.01968234 -0.05833703 -0.025613416 0.010251556 -0.0088239815 0.03785597
0.00052549865 0.008738478 0.003300775 -0.002976254 -0.003329841 -0.035044547 0.023804123 -0.04392522
0.021905903 0.027876835 -0.011662936 -0.053681087 -0.0055584507 0.036425017 0.019186113 -0.00299642
0.024758784 0.019078521 0.034777682 0.0027117652 -0.0070438017 0.014041653 0.025853133 -0.010644263
0.040521223 -0.0012230865 0.036342755 0.009152386 -0.0013973566 -0.047125462 0.020789068 -0.012523306
0.023622768 0.013509154 0.001799397 -0.009138104 -0.0017918528 0.008484212 -0.0012906762 0.008169303
-0.007151439 -0.009099936 0.015974307 -0.014332381 -0.026391681 -0.05726241 0.057257697 0.0040133507
-0.020810347 0.042583004 0.03942289 0.0017004273 0.019461298 0.0033568756 0.039790716 0.0027104747
-0.027311178 -0.012405013 0.028916098 -0.0070398957 0.014708436 0.013977827 0.0154234655 -0.00022279826
0.02292289 0.03976298 -0.01797663 -0.029509928 0.0038445336 0.047191408 0.0102006225 -0.009061052
0.0071015945 0.007892314 -0.013582735 -0.007733889 -0.028273368 0.029512191 0.037141092 0.0075031547
0.02184429 -0.0042998614 0.01224716 0.034323283 -0.0027241893 0.019126076 0.00608391 0.013544324
-0.014766168 -0.053038213 0.013087948 0.011961761 -0.035060722 0.01182078 -0.02567699 -0.020626701
-0.027048986 -0.009086892 -0.0017142269 0.012758796 0.015885465 0.010072437 0.009812473 -0.017269233
-0.0039514215 0.0054025375 0.0097505655 0.039110195 -0.0028409972 -0.00075922825 -0.012039818 0.023120243
0.02429752 0.018071411 0.018846553 -0.065427616 -0.048494954 0.025587782 0.0028956907 -0.020303737
-0.002166674 0.020548068 0.010252088 -0.01492426 0.03567957 -0.0052130977 0.045962643 -0.03736854
1.8046121e-06 0.015390082 -0.0021217465 0.013742889 0.008386494 0.028162476 0.016804026 -0.0053358045
0.0017571141 0.012476889 -0.0067492016 0.011861196 -0.009500732 0.014194888 0.030316442 -0.02085609
-0.047732517 0.021795832 0.027814794 0.03236339 -0.016221123 0.02101269 0.015483521 0.011066111
0.029328976 -0.0004924265 -0.0073441877 -0.030433202 0.0073178057 -0.0032571761 0.014431012 0.01826922

action_model._discrete_distribution.branches.1.bias f4 [3]
00000000: 6746 523c c1d5 123c dd38 aabc
0.012834168 0.008962096 -0.020779068

action_model._discrete_distribution.branches.2.weight f4 [2, 256]
00000000: cd47 7ebc aec0 ad3c 2942 0f3d eef4 3f3c
00000010: 231d 893a c4f4 3bbc 13ab dc3c dc36 65bb
00000020: e8a3 d63c 7b4f 9cbc b89c 70bc 2fea 9a3d
00000030: 9016 94bb ac09 a4b8 4642 663c 900f 86bc
00000040: e4de e3bc aded b03c d892 cdbb a43b 98bb
00000050: 0805 02bc 18cb f33b 954e 99bb de37 2ebd
00000060: d791 2abd 59dc b63c 920e 6dbc 9572 0fbc
00000070: 5be3 063d 44cb e23b 191a 563d ebc6 cb3b
00000080: b8ca 3b3c e15f b43b 1f37 bf3b e2d6 67bb
00000090: aecd 513b d972 833c 2281 433d 6c40 7d3c
000000a0: 9884 6d3a 2971 d2bb 89ed 123b 7dbe 793d
000000b0: 744e 91bc 00da 80bc ca19 3b3c e3ff dabc
000000c0: 6049 a4bc 3712 2e3d 6483 533c 1a02 96bc
000000d0: 7978 17b9 85a2 873c abfe 0a3b 49bb fcbc
000000e0: 9c9a fe3b 0b8d 6d3d 8ef8 843b 5416 06bd
000000f0: 168f 14bc 2738 0d3d f18c f53b 5f30 e63b
00000100: 0380 45bd 621f 47bc c26e 163d ebc8 19bc
00000110: 98dd 8e3c 6949 1a3c 98b0 e43b 8f40 303d
00000120: 6634 073d 795b dfbb b66e 62bc 4a89 bdbc
00000130: cac8 6e3d 6975 573c 1195 513c 546a af3b
00000140: c182 153d 5ccb 1ebd 010d 363c 7874 093c
00000150: 1e89 4c3d 924d 593d ebbf aa3c e557 84bb
00000160: fc34 c13c 8f13 45bc 3d57 9fbb 0e78 8e3c
00000170: b10d 99ba 2dbe 7fbc dad3 ef3c 6f96 443c
00000180: 687b a63c 1949 b23c bace 343d 804e 11bd
00000190: 4311 d23c ee04 1e3d 6a2e 3bbd ea79 6b3b
000001a0: 69dc 00bd 9ef8 f1bb 0846 bebc ffb0 633c
000001b0: 781e 38bd 9bd6 83bc 1dd5 c5bc 0465 6bbc
000001c0: 4d81 81bc d70d a83c 9c08 39bd c2e9 27bc
000001d0: 6dc6 60bb 54cc 203c b439 01bd 879d f83c
000001e0: e04e 0c3b b59f 013d 0abf b6bb 156f a23c
000001f0: 85e0 103d 464d 483d 3209 d93c 84a9 c3bc
00000200: 91cd ed3b e7b0 97bb c36d 933c c850 103b
00000210: a9f3 0a3d abe5 ee3b d339 afbc 28ac 16bd
00000220: c743 31bc 1a3e ad3c 47a3 29bc e516 cdbc
00000230: 96b4 bbbb 4b0c 483d 954c 53bc ab09 5ebc
00000240: c587 0e3c b40e 163d 1616 07bb dc3f cd3c
00000250: fb6c b93b f626 f33c 0a26 06bd ef4c 1e3c
00000260: 96bd de3c fe2e 6dbc 584e 86bc 7150 723c
00000270: 39f8 4a3d 42e7 7539 39c7 bc3b 2170 cbbb
00000280: 8152 d33c 0beb 723b 4d86 6b3d 4401 923c
00000290: 87d7 40bd 697e a73c 44f8 0e3c ac1b bb3b
000002a0: fe87 053c 60ea 0d3d fe54 e6bc 4425 87bc
000002b0: fe17 e63b fb55 39bc d8ee 63bb 52ac c93b
000002c0: 6b69 5fbc cd63 19bd 1d3c fabc 6c80 f8bc
000002d0: 960a 0abb 340e d13c 542b 1abd eeb7 9bbc
000002e0: 04ca 323d 2254 b1bb a765 233d 0f71 0a3d
000002f0: 7c16 373d 009a 2fbd 1e29 503c 854c 183d
00000300: 2382 09bb dfe6 19bd 3569 8abc 0233 7b3c
00000310: 7749 18bd e689 e5bc 7693 9c3c 3410 273b
00000320: 1721 743c 86c8 84bc 390d cf3b 1656 70bc
00000330: e98c cfbb 60e5 dc3c e2eb 3f3d 58c6 df3b
00000340: ef11 1bbc d346 6d3b e5ad c63a a346 4c3c
00000350: c9b8 033d c661 953c d68e 323d b87a e23b
00000360: 1190 a7bc 2962 50bd 3ea6 0c3c 0cfd f3bb
00000370: 1abf 933b 1a4e 1ebc 8e7e 043d 729f 84bd
00000380: d489 103d 18f5 f33c b1fe aabb 9a9c 5d3c
00000390: 35a2 e43c 1174 a03c 3885 3c3c 0a1e 663b
000003a0: 0688 d5bc a00a b43b b86c 413c 3353 3e3d
000003b0: 2436 bf3c c9af c53c d8f2 10ba 7c24 2c3d
000003c0: 559f 063c a4f2 43bd d5e3 b83c bf7e d5bc
000003d0: 3d89 5d3c 6853 0dbb 436b d53b e6d9 443c
000003e0: 0f50 f1bb 43f7 b6bc 9102 9e3c 7a3b 0b3b
000003f0: c341 e33b 1c81 a83b d4b8 153d 5a87 90bc
-0.015520048 0.02121004 0.034975205 0.011716111 0.0010460954 -0.011471931 0.026937043 -0.0034975326
0.026201203 -0.019080868 -0.014685802 0.07564198 -0.004519291 -7.821931e-05 0.014053887 -0.016364843
-0.027816243 0.021597708 -0.0062736087 -0.0046457816 -0.00793577 0.007439982 -0.004678557 -0.042533748
-0.04164299 0.022321867 -0.014468806 -0.008755346 0.032931667 0.006921204 0.052270982 0.006218781
0.011461906 0.0055045937 0.0058354284 -0.0035375883 0.0032013464 0.016045975 0.047730573 0.015457254
0.00090605905 -0.006422181 0.0022419414 0.06097268 -0.017737605 -0.01572895 0.011419723 -0.026733344
-0.02005452 0.04249784 0.012909744 -0.018311549 -0.00014445362 0.016556988 0.0021208923 -0.030851023
0.0077698957 0.057995837 0.0040579503 -0.032736138 -0.0090673175 0.03447738 0.007493608 0.0070248093
-0.048217785 -0.012153478 0.03672672 -0.0093862815 0.017439649 0.009416916 0.0069790594 0.043030318
0.033008955 -0.0068163243 -0.013820341 -0.023136754 0.058296956 0.013150551 0.012791888 0.0053532515
0.03650165 -0.038768157 0.011111499 0.008389585 0.049935453 0.053052492 0.020843467 -0.004038798
0.023584835 -0.012028589 -0.0048626945 0.01739123 -0.0011677054 -0.015609306 0.029275823 0.011998757
0.020322517 0.021763371 0.044142462 -0.035475254 0.025642997 0.03857892 -0.04569856 0.003593082
-0.0314602 -0.007384374 -0.023226753 0.01389718 -0.044950932 -0.016093543 -0.024149472 -0.014367346
-0.015808726 0.020514412 -0.045174226 -0.010248603 -0.0034297958 0.009814341 -0.03154917 0.030348552
0.0021409318 0.03164645 -0.005576973 0.019828359 0.03537037 0.04890182 0.026493642 -0.023884542
0.0072571714 -0.0046292427 0.017996674 0.0022020806 0.03392378 0.007290562 -0.021389877 -0.036785275
-0.010819382 0.021147776 -0.01035387 -0.025035331 -0.0057283146 0.04883985 -0.012896677 -0.01355211
0.008699362 0.036635116 -0.002061253 0.025054865 0.0056587434 0.029681664 -0.03275112 0.009661897
0.027190011 -0.014476536 -0.01639478 0.014789687 0.04955313 0.00023451171 0.005761054 -0.006208435
0.025796177 0.0037066366 0.057501126 0.01782287 -0.047080543 0.02044602 0.008726183 0.005710086
0.008150099 0.034647346 -0.0281167 -0.016497262 0.007021903 -0.011312003 -0.0034779813 0.0061545754
-0.013635973 -0.037448693 -0.030546242 -0.030334674 -0.0021063439 0.025519468 -0.037638977 -0.019008603
0.04364969 -0.0054116407 0.039891865 0.033799227 0.044699177 -0.042871475 0.012705116 0.03718235
-0.0020982109 -0.03757369 -0.01689587 0.015331985 -0.037179437 -0.028019857 0.019113284 0.0025491836
0.014900467 -0.016208898 0.006318715 -0.014668962 -0.0063339365 0.026964843 0.046855815 0.0068290643
-0.009464725 0.0036205545 0.0015158026 0.012468013 0.032158647 0.018235099 0.04359325 0.006911602
-0.020454438 -0.050874863 0.008584557 -0.007445937 0.004508865 -0.009662176 0.032347254 -0.06475724
0.035287693 0.029779956 -0.00521835 0.013526106 0.027909378 0.019586595 0.011506371 0.003511312
-0.026065838 0.0054944307 0.011805706 0.046466064 0.023341246 0.024131672 -0.00055293506 0.04202698
0.008216699 -0.047838822 0.022569576 -0.026061414 0.01352149 -0.0021564607 0.0065130307 0.012014842
-0.00736428 -0.0223347 0.019288333 0.0021245168 0.0069353296 0.005142344 0.03655322 -0.017642666

action_model._discrete_distribution.branches.2.bias f4 [2]
00000000: 8c52 973c 8a52 97bc
0.018471979 -0.018471975
