results/MoveToButton_3/ButtonPress/ButtonPress-74240.onnx (onnx, 352736 bytes, 13 tensors)

discrete_act_size_vector f4 [1, 4]
3.0 3.0 2.0 2.0
00000000: 0000 4040 0000 4040 0000 0040 0000 0040

network_body._body_endoder.seq_layers.0.weight f4 [256, 65]
0.12437265 0.07259671 -0.109337114 0.18135571 0.17687604 0.10725216 0.3771278 -0.1995298
-0.055084616 0.35318708 0.03680906 0.103714585 -0.198151 -0.24086857 -0.0477837 0.03333585
-0.14196113 0.079774685 -0.141612 0.06404808 -0.01746382 0.062336795 -0.16679934 -0.16864291
-0.05891218 -0.053709038 -0.051740024 0.14203079 0.05135472 -0.09499374 0.12644805 0.17594725
0.037011232 0.13891087 -0.037722293 0.16152412 0.1992894 -0.017060243 0.17417832 -0.007825379
0.2230501 0.150797 -0.07681275 -0.017647097 0.06581164 -0.12931512 0.05484562 0.017185915
0.007618363 0.10013574 0.17277546 0.052296944 -0.0094828755 0.010577672 0.13215674 0.054456037
0.10226725 0.034698807 -0.11201797 -0.0824423 0.007993431 0.042682983 0.06848265 -0.13289204
-0.09484483 -0.18179888 0.16879715 -0.18228321 0.114511125 -0.24123497 -0.013386373 -0.105048046
0.19579498 0.053094774 -0.0030490542 0.063181125 0.0037998226 0.061362244 0.109829016 -0.10414545
0.11944894 0.08555386 -0.111452155 0.03988444 0.063637495 0.018232824 -0.14739095 -0.18897967
-0.08946696 -0.096312866 0.025574457 -0.22664908 0.124638 -0.13429034 0.17535657 0.104960114
0.11551508 0.20052853 0.066103615 0.013471569 0.05455251 0.064087115 -0.15858325 0.094476424
-0.15158558 0.043652687 -0.10960615 0.088239335 0.012544381 -0.0755656 -0.14553031 -0.05276568
-0.005428636 0.18559794 0.08415901 -0.01908435 0.030590596 -0.09593676 0.057501704 -0.008637351
-0.18331665 0.101237014 -0.07025941 -0.2479598 0.010828036 -0.017211122 -0.04033142 -0.07004126
0.016444251 -0.047055192 0.10815707 -0.24468918 -0.25650015 0.000251993 -0.0032174098 0.008107442
-0.053156406 0.14883375 -0.060542837 -0.073010705 -0.048704833 0.09572212 0.08920048 0.070462346
-0.22939211 -0.10517692 0.1985971 0.07592865 0.14883691 -0.13867916 -0.14212511 0.051650703
-0.040449515 0.13768807 0.036353134 -0.113174394 0.26472828 0.120347045 0.15867387 -0.029000644
-0.10519142 0.088557325 0.106652275 -0.033917155 0.12184098 -0.05526409 0.39223975 -0.033231184
0.04942212 -0.16362236 -0.21365312 -0.07936945 0.13104892 0.13146658 0.023296189 -0.16376847
0.105314024 0.12025999 0.12996899 0.097404234 -0.10126726 0.0007181977 0.076483645 0.054430325
0.13794947 0.16713424 0.16708055 -0.013734648 0.03712873 -0.018525358 0.07421641 -0.0922399
0.029081266 -0.04139746 -0.20861474 0.08121294 -0.30127826 -0.16520494 -0.21441017 0.05245919
0.15689822 -0.13943185 -0.11223311 -0.031667598 0.09860842 0.124035515 0.00078735454 0.02641983
-0.12431526 -0.13363211 0.028841244 0.10970074 0.09288701 0.1735898 -0.017477121 0.004952334
0.037960947 -0.14803189 0.31524464 0.0885981 -0.09214671 -0.08911908 -0.24387044 -0.06957118
-0.13492714 0.0950388 -0.06358424 0.012132981 -0.0814399 0.20656216 -0.024036638 -0.1657561
0.051883657 0.11659679 -0.079268545 0.01947409 -0.19419031 -0.048880592 -0.15130337 -0.2258015
0.092161454 0.08077492 -0.006908594 -0.016789014 -0.12189854 -0.18572661 -0.014691182 -0.09669155
-0.06743607 0.018700128 0.057885133 -0.017809274 -0.06420707 0.13087477 0.046323758 -0.036150713
00000000: 17b7 fe3d 95ad 943d 23ec dfbd 50b5 393e
00000010: fe1e 353e 05a7 db3d e516 c13e 8a51 4cbe
00000020: 68a0 61bd f0d4 b43e 19c5 163d 5068 d43d
00000030: 19e8 4abe 40a6 76be d7b8 43bd 2c8b 083d
00000040: 425e 11be e960 a33d bc02 11be a42b 833d
00000050: 4910 8fbc de54 7f3d 72cd 2abe bab0 2cbe
00000060: e64d 71bd 02fe 5bbd 59ed 53bd 8570 113e
00000070: 5459 523d 148c c2bd 997b 013e 842b 343e
00000080: 1799 173d a73e 0e3e b182 1abd 9466 253e
00000090: 8512 4c3e ecc1 8bbc cd5b 323e 0536 00bc
000000a0: 3f67 643e 876a 1a3e 0150 9dbd a590 90bc
000000b0: 41c8 863d 2f6b 04be cda5 603d 7ac9 8c3c
000000c0: 76a3 f93b f813 cd3d 0dec 303e 5235 563d
000000d0: 105e 1bbc f94d 2d3c 1954 073e 4b0d 5f3d
000000e0: 7e71 d13d 5620 0e3d ad69 e5bd 82d7 a8bd
000000f0: e1f6 023c 5ad4 2e3d a240 8c3d da14 08be
00000100: 023e c2bd 7c29 3abe 29d9 2c3e 73a8 3abe
00000110: cf84 ea3d 4d06 77be 8552 5bbc 6e23 d7bd
00000120: 7b7e 483e e879 593d a4d2 47bb 1b65 813d
00000130: 7206 793b fa56 7b3d 09ee e03d 364a d5bd
00000140: a5a1 f43d dd36 af3d 0741 e4bd de5d 233d
00000150: 6054 823d 015d 953c a7ed 16be e383 41be
00000160: 743a b7bd ae3f c5bd 8681 d13c b216 68be
00000170: 3542 ff3d 6883 09be ac90 333e 54f5 d63d
00000180: 2c93 ec3d 5a57 4d3e 5561 873d dbb7 5c3c
00000190: 7472 5f3d 1b40 833d a663 22be db7c c13d
000001a0: 4039 1bbe 29cd 323d 3079 e0bd d3b6 b43d
000001b0: f386 4d3c 23c2 9abd e605 15be d320 58bd
000001c0: b3e2 b1bb 630d 3e3e 8f5b ac3d c856 9cbc
000001d0: 2199 fa3c 7e7a c4bd e886 6b3d ad83 0dbc
000001e0: 5cb7 3bbe 5a55 cf3d 2ae4 8fbd 2ce9 7dbe
000001f0: 1368 313c 57fe 8cbc 8f32 25bd cb71 8fbd
00000200: 18b6 863c f2bc 40bd 7481 dd3d cd8f 7abe
00000210: fd53 83be ee1d 8439 2edb 52bb 14d5 043c
00000220: 88ba 59bd e067 183e c4fb 77bd a386 95bd
00000230: b87e 47bd f509 c43d beae b63d 904e 903d
00000240: c4e5 6abe ff66 d7bd 0a5d 4b3e 7b80 9b3d
00000250: b468 183e e901 0ebe 3f89 11be b08f 533d
00000260: 64ae 25bd 1afe 0c3e 06e7 143d fac7 e7bd
00000270: 778a 873e 8378 f63d 677b 223e c292 edbc
00000280: 996e d7bd 8b5d b53d 826c da3d b7ec 0abd
00000290: c487 f93d 995c 62bd a6d3 c83e 6c1d 08bd
000002a0: d96e 4a3d 9f8c 27be e2c7 5abe 738c a2bd
000002b0: b031 063e 2d9f 063e a6d7 be3c ecb2 27be
000002c0: e1ae d73d df4a f63d 9716 053e df7b c73d
000002d0: 3665 cfbd 6f45 3c3a 75a3 9c3d 55f2 5e3d
000002e0: a042 0d3e 3d25 2b3e 2a17 2b3e 4a07 61bc
000002f0: 4c14 183d 7ec2 97bc c6fe 973d 46e8 bcbd
00000300: d63b ee3c 6290 29bd 1a9f 55be f852 a63d
00000310: 2541 9abe 7c2b 29be 578e 5bbe 73df 563d
00000320: eda9 203e 39c7 0ebe 79da e5bd e2b5 01bd
00000330: 36f3 c93d 5506 fe3d 7866 4e3a 666e d83c
00000340: 0099 febd dbd6 08be 7944 ec3c c8aa e03d
00000350: 8b3b be3d 86c1 313e 2e2c 8fbc 3047 a23b
00000360: f07c 1b3d ac95 17be bf67 a13e ec72 b53d
00000370: 6ab7 bcbd 1084 b6bd 2cb9 79be 567b 8ebd
00000380: 572a 0abe b4a3 c23d 7438 82bd 69c9 463c
00000390: f6c9 a6bd 0885 533e 7ce8 c4bc f8bb 29be
000003a0: f583 543d 4cca ee3d 8c57 a2bd 2088 9f3c
000003b0: d3d9 46be 0437 48bd 45ef 1abe 8238 67be
000003c0: 25bf bc3d 526d a53d 7d61 e2bb 1d89 89bc
000003d0: f1a5 f9bd 1e2f 3ebe 49b3 70bc 3806 c6bd
000003e0: ec1b 8abd 0331 993c f618 6d3d c1e4 91bc
000003f0: ff7e 83bd 0904 063e fbbd 3d3d c512 14bd

network_body._body_endoder.seq_layers.0.bias f4 [256]
0.002520656 -0.015844133 -0.00850611 -0.016476803 0.007448214 -0.000639621 0.0102609955 -0.010593817
0.008846465 0.00082133495 0.017125068 0.0033253026 -0.003654852 0.011959152 0.0067072124 0.0036606088
-0.0147922095 -0.011177993 0.01226493 0.002100334 0.0048446553 0.019162951 0.00038267102 0.027489675
0.001531824 -0.0051943944 0.012751273 -0.00069015846 -0.012406011 0.02597555 0.009045398 0.0043114577
-0.015015191 0.013021797 -0.006335322 -0.016456954 -0.0028180017 -0.008499872 0.0037554612 0.0023532007
-0.004262674 0.001790731 0.029711189 0.0013343652 0.008005636 0.00083582336 0.013372724 0.0015799575
0.012518688 0.008668344 -0.003971875 -0.0082449755 -0.0005277802 0.022080528 0.0012773422 0.010296786
0.0015298034 0.0068139574 0.015534247 0.009912709 0.016430482 0.0074997656 0.0036716124 -0.005188029
-0.00031789925 0.027750282 0.010015381 0.003815717 -0.008647982 0.00035855148 0.015462786 0.024775907
-0.011351368 0.023068454 -0.0044443654 0.012670846 -0.009416014 0.010259121 0.023810016 -0.007059752
-0.0021065872 0.031545438 0.006146727 0.007163911 0.009556113 -0.0104784435 -0.0070448397 -0.01641301
0.0032707574 0.018466292 -0.0031511732 -0.0046134354 -0.012758466 0.014814684 0.020561062 -0.009890721
-0.009634299 0.023999132 -0.010629052 -0.013171827 0.0005713538 0.015516791 0.016003752 -8.694982e-05
-0.01701884 -0.00771506 0.0065129683 0.008006772 0.020399315 -0.007757556 0.0188705 -0.013640548
-0.0013794521 0.0089105265 -0.0010336455 -0.0065272837 -0.013862459 -0.004375483 0.015738688 0.004907398
-0.0147460615 -0.013111803 -0.009170763 -0.00538071 0.0058292453 0.0057270806 0.0010922294 -0.015606125
0.010994537 -0.011675733 0.01963742 0.0041812784 0.00042605176 0.020701949 -0.019265154 0.0010261622
0.0023664979 0.012304691 -0.017519502 -0.01589476 -0.011527038 0.019613639 -0.002615456 0.0032135115
0.008089812 0.0053537115 -0.009943258 0.00050500955 0.022949778 0.008706795 -0.0034597898 -0.009521373
0.020117767 -0.004111745 -0.0019885136 0.02579255 -0.0039636996 0.008387626 0.02254802 0.017358895
-0.020451022 -0.01879169 0.0054579256 0.013879209 -0.011844164 0.013706348 -0.031406265 -0.00059994333
0.019790433 -0.002595837 0.0072087073 -0.007311245 0.009828992 0.019011678 0.0051442133 0.018204555
-0.009331452 0.02088569 -0.00065885624 0.0068097194 0.017553635 -0.006790099 -0.0002209799 0.01731487
0.004463793 0.009715198 0.02282638 0.021298133 -0.0032769837 -0.003877941 0.0043130144 0.00653097
0.021777857 0.0073834793 0.011360425 -0.0026340561 -0.0037341786 0.023244215 0.03904842 -0.010295887
0.0072307033 0.0034981088 0.02252484 -0.002795182 0.004907486 0.013131337 -0.01964572 -0.012653364
-0.003810285 -0.0077424794 -0.009913962 -0.003127592 -0.009024742 0.009401309 -0.00086132553 0.0050471253
0.011406112 0.0015381791 0.013116833 0.019154238 0.004897146 0.0047914083 0.00079379015 0.008178536
-0.051126815 0.0146284625 0.016861962 -0.004466492 -0.013089724 0.026796455 0.021574883 0.009784427
0.010270758 0.017434424 0.011977461 0.014611006 -0.0052366895 -0.016460046 0.0038796405 -0.013254923
0.00420841 0.01853802 -0.017833225 0.0009458796 -0.022835338 -0.0014292491 0.012371064 -0.0071375966
-4.029701e-05 0.02751144 0.009780416 0.008370759 -0.008656001 -0.0075709946 0.031829663 -0.011215787
00000000: 9731 253b 8ecb 81bc 365d 0bbc 5cfa 86bc
00000010: 2610 f43b 3dac 27ba bc1d 283c b091 2dbc
00000020: c3f0 103c db4e 573a df49 8c3c 52ed 593b
00000030: 3e86 6fbb 52f0 433c 2dc8 db3b d3e6 6f3b
00000040: 065b 72bc e723 37bc d8f2 483c c2a5 093b
00000050: eabf 9e3b 9ffb 9c3c 3ca1 c839 0732 e13c
00000060: 7cc7 c83a bd35 aabb b7ea 503c c0eb 34ba
00000070: 9542 4bbc adca d43c 2633 143c 2147 8d3b
00000080: 4702 76bc 6059 553c 8898 cfbb bcd0 86bc
00000090: 39ae 38bb 0c43 0bbc 2f1e 763b 2838 1a3b
000000a0: e7ad 8bbb f6b6 ea3a e164 f33c dee5 ae3a
000000b0: 122a 033c 281b 5b3a 4519 5b3c 9416 cf3a
000000c0: 2f1b 4d3c ab05 0e3c 8126 82bb ef15 07bc
000000d0: bb5a 0aba 39e2 b43c 7e6c a73a dab3 283c
000000e0: af83 c83a 9e47 df3b 5b83 7e3c ea68 223c
000000f0: 3899 863c 98c0 f53b 6f9f 703b 5700 aabb
00000100: b7ab a6b9 8f54 e33c 8d17 243c 1c11 7a3b
00000110: 44b0 0dbc f7fb bb39 a057 7d3c d8f6 ca3c
00000120: 17fb 39bc 0efa bc3c 0aa2 91bb 6199 4f3c
00000130: a045 1abc df15 283c 390d c33c 7e55 e7bb
00000140: ab0e 0abb ca35 013d 7c6a c93b 3ebf ea3b
00000150: 3e91 1c3c c7ad 2bbc 66d8 e6bb 9474 86bc
00000160: 345a 563b 9f46 973c ea83 4ebb 4d2c 97bb
00000170: e308 51bc 4ab9 723c ac6f a83c b10c 22bc
00000180: 2ed9 1dbc d499 c43c 7a25 2ebc a6ce 57bc
00000190: e8c6 153a 233a 7e3c 4d1a 833c d458 b6b8
000001a0: 186b 8bbc 9dce fcbb bd6a d53b d62e 033c
000001b0: 771c a73c 1933 febb 4f96 9a3c 9b7c 5fbc
000001c0: bbce b4ba 75fd 113c 637b 87ba d3e2 d5bb
000001d0: 5e1f 63bc 3660 8fbb 6cee 803c 3dce a03b
000001e0: 7799 71bc e3d2 56bc f840 16bc ab50 b0bb
000001f0: 4103 bf3b 3caa bb3b 2329 8f3a d5b0 7fbc
00000200: 6e22 343c 934b 3fbc a8de a03c 1b03 893b
00000210: b35f df39 2297 a93c f5d1 9dbc 4a80 863a
00000220: 3f17 1b3b 9d99 493c 0f85 8fbc ba35 82bc
00000230: e7db 3cbc c8ac a03c 1268 2bbb c799 523b
00000240: 218b 043c 306e af3b 0ce9 22bc 9e62 043a
00000250: 2c01 bc3c f2a6 0e3c a4bd 62bb 88ff 1bbc
00000260: 04ce a43c d1bb 86bb b951 02bb e64a d33c
00000270: ece1 81bb 416c 093c a0b6 b83c 3e34 8e3c
00000280: e788 a7bc 08f1 99bc 66d8 b23b 9f65 633c
00000290: 060e 42bc 9790 603c dba3 00bd 8445 1dba
000002a0: 8c1f a23c eb1e 2abb 0537 ec3b 2b93 efbb
000002b0: c809 213c 61be 9b3c ca90 a83b b821 953c
000002c0: f2e2 18bc 7718 ab3c 18b7 2cba 1124 df3b
000002d0: a4cc 8f3c 7b7f debb d7b6 67b9 ead7 8d3c
000002e0: 0245 923b 7e2c 1f3c 63fe ba3c 6c79 ae3c
000002f0: aac2 56bb 0e25 7ebb 3054 8d3b bf01 d63b
00000300: 7a67 b23c 1df1 f13b 1321 3a3c 21a0 2cbb
00000310: 1fb9 74bb a76a be3c 3cf1 1f3d 14b0 28bc
00000320: 89ef ec3b 8740 653b 0386 b83c 5f2f 37bb
00000330: face a03b d224 573c 10f0 a0bc 0e50 4fbc
00000340: f9b5 79bb a0b4 fdbb 2c6e 22bc 49f8 4cbb
00000350: 83dc 13bc f307 1a3c 94ca 61ba 5b62 a53b
00000360: b4e0 3a3c ba9c c93a fce7 563c 59e9 9c3c
00000370: 3d78 a03b 3f01 9d3b 5b16 503a 44ff 053c
00000380: 5a6a 51bd 38ac 6f3c 1922 8a3c a75b 92bb
00000390: 4876 56bc 3d84 db3c cfbd b03c dc4e 203c
000003a0: ae46 283c a3d2 8e3c 1d3d 443c 0063 6f3c
000003b0: 8998 abbb 38d7 86bc 9141 7e3b 2d2b 59bc
000003c0: b4e6 893b 0cdd 973c fc16 92bc e8f4 773a
000003d0: 2d11 bbbc a455 bbba 01b0 4a3c 80e2 e9bb
000003e0: 9604 29b8 ac5f e13c 0a3e 203c 8225 093c
000003f0: e6d1 0dbc 1b16 f8bb d25f 023d 6cc2 37bc

network_body._body_endoder.seq_layers.2.weight f4 [256, 256]
0.1057361 -0.003006696 -0.025373837 0.049178615 -0.05989275 -0.04333572 -0.0767841 -0.06509829
-0.13025369 -0.021922918 0.014648434 0.060254525 0.030529708 -0.14961629 -0.03165386 0.020910816
-0.13641685 -0.032722022 0.0043940344 -0.042249504 -0.032129247 -0.0874072 -0.014433028 -0.013385259
-0.076307386 0.1045979 0.008965263 0.101302356 0.17832552 -0.12986659 -0.13439374 -0.023349898
0.056957234 -0.05096477 0.09824898 0.1304999 -0.01078789 -0.07015075 0.052102655 0.016805526
-0.017063024 -0.024199227 -0.032879103 0.029658338 -0.14969243 0.1036091 -0.08107859 0.07317075
-0.0066095917 -0.017548144 0.07740463 -0.06940296 0.041548345 0.0040871166 -0.016383164 -0.070510805
-0.05071809 -0.02391879 0.012758887 -0.10281878 -0.054349076 -0.019584747 -0.022342445 0.11855357
-0.07618505 -0.16344187 -0.05768768 0.03028741 -0.06937015 0.22675781 -0.1027908 -0.09125929
-0.009216358 -0.07078889 0.0021589757 -0.016725164 0.012495889 -0.00043824874 0.010262813 -0.16049646
0.042224098 -0.008842892 0.10678027 0.1358759 -0.052933954 0.073847614 0.08077672 0.031723566
-0.08152884 0.0083356 -0.064908125 0.0074716546 0.039798558 0.038893297 0.05572419 -0.059745956
-0.07005035 -0.051233478 0.09532521 0.06902017 -0.017621612 -0.049911737 -0.055093218 -0.083968356
0.048064772 -0.00013532338 0.017688487 -0.01099758 -0.010151552 -0.108475536 0.04951994 -0.03960227
0.0024086728 0.041835207 0.049262024 0.08780523 -0.016732872 0.06044601 0.020946637 0.10765187
0.054211266 0.07189247 0.092203364 0.008238836 0.13775265 0.039317563 -0.03128275 0.0053874725
0.034307353 0.044435754 0.023917824 -0.02481803 0.014036672 0.045167673 0.028486054 0.104278445
0.09085497 -0.085793026 0.025849445 0.095975354 -0.020105228 0.089613914 0.020661388 0.035179447
-0.027912999 -0.014050327 -0.06554645 -0.007217451 0.05275665 -0.002230218 -0.03241474 -0.0031948087
-0.059979554 0.040266577 -0.10945593 -0.09834218 0.05129982 -0.08746159 0.018798927 -0.03180277
-0.04371039 -0.040575534 -0.080313765 -0.0016973233 0.04975229 0.12240506 -0.034756243 -0.030869436
-0.013346834 0.048741467 0.0032187875 -0.052268714 0.04473634 -0.10259581 -0.0054227114 -0.009782841
-0.11289703 0.06299365 0.0024647117 -0.039229926 -0.014960658 0.05621986 0.026740596 0.034436148
-0.108955294 0.010318334 0.13068108 -0.03588059 -0.011763174 -0.051890757 -0.00032482616 -0.045725867
-0.00042169075 0.15777197 -0.06591558 0.16016127 0.03165763 0.1229952 -0.067442715 0.12491292
-0.048301138 0.027374126 0.11572609 0.14146827 -0.047711212 -0.015942695 0.023394626 -0.049246818
-0.023454461 -0.13570619 0.073550835 0.06433701 -0.042154532 0.003685669 -0.019318206 -0.09021002
0.12874302 0.00059971027 -0.014281734 -0.029394452 -0.02911925 -0.043474182 -0.0093114935 0.13616145
0.0941755 -8.308183e-05 0.07908031 0.07405215 -0.0344583 0.04950363 -0.017651409 0.011499862
0.07570241 0.06610859 0.10330222 0.03277895 -0.0648296 -0.01238963 -0.0006945754 0.034601055
0.010437077 0.07402546 0.098520495 0.10384935 -0.0045437664 0.0052573755 -0.071839936 0.042485166
-0.06838165 0.08425781 0.0010350583 0.11226695 -0.048184283 0.077638194 -0.10684185 0.08483005
00000000: 2b8c d83d fd0b 45bb cbdc cfbc 846f 493d
00000010: 1a52 75bd cc80 31bd fb40 9dbd 4152 85bd
00000020: 3961 05be b197 b3bc fcff 6f3c 73cd 763d
00000030: 7019 fa3c 0335 19be 7aa7 01bd 294d ab3c
00000040: dcb0 0bbe 8707 06bd d5fb 8f3b d10d 2dbd
00000050: f599 03bd 8c02 b3bd 8278 6cbc d84d 5bbc
00000060: 0c47 9cbd 6c37 d63d 0ae3 123c 9c77 cf3d
00000070: f79a 363e bffb 04be 839e 09be 4948 bfbc
00000080: fd4b 693d 6fc0 50bd c336 c93d c4a1 053e
00000090: b1bf 30bc 32ab 8fbd 9869 553d beab 893c
000000a0: c1c7 8bbc 753d c6bc 3dac 06bd 0bf6 f23c
000000b0: f948 19be 0231 d43d 880c a6bd 8cda 953d
000000c0: 4695 d8bb 20c1 8fbc 5286 9e3d 2423 8ebd
000000d0: 992e 2a3d 38ed 853b fc35 86bc f867 90bd
000000e0: c6bd 4fbd 57f1 c3bc a70a 513c a792 d2bd
000000f0: 239d 5ebd 3170 a0bc 8107 b7bc 37cc f23d
00000100: e806 9cbd 4e5d 27be eb49 6cbd 4d1d f83c
00000110: f011 8ebd 3333 683e fc83 d2bd 27e6 babd
00000120: 3500 17bc c4f9 90bd 9a7d 0d3b 3603 89bc
00000130: 8fbb 4c3c c0c4 e5b9 5c25 283c 2f59 24be
00000140: 2df3 2c3d c7e1 10bc 9daf da3d 0d23 0b3e
00000150: 46d1 58bd 6b3d 973d 446e a53d 92f0 013d
00000160: 98f8 a6bd 0a92 083c 8dee 84bd c8d4 f43b
00000170: d003 233d 944e 1f3d 0c3f 643d 2db8 74bd
00000180: 8f76 8fbd 32da 51bd dd39 c33d 725a 8d3d
00000190: 335b 90bc 4070 4cbd 6da9 61bd 9af7 abbd
000001a0: 91df 443d 98e5 0db9 72e7 903c 322f 34bc
000001b0: b252 26bc 6c28 debd 6cd5 4a3d fd35 22bd
000001c0: d3da 1d3b 655b 2b3d fac6 493d 3ad3 b33d
000001d0: 6013 89bc 3c96 773d 4898 ab3c 9578 dc3d
000001e0: a20c 5e3d 5c3c 933d 1ed5 bc3d 2ffc 063c
000001f0: 080f 0d3e 740b 213d 5722 00bd 6589 b03b
00000200: de85 0c3d 4402 363d 50ef c33c 2e4f cbbc
00000210: 12fa 653c bd01 393d 965b e93c f08f d53d
00000220: 2c12 ba3d 41b4 afbd 37c2 d33c ba8e c43d
00000230: b8b3 a4bc 8087 b73d 1242 a93c 5318 103d
00000240: cda9 e4bc 5833 66bc 383d 86bd 5e80 ecbb
00000250: 5b17 583d d928 12bb 52c5 04bd ff5f 51bb
00000260: 1fad 75bd 91ee 243d 6e2a e0bd a067 c9bd
00000270: c31f 523d 101f b3bd 3500 9a3c 9f43 02bd
00000280: aa09 33bd 8832 26bd 8b7b a4bd b878 deba
00000290: 0fc9 4b3d 81af fa3d 905c 0ebd e6e1 fcbc
000002a0: aeac 5abc 22a5 473d 4bf2 523b b817 56bd
000002b0: 743d 373d c11d d2bd 00b1 b1bb 3648 20bc
000002c0: 8f36 e7bd d102 813d 0087 213b 8faf 20bd
000002d0: 8c1d 75bc cc46 663d 180f db3c eb0c 0d3d
000002e0: f423 dfbd 3b0e 293c 43d1 053e 87f7 12bd
000002f0: 54ba 40bc 678b 54bd 6e4d aab9 0c4b 3bbd
00000300: 6016 ddb9 fa8e 213e bffe 86bd 5101 243e
00000310: 6eab 013d e8e4 fb3d 681f 8abd 58d2 ff3d
00000320: 6ad7 45bd b43f e03c cd01 ed3d 0fdd 103e
00000330: d56c 43bd 419a 82bc 16a6 bf3c 08b7 49bd
00000340: 9223 c0bc 90f6 0abe d2a1 963d 1fc3 833d
00000350: 3baa 2cbd 448b 713b 3741 9ebc 08c0 b8bd
00000360: 36d5 033e e035 1d3a effd 69bc a2cc f0bc
00000370: 7e8b eebc fc11 32bd 3c8f 18bc e86d 0b3e
00000380: 16df c03d 383c aeb8 dcf4 a13d a7a8 973d
00000390: 2524 0dbd 51c4 4a3d b099 90bc eb69 3c3c
000003a0: dd09 9b3d f163 873d 1d90 d33d 3843 063d
000003b0: 62c5 84bd e0fd 4abc 2b14 36ba d6b9 0d3d
000003c0: 4600 2b3c a99a 973d 1dc5 c93d f8ae d43d
000003d0: e0e3 94bb 1046 ac3b d120 93bd ed04 2e3d
000003e0: ae0b 8cbd 5c8f ac3d cbaa 873a 37ec e53d
000003f0: e25c 45bd c600 9f3d e6cf dabd 61bb ad3d

network_body._body_endoder.seq_layers.2.bias f4 [256]
0.0030218582 -0.0055879196 -0.007992108 0.0026339178 0.0021358926 0.0026241748 0.013862524 0.004190887
0.0033141307 -0.005591758 -0.00044087193 0.0012092115 -0.007691794 0.0018279476 -0.006644159 0.0023604212
-0.006968137 -0.008287111 0.0014362107 -0.0016239103 0.006327206 0.011472309 0.008003681 0.014190231
-0.0042927964 0.0025150448 -0.011923061 -0.004859104 0.0033465486 0.0022192923 0.0016677204 0.008561134
0.0040885406 0.0058246967 0.0004485367 -0.00039547044 -0.0015253603 -0.008729348 -0.00554749 0.010772211
0.008569568 -0.010654016 0.008579262 0.015348817 -0.0067597847 -0.003706687 -0.0036311434 0.018721173
0.0054850513 -0.003944518 -0.009915927 -0.0017558236 -0.0029689197 -0.0018385132 -0.003235098 0.0023700148
0.010042733 0.003901104 -0.013137612 -0.01385931 -0.011457013 0.0015956279 -0.0016672318 -0.013660536
-0.01115818 -0.0019545732 0.00567918 -0.0057681827 0.008041759 -0.006195495 -0.010454243 -0.012818228
0.01565237 0.015551041 0.017550152 -0.00026361572 0.004875035 0.0022235012 -0.0046935338 -0.0029628507
0.021490974 0.014249402 -0.00025709294 -0.0052246572 -0.0013073543 -0.010917882 0.016914017 -0.006717005
-0.004970972 0.0060790433 -0.007820147 0.0041028894 0.012015819 0.003891664 0.0020611892 -0.004794444
-0.013415236 -0.0006879423 0.00717388 -0.011896757 0.0011685254 -0.0063597164 -0.0055226763 -0.015197941
0.004231344 0.0052507697 0.0008418243 0.013325344 -0.0033297907 -0.003854081 0.008975975 0.004843488
-0.0062077465 0.016131846 -0.012506368 8.830882e-05 0.0006609269 -0.0072635706 0.0077560293 -0.007712664
-0.004064844 0.001832414 -0.008029206 -0.00010939805 0.0111605665 -0.013721732 0.00998696 0.015220988
-0.007840218 0.00055015105 -0.0034304445 0.0014089418 0.003980614 -0.010249368 0.005810012 -0.0036052319
-0.008661122 -0.0004906162 -0.0077191335 0.008045072 -0.0036871291 -0.00024616142 0.0023225048 0.01610444
0.0077870926 0.009876277 -0.008675127 -0.0065431003 -0.0010768825 0.0026386892 -0.0032631194 0.0032690936
0.001288045 0.0023869758 -0.00080897356 0.01145642 -0.0019316897 -0.006046768 -0.0165156 -0.00041834914
-0.0012278928 1.1465087e-05 0.017025607 0.008012861 0.0029202022 0.0015382011 0.0077119614 0.015657783
-0.005566562 0.0020875114 -0.0016094471 0.009032717 -0.006473552 0.010839829 -0.011178149 0.017501988
-0.002851346 0.020578895 -0.0054753553 0.0034399182 0.021761335 0.0074282163 0.019775303 -0.00650027
-0.0037045197 0.0072507327 0.0057940236 0.0020172088 0.0069429264 0.0019235765 -0.0026658801 0.0028839465
-0.0057019135 -0.0059978296 -0.008418435 0.0047535785 0.007061983 0.007970684 0.014246249 -0.0067857816
-0.008602341 -0.003300402 -0.007589099 -0.006595993 -0.0030368548 0.0011380531 0.0023730663 -0.004290004
0.0034560263 0.016407026 0.01163008 -0.0007696589 0.0030594654 0.0114579005 -0.00014040616 -0.0025695486
-0.004177812 -0.0091625 -0.004597419 -0.0035306262 0.00987059 0.0030099738 0.0018653232 0.004622435
-0.009489062 -0.002015864 0.008531363 0.0037866458 -0.005648552 0.0021724687 0.0032527766 -0.012879849
0.009410744 0.0014406897 -0.01156159 -0.005666853 0.0011568984 0.0008146832 0.00092716195 -0.0028638437
0.017861515 -0.0017715219 0.0049452526 -0.0057887346 0.009845485 0.008934479 0.0014561468 -0.008865018
0.010475449 0.0072964523 0.011735403 0.0016605456 -0.00498763 0.0020419287 -0.005819709 0.001398629
00000000: 5e0a 463b de1a b7bb 55f1 02bc cf9d 2c3b
00000010: 55fa 0b3b 59fa 2b3b a41f 633c b553 893b
00000020: e331 593b 113b b7bb d424 e7b9 687e 9e3a
00000030: 720b fcbb be97 ef3a 3fb7 d9bb 4cb1 1a3b
00000040: f854 e4bb aac6 07bc 3c3f bc3a 63d9 d4ba
00000050: 7354 cf3b 5af6 3b3c df21 033c 257e 683c
00000060: 96aa 8cbb 73d3 243b f158 43bc 1e39 9fbb
00000070: c551 5b3b 8c71 113b 6997 da3a 0044 0c3c
00000080: 2af9 853b 19dd be3b 9429 eb39 2557 cfb9
00000090: 99ee c7ba 8a05 0fbc b8c7 b5bb ed7d 303c
000000a0: 6067 0c3c 2f8e 2ebc 0890 0c3c 9b79 7b3c
000000b0: 2f81 ddbb e3eb 72bb 7af8 6dbb 255d 993c
000000c0: f2bb b33b 0441 81bb 6a76 22bc aa23 e6ba
000000d0: 3592 42bb 44fa f0ba f003 54bb 4052 1b3b
000000e0: 468a 243c aaa9 7f3b 233f 57bc 2912 63bc
000000f0: 32b6 3bbc 6324 d13a 0487 daba 71d0 5fbc
00000100: cdd0 36bc 4c18 00bb 6a18 ba3b 0603 bdbb
00000110: 95c1 033c 9403 cbbb 4648 2bbc 8c03 52bc
00000120: 6639 803c cbc9 7e3c 56c5 8f3c e735 8ab9
00000130: c2be 9f3b 29b8 113b 37cc 99bb 632c 42bb
00000140: d70d b03c 5376 693c 6eca 86b9 9a33 abbb
00000150: 885b abba ebe0 32bc 448f 8a3c 521a dcbb
00000160: 89e3 a2bb b632 c73b 1320 00bc 8871 863b
00000170: ffdd 443c 4a0b 7f3b 0415 073b b61a 9dbb
00000180: 94cb 5bbc 0757 34ba de12 eb3b 9eea 42bc
00000190: 3529 993a 2b65 d0bb 91f7 b4bb c900 79bc
000001a0: 16a7 8a3b a60e ac3b dfad 5c3a 8b52 5a3c
000001b0: 9e38 5abb c094 7cbb f80f 133c 1fb6 9e3b
000001c0: 5a6a cbbb ef26 843c 82e7 4cbc 7032 b938
000001d0: 0e42 2d3a 3f03 eebb 4a26 fe3b 84ba fcbb
000001e0: 6232 85bb 9c2d f03a ee8c 03bc a26c e5b8
000001f0: cfda 363c 1ed1 60bc 59a0 233c 7361 793c
00000200: 4274 00bc 0338 103a 4fd1 60bb 3eac b83a
00000210: cf6f 823b f7ec 27bc ea61 be3b c145 6cbb
00000220: 61e7 0dbc b29c 00ba c9f0 fcbb 7acf 033c
00000230: c3a3 71bb 3a0f 81b9 2a35 183b 75ed 833c
00000240: de2a ff3b 1cd0 213c 1f22 0ebc 8167 d6bb
00000250: 2e26 8dba dced 2c3b 0fda 55bb 4a3e 563b
00000260: 9ed3 a83a cf6e 1c3b 4c11 54ba b5b3 3b3c
00000270: c030 fdba f723 c6bb b94b 87bc df55 dbb9
00000280: 3ff1 a0ba 2c5a 4037 4979 8b3c 6048 033c
00000290: dd60 3f3b 779d c93a 9fb4 fc3b c044 803c
000002a0: b567 b6bb a1ce 083b 15f4 d2ba f6fd 133c
000002b0: 1720 d4bb 8a99 313c 8e24 37bc 5460 8f3c
000002c0: a6dd 3abb 1295 a83c 9c6a b3bb 4070 613b
000002d0: d444 b23c 6568 f33b d1ff a13c 3800 d5bb
000002e0: 87c7 72bb 8e97 ed3b cbdb bd3b 2633 043b
000002f0: 7d81 e33b 8420 fc3a 0cb6 2ebb 9800 3d3b
00000300: 1ed7 babb 7189 c4bb 7aed 09bc e8c3 9b3b
00000310: 3568 e73b 7997 023c 1969 693c 435b debb
00000320: d5f0 0cbc 8f4b 58bb faad f8bb 3323 d8bb
00000330: f805 47bb ba2a 953a 7285 1b3b 2993 8cbb
00000340: 807e 623b 0768 863c 178c 3e3c efc2 49ba
00000350: 5081 483b ebb9 3b3c fe39 13b9 df65 28bb
00000360: 07e6 88bb 4f1e 16bc f2a5 96bb 1462 67bb
00000370: 41b8 213c fb42 453b dc7d f43a cc77 973b
00000380: 0378 1bbc 961c 04bb 21c7 0b3c 6029 783b
00000390: 7d17 b9bb fa5f 0e3b 892c 553b 0106 53bc
000003a0: 852f 1a3c 86d5 bc3a d36c 3dbc 02b1 b9bb
000003b0: 12a3 973a 7790 553a c90c 733a 53af 3bbb
000003c0: 5052 923c 6932 e8ba c90b a23b 6daf bdbb
000003d0: f54e 213c ec61 123c 2edc be3a 953e 11bc
000003e0: 38a1 2b3c 1417 ef3b d945 403c aaa6 d93a
000003f0: 466f a3bb e1d1 053b 42b3 bebb 3452 b73a

action_model._discrete_distribution.branches.0.weight f4 [3, 256]
-0.026985152 0.007737008 0.0063140644 0.0056566447 -0.009815962 0.0065934923 0.00060721015 0.018329844
0.023666583 -0.012243897 -0.027073784 -0.008560904 -0.030404659 -0.039064653 -0.0096052075 0.00021377922
0.0020559363 -0.011554055 0.015717346 -0.0050250124 0.011704811 -0.018386764 -0.0017925041 0.0014202349
0.013688639 0.032315552 -0.01445177 0.0003771796 -0.0011409301 0.039011106 0.012960175 0.024380643
0.008595059 0.00450132 0.0127379745 -0.023700042 -0.0048193396 -0.0072405906 -0.005199889 0.015578542
-0.005507568 0.012502329 -0.005808613 -0.01840691 0.007477365 0.014826155 -0.02418176 -2.420982e-05
0.007557865 0.005775826 -0.0077737845 0.027258433 -0.022933764 -0.02269824 0.014011664 0.012372513
0.01077981 -0.00042868702 -0.024915308 -0.022200875 0.007392081 0.0058169626 -0.0038676613 -0.00020254558
-0.016342156 -0.00892229 -0.027553858 0.00045680383 0.020378014 -0.009639863 0.011761871 0.008001149
-0.019974053 -0.028173586 -0.019755363 -0.01862774 0.03227078 -0.015877808 0.020148905 -0.0045125363
0.009762064 0.024411464 -0.0027996092 -0.0076269247 -0.028170554 0.0006111943 -0.016381226 0.0016072671
-0.0017598063 -0.009605245 -0.00044607185 0.034113623 -0.013118561 -0.03138308 0.009575192 0.004934413
-0.005388779 0.010956404 0.0007274155 0.010709477 0.0039681764 -0.022317834 -0.027925838 0.0039082984
0.015674116 0.028924573 -0.015351284 0.010250113 0.0046553505 -0.017959377 -0.025607614 0.024042096
0.013968961 -0.0052738735 -0.016635012 0.03297279 -0.014800326 -0.011134848 -0.013907249 0.014459745
-0.01045434 0.0020616045 -0.011157249 0.016288266 0.0016521398 -0.0007288844 -0.012539585 0.03179314
-0.004866352 0.01419853 -0.002955796 0.021461641 -3.110691e-05 -0.010599871 -0.005856893 0.004848423
0.0027697724 -0.012883441 0.020599311 0.018704573 -0.019465078 -0.005782407 -0.0040248986 -0.010756813
0.008778619 -0.010108076 -0.003407213 0.0077613154 0.0039582257 -0.0044210204 0.00567825 0.015863938
-0.010733826 -0.018892443 -0.026810393 -0.020003105 0.01348339 0.002979241 0.0041206907 0.009780988
0.0031254096 -0.03133379 -0.0078600785 0.03826947 -0.02288791 0.017622763 -0.013220802 -0.008556156
-0.007320044 -0.004224505 0.011447546 0.004580076 0.012490269 0.00894446 -0.010597275 0.015603662
-0.012978632 0.023136145 -0.005677779 -0.0009133502 0.0020558191 0.020504165 -0.009011385 3.0179635e-05
0.017501293 0.032058276 -0.015605823 -0.017998654 -0.01600433 0.025229054 0.02350853 0.018104516
-0.011955019 0.011082585 0.015360612 0.013458575 -0.01377647 0.005681145 -0.02353436 0.007522473
0.009196519 -0.002604147 -0.0033439281 0.00893121 -0.013324332 0.020497791 0.0025782315 0.020789444
0.010328735 -0.020434752 -0.012714264 -0.020741297 0.0029294628 0.027253259 -0.020379394 -0.018894117
0.0004945884 -0.007911957 -0.0011107683 0.002333524 -0.017906645 0.02121335 -0.01889472 0.015043622
0.0027995538 -0.014533949 -0.0041766283 -0.020602265 0.005774284 0.0007619033 0.022888687 -0.020951396
-0.029880924 -0.004596407 0.008513567 -0.010491947 -0.022025224 -0.005667013 0.023882404 0.015570535
0.003501938 -0.028342769 0.0032322619 -0.004367621 -0.023040881 0.019229032 0.02568026 0.0018992109
0.009940445 0.027857581 0.03372561 0.017646573 -0.0015995278 0.01638718 -0.027958132 0.0032033732
00000000: f70f ddbc ba86 fd3b 36e6 ce3b 605b b93b
00000010: 21d3 20bc 390e d83b 2f2d 1f3a 7828 963c
00000020: 6ce0 c13c a09a 48bc d7c9 ddbc 0943 0cbc
00000030: 3113 f9bc 4202 20bd 295f 1dbc ec29 6039
00000040: e3bc 063b 384d 3dbc aac1 803c dca8 a4bb
00000050: 89c5 3f3c d79f 96bc 75f2 eaba 2d27 ba3a
00000060: 5046 603c 505d 043d 1ec7 6cbc 30c0 c539
00000070: 438b 95ba 1cca 1f3d ea56 543c eab9 c73c
00000080: 4ad2 0c3c cf7f 933b f0b2 503c 9726 c2bc
00000090: 8deb 9dbb 7a42 edbb d563 aabb 243d 7f3c
000000a0: d478 b4bb 92d6 4c3c 2d56 bebb 17ca 96bc
000000b0: af04 f53b 67e9 723c d418 c6bc 3116 cbb7
000000c0: f8a7 f73b 2443 bd3b 3bbb febb 144d df3c
000000d0: 97df bbbc a9f1 b9bc 2e91 653c 15b6 4a3c
000000e0: cd9d 303c 66c1 e0b9 301b ccbc 9cde b5bc
000000f0: 4539 f23b 389c be3b 9778 7dbb 6a62 54b9
00000100: fcdf 85bc cc2e 12bc a1b8 e1bc 2c7f ef39
00000110: cbef a63c 84f0 1dbc ddb4 403c 4017 033c
00000120: a0a0 a3bc 4bcc e6bc 00d6 a1bc 3499 98bc
00000130: 5e2e 043d 2d12 82bc 510f a53c e6dd 93bb
00000140: 10f1 1f3c 8dfa c73c a679 37bb 48eb f9bb
00000150: efc5 e6bc 8e38 203a ec31 86bc efaa d23a
00000160: 4da9 e6ba 515f 1dbc c0de e9b9 baba 0b3d
00000170: 3cef 56bc 8b8b 00bd 44e1 1c3c dbb0 a13b
00000180: 5b94 b0bb 7d82 333c 07b0 3e3a cd76 2f3c
00000190: 7a07 823b e4d3 b6bc bac4 e4bc 2f11 803b
000001a0: 0167 803c 3af3 ec3c f483 7bbc 17f0 273c
000001b0: e98b 983b 8b1f 93bc 0fc7 d1bc eef3 c43c
000001c0: 12de 643c 75d0 acbb 2646 88bc 7a0e 073d
000001d0: 117d 72bc f06e 36bc 3bdb 63bc 91e8 6c3c
000001e0: ae48 2bbc fc1b 073b e5cc 36bc f86e 853c
000001f0: 9d8c d83a 9b12 3fba d572 4dbc 8639 023d
00000200: eb75 9fbb f4a0 683c 07b6 41bb 53d0 af3c
00000210: ca78 02b8 15ab 2dbc 2eeb bfbb 85df 9e3b
00000220: 1285 353b 1115 53bc e3bf a83c 553a 993c
00000230: 3a75 9fbc 587a bdbb 4ce3 83bb 583d 30bc
00000240: 32d4 0f3c 589c 25bc 8c4b 5fbb a252 fe3b
00000250: 01b4 813b 35de 90bb 9d10 ba3b 17f5 813c
00000260: eedc 2fbc 53c4 9abc 78a1 dbbc 8ddd a3bc
00000270: 70e9 5c3c 5f3f 433b dc06 873b 7040 203c
00000280: acd3 4c3b dc57 00bd 8fc7 00bc 73c0 1c3d
00000290: 6d7f bbbc 9d5d 903c 109c 58bc 1f2f 0cbc
000002a0: fbdc efbb b76d 8abb 7d8e 3b3c 7614 963b
000002b0: fca3 4c3c c98b 123c 31a0 2dbc 80a6 7f3c
000002c0: 54a4 54bc 0388 bd3c aa0c babb e56d 6fba
000002d0: ecba 063b 5af8 a73c 7da4 13bc 462a fd37
000002e0: df5e 8f3c 8a4f 033d 91af 7fbc ea71 93bc
000002f0: 831b 83bc 29ad ce3c f694 c03c ec4f 943c
00000300: fcde 43bc bb93 353c 14ab 7b3c 5b81 5c3c
00000310: b4b6 61bc e628 ba3b 21cb c0bc 147f f63b
00000320: ffac 163c 56aa 2abb ce25 5bbb 3654 123c
00000330: 4d4e 5abc fcea a73c 8cf7 283b a04e aa3c
00000340: db39 293c c866 a7bc 7d4f 50bc a7e9 a9bc
00000350: 3bfc 3f3b 3a42 df3c b0f2 a6bc d6c7 9abc
00000360: 44a7 013a 27a1 01bc 3397 91ba 09ee 183b
00000370: f5b0 92bc 9fc7 ad3c 1ac9 9abc 8679 763c
00000380: b878 373b cd1f 6ebc 19dc 88bb 15c6 a8bc
00000390: 3436 bd3b 77ba 473a 0e81 bb3c 43a2 abbc
000003a0: d7c8 f4bc 759d 96bb 7d7c 0b3c 6ae6 2bbc
000003b0: 3e6e b4bc 5ab2 b9bb 08a5 c33c 8f1b 7f3c
000003c0: c580 653b 182f e8bc 5bd4 533b 431e 8fbb
000003d0: 3bc0 bcbc 3486 9d3c 695f d23c f1ee f83a
000003e0: 40dd 223c 9535 e43c dd23 0a3d 8c8f 903c
000003f0: 3fa7 d1ba 683e 863c 7408 e5bc afef 513b

action_model._discrete_distribution.branches.0.bias f4 [3]
0.0015939593 -0.0019761007 0.0015222252
00000000: 66ec d03a 7881 01bb 6785 c73a

action_model._discrete_distribution.branches.1.weight f4 [3, 256]
0.006459884 -0.0047537684 0.005946284 -0.017252617 0.009346599 -0.015737526 -0.010573612 -0.0062366636
-0.0066129635 0.005150571 -0.007834465 -0.0128548145 0.013651269 -0.014759402 -0.0039416957 -0.011572817
0.002591744 -0.015725393 0.001951239 -0.00086037355 -0.008108476 -0.0026703372 -0.02461935 0.0043467316
-0.00912965 0.004272566 0.011533704 -0.0015371708 -0.022631384 -0.0040191878 -0.006485092 -0.0066788597
-0.018053927 -0.022559166 0.011414152 0.015110557 -0.0005896298 0.007068768 0.002563772 -0.009050638
0.0024705946 0.007671293 -0.02040489 -0.0279038 0.002160137 2.2849894e-05 -0.00388508 -0.026985968
-0.0038211672 0.007447345 0.0029443824 0.0050930916 0.0032715397 0.0038275034 -0.007815343 -0.01860643
-0.016057387 -0.015285526 -0.0018873508 -0.007856228 0.019753454 0.013943618 -0.00047205776 -0.0025018565
0.012776095 -0.016958967 -0.0041361237 -0.0031467616 -0.010075848 0.010734995 0.02083868 0.004264438
-0.039776575 -0.018714001 -0.017072774 0.021697186 -0.008939649 0.023856197 0.013226848 -0.0019322772
-0.011730573 0.014931691 0.014280274 0.00018042138 0.010180042 -0.0092061665 -0.009006816 0.009283262
0.009599288 0.0145891635 0.013306257 -0.0105172815 -0.014703773 -0.02179107 -0.013699781 0.025050893
0.0039936076 0.011288878 0.0033550595 0.0056847357 -0.0047227647 -0.020895755 -1.968418e-05 0.009516824
0.009676979 -0.00032573493 -0.019756831 -0.009884741 -0.008952131 -0.02225226 -0.018484417 0.015970306
0.011126485 -0.01501379 0.008122046 0.0010433182 0.015008583 0.012299309 -0.0247498 -0.0058929767
0.017532917 -0.0041244333 -0.0029505775 0.014702933 -0.019370537 0.012620912 -0.0029019022 0.0019792595
0.0119828265 -0.0031117788 -0.012330001 -0.007905447 0.025788978 0.018478643 -0.007748145 0.015604999
0.008854724 -0.0057201893 0.004926678 -0.013713285 -0.022532439 -0.009293842 -0.020737235 -0.01822614
-0.021395562 0.009371192 -0.012722381 -0.011844472 0.009095534 -0.0033523636 -0.0048919255 -0.0107135
0.002115552 -0.028587176 -0.003223007 -0.013228489 -0.026022336 -0.004197912 0.014598704 0.002101569
0.00041082877 -0.010784401 -0.011131732 -0.0062650647 -0.013866906 0.01803296 -0.029507328 -0.028178498
0.0030719966 0.0011778066 -0.002806354 0.0041958657 0.008836909 -0.0025773826 0.009332088 -0.0009064993
-0.015739623 -0.004245312 -0.006709614 -0.023815058 -0.014386881 0.0015920243 -0.027404308 -0.012470185
-0.0010446415 -0.007941673 -0.025355827 -0.013596268 0.0046210904 -0.00055192056 0.010982243 -0.00029513033
-0.010304248 -0.0013425492 -0.0019171463 0.007463526 0.0028724333 0.008796344 -0.025526168 -0.009234532
-0.007324513 0.0053042565 0.016795402 0.015461738 -0.017831432 0.02045724 -0.002356126 0.018420523
-0.0011032834 -0.03007914 -0.009201415 -0.012055926 -0.014505661 0.0026231082 -0.020841325 0.013762582
-0.009166429 -0.004120538 -0.01570792 -0.0040643043 -0.0019196287 0.018729847 -0.024019806 0.014025613
0.025295451 -0.00631757 -0.006762949 -0.021332137 0.010782017 -0.0021688244 -0.011297336 0.01515268
-0.021871239 -0.02546513 0.020376539 0.0066812052 0.0030676874 0.0032856606 0.01758292 0.013374407
-0.012983076 -0.002555664 -0.0049624736 -0.0026453573 -0.024471538 -0.015792288 0.02690731 0.01694507
-0.0009755931 0.0058928966 -0.017353099 0.0028155795 0.01818863 -0.018792853 -0.02034688 5.1789684e-06
00000000: 6fad d33b 80c5 9bbb 0cd9 c23b 5c55 8dbc
00000010: 7a22 193c fceb 80bc f13c 2dbc ed5c ccbb
00000020: 8fb1 d8bb 1fc6 a83b 215c 00bc 009d 52bc
00000030: 92a9 5f3c 6bd1 71bc 5729 81bb ea9b 3dbc
00000040: 40da 293b 8ad2 80bc b7c0 ff3a b18a 61ba
00000050: 6ad9 04bc d300 2fbb 85ae c9bc 076f 8e3b
00000060: 8794 15bc e200 8c3b dcf7 3c3c e57a c9ba
00000070: 7465 b9bc 64b3 83bb e580 d4bb 56da dabb
00000080: d4e5 93bc 00ce b8bc 6c02 3b3c 4592 773c
00000090: 6391 1aba 20a1 e73b f504 283b 2149 14bc
000000a0: b3e9 213b 785f fb3b 2828 a7bc 8396 e4bc
000000b0: 1691 0d3b c6ad bf37 d49c 7ebb ad11 ddbc
000000c0: 8c6c 7abb dc08 f43b 8af6 403b f3e3 a63b
000000d0: 5467 563b dad6 7a3b ed0b 00bc 836c 98bc
000000e0: c88a 83bc 2570 7abc fc60 f7ba 69b7 00bc
000000f0: ffd1 a13c c673 643c 857e f7b9 30f6 23bb
00000100: d452 513c 88ed 8abc 5288 87bb e639 4ebb
00000110: 2b15 25bc d5e1 2f3c e1b5 aa3c b3bc 8b3b
00000120: c3ec 22bd 1b4e 99bc 34dc 8bbc 4cbe b13c
00000130: 9b77 12bc 126e c33c 6cb5 583c 7744 fdba
00000140: 9731 40bc 0da4 743c cff7 693c 7f2f 3d39
00000150: 31ca 263c 76d5 16bc 5391 13bc d318 183c
00000160: 5546 1d3c 6307 6f3c 7d02 5a3c ad50 2cbc
00000170: 18e8 70bc 3083 b2bc 0c75 60bc 8837 cd3c
00000180: cfdc 823b fcf4 383c 8fe0 5b3b 0547 ba3b
00000190: 6cc1 9abb 932d abbc 741f a5b7 74ec 1b3c
000001a0: 318c 1e3c 67c7 aab9 14d9 a1bc 9cf3 21bc
000001b0: f5ab 12bc 5f4a b6bc a26c 97bc 29d4 823c
000001c0: dc4b 363c 66fc 75bc 5412 053c f3bf 883a
000001d0: 8fe6 753c 0a83 493c 18c0 cabc df19 c1bb
000001e0: 31a1 8f3c 4126 87bb 7a5e 41bb 92e4 703c
000001f0: f6ae 9ebc f1c7 4e3c d72d 3ebb 77b6 013b
00000200: 9e53 443c fcee 4bbb c603 4abc d985 01bc
00000210: 6843 d33c 8660 973c 27e4 fdbb 1cac 7f3c
00000220: 6713 113c 6d70 bbbb f86f a13b b0ad 60bc
00000230: f395 b8bc 3345 18bc 22e1 a9bc fc4e 95bc
00000240: bf45 afbc a189 193c 8971 50bc 510f 42bc
00000250: 6f05 153c 54b3 5bbb 724c a0bb ad87 2fbc
00000260: 13a5 0a3b a72f eabc 1639 53bb 4ebc 58bc
00000270: cb2c d5bc a38e 89bb 672f 6f3c 7aba 093b
00000280: 8164 d739 0eb1 30bc de61 36bc 2c4b cdbb
00000290: 0532 63bc dcb9 933c 5ab9 f1bc 98d6 e6bc
000002a0: 8d53 493b a260 9a3a cfea 37bb 797d 893b
000002b0: afc8 103c 4ee9 28bb 9de5 183c 23a2 6dba
000002c0: 62f0 80bc 421c 8bbb 52dc dbbb cc17 c3bc
000002d0: f4b6 6bbc 79ab d03a 007f e0bc bf4f 4cbc
000002e0: 5aec 88ba ca1d 02bc 06b7 cfbc e2c2 5ebc
000002f0: 846c 973b c3ae 10ba deee 333c b9bb 9ab9
00000300: 26d3 28bc 7af8 afba c148 fbba 9890 f43b
00000310: 6f3f 3c3b 8a1e 103c 411c d1bc 6f4c 17bc
00000320: 7802 f0bb 54cf ad3b 8396 893c 3b53 7d3c
00000330: 3913 92bc f195 a73c 3c69 1abb a3e6 963c
00000340: 0c9c 90ba 8768 f6bc 88c1 16bc 3886 45bc
00000350: 27a9 6dbc 74e8 2b3b 6dbb aabc 747c 613c
00000360: ca2e 16bc 9405 87bb e5ad 80bc db2d 85bb
00000370: 0d9c fbba 566f 993c 2fc5 c4bc afcb 653c
00000380: 6838 cf3c 9e03 cfbb ba9b ddbb bcc0 aebc
00000390: 0fa7 303c d622 0ebb 7618 39bc f242 783c
000003a0: 502b b3bc 409c d0bc b3ec a63c 03ee da3b
000003b0: 410b 493b 3d54 573b 0e0a 903c 5420 5b3c
000003c0: f8b6 54bc ed7c 27bb 3f9c a2bb bb5d 2dbb
000003d0: 8978 c8bc d45e 81bc b86c dc3c 63d0 8a3c
000003e0: f2be 7fba 3319 c13b 1628 8ebc 9685 383b
000003f0: 5200 953c 78f3 99bc 80ae a6bc 00c7 ad36

action_model._discrete_distribution.branches.1.bias f4 [3]
-0.014628293 0.00076347403 0.014229916
00000000: 82ab 6fbc e023 483a 9824 693c

action_model._discrete_distribution.branches.2.weight f4 [2, 256]
-0.011380647 -0.015520003 0.017127879 -0.008262592 -0.006588198 -0.00072879874 -0.0031623107 -0.00039238855
0.007902297 0.007466096 -0.0017149432 0.003253012 -0.00080316485 -0.005119509 0.024656903 0.023116278
-0.013215403 0.020905862 0.028187053 0.009144739 -0.0115779685 -0.007860282 -0.005807834 -0.015380981
0.0048751472 -0.008701229 0.024109846 -0.027153311 -0.015086864 0.033876516 -0.00075184426 0.014816275
0.019144982 -0.0046228277 -0.012406201 0.011914371 -0.0072461297 -0.006600681 0.0068597747 -0.028546896
0.0067351386 0.024780894 -0.0039679897 -0.01753901 -0.011341729 0.008315957 0.005256898 -0.023062846
-0.029553464 -0.019611254 -0.0068309535 0.0011514882 0.026112186 -0.030755086 -0.002994462 0.026402188
-0.006896226 -0.026593704 0.022488413 -0.0032628838 0.010550292 0.004077667 -0.02354204 0.024943642
0.026148072 0.0018805104 0.007384272 0.028155446 -0.017270576 0.01570812 6.49704e-05 0.009648285
-0.0049210205 0.0043587186 -0.014454438 0.008063828 -0.009675682 -0.013694432 0.011014668 -0.009334193
-0.03448951 -0.027633341 0.007086444 0.01937322 -0.033320196 -0.009546198 -0.0068801306 0.0135775
-0.0069069015 -0.0020161474 0.013942222 0.0033623625 -0.022569025 -0.010789689 0.005166764 -0.010330033
0.0064264946 -0.026574843 0.011960232 0.0158844 -0.016595554 0.006193234 -0.008147886 0.0013813599
-0.027766762 -0.015920697 0.00020640527 -0.0034453343 0.014402583 -0.006275958 -0.02368026 -0.025572771
-0.013675787 -0.028944643 0.024105147 -0.00040211913 0.018790077 -0.01433893 -0.014377992 0.0016903545
-0.020263614 -0.01942681 0.0038385056 -0.016847532 0.015190531 0.015421336 -0.016419252 -0.011564126
0.012600044 -0.0064752894 0.004813915 0.008823281 -0.008993402 -0.016107053 -0.024318652 -0.011512375
-0.004368021 0.01586901 -0.006449081 -0.019082837 0.009375658 -0.009251755 0.00863522 -0.033324737
0.0074205645 0.0031379918 0.017372014 0.016162148 0.012290849 0.00704765 0.0265878 -0.010541133
0.011573206 0.021846492 0.0016190984 -0.017029416 0.004511856 -0.0048630973 0.025075894 -0.00258141
-0.016656123 -0.0041112597 -0.024115201 -0.0017318106 0.011399039 -0.00690956 0.020708479 -0.01796516
0.00014215906 0.0051796865 -0.0012096786 0.0004280682 -0.007850962 -0.029160792 0.019406596 -0.006753399
-0.0036654805 -0.009419707 -0.014031254 0.0068540145 0.0070357304 0.009132376 -0.0023861788 -0.0034888757
-0.0050453767 0.01190374 0.00077713566 -0.017700233 -0.011570546 0.010821905 0.020533249 0.019106142
0.00858337 -0.0045587234 -0.0028789153 -0.004482212 -0.00028540872 -0.013910985 -0.004510284 0.007848716
-0.0081796935 -0.001372424 0.009366649 0.00644493 0.0147347795 0.008207327 -0.033559795 0.006532342
-0.025727313 0.00065010245 -0.0011083587 -0.005208644 -0.023519188 -0.0048428434 0.011844061 -0.00850927
-0.02309367 0.024325212 0.009409353 -0.006198547 0.0011319972 -0.0049130693 -0.026569461 -0.029551625
0.0046761245 -0.017611802 -0.035929788 0.014705429 -0.021922432 0.022647679 -0.017079303 -0.013268882
0.018843254 -0.012468838 0.015700031 -0.017368596 -0.0033697938 0.015758261 0.011637185 -0.007568321
-0.006601274 0.0074462746 -0.021694355 -0.0029387102 0.0035172673 -0.030144965 -0.021089597 0.02128016
-0.03958105 -0.0010110995 0.0074234484 -0.0036102354 0.008072907 -0.0017460592 0.008276033 0.00890622
00000000: e575 3abc 9c47 7ebc c44f 8c3c d35f 07bc
00000010: cfe1 d7bb db0c 3fba c53e 4fbb 80b9 cdb9
00000020: a378 013c 27a6 f43b f2c7 e0ba 7c30 553b
00000030: 7b8b 52ba 8ec1 a7bb 46fd c93c 595e bd3c
00000040: 6b85 58bc c542 ab3c 89e8 e63c d1d3 153c
00000050: 85b1 3dbc 6ac8 00bc a54f bebb 8300 7cbc
00000060: b3bf 9f3b 998f 0ebc 0382 c53c 9f70 debc
00000070: e52e 77bc 1ac2 0a3d 6a17 45ba f6bf 723c
00000080: f0d5 9c3c 177b 97bb 6143 4bbc 7e34 433c
00000090: f170 edbb 874a d8bb f6c7 e03b 2edb e9bc
000000a0: 70b2 dc3b 4d01 cb3c e905 82bb f8ad 8fbc
000000b0: a9d2 39bc a73f 083c 0e42 ac3b 4bee bcbc
000000c0: 1b1a f2bc c8a7 a0bc 31d6 dfbb 88ed 963a
000000d0: 39e9 d53c 17f2 fbbc bc3e 44bb 6749 d83c
000000e0: bdf9 e1bb 0adb d9bc 9f39 b83c 1bd6 55bb
000000f0: 22db 2c3c f39d 853b 3cdb c0bc 9c56 cc3c
00000100: 7b34 d63c 757b f63a c3f7 f13b 40a6 e63c
00000110: 067b 8dbc 51ae 803c b840 8838 d713 1e3c
00000120: 8340 a1bb 95d3 8e3b 4fd2 6cbc 251e 043c
00000130: c086 1ebc 9c5e 60bc de76 343c 71ee 18bc
00000140: df44 0dbd 515f e2bc 6735 e83b 96b4 9e3c
00000150: c27a 08bd a867 1cbc b872 e1bb 2a74 5e3c
00000160: 4a53 e2bb 5721 04bb eb6d 643c 155b 5c3b
00000170: ade2 b8bc 3cc7 30bc f54d a93b 4c3f 29bc
00000180: 5895 d23b 7cb3 d9bc d9f4 433c 0020 823c
00000190: 66f3 87bc 9df0 ca3b b67e 05bc bf0e b53a
000001a0: 1f77 e3bc 1f6c 82bc 7e6e 5839 1ecb 61bb
000001b0: d0f8 6b3c 8da6 cdbb 1bfd c1bc fd7d d1bc
000001c0: 6810 60bc 511d edbc 2878 c53c 84d3 d2b9
000001d0: a6ed 993c d5ed 6abc ab91 6bbc e38e dd3a
000001e0: e1ff a5bc f924 9fbc 708f 7b3b d603 8abc
000001f0: b4e1 783c c5a9 7c3c ab81 86bc 7677 3dbc
00000200: 6a70 4e3c aa2e d4bb 0cbe 9d3b 868f 103c
00000210: 1059 13bc f0f2 83bc e937 c7bc 679e 3cbc
00000220: 9e21 8fbb baff 813c d052 d3bb 9c53 9cbc
00000230: 5c9c 193c ac94 17bc bd7a 0d3c 857f 08bd
00000240: 3528 f33b c4a6 4d3b c14f 8e3c 7b66 843c
00000250: 8f5f 493c f9ef e63b a8ce d93c b7b4 2cbc
00000260: 8b9d 3d3c 6af7 b23c ed37 d43a 4681 8bbc
00000270: 31d8 933b 9e5a 9fbb f66b cd3c e02c 29bb
00000280: 6c72 88bc bfb7 86bb 3e8d c5bc ecfd e2ba
00000290: 09c3 3a3c 9769 e2bb d4a4 a93c ac2b 93bc
000002a0: 8810 1539 5cba a93b 148e 9eba 576e e039
000002b0: 52a1 00bc 9de2 eebc 95fa 9e3c 9e4b ddbb
000002c0: 8f38 70bb 1d55 1abc 58e3 65bc a497 e03b
000002d0: fc8b e63b f69f 153c 7061 1cbb 9fa5 64bb
000002e0: b053 a5bb e807 433c b1b8 4b3a 1400 91bc
000002f0: 6392 3dbc 5c4e 313c 5835 a83c 7c84 9c3c
00000300: 43a1 0c3c 5861 95bb 2fac 3cbb 85df 92bb
00000310: e9a2 95b9 e6ea 63bc 01cb 93bb e797 003c
00000320: 1f04 06bc e8e2 b3ba 9376 193c fe2f d33b
00000330: 256a 713c 0678 063c ff75 09bd 420d d63b
00000340: 16c2 d2bc a36b 2a3a 5946 91ba 46ad aabb
00000350: 50ab c0bc b7b0 9ebb 980d 423c 776a 0bbc
00000360: f02e bdbc ab45 c73c b029 1a3c 2e1d cbbb
00000370: 865f 943a d0fd a0bb 33a8 d9bc 4016 f2bc
00000380: 2d3a 993b a046 90bc 1d2b 13bd 0aef 703c
00000390: ac96 b3bc a087 b93c e5e9 8bbc ba65 59bc
000003a0: 2b5d 9a3c 194a 4cbc 5a9d 803c 9648 8ebc
000003b0: c2d7 5cbb 7817 813c e4a9 3e3c aeff f7bb
000003c0: 804f d8bb e1ff f33b 5cb8 b1bc 6097 40bb
000003d0: f481 663b 93f2 f6bc 17c4 acbc bb53 ae3c
000003e0: bd1f 22bd df86 84ba 6640 f33b b399 6cbb
000003f0: 3a44 043c 06dc e4ba 3398 073c 65eb 113c

action_model._discrete_distribution.branches.2.bias f4 [2]
-0.014952693 0.014952692
00000000: 24fc 74bc 23fc 743c
