results/coinCollector1/CoinCollector/CoinCollector-499947.onnx (onnx, 496098 bytes, 13 tensors)

discrete_act_size_vector f4 [1, 4]
000000 00 00 40 40 00 00 40 40 00 00 00 40 00 00 00 40
       3.0 3.0 2.0 2.0

network_body._body_endoder.seq_layers.0.weight f4 [256, 205]
000000 08 c0 40 bd 9f a5 e8 3d 95 bd d6 bd ef 7d 83 bd
       -0.047058135 0.11359715 -0.10485379 -0.06420504
000010 7b 08 87 bd 3f ac a2 bd 65 b2 cc bc 16 a0 53 bd
       -0.065934144 -0.079430096 -0.024987409 -0.05166634
000020 8e 93 e2 3d 55 98 09 be 69 e6 ee 3c a6 f4 92 3d
       0.110633 -0.13437016 0.029162602 0.07175569
000030 dd 9f 0f 3c 0c 92 0c bd d5 36 a0 3b 4d 92 65 be
       0.008766142 -0.03431897 0.004889349 -0.2241909
000040 9f 12 22 3d 79 a5 84 3d 12 52 06 bd 1f 63 87 bd
       0.03956854 0.06476874 -0.032793112 -0.06610703
000050 98 a4 e9 3d 54 e8 e4 3d d9 50 28 bd 57 29 e0 3c
       0.11408347 0.111771256 -0.041092727 0.027363462
000060 c8 1b 16 be 9b 39 ef 3b c4 2a 34 3e 76 af 67 bc
       -0.14659035 0.0073005683 0.17594439 -0.014140954
000070 8e 98 83 bd 21 a8 19 3e 78 99 38 be ad 8e 49 3e
       -0.06425582 0.15005542 -0.18027294 0.19683333
000080 1c 39 b3 3d 56 25 8b 3d 42 c2 b4 3d 89 51 1b 3e
       0.08751127 0.06794231 0.08826114 0.15167822
000090 be f9 81 3d 6c f9 54 bc f5 ac e0 bd 9f 05 9d 3c
       0.06346463 -0.01299892 -0.10970489 0.01916772
0000a0 2e 38 e4 3c 8e 59 7c 3d 02 e2 4b bd e4 cf 9f bd
       0.02785882 0.061608844 -0.049776085 -0.07803324
0000b0 76 4e 8c bd 7d 29 1b be 9c 65 de 3c 54 f9 ec 3c
       -0.06850903 -0.15152545 0.02714806 0.028927483
0000c0 63 61 4a 3d 49 7a d2 bb 35 c2 a0 3b 0f 60 3e bd
       0.04940928 -0.006423269 0.004905964 -0.046478327
0000d0 52 68 b6 3d 38 b2 a7 bd c1 31 cf bd c6 3f 79 bd
       0.08906616 -0.081882894 -0.10116912 -0.060851835
0000e0 e2 77 70 3c 2a e9 97 bc 0b 17 13 3d 0c d9 d3 3d
       0.01467702 -0.018543798 0.035910647 0.10344133
0000f0 01 fb 10 be bd 20 0b 3e 5e 6d 6a 3d 31 19 56 3d
       -0.1415825 0.13586707 0.057233207 0.05227012
000100 17 e9 a6 bd 1e 95 70 3e 29 37 ee 3d 35 a1 79 3d
       -0.08149927 0.23494384 0.11631615 0.060944755
000110 b6 3e 97 bc 86 de 95 3c cc 42 75 bd ee 54 76 3d
       -0.01846252 0.018294584 -0.059878156 0.06013959
000120 03 74 0b 3e 71 44 60 bd 86 a9 91 3d e5 0a 01 3d
       0.13618474 -0.05475277 0.07112412 0.03150453
000130 d3 30 b5 ba 44 2f ec bd a0 d1 ce bc dc e8 6c bc
       -0.0013823755 -0.11532453 -0.025246441 -0.014459815
000140 df 90 b8 3d f2 be 5a 3d 32 4e a6 bc 51 fb 0c be
       0.09012007 0.053404756 -0.020300958 -0.13767745
000150 38 58 12 be 0a 53 31 3e c4 d0 3a bc 3a e8 bc bd
       -0.14291465 0.17316833 -0.011402313 -0.09223981
000160 03 57 57 bd 4f a2 0d bc 56 c7 59 be 5a a3 52 bc
       -0.052573215 -0.008644654 -0.21267447 -0.012856329
000170 ef 9f b1 3c b8 a2 76 3c 14 4b 4f bc a2 16 ce 3d
       0.021682708 0.015053444 -0.012652177 0.100629106
000180 90 f2 c8 bc 5d f1 94 bd 41 e2 76 3b 46 93 ea bd
       -0.024529725 -0.07272599 0.003767148 -0.114538714
000190 1b 84 08 3d 9c 28 2b 3d 01 09 1b bd 5a 94 88 bb
       0.03332911 0.041786775 -0.037850384 -0.0041680755
0001a0 9c 28 d0 bd ac ef de 3c 86 82 fc 3c e6 7d d7 3c
       -0.101639956 0.027213894 0.030823957 0.02630515
0001b0 95 97 5d 3d 25 5e 8b bd 32 aa c4 bd 15 6c e9 bd
       0.054099638 -0.06805066 -0.09602775 -0.11397568
0001c0 ca b5 87 bc 17 74 bf 3c da 8f 35 3d 05 56 a5 3d
       -0.016566176 0.023370786 0.04432664 0.080730475
0001d0 c8 8f 95 bc 17 84 38 3c dd 2c 86 3d 75 13 83 3d
       -0.018257037 0.011261961 0.06551526 0.064001955
0001e0 62 a8 2e be d7 63 41 3d a0 53 78 3d 16 1d 25 bd
       -0.1705642 0.047214355 0.060626626 -0.04031094
0001f0 91 45 00 3e 7f 82 0d be 85 83 6a bd dd 51 43 bd
       0.12526537 -0.13819312 -0.057254333 -0.047685493
000200 4a ab 93 bd b8 58 a3 bd 17 29 8a 3d 40 e6 ea bc
       -0.07210405 -0.07975906 0.067461185 -0.028674245
000210 b9 5e 24 3e 1e 45 15 3e 4b 5f 96 bd 79 f9 59 3c
       0.16051759 0.14577147 -0.073423944 0.013304108
000220 85 1f 64 bd 03 23 9a 3d 2e 4b 0c 3c d3 ba e9 3c
       -0.055694122 0.07526209 0.008562846 0.028531468
000230 85 4a 98 bd 57 45 ea bc 26 12 5b bc 25 e1 e2 3d
       -0.074360885 -0.028597517 -0.013371026 0.11078099
000240 d4 a0 6d bd 29 f9 96 bd e2 b4 2e bd a8 5a 7b bc
       -0.058014706 -0.07371742 -0.042652972 -0.015341438
000250 8f 62 fd 3d 96 32 b4 3d 97 ab cd bc e2 50 65 bd
       0.12372314 0.08798711 -0.025106234 -0.05598534
000260 08 79 12 bd e9 eb 82 3d 78 d3 93 bd a6 a4 b5 bc
       -0.035759956 0.063926525 -0.07218069 -0.022173237
000270 3b 5e 4e bd 04 38 06 3e a0 16 b3 3c 82 2b bb 3d
       -0.050382834 0.13107306 0.021861374 0.09139158
000280 1a 34 32 bc 62 5b be 3d 62 47 ed bd 66 26 bc 3d
       -0.01087668 0.09294774 -0.11585881 0.091870114
000290 9a 20 19 3d 36 b9 31 3d ca ad 38 bd 56 eb 94 bd
       0.037384607 0.04338952 -0.045087613 -0.07271449
0002a0 e1 20 fe bc 14 67 e0 bd 34 09 15 3e 2f 02 41 3c
       -0.031021537 -0.109571606 0.14554292 0.011780306
0002b0 3e 18 9f 3d ae ea eb 3c db 8f c7 bd 97 d0 a4 bc
       0.07768296 0.028798427 -0.09744235 -0.020118995
0002c0 b7 72 b2 3c f8 e1 f3 bc 22 02 fb 3c ed 1a ab 3d
       0.021783216 -0.029770836 0.030640665 0.08354745
0002d0 6a 3d fc bc 76 f3 0d bd 00 d6 9a 3d eb f4 55 bc
       -0.030791003 -0.03465601 0.075603485 -0.013058881
0002e0 8f 34 d2 3d 13 69 11 be 70 a8 14 bd 07 10 db 3d
       0.10263931 -0.14200239 -0.036293447 0.10696416
0002f0 fd 36 2c 3e 54 48 49 3d 84 9c 70 bc a9 ea cc 3d
       0.16817851 0.049141243 -0.014685754 0.100056954
000300 3f f6 18 3a 12 d3 83 3d 09 f1 2c bb 06 ff 64 bd
       0.00058350334 0.06436743 -0.0026388785 -0.05590727
000310 d7 41 e2 3d 12 ce 5a 3d cc c1 0e bd e2 f1 16 3e
       0.11047714 0.05341918 -0.034852788 0.14740708
000320 55 10 35 be 48 a9 96 3d 9b 9d 46 39 1c 85 84 bd
       -0.17682011 0.073565066 0.00018941464 -0.06470701
000330 75 96 79 bc d1 79 10 bd 5b a9 66 bd 3f d5 d2 3d
       -0.015233626 -0.035272423 -0.056313854 0.1029458
000340 d4 7d 84 3d 36 1f 15 bd de 59 92 3d 08 0b 97 bd
       0.06469312 -0.03640672 0.07146047 -0.07375151
000350 80 d7 96 3d 66 1b 37 3d 09 ac 8c 3c 73 52 86 3d
       0.07365322 0.044703864 0.017171877 0.06558695
000360 62 ae 25 be fb 93 87 3d c1 00 e7 bd 9b 2f 08 3d
       -0.16179803 0.06620022 -0.11279441 0.033248525
000370 ad ab d5 3d 88 a8 01 be b9 0d bf 3d df dd b3 3c
       0.10433135 -0.12661946 0.09328789 0.021956382
000380 c7 f2 ae bc f9 f8 1b 3e ee 53 69 bd 7a 91 04 3e
       -0.021356 0.15231694 -0.056964807 0.1294612
000390 e5 a8 9c 3d 10 b1 d6 3c e0 4b b3 bc af f4 08 bd
       0.076494016 0.026207477 -0.021886766 -0.033436473
0003a0 2a ad 6e bd d1 51 a6 3d 81 13 be bc a7 e8 86 3d
       -0.05827061 0.08121074 -0.02320266 0.06587344
0003b0 d8 67 22 bd 05 9e 6c bc d3 19 9d 3c 9e 7b 90 bc
       -0.039649814 -0.014441972 0.019177353 -0.01763707
0003c0 ef 50 1e bd dc e8 95 3c 8e 81 9c 3b 6b f4 50 bd
       -0.038651403 0.018299513 0.0047761863 -0.051014345
0003d0 7f f1 17 3d b6 c1 b9 3d 69 e1 b7 bd fa 51 86 bc
       0.037095543 0.090701506 -0.089785405 -0.016396511
0003e0 a4 64 9e bb 30 e4 28 3e 75 03 b0 3d 79 f1 69 3a
       -0.0048337746 0.16493297 0.085944094 0.0008924227
0003f0 62 70 df 3c b6 66 b7 bc 22 3e 83 bd 3a a9 5e bc
       0.027275268 -0.022387844 -0.06408335 -0.013590151

network_body._body_endoder.seq_layers.0.bias f4 [256]
000000 81 02 80 3c 11 cb 9b ba 06 e9 12 3b 2f 00 11 3c
       0.015626194 -0.001188608 0.0022416725 0.008850141
000010 75 08 28 bc be b6 16 bc 9b 33 99 bb 03 5d 80 bc
       -0.010255923 -0.009198843 -0.0046753413 -0.015669351
000020 a9 0c 20 3b 5c 3e 06 bc 2f eb a9 bc 22 09 10 3b
       0.0024421609 -0.008193579 -0.020742027 0.00219781
000030 c9 0a 9a bb 9b c1 f5 bb 3b 5b 89 bc f9 90 c5 3b
       -0.0047009927 -0.007499886 -0.016767135 0.006029245
000040 7c a6 9a bb 0e ac 84 bb 6f fb 7f 3b 92 27 af bc
       -0.0047195535 -0.004048831 0.0039059778 -0.021381173
000050 46 e2 3d 3c 0c 0f 3f 3c 2e be e1 bb 5d 3a 12 3b
       0.011589592 0.011661302 -0.0068891263 0.002231262
000060 bc 52 b3 3a f5 f4 20 bb 3e 32 b8 bb c8 46 31 3b
       0.0013681273 -0.0024560068 -0.0056212237 0.0027050246
000070 0f 23 90 bb a0 a7 82 3c f3 e7 19 3b 80 7a 24 3c
       -0.0043987106 0.01594907 0.00234842 0.010038972
000080 0c 62 b9 3b e7 7d 29 3b 2c 29 d3 3b 5f 85 e4 3b
       0.00565744 0.0025862397 0.006444117 0.006973907
000090 96 ed 57 bb 5a 48 4f 3a 6b 87 13 bc d0 04 2f bc
       -0.0032948009 0.00079072046 -0.009004454 -0.0106823
0000a0 3e 7e 45 bc b5 19 b0 3a 63 a0 20 3c 4d 7d f4 bb
       -0.012054024 0.0013435396 0.009803864 -0.007461226
0000b0 ad 51 08 3c b0 e1 02 ba 4b 2b 86 3b c0 cc f2 3b
       0.008320254 -0.00049927365 0.0040945164 0.007409662
0000c0 e7 26 e7 bb 43 fa 23 bc 4c 1a 13 bc 48 a3 17 bb
       -0.007054198 -0.0100083975 -0.008978438 -0.0023138095
0000d0 93 8b 32 bc 38 a9 84 3b 46 9e 19 3b 46 ca 75 bb
       -0.010897535 0.0040484928 0.0023440286 -0.0037504598
0000e0 6a d8 82 3c 1e 28 2f bc 37 02 56 bc 88 4c 93 ba
       0.015972335 -0.010690717 -0.0130620515 -0.0011238018
0000f0 f0 4b e4 ba 13 a1 a3 bb c1 8c 24 3a 09 ba 79 bb
       -0.0017417651 -0.004993567 0.00062770775 -0.003810527
000100 33 6b 32 bc ab e2 b8 ba 02 b5 84 bb 04 3a 0e 3c
       -0.010889816 -0.0014105638 -0.004049898 0.008680824
000110 a2 ea 50 3b 56 88 27 3b 33 33 4e bc 4f d3 9a 3c
       0.0031878133 0.002556344 -0.012585449 0.018899588
000120 08 c3 b1 3b 71 27 76 bb e0 6b 6f bc d1 b0 1e 3c
       0.005424861 -0.003756013 -0.014613122 0.009685711
000130 3f ea ad 3c be 37 9e bb 26 2c a6 bb bc f1 2a ba
       0.021229861 -0.0048284223 -0.005071181 -0.00065210066
000140 e0 92 8d 3c 06 e2 65 39 27 9d 10 3c 89 0d 17 bb
       0.01728195 0.00021923342 0.008826531 -0.002304884
000150 17 c4 03 bb d4 71 31 bc 01 8a 94 3a 01 79 c1 3a
       -0.0020105892 -0.010830361 0.0011332632 0.0014760793
000160 95 50 0c bc b1 7f 1f bc 58 6e 47 3c 01 f7 23 bc
       -0.008564134 -0.009735034 0.012172304 -0.010007621
000170 5b 9e de b9 54 90 31 3b 79 70 73 bd cc b1 ce bb
       -0.00042461124 0.0027094083 -0.059433434 -0.006307816
000180 2c 70 0f 3c 11 ba 0b bd 91 4e bc bb 3c ce 82 bb
       0.008754771 -0.034112994 -0.0057466705 -0.00399187
000190 94 df 2f 3c f0 8d 29 3b 63 23 3f bd 46 16 0f bb
       0.0107344575 0.0025871955 -0.046664607 -0.0021833344
0001a0 4b f6 05 bc 6e 43 38 bc 96 15 51 bc e0 17 55 3c
       -0.008176397 -0.011246545 -0.012761494 0.0130061805
0001b0 32 9b ca bb b4 6d 00 bc ec e1 31 3b 06 dd 10 3b
       -0.0061830515 -0.007838655 0.0027142717 0.0022104396
0001c0 d7 57 2c bb 73 3b 09 39 e9 01 b9 ba 5d 6e 9b bc
       -0.0026297474 0.00013087485 -0.0014114949 -0.018973524
0001d0 64 c0 3c bb 3f 4d 46 bb 90 e4 e8 3a ab 78 f7 bb
       -0.0028801197 -0.0030258445 0.0017768312 -0.0075522265
0001e0 a7 19 19 3c fd b3 17 bb f3 e8 70 bc f6 23 98 bb
       0.009344495 -0.0023148053 -0.014703977 -0.0046429588
0001f0 43 8b fa bb 2b 14 cc bb f1 32 89 3c 74 62 02 3c
       -0.007645996 -0.00622799 0.016747924 0.007958043
000200 5a fa 21 bb 11 85 86 bb 8b 64 4f 3b 13 86 97 3b
       -0.0024715872 -0.004105218 0.0031645622 0.004624137
000210 ec d5 1d bd a3 50 4d bd c1 42 fd 3b 06 c6 0c 3c
       -0.03853409 -0.05012573 0.007728905 0.008592134
000220 b9 98 a8 bb 00 80 71 bc 4e 40 42 bc 01 cb 08 bc
       -0.005145159 -0.01473999 -0.011856152 -0.008349181
000230 d6 82 54 bc 80 06 2e 3c 6c f5 74 bc 06 23 4c 3c
       -0.012970647 0.010621667 -0.014951091 0.012459522
000240 30 52 92 bc 66 e3 ba bb d5 de 27 bc e0 48 eb bb
       -0.017861456 -0.0057033775 -0.010245998 -0.0071803182
000250 77 a3 4a 3c 43 6a 7d bc af b0 fd 3b 90 c7 fd 3b
       0.012368075 -0.015467229 0.0077420096 0.007744737
000260 83 c5 c4 3b 25 53 65 bb 23 3b cb 3a ec bf 7c 3b
       0.0060049905 -0.0034992185 0.0015505295 0.0038566543
000270 c0 7c 1a bc 86 9a 02 bb e2 63 43 bc ca c8 11 bc
       -0.009429157 -0.001992853 -0.011925669 -0.0088979695
000280 de 88 de 3b 32 0e 3b 3c 67 07 42 bc 2c fb 5e bd
       0.006791218 0.011416959 -0.011842585 -0.054438755
000290 95 a1 40 bb fd b9 75 bc aa 48 d6 ba a2 05 e9 bb
       -0.0029393185 -0.014997956 -0.001634856 -0.007111267
0002a0 d1 5f c9 bb e6 a5 a2 bc 2c 0f 37 3c 09 0a 1e 3c
       -0.0061454554 -0.019854497 0.011173051 0.009645947
0002b0 7c b0 16 3c fe 38 90 bc 59 21 98 bb 70 80 35 bc
       0.009197351 -0.017605301 -0.004642647 -0.011077985
0002c0 03 01 e3 3b b8 cb 3b bb dd 4b 13 3c f0 ca 75 3a
       0.006927611 -0.0028655361 0.008990255 0.00093762483
0002d0 af 43 8e 3b a1 08 46 3c df b6 ae 3b 0c e9 2a bc
       0.0043415646 0.012087018 0.0053318585 -0.010431539
0002e0 29 b6 84 3b d4 a5 39 bc bf 48 48 bc 0e 03 91 bc
       0.0040500355 -0.01133104 -0.012224375 -0.017701652
0002f0 bb df 0e bb b3 7f 11 bc c3 83 ae 3b fe 42 43 3a
       -0.0021800834 -0.0088805435 0.005325766 0.0007448642
000300 9e f1 86 3a 27 26 08 3c 96 fa 69 3c 1a 64 fe bb
       0.0010295396 0.0083098775 0.014280936 -0.007763398
000310 dd fe a8 bb 70 77 b3 bb e7 db 21 bc cc a1 ce bb
       -0.005157335 -0.0054768845 -0.009879089 -0.006305909
000320 7a 59 25 bc 27 fc 3c 3b 23 87 13 3b 09 61 5d bc
       -0.010092134 0.0028836818 0.0022510968 -0.0135119045
000330 08 fb f6 ba 24 92 72 bb 9f b4 f1 3b 96 07 18 bc
       -0.0018843124 -0.0037013376 0.007376268 -0.009279152
000340 83 bc 06 bc f3 75 00 bc 87 4b 75 bc 99 9c e4 bc
       -0.008223656 -0.007840621 -0.01497162 -0.027906703
000350 3e 8d 2d bd 57 ce 6e 3b 96 91 7f bc 7a 36 68 bc
       -0.042371027 0.0036438906 -0.015598675 -0.0141731445
000360 e5 67 82 bb 6d 28 c2 bb d9 8b 53 3b cf 8f fc bb
       -0.0039796703 -0.0059252293 0.00322794 -0.007707573
000370 8d ac da 3b b7 a6 a3 bb 5e 40 2b bc 6e 1f 3d bb
       0.0066734017 -0.004994239 -0.010452358 -0.0028857845
000380 6c 54 05 3c 75 44 18 bc 7a 68 9e ba bc 57 0a bc
       0.0081378035 -0.009293665 -0.001208558 -0.008443769
000390 28 b6 27 3c 8f 38 df bb e0 24 ee bb c9 55 c4 bb
       0.0102363005 -0.006812162 -0.0072675794 -0.0059916717
0003a0 43 7a 74 bb 19 02 03 bc 15 e3 02 3c 1a c8 f5 bb
       -0.003730432 -0.007996106 0.007988711 -0.0075006606
0003b0 3c dc 90 bd 53 63 e5 bb 28 f8 1f 3c fd 51 09 3b
       -0.070732564 -0.0070003658 0.009763755 0.002095341
0003c0 77 12 8b ba 64 1c 77 bb 2c f1 9f 3b 3c a4 36 bc
       -0.0010610361 -0.003770613 0.004881045 -0.011147555
0003d0 d6 5a 0d 3c 5a 12 12 bc 86 d7 f0 3b 06 01 4d 3a
       0.008627614 -0.008915508 0.007349911 0.0007820282
0003e0 79 58 95 bc 64 97 90 3c 3c da 3a 3c 46 e4 d7 3b
       -0.018230664 0.017650314 0.01140457 0.0065884916
0003f0 ff 7c 3f 3c 39 1d a5 3c 2a fe 46 3c f8 13 f9 3b
       0.011687516 0.020155536 0.012145558 0.0076012574

network_body._body_endoder.seq_layers.2.weight f4 [256, 256]
000000 77 af 4b 3d c5 40 8d bd 30 bf 26 3e 78 e4 25 3c
       0.049727883 -0.068971194 0.1628387 0.010125272
000010 44 66 a6 3c d8 af e9 bd 4f 4e 35 3c e9 2f 54 3d
       0.020312436 -0.11410493 0.0110660335 0.051803503
000020 2f 7e 64 bd 59 ad 30 bb 04 71 ac bd 3c 4e 99 3d
       -0.0557844 -0.0026958792 -0.084199935 0.07485625
000030 a4 f2 03 3e 7b ef ac 3d fc 81 87 bd 05 2c e6 3b
       0.12885529 0.08444115 -0.066165894 0.0070242905
000040 45 24 b8 3c b5 57 e1 bd 7d 7d 26 bd 21 95 fb 3c
       0.022478232 -0.11003057 -0.04064702 0.030710759
000050 75 6d ef 3c 3a c3 50 3d 9a 3e 53 bd 5f 04 1b bd
       0.029226998 0.050967433 -0.051573373 -0.037845965
000060 42 e0 67 bd 39 96 a9 3c 12 e2 6f bd 25 76 8b 3d
       -0.056610353 0.020701515 -0.058565207 0.06809644
000070 66 b0 cd 3c e2 26 88 3d 47 ff 8a bc 6f e3 28 3d
       0.025108527 0.06648041 -0.016967429 0.041232523
000080 ab a0 ab ba 8e de 42 bd e9 be 27 bb 11 a4 00 bd
       -0.0013094147 -0.047575526 -0.002559597 -0.031406466
000090 2f 76 1e be 81 0f f0 3d af be c4 bd 0b 91 8c bd
       -0.15474771 0.11721707 -0.096066825 -0.06863602
0000a0 ca 2b 39 3e 30 39 78 bc 84 f9 51 bc 13 bd b9 3c
       0.1808311 -0.015150353 -0.012815837 0.022673165
0000b0 4a 56 93 3d e3 75 8a bc a9 af 53 bc fd d7 bf bd
       0.07194193 -0.016901916 -0.012920299 -0.09367368
0000c0 04 8b ca bd 0f f1 f8 bd 9b 52 51 bd b0 35 7e bc
       -0.098897964 -0.12155353 -0.05110417 -0.01551573
0000d0 ca cb 0e bd 63 51 63 bc 12 1b 74 3d 30 5a 06 be
       -0.034862317 -0.013874385 0.05959613 -0.13120341
0000e0 e3 e7 31 3d 6f ad 27 3d 3d 6c 57 bc d2 cd de 3c
       0.043434035 0.040936884 -0.013148365 0.027197752
0000f0 34 fa 16 3d dd 88 84 3c bb c5 d7 3c b7 0d 7d 3d
       0.036859706 0.016178543 0.026339402 0.061780658
000100 2c 3d df 3c 55 7c 78 bc 63 af cf 3d c4 32 1f 3e
       0.027250849 -0.015166362 0.10140874 0.1554671
000110 32 d6 c6 bc 09 ba 8f bc 18 02 c6 3d b3 ca d9 bd
       -0.024272058 -0.017544763 0.09668368 -0.10634365
000120 a3 3f 48 bd fa fa a2 bc 4d 87 52 bd 94 08 38 3d
       -0.048888814 -0.019895066 -0.051398564 0.044930056
000130 f5 fe f7 3d a8 f8 12 bd 55 f3 07 3e 3b ef 80 bd
       0.12109176 -0.03588167 0.13276418 -0.062956296
000140 61 08 5b bd 9e 06 b5 bd b0 00 7b bd e3 5b e2 bd
       -0.053474788 -0.08839153 -0.061279953 -0.11052682
000150 d5 6d 21 be cf 21 cc bd ae 43 9e 3b f1 a9 e2 bc
       -0.15764554 -0.09967386 0.0048298454 -0.027668925
000160 9d de a2 bd fe 26 a2 3c 84 88 6d bd d4 c0 6f bc
       -0.07952616 0.019793984 -0.05799152 -0.014633376
000170 d9 55 b2 bc 54 90 89 3d 7a a8 16 bd 0e b0 19 be
       -0.021769451 0.067169815 -0.036781766 -0.15008566
000180 ed 0f 94 3d 34 e8 4a 3c 2b 1f dd 3d 8e 08 31 3b
       0.072296 0.012384463 0.107969604 0.0027013156
000190 be 90 de 3d 38 b9 4d 3c 0f 12 3d bd e1 4e 66 3c
       0.10867451 0.012556367 -0.0461598 0.014056892
0001a0 17 b7 f1 bd 63 14 96 bd a3 0f 0b be 5e 5b 98 3c
       -0.118025 -0.07328107 -0.13580184 0.018598255
0001b0 e1 9e 99 3d 67 81 66 bd fa 0a 74 3d 28 92 1a 3d
       0.07501007 -0.05627575 0.05958078 0.03773704
0001c0 82 19 40 3c 5a 99 c1 bc 48 02 e4 3b 0b 45 81 3c
       0.011724832 -0.023632694 0.0069582798 0.015779993
0001d0 6b fb 21 3d f5 a9 97 3c 87 ba ad 3d a6 3c 65 bd
       0.03954641 0.018513659 0.08482843 -0.055966042
0001e0 5a c0 a2 3c 37 dd 85 bc 46 ce 13 3d 0f 64 b5 bb
       0.019867111 -0.016340835 0.03608539 -0.0055356096
0001f0 68 c1 5d bc e8 05 34 bc 44 5e 86 3c 0e f4 d4 bc
       -0.013534881 -0.010987736 0.016402371 -0.02599528
000200 c6 68 07 bd 78 04 26 3d 79 bf 57 3d cf 44 3c bd
       -0.033058904 0.040531605 0.052672837 -0.04596406
000210 f4 45 08 3d c9 31 bd 3c 59 8f 1c bd 73 9c 76 3c
       0.033269837 0.023095028 -0.038222644 0.015051949
000220 de 6d 06 3d a6 6b 34 bc 1c ad 21 bd f2 3b d8 bd
       0.03281962 -0.0110119935 -0.03947173 -0.10558309
000230 67 33 86 bb 8a e9 c5 3c 22 85 f3 bd 1e 51 71 bd
       -0.004095483 0.024159212 -0.118906274 -0.05891525
000240 4e f5 48 bd e2 45 2f bb b1 30 8d bd 49 42 1f 3b
       -0.049062066 -0.0026744534 -0.06894053 0.0024300984
000250 c2 a6 44 be 2b ab 91 3c 7b e8 90 3d 3c 78 93 3c
       -0.19204238 0.017781815 0.07075592 0.018001668
000260 3f e6 3f 3c 16 49 83 bd 76 aa 60 bd e8 74 3a bd
       0.01171261 -0.064104244 -0.054850064 -0.045521647
000270 93 cc 9d 3d 14 ee 31 bd b4 34 0f 3d 16 cd da bb
       0.07705035 -0.04343994 0.03496237 -0.00667728
000280 1b 39 2a bd 61 09 ef 3d 62 72 87 3d 80 80 a5 3d
       -0.041558366 0.11671711 0.06613614 0.0808115
000290 7e 79 06 3d 67 cf 03 3b 15 63 e5 bc 54 ec b4 bd
       0.032830708 0.0020112635 -0.028001348 -0.088341385
0002a0 77 a1 0e be c3 57 24 3d 1a de 7b bd a8 fc 52 3d
       -0.13928781 0.04012276 -0.06149111 0.051510483
0002b0 8f 06 9f bd ce ba ed bd 04 9b 55 bc 4d 2c ba bb
       -0.07764923 -0.11607896 -0.013037447 -0.0056815506
0002c0 d1 dc fe bc 6f ac e5 3b 68 54 a2 bd b5 64 2a be
       -0.031111153 0.007009081 -0.079262555 -0.16639979
0002d0 54 d1 16 bd 8e 4c 1d bc a4 74 32 bd e8 fd 69 3d
       -0.036820725 -0.009600772 -0.04356827 0.05712691
0002e0 7a ec c3 bc 5b 6c a1 bc 46 d6 25 bd 98 b6 19 3d
       -0.023916472 -0.019704988 -0.04048755 0.03752765
0002f0 42 87 94 3c 21 5d df 3d 53 4c d5 3c 95 e2 8f 3d
       0.018130902 0.10906435 0.02603737 0.07025639
000300 73 80 8e bd b6 90 ab 3d 2e 0f c6 bd d7 75 b8 3b
       -0.069580935 0.08377211 -0.09670864 0.005629282
000310 2b 74 05 3e 74 2e 45 bc 3a 30 e1 bc c7 f2 5d bd
       0.13032596 -0.012035001 -0.027488817 -0.05418661
000320 a9 c2 dd bc dd 54 b6 3d f8 28 d6 3b fe a7 0d bd
       -0.02707036 0.08902905 0.0065356456 -0.034584038
000330 b1 5e a2 bd be 0e 9a bd 88 d9 c2 3d d8 48 9d bb
       -0.07928217 -0.07522343 0.09514147 -0.0047999434
000340 1b da ec bd cd df 19 3d d2 ef e4 3d 20 b9 3c bd
       -0.11565038 0.03756695 0.111785546 -0.046074986
000350 77 59 b2 bb b3 ad b4 bd bc 82 04 3e 73 d6 0e bd
       -0.005442794 -0.08822193 0.12940496 -0.034872483
000360 47 dd b1 bb f8 4f 81 3d ea 86 73 3d 83 5c a3 bd
       -0.0054279896 0.06314081 0.059454836 -0.079766296
000370 00 dd 17 3d 9a 7b c2 bd ea a1 2f bc 1c 38 b2 3d
       0.037075996 -0.094962314 -0.010719756 0.08702108
000380 8e fa 17 bd 09 52 2b bc 09 a0 5f 3d 98 80 78 bd
       -0.037104182 -0.01045657 0.05459598 -0.06066951
000390 bc 35 8e bd 5e 5a 9f bd 48 69 2f bc c3 7e ce bc
       -0.06943843 -0.07780908 -0.010706253 -0.02520693
0003a0 d2 11 32 bd 7d 6a 5c bd c4 54 10 3e 3f d4 b2 bd
       -0.043474026 -0.053812493 0.14094836 -0.08731889
0003b0 3c 43 9c bc 80 e9 0d 3d 6d 53 f2 3d f2 5b 88 bd
       -0.019075029 0.03464651 0.118323185 -0.06658162
0003c0 1d 23 5f 3d 2f 55 6c bc ba 03 91 3d 0b d6 b1 bc
       0.054476846 -0.014424606 0.07080789 -0.021708509
0003d0 35 17 0a 3d 28 fe 0a 3d a6 d6 9f bd 2a f3 0b 3c
       0.03371354 0.03393379 -0.07804613 0.008541862
0003e0 54 5a cf bd b2 13 e3 bd 32 ae db bc 16 58 ff 3c
       -0.101246506 -0.11087741 -0.026816461 0.031169932
0003f0 fe 28 1f bc f9 d9 8f 3d ac e5 a9 bc c6 a7 77 3d
       -0.009714363 0.07023997 -0.020739399 0.060462736

network_body._body_endoder.seq_layers.2.bias f4 [256]
000000 97 1e 18 bc e7 76 87 3a 9b 12 0b bc 50 d1 08 bb
       -0.009284637 0.0010335118 -0.008488323 -0.0020876713
000010 74 3c 24 bc 19 93 5e 3b c1 18 91 bc 63 1a 44 bc
       -0.010024179 0.0033962189 -0.017711999 -0.011969182
000020 14 3e 67 3a d1 88 71 bb 65 36 91 bc 17 0a ce bc
       0.0008821201 -0.003685523 -0.017726133 -0.025151296
000030 19 c8 89 bb 33 ee 8c bc 85 3d a2 bb 3d ae 32 bc
       -0.0042047617 -0.017203426 -0.0049511814 -0.010905799
000040 19 a9 17 bc 38 e7 5d bc fa 88 3d bc 90 d9 cf bc
       -0.009256625 -0.013543896 -0.011568302 -0.025372297
000050 4d 43 84 3b 50 9f 22 3a 80 f3 c3 bc 4d e8 62 bb
       0.004036343 0.0006203549 -0.02391982 -0.0034623325
000060 6c c7 5b bc d4 62 d4 bb 4c 3e 62 3b 97 0c 18 bc
       -0.013414245 -0.006481508 0.0034521995 -0.009280345
000070 cb 73 6d bc c0 8c 35 bc 98 d6 e9 bc 05 37 02 bc
       -0.014492939 -0.011080921 -0.02854471 -0.007947688
000080 db 20 fc 3a d0 a8 80 3a 15 ed 94 bb b7 d5 be ba
       0.0019235866 0.0009815935 -0.004544864 -0.0014559542
000090 c9 43 22 3c 7d 88 73 bc ee fa 7b 3b 62 fc b0 bc
       0.009903857 -0.014864084 0.0038449126 -0.02160472
0000a0 cb 8f 38 bc eb fa bd bc ef 45 82 3b 86 3a 89 3b
       -0.011264752 -0.023190936 0.003975622 0.0041878847
0000b0 a0 6a 05 3c 5e 6a 1d bb c2 19 bf 3b 9b 86 85 bc
       0.008143097 -0.0024019699 0.005831928 -0.016299536
0000c0 af d0 30 3a 0c 40 0e bb 68 47 81 bc a9 bb d0 bb
       0.00067449635 -0.0021705655 -0.01578112 -0.006370027
0000d0 5e 93 78 bb da 2f 31 bc 10 3a 41 3b 45 51 1e bc
       -0.0037929635 -0.010814631 0.002948407 -0.009662931
0000e0 4d 06 2e bc 4b f4 53 bc 3c ad 6e bb 11 d6 a1 bb
       -0.010621619 -0.012936662 -0.0036419174 -0.004938849
0000f0 14 a4 bc 3b ea 1e d7 bc f3 cc b1 bc d5 18 a0 bb
       0.0057568643 -0.026259858 -0.021704173 -0.0048857727
000100 89 fa 6b bc eb 81 60 bc 04 8d 31 3c 38 c2 99 bc
       -0.014402994 -0.01370285 0.010836843 -0.018769369
000110 f8 5b 3e bc 9c f0 a6 bb 63 d6 90 ba 1c cb 28 bc
       -0.011618607 -0.005094601 -0.001105022 -0.010302331
000120 90 ac a2 bc ab 4a 10 bd 96 16 b7 bc f3 d9 aa bc
       -0.019857675 -0.03522746 -0.022349637 -0.02085588
000130 0c 86 ac bc 3d f7 16 3b e8 d8 20 bc cf 6f 82 bc
       -0.021060012 0.002303555 -0.0098173395 -0.015922455
000140 c8 f5 14 3a 7c 01 d7 bc 9b 78 7c bc e0 d6 54 bc
       0.0005682376 -0.026245825 -0.015409614 -0.012990683
000150 57 55 ba 3b be 22 65 bc 4a 14 e3 bc 35 ff 64 bb
       0.005686443 -0.013985334 -0.027719636 -0.0034942154
000160 56 bd a0 bc 93 c2 2b bc 40 de 3f bc 24 fe 71 b8
       -0.019621532 -0.010483402 -0.011710703 -5.7695564e-05
000170 19 71 ba bc 8f 42 26 bd 1f a4 13 bd 98 37 92 bc
       -0.022759007 -0.04059082 -0.03604519 -0.017848775
000180 6d f8 6e bc 79 2c a7 bc e8 c3 cd bc 10 21 5a 3b
       -0.0145855965 -0.020406948 -0.02511783 0.0033283867
000190 f6 b1 38 bc 02 48 9a bc af c7 81 bc 39 fa 86 bc
       -0.011272898 -0.018833164 -0.015842287 -0.016476737
0001a0 70 ac 3b bc ce 63 a4 bb eb 02 4e bc 5a 40 6b bc
       -0.0114546865 -0.0050167805 -0.012573938 -0.014358604
0001b0 d4 9d db bc 39 ed 7f bc a3 9d 86 bc 92 a2 49 3c
       -0.026808657 -0.015620523 -0.016432589 0.012306826
0001c0 70 90 19 bc 0b 8e 2f bc eb 32 9a bc 91 67 2f bc
       -0.0093728155 -0.010715018 -0.018823108 -0.0107058445
0001d0 e6 50 9b bb b3 b0 31 3a 8b 50 34 ba ef fb 96 bb
       -0.0047398685 0.00067783444 -0.0006878457 -0.0046076695
0001e0 54 6b 49 bc 11 cd 86 bc 54 5f a2 bc b6 1a 51 bb
       -0.012293655 -0.016455205 -0.019820847 -0.003190679
0001f0 24 7f e2 bc 69 81 2d bb d3 3b f1 bc 89 48 28 bc
       -0.027648516 -0.002647484 -0.029447472 -0.0102712
000200 4f 6c 8d bc 74 88 19 3c 1c 35 7f bc 7f 69 e1 3b
       -0.01726356 0.009370912 -0.015576627 0.006879031
000210 39 fe 47 bc 50 a3 93 bc e9 27 a9 bc a0 68 90 bc
       -0.0122066075 -0.01802221 -0.020648913 -0.017628014
000220 5f 10 9d bc 25 7f 18 3c a3 58 de bb ef 65 ef bc
       -0.019172845 0.009307657 -0.0067854687 -0.02922341
000230 9a 83 31 bc 58 b0 e7 3b 5c 5c 7e bc b5 16 c8 bb
       -0.010834599 0.0070705824 -0.01552495 -0.0061062225
000240 13 00 4a bc 50 9c 2b 3a 89 54 60 bc 95 36 da bc
       -0.012329119 0.00065464247 -0.01369203 -0.026637355
000250 c5 ae 9b bc 0b 82 1c bc ad f7 22 bc 09 4b 74 bc
       -0.019004235 -0.009552489 -0.009946746 -0.014910468
000260 15 61 a4 bc 72 e7 aa bc b9 42 17 3b 8b a3 c2 39
       -0.020065824 -0.020862315 0.0023080541 0.00037124412
000270 2d 56 53 3c 5c db e4 bb 04 60 03 bd 87 07 a6 bb
       0.012898964 -0.0069841575 -0.03207399 -0.0050668153
000280 54 8a 0a 3c 90 1b 2c 3b ec f4 44 bc 91 b5 96 ba
       0.008455832 0.0026261546 -0.012021285 -0.0011498203
000290 21 60 0c 3b 23 6b 10 bb 8d 2d c7 bc 3d 80 92 bc
       0.0021419602 -0.0022036515 -0.024313712 -0.017883414
0002a0 65 70 da bc 44 8d 7f bc 16 ca 0d bc c3 40 9e 3a
       -0.026664922 -0.015597645 -0.008654138 0.0012073744
0002b0 aa 2b 5e 39 86 4a dd bc 13 a7 65 bc 9f cc da 3b
       0.00021187836 -0.027013075 -0.014016884 0.0066772248
0002c0 1e db fc bb 21 2c a4 bc f3 3a 4a bb 4e b6 02 bd
       -0.0077165505 -0.020040574 -0.003085789 -0.03191214
0002d0 17 a2 06 bc c4 9c 91 bc a8 11 1a bc 3b 82 8e bc
       -0.008217356 -0.017774947 -0.009403624 -0.017396083
0002e0 01 36 8f bc c6 ef 59 bc 8b ce db bb 80 50 19 3c
       -0.017481806 -0.013301795 -0.0067079714 0.009357572
0002f0 61 5c 71 bc 0d 7f 02 3c d1 54 e0 bc 0e 4f 4a bc
       -0.0147314975 0.007964862 -0.027384194 -0.01234795
000300 34 0c 95 bc 23 08 1c bc 18 12 14 bb 1d 8b 46 bb
       -0.018194295 -0.009523424 -0.0022593793 -0.003029532
000310 95 20 a7 bc 8f 5d 5b bc e4 97 84 bc fe 11 66 bc
       -0.020401279 -0.013389005 -0.016185708 -0.014042376
000320 23 e2 80 bc c7 47 48 bb a5 10 5d bc 9e 9c f7 bb
       -0.01573283 -0.003056036 -0.013492738 -0.007556512
000330 b3 54 21 bc 38 c6 46 bc 1a e3 7a b9 ab c7 b9 bc
       -0.009846854 -0.01213222 -0.0002392646 -0.022678217
000340 58 d5 41 bc 6b 61 2e bc 62 c0 e2 bc d9 ce 91 bb
       -0.01183065 -0.010643343 -0.027679626 -0.004449707
000350 b2 ab bf bc 95 0f 04 bd a4 f2 b2 bc 73 64 e8 bb
       -0.0233973 -0.032241423 -0.021844216 -0.0070920526
000360 cf 3f 6c bc ab 87 e6 3b 58 c7 0a 3c ce ac b3 bc
       -0.01441951 0.007035216 0.008470379 -0.021932986
000370 8a 3b 6f bc f7 1b 06 bc be 5c fb bb 06 70 a9 bc
       -0.014601598 -0.008185378 -0.007670968 -0.0206833
000380 23 22 ad bb d7 9e 37 bc d5 57 39 bc 62 df 7b ba
       -0.0052836104 -0.011207304 -0.011312445 -0.0009608177
000390 6e 26 9b bb 50 0e a3 bc ee bc 2a ba fc 3c d5 38
       -0.004734806 -0.019904286 -0.0006513138 0.00010167991
0003a0 5b 37 54 3b b6 99 08 bc f9 4f 5b 3a 61 6d 99 bb
       0.0032381627 -0.008337429 0.0008366104 -0.0046822284
0003b0 d4 c5 a2 bb d3 94 4a 3c 4f 0b bd bc ea 18 d5 ba
       -0.0049674306 0.012364584 -0.023076681 -0.0016258035
0003c0 f7 57 69 bc 6a 33 87 bc 41 ca 6d bc fa ce 36 bb
       -0.014242164 -0.016504008 -0.014513553 -0.0027894364
0003d0 08 b5 a1 bc e3 ae 15 bc ac be c7 bc 79 73 d5 bc
       -0.019739643 -0.0091359345 -0.024382912 -0.026056038
0003e0 e2 2f 3c bc f1 f0 7a 3b f8 41 3a bc be ff 59 bb
       -0.0114860255 0.0038290585 -0.011368267 -0.0033264006
0003f0 87 55 a4 bc 2f ff 4c bc 9d 82 a2 bc 3b d8 fa bb
       -0.020060314 -0.012512012 -0.019837672 -0.007655171

action_model._discrete_distribution.branches.0.weight f4 [3, 256]
000000 fb 54 1d 3b d9 fe be 3c 19 ca 2d 3c 3e f9 16 3d
       0.002400695 0.02331488 0.010607266 0.03685879
000010 d9 dc 48 ba 44 1a e7 3b db 1f 9f 3c 51 07 ee bb
       -0.00076623034 0.0070526917 0.01942437 -0.007264056
000020 6c 2a 07 3d 2a eb 21 bb ac 9d 08 bd 05 d1 88 bb
       0.03299944 -0.002470682 -0.033353493 -0.0041753077
000030 14 4e e4 bc c6 92 11 bc 58 59 e4 3b 33 5c d2 3c
       -0.027869262 -0.008885091 0.0069686584 0.02567873
000040 a8 4a 9e bb e5 80 03 bb e2 46 e2 3c f5 ce c0 3c
       -0.004830677 -0.002006584 0.02762169 0.023536185
000050 df 8e ec bb 95 16 c8 bc b8 c5 aa bc 36 e8 0d 3d
       -0.00721918 -0.02442483 -0.020846233 0.03464528
000060 83 ea bf 3b d5 4b 1f 3c 13 94 17 bc 6d 82 5a bc
       0.0058568134 0.00972267 -0.009251612 -0.01333676
000070 21 3d 37 bd 79 31 a6 3c ea 3e 81 3c 80 35 81 bc
       -0.04473603 0.020287262 0.01577707 -0.015772581
000080 4d c2 d8 bc c3 bb 9d bb 68 7b 98 bc 3a 75 dd bc
       -0.026459837 -0.0048136427 -0.018613532 -0.027033437
000090 3c 5f 14 bc b1 8f ab 3c c9 11 90 3b e3 f3 06 bc
       -0.009055909 0.02094254 0.0043966514 -0.008236858
0000a0 73 1e 91 3b ba 8b df bb 56 cb 53 bc 28 15 9e bb
       0.0044286787 -0.0068220766 -0.012926897 -0.0048242994
0000b0 9c d1 b4 bc 3a 11 ab 3c bc 81 64 3d ca 7e ed 3c
       -0.022072606 0.020882238 0.055787787 0.028991122
0000c0 c8 95 82 3a de af d0 3b da 76 84 3a 62 a2 6c 3b
       0.0009962851 0.0063686213 0.0010106221 0.003610753
0000d0 21 9b 51 3c 60 17 65 3c 0a 80 ac 3c df e2 2a bc
       0.012793333 0.013982624 0.021057148 -0.010430067
0000e0 c9 71 c6 3c 7a 53 d3 3c e2 2a 7c 3b 2c de 72 bc
       0.024224179 0.02579664 0.0038477709 -0.014823478
0000f0 71 67 4c 3c 33 91 df 3c da 5e e0 3b 18 59 8f 3a
       0.012475834 0.027290916 0.0068472447 0.0010936586
000100 75 cf cb bb 59 37 1d 3c 7e 31 75 bc 96 34 17 3c
       -0.006219799 0.009595715 -0.014965413 0.009228846
000110 ae f4 9c bb 4a 4a c9 bb e2 7f e1 ba 2a aa 3e bd
       -0.0047899103 -0.006142889 -0.001720425 -0.046549
000120 b7 71 9a bc f0 f2 09 bc 78 2c 89 3a e8 7d 04 3d
       -0.018853052 -0.008419737 0.0010465523 0.032346636
000130 9f a7 91 bc 52 8c d1 ba 02 af 54 3c 0d 64 cc 3c
       -0.017780123 -0.0015987253 0.012981178 0.024950052
000140 93 76 c1 39 b3 1a dd ba 73 82 8d bb 8b d1 a0 bc
       0.00036900173 -0.0016868919 -0.0043185293 -0.019631168
000150 a7 11 ed 3c 94 9c aa ba d9 7d 20 bc b2 68 19 3c
       0.028939081 -0.0013016635 -0.009795629 0.00936334
000160 38 83 80 3c 26 7e b8 bb b9 4f 95 3c 1a ab b3 3c
       0.01568757 -0.0056302724 0.018226491 0.021932174
000170 af ce 3f bc 0a ec b5 bc c1 5c b9 bc df d2 71 bc
       -0.011706992 -0.022207279 -0.022627236 -0.014759748
000180 f4 6f 8a ba 0c 44 b5 3c 3d 71 7f 3a b5 b7 91 bc
       -0.0010561929 0.022127174 0.0009744352 -0.017787794
000190 a3 b0 07 bd ef f4 a9 3c ae 5d d1 3b fa 62 36 ba
       -0.03312744 0.020746676 0.0063893413 -0.00069574977
0001a0 8d 51 fc 3b ce 7e 82 3d b2 ed d3 3c 54 6d 41 3b
       0.0077001513 0.06371842 0.025870178 0.0029514628
0001b0 92 1f 14 bd df 8c 6e bc 45 ac 49 3b 64 63 dd 3c
       -0.03616292 -0.0145599535 0.0030772847 0.027024932
0001c0 e4 9e 6d 3a 83 48 98 bc 7b a1 4e 3c f0 ee 75 38
       0.0009064509 -0.018589264 0.012611742 5.863508e-05
0001d0 e8 b5 de ba 01 62 58 bc 02 46 8d 3b bc 4c b5 3c
       -0.0016991468 -0.01320696 0.004311324 0.022131316
0001e0 90 c8 32 bc 75 48 fe 3b 8b 85 87 bc 80 e7 c2 bc
       -0.010912076 0.0077601024 -0.01654317 -0.023792028
0001f0 20 96 0f bc 9a 18 26 39 f6 3f 2f bd 7d 7b f8 bb
       -0.00876382 0.00015840158 -0.042785607 -0.0075830803
000200 ec fb f2 3c 9a 07 70 bc 18 ab 98 bb 25 50 ac 3c
       0.029661141 -0.01465025 -0.004659068 0.02103431
000210 0b f6 99 3c 84 22 65 bc 90 15 a8 bc d2 25 b5 bc
       0.01879408 -0.01398528 -0.020518094 -0.02211276
000220 43 bf 3f 3c 8b 07 3f 3c 49 36 d0 3c 0b 5e 82 bc
       0.011703315 0.011659513 0.02541651 -0.015913984
000230 3f 6d a9 3c cf e1 93 3c 8b 9c 20 bd db db 74 3c
       0.020681975 0.01805201 -0.03921179 0.014944996
000240 ab 31 b8 bc 04 97 af bc 76 b2 2b 3c 9c 91 13 bd
       -0.022484621 -0.021434315 0.01047956 -0.036027536
000250 5a bc e2 3a 96 ee df 3b d0 27 a1 bc 74 1c 08 3d
       0.0017298565 0.0068338616 -0.019672304 0.03323026
000260 02 e8 23 3c 60 af 09 3d ff 28 52 bd 41 b4 ef bc
       0.010004045 0.033614516 -0.05130863 -0.029260756
000270 5e 29 ac 39 73 db 24 bd ba 17 cb 3c 0c 4c 12 bb
       0.00032837217 -0.040248346 0.024791587 -0.002232316
000280 65 3f 46 3a 34 ef 46 bc be 83 0d bd 73 29 bc 3c
       0.0007562547 -0.012141991 -0.034549467 0.022968983
000290 ee 09 04 bd 8c 7b 86 3c 96 2a 42 bc de 97 f6 3c
       -0.032236032 0.016416334 -0.011850974 0.030101713
0002a0 f8 83 79 3c 90 ac 45 3c 0d 4b 1a bd 66 f6 99 3c
       0.015229218 0.012065068 -0.03766923 0.01879425
0002b0 75 04 be 3c 09 c8 fc bc af 25 4d bc 43 35 dc 3c
       0.023195485 -0.030857103 -0.0125211915 0.026880866
0002c0 07 1b d3 3b 54 8c 3b 3d 3f 58 98 bc 9e 32 03 3d
       0.006442431 0.045788124 -0.018596767 0.032030694
0002d0 55 77 40 3c 53 68 c0 3b eb ea 55 3c f3 04 f9 bc
       0.011747201 0.0058718114 0.013056497 -0.030397868
0002e0 3a 3b 70 3b 25 3d cf bc 5a c2 a1 bb 41 05 14 bc
       0.0036656396 -0.02529771 -0.0049364986 -0.009034456
0002f0 16 a3 6e 3c e1 e5 cb 3b 3d 87 19 39 0c 87 f0 bc
       0.01456525 0.006222472 0.00014641597 -0.02936127
000300 3b 0a 00 3d 7c 4e a5 3b 97 83 a1 ba b2 a0 04 3d
       0.031259757 0.0050447565 -0.0012322542 0.032379813
000310 df 48 de bc fb f4 bf 3c a6 92 62 bd 80 a2 52 3b
       -0.027134357 0.023432245 -0.055315636 0.0032140315
000320 76 4e a1 3c 02 2e 99 3c 17 ad 4b bc a8 6e d0 bb
       0.019690733 0.018698696 -0.012431405 -0.0063608475
000330 e0 df 0f bc d4 ab c9 3b ec 49 8f 3c 49 69 69 bc
       -0.008781403 0.0061545167 0.017491303 -0.014246293
000340 8d 57 74 bc db 36 f3 3b 97 ce 51 3c 5a ea 97 3c
       -0.014913452 0.0074223108 0.0128056025 0.018544365
000350 62 4e a6 3c 20 f1 e4 3b f3 24 a3 3c 09 3c f2 3b
       0.020301048 0.006986752 0.01991508 0.0073924107
000360 8f 09 d1 b9 be c3 d0 3c a6 4a 83 bc c4 97 af 3c
       -0.00039870708 0.025483962 -0.016026806 0.021434672
000370 7f 44 2e bc 4f 81 4d bd 64 4d 8a bc b7 4b 77 bc
       -0.010636448 -0.050172146 -0.016882606 -0.015093735
000380 75 05 f5 bc ed 30 23 3c 99 dc 90 3c 39 c4 64 bc
       -0.029909829 0.009960395 0.017683314 -0.013962799
000390 b7 b8 93 3c 01 84 f5 bb d0 a1 a1 3b 5e c0 b6 3c
       0.018032415 -0.0074925427 0.0049326196 0.022308525
0003a0 f1 11 b5 3c 9a ad ae 3b 29 fd 93 3c e7 ad b2 bb
       0.022103282 0.0053307535 0.018065052 -0.0054528597
0003b0 03 00 21 bc c1 bd 33 bd db de 86 3c 93 8c f5 bb
       -0.009826663 -0.043882135 0.016463688 -0.0074935644
0003c0 bb 59 c2 bc da 4d 0d 3b a6 25 ca 3b bd 23 07 3d
       -0.023724427 0.0021561296 0.006169039 0.032993067
0003d0 59 6a a3 bc db f7 0c 3c f6 41 0c bd 02 c0 08 bd
       -0.019948171 0.008604015 -0.034242593 -0.033386238
0003e0 82 b6 6e 3c ea 36 a9 bc f1 8e 6f 3c ef 88 a6 3c
       0.01456988 -0.020656068 0.014621482 0.020328967
0003f0 85 74 21 3c f6 4f d2 3c 2d 27 6a 3c b6 01 83 bb
       0.009854441 0.025672894 0.014291567 -0.0039980067

action_model._discrete_distribution.branches.0.bias f4 [3]
000000 62 35 6f 3c 67 d1 93 3c 09 65 0c bd
       0.01460013 0.018044187 -0.034276042

action_model._discrete_distribution.branches.1.weight f4 [3, 256]
000000 05 be 47 3d df 81 e1 3b 7c 87 7a bb e6 da 37 3c
       0.0487652 0.006881937 -0.0038227728 0.011221623
000010 1f 0d e8 3c dd 0e b9 3b 0b e1 96 39 e5 a9 8f 3b
       0.02832657 0.005647524 0.000287779 0.0043842667
000020 f9 38 63 3c 8a ae 7f 3c 3c 66 b6 bb 09 96 b1 bc
       0.013868564 0.015605578 -0.0055663865 -0.021677988
000030 c6 a6 bb 3c f3 1d 90 3c b1 ec 24 bb e4 c8 c0 3c
       0.022906672 0.017592406 -0.0025165493 0.023533292
000040 ec 2b cf 3c 83 ce 27 bc 41 57 d4 3c f7 65 ee bb
       0.025289498 -0.010242107 0.025920512 -0.0072753388
000050 0c 9d 5b bc 04 98 01 bb 48 9e a2 bc 2b 06 46 bb
       -0.013404142 -0.0019774446 -0.019850865 -0.0030216079
000060 02 aa 87 bb 0d 03 d6 3c 94 b2 2e 3c 10 bd 62 3b
       -0.0041401396 0.026124502 0.0106626935 0.0034597553
000070 b5 00 78 bb 76 9e 29 3c c2 fa 61 3c ad 55 f8 38
       -0.0037842218 0.010352721 0.0137926955 0.0001184152
000080 a7 b6 3a 3c fe 2c 39 bc 89 d4 1a 3b b4 4c 8b bc
       0.011396087 -0.011302231 0.0023625216 -0.017004348
000090 75 07 90 bc 8e 5d a3 bb f7 6c 33 3b 1d 13 40 bc
       -0.01758168 -0.004985518 0.002737818 -0.011723307
0000a0 04 f8 9e bb 73 b3 f4 bb 47 50 8f bc 71 79 48 bb
       -0.004851343 -0.007467681 -0.017494334 -0.0030589963
0000b0 0b 11 b2 3c 96 eb a4 3c 87 32 ea 3b 51 ff 02 3b
       0.021736642 0.020131867 0.0071471366 0.0019988606
0000c0 ad 47 ec bc f6 bd d6 3c 8d dd 24 bc ff cc 1f 3d
       -0.028842771 0.026213627 -0.010062587 0.03901386
0000d0 56 c5 d4 bb f7 b4 0e bb bd 97 9d 3b be 8b f9 bc
       -0.006493251 -0.0021775344 0.0048093484 -0.030462142
0000e0 6e 87 1f 3b 40 aa b0 bc d8 9c 0d bc e0 4e 3f 3a
       0.0024342197 -0.021565557 -0.0086433515 0.0007297825
0000f0 25 50 80 bc 43 fc 30 3c d2 c6 5e bc 26 6c 82 3b
       -0.015663216 0.010802331 -0.013597207 0.0039801775
000100 3b bb 1b bd ad 4b cf bc 26 7a 24 3d 1e 63 50 3b
       -0.038020354 -0.02530464 0.040155552 0.003179736
000110 58 f5 89 bb d6 e0 12 3c 19 a4 1f bc 11 59 23 bb
       -0.0042101555 0.008964738 -0.009743714 -0.0024924914
000120 b1 7b ed 3c a2 91 6b bc 35 d2 45 bc 86 5b fa 3b
       0.028989645 -0.014377983 -0.012074043 0.007640305
000130 c1 31 00 3d ff a4 ab 3a 14 cf fd bb 90 1d 6e 3c
       0.03129745 0.0013095437 -0.007745633 0.014533415
000140 ba e5 cc bb 3a 9c ba 3b 39 2d 98 bc fc 7b 4a bc
       -0.0062529715 0.005694893 -0.018576251 -0.012358662
000150 8c 42 9f 3b 3b 49 fe bb 8b 6d a7 bc 96 80 55 3c
       0.004860228 -0.0077601946 -0.020437976 0.013031146
000160 83 ae a2 bc dc fa b7 bb 06 15 ab 3b 7c 4b 49 bc
       -0.019858604 -0.0056146216 0.005221012 -0.012286063
000170 8a b4 56 bb 40 86 10 bc 56 b3 56 ba 90 10 c8 39
       -0.0032761418 -0.00882107 -0.0008190175 0.00038159313
000180 36 87 7d 3c 6c c7 c8 3c 8f 91 86 3c 8f 45 f5 bc
       0.015474131 0.024509154 0.01642683 -0.029940395
000190 08 56 34 bd 1d 63 03 3b 69 19 a6 3c 71 71 24 3c
       -0.04402736 0.002004809 0.020275788 0.010036812
0001a0 22 b4 e5 3b 16 db 8e 3a 31 84 90 3b 37 2d 98 3b
       0.007009999 0.0010899033 0.0044102897 0.004644062
0001b0 f7 42 3a ba a8 de 56 bc 2f c9 af 3c 4b 1d 95 3c
       -0.00071053155 -0.013114609 0.021458237 0.018202445
0001c0 1a db 13 3b 03 28 68 bc 2f b8 97 bb 95 90 09 3c
       0.0022561015 -0.014169696 -0.0046301107 0.008396287
0001d0 57 22 ac 3c ba c6 ac bc 60 a8 a7 bc 59 30 3c 3c
       0.021012468 -0.021090854 -0.02046603 0.011486136
0001e0 6c be d1 3c 6a cc 99 bb ff 45 84 bc 43 62 58 3c
       0.025603496 -0.0046935575 -0.016146658 0.013207021
0001f0 f3 d4 00 3c cd 26 82 bb c6 0c 34 bd e0 f6 b1 3b
       0.007863271 -0.0039719106 -0.043957494 0.005431041
000200 6e 97 8b bc aa d2 7e bc 2c 79 c4 3c 9b fc fb 3c
       -0.01703998 -0.015553156 0.02398356 0.0307601
000210 ca 93 81 3c 96 82 13 bd a8 61 91 39 06 5e b6 bc
       0.015817542 -0.03601321 0.00027729315 -0.02226163
000220 90 7d 34 bc 3f bf 1e bd 8a f8 49 bb e6 a5 fc 3c
       -0.011016265 -0.038756605 -0.0030818307 0.030840825
000230 d4 64 22 3c ab cc 1a 3c 05 93 a2 bc dc ad de 3c
       0.009911735 0.009448211 -0.019845495 0.027182512
000240 38 d4 b5 3b 60 75 99 3c a9 8d 95 3c 59 e2 0d bd
       0.00554898 0.018732727 0.018256025 -0.03463969
000250 32 55 1d bc 69 f4 de 3c f1 5d ba bc e9 08 94 bc
       -0.009602832 0.027216153 -0.022749873 -0.018070655
000260 69 75 a5 3b 4b f9 a4 3c 2c 85 2a bc 3a 37 7d bb
       0.005049397 0.020138403 -0.010407727 -0.0038637654
000270 7d 6a 9a 3c 02 49 5c bb 45 b4 3f 3c e9 8c d7 3c
       0.018849606 -0.0033612852 0.011700694 0.026312308
000280 3a ad 7f 3c cd d1 8c 3b ea c1 3a bd fa 64 32 3b
       0.015605265 0.004297471 -0.045595087 0.0027220831
000290 57 af 28 bc 4c 54 27 3d dc bd 27 3c 6b e3 64 bb
       -0.0102957105 0.040851876 0.010238137 -0.003492559
0002a0 3e bb bf bc 5e 8f 5d bc a3 67 07 bc fd b2 3d bb
       -0.023404714 -0.013522951 -0.008264455 -0.0028945797
0002b0 f9 af 6a 3c b6 c3 ad bc 10 b0 87 bc ad 3a 28 3d
       0.014324182 -0.021211486 -0.016563445 0.041071583
0002c0 1d c0 8e 3c 2d 33 cf 3b 20 3a 0c 3c 80 8c 99 bb
       0.017425591 0.0063232393 0.00855878 -0.0046859384
0002d0 ea 1b 38 bc 86 ef 32 bd c8 8e bb bb 0d 72 b6 bb
       -0.011237124 -0.04368546 -0.005723808 -0.005567795
0002e0 dd 88 db 3c 1f 37 ee bb e4 16 9c 3c 12 72 57 bc
       0.02679866 -0.0072697545 0.019053884 -0.013149755
0002f0 a6 35 c3 3c 3b 21 e6 3b a9 a7 6f 3b d3 c0 b1 3c
       0.023829293 0.0070230043 0.003656844 0.021698391
000300 7d e2 64 3c 8f fc 00 3d fd 09 e9 3c 5d a8 94 3c
       0.013970015 0.03149086 0.028447146 0.018146688
000310 27 f6 9a bc f2 fb e5 3c 0c 87 18 bc 10 ae c2 bb
       -0.018916203 0.028074238 -0.009309541 -0.00594116
000320 0a 40 d7 3c 94 a8 8d 3c bb 9a 93 3c ae 3b 93 bc
       0.026275653 0.017292298 0.018018117 -0.017972793
000330 d8 39 6e bc 8d 24 c7 bc 10 14 45 bb d2 53 18 3d
       -0.014540158 -0.024309421 -0.0030071773 0.037189312
000340 d3 76 82 3c d8 c5 7d 3c a6 ce 63 3b 1d c8 39 bc
       0.0159258 0.015489064 0.0034760623 -0.011339215
000350 1f 00 88 bc 3f a2 41 bc 85 57 48 bc e4 b4 10 3d
       -0.01660162 -0.011818468 -0.0122278975 0.03532876
000360 51 8e a3 3c d4 03 d4 bb 28 66 ad bc 5d fe a4 ba
       0.019965323 -0.006470183 -0.021166876 -0.0012588013
000370 90 50 f5 3c 76 50 d9 b9 94 2d fe 3c d0 a1 eb 3b
       0.029945642 -0.00041449413 0.031027593 0.0071909204
000380 cc 64 f5 3c fd f1 e1 3a 1b db 77 bb 03 e7 75 3a
       0.02995529 0.0017238256 -0.0037819806 0.0009380432
000390 7c eb 87 3c cb 4c ab 3b 95 73 b6 3c 67 1d 3b bc
       0.01659178 0.0052276603 0.02227191 -0.011420584
0003a0 ee ab 91 bb ce 0b e9 3c 5c 12 08 3d 83 f0 cd 3a
       -0.0044455444 0.028448012 0.033220634 0.0015711937
0003b0 6d 1e 89 bb cc 69 09 bc 0f 36 4f bc 76 1c 75 bc
       -0.0041845352 -0.00838704 -0.012647166 -0.014960399
0003c0 66 22 ad 3c 6b 5e 62 3b e3 b9 7b 3b 96 f4 92 bc
       0.021134567 0.003454114 0.0038410358 -0.017938893
0003d0 83 4b 13 3c 93 b9 21 3c bb cf 16 ba 6f 51 bc bc
       0.008990171 0.0098709045 -0.0005753 -0.02298805
0003e0 a9 c5 4f 3b be a1 2a bd 87 56 a7 3b 89 ce ac bc
       0.0031703508 -0.041658156 0.0051067504 -0.021094577
0003f0 ca a6 f1 bb d8 b1 84 3a 71 fd 44 3c 4a 84 8e 3c
       -0.007374619 0.0010123802 0.012023316 0.017397065

action_model._discrete_distribution.branches.1.bias f4 [3]
000000 2f 78 ee 3c d5 83 0f bd f3 d5 a6 3b
       0.029110042 -0.035037834 0.0050914227
