results/MoveToButton_4/ButtonPress_1.onnx (onnx, 352736 bytes, 13 tensors)

discrete_act_size_vector f4 [1, 4]
0	0x40400000	3.0
1	0x40400000	3.0
2	0x40000000	2.0
3	0x40000000	2.0

network_body._body_endoder.seq_layers.0.weight f4 [256, 65]
0	0x3d384a4f	0.04499274
1	0xbe4390e3	-0.19098239
2	0xbe165b63	-0.14683299
3	0xbde852ae	-0.11343895
4	0x3dcb5676	0.099286005
5	0x3c4e6ed5	0.012599667
6	0xbdadcf39	-0.0848679
7	0xbcd88636	-0.026431184
8	0x3e906952	0.28205353
9	0xbe2f0f36	-0.17095646
10	0x3c298519	0.010346674
11	0xbdce90d9	-0.10086221
12	0x3abd2801	0.0014431478
13	0x3dd65fe6	0.1046751
14	0xbbe0a3b9	-0.0068554548
15	0x3e53fa8f	0.2070105
16	0xbe6572f4	-0.22407132
17	0xbe2c0fc3	-0.16802888
18	0x3d10f371	0.035388414
19	0x3c1f2713	0.009713906
20	0xbe201a9f	-0.15635155
21	0xbc8cac7f	-0.017172096
22	0x3d850d1c	0.06496641
23	0xbe52ec7c	-0.20598024
24	0xbd1b08a5	-0.03785004
25	0xbde24c34	-0.11049691
26	0x3eb6e009	0.357178
27	0x3dd46178	0.10370153
28	0xbd228e3c	-0.039686427
29	0xbdbd407c	-0.09240815
30	0xbdb4610c	-0.08807573
31	0x3da51931	0.080614455
32	0xbd27d976	-0.04097887
33	0x3e142b2f	0.14469598
34	0x3d99ed0f	0.075159185
35	0xbe6dc43a	-0.23219386
36	0x3e0547ad	0.13015623
37	0xbd0dbd4f	-0.034604367
38	0x3e74d8f8	0.23910892
39	0x3db14288	0.08655268
40	0xbea5bdd7	-0.323714
41	0xba42377a	-0.00074087793
42	0x3dea1f58	0.114317596
43	0x3e276311	0.16346385
44	0x3d05d62c	0.032674953
45	0xbdb7932e	-0.08963619
46	0xbe7b18f6	-0.2452124
47	0xbc93082b	-0.01794823
48	0x3da45b86	0.08025269
49	0xbe008d4b	-0.12553899
50	0xbb23cedc	-0.0024995124
51	0xbd97b980	-0.07408428
52	0x3da992d0	0.082799554
53	0x3d615c45	0.055019636
54	0xbc840abb	-0.016118398
55	0x3e04e8da	0.12979451
56	0xbdf7de5a	-0.12102957
57	0xbe1f4628	-0.15554106
58	0x3dc7ddd7	0.097591095
59	0xbe5f0cb1	-0.21782185
60	0x3d0ccd35	0.03437539
61	0x3de692df	0.11258482
62	0x3d63f16a	0.055650152
63	0x3e60fdfd	0.21971889
64	0xbe5c7276	-0.21528038
65	0x3e1fb4cd	0.15596314
66	0x3e6f5d61	0.23375465
67	0xbbf7b7a7	-0.007559735
68	0xbd4a8a70	-0.04944843
69	0xbdb4584b	-0.08805903
70	0xbdf7a945	-0.120928325
71	0x3d98524e	0.074375734
72	0xbd675fca	-0.056487836
73	0xbd7683b4	-0.060184196
74	0xbe2b2fd9	-0.16717471
75	0x3e484c81	0.19560434
76	0x3e02bd44	0.12767512
77	0x3de37e18	0.11108035
78	0xbd720ade	-0.059092395
79	0xbe7f9f47	-0.24963103
80	0x3e8fa79f	0.28057572
81	0x3e020bd3	0.12699823
82	0xbde82148	-0.11334473
83	0xbd40d680	-0.047079563
84	0xbe8def44	-0.27721608
85	0x3c56a9a3	0.013101968
86	0x3e929b4d	0.2863411
87	0x3da530f1	0.080659755
88	0xbe9a4ae2	-0.30135256
89	0xbddfdaae	-0.10930382
90	0x3d332c96	0.043743692
91	0x3e9c35ee	0.30509895
92	0x3dbbf686	0.0917788
93	0xbe40a93a	-0.18814555
94	0xbebef61b	-0.3729714
95	0xbd5b9626	-0.05360999
96	0x3e80ed7d	0.2518119
97	0xbcffa176	-0.03120492
98	0xbe012a68	-0.12613833
99	0xbebce519	-0.36893538
100	0xbd9bff6d	-0.07617078
101	0xbd1385ed	-0.036016393
102	0xbd1c7f52	-0.03820736
103	0xbe4ec37d	-0.2019176
104	0xbe53a748	-0.20669281
105	0xbdf013de	-0.11722539
106	0x3cbccf65	0.023048112
107	0x3dabff05	0.083982505
108	0xbe2f3620	-0.17110491
109	0x3d43a458	0.047764152
110	0xbda0a769	-0.07844431
111	0x3e60d967	0.21957932
112	0xbccc186e	-0.024913993
113	0xbdd0f715	-0.10203377
114	0xbe084c0f	-0.13310264
115	0x3c97e6ec	0.01854273
116	0xbe72d356	-0.23713431
117	0xbd152406	-0.036411308
118	0xbe20b11a	-0.15692559
119	0xbde9e211	-0.11420072
120	0xbc9cf582	-0.019160036
121	0x3e3b4e1e	0.18291518
122	0xbca861aa	-0.020554382
123	0xbca1ba43	-0.019742137
124	0xbe50c7a9	-0.20388664
125	0xbe32acd8	-0.17448747
126	0x3e99b122	0.30017954
127	0xbd8f3109	-0.069917746
128	0xbde6b76a	-0.11265452
129	0xbc73e6c0	-0.014886558
130	0xbd34bc8c	-0.044125125
131	0x3e86dcd1	0.26340345
132	0xbd91d26e	-0.071202144
133	0xbdc47db6	-0.0959429
134	0x3d825265	0.06363372
135	0x3d2cfcdd	0.042233337
136	0x3ea21b51	0.31661466
137	0xbd3ee077	-0.046600785
138	0xbdd9ec66	-0.106407925
139	0xbd3e9eb4	-0.04653807
140	0xbc52d284	-0.012867574
141	0x3e9f61eb	0.31129393
142	0xbe82333f	-0.25429723
143	0xbea36f22	-0.31920725
144	0x3e7d0288	0.24707997
145	0x3e03ce43	0.12871651
146	0x3d38556b	0.045003336
147	0xbddae79c	-0.10688707
148	0xbd3ce28e	-0.046114497
149	0x3e83bdd1	0.25730756
150	0xbe28d6fd	-0.16488262
151	0x3ef4fb52	0.47847992
152	0xbe5d2521	-0.21596195
153	0x3e34bee0	0.17650938
154	0xbb686028	-0.0035457704
155	0x3e8e2534	0.2776276
156	0x3c1ac7de	0.009447066
157	0x3b847c1a	0.0040431144
158	0x3d9dd05f	0.07705759
159	0xbe03efaf	-0.12884401
160	0xbe75fdf7	-0.24022661
161	0x3dbe9513	0.093057774
162	0x3cfe67d9	0.031055378
163	0x3d328a88	0.043589145
164	0xbd2b03aa	-0.04175154
165	0xbd05cf02	-0.03266812
166	0x3dc4554d	0.09586582
167	0xbe8be445	-0.27322593
168	0xbe29a785	-0.1656781
169	0xbcfb0ec6	-0.030646693
170	0x3d74ff9d	0.059814084
171	0x3e976968	0.29572606
172	0xbe59c6fb	-0.21267311
173	0x3e673314	0.22578079
174	0xbe0d33ec	-0.13789338
175	0xbc797bf7	-0.015227309
176	0x3c935730	0.01798591
177	0xbd18af43	-0.037276518
178	0x3df329d6	0.11873214
179	0x3d07d412	0.03316123
180	0xbd4d9449	-0.050190244
181	0x3c6fbfbb	0.014633114
182	0x3c6b68d4	0.014368255
183	0xbd7cfec6	-0.06176641
184	0x3be013e9	0.006838311
185	0x3e701695	0.23446114
186	0x3ea2b181	0.3177605
187	0x3e7b25d9	0.24526156
188	0x3dc09cb0	0.09404886
189	0xbd9ddd61	-0.0770824
190	0x3e89070a	0.26763183
191	0x3e90553f	0.28190038
192	0x3e83fa55	0.25776926
193	0xbe31f11b	-0.1737713
194	0x3d78ba81	0.06072474
195	0xbdef38b2	-0.11680736
196	0x3e244c27	0.16044675
197	0xbe3996e7	-0.18123971
198	0xbe1b8358	-0.15186822
199	0x3d90498c	0.07045278
200	0xbc14034c	-0.009033989
201	0xb85f016a	-5.316866e-05
202	0xbc631b80	-0.013861537
203	0xbe632c56	-0.22184882
204	0x3b40331d	0.002932734
205	0xbc0019c6	-0.007818645
206	0x3e096949	0.1341907
207	0xbe4d3b91	-0.20042254
208	0x3e38b02b	0.18035953
209	0xbe223493	-0.15840368
210	0xbcea07d1	-0.02856818
211	0x3c88f59a	0.016718674
212	0xbdfcaf10	-0.12338078
213	0x3e3c4f1a	0.1838955
214	0xbe75505b	-0.23956434
215	0xbd0ff89c	-0.0351492
216	0x3e92c8d8	0.28668857
217	0x3dda869b	0.10670205
218	0xbeb2cea1	-0.3492327
219	0xbd9c2d76	-0.076258585
220	0x3d7ede86	0.062223934
221	0xbe669272	-0.22516802
222	0x3d6e149f	0.058125135
223	0xbe1a7e86	-0.15087327
224	0x3e17b90c	0.14816684
225	0xbe11bea4	-0.1423288
226	0x3e9fdfa0	0.312253
227	0xbe62b6fb	-0.22140114
228	0x3ddc9e52	0.10772385
229	0x3dcdabc6	0.10042529
230	0xbe434c49	-0.19072069
231	0xbdbb9229	-0.09158737
232	0x3da22448	0.07917076
233	0x3db7d83a	0.08976789
234	0x3e780ab8	0.24222839
235	0xbda31e56	-0.079647705
236	0x3e860c62	0.26181322
237	0xbde2b4f3	-0.110696696
238	0x3c5b5026	0.013385808
239	0xbdebb874	-0.11509791
240	0xbd5fad21	-0.054608468
241	0x3e230219	0.15918769
242	0x3e0d58ec	0.13803452
243	0x3e26266d	0.16225596
244	0x3e354d4a	0.17705265
245	0x3d2aa7a3	0.041663777
246	0x3e8c9a18	0.27461314
247	0xbc0dadb2	-0.008647369
248	0xbd7ba24a	-0.061434068
249	0xbe0cf9a1	-0.13767101
250	0x3de350d9	0.11099405
251	0xbd801d93	-0.06255641
252	0xbd96a37e	-0.073554024
253	0xbc880b03	-0.016606813
254	0x3dee20c2	0.11627342
255	0xbde6f702	-0.11277582

network_body._body_endoder.seq_layers.0.bias f4 [256]
0	0x3d3eb461	0.04655874
1	0xbd3f72a9	-0.046740208
2	0x3d908d84	0.07058242
3	0x3c1f6712	0.009729164
4	0x3b9c5c33	0.004771733
5	0xbd82fead	-0.06396232
6	0xbbccf11e	-0.0062543293
7	0xbce2a327	-0.027665688
8	0xbcd49b4e	-0.025952961
9	0xbbda298a	-0.006657784
10	0x3da741fa	0.08166881
11	0xbc5e1dcc	-0.013556909
12	0xbd557aff	-0.05211925
13	0x3d903294	0.07040897
14	0xbcc5381d	-0.024074608
15	0x3c01549c	0.007893708
16	0x3bf747cf	0.007546402
17	0x3d1204bd	0.03564905
18	0x3ba25bde	0.004954799
19	0x3bc56dea	0.0060250657
20	0x3b7741ad	0.0037728355
21	0xbc057ac2	-0.0081469435
22	0xbcc21640	-0.02369225
23	0x3aa40d53	0.0012516178
24	0x3d3cd637	0.04610273
25	0xbd1a2709	-0.037634883
26	0x3b090603	0.0020908124
27	0xbc1c51cb	-0.009540985
28	0x3cf16ac5	0.029469857
29	0x3caf606f	0.021408288
30	0xbd0aebe2	-0.03391636
31	0xbc00989c	-0.007848885
32	0xbc0c8ad7	-0.008578024
33	0x3c990515	0.018679181
34	0x3acadd58	0.0015477343
35	0xbc0564cd	-0.008141709
36	0x3bc66a55	0.0060551562
37	0xbcf65d95	-0.03007392
38	0xbc890c12	-0.016729388
39	0xba7f43c8	-0.0009737578
40	0x3a96be48	0.00115008
41	0x3b9e5c0b	0.0048327497
42	0xbc228774	-0.00991999
43	0x3cf3be87	0.029753936
44	0x3cc78985	0.024357567
45	0xbaf5d3c0	-0.0018755123
46	0xbc3a6c60	-0.011378378
47	0xb9b1a111	-0.00033880075
48	0x3cf61b37	0.030042274
49	0xbce0f3d8	-0.027460024
50	0xbce1c3a0	-0.027559102
51	0x3b19e5bd	0.0023482882
52	0x3be55c9b	0.006999565
53	0xbbb19ba0	-0.0054201633
54	0x3ce36f73	0.027763104
55	0xbc235f85	-0.009971504
56	0x3bb5624f	0.005535401
57	0xbca52641	-0.020159842
58	0x3bd975bd	0.00663635
59	0x3cd382c7	0.025819195
60	0xbc6cbab4	-0.01444881
61	0x3c487e56	0.012237152
62	0x3bb4fc4f	0.0055232416
63	0x3c8dd6dd	0.017314369
64	0x3ba5ca8f	0.0050595473
65	0xbcc746cc	-0.02432575
66	0xbd02cbb0	-0.031932533
67	0x3c26bccd	0.01017685
68	0xbd0ee615	-0.034887392
69	0xbbf383de	-0.0074314913
70	0xbdeb32df	-0.11484312
71	0xbc96c10b	-0.018402597
72	0x3c25208f	0.010078563
73	0xbcdbdb78	-0.02683805
74	0xb9642696	-0.00021758149
75	0xbc9f292b	-0.01942881
76	0x3c09591b	0.008383061
77	0xbd362ba5	-0.044475216
78	0x3c9602dc	0.01831191
79	0xbd38b2bc	-0.04509233
80	0xbc54f2ca	-0.012997339
81	0x3c80f1e7	0.015740348
82	0x3d173ab8	0.036921233
83	0x3cf13dc9	0.029448407
84	0x3ca3de2d	0.020003403
85	0xbc862cd3	-0.016378796
86	0x3d2d9092	0.0423742
87	0x3a9762c3	0.0011549819
88	0xbb724383	-0.003696651
89	0x3c9ce62b	0.019152721
90	0xbc9358b0	-0.017986625
91	0x397c430c	0.0002405757
92	0xbb376143	-0.0027981556
93	0xbc98915b	-0.018623998
94	0xbc68f97f	-0.014219641
95	0xbc4f558e	-0.012654675
96	0xbd420b20	-0.04737389
97	0x3d050645	0.032476682
98	0xbccd4c43	-0.025060778
99	0x3ceb9045	0.028755317
100	0xbb9d4035	-0.004798914
101	0x3c274ba5	0.010210906
102	0x3d13a38f	0.036044654
103	0x3d44c018	0.048034757
104	0x3d6cfac4	0.057856336
105	0x3c4f849f	0.012665897
106	0x3ca86d0f	0.020559816
107	0xbd135c22	-0.035976537
108	0x3bacd488	0.005274359
109	0x3c396ff3	0.011318195
110	0x3c1b149d	0.009465364
111	0x3d0714da	0.03297887
112	0xbc1f45f3	-0.009721267
113	0x3cf37321	0.029717984
114	0x3c38c6ac	0.011277836
115	0xbd42fc61	-0.04760397
116	0x3d0dba08	0.03460124
117	0x3bbc4772	0.0057458216
118	0x3c01c52e	0.007920546
119	0xbc53420b	-0.012894164
120	0x3bf545cd	0.0074851275
121	0x3d757051	0.059921566
122	0x3d896070	0.06707847
123	0x3a00d463	0.00049144606
124	0x3d35036e	0.044192724
125	0x3c2dd33b	0.010609443
126	0xbd8a6b73	-0.067587756
127	0xbc331b23	-0.010931763
128	0x3d003bf6	0.031307183
129	0x3c1c1001	0.0095253
130	0x3cbb68a4	0.022877045
131	0xbb5fe9bf	-0.0034166423
132	0x3cb84fa5	0.022498915
133	0xbd865ee3	-0.06561067
134	0x3d402e5b	0.046919208
135	0x3c06a1cb	0.008217285
136	0xbd16815b	-0.036744457
137	0xbc163b6f	-0.0091694435
138	0xbc153f4b	-0.0091093285
139	0x3d127199	0.035752866
140	0x3d4ab162	0.04948557
141	0x3c0a7e40	0.008452952
142	0x3b375f08	0.0027980227
143	0xbbfc786e	-0.007704786
144	0x3cb4d613	0.022074735
145	0xbc45137e	-0.012028573
146	0x3c48b5d9	0.012250387
147	0x3c4036dc	0.0117318295
148	0xbd10c3bf	-0.035342928
149	0x3bf9d4fc	0.0076242667
150	0x3a1f1683	0.0006068723
151	0x38de51cb	0.0001060102
152	0xbd91510b	-0.07095536
153	0xbd07b358	-0.03313002
154	0x3c2865ef	0.010278209
155	0x3b50a224	0.0031834925
156	0x3c3d33e9	0.011548021
157	0x3c194e40	0.009357035
158	0x3c2ad87f	0.010427593
159	0xbcf67eb1	-0.030089708
160	0x3bafcdd9	0.005365115
161	0x3bfd0cb2	0.0077224607
162	0xbc487b91	-0.012236492
163	0xbbbd6033	-0.00577929
164	0x3c561db4	0.013068605
165	0xbd2793c0	-0.04091239
166	0xbc8a5389	-0.016885536
167	0x3ca176ac	0.019709907
168	0x3d02154e	0.0317586
169	0xba8a20e5	-0.0010538368
170	0x3d19ce9b	0.03755055
171	0xbc8708c4	-0.016483672
172	0x3c55a6fc	0.0130403
173	0x3b3e1953	0.0029006794
174	0x3c8b9c82	0.017042402
175	0x3d1a968c	0.03774123
176	0xbb9d8da9	-0.004808147
177	0x3c295491	0.010335104
178	0x3cab49dc	0.020909242
179	0xbb5c19d7	-0.0033584738
180	0x3c538112	0.012909191
181	0xbc8ff562	-0.017573062
182	0x3b7beee9	0.0038441962
183	0xbcd0d8b0	-0.02549395
184	0xbcaed1bd	-0.021340245
185	0xbc1cb345	-0.009564226
186	0x3a413b59	0.0007371209
187	0x3d0505c2	0.032476194
188	0xbcf7aba6	-0.030233216
189	0x3c1e2b2b	0.009653847
190	0xbcac5c94	-0.021040238
191	0xbc3f3c49	-0.011672088
192	0x3c9cf417	0.01915936
193	0xbd09e536	-0.03366586
194	0xbcfab494	-0.030603684
195	0xbc3c945b	-0.01150998
196	0xbb977762	-0.004622386
197	0x3cd99fcf	0.02656546
198	0xbaf2f081	-0.001853481
199	0x3ba9d0c0	0.0051823556
200	0x3c6ff127	0.014644898
201	0x3d25f06b	0.040512484
202	0x3cb2782e	0.021785822
203	0x3c5e6382	0.013573529
204	0x3c751f19	0.014961028
205	0xbc9626d9	-0.01832907
206	0x3d13a86d	0.036049295
207	0xbc94d10f	-0.018166093
208	0x3bd518ae	0.006503186
209	0x3c8ac187	0.016937984
210	0xbc288102	-0.010284664
211	0x3cc8c2a5	0.024506876
212	0xbd3595c8	-0.044332296
213	0x3b4c706f	0.0031194945
214	0xbce862cd	-0.028367424
215	0xbcac8383	-0.021058803
216	0x3d349a9d	0.044092763
217	0xbcc3553f	-0.02384436
218	0xbd5d4441	-0.05402017
219	0xbd07345a	-0.03300891
220	0xbd0ad11c	-0.03389083
221	0xbb089694	-0.0020841705
222	0xbc877484	-0.016535051
223	0x3c7b1a33	0.015326071
224	0xba4e9964	-0.00078811334
225	0x3c0834c4	0.008313362
226	0xbb675090	-0.0035295822
227	0xbc33fbdd	-0.010985342
228	0x3bc1dd0d	0.005916244
229	0x3c79808f	0.015228405
230	0x3cc94e8c	0.024573587
231	0x3d0be592	0.034154482
232	0x3b24c9d5	0.0025144715
233	0x3cc2d3ba	0.0237826
234	0x3cb1e7c0	0.021716952
235	0xbd289edb	-0.04116712
236	0xbc812015	-0.015762368
237	0x3bcd79d0	0.0062706247
238	0x3b2cc308	0.0026361365
239	0xbc8eb5a5	-0.0174206
240	0x3cc9735d	0.024591142
241	0x3a3c30e7	0.0007178918
242	0x3c02376f	0.007947787
243	0xbcce575a	-0.025188137
244	0xbb8fbd2a	-0.004386564
245	0x3bf11383	0.0073570623
246	0xbb9a04e6	-0.004700291
247	0x3ccefc04	0.025266655
248	0x3c48c988	0.01225508
249	0xbcfea4c6	-0.03108443
250	0xbb9aa2df	-0.004719123
251	0x3d3ff669	0.046865854
252	0xbb8e4d05	-0.0043426775
253	0x3ce0c514	0.027437724
254	0xbdcde13c	-0.10052726
255	0xbcf13e09	-0.029448526

network_body._body_endoder.seq_layers.2.weight f4 [256, 256]
0	0xbca34033	-0.019928074
1	0x3d8ada74	0.06779948
2	0xbd254bac	-0.04035537
3	0x3dd9f7e1	0.10642982
4	0x3d420399	0.047366712
5	0x3cc6c4eb	0.02426382
6	0x3cf6b0f8	0.030113682
7	0xbd1c053e	-0.038090937
8	0xbcbcaeae	-0.023032513
9	0x3d8da132	0.06915511
10	0xbd6d5345	-0.05794074
11	0x39dde3c5	0.00042322106
12	0xbc8b65a3	-0.017016238
13	0xbdc6e58d	-0.09711752
14	0xbd75d610	-0.0600186
15	0x3d32fb05	0.043696422
16	0xbdcd5f50	-0.10027945
17	0x3da14386	0.07874207
18	0x3e499557	0.19685875
19	0xbcc04b80	-0.023473501
20	0x3d51076d	0.051032472
21	0xbdc4f3ff	-0.09616851
22	0x3e09aef8	0.13445652
23	0xbe216b44	-0.15763575
24	0x3b71155a	0.0036786408
25	0x3c125eb3	0.008933711
26	0x3d6b9163	0.0575117
27	0xbd7aa9a3	-0.061196934
28	0xbe02b237	-0.12763296
29	0xbc721253	-0.014774877
30	0xbd9593d5	-0.07303587
31	0x3d0e02c9	0.034670625
32	0x3c7603a5	0.015015517
33	0x3d327a50	0.043573678
34	0x3c99e45d	0.01878565
35	0xbd357212	-0.04429824
36	0x3c34df4d	0.011039567
37	0x3ccac671	0.024752827
38	0x3e091d16	0.13390002
39	0x3dc319f3	0.09526434
40	0xbdb6686d	-0.089066364
41	0xbd06746d	-0.032825876
42	0xbcb113e1	-0.021615924
43	0xbde6f984	-0.1127806
44	0x3d4aa284	0.049471393
45	0xbd0abe2c	-0.03387277
46	0x3de3b775	0.11118976
47	0xbcc1691b	-0.023609689
48	0x3d334b74	0.04377313
49	0xbdc853f2	-0.09781636
50	0x3e075aa9	0.13218178
51	0xbe0aedec	-0.13567322
52	0xbc8eefb9	-0.017448293
53	0xbd220488	-0.039555103
54	0x3cd6204f	0.026138453
55	0x3bedc305	0.007255914
56	0xbd0ee00e	-0.034881644
57	0x3c9bd832	0.019023988
58	0xbc8330cf	-0.016014485
59	0x3c35b75c	0.01109108
60	0xbd3434bc	-0.043995604
61	0x3dd6a82e	0.104812965
62	0xbc8b6f51	-0.017020853
63	0xbd30006e	-0.04296916
64	0xbdfd458e	-0.12366782
65	0x3e15b51f	0.14619873
66	0xbca5e25c	-0.020249538
67	0xbb094c82	-0.0020950143
68	0xbdcf586e	-0.101242885
69	0xbd5151b3	-0.051103305
70	0x3dc03696	0.093854114
71	0x3dcea24c	0.100895494
72	0x3d98f02f	0.074676864
73	0xbd309b14	-0.043116644
74	0xbd2776ef	-0.04088491
75	0xbd8655bf	-0.065593235
76	0xbd59fcc4	-0.05321957
77	0xbe04287d	-0.1290607
78	0x3c9bae25	0.019003937
79	0x3b470ff0	0.003037449
80	0x3decaa03	0.11555865
81	0x3d971152	0.073763505
82	0xbd18cd10	-0.037304938
83	0xbc434894	-0.011919159
84	0x3dd5f561	0.10447193
85	0x3dda7d70	0.106684566
86	0xbe06b815	-0.13156159
87	0xbd95adb9	-0.073085256
88	0x3cd68216	0.026185077
89	0xbd5d46a1	-0.054022435
90	0x3e1511cc	0.1455757
91	0xbc88d108	-0.016701236
92	0x3df60586	0.12012772
93	0x3db056a6	0.08610277
94	0x3da9e1fb	0.082950555
95	0xbd9bd5ec	-0.07609162
96	0xbd254b10	-0.04035479
97	0x3dc9e0ca	0.09857328
98	0xbc74a8e6	-0.014932847
99	0xbcf47696	-0.029841702
100	0xbdb0e77e	-0.08637904
101	0xbbb60dc4	-0.00555584
102	0x3de01f76	0.10943501
103	0xbcacf729	-0.021113949
104	0xbd236c48	-0.039898187
105	0xbd9b387c	-0.07579133
106	0xba0fe623	-0.000548931
107	0xbd2327be	-0.039832823
108	0x3c8398e9	0.016064124
109	0x3d985c20	0.074394464
110	0x3d2be17d	0.04196309
111	0xbda5f907	-0.08104139
112	0xbda0c8b3	-0.0785078
113	0xbd257ee1	-0.040404204
114	0xbddd2c40	-0.10799456
115	0xbe31f56b	-0.17378776
116	0x3afb5970	0.0019176435
117	0xbdf228df	-0.11824202
118	0x3d8746fa	0.066053346
119	0xbdf96fde	-0.1217954
120	0x3e0cce8f	0.13750671
121	0xbcfdd459	-0.030985044
122	0x3d76442d	0.06012361
123	0x3dd3c3eb	0.10340103
124	0x3da2d3df	0.079505675
125	0x3e0f2cf0	0.13981986
126	0x3cc57247	0.024102343
127	0xbca05608	-0.019572273
128	0x3db462de	0.0880792
129	0xbae564c0	-0.0017501339
130	0xbdb2ce1f	-0.08730721
131	0x3d9de677	0.07709973
132	0xbca3faaa	-0.020016987
133	0x3cae6deb	0.021292647
134	0x3d32dba6	0.043666504
135	0xbde32500	-0.110910416
136	0x3d6a45e4	0.05719556
137	0x3d22c65e	0.03973996
138	0x3db1a30a	0.08673675
139	0xbcbc1604	-0.022959717
140	0x3db62a74	0.08894816
141	0x3e222d91	0.15837695
142	0xbd08ec2d	-0.03342836
143	0xbc5759c8	-0.013143964
144	0x3d8cf75b	0.06883117
145	0x3d31c020	0.043396115
146	0xbdb8115f	-0.08987688
147	0xbe148374	-0.1450327
148	0xbbba59fe	-0.0056869974
149	0xbca63ac8	-0.020291701
150	0x3db1a091	0.08673204
151	0x3d6144ec	0.05499737
152	0xbca109bd	-0.019657964
153	0x3df08aad	0.117452
154	0x3df80af7	0.121114664
155	0xbe27a64b	-0.1637203
156	0x3cb7f62e	0.022456255
157	0x3c8cedd3	0.017203247
158	0x3dd2dd8e	0.102961645
159	0x3e2e052d	0.16994162
160	0x3c43246a	0.011910537
161	0xbe021311	-0.12702586
162	0xbe106d92	-0.14104298
163	0x3d02c18f	0.031922873
164	0xbdf20a4a	-0.11818369
165	0x3d1a9888	0.03774312
166	0x3dd5fa5a	0.104481414
167	0xbd5795eb	-0.052633207
168	0xbd847a6f	-0.06468665
169	0x3d880766	0.06642036
170	0xbd9c5a2d	-0.07634387
171	0xbd0743f7	-0.0330238
172	0xbd8970bb	-0.06710955
173	0x3da476ad	0.08030448
174	0x3e195ed4	0.1497758
175	0x3d8f29ee	0.06990419
176	0xbbe6e374	-0.0070461575
177	0x3c9ae2ea	0.01890703
178	0xbd9ae4de	-0.07563184
179	0x3ca3120f	0.019906072
180	0xbdbda669	-0.09260256
181	0xbd0becb6	-0.034161292
182	0xbd33b376	-0.04387232
183	0x3cac43d7	0.021028442
184	0x3dad96b6	0.084760115
185	0xb9f3c920	-0.00046498422
186	0xbe0442ae	-0.12916061
187	0xbcddfe94	-0.027098931
188	0xbdac715b	-0.08420058
189	0x3ddc7c5c	0.10765907
190	0xbd43f271	-0.047838632
191	0x3df4c714	0.11952034
192	0xbd0b4f1b	-0.034010988
193	0x3e0e7655	0.13912328
194	0xbd9a864b	-0.075451456
195	0xbbdda015	-0.006763468
196	0x3d74b63b	0.0597441
197	0xbc25c328	-0.01011733
198	0x3b8e44de	0.0043417057
199	0xbcd2c5f2	-0.025729153
200	0xbdcdbc54	-0.10045686
201	0xbcbad5bb	-0.022806993
202	0xbdb936e9	-0.090436764
203	0xbd62b226	-0.055345677
204	0x3cfaf782	0.030635599
205	0x3cd236e6	0.025660943
206	0xbd28881e	-0.041145436
207	0xbcfe8aaa	-0.03107198
208	0xbde751a2	-0.11294867
209	0xbd2f69fe	-0.04282569
210	0xbcd40426	-0.025880884
211	0x3ca4fa18	0.020138785
212	0x3ce6884c	0.028141163
213	0xbc35dfe9	-0.011100748
214	0x3da2bc08	0.0794602
215	0x3d4625db	0.048375946
216	0xbda3eb75	-0.08003894
217	0xbd9c2eb1	-0.07626093
218	0xbe20eceb	-0.15715377
219	0xbdce7a31	-0.100819
220	0x3d0052d1	0.03132898
221	0x3bda8f68	0.0066699274
222	0xbdbf49d7	-0.09340256
223	0xbcbf5f12	-0.023360763
224	0x3ca4bca3	0.02010948
225	0xbdc4f0e3	-0.09616258
226	0xbe0294c4	-0.12752062
227	0xbd8e202c	-0.0693973
228	0xbd9f3e0c	-0.077755064
229	0x3e041762	0.12899545
230	0xbdd133cb	-0.10214957
231	0x3d43e77f	0.047828194
232	0x3c60be9a	0.013717318
233	0x3d8b7215	0.06808869
234	0x3ce8b00d	0.02840426
235	0x3c8355a2	0.016032044
236	0xbd09029d	-0.033449758
237	0xbd12cbb5	-0.0358388
238	0xbd5b976d	-0.053611208
239	0xbdd9f21d	-0.106418826
240	0xbd1585b8	-0.036504477
241	0x3dc87e8a	0.097897604
242	0x3d84d1a6	0.064853
243	0x3d484194	0.048890665
244	0x3d45c490	0.04828316
245	0xbccacbde	-0.024755415
246	0xbd10c9c7	-0.03534868
247	0xbd90564c	-0.0704771
248	0xbe091ffd	-0.13391109
249	0x3d615672	0.05501408
250	0xbdcba56b	-0.0994366
251	0x3d378ade	0.04481017
252	0x3df5687f	0.11982822
253	0x3cd88c2f	0.026434032
254	0x3d7dfc24	0.06200804
255	0xbcb2b473	-0.02181456

network_body._body_endoder.seq_layers.2.bias f4 [256]
0	0xbc861b69	-0.016370492
1	0xbd1b0bdd	-0.03785311
2	0x3cd1fede	0.025634225
3	0xbc21d4c1	-0.009877385
4	0x3a21c23f	0.00061706075
5	0x3b27bb44	0.0025593797
6	0x3c45b3b8	0.012066774
7	0x3bf9d5d9	0.0076243696
8	0x3c1916bf	0.009343802
9	0x3cd389af	0.025822489
10	0x3c8808ee	0.01660582
11	0x3c48fea3	0.012267741
12	0xbcdc13cb	-0.026864907
13	0xbb97945b	-0.0046258396
14	0x3cc9d4b9	0.024637567
15	0xbcd8aebb	-0.026450505
16	0x3c883a37	0.016629322
17	0xbb18d8cf	-0.0023322587
18	0xbc115b44	-0.008871857
19	0x3c4167b3	0.011804509
20	0x3accabf5	0.0015615212
21	0x3c2d787a	0.010587806
22	0x3bd54c1b	0.0065093166
23	0x3c721723	0.014776024
24	0x3c9d9eec	0.019240819
25	0x3c9d197d	0.019177193
26	0xbb4d3d87	-0.003131719
27	0xbd45f312	-0.048327513
28	0x3b721f11	0.0036944787
29	0xbba7ed22	-0.005124704
30	0x3c1a6ffa	0.009426111
31	0x3d3c354b	0.04594926
32	0xbce60acd	-0.028081322
33	0xbc0b8b5d	-0.0085171135
34	0x3cc4b9ae	0.02401432
35	0xbbf001eb	-0.0073244474
36	0xbb710469	-0.003677631
37	0x3d256a7f	0.040384766
38	0x3d101b3d	0.035182226
39	0x3d544284	0.051821247
40	0x3b996821	0.0046816026
41	0xbbed7bd1	-0.007247426
42	0x3bd776eb	0.0065754554
43	0xbd168c94	-0.03675516
44	0xbca3676a	-0.019946773
45	0x3c1a2128	0.009407319
46	0x3b8d8ff5	0.0043201395
47	0xbc92ba80	-0.017911196
48	0xbc8cd651	-0.017192038
49	0x3d0051ee	0.031328134
50	0xbd2c3784	-0.04204513
51	0x3ca32907	0.019917024
52	0xbb03882e	-0.0020070183
53	0xbc4f4c4e	-0.01265247
54	0xbcaf3e6b	-0.021392068
55	0x3cae8dfd	0.02130794
56	0x3cb21832	0.021740053
57	0x3cd154cf	0.025553135
58	0x3ccbe8c4	0.024891265
59	0x3c7f89cf	0.015596821
60	0xbcbe1e2e	-0.02320775
61	0x3cc9e8d1	0.024647148
62	0xbc783bba	-0.015150959
63	0xbbf308f3	-0.0074168383
64	0xbcaf809f	-0.021423636
65	0xbb89cdc1	-0.004205436
66	0x3c547e01	0.012969495
67	0x3cad29c1	0.021138074
68	0x3cb22755	0.02174727
69	0x3d16cde8	0.03681746
70	0x3d249527	0.040181305
71	0x3c1c9e90	0.009559289
72	0x3d0caef2	0.03434653
73	0xbbb85cb8	-0.0056262873
74	0x3be309eb	0.0069286725
75	0x3ce982b7	0.028504713
76	0x3c32deab	0.010917346
77	0x3cc9da6a	0.02464028
78	0xbc50cecd	-0.012744618
79	0xbc6296e4	-0.01382992
80	0x3bbf78fe	0.005843281
81	0xbc1a9c4e	-0.00943668
82	0x3af1bde3	0.0018443431
83	0x3cfa84a3	0.030580824
84	0x3cd00775	0.02539418
85	0xbc2f93e4	-0.010716412
86	0x3ab0d3fa	0.0013490908
87	0x3c3cfa0a	0.011534223
88	0x3cb4f2d2	0.022088442
89	0x3ba39c64	0.0049930084
90	0xbb34312d	-0.0027495131
91	0xbd0f167e	-0.03493356
92	0x3c94a1f2	0.018143628
93	0x3d0c9ada	0.034327365
94	0x3c5cb896	0.013471743
95	0x3d061755	0.032737095
96	0x3cc95777	0.02457784
97	0x3c8be963	0.01707906
98	0x3c439225	0.011936699
99	0x3cd5feb5	0.02612243
100	0x3cda8777	0.026675923
101	0x3cfcdab9	0.030866014
102	0x3cc9b6f8	0.02462338
103	0xbce76c6a	-0.028249938
104	0xbb250841	-0.0025181922
105	0x3ce2ddae	0.027693596
106	0xbd0de2e9	-0.034640227
107	0xbca40f3b	-0.020026794
108	0xbbc28610	-0.0059363917
109	0xbafeec4d	-0.0019449085
110	0x3c901b97	0.01759128
111	0xbc4dc65f	-0.012559502
112	0xbc1cb13f	-0.009563743
113	0xbcd3ac2a	-0.02583893
114	0xbcc35c9b	-0.023847869
115	0xbce0817c	-0.027405493
116	0x3c8f437c	0.017488234
117	0x3ba84441	0.0051350896
118	0xbd7c6874	-0.06162305
119	0xbbea18b9	-0.0071440605
120	0xbb635d32	-0.0034693
121	0xbc14d79a	-0.009084607
122	0x3caf8235	0.021424392
123	0xbd7d690f	-0.06186777
124	0x3cb20fd0	0.021736056
125	0x3cd55200	0.026040077
126	0x3d18322c	0.037157223
127	0x3bad0c5a	0.0052810134
128	0x3ce5f5bd	0.028071279
129	0xbcc33339	-0.023828136
130	0xbb8c164e	-0.00427512
131	0x3c8d2bfa	0.017232884
132	0x3cba2317	0.02272181
133	0xbbfbad1a	-0.0076805474
134	0x3c28b924	0.010298047
135	0x3c296a6c	0.010340314
136	0x3b696a20	0.0035616234
137	0x3c3ea0d1	0.011635021
138	0xbd799e7e	-0.060942166
139	0x3bef851b	0.0073095686
140	0xbcee9524	-0.02912385
141	0xbb9aeb1d	-0.0047277347
142	0x3cfae34a	0.030625958
143	0xbca2af1b	-0.019858887
144	0x3cb0bace	0.02157345
145	0x3c329009	0.0108985985
146	0x3c1a350e	0.009412063
147	0xbcb9318e	-0.022606637
148	0xbc83d514	-0.016092815
149	0xbc3675b9	-0.011136466
150	0xbd023813	-0.031791758
151	0xbd29bbeb	-0.04143898
152	0x3d037490	0.032093585
153	0x3b86b048	0.00411037
154	0xbc353911	-0.011060969
155	0xbc8da382	-0.01728988
156	0x3c1a6368	0.009423114
157	0x3d2d9bc3	0.042384874
158	0x3b49d0b8	0.0030794572
159	0x3bd26717	0.0064209807
160	0x3cdba422	0.026811663
161	0x3d0e15e4	0.034688845
162	0x3ad53213	0.0016265534
163	0xbcaa5b61	-0.020795526
164	0x3c4ac595	0.012376209
165	0xbd2e7b2e	-0.042597942
166	0x3cdd163d	0.026988143
167	0x3c3b904a	0.011447975
168	0xbc676f69	-0.014125683
169	0x3d08c07d	0.033386696
170	0x3c4b67af	0.012414857
171	0xbc4c1938	-0.0124571845
172	0x3ccef99a	0.025265504
173	0xbb559b08	-0.0032593627
174	0x3c1047b8	0.008806162
175	0x3b36dd82	0.0027903025
176	0xbd12478f	-0.035712775
177	0x3be42bf1	0.006963246
178	0x3cc4ed7b	0.02403902
179	0x3c32cf5b	0.010913695
180	0x3d087976	0.03331896
181	0x3b329e6e	0.0027255076
182	0xbb737bd9	-0.0037152676
183	0xbb7d7f90	-0.003868077
184	0x3ca8cd31	0.020605655
185	0x3d0e21df	0.03470027
186	0x3cabd3b8	0.020974979
187	0xbc749848	-0.014928885
188	0xbc723413	-0.014782923
189	0xbbc64930	-0.006051205
190	0x3b70b3a6	0.0036728173
191	0x3c8cd1e9	0.017189937
192	0x3d1ba219	0.037996385
193	0x3a829273	0.0009961858
194	0x3c6baf98	0.0143851265
195	0x3b198ca1	0.0023429769
196	0xbd338c5a	-0.04383502
197	0xbcd13350	-0.025537163
198	0x3cef8ab9	0.029240953
199	0x3c9e9b97	0.0193613
200	0x3ce207d1	0.027591618
201	0x39879f3e	0.0002586785
202	0xbcc36647	-0.02385248
203	0x3cb77afd	0.022397513
204	0xbc8cba80	-0.017178774
205	0xbc8400e8	-0.016113713
206	0x3c0f0ec2	0.008731546
207	0x3c287fe8	0.0102844015
208	0x3cf29f27	0.029616905
209	0x3cd6147d	0.026132816
210	0x3c04e3c8	0.008110948
211	0x3d3da09f	0.04629576
212	0xbcf5fdf2	-0.030028317
213	0x3cdf9835	0.027294258
214	0xbcc47c5b	-0.023985079
215	0xbc70d64a	-0.014699528
216	0x3cc224df	0.023699222
217	0x3c8953e1	0.01676363
218	0x3d373226	0.04472556
219	0xbc88da7a	-0.01670574
220	0x3c2822c5	0.010262196
221	0xbbd54b92	-0.006509253
222	0xbd0a2640	-0.033727884
223	0xbb6c8dc0	-0.0036095232
224	0xbc5e838f	-0.013581171
225	0x3c3c812f	0.011505409
226	0x3aa394cb	0.0012480257
227	0x3c97de89	0.01853873
228	0xbcb3e760	-0.021960914
229	0xbcb95d4f	-0.0226275
230	0x3d17f236	0.037096225
231	0x3bcfad5f	0.006337806
232	0xbb8f6466	-0.004375982
233	0x3c8b8c67	0.017034722
234	0xbc6fb78d	-0.014631164
235	0x3ce4774a	0.027888913
236	0x3ca43eed	0.020049537
237	0x3d1a2e81	0.037642006
238	0xbb1d20b0	-0.0023975782
239	0x3a7172bc	0.0009210517
240	0xbba9b2ea	-0.005178799
241	0x3cc47f0f	0.023986368
242	0x3a9ff7a2	0.0012204538
243	0x3b4d8ac4	0.0031363228
244	0xbca79c47	-0.020460261
245	0x3c9d9a62	0.019238655
246	0x3d0661ac	0.03280799
247	0xbd700dae	-0.058606796
248	0xbc959cbd	-0.018263215
249	0x3b0b4fa4	0.0021257186
250	0xb9ae7908	-0.00033278042
251	0xbaba5802	-0.0014216902
252	0xbc4b22cc	-0.012398433
253	0x3c2daa1f	0.010599642
254	0x3c91dc0a	0.017805118
255	0xbbb61258	-0.005556386

action_model._discrete_distribution.branches.0.weight f4 [3, 256]
0	0x3bac5d3f	0.0052601392
1	0x3d472a3f	0.048624273
2	0xbd8bdd07	-0.06829267
3	0x3ce9d7df	0.028545318
4	0x3b5511bf	0.0032511798
5	0xbd0cee0c	-0.034406707
6	0xbc910c6a	-0.017706115
7	0xbd28ae06	-0.041181587
8	0xbc65029d	-0.013977674
9	0xbd92e0e1	-0.071717985
10	0xbcb80938	-0.022465333
11	0xbbabfa8e	-0.0052483743
12	0x3d2d0cab	0.04224841
13	0xbccea4f1	-0.025225135
14	0xbd4796ca	-0.048727788
15	0x3d0d23c1	0.034457926
16	0xbd574592	-0.05255658
17	0x3ad19361	0.0015989357
18	0xbcfb9cba	-0.030714381
19	0xbcf24b33	-0.029576873
20	0xbcb4cc5c	-0.022070102
21	0xbd594293	-0.053042006
22	0xbd1b84c7	-0.037968423
23	0x3cad4c4c	0.021154545
24	0xbcb66b7a	-0.022268046
25	0xbd04b93e	-0.032403223
26	0xbc9db212	-0.01924995
27	0x3cfe7e6b	0.03106614
28	0xbd3befc5	-0.04588296
29	0xbc99568e	-0.01871803
30	0xbc9d33c6	-0.019189727
31	0xbd4cf324	-0.050036564
32	0x3cb2e2cf	0.021836666
33	0xbcf9714e	-0.030449536
34	0xbcca93a4	-0.024728604
35	0xbd097294	-0.033556536
36	0x388de196	6.7654226e-05
37	0xbd452291	-0.04812867
38	0xbd1b7f5c	-0.037963256
39	0xbd7a72af	-0.061144527
40	0xbc6885e9	-0.014192083
41	0x3ce674c0	0.028131843
42	0xbcdafefe	-0.026732918
43	0x3d1688db	0.03675161
44	0x3c8b028c	0.016968988
45	0xbd2a0ef5	-0.04151817
46	0xbceb992d	-0.028759563
47	0xbcf705a1	-0.030154051
48	0xbcd99381	-0.026559593
49	0xbd554904	-0.052071586
50	0x3d29eece	0.041487508
51	0xbc686934	-0.014185239
52	0xbd5826af	-0.052771267
53	0xbd3a6df0	-0.045515
54	0xbc7cdd6a	-0.015433649
55	0xbcca1c3f	-0.024671672
56	0xbcd3689f	-0.025806723
57	0xbccb506d	-0.024818623
58	0xbcfaf003	-0.030632025
59	0xbc4d3447	-0.012524671
60	0x3a4f2766	0.0007902294
61	0xbcd1eb0b	-0.025624773
62	0xbcded840	-0.027202725
63	0xbab64cc7	-0.001390838
64	0x3b703338	0.0036651623
65	0xbd2828db	-0.041054588
66	0xbc55be24	-0.013045821
67	0xbcc369c9	-0.023854153
68	0xbcccadff	-0.024985312
69	0xbcf1fe9d	-0.029540354
70	0xbcc75c97	-0.024336142
71	0xbd1bcfe2	-0.03804005
72	0xbd08150e	-0.033223204
73	0x3c99ae09	0.018759744
74	0xbd118c85	-0.0355344
75	0xbc331817	-0.010931036
76	0xbaa686a1	-0.0012704917
77	0xbd1f5e54	-0.038908318
78	0x3ce31899	0.02772169
79	0x3c57baf1	0.013167129
80	0xbd1ec802	-0.03876496
81	0xbbd8ef79	-0.0066203442
82	0xbcf8178a	-0.030284662
83	0xbd282860	-0.04105413
84	0xbce9ed0e	-0.02855542
85	0xbc3d91f4	-0.0115704425
86	0xbcbad057	-0.022804422
87	0xbd0b83d2	-0.03406126
88	0xbc160f37	-0.009158901
89	0xbb9cde67	-0.0047872546
90	0xbd35d4ed	-0.044392515
91	0x3cb0f9d6	0.021603506
92	0xbd875606	-0.066082045
93	0xbd3a75ef	-0.045522626
94	0xbcd8a960	-0.026447952
95	0xbd216c52	-0.039409943
96	0xbd0ae35d	-0.033908237
97	0xbd23ead9	-0.04001889
98	0xbd045aa6	-0.03231301
99	0xbcdf9d07	-0.027296556
100	0xbd85595f	-0.06511187
101	0xbce7c255	-0.028290907
102	0xbd4b8f2e	-0.049697094
103	0x3cd8accf	0.026449589
104	0x3c73136c	0.0148361735
105	0xbd6ead8d	-0.05827098
106	0x3c14226f	0.009041413
107	0xbbb11b5a	-0.005404872
108	0x3c5a5004	0.013324741
109	0xbd4c47d9	-0.049873207
110	0xbcedfc75	-0.029051045
111	0xbbe9a936	-0.007130767
112	0xbc7548a5	-0.014970933
113	0x3cfa3e4c	0.030547284
114	0x3c4f42ee	0.012650235
115	0x3ca8af15	0.020591298
116	0xbca96d60	-0.020682037
117	0xbb4c02f9	-0.0031129702
118	0x3d0a5f57	0.03378233
119	0x3cc8e9ed	0.024525607
120	0xbcfe7593	-0.031061923
121	0x3cbcb45c	0.02303522
122	0xbce6f849	-0.028194563
123	0x3d46343f	0.04838967
124	0xbd16b1d7	-0.036790695
125	0xbc7cb69c	-0.015424397
126	0xbd866382	-0.06561948
127	0xbcd09314	-0.025460757
128	0xbd27ae5e	-0.040937774
129	0x3cd12546	0.025530469
130	0xbd406a78	-0.046976537
131	0xbcc71796	-0.024303239
132	0xbd5e9a09	-0.054346118
133	0xbc7c8902	-0.015413525
134	0xbd1c30be	-0.03813242
135	0xbcb2c3b5	-0.021821836
136	0xbc2a9032	-0.010410355
137	0xbcb6c911	-0.022312673
138	0x3d08727c	0.033312306
139	0xbce801c0	-0.028321147
140	0xbd0080b6	-0.03137275
141	0xbd105263	-0.03523482
142	0xbd7c249b	-0.061558347
143	0x3c9953ca	0.018716712
144	0xbd62a3c8	-0.055331975
145	0xbd259267	-0.040422823
146	0xbcb342c5	-0.021882424
147	0x3ca567ca	0.020191092
148	0xbc4c15e5	-0.012456392
149	0xbd1a6e96	-0.03770312
150	0x3ce79244	0.028267987
151	0x3cb6a6cf	0.022296337
152	0xbcb172db	-0.021661213
153	0xbc32e5cd	-0.010919047
154	0x3c90a46b	0.017656526
155	0x3bae0329	0.0053104353
156	0xbc58c15b	-0.013229693
157	0xbd6d301b	-0.057907205
158	0xbd39c271	-0.04535145
159	0xbb243096	-0.0025053374
160	0xbca1e78b	-0.019763729
161	0xbca33342	-0.019921903
162	0x3b876639	0.004132059
163	0x3cc26528	0.023729876
164	0xbc81808b	-0.015808364
165	0x3bf03586	0.0073305992
166	0xbca1760a	-0.019709606
167	0xbc9d8ac8	-0.019231215
168	0xbc049292	-0.008091586
169	0xbcfdf7b4	-0.031001903
170	0xbd56d170	-0.05244583
171	0xbd0f1ded	-0.03494065
172	0xbd5a6c14	-0.053325728
173	0xbd5d3ff0	-0.054016054
174	0x3c818c1f	0.015813885
175	0xbd06a419	-0.03287134
176	0x3ccf321c	0.025292449
177	0xbd3b59c0	-0.04573989
178	0xbd028782	-0.03186751
179	0xbcc7be1d	-0.024382645
180	0xbca42dda	-0.020041395
181	0xbc90c648	-0.017672673
182	0xbb8b402f	-0.0042495946
183	0x3b3bb5da	0.0028642328
184	0xbc51b7ba	-0.0128001515
185	0xbc67ecfc	-0.014155623
186	0xbcbd8831	-0.02313623
187	0x3ca01225	0.019539902
188	0x3be1e6c4	0.0068939645
189	0xbcce4aaa	-0.025182087
190	0xbbac0e75	-0.005250747
191	0x3ce3a89b	0.027790358
192	0xbd654895	-0.055977423
193	0x3c6d9efa	0.014503235
194	0xbcb62177	-0.022232754
195	0xbc23fc34	-0.01000886
196	0x3c72f929	0.014829912
197	0x3cca6b49	0.02470936
198	0xbc17d893	-0.009267944
199	0xbd5c3850	-0.05376464
200	0xbc0be15d	-0.0085376175
201	0x3c32ed7e	0.01092088
202	0xb99278ba	-0.00027937238
203	0xbd0ff27c	-0.03514336
204	0x3c3bdeac	0.011466663
205	0x3ca2d50a	0.019876976
206	0xbbd4a062	-0.0064888457
207	0xbc02334d	-0.007946801
208	0xbd2a05f8	-0.0415096
209	0xbd2ae84a	-0.041725434
210	0x3b16b4ae	0.0022995877
211	0xbc97ed31	-0.018545719
212	0x3cb11ee9	0.021621184
213	0xbd5145db	-0.05109201
214	0x3a3bf9ec	0.0007170725
215	0xbcbcecfc	-0.023062222
216	0xbcff705d	-0.031181509
217	0xbd2ce5b9	-0.042211268
218	0xbd0c254b	-0.034215253
219	0x3d0fbd5c	0.035092697
220	0x3bc039e7	0.0058662775
221	0xbc0151fa	-0.00789308
222	0x3aa258cc	0.0012386083
223	0xbd39104e	-0.045181565
224	0x3ba2784a	0.004958187
225	0xbd099123	-0.03358568
226	0xbd096c8c	-0.033550784
227	0xbca08f57	-0.0195996
228	0x3c3d15bc	0.011540826
229	0x3cf793c3	0.030221825
230	0xbd31b102	-0.0433817
231	0xbce618fb	-0.028088083
232	0x3bddd0b0	0.0067692623
233	0xbb9b57bc	-0.0047406834
234	0x3cc53192	0.024071489
235	0xbd6069f7	-0.054788556
236	0xbd042857	-0.032265034
237	0xbd5f7f82	-0.05456496
238	0xbb96d3b8	-0.0046028756
239	0x3b43aee1	0.0029858875
240	0xbbe80cf0	-0.0070816204
241	0xbd070e38	-0.032972544
242	0xbd21e235	-0.03952237
243	0x3c10be4b	0.008834432
244	0x3cd51c50	0.026014477
245	0xbc802d87	-0.01564671
246	0xbd159f62	-0.036528952
247	0x3cc8d005	0.024513254
248	0xbb0441e6	-0.002018088
249	0x3d265508	0.040608436
250	0xbd44e25a	-0.04806743
251	0x3ca9a208	0.020707145
252	0x3d132a80	0.035929203
253	0xbbd2c3dc	-0.0064320397
254	0xbc979d2a	-0.018507559
255	0xbcfb2927	-0.030659271

action_model._discrete_distribution.branches.0.bias f4 [3]
0	0xbc955d07	-0.018232835
1	0xbc8e3e63	-0.017363733
2	0x3d208c62	0.03919638

action_model._discrete_distribution.branches.1.weight f4 [3, 256]
0	0x3cacaf1d	0.021079594
1	0xbbd0c705	-0.006371381
2	0x3c8d90f8	0.01728104
3	0x3d34dd7f	0.044156548
4	0xbd999366	-0.07498817
5	0xbd8d806b	-0.069092594
6	0xbca321b0	-0.019913524
7	0xbb8f4920	-0.004372731
8	0xbd6c10b0	-0.057633102
9	0x3c839cc2	0.016065959
10	0xbbf362e7	-0.0074275616
11	0x3d134a31	0.035959426
12	0x3d08f60d	0.033437777
13	0x3bd075fb	0.0063617206
14	0x3cc7acc2	0.02437437
15	0x3c0d7dd0	0.008635953
16	0xbd1a633a	-0.037692286
17	0xbc872258	-0.016495869
18	0x3d335c97	0.043789472
19	0xbc243c40	-0.01002413
20	0xbc6cbac2	-0.014448823
21	0x3cfc3b5b	0.030790022
22	0x3d13baa7	0.036066677
23	0x3c698d2d	0.01425485
24	0x3ceb18c7	0.028698338
25	0xbd7dfa2a	-0.062006153
26	0x3c34a71f	0.011026173
27	0x3c880b16	0.016606849
28	0xbb9d3311	-0.0047973474
29	0xbc9f8eb7	-0.019477231
30	0xbd307545	-0.043080587
31	0xbbd7651f	-0.006573334
32	0xbc076b56	-0.008265337
33	0xbd0eebc8	-0.034892827
34	0xbdbe984e	-0.093063936
35	0xbc859484	-0.01630617
36	0xbd3aedfd	-0.04563712
37	0x3d63e3fd	0.05563735
38	0x3c23ed2e	0.0100052785
39	0xbd291d63	-0.04128779
40	0xbc86b43a	-0.01644336
41	0x3c05518f	0.008137121
42	0xbd003415	-0.03129967
43	0xbd1ad9ec	-0.037805483
44	0x3ca695a2	0.020335022
45	0x3cb36540	0.021898866
46	0x3cf469d4	0.029835619
47	0xbd58d838	-0.052940577
48	0xbd657c7c	-0.05602692
49	0x3d0377d7	0.03209671
50	0xbb9ceb85	-0.0047888183
51	0xbd80459c	-0.06263277
52	0xbc0db7a7	-0.008649743
53	0x3d3c1014	0.04591377
54	0xbd959cdd	-0.0730531
55	0xbc1b3fb7	-0.00947564
56	0xbd100d50	-0.035168946
57	0x3c809ed9	0.015700744
58	0xbbe1f25c	-0.0068953466
59	0x3c8c0b88	0.017095342
60	0xbcf61a70	-0.030041903
61	0xbbca7ab7	-0.0061791795
62	0xbd8bd02b	-0.06826814
63	0xbd03ee65	-0.032209773
64	0xbcba3819	-0.022731828
65	0x3c7498e4	0.01492903
66	0xbb90b56f	-0.00441616
67	0xbb977240	-0.004621774
68	0xbc4f166b	-0.012639622
69	0x3c55d009	0.013050088
70	0x3ba8b00c	0.0051479395
71	0xbd5432df	-0.051806327
72	0xbde74505	-0.11292461
73	0x3d0d5c03	0.034511577
74	0xbc119141	-0.008884729
75	0xbc9743fb	-0.018465033
76	0xbdda5d51	-0.1066233
77	0x3d041685	0.03224804
78	0xbbbb4837	-0.005715396
79	0xbbcf5554	-0.0063273106
80	0xbd7034a1	-0.05864394
81	0xbd0225db	-0.031774383
82	0xbd562237	-0.052278724
83	0x3cde61ab	0.027146181
84	0x3c824868	0.015903667
85	0xbde927db	-0.11384555
86	0x3c4e895a	0.012605989
87	0x3d1e3fe2	0.038635142
88	0xba1efeda	-0.00060651975
89	0xbc8c53cd	-0.017129803
90	0x3d9378a3	0.07200744
91	0x3d3363d7	0.043796387
92	0x3cdd45fb	0.027010908
93	0x3ca424bf	0.020037053
94	0xbccf1373	-0.025277829
95	0x3cb98abc	0.022649162
96	0xbd9467d3	-0.072463654
97	0x3ce1b77f	0.027553318
98	0xbc8823de	-0.016618665
99	0xbc8083f4	-0.01568792
100	0xbb7cc59a	-0.0038569928
101	0x3c37384a	0.011182854
102	0x3cb456ad	0.022013986
103	0x3d2960d6	0.041352116
104	0x3bc33242	0.005956919
105	0xbbacda69	-0.00527506
106	0xbc905c18	-0.017622039
107	0xbd64ec33	-0.05588932
108	0x3c8878a0	0.016659081
109	0xbd061c6d	-0.032741953
110	0x3b9c69a7	0.004773337
111	0x3d3cc24a	0.046083726
112	0xbde25c99	-0.11052818
113	0xbd91494a	-0.07094057
114	0xbd027207	-0.031847026
115	0x3d67f15c	0.056626663
116	0xbcbe33da	-0.023218084
117	0xbd975c94	-0.07390705
118	0xbc088048	-0.008331366
119	0xbb228561	-0.0024798738
120	0xbd8af567	-0.06785088
121	0x3d092e1f	0.03349125
122	0xbc758648	-0.014985628
123	0xbc7596ef	-0.014989599
124	0xbd67b0a7	-0.056564953
125	0xbc8b32ed	-0.016992057
126	0x3d423261	0.047411326
127	0xbc2b5880	-0.010458112
128	0xbdd3b920	-0.10338044
129	0x3bcc4127	0.0062333527
130	0xbc39774d	-0.011319947
131	0xbc033218	-0.008007549
132	0x3d2631cf	0.040574845
133	0xbd1fef0c	-0.039046332
134	0x3bc015b8	0.005861964
135	0x3c388228	0.0112615
136	0xbd2a460a	-0.0415707
137	0xbdc828af	-0.09773385
138	0xbbb4e37a	-0.0055202814
139	0x3c0a280b	0.008432399
140	0xbc66022c	-0.014038604
141	0x3c1c3c67	0.009535885
142	0xbc7ff64a	-0.015622685
143	0x3cd340b4	0.025787689
144	0x3ca64823	0.02029807
145	0xbc9c3f9d	-0.019073302
146	0xbd9f2713	-0.07771125
147	0x3d07cc1c	0.03315364
148	0xbc431409	-0.011906632
149	0xbb7d8506	-0.0038684024
150	0xbd83b40e	-0.06430827
151	0x3c767811	0.0150432745
152	0xbd1dccd1	-0.038525406
153	0xbdcb9a21	-0.09941507
154	0x3d117bab	0.03551833
155	0xba7f0a1c	-0.00097289844
156	0xbb380382	-0.0028078263
157	0xbd44844d	-0.047977734
158	0xbc5ce62e	-0.0134826135
159	0x3cba0b2b	0.022710403
160	0xbc7bd4f6	-0.015370598
161	0xbb3eb32a	-0.002909849
162	0xbd979cf7	-0.074029855
163	0xbd166827	-0.03672042
164	0x3a1d6086	0.0006003458
165	0xbc4e0385	-0.012574081
166	0xbc9781dd	-0.01849454
167	0x3c9da16a	0.019242007
168	0xbd39fb8f	-0.04540592
169	0xbcf09f64	-0.029372878
170	0x3c892339	0.016740428
171	0xb8eb6a25	-0.00011225444
172	0x3c6a8399	0.014313602
173	0x3cec289b	0.028827956
174	0x3caaf31a	0.020867873
175	0xbca13484	-0.019678362
176	0x3d1b5b19	0.037928674
177	0x3caaea99	0.020863818
178	0xbbaceb74	-0.0052770916
179	0xbd025d51	-0.031827275
180	0xbd16083c	-0.036628947
181	0x3cc22466	0.023698997
182	0x3c9dd69c	0.019267373
183	0xbddff945	-0.10936216
184	0x3d34d812	0.044151373
185	0xbc3fc3e5	-0.01170442
186	0x3ccac9ae	0.024754371
187	0xbdcb1579	-0.09916205
188	0xbcf436a3	-0.029811209
189	0x3bb431da	0.005499107
190	0x3cfe40c4	0.031036742
191	0x3c4dc096	0.012558123
192	0x3c077bac	0.008269232
193	0x3cbfce6a	0.023413856
194	0xbd226206	-0.039644264
195	0xbd7fcd03	-0.062451374
196	0xbadeb723	-0.0016991835
197	0x3cc70223	0.024293011
198	0xbd7dd043	-0.061966192
199	0x3cff09ad	0.031132543
200	0xbce56c21	-0.028005661
201	0x3cdfebba	0.027334083
202	0x3cf38dc4	0.029730685
203	0x3d178933	0.036996078
204	0x3cf0730f	0.02935174
205	0x3d2339ff	0.03985023
206	0xbcc1a66b	-0.023638925
207	0xbda05796	-0.07829206
208	0xbc5c6b66	-0.01345334
209	0xbd83f2bf	-0.064427845
210	0xbd8edb71	-0.06975449
211	0x3c5bb2cd	0.013409329
212	0x3d2a8219	0.041627977
213	0xbcaf3df8	-0.021391854
214	0x3c4cb3b2	0.012494015
215	0xbcbac095	-0.022796908
216	0x3ce0e34c	0.027452134
217	0x3bb71f6f	0.005588464
218	0x3d16a60d	0.036779452
219	0x3cc79011	0.024360688
220	0xbd04c927	-0.032418396
221	0x3b913e7e	0.0044324985
222	0xbd06a806	-0.032875083
223	0xbd24f883	-0.04027606
224	0xbd1f3183	-0.038865577
225	0xbc534328	-0.012894429
226	0x3d04540b	0.032306712
227	0xbb96dc77	-0.004603918
228	0xbd655fd6	-0.0559996
229	0x3be48b9a	0.0069746496
230	0x3d15b1fe	0.0365467
231	0x3c4ecabc	0.012621578
232	0xbb3cb4ac	-0.0028794212
233	0xbd9a55f4	-0.075359255
234	0x3d014296	0.031557642
235	0x3ce1d08a	0.02756526
236	0xbcd8f8b8	-0.026485786
237	0x3ce6c6a6	0.028170895
238	0xbb2f1be9	-0.0026719517
239	0xbc411e72	-0.011787044
240	0x3c92c483	0.01791597
241	0x3c067dcc	0.008208703
242	0x3ca784dc	0.020449094
243	0xbc9247a2	-0.017856423
244	0xbd82e8d3	-0.06392064
245	0x3ca2235a	0.019792248
246	0x3c1dadf4	0.009623993
247	0xbc6da677	-0.01450502
248	0x3d85479a	0.065077975
249	0x3caa5d0e	0.020796325
250	0x3b99dfd9	0.004695874
251	0xbcf833fe	-0.03029823
252	0x3d02e933	0.031960677
253	0xbb092d13	-0.0020931407
254	0xbd57ec45	-0.05271556
255	0xbc4a5908	-0.012350328

action_model._discrete_distribution.branches.1.bias f4 [3]
0	0xbbf47b1d	-0.0074609653
1	0xbba550b8	-0.005045023
2	0x3c587f00	0.013213873

action_model._discrete_distribution.branches.2.weight f4 [2, 256]
0	0xbd6b9928	-0.057519108
1	0x3ba4f766	0.005034375
2	0x3c965f31	0.018355938
3	0xbbd544e2	-0.0065084556
4	0xba88dd0d	-0.0010441855
5	0x3d683776	0.056693517
6	0x3d23e04f	0.04000884
7	0xbc14f8e3	-0.009092542
8	0x3dd2732e	0.10275875
9	0x3da94ed9	0.08266992
10	0x3dd53857	0.104111366
11	0xbd2faf60	-0.04289186
12	0xbd278e7c	-0.040907368
13	0x3db45740	0.08805704
14	0x3daadf3a	0.08343358
15	0xbd5b24b7	-0.05350181
16	0x3dd7428d	0.105107404
17	0x3b4b55b3	0.0031026423
18	0xbd7463ec	-0.059665605
19	0x3dd64ace	0.104634866
20	0xbcd28f47	-0.025703086
21	0x3d8afe01	0.06786729
22	0xbc3ccf91	-0.011524097
23	0x3d79ca42	0.060983904
24	0x3c90c33d	0.017671222
25	0x3da5b231	0.08090628
26	0xbc90f3c0	-0.017694354
27	0xbdb1dcbf	-0.08684682
28	0x3cdd9f51	0.027053507
29	0x3d431c9a	0.0476347
30	0x3d254220	0.040346265
31	0x3dc8b02d	0.09799228
32	0xbb8682a8	-0.004104931
33	0xbd3cca1a	-0.046091177
34	0x3d96c83d	0.07362411
35	0xbd4f7a74	-0.05065389
36	0x3dad1178	0.084505975
37	0x3df01cb6	0.11724226
38	0x3e0d94be	0.13826272
39	0x3dc4c6b7	0.09608214
40	0xbb8ec4db	-0.004356963
41	0xbccc3347	-0.024926795
42	0x3de64d5c	0.11245224
43	0xbdaa2e5b	-0.08309623
44	0xbd093e1f	-0.03350651
45	0x3d7d3c01	0.061824802
46	0x3ba50b8f	0.0050367783
47	0x3cb1ecaa	0.021719296
48	0xbcc9994c	-0.02460923
49	0x3db1b69d	0.08677409
50	0xbdca94f2	-0.0989169
51	0x3cfd399a	0.030911256
52	0x3d743040	0.059616327
53	0x3c6601f4	0.014038552
54	0xbd1ee74e	-0.038794808
55	0x3dd14b4c	0.1021944
56	0x3e040607	0.12892924
57	0x3dee4a9e	0.11635326
58	0x3d96d65b	0.07365104
59	0x3c4e13b4	0.01257794
60	0xbc97f479	-0.01854919
61	0x3de65076	0.112458155
62	0x3d6c233d	0.057650793
63	0x3d4231e6	0.047410868
64	0xbbae9565	-0.005327868
65	0x3cf9b07b	0.03047966
66	0x3de389cb	0.11110266
67	0x399286fb	0.00027947858
68	0x3e06f0fc	0.13177866
69	0x3dfb44ac	0.122689575
70	0x3e0f5361	0.1399665
71	0x3ca1c4bf	0.019747136
72	0x3dcc9ee7	0.09991246
73	0xbc3730ad	-0.011181039
74	0x3d91cafc	0.07118794
75	0x3d8be742	0.06831218
76	0x3db613de	0.08890508
77	0x3dcbb123	0.099458955
78	0xbd3cc6ee	-0.04608815
79	0xbdb044f2	-0.086069
80	0x3d4d12f4	0.050066903
81	0xbc91a6d1	-0.01777974
82	0x3d1f29f9	0.038858388
83	0x3dfb14e0	0.12259841
84	0x3dcf1d0e	0.101129636
85	0x3d8ff8fa	0.070299104
86	0x3c1ad8a4	0.009451065
87	0xbc39663b	-0.011315878
88	0x3d84894c	0.064715
89	0x3d000547	0.031255033
90	0x3bfb582f	0.0076704244
91	0xbdd2d24e	-0.10294019
92	0x3d75e8ea	0.060036577
93	0x3dfb553b	0.12272116
94	0x3df04106	0.11731152
95	0x3def97f7	0.11698907
96	0x3d25ce51	0.04047996
97	0x3da6e39a	0.0814888
98	0x3d6e8650	0.05823356
99	0x3db88c64	0.090111524
100	0x3db3e190	0.08783257
101	0x3e05d3db	0.13069098
102	0x3d99c6be	0.0750861
103	0xbd48c053	-0.04901154
104	0xbd287f6f	-0.041137155
105	0x3dbbbbc4	0.09166673
106	0xbdc57e34	-0.09643212
107	0xbce4632f	-0.027879326
108	0xbcddab51	-0.02705923
109	0x3d80339b	0.06259843
110	0x3e010b55	0.12601979
111	0xbd29f0b1	-0.041489307
112	0x3b8e615e	0.004345103
113	0xbd88a8a2	-0.06672789
114	0x3d4e96a4	0.05043663
115	0xbd91ee79	-0.07125563
116	0x3e04219e	0.12903449
117	0x3d76adaa	0.060224213
118	0xbdddd20d	-0.1083108
119	0xbd050f8b	-0.032485526
120	0x3d6552ff	0.055987354
121	0x3a2197a8	0.0006164261
122	0x3e11540d	0.14192219
123	0xbdb08b93	-0.08620372
124	0x3dbaa046	0.09112601
125	0x3db0c36e	0.08631025
126	0x3e1639b5	0.14670451
127	0xbc96a196	-0.018387597
128	0x3de56a85	0.112019576
129	0xbdba4318	-0.09094828
130	0x3bb1d868	0.005427409
131	0x3ccbe333	0.02488861
132	0x3d905b17	0.07048624
133	0x3d7cba7b	0.06170128
134	0x3d26fd50	0.04076892
135	0xbd8130e4	-0.06308153
136	0x3c4efe24	0.012633834
137	0x3d6daa83	0.05802394
138	0xbdefafd6	-0.1170346
139	0x3cd73821	0.026271882
140	0x3c14d42c	0.009083789
141	0xbd90c0de	-0.070680365
142	0x3dbf99be	0.09355496
143	0xbd5d8adc	-0.054087505
144	0x3db766f5	0.08955184
145	0xbd03c66d	-0.032171655
146	0x3d3dcac2	0.046335943
147	0xbd0d5bb4	-0.034511283
148	0x3d5db9a2	0.05413211
149	0xbd24cf3d	-0.0402367
150	0xbdbb848c	-0.09156141
151	0xbd3802eb	-0.044924658
152	0x3db80704	0.08985713
153	0x3cad1f37	0.021133048
154	0x3cec27ab	0.028827509
155	0x3d1b9a61	0.037989024
156	0x3d7bf170	0.06150955
157	0x3df6774b	0.12034472
158	0x3c37e1c0	0.011223257
159	0x3c6ad6c1	0.014333428
160	0x3e075337	0.13215338
161	0x3df38833	0.11891212
162	0x3d58fe99	0.05297718
163	0xbcdf00d1	-0.027222069
164	0x3db547f1	0.08851612
165	0x3c116f6b	0.008876662
166	0x3db37180	0.08761883
167	0x3cd79906	0.026318084
168	0xbb91cf82	-0.0044497857
169	0x3daac259	0.0833785
170	0x3ced5462	0.0289709
171	0x3d542033	0.05178852
172	0x3ddcaa05	0.10774616
173	0x3db1394a	0.08653505
174	0xbc8793d9	-0.016549991
175	0x3cef3786	0.02920128
176	0xbd76aa8d	-0.060221244
177	0x3d26bdcf	0.04070836
178	0x3db8ab6c	0.09017071
179	0x3dc40aa8	0.09572345
180	0x3ded2aae	0.11580406
181	0xbd0bd76f	-0.034141
182	0xbcd97e43	-0.026549464
183	0x3d0db13f	0.034592863
184	0xba2d9f55	-0.00066231686
185	0x3e07aff1	0.1325071
186	0x3df8025d	0.12109826
187	0xbb704ba1	-0.0036666172
188	0x3d04da3d	0.03243469
189	0xbc4fbb08	-0.012678869
190	0xbb2f8aa5	-0.002678552
191	0x3d11b378	0.035571545
192	0x3dea13a0	0.114295244
193	0xbcb1e0c0	-0.021713614
194	0x3c972fb4	0.018455364
195	0x3d62819f	0.055299398
196	0xbdd13081	-0.102143295
197	0xbc781f7d	-0.015144226
198	0x3d29266b	0.041296404
199	0x3ca8cf2e	0.020606603
200	0x3e072343	0.13197045
201	0x3c182c28	0.009287871
202	0xbd8c0ecc	-0.0683876
203	0x3ddad162	0.10684468
204	0xbd8a144a	-0.06742151
205	0xbd216fb7	-0.03941318
206	0x3bf77615	0.0075519183
207	0x3d4d6ecf	0.050154503
208	0x3d76fdb8	0.06030056
209	0x3dbeabd8	0.0931012
210	0x3d7fb40e	0.062427573
211	0x3e0e21ec	0.13880128
212	0xbd4cfe0e	-0.050046973
213	0x3d978818	0.07399005
214	0xbd8dad56	-0.06917827
215	0xbca65979	-0.020306336
216	0x3dd0947a	0.1018457
217	0x3dde638a	0.10858829
218	0x3e1e5d1e	0.15465209
219	0xbcf5705b	-0.029960802
220	0xbd3f2269	-0.046663675
221	0x3dc5bab8	0.096547544
222	0xbd88b97e	-0.06676005
223	0xbd194efb	-0.037428837
224	0xbd415d00	-0.047207832
225	0x3d883861	0.066513784
226	0xbd6cdac4	-0.05782582
227	0x3da536b4	0.080670744
228	0xbd86c85e	-0.06581186
229	0xbdd0eba7	-0.10201197
230	0x3d670f60	0.056411147
231	0xbbbdfb8e	-0.00579781
232	0xbc81f793	-0.015865123
233	0xbd08449d	-0.03326856
234	0xbd0ebaa6	-0.03484597
235	0x3dd78683	0.10523703
236	0x3db7ad59	0.0896861
237	0x3d32b41b	0.043628793
238	0xbd2908ed	-0.041268278
239	0x3c82ec5d	0.015981847
240	0xbd2c4b82	-0.042064197
241	0x3dd6f734	0.10496369
242	0x3bd6e780	0.0065583587
243	0x3d4e5b71	0.050380174
244	0xbc2b1656	-0.010442337
245	0x3d8c983e	0.068649754
246	0x3de28095	0.11059681
247	0xbdf00df1	-0.11721409
248	0xbda99475	-0.08280269
249	0xbc7a1768	-0.01526437
250	0xbd670e72	-0.05641026
251	0x3caab8ef	0.020840136
252	0xbc2bde13	-0.010489958
253	0x3d66b596	0.056325518
254	0x3de7f406	0.11325841
255	0xbd41f9b7	-0.047357287

action_model._discrete_distribution.branches.2.bias f4 [2]
0	0x3da5159d	0.08060763
1	0xbda5150f	-0.08060657
