Assets/Neural Network/ButtonPress_3.onnx (onnx, 352736 bytes, 13 tensors)

discrete_act_size_vector f4 [1, 4]
0	0x40400000	3.0
1	0x40400000	3.0
2	0x40000000	2.0
3	0x40000000	2.0

network_body._body_endoder.seq_layers.0.weight f4 [256, 65]
0	0xbe43b52b	-0.19112079
1	0xbde34a05	-0.110981025
2	0xbe06b6e4	-0.13155705
3	0xbd3f4243	-0.04669405
4	0xbe1b1064	-0.15142971
5	0x3e34c53e	0.17653367
6	0xbe698a76	-0.22806725
7	0xbe245df6	-0.16051468
8	0x3d487b34	0.04894562
9	0x3ce7a5b9	0.028277265
10	0x3deee8a2	0.11665465
11	0xbdee03ef	-0.11621844
12	0xbe164d40	-0.14677906
13	0x3cfa65ee	0.030566182
14	0x3e5426a6	0.20717868
15	0xbba6c6b1	-0.005089604
16	0xbe2f65a1	-0.17128612
17	0x3df83435	0.12119333
18	0xbd1db67d	-0.038504113
19	0xbd6b5116	-0.057450376
20	0xbe6ec5c9	-0.23317637
21	0x391d3f6e	0.00014996316
22	0x3da17d34	0.07885209
23	0xbe599c13	-0.21250944
24	0x3d171afd	0.036890972
25	0xbbe846ae	-0.007088504
26	0xbe429bb3	-0.19004707
27	0x3c7ef359	0.015560948
28	0x3e45956b	0.1929528
29	0xbe22c48b	-0.15895288
30	0x3d002037	0.031280722
31	0x3de8164c	0.11332378
32	0x3c1628f7	0.00916504
33	0x3bad9d03	0.0052982583
34	0x3d956726	0.07295065
35	0x3ca7e53b	0.020495048
36	0xbdfc3c95	-0.123162426
37	0x3e0ee542	0.13954642
38	0x3d73104a	0.059341706
39	0xbd9f7ca6	-0.07787447
40	0x3d1b6a31	0.03794307
41	0x3e82e539	0.25565508
42	0xbdbce5a4	-0.09223488
43	0x3de0c770	0.1097554
44	0xbd502c29	-0.050823364
45	0x3df7106c	0.12063679
46	0xbea6d09e	-0.32581037
47	0x3c3f3489	0.01167024
48	0xbd7b3fe3	-0.061340224
49	0xbd6ed1fb	-0.05830572
50	0xbe48efab	-0.19622676
51	0xbccfce5f	-0.02536696
52	0xbdba9c73	-0.091118716
53	0xbc4d9fd3	-0.012550312
54	0x3ccc4d34	0.024939157
55	0xbde20085	-0.11035255
56	0x3deab7d8	0.11460847
57	0x3e20dcaf	0.15709184
58	0xbc3362bc	-0.010948833
59	0xbc3c9d68	-0.011512138
60	0x3dc487a0	0.09596181
61	0x3de26d9f	0.11056065
62	0xbe1ef1bd	-0.15521903
63	0xbdb03464	-0.08603743
64	0x3e0f31db	0.13983862
65	0xbd006761	-0.03134859
66	0x3e53ff75	0.20702918
67	0x3e243637	0.16036306
68	0xbe023b33	-0.12717895
69	0xbd4346fe	-0.047675125
70	0xbe076a13	-0.13224058
71	0xbd0888e1	-0.033333663
72	0x3d813ab3	0.06310024
73	0xbe4fc297	-0.20289074
74	0x3d043026	0.03227248
75	0x3d70700f	0.058700617
76	0x3db5eb01	0.08882714
77	0xbddb9833	-0.10722389
78	0xbc36fad4	-0.0111682005
79	0x3e1a0e67	0.15044557
80	0x3e52c5f9	0.20583333
81	0xbdb3e43d	-0.08783767
82	0x3cfe7709	0.03106262
83	0xbcc9f22e	-0.024651613
84	0x3e256afb	0.16154091
85	0xbd497cc5	-0.049191255
86	0x3e072731	0.13198544
87	0xbe1bfd02	-0.15233234
88	0x3e0c967f	0.13729285
89	0x3e267d07	0.16258632
90	0x3b037f1e	0.0020064781
91	0xbd654324	-0.055972233
92	0xbdbee8cd	-0.09321747
93	0x3e2288a1	0.15872432
94	0x3dfc9181	0.1233244
95	0x3e171365	0.14753492
96	0xbdd998dc	-0.10624859
97	0x3da59dda	0.080867484
98	0x3d866e4e	0.06564008
99	0x3dc46ecd	0.09591446
100	0xbe6f9016	-0.23394808
101	0x3dc1b524	0.09458378
102	0x3d954f42	0.07290508
103	0xbe30b2d1	-0.17255713
104	0x3e01f825	0.12692316
105	0x3d0c42ea	0.0342435
106	0x3dcb953b	0.09940573
107	0xbe1e51f7	-0.15460955
108	0xbb3ebd8d	-0.002910468
109	0x3ce2f557	0.027704878
110	0xbdb320da	-0.087465
111	0x3d694e79	0.056959603
112	0x3d223624	0.039602414
113	0xbe5ebc23	-0.21751456
114	0x3d548b42	0.05189062
115	0xbd1e5a53	-0.03866036
116	0x3d648732	0.055792995
117	0x3d02c8fa	0.031929947
118	0xbc9adc7c	-0.018903963
119	0xbda23013	-0.07919326
120	0xbe21cace	-0.1580002
121	0x3e62940f	0.22126792
122	0x3da7cfe6	0.0819395
123	0xbcdf526c	-0.027260982
124	0x3ae83911	0.0017717202
125	0xbddf1cd9	-0.10894174
126	0xbe9386f4	-0.288139
127	0xbda0fee4	-0.078611165
128	0xbc7d97e3	-0.015478107
129	0xbdb94054	-0.09045473
130	0x3e35a4b6	0.17738613
131	0x3e3a7af5	0.18210967
132	0x3dc5afd1	0.09652675
133	0xbcc4daa0	-0.02403003
134	0x3e670071	0.22558762
135	0xbe12a0ab	-0.14319102
136	0xbe173627	-0.14766751
137	0xbd64710a	-0.055771865
138	0x3df4782f	0.11936986
139	0x3dbae64f	0.09125959
140	0x3e1e766e	0.15474865
141	0x3e59821d	0.2124104
142	0xbdcfd6aa	-0.10148366
143	0xbe9b0a4e	-0.302813
144	0xbc8f626e	-0.01750299
145	0x3d3131c4	0.04326035
146	0xbe2d4bc1	-0.16923429
147	0x3e138f34	0.14410096
148	0x3c71d399	0.0147599215
149	0xbc504396	-0.012711426
150	0xbc86f385	-0.016473541
151	0xbd26f0b6	-0.040756904
152	0xbe64b33d	-0.22333999
153	0xbdffdc14	-0.124931484
154	0x3e8e0c4b	0.27743754
155	0xbdb26d6a	-0.08712275
156	0xbe4d8bb5	-0.20072825
157	0xbd2f2ea1	-0.04276908
158	0x3de0c74a	0.10975511
159	0x3de97dcf	0.11400949
160	0xbdc62385	-0.096747436
161	0x3e4c95db	0.1997904
162	0xbdd37c23	-0.103264116
163	0xbdb2b67a	-0.08726211
164	0x3e0a4021	0.13501026
165	0x3d67e671	0.05661625
166	0x3db913ed	0.09037004
167	0x3d8a26f8	0.06745714
168	0x3ca77e60	0.020446002
169	0xbc871835	-0.016491035
170	0x3d25652b	0.040379684
171	0x3e4bb326	0.19892558
172	0x3e8660f8	0.26245856
173	0xbaef1d3c	-0.0018242965
174	0xbe54726e	-0.20746776
175	0xbe1ad985	-0.1512204
176	0xbea9775a	-0.3309887
177	0x3d8d5e03	0.06902697
178	0x3d08a314	0.03335865
179	0xbe2f51fd	-0.1712112
180	0xbe399f9c	-0.18127292
181	0x3d92af02	0.07162286
182	0x3d6eaed0	0.058272183
183	0xbcf31b77	-0.029676182
184	0x3d2dedb8	0.042463034
185	0xbe656890	-0.22403169
186	0xbe16e3fc	-0.14735407
187	0xbe518c0c	-0.2046358
188	0x3ca1f7a3	0.019771403
189	0xbdb3df89	-0.0878287
190	0x3d4033de	0.046924464
191	0x3d74c9a9	0.05976263
192	0xbc54aa0d	-0.012979996
193	0xbe751399	-0.23933257
194	0x3df25b7c	0.118338555
195	0x3cb36ba4	0.021901913
196	0xbd0cc0b8	-0.03436348
197	0x3e7db9ce	0.2477791
198	0xbca7ad64	-0.020468421
199	0x3ad10972	0.001594825
200	0xbd864199	-0.065554805
201	0x3e0780ee	0.13232777
202	0x3dd94516	0.1060888
203	0xbe60f6fd	-0.21969219
204	0xbe8f54df	-0.2799444
205	0xbe7cc8e0	-0.24686003
206	0xbd271d62	-0.040799506
207	0x3ce41eff	0.027846811
208	0xbd984895	-0.07435719
209	0xbd9dd9ef	-0.07707583
210	0xbdad1c83	-0.08452704
211	0x3dbb9cca	0.091607645
212	0xbd66c43a	-0.05633948
213	0x3e3b8b21	0.18314792
214	0x3cb75bbe	0.022382613
215	0xbe0caac8	-0.13737023
216	0xbe683b32	-0.22678831
217	0xbe00ad1e	-0.12566039
218	0x3e064025	0.13110407
219	0x3e64487a	0.22293273
220	0xbd0caf09	-0.034346614
221	0xbe31ff26	-0.17382488
222	0x3d45116a	0.04811231
223	0xbd918260	-0.07104945
224	0xbcea56d4	-0.028605856
225	0x3e10dcd1	0.14146735
226	0xbd0cd53d	-0.034383047
227	0xbd98c65c	-0.07459709
228	0x3c8517a9	0.016246634
229	0x3db2b267	0.08725434
230	0xbcf5f22a	-0.0300227
231	0x3e28415d	0.16431184
232	0x3d836b93	0.064170025
233	0x3d2200e0	0.039551616
234	0x3df7c7aa	0.1209863
235	0x3d8ebc8f	0.069695584
236	0xbc3349bd	-0.010942874
237	0xbca9c023	-0.0207215
238	0xbd89956d	-0.06717954
239	0x3da20f8b	0.07913121
240	0xbd230c7d	-0.03980683
241	0xbe171f4d	-0.14758034
242	0x3e1ccaa9	0.15311684
243	0xbbdb6f5f	-0.006696626
244	0xbdef5f60	-0.11688113
245	0xbd8249dc	-0.06361744
246	0xbe25653f	-0.16151904
247	0x3e8fa134	0.28052676
248	0xba5dd1c1	-0.0008461737
249	0xbdb3a39c	-0.087714404
250	0x3d2e587c	0.042564854
251	0x3ca62688	0.020282045
252	0x3db7ac60	0.08968425
253	0xbdfa6548	-0.12226349
254	0xbe0b5212	-0.13605526
255	0x3d9e551f	0.07731079

network_body._body_endoder.seq_layers.0.bias f4 [256]
0	0xbc8a59b8	-0.016888484
1	0x3beb2837	0.007176425
2	0x3c4b5761	0.0124109695
3	0x3b353418	0.0027649458
4	0xbc99ac72	-0.018758986
5	0x3d1d9e17	0.038480844
6	0x3cf71dde	0.030165609
7	0xbc11c4a7	-0.008896983
8	0x3c440207	0.011963374
9	0x3c71e5e3	0.014764282
10	0xbb6c0604	-0.0036014328
11	0xbd1e9ff2	-0.038726754
12	0x3cc4b139	0.024010288
13	0x3c264f5f	0.0101507595
14	0x3c713ab8	0.014723472
15	0x3ca12164	0.019669242
16	0xbcf31b25	-0.02967603
17	0xbc704006	-0.014663702
18	0x3cba31a5	0.02272875
19	0xbd6de347	-0.058078077
20	0x3cf3df2d	0.029769504
21	0x3b4be35b	0.0031110856
22	0x3cd9c8a3	0.026584929
23	0xbb82329b	-0.003973318
24	0xba836153	-0.0010023512
25	0xbc99d2a7	-0.018777205
26	0x3cdbe7a5	0.026843855
27	0x3dcf8b61	0.10134006
28	0x3d0e5971	0.034753267
29	0xbd810751	-0.063002236
30	0xbc96bc07	-0.018400205
31	0x3c143f60	0.009048313
32	0x3b0ce634	0.0021499516
33	0xb899fbf8	-7.342541e-05
34	0xbd2970dd	-0.0413674
35	0xbb8f87c8	-0.0043802
36	0x3c93790a	0.018002052
37	0x3cd976bf	0.02654588
38	0xbd0bb00f	-0.03410345
39	0x3d07388d	0.033012915
40	0x3cc18da5	0.023627112
41	0xbcd21b24	-0.025647707
42	0x3c2afe6c	0.010436635
43	0xbd1a8a9f	-0.037729856
44	0x3c2dc2ec	0.010605555
45	0x3d6a515a	0.05720649
46	0xb9e593ff	-0.0004378855
47	0xb92a20cc	-0.00016224681
48	0x3d2f35bc	0.042775854
49	0x38a430a5	7.82919e-05
50	0x39ad1fca	0.00033020816
51	0x3cef7fb2	0.029235695
52	0xbc881b30	-0.016614527
53	0x3c8aa3dc	0.016923837
54	0x392537ec	0.00015756459
55	0xbc32fefd	-0.010925052
56	0xbb389d14	-0.0028169798
57	0xbace1f61	-0.0015725904
58	0x3c67c6ef	0.014146551
59	0x3c2b2917	0.010446808
60	0xbd599554	-0.053120926
61	0x3ceafc0e	0.028684642
62	0x3bd5fbef	0.006530277
63	0xbd0d72fc	-0.034533486
64	0xbbc69756	-0.006060521
65	0xbd0ab833	-0.033867072
66	0x3d262dcc	0.04057102
67	0x3cb0782e	0.021541681
68	0x3c8fb800	0.017543793
69	0xbc71b60b	-0.014752875
70	0x3cfaeeac	0.030631386
71	0x3d63afaf	0.055587467
72	0x3d0be618	0.03415498
73	0x3ca946b0	0.02066359
74	0xbbf990b5	-0.0076161274
75	0xbd14b24e	-0.036302857
76	0x3da32f53	0.07968011
77	0xbae4f7ef	-0.001746891
78	0xbc775fda	-0.015098536
79	0xbaecbc2f	-0.0018061454
80	0xbcb553de	-0.022134718
81	0x3b8a0eb4	0.0042131785
82	0xbcc0d65a	-0.02353971
83	0xbc08aa11	-0.008341328
84	0x3caee71f	0.021350442
85	0x3d144002	0.036193855
86	0x3caaeb01	0.020864012
87	0xbb9b7396	-0.0047440035
88	0x3b8ee8e8	0.0043612607
89	0xb9c23cd3	-0.0003704788
90	0x3cd2353c	0.02566015
91	0xbcdad944	-0.026714928
92	0x3c36fee3	0.011169168
93	0xbc9ccf82	-0.019141916
94	0x3be7804b	0.0070648543
95	0x3bd7cbd5	0.006585578
96	0x3cebbbb2	0.028776024
97	0x3d9fe009	0.07806403
98	0xbc1e4051	-0.009658889
99	0xbc6babe4	-0.014384244
100	0xbd15eecd	-0.03660469
101	0xbd46413d	-0.04840206
102	0x3cfbadee	0.030722585
103	0x3c34e86a	0.01104174
104	0x3c6e0601	0.014527799
105	0xbc8301a4	-0.015991993
106	0x3c8d7851	0.017269285
107	0x3c1eca71	0.0096918205
108	0xbd230f45	-0.039809484
109	0x3c876f14	0.016532458
110	0xbc6ee90b	-0.014581929
111	0xbd1ca96a	-0.038247503
112	0x3d5dcc2a	0.054149784
113	0x3c80ec66	0.015737724
114	0xbca8e0da	-0.02061503
115	0x3bf758e7	0.00754844
116	0x3c588b42	0.013216795
117	0x3bd34e31	0.00644853
118	0xbd0deec4	-0.034651533
119	0x3c166045	0.009178226
120	0x3b76331c	0.0037567085
121	0x3cbd0e1b	0.023078015
122	0x3c7bc2bf	0.015366255
123	0x3bc26c49	0.0059333188
124	0x3cdfc8b5	0.027317384
125	0xbd9ffefb	-0.078123055
126	0x3b56f9b9	0.0032802655
127	0x3cb50dcf	0.022101311
128	0xbc938c57	-0.018011255
129	0xbc752915	-0.014963408
130	0x3bce8aa3	0.006303148
131	0x3c932dd5	0.01796619
132	0x3b9b2c85	0.0047355318
133	0xbcb1e0f1	-0.021713706
134	0xbcc08d02	-0.023504738
135	0xbc60cd8c	-0.013720881
136	0xbaf59bc7	-0.0018738442
137	0x3ce9d316	0.028543036
138	0x3bb7e185	0.005611601
139	0xbb343321	-0.0027496296
140	0x3d135e4d	0.035978604
141	0xbd1d5dde	-0.038419597
142	0xbcd286c3	-0.025699025
143	0xbd419193	-0.04725797
144	0x3d14784d	0.03624754
145	0xbccacf30	-0.024756998
146	0xbc0e0438	-0.008667998
147	0x3cf32aeb	0.02968355
148	0x3d0bdeec	0.03414814
149	0x3d2132da	0.039355136
150	0x3c2d2e6f	0.010570153
151	0xbd02f388	-0.03197053
152	0x3bab304a	0.0052242624
153	0x3b5eac68	0.0033977274
154	0x3c6d2cd0	0.014476016
155	0xbced98a1	-0.029003443
156	0x3c0ef258	0.008724771
157	0x3c9393ca	0.018014807
158	0xbbbd1300	-0.0057700872
159	0xbb40c5e2	-0.0029414822
160	0x3d0f174d	0.03493433
161	0xbcd3369f	-0.025782881
162	0x3c43acdd	0.011943069
163	0xbc8a48b0	-0.016880363
164	0x3c57a990	0.013162985
165	0xbc57d7bf	-0.0131739965
166	0xbc98e1e0	-0.018662393
167	0x3b10dfcf	0.0022106057
168	0xba406553	-0.0007339317
169	0x3c4931ea	0.012279967
170	0x3ba645a0	0.005074218
171	0x3c97f25c	0.018548183
172	0x3caaf1ff	0.020867346
173	0x3c75d020	0.015003234
174	0x3c8f3eeb	0.017486056
175	0xbb85e0a9	-0.0040856195
176	0x3c4b2124	0.012398038
177	0xbd100406	-0.035160087
178	0xbc521b41	-0.012823881
179	0xbcb03b63	-0.021512693
180	0xbc3e9da0	-0.01163426
181	0x3c881a2e	0.016614046
182	0xbd5db3fa	-0.054126717
183	0x3c82c851	0.015964659
184	0xbcf1fb7a	-0.029538859
185	0xbbad8a57	-0.0052960324
186	0xbc2e4dbe	-0.010638652
187	0xbb7577c9	-0.003745543
188	0x3c661a1c	0.014044311
189	0xbb2f837f	-0.0026781259
190	0xb9e18aa6	-0.00043018645
191	0x3cf24fe5	0.029579112
192	0x3c993a93	0.018704688
193	0x3c555681	0.013021112
194	0x3d05b929	0.032647286
195	0x3ce7f982	0.028317217
196	0x3d12cb5c	0.03583847
197	0xbbf77f4b	-0.0075530163
198	0x3c5522be	0.013008771
199	0xbc7a131c	-0.015263345
200	0x3d23f28d	0.040026236
201	0x3aa299f2	0.0012405498
202	0xbca1cf52	-0.019752178
203	0xbbb74d79	-0.0055939523
204	0x3d037faf	0.03210419
205	0xbcc3587b	-0.023845902
206	0x3cd7c0b7	0.02633701
207	0xbd1fcf67	-0.039016154
208	0xbb85b6f7	-0.004080649
209	0xbc735c8f	-0.014853611
210	0x3ce74c01	0.028234484
211	0x3cd7ebe3	0.026357597
212	0x3ced5f98	0.028976247
213	0x3d3dbeb0	0.046324432
214	0xbbe1c0bc	-0.006889431
215	0xbcb934ac	-0.022608124
216	0xbd425f39	-0.047454093
217	0xba65177c	-0.0008739156
218	0xbc61ae0d	-0.013774407
219	0xbbec4dac	-0.0072114076
220	0xbc024ec1	-0.007953347
221	0xbcc93662	-0.024562065
222	0x3b841205	0.0040304684
223	0x3d1852d6	0.037188374
224	0x3d01e5c6	0.03171327
225	0x3d0d8b36	0.03455659
226	0xbb858e8f	-0.004075832
227	0xbcb2f255	-0.021844069
228	0x3d2eed5a	0.042706825
229	0xbbfbfbbb	-0.0076899207
230	0xb7b2adc6	-2.1300173e-05
231	0xbc479c20	-0.012183219
232	0xbd34d87f	-0.04415178
233	0x3c032fba	0.008006984
234	0x3cf3fd09	0.029783743
235	0x3bb295d9	0.005449992
236	0x3d159fbf	0.0365293
237	0x3990b0c1	0.00027597512
238	0x3d02ffb5	0.031982142
239	0x3da6b5e6	0.08140163
240	0x3d308245	0.043092985
241	0x3bf029bd	0.0073291943
242	0xbd173fb6	-0.036925994
243	0xbc36c739	-0.011155897
244	0xbd4a3165	-0.049363513
245	0x3c7429fd	0.014902589
246	0xbd672a5a	-0.056436874
247	0xbbb410c2	-0.0054951617
248	0x3c2f3a87	0.010695106
249	0xbd5b4c51	-0.053539578
250	0x3c61515f	0.013752311
251	0x3c077ea0	0.008269936
252	0xbc1cee09	-0.009578236
253	0x3c15a7a7	0.00913421
254	0xbc54c54e	-0.012986494
255	0x3d32844c	0.0435832

network_body._body_endoder.seq_layers.2.weight f4 [256, 256]
0	0x3e0dc424	0.13844353
1	0x3d9da1ee	0.07696901
2	0xbd8b9bcd	-0.06816826
3	0xbcf7497f	-0.030186413
4	0x3d8e6ff9	0.06954951
5	0x3c9a1700	0.018809795
6	0xbc5eaa83	-0.013590458
7	0xbb6135f5	-0.0034364436
8	0xbd195792	-0.03743703
9	0x3dac0ae8	0.08400518
10	0x3d9e5bf0	0.077323794
11	0x3c1eef3e	0.0097005945
12	0x3ca1fbb8	0.01977335
13	0xbd424c3b	-0.04743598
14	0x39aac6ea	0.0003257313
15	0xbd4b4847	-0.049629476
16	0x3d02b16c	0.031907484
17	0xbd5c2d9a	-0.053754427
18	0x3b41a1df	0.0029545946
19	0x3d16f967	0.036858942
20	0x3bf2865d	0.0074012713
21	0xbdbebe61	-0.09313656
22	0x3e07cd64	0.13261944
23	0x3d630927	0.05542865
24	0xbc36abb9	-0.01114934
25	0xbd33b268	-0.043871313
26	0xbd5afc63	-0.05346335
27	0x3bb57fa3	0.005538897
28	0xbd9fd70c	-0.07804689
29	0xbd37c85e	-0.04486882
30	0xbd3b3c60	-0.045711875
31	0xbd5cb251	-0.053880993
32	0xbc8bc0b7	-0.017059667
33	0xbd91f198	-0.071261585
34	0x3da7f3fc	0.08200833
35	0x3d18acd4	0.037274197
36	0xbc4612f5	-0.012089481
37	0xbd82e303	-0.06390955
38	0x3bd9c621	0.0066459333
39	0x3d2a2fa1	0.04154933
40	0x3dd95573	0.10612001
41	0xbb3292b8	-0.0027248096
42	0x3d4e6815	0.05039223
43	0xbe0d1e73	-0.13781147
44	0xbc33cc16	-0.010973951
45	0x3d828cc3	0.063745044
46	0xbd32fb51	-0.043696705
47	0x3ba1e2dd	0.0049403743
48	0x3d6ab763	0.057303797
49	0xbdacc364	-0.08435705
50	0x3d351b11	0.044215266
51	0xbc558d4a	-0.013034174
52	0x3da7c42f	0.08191716
53	0x3d90db87	0.070731215
54	0x3c9bd363	0.019021695
55	0xbd6bb142	-0.057542093
56	0x3dafc3cd	0.08582268
57	0x3d039420	0.032123685
58	0x3adf8385	0.0017052746
59	0xbcc4b9ab	-0.024014315
60	0xbcd40665	-0.025881955
61	0x3d7b98b3	0.061424922
62	0x3b7a0772	0.003815141
63	0xbbc0119b	-0.0058614737
64	0xbe4c9b05	-0.1998101
65	0x3d33924a	0.043840684
66	0x3cbd015d	0.02307194
67	0xbd0f114b	-0.0349286
68	0x3d5c4ef5	0.053786237
69	0x3e2c5a3d	0.16831298
70	0xbad70915	-0.0016405905
71	0xbc8fe784	-0.01756645
72	0xbbb83b7a	-0.0056223245
73	0xbd980010	-0.07421887
74	0xbdbc4958	-0.09193677
75	0xbd4c2429	-0.049839173
76	0xbc5044e1	-0.0127117345
77	0x3d4b8c86	0.04969456
78	0x3c5e3867	0.013563252
79	0xbda1c2c4	-0.07898477
80	0xbd8705bc	-0.065928906
81	0xbd27c989	-0.040963683
82	0x3e4e13a1	0.20124675
83	0x3de0131f	0.10941147
84	0xbdcdb1eb	-0.10043701
85	0x3b5acad9	0.0033385067
86	0xbd8af2c6	-0.067845866
87	0xbb5433a0	-0.0032379404
88	0x3e03cee3	0.1287189
89	0xbdd278a4	-0.102769166
90	0x3cc10de4	0.023566194
91	0xbda97afe	-0.08275412
92	0x3d738b6e	0.059459142
93	0x3d378a7f	0.044809815
94	0xbdf9ae19	-0.121914096
95	0xbd839bd1	-0.06426204
96	0xbdfe9ada	-0.12431879
97	0x3d1ee9dc	0.038797244
98	0xbd1035d3	-0.03520758
99	0x3baada08	0.0052139796
100	0xbdcceed8	-0.10006493
101	0x3e3f3d1e	0.18675658
102	0xbcdb5e27	-0.026778294
103	0x3d648e5c	0.055799827
104	0xbd3752b8	-0.04475662
105	0xbb900efa	-0.0043963166
106	0xbc99d8d4	-0.01878015
107	0x3d85e1ee	0.06537233
108	0x3d8353e9	0.06412489
109	0x3c8f9c78	0.017530665
110	0xbd0ac281	-0.0338769
111	0x3c69b972	0.014265405
112	0xbd84b239	-0.06479306
113	0x3d3de5e3	0.046361815
114	0x3bccb901	0.00624764
115	0x3cad1984	0.02113033
116	0xbd5fada8	-0.05460897
117	0x3cd92a7d	0.026509518
118	0xbcb38b00	-0.021916866
119	0x3d1a6eb6	0.03770324
120	0x3e245d37	0.16051184
121	0xbccd118c	-0.025032781
122	0x3ba57c5c	0.005050225
123	0x3d1f16f4	0.03884025
124	0xbcd3173e	-0.025767919
125	0x3d4c14a4	0.049824372
126	0x3c2f19de	0.01068732
127	0x3cdf5e68	0.027266696
128	0xbd170fd7	-0.03688034
129	0x3dcf8d1a	0.10134335
130	0x3d703598	0.05864486
131	0x3e6d70ae	0.23187515
132	0x3d7884ce	0.060673527
133	0x3dbe42c2	0.09290077
134	0x3defada1	0.11703039
135	0xbdbeee64	-0.09322813
136	0xbd00bf0d	-0.0314322
137	0xb937a00e	-0.00017511865
138	0xbce560bc	-0.028000228
139	0xbd7ecade	-0.062205188
140	0x3aa0adc2	0.0012258815
141	0x3c7ebd51	0.015548066
142	0x3cfb0c8b	0.03064563
143	0x3cd0c969	0.025486665
144	0x3cf0769c	0.029353432
145	0xbdb727cd	-0.08943138
146	0x3cc61cd2	0.024183664
147	0xbdd0db4d	-0.10198078
148	0xbc8b263c	-0.016986005
149	0x3cb08f95	0.02155284
150	0xbe181a09	-0.14853682
151	0xbd1af732	-0.0378334
152	0x3d0d303e	0.034469835
153	0x3dedafdf	0.116058104
154	0x3bfaedc2	0.0076577375
155	0x3d19ee8c	0.03758101
156	0xbc4a0325	-0.012329851
157	0x3d559ebb	0.05215333
158	0xbd125536	-0.035725795
159	0xbe152a22	-0.14566854
160	0xbca3ddbc	-0.020003192
161	0xbdead840	-0.11467028
162	0xbd96e403	-0.073677085
163	0x3cf7f011	0.03026584
164	0x3c97bab0	0.018521637
165	0xbc658472	-0.014008628
166	0xbdd45f4e	-0.103697404
167	0xbd13c4cd	-0.036076356
168	0x3df50c36	0.1196522
169	0xbc8824d0	-0.016619116
170	0x3e578ff4	0.21051008
171	0x3e31aff4	0.17352277
172	0x3d286c33	0.04111881
173	0xbcbcb13b	-0.023033729
174	0xbc8e3151	-0.0173575
175	0xbcbef24c	-0.023308896
176	0xbcbaeba2	-0.022817437
177	0xbdf1f16d	-0.118136264
178	0xbddaf10c	-0.10690507
179	0xbbe6fa92	-0.0070489133
180	0x3d36e89e	0.044655435
181	0x3dc988ae	0.09840523
182	0x3d5613ba	0.052264906
183	0xbd2d5e93	-0.04232652
184	0xbd2e0efe	-0.042494766
185	0x3dd46829	0.103714295
186	0xbdd4df60	-0.10394168
187	0x3b8ca839	0.0042925146
188	0xbd47a6e2	-0.048743136
189	0x3bc4c956	0.0060054464
190	0xbe09db5e	-0.13462588
191	0x3d2ef881	0.04271746
192	0xbd29ef5f	-0.041488048
193	0xbdb5de07	-0.08880239
194	0x3d4dc9c9	0.050241265
195	0xbc335d4b	-0.010947536
196	0xbcea5971	-0.028607102
197	0xbc8ad014	-0.016944923
198	0xbcc1e520	-0.023668826
199	0x3d883160	0.066500425
200	0xbd9e363c	-0.07725188
201	0x3cce1d88	0.025160566
202	0xbd59ad0a	-0.05314354
203	0x3dae223d	0.08502624
204	0xbce1cf70	-0.027564734
205	0x3d5982bf	0.053103205
206	0x3dc55649	0.09635598
207	0x3d5d1b9b	0.053981405
208	0xbbd3aed6	-0.006460051
209	0xbcb394c2	-0.02192152
210	0x3cdd9c67	0.027052118
211	0xbd23199a	-0.039819337
212	0x3e0076d8	0.12545335
213	0x3d3bd2fa	0.0458555
214	0x3d4a1937	0.049340453
215	0x394d8363	0.00019599269
216	0x3ccd4ae0	0.025060117
217	0xbd3505d6	-0.04419502
218	0xbbc22524	-0.0059248377
219	0xbd9d4dcc	-0.07680854
220	0x3c2dbe48	0.010604449
221	0x3cee3cce	0.029081728
222	0xbd1c0453	-0.03809006
223	0xbdd9f5f7	-0.10642617
224	0xbd9b89b0	-0.07594621
225	0x3d306111	0.04306132
226	0x3d7ea1e0	0.062166095
227	0xbdaadfe0	-0.08343482
228	0x3d91a1f1	0.07110966
229	0xbda1b232	-0.07895316
230	0xbd301799	-0.042991254
231	0xbcb2341c	-0.021753363
232	0x3c71cc08	0.0147581175
233	0xbb3fa734	-0.0029243948
234	0x3cf1b694	0.029506005
235	0xbcce3885	-0.025173435
236	0xbc6fbe3c	-0.014632758
237	0x3dda91c8	0.10672337
238	0xbc029fad	-0.00797264
239	0x3cf910e5	0.030403564
240	0x3e1c3b5c	0.15257019
241	0xbe0ce2ae	-0.13758346
242	0xbdbe8c41	-0.09304095
243	0x3c905078	0.017616495
244	0x3d7afeed	0.061278272
245	0x3d863c5e	0.06554483
246	0x3d63ef34	0.055648044
247	0xbcd6b845	-0.026210913
248	0x3d40eb51	0.047099415
249	0x3c868524	0.016420908
250	0x3c0f7f10	0.008758321
251	0x3d26a67a	0.04068611
252	0x3d616aed	0.055033613
253	0x3de6f148	0.112764895
254	0x3bace2c1	0.0052760546
255	0x3c612167	0.013740874

network_body._body_endoder.seq_layers.2.bias f4 [256]
0	0xbc8f6dbc	-0.01750838
1	0x3c17a901	0.009256602
2	0x3c1eee4f	0.009700372
3	0xbc2af6dc	-0.010434832
4	0x3c4a5012	0.012348192
5	0xbb9b6f58	-0.004743498
6	0xbbc89c74	-0.0061221663
7	0xbc92a472	-0.01790068
8	0x3c744519	0.014909052
9	0x3c8ddec0	0.01731813
10	0xbcd5c0f3	-0.026092982
11	0x3d0842fb	0.033267003
12	0x3d1196da	0.035544254
13	0xbc54bc2d	-0.012984318
14	0x3ce2e8bb	0.027698865
15	0x3d4c52fa	0.04988382
16	0x3cbeddaa	0.023299057
17	0x3c90d341	0.017678859
18	0x3d00f6de	0.03148543
19	0xbb3de9dc	-0.0028978502
20	0x3c50d4bc	0.012746032
21	0xbc4e688e	-0.01259817
22	0xbbb42941	-0.005498082
23	0x3d0b4aff	0.03400707
24	0x3c9a577c	0.018840544
25	0xbc15b2c4	-0.009136859
26	0xbc21d6cf	-0.0098778745
27	0xbb74dd5e	-0.003736339
28	0x3c361374	0.011113036
29	0x3cab476e	0.020908084
30	0x3d2c51ab	0.042070072
31	0xbd095a35	-0.033533294
32	0x3c852672	0.016253684
33	0xbd5d35a0	-0.05400622
34	0xbc4268ed	-0.011865837
35	0x3cd89469	0.026437955
36	0x3cfa46aa	0.030551273
37	0x3bf474cc	0.0074602123
38	0x3d10f9f6	0.03539463
39	0xbafc7eee	-0.0019263902
40	0xbc48c77f	-0.012254595
41	0x3d1e586b	0.03865854
42	0x3c340890	0.01098837
43	0x3b25f65d	0.0025323846
44	0x3bc9f205	0.006162884
45	0xbd3e2628	-0.046423107
46	0x3cb40d99	0.02197914
47	0x3cf333b9	0.02968775
48	0xbcf24510	-0.029573947
49	0x3d2d29fc	0.042276368
50	0x3c22fa0d	0.009947312
51	0x3c2dd95c	0.010610905
52	0x3c117a80	0.008879304
53	0x3d10a3dc	0.03531252
54	0x3cfa9886	0.030590307
55	0xbcdc3f62	-0.026885692
56	0x3cc3d234	0.023903944
57	0x3c92a099	0.017898845
58	0xbc10b9b3	-0.008833337
59	0x3d1111e1	0.03541744
60	0xbbdf2530	-0.006809853
61	0xbc721755	-0.014776071
62	0x3c6dfcb5	0.014525582
63	0xbb989351	-0.0046562334
64	0xbc3d37de	-0.011548964
65	0x3d2603fb	0.04053114
66	0xbc616c10	-0.013758674
67	0x3cb38a99	0.021916674
68	0x3d2c11c9	0.04200915
69	0x3d0b660c	0.034032866
70	0x3ca26e17	0.019827886
71	0x3c134727	0.008989132
72	0x3bf7acf3	0.007558459
73	0x3cc3f6cd	0.023921395
74	0xbd3b9bf7	-0.045803037
75	0x3cc42f0b	0.023948213
76	0xbc6663a8	-0.014061846
77	0x3b90241d	0.0043988363
78	0x3d24dcab	0.040249508
79	0x3c550d6f	0.013003691
80	0x3cd77294	0.026299752
81	0x3cb8b6db	0.02254813
82	0xbc9679dd	-0.018368656
83	0xbc43f694	-0.011960644
84	0x3c978a0c	0.018498443
85	0x3c2a3d61	0.01039061
86	0x3c33267a	0.0109344665
87	0x3c59b631	0.013288067
88	0x3d06280d	0.03275304
89	0xbcb4fcf4	-0.022093274
90	0x3cabc25c	0.020966701
91	0xbc895d97	-0.01676826
92	0xbc9b34e9	-0.018946128
93	0x3ca48989	0.020085113
94	0xbce48b27	-0.027898384
95	0x3c93c73a	0.018039335
96	0x38306e35	4.206431e-05
97	0x3b3956d2	0.0028280509
98	0xbc36d922	-0.011160167
99	0xbd72541e	-0.05916225
100	0x3cb8bc73	0.022550797
101	0x3d0ecfd3	0.034866165
102	0xbaf40062	-0.0018615837
103	0xbb88c726	-0.004174131
104	0xbbdd90a5	-0.0067616277
105	0x3c1e7c36	0.009673169
106	0x3c572bbf	0.0131329885
107	0x3cc39788	0.023875967
108	0xbc93fae3	-0.018063968
109	0x3bbc8188	0.005752746
110	0xbbe1a06b	-0.0068855784
111	0x3c03f8a9	0.008054891
112	0x3d2c7372	0.042102285
113	0x3c6d3e6e	0.014480216
114	0x3a85bb00	0.0010202825
115	0x3c7033e8	0.014660813
116	0xbd710b1c	-0.058848485
117	0xbd334b22	-0.043772824
118	0xbd00ad43	-0.031415235
119	0x3adff22f	0.0017085726
120	0x3cf0f7c6	0.029415023
121	0xbcd0524f	-0.025429873
122	0xbd505f4b	-0.05087213
123	0xbc30daba	-0.010794336
124	0xbbef0888	-0.007294718
125	0x3c8cd006	0.017189037
126	0x3bdaacc6	0.006673428
127	0x3d214566	0.039372824
128	0x3d20e12f	0.03927725
129	0x3d2b6799	0.041846845
130	0x3d36f54a	0.04466752
131	0x3bc9983c	0.006152181
132	0xbd70d18b	-0.058793586
133	0x3cb1fffe	0.021728512
134	0x3cc81b93	0.02442721
135	0x3cabc828	0.020969465
136	0x3d0143ed	0.03155892
137	0x3c7de552	0.015496569
138	0xbd5ee2ae	-0.054415397
139	0x3bce7afb	0.0063012815
140	0xbb46fbbe	-0.0030362452
141	0x3c2e3220	0.010632068
142	0xbc3729f8	-0.01117944
143	0xbc744e7e	-0.014911292
144	0xbd455cee	-0.048184328
145	0x3c07975a	0.008275831
146	0x3c7c6e49	0.015407153
147	0x3c7fe26f	0.015617951
148	0x3c525c98	0.012839459
149	0xbd761e4f	-0.0600875
150	0xbd7535aa	-0.05986563
151	0x3c4f86a4	0.012666378
152	0xbcbb0fbb	-0.02283465
153	0xbd45aa0a	-0.048257865
154	0xbbeaa5a1	-0.007160858
155	0x3bd4d4af	0.0064950804
156	0xbc035c42	-0.008017601
157	0x3ab01d0e	0.0013436393
158	0xbc989696	-0.018626492
159	0x3cf63d44	0.03005851
160	0xbdbf429e	-0.09338878
161	0x3cc6e51f	0.024279175
162	0x3c96bd14	0.018400706
163	0xbc874b6f	-0.016515462
164	0x3caa5f28	0.020797327
165	0x3d36b18e	0.044602923
166	0x3cb9da21	0.02268702
167	0xbcb6df72	-0.022323344
168	0x3c79c9f0	0.0152459
169	0x3c840aa4	0.016118355
170	0x3d092972	0.03348679
171	0x3ce8675f	0.028369604
172	0x3bafffe8	0.0053710826
173	0xbc4c3e57	-0.012466035
174	0x3c1a7678	0.009427659
175	0x3c25245e	0.010079471
176	0x3cf0e4bd	0.029405946
177	0x3c095666	0.008382415
178	0x3c61e19e	0.0137867015
179	0x3d3b315d	0.045701373
180	0x3a88b93e	0.0010431183
181	0x3c872cb6	0.016500812
182	0x3c292a6f	0.010325058
183	0x3c6d5c63	0.014487359
184	0x3cd66f6b	0.026176175
185	0xbba55c33	-0.0050463914
186	0x3d55ce0c	0.052198455
187	0x3d52e824	0.051490918
188	0xbd5aaedd	-0.05338942
189	0x3c944856	0.018100899
190	0x3be43025	0.006963747
191	0xbb011909	-0.001969876
192	0x3d3d3e31	0.04620189
193	0x3cc88abc	0.024480216
194	0x3c9ba265	0.018998334
195	0x3c9c551e	0.019083556
196	0xbb91c137	-0.004448082
197	0x3bac02b4	0.0052493457
198	0x3c2c2533	0.010506916
199	0xbd5162ad	-0.051119495
200	0xbb0ed764	-0.0021795863
201	0xbb8d0b64	-0.0043043364
202	0x3c6146b0	0.013749763
203	0x3d084ea9	0.03327814
204	0x3c6c5fdc	0.0144271515
205	0x3b03a716	0.0020088605
206	0xba0fca87	-0.0005485196
207	0x3cac4be2	0.021032277
208	0x3d004326	0.031314038
209	0x3bc95750	0.0061444417
210	0xbc450c9a	-0.01202693
211	0x3c7e9e8b	0.015540729
212	0x3cf54a6d	0.029942716
213	0x3a9eed43	0.0012125153
214	0x3c8abf52	0.016936932
215	0xbd814f61	-0.063139684
216	0xbce5c605	-0.028048525
217	0x3b698859	0.0035634248
218	0x3b1d2d45	0.0023983282
219	0x3c4662ca	0.012108514
220	0xbbc7db09	-0.006099109
221	0xbc059501	-0.008153201
222	0xbc491560	-0.012273163
223	0x3c492e66	0.012279129
224	0x3c78b035	0.01517873
225	0xbb21b832	-0.002467644
226	0xbb9a4fdf	-0.0047092284
227	0x3ca4965c	0.020091228
228	0x3c926fdb	0.017875602
229	0xbc46e831	-0.01214032
230	0x3cd5460b	0.026034376
231	0x3d4c346a	0.049854673
232	0x3d170195	0.036866743
233	0xbc631703	-0.013860467
234	0x3ba1acdd	0.004933937
235	0x3b1687ef	0.0022969206
236	0x3c692128	0.0142290965
237	0xba331c68	-0.0006832541
238	0x3ce70581	0.028200867
239	0x3d27aa63	0.040933978
240	0x3c15ed1a	0.009150768
241	0x3c823190	0.015892774
242	0x3bb9b93a	0.0056678327
243	0xbbb38c29	-0.005479355
244	0x3cef87cc	0.029239558
245	0xbd8985f9	-0.067150064
246	0x3c297eee	0.010345204
247	0x3d3da6c8	0.046301633
248	0xbdb22d45	-0.08700041
249	0x3b70f99a	0.0036769868
250	0x3b8f9f87	0.004383031
251	0x3c0f5220	0.0087476075
252	0x3c9c5b22	0.019086424
253	0x3ca6d184	0.020363577
254	0xbbed6817	-0.0072450745
255	0x3c707d71	0.014678345

action_model._discrete_distribution.branches.0.weight f4 [3, 256]
0	0x3cbeb4a1	0.02327949
1	0x3b1a3f5f	0.0023536307
2	0xbbc5ca9c	-0.006036116
3	0x3b5d5bf0	0.0033776723
4	0xbcca07e2	-0.024661962
5	0x3e0194d2	0.12654427
6	0xbb92a43b	-0.004475144
7	0x3dab127f	0.08353137
8	0xbbc4a373	-0.00600093
9	0xbd47f4b7	-0.048817363
10	0x3d51b01b	0.051193338
11	0x3d086b94	0.03330572
12	0x3c52cfc0	0.012866914
13	0x3cf023be	0.029313918
14	0x3cb036de	0.021510538
15	0xbd1b8cb8	-0.037975997
16	0xbb786494	-0.0037901746
17	0xbbedf247	-0.0072615477
18	0x3c1c6eb0	0.009547874
19	0x3ca5acfb	0.020224085
20	0x3d8d63a8	0.069037735
21	0xbbbf6d38	-0.0058418773
22	0x3ca638b3	0.020290708
23	0x3c8f7ae6	0.017514657
24	0xbc27b310	-0.010235563
25	0x3c86c13b	0.016449561
26	0x3ca4183c	0.020031087
27	0x3c5fd893	0.013662475
28	0x3b2c6829	0.0026307201
29	0xbb70fd66	-0.003677213
30	0xbc8f3c27	-0.017484738
31	0x3cd7c6df	0.026339946
32	0x3d447858	0.04796633
33	0xbc050d70	-0.0081208795
34	0xbb30a978	-0.002695648
35	0xbc3ebbe2	-0.011641474
36	0x3ca8591e	0.020550307
37	0x3dc066f8	0.0939464
38	0xbc09c7c8	-0.008409448
39	0xbc1a7a7e	-0.0094286185
40	0xbb8ddb3e	-0.004329114
41	0x3d0b0f24	0.033949986
42	0xbbb0872f	-0.005387209
43	0xbc723971	-0.014784203
44	0xbcad8ed6	-0.021186274
45	0x3bd21fb4	0.0064124707
46	0xbca5c275	-0.020234326
47	0xbcb90d6c	-0.022589408
48	0x3b9eaccc	0.0048423763
49	0xbc8f70c8	-0.017509833
50	0x3dc3121d	0.09524939
51	0xbbd7de15	-0.0065877535
52	0xbbb54e01	-0.0055329804
53	0xbb8aa85c	-0.004231496
54	0xbc340c8a	-0.010989318
55	0x3c986634	0.018603422
56	0x3b33d72b	0.0027441483
57	0x3d070ec9	0.032973085
58	0x3c30f157	0.010799727
59	0xbc628df8	-0.013827793
60	0xbb4a913c	-0.003090932
61	0xb9da1805	-0.00041598096
62	0xbbe845e4	-0.0070884097
63	0x3bf3a24a	0.007435118
64	0x3d694256	0.05694803
65	0x3c9d0485	0.019167194
66	0x3cb20317	0.021729989
67	0xbb9b469a	-0.004738641
68	0x3d443d32	0.047909923
69	0x3b9b07ae	0.00473114
70	0xbb4044fb	-0.002933799
71	0xbc13ebf4	-0.009028424
72	0x3c0d127c	0.008610364
73	0x3b1d08ac	0.0023961468
74	0xbc82015a	-0.015869785
75	0xbc290679	-0.010316485
76	0xbb96b847	-0.0045996043
77	0x3a90b990	0.001104163
78	0x3c27e992	0.010248559
79	0x3d73df0f	0.059538897
80	0x3d20793b	0.039178114
81	0x3c236268	0.009972192
82	0x3db3d2a6	0.087804124
83	0x3b07c28a	0.002071532
84	0x3cb52ed6	0.02211706
85	0x3d1f7e67	0.038938906
86	0xbc27f0a3	-0.010250243
87	0xbc5a5667	-0.013326264
88	0x3cfe3696	0.031031888
89	0x3dac6f13	0.08419623
90	0xbcb55717	-0.022136254
91	0xbb6005da	-0.0034183175
92	0xbcd7b90f	-0.02633336
93	0x3c7471a4	0.014919672
94	0x3c8b1f46	0.016982686
95	0xbc968b86	-0.018377077
96	0x3bfff148	0.0078107454
97	0x3c110bb6	0.00885289
98	0x3d2ee400	0.042697906
99	0x3d4037eb	0.046928328
100	0xbc2e5fb9	-0.010642939
101	0xbb2add8d	-0.0026071996
102	0xbc59ad60	-0.013285965
103	0x3d82dfc4	0.06390336
104	0x3d73b500	0.059498787
105	0xbc95e959	-0.018299745
106	0xbc0d1104	-0.008610014
107	0x3b5f7911	0.003409926
108	0x3c44530a	0.011982689
109	0xbc2e9476	-0.010655513
110	0x3c8dd071	0.017311307
111	0xbd428332	-0.0474884
112	0x3c500514	0.012696523
113	0xbc8b50a7	-0.017006231
114	0xbc3fd3b1	-0.011708186
115	0x3d976927	0.07393103
116	0x3bf3d872	0.007441574
117	0x3be65f25	0.007030385
118	0x3c195dfc	0.0093607865
119	0x3c07f9cc	0.008299302
120	0xbce810f8	-0.028328404
121	0x3c17009d	0.009216455
122	0x3d04d4fa	0.032429673
123	0xbc9de1d0	-0.019272715
124	0x3cfb32bd	0.030663842
125	0x3c823c2d	0.015897835
126	0x3d0f1991	0.03493649
127	0x3d13d47a	0.036091305
128	0x3cdbb43c	0.02681934
129	0xbc335246	-0.0109449085
130	0x3ba3e48d	0.0050016106
131	0xba65b552	-0.00087626756
132	0xba5356d8	-0.0008061952
133	0x3b473993	0.0030399307
134	0xbc9df97d	-0.019284004
135	0x3c9d1d76	0.019179087
136	0xb9e1ecce	-0.00043091777
137	0x3d99a935	0.07502977
138	0x3c224c0f	0.009905829
139	0x3a3ed336	0.00072793977
140	0x3d0265ba	0.031835295
141	0x3d2e4757	0.042548504
142	0xba3f3596	-0.00072940567
143	0x3bfbc5a0	0.007683471
144	0x3a98a5df	0.0011646113
145	0xbc8c271c	-0.017108493
146	0x3cbb61c1	0.022873761
147	0x3a43eba2	0.00074737717
148	0xbcebeb7d	-0.028798813
149	0x3b2334a9	0.0024903214
150	0xbc5282fe	-0.012848614
151	0xbb2d7b61	-0.0026471245
152	0x3bee5721	0.00727357
153	0xbceddf78	-0.029037222
154	0xbce2eba8	-0.02770026
155	0x3c8d6500	0.017260075
156	0x3cb5e27d	0.022202725
157	0xbca26414	-0.019823112
158	0x3c98aa07	0.018635763
159	0x3c483c9e	0.0122214835
160	0x38e83b2c	0.00011073644
161	0xbca3b600	-0.019984245
162	0x3c1a3db4	0.009414125
163	0x3c5614c2	0.0130664725
164	0x3d0a2d3f	0.033734556
165	0x3b92c97c	0.004479585
166	0x3bd47498	0.0064836256
167	0xbc989aae	-0.018628445
168	0x3d2b0452	0.041752167
169	0xbd10c083	-0.035339843
170	0xbd43d72c	-0.047812626
171	0x3c926f17	0.017875237
172	0xba0cc9ec	-0.0005370665
173	0xbc7085ea	-0.014680365
174	0xbbd3b5df	-0.0064608897
175	0xb99aac69	-0.00029501625
176	0x3cf543b8	0.029939517
177	0xbccc99ff	-0.024975775
178	0x3b75eae8	0.0037524048
179	0x3c4b1f7a	0.012397641
180	0x3b030e52	0.001999755
181	0x3c4bbf1d	0.012435702
182	0x3acd126d	0.001564575
183	0x3c6429f2	0.013926016
184	0x3c960134	0.01831112
185	0xbba9fab5	-0.0051873573
186	0xbc6979bd	-0.014250216
187	0xbc0978b6	-0.008390596
188	0x3c9bf92d	0.019039715
189	0x3c073bbc	0.008253988
190	0x3bcb64e0	0.0062070936
191	0x3da020cd	0.07818756
192	0x3b3bddb3	0.0028666079
193	0xba9ac695	-0.001180845
194	0x3d72d2f9	0.05928323
195	0xbc8e9382	-0.017404322
196	0xbc83050d	-0.01599362
197	0x3aa5240f	0.0012599247
198	0xbb902d3e	-0.0043999245
199	0x3bbaa9e3	0.0056965216
200	0x3c803e77	0.015654786
201	0x3b267194	0.0025397288
202	0x3bed5532	0.007242822
203	0x3c4c9a7c	0.012488004
204	0xbb2ffaf3	-0.0026852458
205	0xba8f957d	-0.0010954585
206	0x3df6f551	0.12058509
207	0x3b36b05c	0.0027876114
208	0x3cc603f2	0.024171803
209	0xbc404572	-0.011735307
210	0xbc6373de	-0.013882605
211	0x3c85182f	0.016246883
212	0xbca32f9f	-0.019920168
213	0x3d44a36a	0.048007406
214	0x3bf23ae0	0.0073922724
215	0x3d360b10	0.044444144
216	0xbc1a4ae0	-0.009417266
217	0x3c36d0ec	0.011158209
218	0x3dc928c0	0.098222256
219	0xbc5f27a8	-0.013620295
220	0xbb623fe4	-0.0034522945
221	0xbc37e59a	-0.011224175
222	0x3d344e3b	0.04401992
223	0x3c09f28e	0.008419646
224	0xbcd1e397	-0.025621219
225	0x3bfe8d9f	0.0077683474
226	0x3dc2e11e	0.09515594
227	0x3bf60833	0.0075083016
228	0xbd3ee1be	-0.046602003
229	0x3da5559c	0.08072969
230	0x3dcccba0	0.09999776
231	0xbc2494a0	-0.010045201
232	0x3d2c9a63	0.042139422
233	0x3d9558ef	0.07292353
234	0x3c1d5488	0.009602673
235	0x3b2cba4d	0.002635616
236	0x3c14d1ba	0.009083206
237	0x37850351	1.585638e-05
238	0x3c3181df	0.010834186
239	0xbb6d23ba	-0.0036184625
240	0xbad27558	-0.00160567
241	0xbcd24c33	-0.0256711
242	0x3bff4314	0.0077899788
243	0x3d1f1c38	0.03884527
244	0x3bbf8a0d	0.0058453144
245	0xba9755d8	-0.0011545969
246	0xbc810112	-0.01574758
247	0x3b88a5c9	0.0041701538
248	0x3ad87295	0.001651364
249	0xbc720375	-0.014771332
250	0xbccc2ebe	-0.024924632
251	0xbd2da17d	-0.042390335
252	0x3c2005c9	0.009767004
253	0x3dc06163	0.09393575
254	0x3c862514	0.016375102
255	0xbc8bf0cc	-0.017082594

action_model._discrete_distribution.branches.0.bias f4 [3]
0	0x3b58568e	0.0033010575
1	0x3d7c4c5e	0.061596267
2	0xbdca7c89	-0.098870344

action_model._discrete_distribution.branches.1.weight f4 [3, 256]
0	0xb8f0b731	-0.00011478214
1	0x3c97244a	0.018449921
2	0x3d177e06	0.03698542
3	0xbd88ef77	-0.06686299
4	0xbc450c68	-0.012026884
5	0x3d2f7874	0.042839482
6	0x3d6849a7	0.056710865
7	0x3d540763	0.051764857
8	0x3c0dc8b7	0.008653811
9	0xbcdacd84	-0.026709326
10	0x3d0ac3b6	0.03387805
11	0x3c902654	0.017596401
12	0x3b636bbe	0.003470167
13	0x3c68a16a	0.01419864
14	0x3cd40e33	0.025885677
15	0xbd766dc1	-0.060163263
16	0xbaa93c5a	-0.0012911663
17	0x3c779104	0.015110258
18	0x3c1d278c	0.009591948
19	0x3c2f3772	0.010694372
20	0x3d5cf03f	0.053940054
21	0xbcb3bfaf	-0.021941988
22	0x3c9780ec	0.018494092
23	0x3c0f785a	0.008756721
24	0x3c0c6914	0.008569974
25	0x3b267056	0.0025396547
26	0x3d12d829	0.035850678
27	0x3b83f80f	0.0040273736
28	0x3d05fe32	0.032713123
29	0x3c7a5893	0.015279907
30	0x3ccffb99	0.025388526
31	0x3c5ef6e8	0.013608672
32	0xbce02eec	-0.027366124
33	0xbcb5d314	-0.022195376
34	0x3d27166c	0.040792868
35	0x3c8e85db	0.017397812
36	0x3c8cf673	0.01720736
37	0x3d5220e4	0.0513009
38	0x3c22b36a	0.009930471
39	0x3d53a519	0.05167112
40	0xbbb11bca	-0.005404924
41	0x3cc924d1	0.024553688
42	0x3c7b2a23	0.01532987
43	0x3c2cdad6	0.010550221
44	0x3be48388	0.0069736876
45	0xbc16e9c3	-0.009211007
46	0x3c65f50f	0.014035477
47	0x3c347cf3	0.011016118
48	0xbcc4d393	-0.024026668
49	0x3c1607d2	0.009157138
50	0x3d48d593	0.049031805
51	0xbca64e40	-0.020300984
52	0xba538a9d	-0.0008069666
53	0x3a412a83	0.00073687005
54	0x3b3630dc	0.0027800119
55	0x3b57109c	0.0032816296
56	0x3c0554b0	0.008137867
57	0xbc11a1d6	-0.008888682
58	0x3cafe15d	0.021469766
59	0xbc09816b	-0.008392672
60	0xbbe8ea36	-0.0071079982
61	0xbc1d529f	-0.009602218
62	0xbc2b04ff	-0.010438203
63	0x3d3f0759	0.046637867
64	0xbb4df6c0	-0.0031427592
65	0x3c8a5761	0.016887369
66	0x3c4494d4	0.011998374
67	0x3a0545c2	0.0005083942
68	0x3c5e3793	0.013563055
69	0x3c5d6c74	0.013514627
70	0x3c174155	0.009231885
71	0x3ccfd848	0.025371686
72	0x3cb7f4bd	0.022455567
73	0x3c3d6e0a	0.01156188
74	0xbbde7a3f	-0.006789475
75	0xbd0e0780	-0.03467512
76	0x3c83fbda	0.016111303
77	0xbb8c7ba8	-0.004287202
78	0xbb119fa5	-0.00222204
79	0xbae3d21a	-0.0017381341
80	0x3ca5ccc6	0.020239245
81	0xbcba3afd	-0.022733206
82	0x3d495d08	0.049160987
83	0x3baf2a2e	0.0053456044
84	0x3cccc72a	0.024997313
85	0xbc688b23	-0.014193329
86	0xbc8d0601	-0.017214777
87	0xbc45dcd2	-0.012076573
88	0x3c425d6a	0.011863092
89	0x3d260366	0.040530585
90	0xbb007bd6	-0.0019605062
91	0x3c235d55	0.009970983
92	0xbd21124c	-0.03932409
93	0x3c807902	0.015682701
94	0xbc390dbd	-0.011294779
95	0xbd057568	-0.03258267
96	0x3cffd0ca	0.031227488
97	0x3c9ff0ca	0.019523997
98	0x3c2425ab	0.010018746
99	0xbbe3387e	-0.0069342246
100	0x3caa5683	0.020793205
101	0xbca23e8e	-0.019805219
102	0xbc689174	-0.014194835
103	0x3d0751e9	0.0330371
104	0x3c49f2e5	0.012325977
105	0xbcb43454	-0.021997608
106	0xbb3d7438	-0.0028908383
107	0x3d02565f	0.03182065
108	0x3bc334d4	0.0059572253
109	0x39f726aa	0.00047140318
110	0x3cadafe6	0.021202039
111	0xbd38fedf	-0.04516494
112	0x3c6b382e	0.014356656
113	0x3b49817f	0.0030747352
114	0x3ce26ba4	0.027639218
115	0x3d2220ba	0.03958199
116	0xbc29793b	-0.010343845
117	0x3c03459c	0.008012202
118	0xbb639588	-0.0034726579
119	0x3ca9c4bd	0.020723695
120	0xbd3f7281	-0.04674006
121	0x3c0a8dd2	0.008456664
122	0xbca0a2ce	-0.019608881
123	0xbd026c5a	-0.031841613
124	0x38c97600	9.606406e-05
125	0xba7036e6	-0.0009163454
126	0x3ccdaa86	0.025105726
127	0x3ca7f4b1	0.02050242
128	0x3c00422d	0.007828278
129	0xbb39441a	-0.0028269351
130	0x3ce9ce36	0.028540712
131	0x3c87834b	0.016542098
132	0xbcf552e8	-0.02994676
133	0x3c700e5f	0.014651864
134	0xbc3af5cd	-0.011411143
135	0x3ccac9fa	0.024754513
136	0xbbfef69d	-0.0077808634
137	0x3c41ebc3	0.011835995
138	0xbc0cb772	-0.008588659
139	0x3caf5d11	0.021406682
140	0x3d38f638	0.045156687
141	0xbc820f16	-0.015876334
142	0x3b8b28f7	0.0042468267
143	0xbc04b1d3	-0.008099037
144	0x3c4c4f31	0.012470053
145	0x3cf12b66	0.02943964
146	0x3b8ed7ee	0.004359237
147	0x3c9db6bd	0.019252175
148	0xbc67360e	-0.014112009
149	0x3c2008a5	0.009767686
150	0xb71ed3af	-9.46682e-06
151	0x3ca86eff	0.02056074
152	0x3c447b4a	0.011992285
153	0x3bbefffd	0.005828856
154	0xbc7bce14	-0.015368957
155	0x3c949ad7	0.01814024
156	0x3b9438d0	0.004523374
157	0x3d0d78bc	0.03453897
158	0x3d27e432	0.04098911
159	0x3c450a99	0.012026452
160	0xbc79b68a	-0.015241275
161	0x3a0f7a21	0.0005473216
162	0x3c7e0668	0.015504457
163	0x3ca049fd	0.01956653
164	0x3cf4adfd	0.02986812
165	0x3cc4fc0d	0.024045968
166	0x3cecc443	0.028902179
167	0x3bebcff9	0.007196423
168	0x3c77d819	0.015127205
169	0xbb7fad66	-0.0039013266
170	0xbd071977	-0.03298327
171	0x3bc12b02	0.0058950195
172	0x3b75da8f	0.0037514304
173	0x3b421332	0.0029613492
174	0xbcb7787a	-0.022396315
175	0x3ad5b06a	0.0016303186
176	0x3d007efa	0.031371094
177	0xbcaf10d7	-0.021370335
178	0x3d36f50b	0.044667285
179	0x3c372632	0.01117854
180	0x3aeb36f3	0.0017945453
181	0x3d009359	0.03139052
182	0x3d66bc79	0.056332085
183	0x3c71bfe6	0.014755225
184	0xbbcd01b0	-0.0062563047
185	0xbd44dd7b	-0.048062783
186	0x3c91316b	0.01772376
187	0xbc39dd55	-0.011344274
188	0x3cd2f77a	0.025752772
189	0x3d159b26	0.036524914
190	0x3ccc27fd	0.024921412
191	0x3cad1069	0.021125989
192	0x3bb5ca63	0.005547808
193	0xbb57bfab	-0.003292064
194	0xbc3afffe	-0.011413572
195	0x3c97dfa5	0.01853926
196	0xbc056ddd	-0.008143869
197	0x3cb263c7	0.021776093
198	0xbd881c38	-0.06646007
199	0xbcb8c5f5	-0.02255533
200	0x3caed96f	0.021343915
201	0xbc089c7c	-0.00833809
202	0x3cc73639	0.024317848
203	0x3caa04f0	0.020754308
204	0x3d3ac4b2	0.04559774
205	0x3c609ccf	0.013709261
206	0x3d5dbebd	0.05413698
207	0x3ca1016a	0.019653995
208	0x3cecba88	0.028897539
209	0xbcf4387e	-0.029812094
210	0xbc7356ee	-0.014852269
211	0x3b93f67e	0.004515468
212	0xbb417197	-0.0029517168
213	0x3d2429d6	0.04007896
214	0x3c7da089	0.015480169
215	0xbb7ea17f	-0.0038853583
216	0xbb08fe00	-0.002090335
217	0x3d437f3d	0.047728766
218	0x3c5e894d	0.01358254
219	0x390f6a98	0.00013677252
220	0x3c885edc	0.016646795
221	0xbafe1512	-0.0019384942
222	0x3c4c61a5	0.012474452
223	0x3d106546	0.035252832
224	0xbce6bccc	-0.028166197
225	0x3d119f94	0.035552576
226	0x3d0d5e0a	0.03451351
227	0x3c23e654	0.010003645
228	0xba429f3c	-0.00074242405
229	0x3ca6364d	0.020289565
230	0x3cee6931	0.029102894
231	0x3c803625	0.015650818
232	0x3c8f9f72	0.017532084
233	0x3d0d9bce	0.034572415
234	0x3c188846	0.009309834
235	0x3c36fe34	0.011169005
236	0xbc134956	-0.008989653
237	0x3bcdf176	0.006284888
238	0x3c950cb8	0.018194541
239	0x3bdddd5a	0.006770772
240	0x3afa8937	0.001911438
241	0x3c713038	0.014720969
242	0x3b8f3648	0.0043704845
243	0xbb2b98f3	-0.0026183694
244	0xbb410a3a	-0.0029455558
245	0xbcb46ee4	-0.022025533
246	0x3c696fc7	0.014247841
247	0xbc40269e	-0.011727957
248	0xbc84ff42	-0.016234998
249	0xbc140ce9	-0.009036281
250	0xbd7f01b4	-0.062257484
251	0x3ab32d1e	0.0013670062
252	0xbc8e051b	-0.017336419
253	0x3d86f7fb	0.06590267
254	0x3b789e78	0.0037936252
255	0xbb3850fc	-0.0028124442

action_model._discrete_distribution.branches.1.bias f4 [3]
0	0x3c21bd37	0.0098717725
1	0x3cbf5a4c	0.023358487
2	0xbcf69628	-0.030100897

action_model._discrete_distribution.branches.2.weight f4 [2, 256]
0	0xbc8467c2	-0.016162757
1	0x3ceaf393	0.028680598
2	0x3db9937b	0.09061333
3	0xbbe887ca	-0.0070962654
4	0xbbe9b553	-0.0071322112
5	0xbd94966c	-0.07255253
6	0x3caa0e93	0.020758903
7	0xbc90b617	-0.017664952
8	0xbbb629da	-0.0055591883
9	0x3d6eeaf1	0.058329526
10	0xb805a5ea	-3.186419e-05
11	0x3c4af5a6	0.012387669
12	0x3d6fd744	0.058554903
13	0x3c76ae22	0.015056165
14	0x3d39361b	0.045217615
15	0x3c592a72	0.013254749
16	0x3dc5511a	0.096346095
17	0x3dea8c07	0.11452489
18	0x3d9558db	0.072923385
19	0xbd0984cc	-0.03357391
20	0xbcbba6d0	-0.02290669
21	0xba6b9d4b	-0.0008987977
22	0x3d15583b	0.036461096
23	0x3dd6de7d	0.10491655
24	0x3dc7d911	0.09758199
25	0xbd7239a1	-0.05913699
26	0x3dfe4d2e	0.124170646
27	0x3c0bd333	0.008534241
28	0xbc5956fb	-0.013265367
29	0x3bbb9ed3	0.0057257204
30	0x3d85c81a	0.06532307
31	0xbb31a259	-0.0027104823
32	0xbcb7a902	-0.022419456
33	0xbce2bf10	-0.027678996
34	0x3d1d14de	0.03834998
35	0x3daf95c3	0.08573487
36	0x3c90966b	0.01764985
37	0xbc18af03	-0.00931907
38	0x3dd97d27	0.10619574
39	0x3d953ba9	0.0728677
40	0xbd2c9d34	-0.042142108
41	0xbbb82bce	-0.0056204563
42	0x3d8ca005	0.06866459
43	0x3d5556a4	0.05208458
44	0x3d8648b2	0.06556834
45	0xbcc4ce31	-0.024024101
46	0x3d772ee8	0.060347468
47	0x3db4eb2a	0.088339165
48	0xbd165244	-0.03669955
49	0x3da07f1f	0.078367464
50	0xbd51f6ff	-0.051260944
51	0x3c497874	0.012296785
52	0x3d8e6847	0.06953483
53	0x3d8f277d	0.06989954
54	0x3cae2a2c	0.021260343
55	0xbd35c892	-0.044380732
56	0x3c9554ad	0.018228853
57	0x3c28fc8f	0.010314121
58	0xbb38865b	-0.0028156254
59	0x3dd4d5b9	0.10392327
60	0x3d599659	0.0531219
61	0x3c0740f6	0.008255234
62	0x3d738125	0.059449334
63	0x3d7dfdeb	0.062009733
64	0xbd9ad162	-0.07559468
65	0x3cd7185f	0.026256738
66	0x3d967768	0.07346994
67	0x3cc2e7d9	0.023792194
68	0xbc434ab8	-0.01191967
69	0x3d9cbea8	0.07653552
70	0xbbaa1fdc	-0.005191786
71	0x3dd74d3a	0.10512777
72	0xbd0b9bbf	-0.034084078
73	0xbd17538f	-0.036944922
74	0xbd25c5d9	-0.040471885
75	0x3c0e4276	0.008682838
76	0x3cbbc55b	0.022921255
77	0xbc88e355	-0.016709963
78	0x3db38b40	0.08766794
79	0xbb442e73	-0.0029934912
80	0xbc53b043	-0.012920442
81	0x3d853082	0.06503393
82	0xbd5fec6a	-0.05466882
83	0xbcc0d397	-0.023538394
84	0x3d53d135	0.051713187
85	0xbae718cc	-0.0017631291
86	0x3d953fdc	0.07287571
87	0x3ce11747	0.02747692
88	0x3ca919a9	0.020642119
89	0xbd88be50	-0.06676924
90	0x3cd35a10	0.025799781
91	0xbb9fc5bb	-0.004875866
92	0x3cad1a20	0.021130621
93	0x3d847c53	0.064690255
94	0xbcfebbe2	-0.031095449
95	0x3d6e21be	0.058137648
96	0x3db5629b	0.08856698
97	0x3b864bec	0.004098406
98	0xbb63507c	-0.0034685424
99	0xbd0d3e77	-0.0344834
100	0x3dc1b0e1	0.09457565
101	0x3d9fdd3e	0.078058705
102	0xbcb8a617	-0.022540135
103	0xbc9bbaee	-0.019010033
104	0xbc7415a7	-0.01489774
105	0x3b53fd9e	0.0032347213
106	0x3dba4c7c	0.090966195
107	0x3db4e755	0.088331856
108	0xbbbf9efa	-0.005847809
109	0x3d135bb5	0.03597613
110	0x3d4ec622	0.050481923
111	0x3b5daf6a	0.0033826479
112	0x3de4ad16	0.11165826
113	0x3d6568ad	0.05600803
114	0xb9add900	-0.0003315881
115	0xbc41c1ea	-0.011826018
116	0xbca9edf7	-0.020743353
117	0xbd6fd2c3	-0.058550607
118	0xbc35cb2a	-0.011095801
119	0xbce83ed4	-0.028350271
120	0x3d921213	0.07132354
121	0x3d0672ed	0.032824446
122	0xbca1252c	-0.019671045
123	0xbcb428db	-0.021992138
124	0xbc878115	-0.016541043
125	0x3d401cbf	0.046902414
126	0x3d19c2b4	0.0375392
127	0x3d3bf5c5	0.04588868
128	0x3ca05a24	0.019574232
129	0x3d4f1ba1	0.05056346
130	0x3d6e3c34	0.058162883
131	0x3d5418b5	0.051781375
132	0xbbc21815	-0.005923281
133	0x3d6e9b66	0.05825367
134	0x3d7414fd	0.05959033
135	0x3c7e5746	0.015523737
136	0x3d8d38f2	0.06895627
137	0x3bb8b443	0.0056367232
138	0xbd107f4e	-0.035277657
139	0x3dafb360	0.08579135
140	0x3d9b7544	0.07590726
141	0xbd2da259	-0.042391155
142	0x3c72b6b1	0.014814065
143	0xbb8b3f87	-0.0042495164
144	0xbd142ae8	-0.03617373
145	0x3d8125ed	0.06306062
146	0x3b9cf5b2	0.0047900314
147	0x3d451341	0.048114065
148	0x3c9c421f	0.019074498
149	0xbc828061	-0.015930356
150	0xbcb6379f	-0.02224332
151	0x3d800586	0.062510535
152	0x3d55b445	0.05217387
153	0x3b9490a9	0.0045338464
154	0x3d80b967	0.06285363
155	0x3db911b3	0.09036579
156	0x3d1a5cfa	0.037686326
157	0x3d6f0b68	0.058360487
158	0x3daf6836	0.085647985
159	0x3d9acd66	0.07558708
160	0xbcc66268	-0.024216846
161	0x3daf2fc2	0.08554031
162	0x3d8ea141	0.069643505
163	0x3c74f24b	0.014950345
164	0x3c040107	0.008056886
165	0x3d64e2b6	0.05588027
166	0x3dbcf0c8	0.09225613
167	0x3d34b51f	0.044118043
168	0x3bf12796	0.0073594553
169	0x3d8ad9be	0.06779812
170	0xbd045641	-0.03230882
171	0x3d80d8f5	0.06291381
172	0x3cad9c06	0.021192562
173	0x3b8b2d2d	0.0042473287
174	0x3c74e524	0.0149472095
175	0x3cb1d46e	0.02170774
176	0x3c9290da	0.017891336
177	0x3bd44491	0.0064779003
178	0x3e1e2ed8	0.15447557
179	0x3c8091e6	0.01569457
180	0x3c55b315	0.013043185
181	0x3c8854b4	0.016641952
182	0x3d3ecd6b	0.04658262
183	0x3d73833c	0.059451327
184	0x3d1e659e	0.03867113
185	0x3b57c9d3	0.0032926693
186	0x3d8b0d50	0.067896485
187	0x3db6aca7	0.089196496
188	0xbc2bacd8	-0.010478221
189	0x3d80e76e	0.06294142
190	0xbc34afc7	-0.011028237
191	0xbcecddba	-0.028914321
192	0x3ddb843a	0.107185796
193	0x3cbff7b6	0.023433547
194	0xbcee41ad	-0.029084051
195	0x3dc5b4a7	0.09653597
196	0x3d344704	0.04401304
197	0xbb6ca6ad	-0.0036110089
198	0xbc083bd1	-0.008315043
199	0xbca4d9f6	-0.020123463
200	0x3d8609b6	0.06544821
201	0x3d1e6cc7	0.038677957
202	0x3cd472a9	0.02593358
203	0x3d8785f7	0.06617349
204	0x3d6a34f8	0.05717942
205	0x3d34faf8	0.044184655
206	0xbd3226f7	-0.04349419
207	0xbc9b9301	-0.018990995
208	0xbb4d069b	-0.0031284455
209	0xbcef2ea4	-0.029197045
210	0x3d4db27e	0.05021905
211	0x3d2b763d	0.041860808
212	0xbb710da6	-0.0036781817
213	0xbcb8ee97	-0.022574706
214	0x3d776b3b	0.060404997
215	0xbd2bb654	-0.04192193
216	0xbbc92343	-0.0061382367
217	0x3e19b501	0.15010454
218	0xbd02b1eb	-0.031907957
219	0x3d833205	0.06406025
220	0x3cda4313	0.026643312
221	0xbbc754ba	-0.0060830982
222	0xbd4b6ad2	-0.04966242
223	0x3cbeb58a	0.023279924
224	0x3bdf9334	0.006822968
225	0xbce47e4c	-0.027892254
226	0xbcc45a53	-0.023968851
227	0x3d90f87c	0.07078645
228	0x3db5a13d	0.088686444
229	0xbd8582db	-0.06519099
230	0xb9e2f486	-0.00043288263
231	0x3de34ea9	0.110989876
232	0x3be36ffc	0.00694084
233	0xbd1ee568	-0.038792998
234	0x3d25255a	0.040318824
235	0x3d08ab73	0.03336663
236	0x3d67df65	0.05660953
237	0x3daacffa	0.0834045
238	0x3d9485a8	0.072520554
239	0x3d6ccbcf	0.057811555
240	0x3c818c79	0.015814053
241	0x3de11276	0.10989849
242	0x3d986a5c	0.074421614
243	0xbd1da59d	-0.03848802
244	0x3c4e5510	0.012593523
245	0xbcca0935	-0.024662593
246	0x3d9656be	0.073407635
247	0x3dbeb28c	0.09311399
248	0xbcb3a481	-0.021929028
249	0x3d8d7860	0.06907725
250	0xbd2ecee8	-0.04267779
251	0x3e11e6a5	0.1424814
252	0x3dbd0ba7	0.09230738
253	0xbcefaaa2	-0.029256169
254	0xbd138dab	-0.036023777
255	0x3d9dfd28	0.07714301

action_model._discrete_distribution.branches.2.bias f4 [2]
0	0x3caea30b	0.02131798
1	0xbcaea2f6	-0.02131794
