Assets/Neural Network/ButtonPress_4.onnx (onnx, 352736 bytes, 13 tensors)

discrete_act_size_vector f4 [1, 4]
3.0 3.0 2.0 2.0
00000000: 0000 4040 0000 4040 0000 0040 0000 0040

network_body._body_endoder.seq_layers.0.weight f4 [256, 65]
-0.19112079 -0.06339286 -0.14748378 -0.0543488 -0.18017213 0.17653367 -0.20171717 -0.08928576
0.05768299 -0.001703118 0.11665465 -0.04865735 -0.123122446 0.010154436 0.18632902 -0.005089604
-0.078832366 0.18208024 -0.053268947 -0.09319233 -0.23317637 0.025804963 0.14106186 -0.2050841
0.04473163 -0.007088504 -0.19620815 0.07734249 0.21502413 -0.1548995 0.031280722 0.1259952
0.13061473 0.01615041 0.09056634 0.020495048 -0.15337774 0.17561199 0.08259757 -0.06780434
0.03794307 0.22616501 -0.017319515 0.14148901 -0.017921358 0.12063679 -0.2892089 0.017668301
-0.048558507 -0.04879716 -0.19622676 -0.04434916 -0.1443393 0.010732838 0.044773538 -0.11035255
0.28977886 0.21234328 -0.019981999 -0.01971944 0.09596181 0.12746301 -0.18683691 -0.07255986
0.14625949 -0.03134859 0.20531999 0.19104415 -0.13367361 -0.027671374 -0.13224058 -0.023926249
0.011369442 -0.20876707 0.056219265 0.058700617 0.101618886 -0.21921337 -0.019239593 0.16486733
0.20583333 -0.09009534 0.096119605 -0.028785972 0.17525366 -0.049191255 0.1718448 -0.26083854
0.11841993 0.16527362 0.0020064781 -0.04630459 -0.034634363 0.14763327 0.123320565 0.14753492
-0.09382713 0.014336122 0.054375287 0.09579247 -0.23394808 0.08080441 0.054927018 -0.17246205
0.13016522 0.0342435 0.10389726 -0.2157557 -0.009832791 0.026041567 -0.087465 0.061708026
0.10324685 -0.22342896 0.04948516 -0.03866036 0.047666598 -0.00913546 -0.020834554 -0.07873965
-0.1580002 0.21455401 0.0010372103 -0.029077776 0.0008265872 -0.10894174 -0.28603148 -0.16137786
-0.0208922 -0.09413365 0.17738613 0.23388955 0.1751911 -0.04874576 0.2319941 -0.14319102
-0.16140394 -0.108781725 0.116613224 0.10799196 0.15474865 0.22384143 -0.14595844 -0.3124238
-0.0033224754 0.04326035 -0.13032658 0.12995598 -0.001164659 -0.012292658 -0.016473541 -0.05361718
-0.30089658 -0.12699157 0.29030463 -0.08712275 -0.13204718 -0.07817604 0.09121128 0.10407177
-0.096747436 0.18436147 -0.13799824 -0.08778059 0.14558128 0.05661625 0.14939812 0.082775146
0.005937126 -0.022338875 0.040379684 0.16718808 0.2696029 0.0031932334 -0.1972043 -0.1512204
-0.3039551 0.2657058 0.02361134 -0.17682163 -0.18127292 0.049288366 -0.019826828 -0.030300265
0.047927026 -0.22403169 -0.24174711 -0.22798473 0.025179464 -0.07995198 0.046924464 0.08185917
-0.01656076 -0.24726419 0.11829498 0.021901913 -0.03659663 0.2571353 -0.02206251 -0.005931052
-0.065554805 0.12795791 0.09598552 -0.2141443 -0.27863938 -0.24686003 -0.012736176 0.09412653
-0.09056231 -0.090369575 -0.08452704 0.07806965 -0.08416646 0.19254848 0.023971776 -0.13737023
-0.16750365 -0.13100173 0.104203306 0.20217605 -0.034346614 -0.25392714 0.03363387 -0.032169178
-0.0015179825 0.14146735 -0.029421568 -0.09263573 0.019218452 0.085436516 -0.0300227 0.12707777
-0.01633932 0.05661321 0.1392094 0.069695584 0.022453682 -0.06466077 -0.071333356 0.06838029
-0.03980683 -0.19972372 0.010023057 0.018246118 -0.09270973 -0.06361744 -0.17313878 0.21944678
0.005985496 -0.08349724 0.042564854 -0.0501933 0.04904191 -0.09461437 -0.11326481 0.07731079
00000000: 2bb5 43be 1ed4 81bd fd05 17be d99c 5ebd
00000010: 0b7f 38be 3ec5 343e f28e 4ebe 74db b6bd
00000020: 0045 6c3d 283b dfba a2e8 ee3d ee4c 47bd
00000030: 9f27 fcbd cb5e 263c 09cd 3e3e b1c6 a6bb
00000040: dd72 a1bd 3e73 3a3e 8a30 5abd 9fdb bebd
00000050: c9c5 6ebe ee64 d33c 8572 103e 9101 52be
00000060: 8338 373d ae46 e8bb caea 48be bd65 9e3d
00000070: 492f 5c3e f99d 1ebe 3720 003d e304 013e
00000080: debf 053e dd4d 843c d87a b93d 3be5 a73c
00000090: 0e0f 1dbe a1d3 333e ea28 a93d 00dd 8abd
000000a0: 316a 1b3d cd97 673e a8e1 8dbc 7fe2 103e
000000b0: d0cf 92bc 6c10 f73d 3013 94be 1dbd 903c
000000c0: 49e5 46bd 88df 47bd abef 48be 77a7 35bd
000000d0: aecd 13be c9d8 2f3c 7564 373d 8500 e2bd
000000e0: e55d 943e 8470 593e 4ab1 a3bc aa8a a1bc
000000f0: a087 c43d aa85 023e 2d52 3fbe 449a 94bd
00000100: 0cc5 153e 6167 00bd 673f 523e 14a1 433e
00000110: bce1 08be 14af e2bc 136a 07be fb00 c4bc
00000120: e546 3a3c 09c7 55be 2c46 663d 0f70 703d
00000130: 901d d03d 7879 60be 5a9c 9dbc fbd2 283e
00000140: f9c5 523e e883 b8bd 5bda c43d 8fd0 ebbc
00000150: b275 333e c57c 49bd 15f8 2f3e a18c 85be
00000160: 2686 f23d 7d3d 293e 1e7f 033b e2a9 3dbd
00000170: c3dc 0dbd 2d2d 173e 7e8f fc3d 6513 173e
00000180: 7028 c0bd 0ee2 6a3c 9fb8 5e3d d82e c43d
00000190: 1690 6fbe c87c a53d 27fb 603d e499 30be
000001a0: 084a 053e ea42 0c3d 16c8 d43d 10ef 5cbe
000001b0: b719 21bc 2055 d53c da20 b3bd 8ec1 7c3d
000001c0: 1673 d33d 90ca 64be f3b0 4a3d 535a 1ebd
000001d0: 0d3e 433d e5ac 15bc 3aad aabc 4142 a1bd
000001e0: ceca 21be 0cb4 5b3e 01f3 873a 8434 eebc
000001f0: 54af 583a d91c dfbd b872 92be 3d40 25be
00000200: 1e26 abbc 25c9 c0bd b6a4 353e be80 6f3e
00000210: 4c65 333e a2a9 47bd dd8f 6d3e aba0 12be
00000220: 1347 25be f4c8 debd ead2 ee3d e42a dd3d
00000230: 6e76 1e3e b036 653e 2176 15be 03f6 9fbe
00000240: e3bd 59bb c431 313d 5574 05be 2e13 053e
00000250: 79a7 98ba 2567 49bc 85f3 86bc b09d 5bbd
00000260: 1e0f 9abe 140a 02be cfa2 943e 6a6d b2bd
00000270: 6037 07be c21a a0bd fbcc ba3d 9523 d53d
00000280: 8523 c6bd 41c9 3c3e 694f 0dbe 4fc6 b3bd
00000290: 4213 153e 71e6 673d d2fb 183e 0486 a93d
000002a0: 398c c23b 0400 b7bc 2b65 253d 5a33 2b3e
000002b0: 6409 8a3e 9145 513b edef 49be 85d9 1abe
000002c0: 01a0 9bbe 970a 883e 926c c13c bb10 35be
000002d0: 9c9f 39be 99e2 493d df6b a2bc 4338 f8bc
000002e0: 214f 443d 9068 65be 8e8c 77be d474 69be
000002f0: 2a45 ce3c ddbd a3bd de33 403d c8a5 a73d
00000300: 6eaa 87bc d332 7dbe a344 f23d a46b b33c
00000310: 59e6 15bd 3da7 833e 70bc b4bc 4559 c2bb
00000320: 9941 86bd 6607 033e 0e94 c43d a548 5bbe
00000330: d2a9 8ebe e0c8 7cbe 65ab 50bc 69c5 c03d
00000340: bb78 b9bd af13 b9bd 831c adbd fbe2 9f3d
00000350: 775f acbd 6e2b 453e 7560 c43c c8aa 0cbe
00000360: 1486 2bbe 5125 06be 8b68 d53d 3d07 4f3e
00000370: 09af 0cbd bd02 82be abc3 093d d4c3 03bd
00000380: 0af7 c6ba d1dc 103e 8005 f1bc cdb7 bdbd
00000390: 0470 9d3c 57f9 ae3d 2af2 f5bc ad20 023e
000003a0: 0ada 85bc 41e3 673d e98c 0e3e 8fbc 8e3d
000003b0: c9f0 b73c de6c 84bd 3917 92bd f70a 8c3d
000003c0: 7d0c 23bd 6084 4cbe c037 243c e278 953c
000003d0: 99de bdbd dc49 82bd 4b4b 31be a8b6 603e
000003e0: fb21 c43b 9a00 abbd 7c58 2e3d 7d97 4dbd
000003f0: 2be0 483d 2ec5 c1bd 61f7 e7bd 1f55 9e3d

network_body._body_endoder.seq_layers.0.bias f4 [256]
0.0011852318 0.0031221698 0.006509992 0.0043549673 -0.021049151 0.019484146 0.018349936 -0.0138689885
0.00035094397 0.022150153 -0.002982925 -0.045408264 0.026733376 0.0051636137 -0.0013747558 0.011537456
-0.023759747 -0.024456525 0.036850877 -0.0626415 0.02509605 0.004218533 0.020241514 -0.005356555
-0.0076019187 -0.02626155 0.027650762 0.06981201 0.026665332 -0.07308336 -0.02761321 0.010799367
-0.004936216 -0.017688496 -0.041787278 -0.0015507891 0.003437692 0.02928045 -0.035894964 0.040994883
0.019714873 -0.02093865 0.0066833184 -0.043663185 0.0029765689 0.0603586 -0.010516624 0.0057356553
0.036486123 -0.0006658645 -0.019237448 0.038170733 -0.028059253 0.021457035 0.0035025396 -0.020992415
-0.016435567 0.0016927414 -0.0027082188 0.004355391 -0.055139255 0.026214954 -0.00268611 -0.03399045
-0.012552015 -0.038659763 0.03154283 0.017488794 0.0061910013 -0.036789384 0.033426523 0.049550522
0.020867258 0.01701147 -0.018194241 -0.023135528 0.06947936 -0.010535673 -0.017821187 0.0019646697
-0.015118557 -0.009135098 -0.01759291 -0.0017040963 0.0145501 0.02744583 0.016900785 -0.018074993
-0.010284262 -0.0064769667 0.042979024 -0.040403873 0.00044824913 -0.012097268 0.013862884 -0.0010783222
0.019533293 0.06187193 -0.016904958 -0.029224787 -0.045116354 -0.051772 0.041169815 0.010607085
0.018210497 -0.026481982 0.013532065 0.0046342523 -0.029575393 0.019861938 -0.0222841 -0.04497402
0.046966203 0.022984533 -0.03225897 -0.0049870913 0.0003238564 0.02224691 -0.028196456 0.0025506618
0.014654474 0.0114280665 0.006274429 -0.0035932434 0.02666938 -0.15744612 -0.0061179944 0.017168358
-0.015615842 0.011846224 -0.00041022338 0.015414735 -0.008617503 -0.031724874 -0.04648085 -0.015171493
-0.0028092216 0.020371234 -0.0002954302 4.9654205e-05 0.04604837 -0.04196897 -0.02765666 -0.05175866
0.027192073 -0.019887606 -0.019033924 0.031995256 0.026956378 0.040218536 0.008701778 -0.020730348
-0.0070656324 0.0098533705 0.015493624 -0.029595247 0.018404946 0.025107646 -0.013034445 -0.015342437
0.04161345 -0.03791901 0.0040896973 -0.039811037 0.00018623826 -0.026149277 -0.03720811 -0.0035934234
-0.005545015 0.014197215 -0.0020998444 0.012588196 0.02183601 0.022556236 0.010856033 -0.008220256
0.009589807 -0.039584573 -0.0031428176 -0.026929768 -0.019449037 -0.0013883658 -0.047296938 0.020306084
-0.03561892 -0.007022392 -0.016730659 -0.009021185 0.0068840296 -0.015120039 0.000117490126 0.033488024
0.015834723 0.007262709 0.017899994 0.0113219395 0.014790002 -0.0133776385 -0.007997913 -0.020324068
0.038601957 -0.005267747 -0.038162082 -0.019499915 0.023338065 -0.01144016 0.0141803585 -0.021522336
0.0026185892 -0.0014023248 0.01905833 0.029128885 0.0347945 0.048132226 -0.016521804 -0.008670965
-0.043964613 -0.009015569 -0.012879512 0.00744205 -0.018288977 -0.033912927 0.017745543 0.02606831
0.03536985 0.047745258 -0.0027459252 -0.03229657 0.04571426 -0.02009115 -0.0049524345 -0.021224126
-0.035762895 0.011730063 0.017354546 0.0051519987 0.035236266 -0.002768451 0.030370912 0.07106313
0.043884765 -0.0047319895 -0.06052646 -0.021635603 -0.05018832 -0.00026162443 -0.064844355 -0.010349442
-0.0040328666 -0.05118389 0.010435311 0.009791076 -0.018841406 0.003572991 -0.018696247 0.04692163
00000000: c859 9b3a 519d 4c3b c551 d53b 1db4 8e3b
00000010: 456f acbc 379d 9f3c 9b52 963c c13a 63bc
00000020: e7fe b739 3d74 b53c 2d7d 43bb 04fe 39bd
00000030: f4ff da3c 8833 a93b 2631 b4ba 9907 3d3c
00000040: cda3 c2bc 0d59 c8bc f2f0 163d 304a 80bd
00000050: 3b96 cd3c 9f3b 8a3b 88d1 a53c 0a86 afbb
00000060: 8419 f9bb 7622 d7bc da83 e23c 99f9 8e3d
00000070: 4171 da3c bbac 95bd 1935 e2bc d4ef 303c
00000080: fbbf a1bb 77e7 90bc 2329 2bbd d943 cbba
00000090: e74a 613b 8edd ef3c 9906 13bd 40ea 273d
000000a0: 1681 a13c 8887 abbc bdff da3b 2bd8 32bd
000000b0: 8a12 433b 943a 773d eb4d 2cbc 2af2 bb3b
000000c0: 7972 153d 698d 2eba da97 9dbc ea58 1c3d
000000d0: 85dc e5bc aac6 af3c dd8a 653b 49f8 abbc
000000e0: e2a3 86bc fade dd3a 5f7c 31bb abb7 8e3b
000000f0: b3d9 61bd bec0 d63c 7309 30bb 9239 0bbd
00000100: f7a6 4dbc b359 1ebd 0e33 013d a944 8f3c
00000110: e2dd ca3b 77b0 16bd 40ea 083d 7df5 4a3d
00000120: d0f1 aa3c a35b 8b3c 170c 95bc b886 bdbc
00000130: 324b 8e3d d19d 2cbc bdfd 91bc b0c1 003b
00000140: d3b3 77bc 61ab 15bc 021f 90bc fc5b dfba
00000150: 8b63 6e3c 14d6 e03c 8473 8a3c 0212 94bc
00000160: 527f 28bc bc3c d4bb c60a 303d 887e 25bd
00000170: fb02 eb39 9f33 46bc 2621 633c 7d56 8dba
00000180: 4904 a03c 6c6d 7d3d 447c 8abc d268 efbc
00000190: edcb 38bd e00e 54bd aea1 283d 57c9 2d3c
000001a0: 2e2e 953c bef0 d8bc 98b5 5d3c edda 973b
000001b0: 1848 f2bc 81b5 a23c 258d b6bc ae36 38bd
000001c0: a25f 403d 0f4a bc3c fb21 04bd c16a a3bb
000001d0: 45cb a939 273f b63c 41fc e6bc 0129 273b
000001e0: 5219 703c c93c 3b3c ba99 cd3b 9f7c 6bbb
000001f0: be79 da3c 8e39 21be 7579 c8bb a8a4 8c3c
00000200: 97d9 7fbc aa16 423c 4013 d7b9 168e 7c3c
00000210: 6d30 0dbc f1f1 01bd b462 3ebd db91 78bc
00000220: eb1a 38bb 93e1 a63c f8e3 9ab9 cc43 5038
00000230: 379d 3c3d a8e7 2bbd 3890 e2bc e300 54bd
00000240: e9c1 de3c 55eb a2bc 08ed 9bbc 750d 033d
00000250: 9fd3 dc3c 31bc 243d e791 0e3c b1d2 a9bc
00000260: d286 e7bb 0870 213c f8d8 7d3c bb71 f2bc
00000270: f8c5 963c 8dae cd3c 6d8e 55bc d85e 7bbc
00000280: dd72 2a3d f750 1bbd de02 863b e610 23bd
00000290: f448 4339 0237 d6bc 8867 18bd a47f 6bbb
000002a0: f5b2 b5bb 709b 683c 8b9d 09bb b93e 4e3c
000002b0: 6fe1 b23c dbc7 b83c 81dd 313c 41ae 06bc
000002c0: 911e 1d3c 6f23 22bd bbf7 4dbb d19b dcbc
000002d0: 9653 9fbc d3f9 b5ba 6fba 41bd f258 a63c
000002e0: 25e5 11bd 181c e6bb bc0e 89bc 98cd 13bc
000002f0: 6d93 e13b 0aba 77bc 0865 f638 bd2a 093d
00000300: d2b7 813c 05fc ed3b 02a3 923c a87f 393c
00000310: c451 723c e22d 5bbc ae09 03bc a97e a6bc
00000320: 161d 1e3d 119d acbb d84f 1cbd 49be 9fbc
00000330: 782f bf3c 826f 3bbc bc54 683c 9c4f b0bc
00000340: a39c 2b3b 36ce b7ba 3720 9c3c b39f ee3c
00000350: ad84 0e3d 4c26 453d bc58 87bc aa10 0ebc
00000360: 3d14 34bd 0ab6 13bc 9704 53bc 71dc f33b
00000370: c4d2 95bc 48e8 0abd 1a5f 913c 358d d53c
00000380: fadf 103d 8890 433d fbf4 33bb 6849 04bd
00000390: e03e 3b3d 3296 a4bc 0848 a2bb 38de adbc
000003a0: 1d7c 12bd 732f 403c 1f2b 8e3c 19d2 a83b
000003b0: e753 103d e76e 35bb 6bcc f83c 8c89 913d
000003c0: 83c0 333d ce0e 9bbb 98ea 77bd 263d b1bc
000003d0: 4592 4dbd a32a 89b9 1ecd 84bd b590 29bc
000003e0: 2326 84bb 33a6 51bd def8 2a3c c06a 203c
000003f0: 4b59 9abc d728 6a3b df28 99bc e530 403d

network_body._body_endoder.seq_layers.2.weight f4 [256, 256]
0.11620921 0.0619273 -0.054359797 -0.042124633 0.06753742 0.047252867 -0.0040144846 0.00944183
-0.033828255 0.08834261 0.09994433 0.0188279 0.03578432 -0.089008704 0.03194187 -0.019910032
0.056226574 -0.07235843 -0.012044807 0.029692294 0.055071514 -0.14399894 0.1422741 0.093591
0.009893542 -0.024180807 -0.0656248 0.022225391 -0.081196934 -0.060598046 -0.05845302 -0.053494826
0.017235296 -0.038104 0.08244782 0.018482948 0.04326279 -0.02612795 0.01936085 0.03625848
0.14331092 -0.04345948 0.07045004 -0.06210877 -0.0061600474 0.036620345 -0.0013051592 -0.013522467
0.058737688 -0.100817725 0.04655626 -0.0285158 0.10600296 0.05824254 0.010751499 -0.1046627
0.09166442 0.045802735 0.0330018 -0.009573302 -0.04603569 0.06781595 0.017799944 0.0050862627
-0.16054107 -0.01844983 0.05185521 -0.04614669 0.07445372 0.19923179 -0.001768558 0.010597491
0.020895772 -0.08497481 -0.05635614 -0.048732806 -0.002611927 0.095819704 0.023601767 -0.11661475
-0.08798685 -0.024850003 0.18835923 0.08675018 -0.1283501 0.016894095 -0.040397637 0.030762793
0.13650201 -0.08416221 0.021241385 -0.069702916 0.12388313 0.04232151 -0.10884712 -0.07275211
-0.11676714 0.052183546 -0.030442845 0.004907126 -0.08442645 0.17759475 -0.0026353637 0.02886142
-0.0011710569 0.0088159535 -0.048565347 0.07907792 0.03560549 0.037699386 -0.02571891 0.024114657
-0.041422326 0.06282652 0.01087551 0.04439685 -0.011875353 0.017841201 -0.03254018 0.052951094
0.166417 -0.019911628 0.0269416 0.04655154 -0.0593542 0.048153576 0.06352818 0.07235311
0.003896826 0.037112795 0.05161792 0.25568938 0.08574357 0.095111296 0.1935601 -0.08477201
-0.005737899 -0.018195558 -0.048229158 -0.078095496 -0.0066779237 0.049572106 0.06852411 -0.018395578
0.023535533 -0.08486213 0.072738536 -0.12902702 0.029068422 0.044422183 -0.16952558 -0.031064013
0.11473235 0.09059747 0.03744357 0.0011417858 0.013225419 0.06946453 -0.02168039 -0.14268722
-0.027165575 -0.110988006 -0.066545375 0.084453285 0.0761802 -0.031170974 -0.079228126 -0.03984355
0.10281418 -0.023613576 0.19910637 0.21791333 0.049166843 -0.063840486 -0.00859409 0.0022338263
0.016401768 -0.076512225 -0.13560006 -0.0013630156 0.07164306 0.09421862 0.021438215 -0.054656
-0.0088816695 0.072154716 -0.12405883 0.02783113 -0.033158477 -0.011378475 -0.12235134 0.04929771
-0.0030941125 -0.12010305 0.062629186 0.026597338 0.00022455286 0.017443998 0.020173535 0.10460106
-0.07922234 0.043981023 -0.059652373 0.13902138 -0.014490114 0.0316559 0.1317316 0.08440522
-0.034243498 -0.033551328 0.06382712 -0.06548033 0.10762906 0.0724879 0.07667326 0.002757987
0.03277558 -0.02360311 -0.00051501987 -0.06733008 0.026955377 0.051998932 -0.05962588 -0.108299725
-0.07265298 0.023517912 0.05789526 -0.07160622 0.02777428 -0.08837894 -0.012006982 0.010757256
0.0066080177 0.0010215773 0.016718617 -0.036749464 -0.029046722 0.11847574 -0.005155517 0.056838986
0.15202679 -0.10432863 -0.06251761 -0.01952566 0.014024574 0.08754637 0.02555755 0.008150931
0.0690426 0.014411886 0.00036772748 0.052819464 0.07049117 0.154424 0.035135347 -0.0054830317
00000000: 18ff ed3d 7ba7 7d3d 61a8 5ebd e18a 2cbd
00000010: 0f51 8a3d 398c 413d f08b 83bb e8b1 1a3c
00000020: 7f8f 0abd f8ec b43d 9daf cc3d f83c 9a3c
00000030: 9492 123d 324a b6bd 7ad5 023d 5d1a a3bc
00000040: d64d 663d a830 94bd 9557 45bc 413d f33c
00000050: ab92 613d 7574 13be 4db0 113e a3ac bf3d
00000060: 8618 223c d416 c6bc 4c66 86bd 0612 b63c
00000070: 944a a6bd a835 78bd 6f6c 6fbd 641d 5bbd
00000080: 0931 8d3c f112 1cbd 67da a83d 8d69 973c
00000090: 5334 313d 480a d6bc a59a 9e3c c683 143d
000000a0: 19c0 123e 9102 32bd 1c48 903d c465 7ebd
000000b0: 39da c9bb 37ff 153d e011 abba 568d 5dbc
000000c0: ee96 703d 8679 cebd c7b1 3e3d f899 e9bc
000000d0: 1418 d93d bb8f 6e3d 0e27 303c 6659 d6bd
000000e0: 8eba bb3d a69b 3b3d e52c 073d 57d9 1cbc
000000f0: eb8f 3cbd 17e3 8a3d 30d1 913c aaaa a63b
00000100: e164 24be 1924 97bc 2166 543d 5004 3dbd
00000110: 317b 983d 6b03 4c3e f6ce e7ba 19a1 2d3c
00000120: 9c2d ab3c 4607 aebd b2d5 66bd 0d9c 47bd
00000130: dd2c 2bbb 1f3d c43d 7e58 c13c b7d3 eebd
00000140: 7332 b4bd 3c92 cbbc 3ee1 403e 14aa b13d
00000150: 356e 03be 7c65 8a3c fe77 25bd 4102 fc3c
00000160: 2fc7 0b3e 3d5d acbd 6a02 ae3c 67c0 8ebd
00000170: 70b6 fd3d 5259 2d3d 3deb debd 0fff 94bd
00000180: 9c23 efbd 6abe 553d 4663 f9bc f5cb a03b
00000190: c6e7 acbd 66db 353e 11b6 2cbb c96e ec3c
000001a0: 267e 99ba ca70 103c 75ec 46bd 9bf3 a13d
000001b0: 10d7 113d ac6a 1a3d 77b0 d2bc 1a8c c53c
000001c0: 75aa 29bd 31ab 803d 322f 323c 79d9 353d
000001d0: d790 42bc b627 923c da48 05bd 3fe3 583d
000001e0: 3869 2a3e b61d a3bc a1b4 dc3c d4ac 3e3d
000001f0: 641d 73bd af3c 453d 101b 823d de2d 943d
00000200: e461 7f3b 9603 183d 506d 533d b8e9 823e
00000210: 539a af3d b6c9 c23d 9e34 463e f39c adbd
00000220: fc04 bcbb da0e 95bc f08b 45bd 88f0 9fbd
00000230: 7cd2 dabb 1f0c 4b3d 5e56 8c3d 53b2 96bc
00000240: 97cd c03c 32cc adbd f1f7 943d a91f 04be
00000250: e620 ee3c 09f4 353d 1d98 2dbe f579 febc
00000260: cbf8 ea3d 2b8b b93d 6e5e 193d f9a7 953a
00000270: 6eaf 583c 6b43 8e3d 139b b1bc 991c 12be
00000280: 578a debc ae4d e3bd f148 88bd d8f5 ac3d
00000290: 5d04 9c3d 455a ffbc 5b42 a2bd fe32 23bd
000002a0: 3e90 d23d 4271 c1bc 8ae2 4b3e ac24 5f3e
000002b0: 2c63 493d cdbe 82bd 3ace 0cbc 6365 123b
000002c0: 005d 863c 71b2 9cbd beda 0abe 37a7 b2ba
000002d0: 99b9 923d b1f5 c03d 329f af3c f8de 5fbd
000002e0: 6c84 11bc dac5 933d 8e12 febd 1cfe e33c
000002f0: 2fd1 07bd c96c 3abc 5793 fabd 65ec 493d
00000300: 98c6 4abb 96f8 f5bd bb43 803d a9e2 d93c
00000310: f375 6b39 b7e6 8e3c f842 a53c 1539 d63d
00000320: 523f a2bd 7225 343d 0c56 74bd 9f5b 0e3e
00000330: f167 6dbc 9ea9 013d a6e4 063e a5dc ac3d
00000340: e942 0cbd 1e6d 09bd cbb7 823d 8d1a 86bd
00000350: a06c dc3d 8974 943d df06 9d3d 58bf 343b
00000360: b03f 063d 4f5b c1bc 6602 07ba 5ae4 89bd
00000370: 86d1 dc3c d5fc 543d 443a 74bd 3fcc ddbd
00000380: 16cb 94bd a3a8 c03c 9523 6d3d 48a6 92bd
00000390: e386 e33c 0500 b5bd efb8 44bc 343f 303c
000003a0: 1288 d83b 72e6 853a 7bf5 883c 9b86 16bd
000003b0: 64f3 edbc 69a3 f23d 9cef a8bb ffcf 683d
000003c0: e9ac 1b3e 40aa d5bd 3c09 80bd 47f4 9fbc
000003d0: 54c7 653c 834b b33d 115e d13c 7c8b 053c
000003e0: 3566 8d3d d51f 6c3c 8ccb c039 3959 583d
000003f0: ad5d 903d 5321 1e3e 15ea 0f3d 01ab b3bb

network_body._body_endoder.seq_layers.2.bias f4 [256]
-0.025792873 0.0026785908 0.020218153 -0.04318182 0.008365953 -0.053849455 0.0074156523 -0.024265999
-0.0010831385 0.00048661086 -0.02855716 0.03510043 0.06669228 -0.013543727 0.030712282 0.04918243
0.014733208 0.012442123 0.029869813 -0.008817381 0.010671914 -0.061294798 -0.002498174 0.045040995
0.019240139 -0.04539752 -0.0046172943 -0.013411696 0.01891243 0.021524334 0.062236574 -0.047883727
0.01915605 -0.14095856 -0.009235802 0.03778549 0.04212708 0.014533289 0.041736823 0.011380885
-0.028725676 0.05783831 0.021062702 0.028407615 -0.009961531 -0.11502733 0.032834098 0.023038043
-0.0820986 0.057461977 -0.01519033 0.0039574294 0.023256045 0.033442024 0.048718132 -0.06674073
0.041680593 -0.017574336 -0.016922459 0.025567472 0.015565651 -0.041621204 0.02596133 -0.0065526487
-0.029744117 0.07659676 -0.020561978 0.020109393 0.055466454 0.037944593 0.032946438 0.021213884
-0.019036524 0.025224078 -0.12741539 0.010306715 0.0026940878 -0.03254386 0.04835999 0.023472156
0.025117705 0.0008278242 -0.04808773 -0.059451755 0.025175486 0.02299367 -0.0063823727 0.0100906715
0.02991056 -0.05993371 0.023385413 -0.016294938 -0.054783236 0.021712061 -0.056986466 -0.005606579
0.007223763 -0.0061931238 -0.02965044 -0.12834485 0.031152375 0.029830504 -0.008839845 0.015452298
0.015755141 -0.0066422047 0.0016293207 0.037135743 -0.03366717 -0.0020071014 -0.0061412747 -0.022023493
0.05117135 -0.0052494477 0.014072544 0.031413194 -0.11843488 -0.06541126 -0.06367976 -0.0123175755
0.018624289 -0.035004154 -0.1220034 -0.038604397 -0.050114907 0.0063840207 0.011941932 0.048410404
0.05900005 0.037242647 0.066569574 0.03357726 -0.14818688 0.022969542 0.031116234 0.067407735
0.014781156 -0.0011894025 -0.10603276 0.0081970105 0.0055653662 0.006866453 -0.045719367 -0.022841608
-0.0919693 0.006707713 0.040909924 -0.004076133 0.016298663 -0.118285306 -0.17935917 0.026393205
-0.039884664 -0.09764386 -0.030713381 0.019482296 -0.025885018 0.023716968 -0.024361562 0.034796353
-0.17860995 0.009288712 0.045897953 -0.013475688 0.024692245 0.069674574 0.038307365 -0.0395064
0.0071128313 0.0070212735 0.011143757 0.017229274 -0.005157764 -0.009072493 -0.025957268 0.008847936
0.04392152 -0.019207204 0.021031715 0.06633677 0.0032230273 0.055096313 0.04433808 0.0066398056
0.0195192 -0.047332104 0.06505152 0.05410581 -0.08370809 0.024249878 0.023960581 -0.027749352
0.048430376 0.03555717 0.012223733 0.026656518 -0.0044763274 0.017876437 -0.046755247 -0.051864933
0.0020470018 0.0043798327 0.021979706 0.056981348 0.015540492 0.014402355 -0.012893442 0.02974023
0.062490117 -0.0024229956 -0.038451932 0.0042110654 0.021850323 0.009976626 0.010492063 -0.15665418
-0.034966286 0.011828037 -0.03513565 0.033155717 -0.005908969 -0.03765952 -0.023533367 0.06562557
-0.019573035 0.012440856 0.0021515016 0.026290884 0.011910835 -0.022907622 0.026532717 0.06145773
0.07704153 -0.032951444 0.008653131 0.008928849 -0.009115477 -0.01316106 0.03863509 0.050140206
-0.011388843 0.027927864 0.0018841607 0.0033465393 0.020853776 -0.19377299 0.01699843 0.048678882
-0.13484055 -0.014912469 -0.05274569 0.026969075 0.0077170692 0.024368132 -0.05651544 -0.00088297203
00000000: 934b d3bc 4c8b 2f3b 8aa0 a53c 6cdf 30bd
00000010: 5a11 093c 3f91 5cbd 00ff f23b 7dc9 c6bc
00000020: 19f8 8dba ce1f ff39 b5f0 e9bc 78c5 0f3d
00000030: f695 883d 82e6 5dbc 5398 fb3c 8473 493d
00000040: 8e63 713c 0cda 4b3c 8ab1 f43c c776 10bc
00000050: 40d9 2e3c 4110 7bbd 68b8 23bb e87c 383d
00000060: 7f9d 9d3c c0f2 39bd ac4c 97bb bbbc 5bbc
00000070: 3eee 9a3c cd53 b03c c7eb 7e3d ba21 44bd
00000080: 26ed 9c3c 7157 10be c351 17bc f5c4 1a3d
00000090: 728d 2c3d 081d 6e3c 3bf4 2a3d e476 3a3c
000000a0: 1c52 ebbc dde7 6c3d b08b ac3c 16b7 e83c
000000b0: b035 23bc 7393 ebbd 0c7d 063d 47ba bc3c
000000c0: 5023 a8bd 405d 6b3d dde0 78bc 53ad 813b
000000d0: 7683 be3c 81fa 083d aa8c 473d 5daf 88bd
000000e0: 45b9 2a3d 0ef8 8fbc f8a0 8abc e072 d13c
000000f0: 1207 7f3c ff7a 2abd dbac d43c 9ab7 d6bb
00000100: efa9 f3bc c3de 9c3d 9871 a8bc 74bc a43c
00000110: cb30 633d ca6b 1b3d d8f2 063d bdc8 ad3c
00000120: 7cf2 9bbc baa2 ce3c 2e79 02be 7fdd 283c
00000130: 4b8f 303b b64c 05bd 2015 463d ae48 c03c
00000140: a5c3 cd3c 5702 593a a4f7 44bd af83 73bd
00000150: d23c ce3c 395d bc3c 3923 d1bb 5853 253c
00000160: fe06 f53c 0d7d 75bd c492 bf3c f67c 85bc
00000170: 6364 60bd 7edd b13c a46a 69bd 65b7 b7bb
00000180: 51b5 ec3b b0ef cabb 7be5 f2bc d56c 03be
00000190: 4433 ff3c 1a5f f43c ffd4 10bc a32b 7d3c
000001a0: ed10 813c daa6 d9bb ee8e d53a a61b 183d
000001b0: 96e6 09bd 9389 03bb bf3c c9bb 9d6a b4bc
000001c0: 0d99 513d 8f03 acbb 8790 663c 1fab 003d
000001d0: fd8d f2bd 57f6 85bd 896a 82bd a8cf 49bc
000001e0: f791 983c 8460 0fbd ebdc f9bd a51f 1ebd
000001f0: 4a45 4dbd 0c31 d13b 18a8 433c fd49 463d
00000200: 09aa 713d bf8b 183d a155 883d 4f88 093d
00000210: 4dbe 17be 9f2a bc3c 79e7 fe3c 110d 8a3d
00000220: a92c 723c bae5 9bba b427 d9bd c14c 063c
00000230: ad5d b63b fcff e03b 3b44 3bbd 531e bbbc
00000240: 665a bcbd 60cc db3b 2a91 273d 1591 85bb
00000250: c684 853c 913f f2bd eea9 37be 9036 d83c
00000260: 1a5e 23bd 81f9 c7bd a19a fbbc 5699 9f3c
00000270: d10c d4bc 164a c23c e691 c7bc 9f86 0e3d
00000280: 87e5 36be af2f 183c 7eff 3b3d 22c9 5cbc
00000290: 6447 ca3c 8bb1 8e3d 2fe8 1c3d 76d1 21bd
000002a0: c112 e93b b612 e63b 4e94 363c 6824 8d3c
000002b0: 7602 a9bb cba4 14bc 56a4 d4bc eff6 103c
000002c0: 0de7 333d 6d58 9dbc b44a ac3c 93db 873d
000002d0: 6d39 533b acac 613d d99b 353d ba92 d93b
000002e0: bbe6 9f3c 4fdf 41bd bb39 853d 0e9e 5d3d
000002f0: 266f abbd aea7 c63c fb48 c43c 9c52 e3bc
00000300: ee5e 463d 65a4 113d 0d46 483c c55e da3c
00000310: 28ae 92bb 9b71 923c 6e82 3fbd 5370 54bd
00000320: fe26 063b b384 8f3b c90e b43c 4665 693d
00000330: 8c9d 7e3c dbf7 6b3c 043f 53bc c8a1 f33c
00000340: a3f5 7f3d 1fcb 1ebb c67f 1dbd fafc 893b
00000350: 73ff b23c 0175 233c e7e6 2b3c f469 20be
00000360: cf38 0fbd 62ca 413c 66ea 0fbd 4ace 073d
00000370: 06a0 c1bb de40 1abd 0cc9 c0bc b366 863d
00000380: a157 a0bc bbd4 4b3c 3500 0d3b fb5f d73c
00000390: aa25 433c c4a8 bbbc 245b d93c 1abb 7b3d
000003a0: f3c7 9d3d 18f8 06bd ddc5 0d3c 4f4a 123c
000003b0: 1559 15bc 7da1 57bc d43f 1e3d d15f 4d3d
000003c0: 4598 3abc fac8 e43c f1f5 f63a 9d51 5b3b
000003d0: 8ad5 aa3c 6d6c 46be 4b40 8b3c 8263 473d
000003e0: a413 0abe 6e53 74bc dd0b 58bd 40ee dc3c
000003f0: 78df fc3b ad9f c73c bc7c 67bd 4077 67ba

action_model._discrete_distribution.branches.0.weight f4 [3, 256]
0.00045951095 0.027063463 -0.014619814 0.0229627 -0.0028168145 0.16 -0.00021469571 0.045577794
-0.02293306 -0.022956727 -0.013453679 0.024507957 0.036862496 0.031045523 0.035312504 0.0026737426
-0.004011841 -0.022191279 0.028150182 0.008077881 0.028371317 -0.02306478 0.028065292 0.030311186
-0.015913554 0.0033316915 0.008024391 0.026672408 0.031553514 -0.0007595959 3.696224e-05 0.003311698
0.074383475 -0.02175389 -0.01568758 0.019862786 0.04420648 0.08242693 -0.012216683 0.010786154
0.01846518 0.03230695 -0.0035949307 0.024633098 0.012292412 0.010099352 -0.0077569033 0.011994475
0.01638867 0.0068883225 0.115690954 0.014310953 0.049577776 0.020029787 1.08585555e-05 -0.015834859
0.027492102 0.004563727 -0.026115235 -0.019644534 0.024950625 -0.031821042 0.0342349 0.016058544
0.09160481 0.022880726 0.042768214 -0.007397881 0.057958648 -0.003272206 0.020082347 0.00015654477
-0.0027438998 0.012687693 -0.025593586 0.009127869 0.00062920986 -0.0072659072 0.036309667 0.08083581
0.033936635 0.011483018 0.114293024 -0.034512132 0.03316137 0.074690245 -0.027916286 0.013946177
0.021898026 0.120138146 -0.017144741 -0.0075624944 -0.018183133 0.03778823 0.0043164524 -0.027239265
-0.0042761704 0.019009659 -0.014167847 0.048216615 0.017648894 0.03272013 0.007419707 0.06557771
0.031193709 0.0042836713 0.0021006796 0.014465205 -0.027329266 -0.007881987 0.02822894 -0.019554075
0.021167863 0.0118808085 0.0007515586 0.054791242 0.020591209 0.035290495 -0.01867482 -0.019953717
-0.002001985 -0.02852774 0.030391911 -0.019140275 -0.0205724 0.026129156 0.0131893745 0.04701265
0.04254857 0.01547587 0.018609805 0.05285121 0.0026195853 0.02515976 0.012579523 0.01848052
0.014990866 0.040445168 0.030746877 0.010959676 0.02208459 0.056851134 -0.06278966 -0.015801445
-0.024142453 0.012221793 0.051724695 0.009417372 0.011517592 -0.012944773 -0.02122454 -0.006071535
-0.02194452 -0.042648215 -0.036806572 0.015051155 0.02055253 0.016904755 0.0045814393 0.026969979
-0.023587309 -0.015506153 0.034108568 0.013165378 0.045855965 0.022160837 0.009857047 0.012387973
0.017299883 -0.022499131 -0.011177664 0.027716566 0.018442731 -0.015770625 -0.03364577 0.015084189
0.03488474 -0.015328217 -0.021317774 0.030946229 -0.0027307735 0.023957008 0.012661691 0.025615176
0.013058416 0.0017493459 -0.020201929 -0.013369067 -0.0097774435 0.021157324 0.023040233 0.01825523
0.010506049 0.016810333 0.10233185 -0.020579994 -0.01040292 -0.027046474 0.0034362995 0.012620285
0.018692618 0.04412672 -0.00010636181 0.029056516 0.024798866 0.024046062 0.12074943 0.007898539
0.026460633 0.029614827 -0.044606958 0.035330333 0.010391206 -0.0042058164 0.03445461 0.045208156
-0.020862728 0.018329404 0.100419864 -0.0016025867 0.019101406 -0.04015199 0.029983759 0.018007789
-0.016711041 0.014705115 0.0800164 0.039512467 -0.03230252 0.12611526 0.07737412 -0.017887983
0.040265337 0.040062785 0.026290782 0.020707091 0.023841836 0.0059794984 0.027083866 0.02496168
-0.0071137003 0.011043115 0.018359285 0.0543265 0.031654175 -0.0016630495 -0.015874222 0.0017450078
0.0022363602 0.012440366 -0.022146493 -0.0051415134 -0.010608078 0.08130941 -0.042325452 -0.0006850489
00000000: 84ea f039 32b4 dd3c f287 6fbc 461c bc3c
00000010: 4e9a 38bb 0ad7 233e f11f 61b9 c8af 3a3d
00000020: 1dde bbbc bf0f bcbc d26c 5cbc e9c4 c83c
00000030: 21fd 163d 2e53 fe3c d8a3 103d f539 2f3b
00000040: c375 83bb 7cca b5bc 369b e63c 1759 043c
00000050: f76a e83c 59f2 bcbc 2fe9 e53c 2a4f f83c
00000060: 245d 82bc 8258 5a3b bc78 033c 1880 da3c
00000070: 423e 013d 9e1f 47ba e707 1b38 1309 593b
00000080: 5d56 983d 3735 b2bc 3d83 80bc 48b7 a23c
00000090: db11 353d 73cf a83d 7b28 48bc 69b8 303c
000000a0: 4a44 973c 4b54 043d ee98 6bbb 5acb c93c
000000b0: 1d66 493c c177 253c 9f2d febb 7984 443c
000000c0: 8841 863c 70b7 e13b 61ef ec3d 7d78 6a3c
000000d0: 1112 4b3d 8215 a43c 242d 3637 1bb8 81bc
000000e0: 1e37 e13c 518b 953b 9eef d5bc 93ed a0bc
000000f0: 4165 cc3c c856 02bd e539 0c3d 358d 833c
00000100: 4d9b bb3d 5c70 bb3c b92d 2f3d ec69 f2bb
00000110: 0c66 6d3d 8272 56bb bc83 a43c 2b26 2439
00000120: 00d3 33bb 0be0 4f3c a4a9 d1bc 0f8d 153c
00000130: 8ff1 243a d916 eebb 72b9 143d 3f8d a53d
00000140: 2401 0b3d 4523 3c3c 7612 ea3d 985c 0dbd
00000150: 37d4 073d 33f7 983d b2b0 e4bc 827e 643c
00000160: 7d63 b33c fd0a f63d 2173 8cbc cdce f7bb
00000170: cbf4 94bc d5c7 1a3d 0771 8d3b e124 dfbc
00000180: 1e1f 8cbb 25ba 9b3c 4220 68bc c97e 453d
00000190: 6a94 903c 8b05 063d 0321 f33b 9b4d 863d
000001a0: f389 ff3c 0a5e 8c3b 8eab 093b 78ff 6c3c
000001b0: a0e1 dfbc 7323 01bc 6140 e73c de2f a0bc
000001c0: 3a68 ad3c b9a7 423c 3e04 453a c86c 603d
000001d0: e5ae a83c c48c 103d f0fb 98bc fa75 a3bc
000001e0: bc33 03bb 02b3 e9bc 75f8 f83c 11cc 9cbc
000001f0: 7387 a8bc d00c d63c 3f18 583c 5690 403d
00000200: 6947 2e3d 818e 7d3c 9773 983c 837a 583d
00000210: 59ad 2b3b d71b ce3c 581a 4e3c 7664 973c
00000220: 409c 753c d5a9 253d e0e0 fb3c 3690 333c
00000230: beea b43c bcdc 683d de97 80bd 0872 81bc
00000240: 65c6 c5bc ea3d 483c 46dd 533d 524b 1a3c
00000250: 48b4 3c3c 5016 54bc 16df adbc baf3 c6bb
00000260: fec4 b3bc e5af 2ebd 7dc2 16bd 1f99 763c
00000270: c85d a83c d77b 8a3c e61f 963b 25f0 dc3c
00000280: 2c3a c1bc 850d 7ebc 6db5 0b3d 99b3 573c
00000290: 77d3 3b3d a58a b53c 747f 213c edf6 4a3c
000002a0: 7cb8 8d3c 1950 b8bc 8522 37bc da0d e33c
000002b0: 3615 973c 6631 81bc 26d0 09bd ad23 773c
000002c0: 4de3 0e3d 3423 7bbc 9da2 aebc f282 fd3c
000002d0: c7f6 32bb 7d41 c43c fb72 4f3c ebd6 d13c
000002e0: f7f2 553c 4f4a e53a 847e a5bc ee09 5bbc
000002f0: 9231 20bc 2052 ad3c dfbe bc3c fe8b 953c
00000300: 9021 2c3c d3b5 893c 5c93 d13d 6097 a8bc
00000310: 0271 2abc 9190 ddbc 8a33 613b 50c5 4e3c
00000320: 4321 993c 38be 343d 900e dfb8 ee07 ee3c
00000330: fe26 cb3c 3ffc c43c 7a4b f73d e068 013c
00000340: f8c3 d83c cb9a f23c c9b5 36bd 8ab6 103d
00000350: e03f 2a3c f2d0 89bb 4720 0d3d 302c 393d
00000360: 50e8 aabc 8c27 963c eea8 cd3d e30d d2ba
00000370: 8d7a 9c3c 6a76 24bd 80a0 f53c 1285 933c
00000380: 98e5 88bc b9ed 703c a3df a33d d3d7 213d
00000390: a64f 04bd 5c24 013e 5376 9e3d d289 92bc
000003a0: 44ed 243d e018 243d c45f d73c eba1 a93c
000003b0: f44f c33c abef c33b fcde dd3c 707c cc3c
000003c0: 0b1a e9bb 2eee 343c 3666 963c 7785 5e3d
000003d0: cfa7 013d aefa d9ba a80a 82bc bfb8 e43a
000003e0: e68f 123b add2 4b3c 906c b5bc 247a a8bb
000003f0: 81cd 2dbc 8c85 a63d 745d 2dbd da94 33ba

action_model._discrete_distribution.branches.0.bias f4 [3]
0.009218529 0.079855524 -0.22436619
00000000: 5009 173c 4b8b a33d 40c0 65be

action_model._discrete_distribution.branches.1.weight f4 [3, 256]
0.0031671068 -0.021471255 0.022386735 -0.065552205 0.022168688 0.009571723 -0.004135799 0.018930132
0.04808979 0.0048662014 0.005589039 0.052309103 -0.011554985 0.027590418 0.028858773 -0.060327567
0.018288296 0.02619706 0.039347626 -0.0042024083 0.022990882 -0.045652647 0.038830258 0.010120636
0.015851451 0.009659554 0.005168021 -0.040701 -0.015078834 0.04565354 0.04886702 -0.014498829
-0.051532414 -0.07000759 0.025346348 -0.006617551 0.04360336 0.027234871 0.023179391 0.031363644
-0.02993 0.05165167 -0.0035458321 -0.005519842 0.03988079 -0.033780728 -0.006809088 0.038718585
-0.04214252 0.028885277 0.008161761 -0.019554539 -0.012655369 0.026030743 0.00520329 -0.011438094
0.038247038 0.014100404 -0.023210956 0.02153191 -0.030855943 -0.018996473 -0.00019120553 0.005357452
-0.0276488 0.051514305 -0.015752044 0.03385464 0.008090956 0.02584935 0.049750667 0.005187708
0.05253455 0.05495168 -0.036838148 -0.01062924 0.010023163 0.0148677705 0.0033022622 -0.025560511
0.043580413 0.015582961 0.013180495 -0.023968248 0.04155953 -0.047892008 0.0038204154 0.031512592
0.037686232 0.012735137 0.026342487 -0.013503647 -0.049979758 0.019962264 -0.039897453 -0.0016601039
0.012671219 0.032294054 -0.007503925 -0.040099453 0.0046149786 0.0042346846 -0.0026683728 -0.027477648
-0.011638585 -0.015396121 0.019145677 0.02560672 0.0005168043 0.009836517 -0.0067896545 -0.03088708
0.022793131 0.025811533 0.0024144615 0.045282952 -0.050179444 -0.028072435 -0.034571256 0.07031975
-0.0158506 0.0022961863 -0.07096529 -0.03646181 -0.020237038 0.027274864 0.018378241 0.015212961
0.029341472 0.032451972 0.038991768 -0.021406382 -0.061193738 0.013365701 0.0029371267 0.05582945
0.008893553 0.027752414 -0.04597382 0.019566255 0.015890975 -0.022216488 -0.018531209 -0.009000513
-0.020310875 0.045019567 -0.028970644 0.024164323 -0.015337905 -0.02334138 -0.033666603 -0.005663804
0.011690444 -0.011275647 0.02122088 0.025059018 0.014695481 0.06096696 0.013603402 0.01231413
-0.053304844 -0.002782626 0.0007073519 5.396189e-05 0.035511423 0.031667348 0.022665499 -0.009272915
0.03155469 0.027487952 -0.018698448 0.025566436 0.020055378 -0.014338822 -0.02430621 0.02879778
0.047921654 -0.018139925 0.032317672 0.044766624 0.029459825 0.06281637 0.08001895 0.014428267
0.020111315 -0.04663751 0.022586547 0.014688878 0.0105285905 0.018617917 0.052685026 0.010098366
0.026351903 0.031351976 -0.035055656 0.03680653 -0.020333739 -0.01992288 -0.08266215 -0.050134316
0.06232887 -0.031453513 0.009793079 0.03252079 0.0044887154 0.042978678 0.014333715 0.052596826
0.06105482 -0.007840629 -0.027250597 0.028337302 0.029756093 0.0098922765 0.037178602 -0.029862795
-0.018292464 0.020120965 -0.029324966 -0.009002364 -0.004839234 0.007519809 -0.013339224 0.063005224
-0.018157223 0.0681361 -0.007944774 0.0003935928 0.031366177 -0.016476937 0.022582643 0.020492049
0.046391897 0.012493039 -0.0065403283 0.040837195 0.027516631 0.016936699 0.015621287 0.030554721
0.008611403 -0.01932109 0.01800634 -0.023800498 0.0065701315 -0.050261345 0.018780967 0.016195895
-0.06261209 0.01967193 -0.07710307 0.013735736 0.00838184 0.038841903 0.027479501 0.007813283
00000000: 3c8f 4f3b 7ce4 afbc 6364 b73c 3c40 86bd
00000010: 1c9b b53c b7d2 1c3c 9985 87bb 5d13 9b3c
00000020: cdf9 443d a874 9f3b 4224 b73b 1242 563d
00000030: 1f51 3dbc 4d05 e23c 3c69 ec3c 0a1a 77bd
00000040: 56d1 953c 379b d63c fa2a 213d 5bb4 89bb
00000050: 6057 bc3c 45fe 3abd 7a0c 1f3d 06d1 253c
00000060: e7da 813c 1b43 1e3c 8158 a93b 17b6 26bd
00000070: 370d 77bc 35ff 3a3d c928 483d 7f8c 6dbc
00000080: a713 53bd 2460 8fbd 25a3 cf3c 0bd8 d8bb
00000090: 7099 323d aa1b df3c b5e2 bd3c 2a77 003d
000000a0: c22f f5bc b490 533d 3161 68bb cadf b4bb
000000b0: 0a5a 233d a95d 0abd c51e dfbb 6197 1e3d
000000c0: a39d 2cbd d1a0 ec3c e8b8 053c d730 a0bc
000000d0: 7758 4fbc 6d3e d53c 5c80 aa3b d866 3bbc
000000e0: eda8 1c3d 6205 673c e724 bebc b063 b03c
000000f0: 9ac5 fcbc 7e9e 9bbc 587e 48b9 918d af3b
00000100: bc7f e2bc aa00 533d 6e0a 81bc 2aab 0a3d
00000110: ee8f 043c 04c2 d33c 5bc7 4b3d a6fd a93b
00000120: 782e 573d 0315 613d 99e3 16bd 4426 2ebc
00000130: 3138 243c f397 733c c46a 583b 4764 d1bc
00000140: 6081 323d ad4f 7f3c 01f3 573c 0f59 c4bc
00000150: 533a 2a3d 692a 44bd ef5f 7a3b 5913 013d
00000160: e15c 1a3d 09a7 503c 33cc d73c 673e 5dbc
00000170: 93b7 4cbd e787 a33c 836b 23bd d897 d9ba
00000180: f29a 4f3c c546 043d 7ce3 f5bb 533f 24bd
00000190: 3f39 973b 1cc3 8a3b dedf 2ebb ce18 e1bc
000001a0: c3af 3ebc 0340 7cbc 65d7 9c3c 2fc5 d13c
000001b0: 267a 073a 5829 213c c07b debb e706 fdbc
000001c0: a9b8 ba3c b572 d33c f13b 1e3b 9e7a 393d
000001d0: f688 4dbd 2af8 e5bc 979a 0dbd cd03 903d
000001e0: 1ed9 81bc 9d7b 163b 4056 91bd fb58 15bd
000001f0: 25c8 a5bc 896f df3c f78d 963c c83f 793c
00000200: 875d f03c 5cec 043d d5b5 1f3d 705c afbc
00000210: 49a6 7abd d0fb 5a3c cf7c 403b 6cad 643d
00000220: 44b6 113c 0859 e33c 0b4f 3cbd 6949 a03c
00000230: ca2d 823c 5aff b5bc c3ce 97bc e376 13bc
00000240: fe62 a6bc 7066 383d d853 edbc 42f4 c53c
00000250: d64b 7bbc 6c36 bfbc fee5 09bd 6e97 b9bb
00000260: 4789 3f3c 7ebd 38bc 69d7 ad3c 9248 cd3c
00000270: 51c5 703c 7eb8 793d cee0 5e3c 34c1 493c
00000280: 2e56 5abd b85c 36bb 956d 393a 2355 6238
00000290: 6d74 113d 9fb5 013d ffac b93c 6ded 17bc
000002a0: 7e3f 013d 6a2e e13c 7d2d 99bc b470 d13c
000002b0: 2d4b a43c 61ed 6abc d11d c7bc 52e9 eb3c
000002c0: 7f49 443d 2e9a 94bc 895f 043d 355d 373d
000002d0: bb55 f13c dea5 803d fae0 a33d 8a64 6c3c
000002e0: 7cc0 a43c f906 3fbd 6c07 b93c 9fa9 703c
000002f0: 1c80 2c3c 9a84 983c 41cc 573d 9e73 253c
00000300: f2df d73c ee6a 003d 8596 0fbd 72c2 163d
00000310: f192 a6bc 4f35 a3bc c64a a9bd a459 4dbd
00000320: 8f4c 7f3d 66d5 00bd 2773 203c 8534 053d
00000330: 1316 933b 690a 303d f5d7 6a3c c56f 573d
00000340: 9e14 7a3d fb75 00bc a53c dfbc a123 e83c
00000350: 0dc3 f33c 3713 223c 9748 183d d2a2 f4bc
00000360: 14da 95bc b9d4 a43c e93a f0bc a77e 13bc
00000370: 7092 9ebb bb68 f63b c38c 5abc e208 813d
00000380: 75be 94bc f18a 8b3d cc2a 02bc 225b ce39
00000390: d279 003d a4fa 86bc 3cff b83c f1de a73c
000003a0: 6e05 3e3d 9aaf 4c3c 4050 d6bb e744 273d
000003b0: 8f6a e13c d5be 8a3c 6df0 7f3c e54d fa3c
000003c0: d816 0d3c 4347 9ebc 0882 933c 43f9 c2bc
000003d0: 424a d73b d7de 4dbd 8bda 993c 41ad 843c
000003e0: c43a 80bd 0727 a13c 37e8 9dbd da0b 613c
000003f0: fc53 093c b018 1f3d b11c e13c 4903 003c

action_model._discrete_distribution.branches.1.bias f4 [3]
0.040003017 -0.0026809336 -0.037909865
00000000: 34da 233d 9ab2 2fbb 6047 1bbd

action_model._discrete_distribution.branches.2.weight f4 [2, 256]
-0.020812316 0.019800795 0.08076013 -0.008034182 0.02394971 -0.10160143 0.01725111 -0.04145986
0.022001956 0.060518846 -0.011593805 0.03676321 0.047978275 0.020272717 0.048034903 -0.006376871
0.10380938 0.124459475 0.07400035 -0.008353037 -0.025433019 0.0027570955 0.031934086 0.08568839
0.111331925 -0.045891155 0.12141583 0.0118712215 -0.034681562 0.028926995 0.06970467 -0.037831705
-0.036103986 -0.05924617 0.055026155 0.07523586 0.023484727 -0.015758842 0.12758216 0.08885834
-0.07202206 0.015034419 0.08235341 0.053338345 0.011368587 -0.055383865 0.048158757 0.07851359
-0.059291586 0.09603566 -0.083174795 0.02061959 0.017877378 0.07342369 0.013448736 -0.056984108
0.035039775 0.019909834 0.06251143 0.11684944 0.033562187 0.022783963 0.01980033 0.019545583
-0.106302105 0.042165767 0.064797685 0.045117483 -0.018546235 0.10830164 0.023063805 0.08511684
-0.02822958 -0.0017672277 -0.0781144 0.04285088 0.043539673 -0.0056353146 0.06502151 -0.019998575
0.008746299 0.05544049 -0.08762766 -0.030901434 0.043829616 -0.038856693 0.08197989 0.043181106
0.023862788 -0.09861977 0.04823398 -0.0007567126 0.0014005048 0.024428241 -0.03494797 0.06147907
0.071844496 0.0041547893 0.052472435 -0.07457325 0.078217626 0.053788483 -0.008062958 -0.042626366
-0.00066277734 -0.0073567857 0.09127519 0.07651908 0.021146629 -0.00802772 0.025361633 -0.02358894
0.12981687 0.028946644 -0.0063317344 -0.005112322 -0.07976678 -0.10826666 -0.030100413 0.008823865
0.090693854 0.027121283 -0.051002126 -0.02062775 -0.014984495 0.03306576 0.040650453 0.03124784
0.022806207 0.04885528 0.07322435 0.026579209 -0.047368508 0.054218344 0.038255155 0.035390165
0.068506844 0.020050833 -0.08767517 0.07913245 0.07019729 -0.057372425 0.019801406 0.02667197
-0.04651726 0.029654218 -0.018963829 0.022893557 0.031987417 -0.04973008 -0.062308207 0.081880994
0.049244806 -0.026223587 0.033787653 0.07493151 -0.0045998725 0.06158707 0.068738684 0.06644835
-0.063580185 0.064383626 0.06974623 0.007084431 0.010780194 0.06640823 0.06108418 -0.0011975041
0.020610636 0.04783271 -0.045231923 0.060582526 0.019518422 0.008613624 0.026575161 0.045593705
0.022376085 -0.0018333932 0.15623818 0.030287093 0.045778275 0.03425733 0.06295539 0.048575845
0.053935576 0.013396176 0.09141649 0.11200546 -0.00908708 0.03554824 0.0054703047 -0.03603869
0.11380839 0.049147636 -0.055973634 0.11857808 0.007846366 0.023516195 -0.008279006 -0.05171538
0.06751139 0.03751196 0.011815916 0.079117894 0.01134473 0.05451009 -0.066659 0.014635247
0.014242719 -0.030638099 0.029289177 0.03302631 0.023418427 -0.008259359 0.043451585 -0.08101292
-0.006874905 0.16032785 -0.05662485 0.059861775 0.002468611 0.028402777 -0.060765818 0.04115512
-0.012434594 -0.0019097616 -0.03430006 0.053895433 0.05650371 -0.09469913 0.0016718842 0.14958426
0.023278574 -0.061699256 0.017903997 0.017589422 0.040057197 0.075757965 0.06978396 0.0619098
-0.018969348 0.097797915 0.057060856 -0.055417016 -0.010907227 -0.07202339 0.07110576 0.13070697
-0.0714727 0.03470674 -0.0395071 0.1592639 0.11783329 -0.04201416 -0.024019936 0.04348966
00000000: 977e aabc 4735 a23c 9165 a53d cda1 03bc
00000010: 2f32 c43c 6914 d0bd 3352 8d3c d0d1 29bd
00000020: 723d b43c 9ce2 773d f1f3 3dbc 0595 163d
00000030: de84 443d f812 a63c 3fc0 443d 12f5 d0bb
00000040: 039a d43d 9ce4 fe3d 7f8d 973d 2ddb 08bc
00000050: e858 d0bc 63b0 343b 51cd 023d 657d af3d
00000060: fe01 e43d 5df8 3bbd dda8 f83d 837f 423c
00000070: 410e 0ebd 4ef8 ec3c 52c1 8e3d 6bf5 1abd
00000080: c6e1 13bd 1dac 72bd 1b63 613d 4215 9a3d
00000090: 0b63 c03c b018 81bc e6a4 023e 5dfb b53d
000000a0: 4d80 93bd ec52 763c e8a8 a83d 4f79 5a3d
000000b0: 4f43 3a3c 31da 62bd 1e42 453d bccb a03d
000000c0: bcdb 72bd 58ae c43d 8c57 aabd 6aea a83c
000000d0: 9473 923c 295f 963d 1658 5c3c 2b68 69bd
000000e0: de85 0f3d f319 a33c fe05 803d c24e ef3d
000000f0: 8178 093d 6fa5 ba3c 4d34 a23c 0f1e a03c
00000100: ebb4 d9bd 03b6 2c3d a6b4 843d 1ccd 383d
00000110: 46ee 97bc 40cd dd3d 4ef0 bc3c bd51 ae3d
00000120: b841 e7bc 52a2 e7ba 71fa 9fbd 6884 2f3d
00000130: a856 323d 72a8 b8bb ff29 853d 0dd4 a3bc
00000140: a34c 0f3c 9115 633d 2176 b3bd 0125 fdbc
00000150: af86 333d 3228 1fbd 13e5 a73d acde 303d
00000160: e57b c33c 29f9 c9bd fe90 453d 1f5e 46ba
00000170: 2591 b73a bc1d c83c 9a25 0fbd 7ad1 7b3d
00000180: 3523 933d e624 883b 56ed 563d dcb9 98bd
00000190: 9030 a03d 5051 5c3d 7f1a 04bc fc98 2ebd
000001a0: 3cbe 2dba 3111 f1bb 7dee ba3d 09b6 9c3d
000001b0: b23b ad3c b386 03bc 33c3 cf3c 983d c1bc
000001c0: b7ee 043e 8321 ed3c 707a cfbb 4485 a7bb
000001d0: c45c a3bd e9ba ddbd 2495 f6bc f991 103c
000001e0: b3bd b93d 742d de3c 9be7 50bd 87fb a8bc
000001f0: 8781 75bc f66f 073d 1781 263d 78fb ff3c
00000200: 15d4 ba3c 791c 483d a6f6 953d a4bc d93c
00000210: 7b05 42bd 0e14 5e3d 70b1 1c3d 47f5 103d
00000220: 514d 8c3d a541 a43c 0a8f b3bd 3210 a23d
00000230: 99c3 8f3d 59ff 6abd 8f36 a23c 2d7f da3c
00000240: e288 3ebd 67ed f23c 085a 9bbc 458b bb3c
00000250: 3d05 033d c5b1 4bbd e436 7fbd 39b1 a73d
00000260: ecb4 493d d9d2 d6bc ec64 0a3d b175 993d
00000270: 87ba 96bb b942 7c3d dec6 8c3d 1316 883d
00000280: 5436 82bd 90db 833d 1dd7 8e3d 8424 e83b
00000290: 699f 303c 0a01 883d 6833 7a3d 92f5 9cba
000002a0: a3d7 a83c 3bec 433d 1c45 39bd 6225 783d
000002b0: 19e5 9f3c 2820 0d3c 27b4 d93c 77c0 3a3d
000002c0: 0d4e b73c 784e f0ba e7fc 1f3e a31c f83c
000002d0: 0082 3b3d 6a51 0c3d c1ee 803d 77f7 463d
000002e0: 8deb 5c3d a27b 5b3c 9238 bb3d 1e63 e53d
000002f0: fae1 14bc 089b 113d 3e40 b33b 4e9d 13bd
00000300: 6014 e93d 084f 493d 9c44 65bd 10d9 f23d
00000310: 0b8e 003c 09a5 c03c aba4 07bc 82d3 53bd
00000320: 6943 8a3d 24a6 193d 8b97 413c 9008 a23d
00000330: 3fdf 393c f945 5f3d 8484 88bd adc8 6f3c
00000340: 4b5a 693c c0fc fabc dbef ef3c 9946 073d
00000350: 00d8 bf3c 4352 07bc 4afa 313d 1aea a5bd
00000360: e246 e1bb fc2c 243e 75ef 67bd 9f31 753d
00000370: 6cc8 213b f1ac e83c 94e5 78bd 4592 283d
00000380: 78ba 4bbc f750 faba 387e 0cbd 75c1 5c3d
00000390: 6f70 673d 9ef1 c1bd 2023 db3a 9e2c 193e
000003a0: b5b2 be3c 5cb8 7cbd 67ab 923c b117 903c
000003b0: 0413 243d fe26 9b3d e5ea 8e3d 2195 7d3d
000003c0: 9b65 9bbc 464a c83d a5b8 693d f4fc 62bd
000003d0: 3ab4 32bc 0081 93bd e69f 913d 0cd8 053e
000003e0: 4760 92bd a828 0e3d 32d2 21bd 1316 233e
000003f0: 9452 f13d 0a17 2cbd 75c5 c4bc 3722 323d

action_model._discrete_distribution.branches.2.bias f4 [2]
0.067362174 -0.067362174
00000000: 2ef5 893d 2ef5 89bd
