Assets/Neural Network/ButtonPress.onnx (onnx, 352736 bytes, 13 tensors)

discrete_act_size_vector f4 [1, 4]
0	0x40400000	3.0
1	0x40400000	3.0
2	0x40000000	2.0
3	0x40000000	2.0

network_body._body_endoder.seq_layers.0.weight f4 [256, 65]
0	0x3d17dc64	0.037075415
1	0x3e8c81dd	0.27442828
2	0xbe003953	-0.12521867
3	0xbd46bf4f	-0.04852229
4	0x3e0bf2fc	0.1366691
5	0x3e1f3e4a	0.15551105
6	0xbdbdd13e	-0.092684254
7	0x3dd317ff	0.10307311
8	0xbd851aa0	-0.06499219
9	0x3e5f5f6c	0.21813744
10	0x3c997713	0.018733537
11	0xbe3e9937	-0.18613134
12	0xbe1dbad6	-0.15403304
13	0x3e19c6a0	0.15017176
14	0x3df47e72	0.1193818
15	0xbe9199bb	-0.284376
16	0x3cd08a80	0.025456667
17	0x3ee02139	0.43775347
18	0x3eab0e9a	0.33409578
19	0x3e4ed5f1	0.201988
20	0x3e7fc92e	0.24979088
21	0xbc4de159	-0.012565934
22	0xbf2a0192	-0.66408646
23	0xbdc4c785	-0.09608368
24	0x3e2365c5	0.15956791
25	0xbe4baaf7	-0.19889437
26	0x3dd14b54	0.10219446
27	0xbd78b401	-0.06071854
28	0x3d8e9683	0.069623016
29	0x3de92feb	0.11386093
30	0x3c8599b4	0.016308643
31	0x3f07ba4b	0.53018636
32	0xbea1f465	-0.3163177
33	0xbe6047a6	-0.21902332
34	0xbd673d68	-0.056455046
35	0x3d90066b	0.07032474
36	0x3e79d5fa	0.24398032
37	0x3cd0a418	0.025468871
38	0x3e8fff6b	0.28124556
39	0x3da1f414	0.07907882
40	0x3de83f6f	0.11340224
41	0xbe9fc63a	-0.31205922
42	0xbea552b9	-0.32289675
43	0xbe3664fe	-0.17811963
44	0x3d110649	0.035406385
45	0x3f0ade33	0.542453
46	0x3c84c5ab	0.016207537
47	0x3d8eeac7	0.06978374
48	0xbe950d71	-0.29111817
49	0xbd55aab8	-0.052164763
50	0x3e97fa9c	0.29683387
51	0x3dca6184	0.09881881
52	0xbe6f5110	-0.23370767
53	0xbdf2100d	-0.11819468
54	0xbce78913	-0.028263604
55	0x3d965db5	0.07342092
56	0xbc2b83dc	-0.010468449
57	0x3e2da56f	0.16957639
58	0x3d01356a	0.03154508
59	0xbe90107d	-0.2813758
60	0x3d08e9c4	0.03342606
61	0xbe964646	-0.2935049
62	0xbf00cb42	-0.50310147
63	0x3e2b5a51	0.16733672
64	0x3cad5c29	0.02116211
65	0xbc4b3ab2	-0.012404131
66	0x3e343e39	0.17601861
67	0xbe26a7c3	-0.16274934
68	0x3e24a22f	0.16077493
69	0xbe74ddfc	-0.23912805
70	0xbe95bb62	-0.29244524
71	0xbe6b8bc4	-0.23002535
72	0x3e42f684	0.19039351
73	0xbd99fb95	-0.075186886
74	0x3e3f1238	0.18659294
75	0xbea0e6c5	-0.31426063
76	0xbd4585b0	-0.048223197
77	0x3e240431	0.16017224
78	0xbe1062c9	-0.14100184
79	0x3de38bb3	0.1111063
80	0x3d1d1956	0.03835424
81	0xbd700aa2	-0.05860389
82	0x3dd9962c	0.10624346
83	0xbdbdf922	-0.09276034
84	0x3d929a97	0.07158392
85	0xbd465292	-0.04841859
86	0xbcf7bb84	-0.030240782
87	0xbe910117	-0.28321144
88	0x3d980d57	0.074244194
89	0xbdc8373f	-0.09776162
90	0xbe579541	-0.2105303
91	0x3ea21e1e	0.31663603
92	0x3e205715	0.15658219
93	0xbcf2ffe2	-0.02966303
94	0x3e86cbe6	0.26327437
95	0xbdf6f586	-0.12058549
96	0x3de8e99a	0.11372681
97	0xbce9f791	-0.028560432
98	0xbdfb3119	-0.12265224
99	0xbd8320bc	-0.06402728
100	0xbe6d54f8	-0.23176944
101	0x3d834be3	0.064109586
102	0x3eb101fc	0.34571826
103	0x3dc91b81	0.09819699
104	0x3d95353f	0.072855465
105	0xbde69584	-0.112589866
106	0x3e50858b	0.20363443
107	0xbcf62c49	-0.030050414
108	0x3d5f072e	0.054450206
109	0x3dc923cc	0.09821281
110	0xbe030fd1	-0.12799002
111	0x3e297872	0.16549852
112	0x3eb317d1	0.34979108
113	0x3d8f1997	0.06987303
114	0xbde84790	-0.113417745
115	0x3e4e137a	0.20124617
116	0xbdccbb60	-0.099966764
117	0xbdeb672e	-0.11494289
118	0xbddd8a69	-0.10817415
119	0xbe3681b0	-0.1782291
120	0x3e29b7f2	0.16574076
121	0x3e6f0e5f	0.23345326
122	0xbe943492	-0.28946358
123	0x3d02b7a7	0.031913426
124	0x3e18684d	0.14883538
125	0xbc816a1c	-0.015797667
126	0x3e0a76bf	0.1352186
127	0xbdc8308c	-0.097748846
128	0xbea49c8d	-0.3215069
129	0xbc1845ba	-0.009293968
130	0xbf040fc0	-0.5158653
131	0x3eb5eb38	0.3553102
132	0xbded2770	-0.11579788
133	0xbd79b933	-0.060967635
134	0xbe08db41	-0.13364889
135	0xbe95f216	-0.2928626
136	0x3ce71442	0.028207902
137	0x3e1629bd	0.1466436
138	0x3d887b9a	0.066642
139	0x3e6d1c1e	0.23155257
140	0xbf1fe8d1	-0.62464625
141	0xbca42f05	-0.020041952
142	0x3e7412d6	0.2383531
143	0x3db0a972	0.08626069
144	0x3bc39fa0	0.0059699565
145	0xbd2f9e71	-0.04287571
146	0x3c83c593	0.016085422
147	0xbd8bda39	-0.06828732
148	0x3eb0d45b	0.34537014
149	0x3e384ec5	0.17998798
150	0xbe799814	-0.2437442
151	0x3e118a1f	0.14212845
152	0x3e0d6535	0.13808139
153	0xbda32db9	-0.07967705
154	0xbd789b57	-0.06069502
155	0xbea56aa5	-0.32307926
156	0x3d3bcba8	0.04584852
157	0x3e0f2ea5	0.13982637
158	0x3e9b64af	0.30350253
159	0x3da88ada	0.08229609
160	0xbed0f3e5	-0.40811077
161	0x3eb9b90a	0.36273986
162	0xbe423087	-0.18963824
163	0xbd3639fb	-0.04448889
164	0x3eab2d65	0.3343307
165	0xbdfafd7a	-0.12255378
166	0x3e175d46	0.14781675
167	0xbdd7df1a	-0.105406
168	0x3dceb566	0.10093193
169	0xbe19f3e4	-0.15034443
170	0x3dbdc1f7	0.092655115
171	0xbe2de3cd	-0.1698143
172	0xbe5b388c	-0.2140829
173	0x3b8f3d7f	0.0043713446
174	0xbda87091	-0.08224595
175	0xbdd94698	-0.10609168
176	0x3eadf0ac	0.3397268
177	0xbe8ac58a	-0.27103835
178	0xbd904cf6	-0.07045929
179	0xbb2c2cd1	-0.002627183
180	0x3dfe9942	0.12431575
181	0x3db704e7	0.08936482
182	0xbe2f64a0	-0.17128229
183	0xbdfb3da3	-0.12267616
184	0x3dcb3906	0.09922986
185	0x3e8b12fa	0.27162915
186	0xbe5748d6	-0.21023878
187	0xbde19313	-0.1101438
188	0xbdce615b	-0.10077163
189	0xbd07512f	-0.033036407
190	0x3d942ad0	0.07234728
191	0xbe90682e	-0.28204483
192	0xbd92defe	-0.07171439
193	0xbd3535ab	-0.044240635
194	0xbda71e0f	-0.0816003
195	0x3ca54961	0.020176591
196	0x3d45afb9	0.048263285
197	0xbe0cbbbe	-0.13743493
198	0x3e8b9cb9	0.27268007
199	0x3e1cae5c	0.15300888
200	0xbe3764c4	-0.17909533
201	0x3d39abaf	0.045329746
202	0x3dff0208	0.12451559
203	0x3cd61c31	0.02613649
204	0xbe70d52d	-0.2351882
205	0xbde9ab5e	-0.11409639
206	0x3eb64199	0.35596922
207	0x3e61b79e	0.220427
208	0x3d19cd0e	0.03754907
209	0x3b8c5832	0.0042829746
210	0xbe3227d2	-0.17398003
211	0x3dd02324	0.101629525
212	0xbe28c5c3	-0.1648169
213	0x3e31f031	0.17376782
214	0x3e25ed7f	0.16203879
215	0xbe35b175	-0.17743476
216	0x3db8d9dc	0.090259284
217	0x3e9921f9	0.29908732
218	0x3dc71529	0.09720833
219	0x3d4b4c67	0.04963341
220	0x3eb867af	0.36016604
221	0xbcab60ff	-0.020920275
222	0xbcd47e64	-0.025939174
223	0x3d5d606b	0.05404703
224	0xbe0b4cb1	-0.13603474
225	0x3eaf8836	0.34283608
226	0x3e3dc40e	0.1853182
227	0x3e8385a3	0.25687894
228	0xbd9c5145	-0.076326884
229	0x3d8a133f	0.06741952
230	0xbc681356	-0.014164766
231	0xbb0ed530	-0.002179455
232	0xbd8bd47d	-0.06827638
233	0xbdba7f6f	-0.09106337
234	0xbd1245fa	-0.035711266
235	0xbb371150	-0.0027933903
236	0xbca26eec	-0.019828282
237	0xbeb07ded	-0.34471074
238	0xbd70b79c	-0.058768854
239	0xbcda3b2d	-0.026639545
240	0xbe36d680	-0.17855263
241	0x3d2240c2	0.03961254
242	0xbf0a6e1e	-0.54074275
243	0x3dac95b5	0.08426992
244	0xbe893d0a	-0.26804382
245	0x3de8147e	0.113320336
246	0xbe5e3c3c	-0.21702665
247	0xbe90994b	-0.28241953
248	0xbdc3011e	-0.095216975
249	0x3db3bcf4	0.08776274
250	0x3dfee322	0.12445666
251	0x3d91df94	0.07122722
252	0xbe369b52	-0.17832687
253	0xbd904d4d	-0.07045994
254	0xbe428cc0	-0.18999004
255	0x3d5521d3	0.05203421

network_body._body_endoder.seq_layers.0.bias f4 [256]
0	0xbd3d0fa2	-0.046157487
1	0xbcb85055	-0.022499243
2	0x3cf7418b	0.03018262
3	0xbdacccd0	-0.084375024
4	0xbc63acf5	-0.013896217
5	0x3e1d6037	0.15368734
6	0x3cd44aa4	0.025914498
7	0x3d4a4180	0.049378872
8	0x3caf9b61	0.021436395
9	0x3e51aef4	0.20476896
10	0x3d042d7d	0.032269944
11	0xbccb4377	-0.024812443
12	0x3e54d8cd	0.20785828
13	0x3ce3ae7c	0.027793162
14	0xbc337889	-0.010954031
15	0x3c374aba	0.01118725
16	0x3c8902da	0.016724993
17	0xbd78d898	-0.060753435
18	0x3cda8f5b	0.026679685
19	0x3dd7fdde	0.10546468
20	0xbd57e88c	-0.05271201
21	0x3cd26160	0.025681198
22	0xbd8bc072	-0.068238154
23	0x3dd395d0	0.10331309
24	0x3e472b2f	0.19450067
25	0xbd8d5a29	-0.06901962
26	0x3d1ef2f6	0.038805924
27	0xbd941b61	-0.072317846
28	0x3e00a325	0.12562235
29	0x3d003ed5	0.03130992
30	0x3ca2da67	0.019879533
31	0x3e0ee6c6	0.1395522
32	0x3d577703	0.052603733
33	0xbd9f7306	-0.07785611
34	0x3d9d48fe	0.07679938
35	0x3caddd3b	0.021223655
36	0x3cb7ea32	0.02245054
37	0x3d176b96	0.036967836
38	0xbdcba84f	-0.09944212
39	0x3decf869	0.11570818
40	0x3da3cfaa	0.07998593
41	0xba67081c	-0.0008813159
42	0xbadf3d92	-0.0017031899
43	0x3e51db6a	0.20493856
44	0x3ddd1c6d	0.107964374
45	0xbe685c21	-0.22691394
46	0x3d44b43b	0.048023444
47	0xbd1ad76b	-0.037803095
48	0xbd358ade	-0.044321887
49	0x3e80c1d1	0.2514787
50	0xbd61b87f	-0.05510759
51	0x3db405b1	0.08790148
52	0xbe6054a5	-0.2190729
53	0xbdea46f6	-0.11439316
54	0x3d39048e	0.04517036
55	0xbcbf7f88	-0.023376241
56	0xbdfdbe07	-0.123897605
57	0x3d136f9a	0.035995103
58	0xbd26b574	-0.04070039
59	0x3d4e334a	0.05034188
60	0xbc93ff49	-0.018066065
61	0xbcd3dcc1	-0.0258621
62	0xbb409c6a	-0.0029390105
63	0x3e2ac832	0.16677931
64	0x3e2fbaf4	0.1716116
65	0xbc39589e	-0.011312632
66	0xbc38bd4a	-0.011275599
67	0x3db94c49	0.09047753
68	0x3c89af78	0.016807303
69	0xbdd800b4	-0.10547009
70	0x3dbb230c	0.09137544
71	0xbd5b67c2	-0.053565748
72	0x3da74685	0.081677474
73	0x3d03b711	0.032157008
74	0xbd63000d	-0.05541997
75	0x3e3cfa27	0.184548
76	0xbdb0108d	-0.08596907
77	0xbe341eda	-0.17589894
78	0x3cb1c7e5	0.021701762
79	0xbd86f98c	-0.06590566
80	0xbd414223	-0.047182214
81	0x3da51521	0.08060671
82	0xbd9f93cf	-0.07791864
83	0xbbd1d7a7	-0.0064038816
84	0xbdf2b620	-0.11851144
85	0xb9b46961	-0.0003441079
86	0xbc8178d0	-0.015804678
87	0x3be24ec2	0.0069063613
88	0xbddd0625	-0.107921876
89	0xbe6c340d	-0.23066731
90	0x3de003b4	0.10938206
91	0xbd8e2133	-0.06939926
92	0x3d4398f0	0.047753274
93	0xbdd005fc	-0.101573914
94	0xbce4523d	-0.027871246
95	0x3e470ed8	0.19439256
96	0xbd605758	-0.054770797
97	0xbde1f9f1	-0.11034001
98	0xbd7564f7	-0.05991074
99	0x3d7cacb6	0.061688147
100	0x3d006b6e	0.031352453
101	0xbdae0c1b	-0.08498403
102	0xbd17a017	-0.037017908
103	0x3b223aaa	0.0024754205
104	0x3c7b3d23	0.0153344
105	0x3dbc5921	0.091966875
106	0xbd001488	-0.03126958
107	0x3d448f0d	0.047987986
108	0x3dcc35cc	0.099711984
109	0x3d572a04	0.052530304
110	0xbe0f6a5c	-0.14005417
111	0xbe0e2fcd	-0.13885422
112	0x3c5738b8	0.013136081
113	0x3ddf75e0	0.10911155
114	0xbdb423c7	-0.087958865
115	0x3ba6b4b9	0.005087462
116	0x3dcd4e6e	0.10024725
117	0xbd5105fb	-0.051031094
118	0xbe0f1578	-0.13973033
119	0xbd05ee95	-0.032698233
120	0x3cdc9650	0.026927143
121	0xbc923f4b	-0.017852446
122	0xbc252b21	-0.0100810835
123	0x3cb5656c	0.022143088
124	0xbb844971	-0.004037075
125	0xb9bcb750	-0.00035994733
126	0xbc6c61fd	-0.014427659
127	0x3d27ff8a	0.041015185
128	0x3be51543	0.00699106
129	0xbd44a8b8	-0.048012465
130	0xbcf6621a	-0.030076075
131	0xbc06a1f8	-0.008217327
132	0xbe662e6a	-0.22478643
133	0x3de77741	0.11302043
134	0xbcc1ce2e	-0.023657884
135	0xbd8331b5	-0.06405965
136	0xbca5753e	-0.020197507
137	0x3cca4a3b	0.024693599
138	0xbc5076db	-0.01272365
139	0xba020356	-0.00049596035
140	0x3d8b10ca	0.06790312
141	0x3e7b7b0f	0.24558662
142	0xbe29e26b	-0.16590278
143	0xbd8c0f56	-0.068388626
144	0xbd43eccf	-0.04783326
145	0xbe0e4911	-0.1389506
146	0x3b681b87	0.0035416798
147	0xbd77a327	-0.06045833
148	0x3dc004b3	0.09375896
149	0xbd8d6bbb	-0.069053136
150	0x3d76d73c	0.060263857
151	0xbd37c41a	-0.04486475
152	0x3cce3a15	0.02517418
153	0xbe0a9146	-0.1353198
154	0x3df5d070	0.12002647
155	0x3c3d231a	0.011544013
156	0xbe140c5c	-0.1445784
157	0x3c87d7af	0.016582338
158	0x3d1dad9b	0.03849564
159	0x3d6d6ea2	0.057966836
160	0xbd0fc308	-0.035098106
161	0xbd1cce09	-0.038282428
162	0xbe062f6a	-0.13104025
163	0x3cffa9bf	0.031208871
164	0xbe025d90	-0.12731004
165	0xbd220c4f	-0.03956252
166	0xbc48abd7	-0.012248001
167	0x3d1156fb	0.03548334
168	0xbd9f5b9f	-0.07781147
169	0xbd61e1ba	-0.05514691
170	0xbd8cc7a6	-0.068740174
171	0xbd1848b2	-0.037178703
172	0x3d910182	0.07080366
173	0xbc4c5b58	-0.01247295
174	0xbd8906ee	-0.06690775
175	0xbdadc1a2	-0.08484198
176	0xbd637998	-0.055535883
177	0xbdb04f57	-0.08608883
178	0xbc5ecd6c	-0.013598781
179	0xbc99bf03	-0.01876784
180	0x3d16ddf2	0.036832757
181	0xbcee4261	-0.029084386
182	0xbd9136c7	-0.07090526
183	0xbda6466b	-0.081189
184	0xbd7a8a68	-0.06116715
185	0x3dae6cc1	0.08516837
186	0xbd8919ba	-0.0669436
187	0xbd4dbe12	-0.050230093
188	0x3d11cbed	0.03559487
189	0x3d805e7e	0.06268023
190	0xbd87e068	-0.06634599
191	0x3d47df4b	0.048796933
192	0x3e519855	0.20468266
193	0x3caffc59	0.021482633
194	0xbd3b739c	-0.04576455
195	0x3e4dac85	0.20085342
196	0xbd047b6b	-0.032344263
197	0x3ca6132d	0.020272816
198	0xbdab6dea	-0.08370574
199	0x3cdcd319	0.026956128
200	0xbdfcf8c4	-0.12352136
201	0x3d9142ec	0.070928425
202	0xbd1d2760	-0.03836763
203	0xbe07be07	-0.13256083
204	0x3d761051	0.060074154
205	0x3c6629fe	0.014048098
206	0xbd7e7320	-0.06212151
207	0xbe99eaa1	-0.3006182
208	0x3cc629ba	0.024189819
209	0xbd659171	-0.056046907
210	0xbdb50017	-0.08837908
211	0xbc4f9f59	-0.012672269
212	0xbcbd3dcf	-0.023100762
213	0x3d32ef6c	0.04368536
214	0x3c907b16	0.017636817
215	0xbe8ce2ab	-0.27516684
216	0xbbf9a5e1	-0.0076186513
217	0xbd76f002	-0.060287483
218	0xbe1ee79e	-0.15518042
219	0x3bd12084	0.00638205
220	0x3ca06594	0.019579686
221	0x3c56e8b3	0.013117003
222	0xbd79d076	-0.06098982
223	0x3da8e65c	0.082470626
224	0xbdf97a84	-0.12181571
225	0xbd96aaf6	-0.07356827
226	0x3d9b9884	0.075974494
227	0x3d229a54	0.03969796
228	0x3c78c0ec	0.015182715
229	0xbd9df41b	-0.07712575
230	0xbdaf105b	-0.085480414
231	0x3c9bb5d4	0.0190076
232	0xbe1cf84f	-0.15329097
233	0xbd8614e7	-0.065469556
234	0x3ac69669	0.0015151027
235	0xbd0d2975	-0.034463365
236	0xbd627edf	-0.055296775
237	0x3d39a266	0.04532089
238	0xbd205999	-0.039147947
239	0xbd18fd31	-0.037350837
240	0x3e119191	0.14215685
241	0x3da72ff8	0.08163446
242	0xbd20c0b8	-0.03924629
243	0x3cbef698	0.023310944
244	0x3cb7a269	0.02241631
245	0x3d0e6d46	0.03477218
246	0x3e16e166	0.1473442
247	0xbbb351bb	-0.0054723895
248	0xbd9e524a	-0.07730539
249	0x3e09b1dc	0.13446754
250	0xbd496565	-0.049168963
251	0x3c9e7f7a	0.019347895
252	0xbd858b86	-0.065207526
253	0x3d96eb40	0.07369089
254	0x3de334b0	0.11094034
255	0x3d5734e8	0.05254069

network_body._body_endoder.seq_layers.2.weight f4 [256, 256]
0	0x3c8a74d8	0.016901419
1	0x3e303814	0.17208892
2	0x3ca87615	0.020564118
3	0x3c431c54	0.011908609
4	0xbcdb161e	-0.026743945
5	0xbd00d09f	-0.031448957
6	0xbe4646a3	-0.19362883
7	0x3d66a6bf	0.056311365
8	0xbe5a9867	-0.213472
9	0x3d72668e	0.059179835
10	0xbe6b6c13	-0.22990446
11	0xbda10fd5	-0.07864348
12	0xbe6eb620	-0.23311663
13	0xbe9a4a79	-0.30134943
14	0xbdfcdf6d	-0.123473026
15	0xbd860d6b	-0.06545528
16	0xbd88a259	-0.0667159
17	0xbd00c62e	-0.031439
18	0xbd3f656f	-0.046727594
19	0xbd36402b	-0.04449479
20	0xbdf84afc	-0.12123677
21	0xbe14a423	-0.14515738
22	0xbd009ecc	-0.03140144
23	0xbee1fbf5	-0.4413754
24	0xbe6c3cf8	-0.23070133
25	0xbe242daf	-0.16033052
26	0xbcb3e593	-0.021960055
27	0x3e8cbb95	0.27486864
28	0xbe306d84	-0.17229277
29	0x3ea1fd8a	0.31638747
30	0xbe9509c8	-0.29109025
31	0xbdb201c9	-0.08691747
32	0x3df64e3e	0.12026642
33	0xbe2bff9d	-0.16796727
34	0xbe5731d3	-0.210151
35	0x3dae11b5	0.08499471
36	0xbe884f5f	-0.26623055
37	0xbe868e00	-0.26280212
38	0x3eaa2313	0.33229885
39	0x3c559f0a	0.013038406
40	0x3d841282	0.064488426
41	0xbeb42917	-0.351876
42	0x3dacfa5e	0.08446191
43	0xbd8efb48	-0.06981522
44	0xbd264611	-0.040594164
45	0x3e23bf76	0.15991005
46	0xbd5102bc	-0.051028
47	0xbea0cb1f	-0.3140497
48	0xbe825739	-0.2545717
49	0xbe8c9107	-0.27454397
50	0x3ca1e5fc	0.019762985
51	0xbcbb977a	-0.022899378
52	0x3e90aa27	0.28254816
53	0xbe6eb39e	-0.23310706
54	0xbdc26045	-0.09491018
55	0xbead2e08	-0.33824182
56	0xbe48d6fb	-0.19613259
57	0xbd92465e	-0.07142328
58	0xbe1361fc	-0.14392847
59	0xbd06336a	-0.032763876
60	0x3d73e4e0	0.059544444
61	0xbdd89b25	-0.105764665
62	0xbdd2fe21	-0.103023775
63	0xbe40e61f	-0.18837784
64	0xbead52ef	-0.33852336
65	0xbe70e5cc	-0.2352516
66	0xbe50a6b4	-0.20376092
67	0xbe1348b7	-0.14383207
68	0xbc6f51d4	-0.014606912
69	0xbdb435da	-0.08799334
70	0x3dddbe53	0.10827317
71	0x3cc6fca7	0.024290396
72	0xbeace9ae	-0.33772033
73	0xbe0095bf	-0.12557124
74	0x3e9221c5	0.2854139
75	0x3d254a5d	0.04035412
76	0xbbded17a	-0.006799874
77	0xbc826551	-0.015917452
78	0xbe59d499	-0.21272506
79	0xbdb4a38f	-0.08820259
80	0xbe92f01d	-0.28698817
81	0xbe6a146f	-0.22859357
82	0x3e434b86	0.19071779
83	0xbe4c1a6b	-0.19931953
84	0x3e43a392	0.19105366
85	0xbe130e40	-0.14360905
86	0xbcfc5829	-0.030803757
87	0xbccf0115	-0.02526907
88	0x3db69ef6	0.08917038
89	0x3daa59ee	0.08317934
90	0xbbecc325	-0.0072254115
91	0xbe320a29	-0.17386688
92	0xbdfa71e9	-0.12228758
93	0x3dcb5c2d	0.099296905
94	0xbb0f6f02	-0.0021886234
95	0xbe263d08	-0.16234219
96	0xbda40027	-0.080078416
97	0xbe36d624	-0.17855126
98	0x3e60ef26	0.21966228
99	0xbccf4567	-0.025301648
100	0xbe854da5	-0.260358
101	0xbdeb2a0d	-0.1148263
102	0xbe6eef9f	-0.23333596
103	0x3dad77ce	0.084701166
104	0xbdac33f0	-0.08408344
105	0x3d4968dc	0.049172267
106	0xbe3959c7	-0.18100654
107	0xbe76c9fa	-0.24100485
108	0xbe499c98	-0.19688642
109	0xbcc368f6	-0.02385376
110	0x3da4a37e	0.08038996
111	0x3da993ab	0.082801186
112	0xbe3911c1	-0.18073179
113	0xbd91a931	-0.07112349
114	0x3dd21079	0.10257048
115	0xbc03e0d5	-0.00804921
116	0xbe865d03	-0.26242837
117	0xbe109b7d	-0.14121814
118	0x3e833ba6	0.25631446
119	0xbcbafe09	-0.022826212
120	0xbe5ae36d	-0.21375819
121	0x3de4b3ae	0.11167084
122	0xbdd8e99f	-0.10591435
123	0x3d7178fd	0.058953274
124	0xbe9024bc	-0.28153026
125	0x3dd27849	0.10276849
126	0xbbfb37d9	-0.0076665697
127	0xbec146a2	-0.377492
128	0xbdcee537	-0.10102313
129	0x3dad2f75	0.08456317
130	0x3d683234	0.056688502
131	0x3d1ab158	0.037766784
132	0x3d06955c	0.032857284
133	0x3dcb7b2a	0.09935601
134	0xbcfe5d38	-0.03105031
135	0x3dab9808	0.08378607
136	0xbebf26d7	-0.3733432
137	0x3e6644a6	0.22487125
138	0x3ce0ecc3	0.027456647
139	0xbe8c5dd0	-0.27415323
140	0xbe5b01b9	-0.21387376
141	0xbe5ce8fb	-0.2157325
142	0xbd827f48	-0.06371933
143	0xbe81beed	-0.25340977
144	0xbe2025c4	-0.15639406
145	0xbdf7b856	-0.12095706
146	0xbe0ebcc8	-0.13939202
147	0xbdcb883b	-0.09938093
148	0xbe738900	-0.2378273
149	0xbe27c5a1	-0.16383983
150	0xbe61c001	-0.220459
151	0xbbf9ce71	-0.0076234867
152	0xbe3b0e61	-0.18267204
153	0x3ed3e5c2	0.4138623
154	0xbe4c8600	-0.19972992
155	0x3db1de70	0.08685005
156	0xbd3e2c22	-0.046428807
157	0xbe609dc9	-0.2193519
158	0x3e9be2f9	0.30446604
159	0xbd75ea32	-0.0600378
160	0x3e0c364b	0.13692586
161	0x3e23d3d5	0.15998776
162	0xbd4b526b	-0.049639147
163	0x3e6f5735	0.2337311
164	0x3e70af98	0.23504484
165	0x3d311333	0.0432312
166	0x3e8c72d8	0.2743137
167	0xbe6a08eb	-0.22854964
168	0x3ccf1d99	0.025282668
169	0x3a51e2de	0.0008006523
170	0xbe031444	-0.128007
171	0xbe2d6387	-0.16932498
172	0xbd2ee1a1	-0.042695645
173	0xbd48f1d1	-0.04905874
174	0x3db42bd2	0.087974206
175	0xbda37c95	-0.079827465
176	0x3d38fe34	0.045164302
177	0x3df81544	0.12113431
178	0xbe338d0d	-0.17534275
179	0xbe037257	-0.12836586
180	0xbe043982	-0.12912562
181	0x3e811a2e	0.25215286
182	0xbc821b66	-0.015882205
183	0xbdd0a2fc	-0.10187337
184	0xbe808963	-0.25104818
185	0xbc55bec6	-0.013045972
186	0xbe3deba0	-0.18546915
187	0x3de8ce06	0.11367421
188	0xbd05fbc8	-0.03271082
189	0xbe0ab201	-0.13544466
190	0xbe279fbd	-0.16369529
191	0xbccf2343	-0.025285369
192	0x3c14fbfc	0.009093281
193	0xbdd72226	-0.1050456
194	0xbe1a7eb4	-0.15087396
195	0xbd376d6e	-0.044782095
196	0x3d598774	0.053107694
197	0xbdc6001c	-0.096679896
198	0x3dfa7418	0.122291744
199	0xbcf6bd6b	-0.030119618
200	0xbd830cc8	-0.06398922
201	0xbe7790d4	-0.24176341
202	0xbe86ae88	-0.26305032
203	0x3e461b2d	0.19346304
204	0x3e3edf11	0.1863978
205	0xbcb2f946	-0.021847378
206	0x3df99f06	0.121885344
207	0x3e002bcb	0.12516706
208	0xbd28bc00	-0.041194916
209	0x3c0f92b5	0.008763005
210	0x3e4a7bcd	0.19773789
211	0x3d9711ca	0.0737644
212	0xbb27e0c2	-0.0025616144
213	0x3ec2e2b4	0.38063586
214	0x3d27e3cb	0.040988725
215	0x3dcc7936	0.09984057
216	0x3cc1c294	0.023652352
217	0xbe2c727a	-0.16840544
218	0x3cdd3ec3	0.027007466
219	0x3d60ca8e	0.05488067
220	0xbe0a5fd6	-0.13513121
221	0xbedbd05b	-0.429324
222	0xbe8c69f5	-0.2742459
223	0x3d5752d7	0.052569237
224	0x3e2162a3	0.15760283
225	0xbd1d988b	-0.038475554
226	0xbe1daf61	-0.15398933
227	0xbe37c638	-0.17946708
228	0xbdb85d51	-0.09002174
229	0xbe6e083d	-0.2324533
230	0xbe379478	-0.1792773
231	0xbde0028f	-0.10937988
232	0xbc0bd4aa	-0.00853459
233	0x3d89eed1	0.06735004
234	0x3e83837d	0.25686255
235	0xbd1e6fa5	-0.03868069
236	0xbe10ab2e	-0.141278
237	0xbbd172ad	-0.0063918442
238	0xbe48223e	-0.19544312
239	0xbe0e5714	-0.13900405
240	0xbdb6305c	-0.088959426
241	0xbd40153e	-0.046895258
242	0xbe6a350e	-0.22871801
243	0xbe3b45f3	-0.18288402
244	0xbd88902b	-0.06668123
245	0xbdd22540	-0.10261011
246	0xbe9b16ad	-0.30290738
247	0xbe0ee326	-0.13953838
248	0xbebcadb2	-0.3685127
249	0xbe8d71fb	-0.27626023
250	0xbde48aeb	-0.11159309
251	0xbe3f7019	-0.18695106
252	0xbda873f0	-0.08225238
253	0x3db11c42	0.08647968
254	0xbd7503b9	-0.059818003
255	0xbe4e5503	-0.20149617

network_body._body_endoder.seq_layers.2.bias f4 [256]
0	0xbdd9ce18	-0.106350124
1	0x3e70ea1d	0.23526807
2	0xbe4233e6	-0.1896511
3	0x3d848e94	0.06472507
4	0xbcf69c36	-0.030103784
5	0xbc6caae9	-0.014445045
6	0x3da5c501	0.08094216
7	0xbdc34f86	-0.09536652
8	0x3db03af4	0.086049944
9	0xbd9ba267	-0.07599335
10	0xbd456ed0	-0.048201382
11	0xbca3baa2	-0.019986454
12	0x3d4fb336	0.05070802
13	0x3cb8d176	0.022560816
14	0xbc21b81f	-0.009870558
15	0xbe6d3ad3	-0.23166971
16	0xbdabc34f	-0.083868615
17	0x3df2bf19	0.11852855
18	0xbde0cf24	-0.10977009
19	0x3d885348	0.0665651
20	0x3d1da6af	0.03848904
21	0x3d15a62d	0.03653543
22	0xbdc623a1	-0.096747644
23	0xbcc969b7	-0.024586542
24	0x3d0c1208	0.034196883
25	0x3d93c40e	0.07215129
26	0x3cb550bb	0.022133222
27	0xbd97db16	-0.07414834
28	0xbdb97b55	-0.09056727
29	0x3cbd15d9	0.023081707
30	0xbe5c8669	-0.21535648
31	0x3d983c8d	0.07433424
32	0xbc878bd1	-0.016546162
33	0x3de8fb4a	0.113760546
34	0xbd88b108	-0.06674391
35	0xbd090462	-0.033451445
36	0xbd16820f	-0.036745127
37	0xbe05c04f	-0.13061641
38	0x3da4d5ca	0.080485895
39	0x3d5c551c	0.053792104
40	0xbd91ac83	-0.07112982
41	0x3d10471e	0.035224073
42	0xbc439bc5	-0.011938994
43	0x3abfa43c	0.0014621089
44	0xbd85cb2e	-0.06532894
45	0xbda4307c	-0.0801706
46	0xbddb021d	-0.106937625
47	0x3e0c4da9	0.137015
48	0x3daf410d	0.08557329
49	0xbbfc7e9f	-0.007705524
50	0xbc902f72	-0.017600749
51	0x3ddb0927	0.10695105
52	0x3d739eca	0.059477605
53	0xbcf611e7	-0.030037833
54	0x3cb1cfdb	0.021705559
55	0x3c08c170	0.0083469
56	0x3e52e132	0.20593718
57	0xbdef8f4e	-0.11697255
58	0xbd78c8bb	-0.060738306
59	0xbe3a60c5	-0.18200977
60	0xbdeadec8	-0.114682734
61	0x3cd65b45	0.026166568
62	0xbcf44c56	-0.029821556
63	0xbdf333a3	-0.11875083
64	0xbe0e1e7e	-0.1387882
65	0xbdbee883	-0.09321692
66	0x3e071e47	0.13195144
67	0x3d8d34cf	0.06894838
68	0x3dc61265	0.09671477
69	0xbd38358d	-0.044972945
70	0xbe626dd9	-0.22112216
71	0x3d61c64c	0.05512075
72	0x3dbbfeb2	0.09179439
73	0x3dfbadb4	0.122889906
74	0xbdf26133	-0.118349455
75	0xbe65954b	-0.22420232
76	0xbda0016b	-0.078127705
77	0x3e0d440a	0.13795486
78	0xbcd87346	-0.026422154
79	0x3e06ca65	0.13163145
80	0xbda48f42	-0.08035137
81	0x3d56eed5	0.05247386
82	0x3d05a1aa	0.032624878
83	0xbdd3808d	-0.103272535
84	0xbd0a825c	-0.033815727
85	0xbdcf84f9	-0.101327844
86	0xbd5876bd	-0.052847613
87	0x3ce70c35	0.028204063
88	0x3e00411d	0.12524839
89	0xbd88aa6b	-0.0667313
90	0xbd6ad808	-0.05733493
91	0xbb789fd8	-0.0037937071
92	0x3d0b047b	0.03393982
93	0xbe09a89e	-0.13443229
94	0x3b6b72bf	0.0035926548
95	0x3d2ebec3	0.042662393
96	0xbb2bd233	-0.0026217818
97	0x3c965916	0.018353026
98	0x3d0b7e11	0.034055773
99	0xbca01233	-0.019539928
100	0xbb5bb007	-0.0033521669
101	0x3c3fbd85	0.0117029
102	0x3cc810d9	0.024422096
103	0x3d10aa58	0.035318702
104	0xbe088029	-0.13330139
105	0x3b13d7fd	0.002255916
106	0x3d22c7eb	0.039741438
107	0xbe8baff5	-0.27282682
108	0xbe53f4ad	-0.20698805
109	0xbde01832	-0.10942115
110	0xbe1d553d	-0.15364547
111	0xbe299849	-0.16561998
112	0x3ceafeb1	0.0286859
113	0x3d86fe22	0.06591441
114	0xbd3969cf	-0.045266923
115	0xbe524f3c	-0.20538038
116	0x3d9184d2	0.071054116
117	0x3d3dd032	0.04634113
118	0x3e0bcd52	0.13652542
119	0x3d1ce88c	0.03830771
120	0x3e2132bc	0.1574201
121	0x3b99ddb1	0.004695617
122	0xbda4d11d	-0.08047698
123	0x3e017250	0.12641263
124	0xbe2ed2ae	-0.17072555
125	0x3e2777ae	0.16354248
126	0x3d0704a4	0.03296341
127	0x3a8e11a9	0.0010839003
128	0xbdcda17a	-0.10040565
129	0x3de5c4d2	0.11219181
130	0xbe20556f	-0.1565759
131	0x3da8975b	0.08231994
132	0x3de39a89	0.111134596
133	0xba55c7ce	-0.00081550784
134	0xbe9101a0	-0.28321552
135	0xbc31bf24	-0.010848794
136	0xbd6cf75c	-0.057853088
137	0x3e121ce9	0.14268841
138	0x3c18e2ac	0.009331387
139	0x3ba5283e	0.0050401976
140	0xbd5813ff	-0.052753445
141	0x3c5f4c0c	0.013628971
142	0xbe1e82a2	-0.1547952
143	0xbe028e7b	-0.12749664
144	0x3d032081	0.03201342
145	0xbdff6046	-0.124695346
146	0xbd94c2f0	-0.07263744
147	0xbe1fde2b	-0.15612094
148	0xbd8b34e5	-0.06797198
149	0xbd8bdad3	-0.06828847
150	0xbda758cd	-0.08171234
151	0x3d1a69d1	0.03769857
152	0x3cabe2bb	0.020982137
153	0xbdbd9184	-0.092562705
154	0xbe082f42	-0.13299277
155	0x3e01326d	0.12616892
156	0xbd45131d	-0.04811393
157	0x3db09814	0.086227566
158	0x3d85e8ab	0.065385185
159	0xbd235421	-0.039875153
160	0xbd465233	-0.048418235
161	0x3dd86e0e	0.10567866
162	0xbdd21151	-0.10257209
163	0xbc58c0cd	-0.013229561
164	0xbc1f36cc	-0.009717654
165	0x3ccdd1bf	0.025124429
166	0xbce9e0c9	-0.028549569
167	0x3d3de205	0.046358127
168	0x3c4c9a33	0.012487936
169	0xbda05b9a	-0.078299716
170	0x3e2daffd	0.16961665
171	0x3de849d1	0.11342204
172	0x3d21f543	0.03954054
173	0xbe3b5995	-0.18295892
174	0x3d5f6ef8	0.054549187
175	0xbdccbaa1	-0.09996534
176	0x3e0350fc	0.12823862
177	0xbe3e3e03	-0.18578343
178	0xbdb5e53e	-0.08881615
179	0xbdd0fe27	-0.10204726
180	0xbe7e81a5	-0.24854143
181	0xba757d8f	-0.0009364718
182	0xbdb5d051	-0.08877624
183	0xbda43f8c	-0.08019933
184	0xbe0abbcb	-0.135482
185	0x3e1406c9	0.14455713
186	0x3dc648f3	0.09681883
187	0x3dc9eb26	0.09859304
188	0xbcb05743	-0.021525985
189	0x3d99caa6	0.07509355
190	0xbd1946a6	-0.03742089
191	0xbe1e2b7e	-0.15446278
192	0x3bdb44ba	0.0066915425
193	0x3c325038	0.010883383
194	0x3d07d9b8	0.033166617
195	0x3e3d45e8	0.18483698
196	0xbe6b5473	-0.22981434
197	0x3e330152	0.17480972
198	0x3cbc2da5	0.022970984
199	0xbe6a2ba4	-0.2286821
200	0xbe216ab8	-0.15763366
201	0xbdd17bd7	-0.10228699
202	0x3c0a1e4e	0.008430077
203	0x3d6e3a3f	0.058161017
204	0x3de6ff87	0.11279207
205	0xbd4baf8f	-0.049727973
206	0xbdce7629	-0.10081131
207	0x3c944f92	0.018104348
208	0x3d18c044	0.037292734
209	0xbd536eae	-0.051619224
210	0x3c01d7b0	0.007924959
211	0x3b05da4a	0.00204243
212	0x3e4417a7	0.19149648
213	0xbe2adf05	-0.16686638
214	0xbcb2aa21	-0.02180964
215	0xbd69841f	-0.057010766
216	0xbe0bee09	-0.13665022
217	0xbcb6807d	-0.022278065
218	0x3c41a372	0.011818754
219	0xbd809ba6	-0.062796876
220	0xbcf8ddc4	-0.030379184
221	0x3cec57ac	0.028850399
222	0x3d36f63c	0.04466842
223	0xbd39291d	-0.045205224
224	0x3d864c27	0.06557494
225	0xbda33f2c	-0.079710335
226	0x3c8af089	0.0169604
227	0x3dac27b8	0.08406013
228	0x3d2be05c	0.041962013
229	0xbd8af6e5	-0.06785373
230	0xbe5ddaff	-0.21665572
231	0x3c9b9aa4	0.018994637
232	0xbdfd0e15	-0.123562016
233	0x3d3b5a7d	0.045740593
234	0xbddfcb4e	-0.10927449
235	0xb9c6cd36	-0.00037918397
236	0xbdede627	-0.11616164
237	0x3d892562	0.06696583
238	0xbd2e2c5d	-0.042522777
239	0x3d79d7ac	0.060996696
240	0x3b247708	0.0025095362
241	0x3dbeb850	0.093124986
242	0x3e06fce5	0.13182409
243	0x3c893ab6	0.016751628
244	0x3d9615aa	0.07328351
245	0xbd58e678	-0.052954167
246	0xbb806041	-0.0039177244
247	0xbe13b600	-0.14424896
248	0x3c205e45	0.009788101
249	0xbda00778	-0.078139246
250	0x3c992d1e	0.018698271
251	0x3dc58224	0.09643963
252	0x3da4704f	0.08029234
253	0x3cd58eab	0.026069006
254	0xbd0684c6	-0.032841466
255	0x3c6ddb11	0.0145175615

action_model._discrete_distribution.branches.0.weight f4 [3, 256]
0	0xbe14f238	-0.14545524
1	0x3d18c096	0.03729304
2	0xbba7f9a2	-0.005126194
3	0xbd600460	-0.054691672
4	0x3e0bcd2a	0.13652483
5	0xbd184c40	-0.037182093
6	0x3b1da1b1	0.0024052674
7	0xbd8c3940	-0.06846857
8	0xbddb3069	-0.10702593
9	0xbd929b60	-0.07158542
10	0xbcfbc970	-0.030735701
11	0x3e5c0557	0.21486412
12	0x3d6ced61	0.05784357
13	0xbe2860a0	-0.1644311
14	0x3d91e763	0.07124212
15	0x3c819112	0.015816245
16	0x3e0545df	0.13014935
17	0x3d67ae60	0.05656278
18	0x3e895157	0.2681987
19	0x3cee296b	0.029072484
20	0x3cf09695	0.029368678
21	0xbc80c0cd	-0.015716935
22	0x3da7a3d7	0.08185547
23	0x3e202b02	0.15641406
24	0x3d484b95	0.048900206
25	0x3d2fe1f9	0.042940114
26	0xbcaecab2	-0.021336887
27	0xbd1af7d2	-0.037833996
28	0xbdf2b937	-0.11851733
29	0x3e22a9e4	0.1588512
30	0x3d3f151c	0.04665099
31	0x3d469999	0.048486326
32	0xbe1b9065	-0.15191801
33	0x3d11c56c	0.035588667
34	0x3db7f000	0.08981323
35	0x3e90ef50	0.2830758
36	0xbd819e60	-0.06329036
37	0xbeb1a656	-0.34697217
38	0x3c946fb4	0.01811967
39	0xbdb4173c	-0.08793494
40	0xbc1ce475	-0.009575953
41	0x3dbc692d	0.09199748
42	0xbbc2b255	-0.005941669
43	0xbe1f4ef0	-0.15557456
44	0x3ce0eb80	0.027456045
45	0x3dd2e583	0.10297682
46	0xbe796a9a	-0.24357072
47	0x3d87035a	0.06592436
48	0x3c81bdc1	0.015837552
49	0x3d0a441b	0.033756357
50	0xbdb4d63b	-0.08829924
51	0xbeb4a30b	-0.35280642
52	0x3b8262e5	0.0039790743
53	0x3d2ac46b	0.041691225
54	0x3e3104bc	0.17286962
55	0x3df4c66d	0.11951909
56	0xbd439bd2	-0.047756024
57	0x3d35ec53	0.04441483
58	0xbcbee0b1	-0.0233005
59	0x3d9f80d2	0.077882424
60	0xbd857923	-0.065172456
61	0x3ad63864	0.001634371
62	0x3d0261ef	0.031831678
63	0xbcf32d88	-0.029684797
64	0xbc92e7a2	-0.017932717
65	0x3bc61f24	0.0060461927
66	0xbcb8378e	-0.022487428
67	0xbdc12b28	-0.094320595
68	0x3d54945b	0.051899295
69	0xbe62cd56	-0.22148642
70	0xbb101a7a	-0.0021988438
71	0x3d0450ba	0.03230355
72	0xbc75825f	-0.014984696
73	0x3d419c0c	0.04726796
74	0x3cfe00ab	0.031006178
75	0x3c749ca9	0.014929929
76	0xbd6495a6	-0.05580678
77	0x3d28ffd8	0.041259617
78	0xbdb77ffc	-0.08959958
79	0xbd08db2b	-0.03341214
80	0xbe3d2ba4	-0.18473679
81	0x3c226411	0.009911553
82	0x3de63b05	0.11241726
83	0x3df498a9	0.1194318
84	0xbd89a7eb	-0.06721481
85	0xbc635de3	-0.013877365
86	0x3ed1ac09	0.40951565
87	0xbd91f137	-0.07126086
88	0xbbe66d77	-0.007032092
89	0x3e2b1164	0.16705853
90	0xbb95d0ee	-0.0045720255
91	0x3d1cc46a	0.038273253
92	0x3dde1e66	0.10845642
93	0xbc203dc0	-0.009780347
94	0xbda244ea	-0.079233006
95	0x3cd59e83	0.02607656
96	0x3de07529	0.109598465
97	0xbefaf1d8	-0.49012637
98	0x3ca4f461	0.02013606
99	0xbd787533	-0.060658645
100	0xbce6867b	-0.028140297
101	0xbea79c3c	-0.32736385
102	0x3bbdf548	0.005797062
103	0x3cc0b3a2	0.023523156
104	0xbe1885f1	-0.14894845
105	0x3e7dfce4	0.24803501
106	0x3d09d694	0.033651903
107	0x3e05dbbe	0.13072106
108	0x3dad8a14	0.08473602
109	0x3cdcc008	0.026947036
110	0x3d842b18	0.06453532
111	0xbbafb9ad	-0.0053627104
112	0xbc2411b5	-0.010013987
113	0xb9e12b49	-0.00042947594
114	0x3e17963b	0.14803402
115	0x3d9251ed	0.07144532
116	0xbdc39e39	-0.09551663
117	0xbdb5103c	-0.08840987
118	0x3d22a8ed	0.03971188
119	0x3e1a6a66	0.1507965
120	0xbdd8ff41	-0.10595561
121	0xbc75ce63	-0.01500282
122	0xbe2c1f16	-0.16808733
123	0xbe7112ac	-0.23542279
124	0x3bb3cbdf	0.00548695
125	0xbe34964c	-0.17635459
126	0xbe38545f	-0.18000935
127	0x3af48eeb	0.0018658316
128	0xbc880f06	-0.016608726
129	0x3d5ac099	0.05340633
130	0x3d5a70bf	0.05333018
131	0x3cd16589	0.025561111
132	0xbd9bf504	-0.076150924
133	0x3d824100	0.06360054
134	0x3d0fd8e6	0.03511896
135	0x3d9654eb	0.073404156
136	0x3df426c3	0.11921456
137	0xbe21ef78	-0.15814006
138	0xbda97323	-0.08273914
139	0x3dc87855	0.097885765
140	0xbba69e0a	-0.0050847577
141	0xbdb78b18	-0.08962077
142	0x3dcf8385	0.10132507
143	0x3dc61c0a	0.09673317
144	0xbc8c3f32	-0.017119978
145	0xbe238c9d	-0.15971608
146	0xbe2dc18c	-0.16968364
147	0xbd2bfedb	-0.041991096
148	0x3dea01a6	0.11426096
149	0xbea0ea4e	-0.3142876
150	0xbe1ac0c9	-0.15112604
151	0x3d3a9f58	0.04556212
152	0xbd5c5596	-0.05379256
153	0x3e8a9d79	0.27073267
154	0xbb45102b	-0.0030069451
155	0x3d47e22f	0.04879969
156	0x3d9ca3e0	0.07648444
157	0xbe6f0860	-0.23343039
158	0xba02d46b	-0.0004990759
159	0xbd9a4b38	-0.07533878
160	0x3d7afaa4	0.061274186
161	0x3d86b42d	0.065773346
162	0xbbc29c02	-0.0059390077
163	0x3ca54b58	0.020177528
164	0x3d67eba6	0.056621216
165	0xbca13345	-0.019677768
166	0x3db55ac2	0.08855201
167	0x3cd4edae	0.02599224
168	0xbd44d554	-0.048055008
169	0x3d5e7141	0.054307226
170	0xbe22cd42	-0.15898612
171	0xbe8552ae	-0.26039642
172	0x3d0011a0	0.03126681
173	0x3e6ba533	0.23012237
174	0x3cac8dc1	0.021063687
175	0x3d6698c2	0.056298025
176	0xbe093955	-0.13400777
177	0x3deeaeac	0.1165441
178	0x3e3ce260	0.1844573
179	0xbdc498bc	-0.09599444
180	0x3e185717	0.14876972
181	0x3e182bd6	0.14860472
182	0x3d02958c	0.0318809
183	0x3e72ff44	0.23730189
184	0x3e936a41	0.28792003
185	0x3db14f18	0.08657664
186	0x3d21b05b	0.039474826
187	0xbe36ea27	-0.1786276
188	0x3d290b6a	0.04127065
189	0xbddeb175	-0.10873691
190	0x3e7f2e0c	0.24919909
191	0x3c7752e9	0.015095451
192	0xbdaaeced	-0.08345971
193	0xbd8fe186	-0.07025437
194	0xbbc2f37c	-0.0059494358
195	0x3d50c2a6	0.05096688
196	0x3d26bd87	0.04070809
197	0xbddeb637	-0.108745985
198	0xbd83f39f	-0.064429514
199	0xbd92fbb6	-0.07176916
200	0xbe0ef64f	-0.13961147
201	0xbdc5ac79	-0.09652037
202	0xbe519b2a	-0.20469347
203	0x3d2e9635	0.042623717
204	0x3d4d5136	0.050126277
205	0x3dd187d0	0.10230982
206	0x3dcec12c	0.10095438
207	0x3d9926bc	0.07478091
208	0x3d2f1a5d	0.04274975
209	0x3e7aca24	0.24491173
210	0x3c830b9a	0.015996743
211	0xbd6e6238	-0.058199137
212	0xbbca1deb	-0.0061681173
213	0x3d0df8be	0.034661047
214	0x3d2cf555	0.042226154
215	0x3c0e6982	0.008692147
216	0x3d207748	0.039176255
217	0xbebac617	-0.36479256
218	0x3c29ff69	0.010375836
219	0xbb032bfd	-0.0020015233
220	0x3d4060f3	0.046967458
221	0x3cc442e5	0.023957679
222	0xbc94c8d7	-0.018162174
223	0xbd8a876f	-0.06764113
224	0xbd8a7530	-0.06760633
225	0xba8f142a	-0.0010916044
226	0xbe3b4c0e	-0.18290731
227	0xbdf441aa	-0.11926587
228	0xbd0c7577	-0.03429171
229	0x3e524189	0.20532812
230	0x3d84886d	0.06471334
231	0xbd483e6f	-0.048887666
232	0x3e91a3bd	0.28445235
233	0x3d2ac6cd	0.041693497
234	0xbd9b5df9	-0.07586283
235	0xbdc2a1b4	-0.09503499
236	0x3d6622ca	0.05618552
237	0xbe244163	-0.16040568
238	0xbd61be4d	-0.055113126
239	0xbe90c4ee	-0.28275245
240	0x3d8802e5	0.06641177
241	0x3d1f3f7c	0.038878903
242	0x3c1ae1a6	0.009453213
243	0x3bdc40c0	0.006721586
244	0xbe6b436e	-0.22974941
245	0x3e098e6b	0.13433234
246	0x3e2e0569	0.16994251
247	0x3cb771f6	0.022393208
248	0xbdcbdf31	-0.0995468
249	0xbc26fc57	-0.010191998
250	0xbdee186e	-0.11625753
251	0xbe8ec156	-0.2788188
252	0xbe008aca	-0.12552944
253	0x3dd37894	0.10325733
254	0xbd601d14	-0.05471523
255	0x3d0a90ee	0.033829622

action_model._discrete_distribution.branches.0.bias f4 [3]
0	0xbc99e997	-0.018788142
1	0x3dce751a	0.10080929
2	0xbe27b788	-0.16378605

action_model._discrete_distribution.branches.1.weight f4 [3, 256]
0	0x3d399c89	0.0453153
1	0xbc589d3b	-0.01322108
2	0x3d527387	0.051379707
3	0xbd2109fa	-0.039316155
4	0xbe2926a7	-0.16518651
5	0x3e32bc8c	0.17454737
6	0x3dab2aaa	0.08357747
7	0x39dc0121	0.0004196251
8	0xbe098de3	-0.13433032
9	0x3e07ae91	0.13250186
10	0x3b74b87f	0.0037341414
11	0xbc706d2b	-0.014674465
12	0xbd848f02	-0.06472589
13	0x3e87b73f	0.26506993
14	0xbbddfca2	-0.006774501
15	0x3d142b6e	0.03617423
16	0xbe2a03e2	-0.16603044
17	0xbcb60d7a	-0.022223223
18	0x3c02af1d	0.007976321
19	0xbd0d6692	-0.034521647
20	0xbd2d4b65	-0.04230823
21	0xbb8cf621	-0.004301802
22	0xbcce51f1	-0.025185557
23	0x3c66889c	0.014070656
24	0xbd4feaa4	-0.05076088
25	0xbca08460	-0.019594371
26	0xbc653e44	-0.013991896
27	0xbc6b81b4	-0.014374185
28	0x3de6c5a0	0.11268163
29	0xbeb325a2	-0.3498965
30	0x3d11dcf3	0.035611104
31	0x3d99cb7b	0.07509514
32	0x3e37af17	0.17937885
33	0xbd162bfd	-0.036663044
34	0xbd0df29d	-0.034655202
35	0xbde8708a	-0.1134959
36	0x3df17b65	0.11791114
37	0x3d73411b	0.05938826
38	0x3dbd37c8	0.09239155
39	0xbd899a06	-0.06718831
40	0xbe3e8be8	-0.18608057
41	0xbcec5b22	-0.02885205
42	0x3a8d8ce3	0.0010799434
43	0x3c87ac6b	0.016561707
44	0x3c20bed4	0.009811122
45	0xba06ec04	-0.00051468634
46	0x3d4f2a51	0.050577465
47	0xbd036b26	-0.032084607
48	0xbcc4e58c	-0.024035238
49	0xbbeca59f	-0.007221892
50	0xbd004272	-0.031313367
51	0x3e4bf76d	0.19918604
52	0x3d14b37d	0.036303986
53	0x3cfd5c3d	0.030927772
54	0x3e332974	0.17496282
55	0xbb8045fd	-0.0039145933
56	0x3e655c83	0.22398572
57	0xbd9debe0	-0.07711005
58	0x3cb72121	0.022354664
59	0x3d34705f	0.044052478
60	0x3c817e5e	0.015807327
61	0xbcaac8c8	-0.020847693
62	0x3c13f183	0.009029749
63	0xbe0bbe2b	-0.13646762
64	0x3d44d85f	0.04805791
65	0xbdffb947	-0.12486511
66	0xbd302831	-0.04300708
67	0xbcb0e0e1	-0.021591606
68	0x3d15b14e	0.036546044
69	0x3d9b7cc3	0.07592156
70	0x3d6d5f28	0.057952076
71	0x38bd5090	9.027228e-05
72	0x3c1ccadb	0.009569849
73	0x3a819dd9	0.0009888961
74	0xbda00e1e	-0.07815193
75	0x3d320424	0.04346098
76	0x3d3ca8c3	0.04605938
77	0xbd087832	-0.033317752
78	0x3d56d24d	0.052446652
79	0x3b3255e2	0.0027211835
80	0x3e0769d0	0.13223958
81	0x3c44e702	0.012017967
82	0x3ea7e6bc	0.32793224
83	0x3d3cbe51	0.046079937
84	0x3d2ee7d2	0.04270155
85	0x3cf9f887	0.030514015
86	0x3d0ee870	0.03488964
87	0xbd5036c4	-0.05083348
88	0xbd3a19fc	-0.045434937
89	0x3c07b84a	0.008283684
90	0x3cce1d14	0.02516035
91	0xbdc89050	-0.097931504
92	0x3c9df246	0.019280564
93	0x3d1f3b9d	0.03887521
94	0xbdeff13b	-0.11715933
95	0xbb84ab5c	-0.004048748
96	0xbd78b77e	-0.060721867
97	0x3b1178b8	0.0022197198
98	0x3bad4eac	0.0052889194
99	0xbadcfa1a	-0.0016859204
100	0x3ccb8675	0.024844388
101	0x3ea2b7d5	0.31780878
102	0xbd8e9022	-0.06961085
103	0xbcc50bd4	-0.024053492
104	0x3d5de235	0.054170806
105	0xbd0299e6	-0.03188505
106	0xbc8345d3	-0.016024506
107	0xbdaeb36f	-0.08530318
108	0x3d3dd45a	0.046345092
109	0xbce0f540	-0.027460694
110	0x3c604d02	0.013690235
111	0x3d9aba21	0.075550325
112	0xbd653848	-0.055961877
113	0xbceed713	-0.02915529
114	0xbca025d4	-0.019549288
115	0xbd9364dd	-0.071969725
116	0x3c574081	0.0131379375
117	0xbdb411f5	-0.087924875
118	0x3e3a1e7d	0.18175693
119	0x3d52e4aa	0.051487602
120	0xbd9d61f5	-0.076846994
121	0x3a4cbff1	0.0007810584
122	0xbdfe02d1	-0.12402881
123	0x3e489705	0.1958886
124	0x3d9eebc8	0.077598155
125	0x3e48fd8c	0.1962797
126	0x3c01e55e	0.007928221
127	0xbd5aeea0	-0.053450227
128	0x3df120b1	0.117738135
129	0x3c50de42	0.012748303
130	0x3d8b07e9	0.06788618
131	0x3c66de8f	0.014091148
132	0xbda9d284	-0.08292106
133	0x3c7af83d	0.015317974
134	0xbc8110cb	-0.015755078
135	0xbca43780	-0.020045996
136	0xbdacbd2b	-0.084345184
137	0x3e127b5a	0.14304867
138	0x3c66283e	0.01404768
139	0xbda3f423	-0.0800555
140	0xbc20d27a	-0.0098158065
141	0x3a50b85c	0.0007962042
142	0xbe55eddd	-0.20891519
143	0xbde925df	-0.113841765
144	0x3baefebf	0.0053404267
145	0xbd36f1ea	-0.0446643
146	0x3db401ea	0.087894276
147	0x3b5e7ed9	0.0033950119
148	0xbd4f0e81	-0.05055094
149	0xbd9d74b2	-0.076882735
150	0xbe29d71f	-0.16585968
151	0x3cd0e5ec	0.02550026
152	0x3cdc015b	0.026856115
153	0x3d5a9f12	0.053374358
154	0x3d030b57	0.031993236
155	0x3c06b40b	0.0082216365
156	0xbb0eb9b5	-0.002177817
157	0x3e0e8c8c	0.13920802
158	0xbdfc4c78	-0.12319273
159	0x3c263b0b	0.010145913
160	0x3c934a34	0.017979719
161	0xbcfac1d0	-0.030609995
162	0x3cb87f7c	0.022521727
163	0xbd2f5ab7	-0.04281112
164	0x3e30e179	0.17273511
165	0x3c02d918	0.0079863295
166	0x3b865be3	0.004100309
167	0xbdc6f192	-0.09714045
168	0xbc2f6fdc	-0.010707822
169	0xbbd99b1d	-0.0066408054
170	0x3bcd9c46	0.0062747328
171	0x3db5a75c	0.08869812
172	0xbcc864a9	-0.024462061
173	0x3b8d431f	0.00431098
174	0x3c8e40ec	0.017364942
175	0x3dda72bb	0.10666414
176	0x3e21d31d	0.1580319
177	0xbd09fbd7	-0.03368744
178	0xbdacfcc5	-0.084466495
179	0xbda020b6	-0.07818739
180	0xbd41eee7	-0.047346976
181	0xbe8f6569	-0.28007057
182	0xbd5b502d	-0.05354326
183	0x3d0e19db	0.034692626
184	0xbc8f078d	-0.017459655
185	0xbdc3834e	-0.09546529
186	0xbd04ae8d	-0.032393027
187	0x3e21822c	0.15772313
188	0xbd967e95	-0.07348362
189	0x3d075722	0.03304208
190	0xbdad80df	-0.08471846
191	0x3db3f06f	0.087860934
192	0xbcd01d6b	-0.025404653
193	0xbd86ef8f	-0.06588661
194	0xbbd8bc35	-0.006614233
195	0xbcb66788	-0.022266164
196	0xbdb8dc57	-0.090264015
197	0x3e05258a	0.13002601
198	0x3ca4c90c	0.020115398
199	0xbd64b4fc	-0.055836663
200	0x3d62a32a	0.055331387
201	0x3c1e284c	0.009653162
202	0xbc2fdc2a	-0.010733644
203	0xbcab4a49	-0.020909445
204	0xbcf93ef9	-0.030425536
205	0xbd8b1ec2	-0.06792976
206	0x3e02da4c	0.12778586
207	0xbbd4d239	-0.006494787
208	0x3cc036d4	0.023463644
209	0xbed54e61	-0.4166136
210	0xbd283056	-0.04106172
211	0x3bb8fe7a	0.0056455703
212	0xbe87d27f	-0.26527783
213	0xbc308cbf	-0.010775744
214	0xbc05f850	-0.008176878
215	0x3e38a115	0.18030198
216	0x3d87d8d1	0.06633151
217	0xbd11f96a	-0.03563825
218	0xbd233892	-0.03984887
219	0xbdb93ec3	-0.09045174
220	0xbc98db03	-0.01865912
221	0x3c1d8519	0.0096142525
222	0x3dbd2fef	0.09237658
223	0x3a7c08c5	0.0009614344
224	0xbe043729	-0.12911667
225	0xbbb5f097	-0.005552362
226	0x3e0f34c1	0.13984968
227	0xbd1896ad	-0.03725307
228	0x3d7e0940	0.06202054
229	0xbdc646c0	-0.09681463
230	0xbd843ec2	-0.064572826
231	0xbca41274	-0.02002833
232	0xbdf31ce7	-0.11870747
233	0xbd2ce4c6	-0.042210363
234	0x3d6ddf90	0.058074534
235	0x3cb3b4c9	0.021936791
236	0xbe97544c	-0.295565
237	0xbb5a7058	-0.0033331122
238	0xbd952dfd	-0.07284162
239	0xbd2357df	-0.039878722
240	0xbd27c22b	-0.040956657
241	0x3cf3e259	0.029771017
242	0x3c845135	0.016152004
243	0xbceae0f0	-0.028671712
244	0xbdc3289f	-0.09529232
245	0xbe94e1a9	-0.29078415
246	0xbe302171	-0.17200257
247	0x3d23f7cc	0.04003124
248	0x3ca5a834	0.020221807
249	0x3cadfa4e	0.021237519
250	0x3d8c6d04	0.068567306
251	0x3ca2eb4b	0.019887587
252	0x3bdcf74d	0.0067433477
253	0x3c884b9a	0.016637612
254	0xbccf2ece	-0.025290873
255	0xbca118fd	-0.019665236

action_model._discrete_distribution.branches.1.bias f4 [3]
0	0xbd7f674a	-0.062354364
1	0xbdc02be3	-0.09383371
2	0x3da62e2b	0.081142746

action_model._discrete_distribution.branches.2.weight f4 [2, 256]
0	0xbe16e43d	-0.14735503
1	0xbd51f4c1	-0.051258806
2	0xbcdff238	-0.027337179
3	0x3c8f551a	0.017496634
4	0xbcd6e0c8	-0.02623023
5	0x3d8ec76f	0.06971633
6	0x3e2f1c41	0.17100622
7	0xbdb72420	-0.08942437
8	0x3cf9c48f	0.030489234
9	0xbce93402	-0.028467182
10	0x3c8fd866	0.017559242
11	0x3e38e662	0.18056634
12	0x3d0de020	0.03463757
13	0xbc3ab898	-0.01139655
14	0x3dc8797e	0.09788798
15	0xbd9291d6	-0.07156722
16	0xbc971559	-0.018442797
17	0x3e146824	0.14492851
18	0x3cd27239	0.025689231
19	0xbc6c900c	-0.01443864
20	0x3cf77899	0.030208873
21	0xbc3ea33e	-0.0116356
22	0xbc9b3417	-0.018945737
23	0x3df814f6	0.12113373
24	0x3be07684	0.0068500657
25	0x3b6d42ff	0.0036203263
26	0x3e89603b	0.2683123
27	0x3dc1d86f	0.094651096
28	0xbd675419	-0.056476686
29	0xba04b6bc	-0.000506263
30	0xbe4ae3d9	-0.1981348
31	0x3ac2271b	0.001481268
32	0x3cf3c547	0.029757155
33	0xbb8abf20	-0.0042342097
34	0x3d2421af	0.040071186
35	0xbd83f698	-0.064435184
36	0xbd872b81	-0.066000946
37	0xbd681608	-0.056661636
38	0x3e205c5b	0.15660231
39	0x3e8b83c8	0.2724898
40	0xbd7c1e73	-0.061552476
41	0x3da7ef44	0.08199933
42	0x3c1778b3	0.0092450855
43	0xbdcdc2ed	-0.10046945
44	0x3c794d8b	0.015216242
45	0x3c2fcbfd	0.010729787
46	0xbd2567b2	-0.040382095
47	0xbc8f98cd	-0.017528916
48	0x3b4fdab5	0.0031716053
49	0xbb6509c6	-0.0034948452
50	0xb98ed518	-0.00027243118
51	0x3dfa41e9	0.122196026
52	0x3dbd6c47	0.09249168
53	0x3be407e0	0.0069589466
54	0xbe3f208e	-0.18664762
55	0x3cbc1318	0.022958323
56	0xbdfbccba	-0.12294908
57	0xbca8915d	-0.020577127
58	0x3cb84cff	0.022497652
59	0xbd87f21c	-0.066379756
60	0xbd41e4a9	-0.047337208
61	0xbb48b148	-0.0030623246
62	0xbadf3274	-0.0017028586
63	0xbde35f2f	-0.11102139
64	0xbd869c79	-0.065728135
65	0xbddd3070	-0.10800254
66	0x3cb7e736	0.022449117
67	0xbcd4a6cc	-0.025958441
68	0x3c51880e	0.012788786
69	0xbd2ae87b	-0.041725617
70	0xbdc07e22	-0.09399058
71	0x3db1111d	0.08645842
72	0xb9b3b574	-0.00034276734
73	0x3e8625e4	0.26200783
74	0xbd5998e1	-0.053124312
75	0xbdb2b0d4	-0.087251335
76	0xbb42b419	-0.0029709397
77	0x3cbae631	0.022814842
78	0xbcaf739c	-0.021417432
79	0x3e4a465c	0.19753402
80	0xbdbbab1a	-0.091634944
81	0x3e184fe7	0.1487423
82	0xbdf146c7	-0.11781078
83	0xbd575b94	-0.05257757
84	0x3d76ce50	0.06025535
85	0xbc0e49f9	-0.008684629
86	0x3e19130d	0.14948674
87	0x3d92224d	0.071354486
88	0x3d2baf3e	0.04191517
89	0x3d8d3726	0.06895284
90	0xbce3bfeb	-0.027801475
91	0x3de755a4	0.112956315
92	0xbd88039c	-0.066413134
93	0x3c0aa9d5	0.008463343
94	0x3e34c271	0.17652299
95	0x3ddbc3a3	0.10730674
96	0x3df97ea4	0.12182358
97	0xbd9a6dfb	-0.07540508
98	0x3d17ec29	0.037090454
99	0x3d79885d	0.06092106
100	0xbc8222cb	-0.015885731
101	0xbd206f4c	-0.03916864
102	0x3dccd389	0.10001285
103	0x3d42d6e7	0.047568228
104	0xbdfa234e	-0.12213765
105	0x3e35f6f6	0.1776999
106	0x3c142eae	0.009044332
107	0xbd9e9638	-0.07743496
108	0xbdff1b2a	-0.12456353
109	0xbaeee9b7	-0.0018227611
110	0xbd270db8	-0.040784568
111	0x3c8b6486	0.017015707
112	0x3e5bba8b	0.21457879
113	0x3e11092a	0.14163652
114	0x3d3b9d2a	0.04580418
115	0xbe00dc01	-0.12583925
116	0x3d8edc51	0.06975616
117	0x3d84e6a5	0.064893045
118	0xbe1b290e	-0.1515238
119	0x3dee85ba	0.116466
120	0x3c8c9f83	0.017165905
121	0x3c0bfef7	0.008544675
122	0xbdc2cc90	-0.095116735
123	0xbe20836b	-0.15675132
124	0xbce9b1fe	-0.028527256
125	0xbe11860c	-0.14211291
126	0xbc6696c6	-0.014074033
127	0xbcc63065	-0.024192998
128	0x3da1367a	0.07871719
129	0x3ca7e636	0.020495515
130	0x3d364c82	0.044506557
131	0x3d89169f	0.06693768
132	0x3dabeee3	0.083951734
133	0x3c0bec05	0.008540158
134	0xbd90f7c8	-0.070785105
135	0x3d77f3e8	0.06053534
136	0xbca3fbdd	-0.020017559
137	0x3c3da7be	0.011575637
138	0x3db90a6a	0.090351894
139	0x3ded6070	0.115906596
140	0x3cf5b3c5	0.029992947
141	0x3d93a125	0.0720847
142	0xbcbb35fa	-0.022852886
143	0xbc97d4ba	-0.018534053
144	0xbdcca4fb	-0.09992405
145	0xbdf6ceb4	-0.12051144
146	0xbcfd542c	-0.030923925
147	0xbdea9af0	-0.11455333
148	0xbdd3697d	-0.10322855
149	0xbdc9ef18	-0.09860057
150	0xbd9a95a0	-0.0754807
151	0x3d99eb7d	0.07515619
152	0x3d309b67	0.043116953
153	0x3da4ddbf	0.08050107
154	0xbd11bd0c	-0.03558068
155	0xbd9a157a	-0.075236276
156	0x3d5c3b32	0.05376739
157	0xbbbed43f	-0.0058236415
158	0x3ddac869	0.106827565
159	0x3c74d033	0.014942217
160	0x3c8e5c63	0.017378038
161	0x3caf6542	0.021410588
162	0xbd01ba35	-0.03167172
163	0x3d815f0e	0.06316958
164	0x3d9838a2	0.07432677
165	0xbcd1edde	-0.02562612
166	0x3d4823b2	0.048862167
167	0x3de75c7a	0.112969354
168	0x3e0b6b07	0.13615046
169	0x3cdd21aa	0.026993591
170	0x3e3908cd	0.18069763
171	0xbd4d3e19	-0.05010805
172	0xbba88f56	-0.00514404
173	0x3b8e87c8	0.0043496825
174	0x3e1359d6	0.14389738
175	0x3d391564	0.045186415
176	0xbe05fa43	-0.13083749
177	0xbd83472f	-0.064100616
178	0xbddfce0e	-0.10927974
179	0xbd805018	-0.06265277
180	0xbdc1fbde	-0.09471868
181	0x3c8110af	0.015755026
182	0x3bb11efd	0.0054053054
183	0x3d12f274	0.035875753
184	0xbd33f3d5	-0.04393371
185	0x3ddf5da6	0.10906534
186	0x3d32a924	0.043618336
187	0xbd42fd50	-0.04760486
188	0x3d38b862	0.045097716
189	0xbe1e6e02	-0.15471652
190	0xbc53f945	-0.012937848
191	0xbdaaa29e	-0.08331798
192	0x3c2dba5c	0.010603514
193	0x3ec6300a	0.38708526
194	0xbba12598	-0.0049178116
195	0xbc82d278	-0.0159695
196	0xbe1b0bb7	-0.15141188
197	0xbc1072f6	-0.008816471
198	0x3ca0c40a	0.019624729
199	0xbd49e3e1	-0.049289588
200	0xbd98abef	-0.07454669
201	0xbd82daa7	-0.06389361
202	0xbcf4a11d	-0.029861981
203	0x3dab5d9a	0.083674625
204	0xbb43c8b8	-0.0029874276
205	0xbbc951c6	-0.0061437814
206	0xbc811d60	-0.015761077
207	0x3d3a2830	0.045448482
208	0x3c5e1e7d	0.013557074
209	0x3d8c5026	0.068512246
210	0xbbdb4704	-0.0066918153
211	0xbdaad7d0	-0.08341944
212	0x3d925725	0.07145528
213	0xbdc03f01	-0.09387017
214	0x3d3f686b	0.04673044
215	0x3db14cb8	0.08657211
216	0xbda4ce9d	-0.08047221
217	0xbc225f52	-0.009910421
218	0x3e366822	0.17813161
219	0x3da1a439	0.07892651
220	0x3ccd1380	0.025033712
221	0x3dcf1c9c	0.10112879
222	0xbd645be2	-0.05575169
223	0x3ddff7af	0.10935914
224	0xbc9278d2	-0.017879877
225	0x3c1832f0	0.009289488
226	0xbdbedd33	-0.09319534
227	0x3d295aa7	0.04134622
228	0x3da6ebad	0.0815042
229	0xbd4b71ac	-0.049668953
230	0xbe1e6615	-0.15468629
231	0xba0179a2	-0.0004939084
232	0x3d3b86ac	0.04578273
233	0xbcf6919f	-0.030098734
234	0xbd7a631b	-0.06112967
235	0x3d028ae7	0.03187075
236	0xbd14f859	-0.036369655
237	0xbe064f2a	-0.13116136
238	0x3e1c8344	0.15284449
239	0xbd697abe	-0.05700182
240	0x3c8c34c3	0.017115002
241	0x3cd452f9	0.02591847
242	0x3eb57bf4	0.3544613
243	0x3c7078d2	0.014677243
244	0xbbc0588a	-0.0058699297
245	0xbd88f747	-0.066877894
246	0x3e89e336	0.2693116
247	0xbd7f1f85	-0.06228592
248	0x3b8e042a	0.0043339925
249	0xbd162fe0	-0.03666675
250	0xbd56f217	-0.05247697
251	0x3df40cf7	0.11916535
252	0x3d7da56d	0.06192534
253	0x3ddad5d7	0.10685318
254	0x3e0ce9c5	0.13761051
255	0x3dd9dab6	0.10637419

action_model._discrete_distribution.branches.2.bias f4 [2]
0	0x3d63b704	0.05559446
1	0xbd63b705	-0.055594463
