Assets/Neural Network/SimpleCollector.onnx (onnx, 335103 bytes, 11 tensors)

discrete_act_size_vector f4 [1, 3]
0	0x40400000	3.0
1	0x40400000	3.0
2	0x40000000	2.0

network_body._body_endoder.seq_layers.0.weight f4 [256, 52]
0	0xbd4bf46c	-0.049793646
1	0x3d37a930	0.044839084
2	0x3db54b7f	0.0885229
3	0xbcd4b630	-0.02596578
4	0xbdbd10b6	-0.09231703
5	0x3e983350	0.29726648
6	0x3d0bb909	0.03411201
7	0x3d8593b4	0.06522313
8	0xbdafb6d2	-0.08579792
9	0x3d8d59c6	0.069018885
10	0xbded6751	-0.11591972
11	0x3e49f120	0.19720888
12	0xbe0712a5	-0.13190706
13	0xbc56b489	-0.013104566
14	0x3d4c6380	0.049899578
15	0x3da2e8e2	0.07954575
16	0x3e16f41e	0.14741561
17	0xbe073856	-0.13205084
18	0xbd9e2781	-0.077223785
19	0xbd52e97d	-0.051492203
20	0xbe6282bd	-0.22120185
21	0xbe2757b3	-0.16342048
22	0xbe1333b5	-0.14375193
23	0x3e31d6e8	0.17367136
24	0x3e0556e6	0.1302143
25	0x3e3c1de8	0.18370783
26	0xbe027a28	-0.12741911
27	0x3cebd59a	0.028788377
28	0xbdb0c1ad	-0.08630691
29	0xbc91bb61	-0.017789545
30	0x3dbcd839	0.09220929
31	0xbe608dcd	-0.21929093
32	0xbe531704	-0.20614249
33	0x3e54935e	0.20759341
34	0xbd782dcd	-0.060590554
35	0xbdd359a1	-0.1031983
36	0xbe7722ad	-0.24134322
37	0xbe173aa0	-0.14768457
38	0x3db74268	0.08948213
39	0x3e021cdd	0.12706323
40	0xba8c1728	-0.0010688053
41	0x3db6574d	0.0890337
42	0xbe929eed	-0.28636876
43	0x3c97c07d	0.018524403
44	0xbeb1493d	-0.3462619
45	0xbeb75213	-0.35804805
46	0x3da0e600	0.07856369
47	0xbd154044	-0.03643824
48	0x3df9c267	0.121952824
49	0xbbac9825	-0.0052671605
50	0x3e30a449	0.1725017
51	0x3e416d3b	0.18889324
52	0x3e35429b	0.17701189
53	0xbe1ec2f5	-0.15504058
54	0xbe8f8bc0	-0.28036308
55	0x3df472d7	0.119359665
56	0xbd249b59	-0.040187214
57	0xbdf369f1	-0.11885441
58	0x3dacbd53	0.08434548
59	0x3db49014	0.08816543
60	0x3d3ead6a	0.0465521
61	0xbe5d83ba	-0.21632281
62	0xbe32ebba	-0.17472735
63	0x3e612bfa	0.21989432
64	0x3ed669fc	0.41877735
65	0x3abd3521	0.0014435389
66	0x3d90f072	0.07077111
67	0xbe81dd0a	-0.25363952
68	0xbc9114eb	-0.01771017
69	0xbe84b77c	-0.25921237
70	0x3d629c01	0.05532456
71	0x3ab82982	0.0014050456
72	0xbd89fe0a	-0.06737907
73	0xbe6cd619	-0.23128547
74	0x3e3a899a	0.18216553
75	0xbd1d4650	-0.038397133
76	0x3dd0be47	0.101925425
77	0x3dd874c9	0.1056915
78	0xbc22a65d	-0.009927359
79	0xbdaaf416	-0.08347337
80	0xbe481fe4	-0.19543415
81	0xbe0d7be9	-0.13816799
82	0xbeabce20	-0.33555698
83	0xbde5d9cf	-0.11223184
84	0x3b84d4fd	0.0040537105
85	0xbe49b668	-0.19698489
86	0x3dec8e00	0.11550522
87	0x3cc2f8b2	0.023800228
88	0x3e403f55	0.18774159
89	0x3eaeaabd	0.34114638
90	0xbe421fed	-0.18957491
91	0xbe25cd86	-0.16191682
92	0xbe2bc917	-0.16775928
93	0xbe61a9b9	-0.220374
94	0x3eb9edb5	0.3631417
95	0x3eaa7503	0.33292398
96	0x3d8acdcb	0.06777533
97	0x3d9e1875	0.077195086
98	0xbe579948	-0.21054566
99	0xbd98ce78	-0.07461256
100	0xbe956e6b	-0.29185805
101	0xbe428444	-0.18995768
102	0xbd34986c	-0.044090673
103	0xbde3a0bf	-0.11114644
104	0xbed6eeea	-0.41979152
105	0x3c3ec466	0.011643505
106	0x3dd92177	0.10602086
107	0x3daf9483	0.08573248
108	0xbea9cbe6	-0.33163375
109	0x3cec70e3	0.028862422
110	0x3d88a755	0.06672541
111	0xbd7b297d	-0.061318863
112	0xbd598dbe	-0.05311369
113	0xbd82d7c5	-0.06388811
114	0x3e6be98b	0.23038308
115	0x3e151ea9	0.14562477
116	0xbe5c64bd	-0.21522804
117	0xbcad3320	-0.021142542
118	0x3def54f9	0.11686129
119	0x3c5ea2f6	0.013588658
120	0xbf0b7858	-0.54480505
121	0xbead0487	-0.33792517
122	0x3e73e8df	0.23819302
123	0x3e823f7f	0.2543907
124	0x3e01c4aa	0.12672678
125	0x3ea64d85	0.32481018
126	0xbd34a498	-0.04410228
127	0x3cc22c5a	0.02370279
128	0x3cbea68b	0.023272773
129	0x3d5a9db9	0.053373072
130	0x3d89b600	0.06724167
131	0x3c77796a	0.015104631
132	0x3b4182b9	0.002952738
133	0x3e85fe4a	0.2617057
134	0xbd9662dd	-0.073430754
135	0xbdb8c290	-0.09021485
136	0xbebcdbb1	-0.3688636
137	0x3ea5ae46	0.32359523
138	0xbdb14d3f	-0.08657312
139	0x3de888c0	0.11354208
140	0x3eab00ad	0.33398953
141	0x3e03f07f	0.1288471
142	0xbdfcb670	-0.12339485
143	0xbe64484f	-0.22293209
144	0xbd0b2ac8	-0.033976346
145	0xbd8cbeae	-0.06872307
146	0x3d5be8b1	0.05368871
147	0x3da6648c	0.081246465
148	0xbb896161	-0.0041925167
149	0x3d0fd835	0.0351183
150	0x3c603b33	0.013685989
151	0x3bfcd5f9	0.007715937
152	0x3e516b42	0.20451072
153	0x3e5ea94c	0.21744269
154	0xbda0ed00	-0.07857704
155	0xbe64137b	-0.22273056
156	0x3eb82d1b	0.35971913
157	0xbde833cf	-0.11338007
158	0xbd2a9cc2	-0.041653402
159	0xbe8aec00	-0.2713318
160	0x3f0caab4	0.5494797
161	0x3d7c8f9a	0.061660387
162	0xbc8d9416	-0.017282527
163	0x3def914f	0.11697637
164	0x3e5fee57	0.21868263
165	0xbe5949e2	-0.2121959
166	0xbd029843	-0.03188349
167	0xbca80618	-0.020510718
168	0x3e948986	0.29011172
169	0xbe00ddbc	-0.12584585
170	0xbe916c80	-0.2840309
171	0xbde106d3	-0.1098763
172	0xbd727be5	-0.059200186
173	0xbe8ef4ce	-0.27921146
174	0x3e2ebc38	0.17063987
175	0xbd385a50	-0.045008004
176	0x3ee4e914	0.44709074
177	0x3e5994a5	0.2124811
178	0xbdc0e96e	-0.09419523
179	0xbddd0bdb	-0.10793277
180	0xbebc194f	-0.3673806
181	0xbd2c7f7c	-0.042113766
182	0xbcb531f4	-0.022118546
183	0x3e7225ef	0.23647283
184	0x3e796bdd	0.24357553
185	0xbca6a17b	-0.020340672
186	0x3d83080e	0.06398021
187	0x3e85ac71	0.26108125
188	0xbd33e3ca	-0.04391841
189	0xbea4f393	-0.32217082
190	0x3dad5746	0.08463912
191	0x3da33aa3	0.079701684
192	0x3e7034c3	0.23457627
193	0x3d9b323e	0.07577942
194	0x3da55fdd	0.08074925
195	0xbd45d0d9	-0.048294876
196	0xbecb9844	-0.39764607
197	0xbf066633	-0.52499694
198	0x3d8cbfbb	0.06872507
199	0xbc14b8b1	-0.009077237
200	0x3e5eb3b6	0.21748242
201	0x3d9150c6	0.070954844
202	0xbe54b056	-0.20770392
203	0xbcfd3974	-0.030911185
204	0xbd3216ec	-0.04347889
205	0xbefbf6d5	-0.49211755
206	0x3e87aef3	0.26500663
207	0xbda32e4b	-0.07967814
208	0xbe4dee38	-0.20110404
209	0xbd361093	-0.0444494
210	0xbdfb4ab2	-0.122701064
211	0x3e7bc1ea	0.24585691
212	0x3d61e52b	0.055150192
213	0x3db990c1	0.09060813
214	0xbb80e629	-0.003933687
215	0xbd3eb6c7	-0.04656103
216	0xbeb25ab4	-0.34834826
217	0x3d43ad06	0.04777243
218	0x3ea00ac9	0.31258228
219	0xbd41c82e	-0.047310047
220	0x3e8687f9	0.26275614
221	0x3d294abd	0.04133104
222	0xbf064b8b	-0.5245902
223	0xbde23053	-0.11044373
224	0xbdf16217	-0.11786287
225	0x3e8b2733	0.27178344
226	0xbdb43267	-0.08798676
227	0xbe7547f9	-0.23953237
228	0x3ea1c675	0.31596723
229	0xbd678a43	-0.05652834
230	0xbdd8c67f	-0.10584735
231	0xbd1ab796	-0.037772737
232	0x3e70392f	0.23459314
233	0xbca964be	-0.02067792
234	0xbe64e479	-0.2235278
235	0x3e67a7c6	0.22622594
236	0x3cbec705	0.02328826
237	0xbd4adbfa	-0.049526192
238	0x3db483b2	0.088141814
239	0x3e35c9c2	0.17752746
240	0x3d73a834	0.059486583
241	0xbdf9e33c	-0.12201545
242	0x3e2d12eb	0.16901748
243	0x3d8cd156	0.06875865
244	0xbde43aae	-0.11144005
245	0xbe08f9b8	-0.1337651
246	0x3e1a4300	0.15064621
247	0x3e2bd564	0.16780621
248	0xbd840f93	-0.06448283
249	0xbe1d9d2e	-0.1539199
250	0x3cd4f704	0.025996692
251	0xbd4cd2f0	-0.050005853
252	0x3d316894	0.043312624
253	0xbda7ee84	-0.0819979
254	0x3e13c0b7	0.14428984
255	0x3de2ec78	0.11080259

network_body._body_endoder.seq_layers.0.bias f4 [256]
0	0xbc8d7c6a	-0.01727124
1	0xb8f5e746	-0.000117255884
2	0x3b22c048	0.0024833847
3	0x3cc1e7a0	0.023670018
4	0xb9317232	-0.00016922576
5	0x3cd09a4a	0.025464196
6	0x3c07cb7d	0.0082882615
7	0xbc250eb6	-0.010074308
8	0x3b7ded3a	0.0038746134
9	0x3c5a8ac9	0.013338753
10	0x3d4a8f7f	0.049453255
11	0xbd744a42	-0.05964113
12	0x3c364b93	0.011126417
13	0xbd414e90	-0.047194064
14	0xbc286b2e	-0.01027946
15	0x3b3ff103	0.0029287941
16	0x3cf3304b	0.029686114
17	0xbce563b0	-0.028001636
18	0xbc885d9a	-0.016646195
19	0xbccbf02d	-0.024894798
20	0xbce326b4	-0.027728416
21	0xba9abe1e	-0.0011805927
22	0xba383f1b	-0.00070284464
23	0xbbd89e94	-0.006610701
24	0xbd2a4149	-0.041566167
25	0x3c0fa327	0.008766926
26	0x3d61ecee	0.055157594
27	0xbc32431d	-0.010880259
28	0x3c8a541b	0.016885808
29	0x3d036979	0.03208301
30	0x3c394b24	0.011309419
31	0x3b6a1279	0.0035716577
32	0xbc32d58a	-0.0109151695
33	0xbc3fed28	-0.011714257
34	0xbdac63a9	-0.08417446
35	0xb9cd34cf	-0.00039139992
36	0x39c33e76	0.00037239835
37	0xbcf4d830	-0.029888242
38	0x3ca0c26b	0.019623956
39	0x3c55e036	0.013053944
40	0x3c0e1c72	0.008673774
41	0xbc63d2e9	-0.013905265
42	0x3c5d6918	0.013513826
43	0xbd7c850e	-0.06165033
44	0xbc20b9d0	-0.009809926
45	0xbce6ae84	-0.028159387
46	0x3a992802	0.0011684897
47	0xbca87601	-0.020564081
48	0x3a85f640	0.0010220483
49	0xbc9e5475	-0.019327382
50	0xbcff1b7f	-0.03114104
51	0xbc261091	-0.010135786
52	0xbd054e12	-0.032545157
53	0xbc5fbe76	-0.013656249
54	0xbcfbf276	-0.030755263
55	0x3c862162	0.01637334
56	0xbc8ecb29	-0.017430859
57	0x3a2c241a	0.0006566659
58	0x3c1d2bbd	0.009592948
59	0xbcda6910	-0.026661426
60	0xbd351310	-0.044207633
61	0xbc77b5e7	-0.0151190525
62	0x3c92c678	0.017916903
63	0xbd877dd8	-0.066158
64	0xbc86343e	-0.016382333
65	0x3bb78af3	0.005601281
66	0xbd5b96ff	-0.053610798
67	0xbc3e7af0	-0.01162599
68	0x3c8d22fb	0.017228594
69	0xbca80b33	-0.020513153
70	0x3bb5a34f	0.0055431495
71	0x3c421985	0.011846905
72	0xbcc7599a	-0.024334718
73	0xbd4cf8bc	-0.0500419
74	0xbce3718a	-0.0277641
75	0xbc544853	-0.012956697
76	0xbbc9185d	-0.0061369375
77	0x3c93e887	0.018055214
78	0xbbc2d1cb	-0.0059454194
79	0xbb69ffe3	-0.00357055
80	0x3cae210a	0.021255989
81	0xbbaab784	-0.005209865
82	0x3c4c8607	0.0124831265
83	0x3b99682c	0.0046816077
84	0xbd5005f7	-0.05078694
85	0xbc4bac2b	-0.012431185
86	0x3c2384fd	0.009980437
87	0xbd16a0c6	-0.03677442
88	0x3cc5f001	0.024162294
89	0x3d0a8a2e	0.033823185
90	0xbd011693	-0.03151567
91	0x3c579986	0.013159161
92	0x3cdfe038	0.027328596
93	0xbd015125	-0.031571526
94	0x3c106e51	0.008815364
95	0xbc0e1ca9	-0.008673825
96	0x3b9b8ad9	0.0047467765
97	0xbc3f09bd	-0.011660037
98	0xbd8cbb39	-0.068716474
99	0xbcf54d22	-0.029944006
100	0x3ccb850c	0.024843715
101	0xbd083138	-0.033250064
102	0xbd2745d5	-0.04083808
103	0x3cc486b0	0.023990005
104	0x3bc4bb4d	0.0060037733
105	0xbd9436b9	-0.07237
106	0xbb3c1e78	-0.0028704684
107	0xbc655a90	-0.013998643
108	0x3cde0562	0.027102176
109	0x3c8dd617	0.017314
110	0xbd857888	-0.0651713
111	0xbc39b963	-0.011335704
112	0xbd008394	-0.031375483
113	0x3c96b2b5	0.018395761
114	0xbc624f43	-0.013812843
115	0x3c683236	0.0141721275
116	0x3d0e64e7	0.034764197
117	0xbd32acdc	-0.043621883
118	0xbdbb7175	-0.091524996
119	0xbc86e46d	-0.016466344
120	0x3b9ef73e	0.004851251
121	0xbbdc08d8	-0.0067149214
122	0xbd58fe44	-0.05297686
123	0x3b4d4123	0.0031319342
124	0x3c30b81e	0.010786084
125	0xbcab9780	-0.020946264
126	0xbb9e0330	-0.0048221573
127	0x3cb190cd	0.021675492
128	0xbbd246f4	-0.0064171497
129	0xbd1f7eb9	-0.03893921
130	0xbd8d71f6	-0.06906502
131	0x3c85bae7	0.016324474
132	0xbd577c08	-0.05260852
133	0x3c652d5a	0.013987863
134	0x3cb40390	0.021974355
135	0x3cb0b172	0.021568988
136	0x3bb7ac2d	0.0056052417
137	0xbd73c3a6	-0.059512757
138	0xbc36c3a8	-0.0111550465
139	0x3cd2ccc8	0.025732413
140	0xbd298caf	-0.041393932
141	0xbc3e59a7	-0.0116180545
142	0xbd127a2d	-0.035761047
143	0x3bd66acd	0.0065434934
144	0x3cda5d3e	0.02665579
145	0x3c28ea64	0.010309789
146	0x3caa9587	0.020823253
147	0x3cd6a6bd	0.026202554
148	0x3bf8bef1	0.0075911214
149	0xbd0133db	-0.031543594
150	0xbd2a7a53	-0.041620564
151	0xbb062ec2	-0.0020474647
152	0xbc9d1276	-0.019173842
153	0xbca1bb0a	-0.019742507
154	0xbd6e1baa	-0.05813185
155	0xbcf642b3	-0.030061102
156	0xbbdbb457	-0.006704848
157	0x3b9fd2f2	0.0048774416
158	0x3cad60f2	0.021164391
159	0xb9b410c6	-0.00034344773
160	0x3d263fe9	0.040588293
161	0xbd6d8784	-0.057990566
162	0x3baa1a03	0.005191089
163	0xbcc0297d	-0.023457283
164	0xbbae5a73	-0.005320841
165	0xbd24e320	-0.040255666
166	0x3d22640f	0.039646205
167	0x3ba0751f	0.0048967744
168	0xbc845948	-0.016155854
169	0x3c2447cb	0.010026882
170	0xbcaa8c8b	-0.02081897
171	0xbd04f595	-0.032460768
172	0xbcf2094e	-0.029545452
173	0xbd644d70	-0.055737913
174	0x3c1a2fb8	0.009410791
175	0xbc4c1ae4	-0.012457583
176	0xbd2ac5ea	-0.04169265
177	0x3ce03b29	0.02737196
178	0x3ca94f6f	0.02066776
179	0xbc691d9f	-0.014228254
180	0xbd6c36af	-0.057669338
181	0x3a5816f7	0.0008243168
182	0x3ba18581	0.004929245
183	0xbc611fc9	-0.013740488
184	0xbc0fdfa4	-0.008781347
185	0xbca3124a	-0.019906182
186	0xbd0fe808	-0.03513339
187	0x3c62dde6	0.01384685
188	0xbc3dd963	-0.011587474
189	0xbc5d693a	-0.0135138575
190	0xbcc20dbf	-0.023688195
191	0xbc749cea	-0.014929989
192	0x3d0ae8e1	0.033913497
193	0xbca724cd	-0.02040329
194	0xbada8abc	-0.0016673426
195	0xbbca2e43	-0.0061700656
196	0xbc943324	-0.018090792
197	0xbc1aff3a	-0.009460265
198	0xbcffca1f	-0.031224309
199	0x3d0f243f	0.034946676
200	0xbc428f05	-0.011874919
201	0x3c598db4	0.013278414
202	0x3b519e07	0.003198506
203	0xbcd413bb	-0.025888314
204	0x3c4fa63c	0.012673911
205	0xbc86d348	-0.016458169
206	0x3b55e9ef	0.0032640656
207	0x3c87ad8b	0.016562244
208	0xbc1500d0	-0.009094432
209	0x3d19bac3	0.037531625
210	0x3d136287	0.035982635
211	0xbc991b3c	-0.018689744
212	0xbce59aa2	-0.028027836
213	0xbd02d6d1	-0.031943146
214	0xbc042bd0	-0.008067086
215	0xbc7f961f	-0.0155997565
216	0x3c2351eb	0.009968261
217	0xbcbd5987	-0.023113979
218	0xbcf92646	-0.030413758
219	0x3d5d30f3	0.05400176
220	0xba912194	-0.0011072629
221	0xbd3bb7e7	-0.04582968
222	0x3cb31475	0.02186034
223	0xbcf11c5a	-0.029432464
224	0x3cda01ae	0.026612129
225	0xbcab497f	-0.02090907
226	0x3cfb7e03	0.030699736
227	0xbd14d989	-0.03634027
228	0xbc2e809b	-0.010650779
229	0x3c833f6f	0.016021458
230	0x3bcb5768	0.006205488
231	0xbc1aa1a9	-0.009437957
232	0x3c15ea79	0.009150141
233	0x3b01ef78	0.0019826572
234	0xbb38a7f2	-0.0028176275
235	0xbb8f7d0a	-0.0043789195
236	0xbc30b9aa	-0.010786453
237	0x3c48feca	0.012267778
238	0xbbdfeeb0	-0.0068338737
239	0x3d1d3f49	0.03839043
240	0x3c0096d3	0.007848459
241	0xba190040	-0.0005836524
242	0xbc070db8	-0.008243017
243	0x3c208311	0.009796874
244	0x3ccc3569	0.024927812
245	0x3bc3395d	0.005957766
246	0xba45bdbc	-0.0007543226
247	0xbd5cd992	-0.05391843
248	0xbcf051dc	-0.029335909
249	0xbd2daee1	-0.042403106
250	0x3ca24323	0.019807404
251	0xbbdcb0f8	-0.0067349635
252	0x3af4e293	0.0018683247
253	0xbb524147	-0.0032082365
254	0xbd397ca2	-0.045284875
255	0xbd195778	-0.037436932

network_body._body_endoder.seq_layers.2.weight f4 [256, 256]
0	0xbc4ed8e2	-0.012624951
1	0x3d8e73a3	0.0695565
2	0xbc91a318	-0.017777964
3	0x3dd67409	0.10471351
4	0x3da9c0f1	0.08288754
5	0xbdede5b9	-0.11616082
6	0x3c951ed5	0.018203178
7	0x3e20de7f	0.15709876
8	0x3d90b71f	0.070661776
9	0xbddd8ba2	-0.108176485
10	0x3c0357b2	0.008016514
11	0xbca4bf72	-0.02011082
12	0x3e14df4c	0.14538306
13	0xbd9959ba	-0.07487817
14	0x3c80ba38	0.015713796
15	0xbddbb5ea	-0.10728057
16	0xbd9d1dab	-0.07671674
17	0xbe53c806	-0.20681772
18	0xbc80155a	-0.015635181
19	0xbdabb3a1	-0.08383871
20	0xbd2637ad	-0.04058044
21	0x3de6af04	0.1126385
22	0xbdd29f7d	-0.10284326
23	0x3d2d69fe	0.04233741
24	0xbdada902	-0.08479501
25	0xbe3ee2f6	-0.18641266
26	0xbd5e3132	-0.054246135
27	0x3b804d8e	0.0039154952
28	0xbdcaaa92	-0.09895815
29	0xbccb4ba8	-0.02481635
30	0x3dad8e72	0.08474435
31	0xbe982b27	-0.29720423
32	0x3e17eca4	0.14836365
33	0xbcaaeaae	-0.020863857
34	0xbc9da880	-0.019245386
35	0xbd0c335e	-0.034228675
36	0x3e80556e	0.25065178
37	0x3d9a9929	0.07548744
38	0x3d888274	0.06665507
39	0x3e57e480	0.2108326
40	0xbe49ee28	-0.19719756
41	0x3d8111f3	0.06302252
42	0xbce60eb0	-0.028083175
43	0xbd4ab91c	-0.04949294
44	0x3c43e906	0.011957413
45	0x3d8d1850	0.06889403
46	0xbd4e095e	-0.050301902
47	0x3cd871c5	0.026421437
48	0x3df9c1f4	0.12195197
49	0xbdd326b6	-0.10310118
50	0x3d9b3628	0.07578689
51	0xbe609671	-0.21932389
52	0xbdf7e1e2	-0.121036306
53	0x3da5891a	0.08082791
54	0xbdcfb708	-0.10142332
55	0xbd245927	-0.040124085
56	0xbdc15c6f	-0.094414584
57	0x3d2bc7d6	0.041938625
58	0x3e204bb7	0.15653883
59	0xbd0606eb	-0.03272144
60	0xbcf4e8d8	-0.029896185
61	0xbd94e7b9	-0.0727076
62	0x3d89b585	0.06724075
63	0x3d1b3485	0.037891883
64	0x3e03449c	0.12819141
65	0xbd3e19c1	-0.04641128
66	0x3bdfd502	0.0068308124
67	0x3dff8d45	0.12478117
68	0xbc2231a6	-0.009899532
69	0xbe1edf39	-0.1551484
70	0xbda05073	-0.078278445
71	0xbd33d7ed	-0.043907095
72	0x3d92a26b	0.07159885
73	0xbe2fb6bd	-0.17159553
74	0x3de1531a	0.110021785
75	0x3c8476be	0.016169902
76	0xbdcdee7b	-0.10055252
77	0x3e350792	0.17678669
78	0x3dedff75	0.1162099
79	0xbe332582	-0.17494777
80	0xbd24b8ef	-0.04021543
81	0x3e2633b2	0.16230658
82	0xbe298d87	-0.16557895
83	0xbdff6a93	-0.12471499
84	0x3e0742b2	0.13209036
85	0x3ca06791	0.019580634
86	0x3d311bc3	0.043239366
87	0xbdae23ad	-0.08502898
88	0xbe1b1cf3	-0.15147762
89	0xbd1ced79	-0.03831241
90	0x3da2a4ec	0.079416126
91	0x3d1b975a	0.037986137
92	0x3b3ddb3c	0.0028969785
93	0xbe097a3b	-0.13425533
94	0xbd5dd298	-0.054155916
95	0xbe06cb2d	-0.13163443
96	0x3e0d1c3f	0.13780306
97	0x3dbed356	0.09317653
98	0x3d1bcb71	0.038035814
99	0xbc8a05b7	-0.016848428
100	0xbe330f69	-0.17486347
101	0x3d879fe1	0.06622291
102	0xbdad772e	-0.08469997
103	0xbe049e1f	-0.12950943
104	0x3b8a191a	0.004214418
105	0x3d974d73	0.07387819
106	0xbd0c3095	-0.03422602
107	0x3e0448ed	0.12918444
108	0x3d96f854	0.073715836
109	0x3df08d03	0.11745646
110	0xbdfc7f4e	-0.12328969
111	0x3dac14f1	0.08402432
112	0x3c05b990	0.008161917
113	0xbeaedc02	-0.34152228
114	0xbd8c1963	-0.0684078
115	0xbd48e4ef	-0.049046453
116	0xbda60886	-0.081070945
117	0xbd6aa6f7	-0.057288136
118	0xbc17b7b6	-0.009260109
119	0xbdc1a694	-0.094556004
120	0xbcd0d931	-0.02549419
121	0x3c01b752	0.007917242
122	0xbdbf5698	-0.09342688
123	0x3df9d8c7	0.1219955
124	0xbdc9cf7d	-0.098540284
125	0xbd19f407	-0.03758624
126	0xbc33f5a3	-0.010983857
127	0xbaab569f	-0.001307208
128	0x3d5eb02a	0.054367222
129	0x3cefdd19	0.029280232
130	0x3da76579	0.08173651
131	0xbd180bf9	-0.037120793
132	0xbde5da1b	-0.11223241
133	0xbdb81a88	-0.089894354
134	0x3e3faf11	0.18719126
135	0xbcc408d9	-0.02393
136	0x3d82ea9d	0.06392405
137	0x3bc17059	0.0059032855
138	0x3d8d0fba	0.06887765
139	0xbe1e2481	-0.15443613
140	0x39bf67c2	0.00036507664
141	0xbe2ad249	-0.1668178
142	0xbdcbf969	-0.099596806
143	0x3d96ed18	0.07369441
144	0xbe29e904	-0.16592795
145	0xbe033fa5	-0.12817247
146	0x3e04ed58	0.12981164
147	0xbe0c441d	-0.13697858
148	0xbc2e2f70	-0.010631427
149	0xbd1ead99	-0.038739774
150	0x3cd2dd45	0.025740275
151	0x3e4d8408	0.20069897
152	0x3d69b0b2	0.057053275
153	0xbe2903c0	-0.16505337
154	0xbe5d204c	-0.21594352
155	0xbd871f23	-0.06597736
156	0x3d513c3d	0.05108284
157	0xbd6d155a	-0.05788169
158	0x3e30e44c	0.17274588
159	0xbd69cf3f	-0.05708241
160	0x3c4f6ec2	0.012660684
161	0x3e4c5152	0.19952896
162	0xbca681c9	-0.020325558
163	0xbd73b0bd	-0.059494723
164	0x3cdb53ee	0.02677342
165	0x3d330cde	0.043713443
166	0xbd880ed6	-0.06643455
167	0x3cfcdbde	0.03086656
168	0xbe9d21d4	-0.3068987
169	0x3e083a91	0.13303591
170	0x3d61266a	0.054968275
171	0x3c302f84	0.010753516
172	0x3d81e3c1	0.06342269
173	0x3c073ef8	0.008254759
174	0xbd828c8c	-0.063744634
175	0x3e25d8f9	0.1619605
176	0x3deb409c	0.11486933
177	0xbd16af5d	-0.036788333
178	0xbe65cfe7	-0.2244259
179	0x3e7850e4	0.24249607
180	0xbbaa09d4	-0.00518916
181	0xbd9cd929	-0.076586075
182	0x3d0001cb	0.03125171
183	0xbd93e80d	-0.072219945
184	0xbca15d10	-0.019697696
185	0xbe3afc72	-0.18260363
186	0xbda8924a	-0.082310274
187	0x3e485227	0.19562589
188	0xbc13a300	-0.00901103
189	0x3ddcdd9d	0.10784457
190	0x3e0811bc	0.13288015
191	0x3cefa632	0.029254053
192	0xbdebd3e8	-0.11515027
193	0xbd1bc4cc	-0.038029477
194	0x3d233945	0.03984954
195	0x3d121129	0.035660896
196	0xbe21f0dc	-0.15814537
197	0xbce41018	-0.027839705
198	0x3ea266d8	0.3171909
199	0x3e621035	0.22076495
200	0xbdb8415a	-0.0899684
201	0xbc0eb8c1	-0.008711041
202	0xbe2d0882	-0.16897777
203	0x3e2814a7	0.16414128
204	0x3e64509e	0.22296378
205	0xbe070a97	-0.13187633
206	0xbd47422d	-0.048647095
207	0xbd4405af	-0.047856983
208	0x3dfeefef	0.124481075
209	0x3d2d3a55	0.042291958
210	0x3e36be11	0.17845942
211	0x3dd1056f	0.102061145
212	0x3dd81959	0.1055171
213	0xbdc4d4b7	-0.09610885
214	0x3d237378	0.03990504
215	0x3d9d6c97	0.076867275
216	0xbd22b5e9	-0.039724264
217	0x3d3b7ee9	0.045775328
218	0x3e34ec0e	0.17668173
219	0x3dae4fcd	0.085113145
220	0xbde1b64a	-0.11021097
221	0x3c92a767	0.01790209
222	0xbd97e3c2	-0.07416488
223	0xbd159139	-0.03651545
224	0xbdb78ff2	-0.08963002
225	0xbd224e85	-0.039625663
226	0xbe8353d9	-0.25649908
227	0x3de32215	0.11090485
228	0xbd575afb	-0.052577
229	0x3e63b19f	0.22235726
230	0xbe148ccf	-0.14506839
231	0xbdcd3e33	-0.10021629
232	0xbdb34eb3	-0.08755245
233	0xbe1e2b70	-0.15446258
234	0x3acd5061	0.0015664214
235	0x3c8af818	0.016964003
236	0x3e23a9b1	0.15982701
237	0x3d2cfd02	0.042233475
238	0xbcbb5f89	-0.022872703
239	0xbd8e5e3a	-0.06951566
240	0xbe885359	-0.2662609
241	0xbe2056ee	-0.15658161
242	0x3cdc8627	0.026919438
243	0xbe1efd44	-0.155263
244	0xbe2dc0ca	-0.16968074
245	0xbd6e6efa	-0.058211304
246	0x3e14b13a	0.14520732
247	0xbe1ba5a1	-0.15199901
248	0x3c17dd86	0.009269124
249	0x3cf9c889	0.03049113
250	0xbdab4675	-0.08363048
251	0xbe0d2b0f	-0.13785957
252	0x3cf26afd	0.029592032
253	0x3a8c5836	0.0010707441
254	0xbd98f06e	-0.07467733
255	0xbd4219ed	-0.047388006

network_body._body_endoder.seq_layers.2.bias f4 [256]
0	0xbd2de936	-0.042458735
1	0xbbd4efd3	-0.006498316
2	0x3d12c16a	0.035828985
3	0xbd3b835d	-0.045779575
4	0xbde4452b	-0.11146005
5	0xbe226c88	-0.15861714
6	0xbe07e380	-0.13270378
7	0xbc20cc0b	-0.009814273
8	0xbdf84d5f	-0.12124132
9	0xbcf749af	-0.030186502
10	0xbd7a10d5	-0.06105121
11	0xbde3bcb7	-0.11119979
12	0xbd49eb77	-0.049296822
13	0x3a254d6b	0.00063057867
14	0xbdd64990	-0.1046325
15	0x3c9d1b7d	0.019178146
16	0xbe0285f7	-0.12746416
17	0x3bfc1dde	0.00769399
18	0xbd171a71	-0.03689045
19	0xbc82471e	-0.015903052
20	0x3bef2f30	0.0072993264
21	0x3c810601	0.015749933
22	0xbcd7b2b0	-0.026330322
23	0xbd40d446	-0.04707744
24	0xbcfbb88e	-0.030727651
25	0x3b8406e4	0.0040291417
26	0xbd821fe1	-0.06353737
27	0xbd17eebd	-0.037092913
28	0xbd6497b3	-0.055808734
29	0xbe12f758	-0.14352167
30	0xbe3cbddf	-0.18431805
31	0xbc31f0c0	-0.010860622
32	0xbbb37710	-0.00547684
33	0x3d320733	0.043463897
34	0xbd8c473b	-0.06849524
35	0x3c34263b	0.010995443
36	0x3c4669eb	0.012110214
37	0x3cc252a8	0.023721054
38	0x3c6955b4	0.014241625
39	0xbe061469	-0.13093723
40	0xbb80cbc2	-0.00393054
41	0x3cfd9a41	0.030957343
42	0x3ce53997	0.027981563
43	0xbb6212e8	-0.0034496132
44	0xbdbb91a3	-0.091586374
45	0x3cf1e953	0.029530203
46	0xbd29b269	-0.04142991
47	0xbc0c1e7b	-0.008552189
48	0x3cc97603	0.024592405
49	0x3d147a10	0.03624922
50	0x3d7dfdd3	0.062009644
51	0xbce58c66	-0.028021049
52	0x3c804f06	0.015662681
53	0xbdef404e	-0.11682187
54	0xbd26fd55	-0.04076894
55	0x3aac0256	0.0013123255
56	0xbc50ea73	-0.01275121
57	0x3cc063e2	0.023485128
58	0x3c0ae521	0.00847748
59	0xbd39ffed	-0.045410085
60	0xbd2cc2e5	-0.042178053
61	0xbd0e6c6a	-0.03477136
62	0xbd3555cf	-0.044271287
63	0x3cdbaa9b	0.02681475
64	0xbd8ab2ba	-0.06772371
65	0xbc3484f0	-0.011018023
66	0xbd047482	-0.032337673
67	0xbcf4499c	-0.029820256
68	0xbe3262b9	-0.17420472
69	0x3cb8d71b	0.022563508
70	0xbdf17bce	-0.11791192
71	0xbcc755e0	-0.02433294
72	0xbd0a2e74	-0.033735707
73	0xbe10acc3	-0.14128403
74	0x3c1a1f15	0.009406825
75	0xbda4c408	-0.080452025
76	0xbd3d2ab3	-0.0461833
77	0x3cbe86fa	0.023257721
78	0xbccc1456	-0.02491204
79	0xbdd607ed	-0.104507305
80	0xbd6460e5	-0.05575647
81	0x3cf71055	0.030159155
82	0xbb5ece81	-0.0033997598
83	0x3c342951	0.010996179
84	0xbe0e6473	-0.13905506
85	0x3cce29c3	0.025166398
86	0xbd2b809a	-0.04187069
87	0xbe1f47d8	-0.1555475
88	0xbcccc984	-0.024998434
89	0xbe078557	-0.13234459
90	0x3c3fa697	0.011697433
91	0x3cbdbc54	0.02316109
92	0xbc4e079e	-0.012575058
93	0x3ce737c5	0.028224835
94	0xbdc92923	-0.09822299
95	0xbbec7d72	-0.0072171027
96	0xbc84f130	-0.016228288
97	0xbdac32de	-0.0840814
98	0xbd23c776	-0.039985143
99	0xbd83c0ee	-0.06433283
100	0x3cda05df	0.026614128
101	0xbb188da5	-0.0023277786
102	0x3c903a3d	0.017605895
103	0xbce037d3	-0.027370369
104	0xbcd72c05	-0.026266107
105	0xbc6c2844	-0.014413897
106	0xbd10d779	-0.03536174
107	0xbe0b749e	-0.13618705
108	0x3c43c423	0.011948618
109	0xbc3746a0	-0.011186272
110	0xbe055232	-0.13019636
111	0x3c2f3d75	0.010695805
112	0xbe3d0399	-0.18458404
113	0xbd4885a8	-0.04895559
114	0xbda00e2c	-0.07815203
115	0xbd8a29ab	-0.06746229
116	0x3d87a91e	0.066240534
117	0xbe3a834e	-0.18214151
118	0xbbaec58b	-0.0053336076
119	0xbd3a3bb6	-0.0454671
120	0xbc6c6b8d	-0.014429939
121	0xbde3eb16	-0.111288235
122	0xbd94ef78	-0.072722375
123	0xbc9b61a0	-0.01896745
124	0xbe04a574	-0.1295374
125	0x3cb870ae	0.022514667
126	0x3d3cba31	0.046076003
127	0x3c5077c5	0.012723868
128	0xbc9935d5	-0.018702427
129	0xbcdb9250	-0.026803166
130	0xbc92262f	-0.017840473
131	0xbe1e0d33	-0.15434723
132	0xbe0a7703	-0.13521962
133	0xbe0d877d	-0.13821216
134	0xbc4bfeb6	-0.012450865
135	0xbdac8a20	-0.08424783
136	0xbd1b3755	-0.037894566
137	0x3ccf6ecd	0.025321389
138	0xbc835174	-0.01603005
139	0xbe0edbc3	-0.1395102
140	0xbd0ea86d	-0.034828592
141	0xbd192878	-0.03739211
142	0x3c44de7f	0.012015938
143	0xbe1fbb68	-0.15598834
144	0xbdc45235	-0.09585992
145	0xbdfe0ea3	-0.124051355
146	0x3bbfb6b4	0.0058506373
147	0x3d8a6225	0.06757001
148	0xbde87a6c	-0.11351475
149	0xbc14abe8	-0.009074189
150	0x3c5c4116	0.013443252
151	0x3d16c7f0	0.03681177
152	0xbca35588	-0.019938245
153	0x3d02541a	0.031818487
154	0xbb2091ab	-0.0024500887
155	0xbe145fce	-0.14489672
156	0x3c25bfe9	0.010116556
157	0xbe187198	-0.14887083
158	0xbb1fd2c0	-0.0024387091
159	0xbde9ba6c	-0.1141251
160	0xbb97ab84	-0.0046286006
161	0xbd8348de	-0.06410383
162	0xbca78d6b	-0.020453176
163	0xbb6401c4	-0.0034791091
164	0x3cc10e6c	0.023566447
165	0xbcfc83eb	-0.030824622
166	0xbcda1b4a	-0.02662434
167	0xb9a9eec6	-0.00032412092
168	0xbce79f1a	-0.028274108
169	0xbe37e33a	-0.17957774
170	0xbd2034eb	-0.039112967
171	0xbdd76214	-0.10516754
172	0x3c943bd7	0.01809494
173	0xbd92a4a1	-0.07160307
174	0xbd03aa6a	-0.03214494
175	0xbcf356f4	-0.029704548
176	0xbe0f89ad	-0.14017363
177	0xbddbd20f	-0.10733425
178	0x3ca137a9	0.019679861
179	0x3cf3ee07	0.029776586
180	0xbd676208	-0.056489974
181	0xbc442bd2	-0.011973338
182	0x3d76acc0	0.06022334
183	0x3d0afdbd	0.03393339
184	0xbc9aac4b	-0.018880984
185	0xbba21eef	-0.004947535
186	0xbdecd371	-0.11563767
187	0xbb56d4ab	-0.0032780569
188	0x3d365408	0.044513732
189	0xbce949bd	-0.028477544
190	0xbcc198f6	-0.023632508
191	0xbd79cbe3	-0.060985457
192	0xbd3cb590	-0.04607159
193	0xbde51fff	-0.111877434
194	0xbcfee4a9	-0.031114893
195	0x3bcc229b	0.006229711
196	0xbe06e8ca	-0.1317474
197	0xbcfd2104	-0.030899532
198	0xbcea7214	-0.02861885
199	0xbbd884ac	-0.0066076126
200	0xbca69ffe	-0.020339962
201	0xbc9c1d22	-0.01905686
202	0xbce63f11	-0.028106244
203	0xbd727975	-0.05919786
204	0xbd2fb9da	-0.04290185
205	0xbd0ce39b	-0.03439675
206	0xbc8e0121	-0.017334523
207	0xbcc72907	-0.024311556
208	0x3d37774d	0.04479151
209	0x3cd8c854	0.026462711
210	0xbe14013d	-0.14453597
211	0xbda5be8f	-0.08092987
212	0xbc6c634f	-0.014427974
213	0xbc342c93	-0.010996955
214	0xbde9afba	-0.1141047
215	0xbcc7cd4d	-0.024389887
216	0xbda6bfcb	-0.0814205
217	0xbdda6b91	-0.10665048
218	0x3bbdc5f3	0.0057914197
219	0xbe018235	-0.12647326
220	0xbb63389d	-0.0034671195
221	0x3ce989b8	0.028508052
222	0xbe294b6b	-0.16532676
223	0xbd478c2b	-0.04871766
224	0x3d66c87e	0.056343548
225	0xbcf811a0	-0.030281842
226	0xbcc8f380	-0.024530172
227	0xbdceb84a	-0.10093744
228	0xbca88ef6	-0.020575982
229	0xbe1184b1	-0.14210774
230	0xbbecae91	-0.0072229584
231	0xbdd0c048	-0.10192925
232	0xbdedf6fc	-0.11619374
233	0x3ccef352	0.025262509
234	0xbdf71f26	-0.12066488
235	0x3bfab437	0.007650878
236	0x3b1647e4	0.0022931034
237	0xbe0d3d85	-0.13792999
238	0xbd8c71b9	-0.068576284
239	0xbdc73f96	-0.09728925
240	0x3ca977db	0.020687034
241	0xbdd43d36	-0.103632376
242	0xbdd90ba3	-0.10597923
243	0xbd5a6bda	-0.05332551
244	0xbcdb2bb9	-0.026754247
245	0xbdad6cc4	-0.08468011
246	0xbcbf6dbb	-0.023367753
247	0xbb889b0d	-0.004168874
248	0xbd8e6b04	-0.06954005
249	0xbbdd0597	-0.006745051
250	0xbcd2106f	-0.025642602
251	0x3ba2e1ff	0.0049707885
252	0xbd9a5e42	-0.075375095
253	0xbc1055f1	-0.0088095525
254	0xbe02ec59	-0.12785472
255	0xbc2a00e9	-0.010376194

action_model._discrete_distribution.branches.0.weight f4 [3, 256]
0	0xbd8764b4	-0.066110045
1	0xbc9919c9	-0.018689053
2	0xbd49bd52	-0.049252816
3	0xbd8e6d1f	-0.06954407
4	0x3cf2f004	0.029655464
5	0x3c96dae7	0.018414928
6	0xbd776d32	-0.06040687
7	0xbcc93489	-0.024561184
8	0xba60276e	-0.00085507974
9	0xbd81bdaf	-0.063350074
10	0xbd5b6aaf	-0.05356854
11	0xbd44d5dc	-0.048055515
12	0xbd96edae	-0.073695526
13	0x3cb5eb85	0.022207031
14	0x3bc26d4d	0.00593344
15	0x3cecc30b	0.028901597
16	0xbd4e2098	-0.050324053
17	0x3cc1d0a3	0.023659056
18	0x3daa44b7	0.083138876
19	0xbcfa5dc5	-0.03056229
20	0xbc3f3ef5	-0.011672725
21	0xbca99c2e	-0.020704355
22	0xbd50c218	-0.050966352
23	0xbbaf7a62	-0.0053551653
24	0x3d0f7214	0.035020903
25	0x3c1be04f	0.009513929
26	0x3d410e60	0.04713285
27	0x3cb3e28a	0.021958608
28	0x3d588930	0.052865207
29	0xbd7ef384	-0.062243953
30	0xbcca2030	-0.024673551
31	0x3d290165	0.041261096
32	0x3b8cf39d	0.004301502
33	0x3d64ac85	0.05582859
34	0xbd520d8a	-0.051282443
35	0xbe0ef078	-0.13958919
36	0x3d03d17a	0.032182194
37	0x3c70e656	0.014703354
38	0xbd8ad9a9	-0.06779797
39	0xbd403671	-0.04692692
40	0x3d7a3776	0.061088048
41	0x3ca6a110	0.020340472
42	0x3d03a6ba	0.032141425
43	0xbc7f5cbe	-0.015586076
44	0x3ceed267	0.029153062
45	0x3d73c86a	0.0595173
46	0x3ce7c72c	0.028293215
47	0x3b9a66f9	0.0047119823
48	0x3d11807e	0.03552293
49	0x3a61da9c	0.0008615644
50	0x3c3a0e3c	0.011355933
51	0x3c78c1f2	0.015182959
52	0x3c58575f	0.013204425
53	0xbd1121c8	-0.035432607
54	0xbde7e63c	-0.113232106
55	0x3cd562ed	0.026048148
56	0x3dd7ea04	0.10542682
57	0x3c7a39c8	0.015272565
58	0x3ca641d4	0.020295061
59	0xbcd1f0a3	-0.02562744
60	0xbb96e009	-0.004604344
61	0xbc206d74	-0.009791721
62	0xbcba639b	-0.022752574
63	0x3c96902f	0.018379299
64	0xbdb804d1	-0.08985294
65	0x3d0c3f21	0.034239892
66	0xbbb8af30	-0.0056361184
67	0xbd184f9e	-0.037185304
68	0xbcd823fb	-0.026384344
69	0x3d188521	0.037236337
70	0xbdaa7758	-0.08323544
71	0xbce06c93	-0.027395522
72	0xbd8bcffb	-0.068267785
73	0xbd079e63	-0.033110034
74	0x3c1732b9	0.009228402
75	0xbc189608	-0.009313114
76	0x3cb09539	0.02155553
77	0x3d18ab80	0.03727293
78	0xbc923d7a	-0.01785158
79	0xbcd87385	-0.026422272
80	0x3b5c3420	0.0033600405
81	0x3d0ec1f5	0.03485294
82	0xbd5403ec	-0.051761553
83	0xbcdfca5c	-0.027318172
84	0xbb0763bd	-0.0020658814
85	0x3d20f7a5	0.039298672
86	0x3b8e32f2	0.0043395692
87	0x3c822545	0.015886912
88	0xbc4ae4e0	-0.01238367
89	0xbd0595b1	-0.03261346
90	0xbd9553bd	-0.072913624
91	0x3be1b08c	0.006887501
92	0xbc15e19f	-0.009148031
93	0x3d043c06	0.032283805
94	0xbcda30a2	-0.026634518
95	0x3d333ba9	0.04375807
96	0x3d0e73bd	0.034778345
97	0x3c373b5d	0.011183587
98	0x3d2a7235	0.041612823
99	0xbd075d23	-0.033047806
100	0x3d79aedb	0.06095777
101	0xbd3c210a	-0.045929946
102	0x3c3fecd5	0.01171418
103	0x3c11dc34	0.008902598
104	0xbd918a02	-0.07106401
105	0xbb8b0575	-0.004242594
106	0xbcaf66df	-0.021411357
107	0xbd13da55	-0.03609689
108	0xbd59cbe1	-0.05317295
109	0xbd4e8648	-0.05042103
110	0xbcee39e6	-0.029080343
111	0x3d01652f	0.031590637
112	0xbd0f24ab	-0.03494708
113	0xbda5dc90	-0.080987096
114	0x3ad5c833	0.0016310274
115	0xbccfe44f	-0.02537742
116	0x3c726b0e	0.014796032
117	0xbb545aac	-0.0032402677
118	0x3d33b0bc	0.04386972
119	0xbd85f614	-0.06541076
120	0x3ca8faa3	0.020627325
121	0xbcb22f86	-0.021751177
122	0xbd3086d9	-0.04309735
123	0xbd1951b0	-0.03743142
124	0xbd45e517	-0.04831418
125	0x3c894dc0	0.016760707
126	0xbd7e35d8	-0.06206307
127	0x3b779ade	0.0037781517
128	0xbca382ea	-0.019959886
129	0xbd97c9bd	-0.074115254
130	0xbd64ed41	-0.055890325
131	0xbd4b48ec	-0.04963009
132	0xbcaf573e	-0.021403905
133	0xbb8c7f54	-0.0042876396
134	0x3ca5bdcd	0.020232106
135	0xbbca5745	-0.006174954
136	0xbe106257	-0.14100014
137	0x3d46a2e4	0.04849519
138	0x3ba577ec	0.005049696
139	0x3c4beae5	0.01244614
140	0x3c854bbe	0.016271468
141	0x3b25988d	0.002526793
142	0x3d6867b4	0.056739524
143	0xbd201437	-0.03908178
144	0x3d144fca	0.036208905
145	0xbc8dda0c	-0.017315887
146	0x3ccd90c5	0.025093446
147	0x3c704fa3	0.014667424
148	0xbcfbd76b	-0.030742368
149	0x3cbb4edd	0.022864753
150	0x3d1ae2dc	0.037814006
151	0xbcc945c0	-0.024569392
152	0xbd2259a4	-0.03963627
153	0x3c8c976a	0.017162044
154	0x3b968ac3	0.0045941784
155	0xbd5e3174	-0.05424638
156	0x3d1c6440	0.038181543
157	0x3b4e2757	0.0031456554
158	0x3da94132	0.08264388
159	0xbd0ea0d0	-0.03482133
160	0x3c91eff7	0.01781462
161	0xbd4fe66e	-0.050756864
162	0xbcea0395	-0.028566161
163	0x3c36d3bd	0.011158881
164	0x3d0452d6	0.03230556
165	0xbd7c1e3c	-0.06155227
166	0xbc8e2b22	-0.017354552
167	0xbbf7f0c9	-0.0075665456
168	0x3d032ed3	0.032027077
169	0x3b87bcae	0.0041423654
170	0x3dbf09f7	0.093280725
171	0xbbc4c296	-0.0060046418
172	0x3cdfac60	0.027303874
173	0xbc2dd93c	-0.010610875
174	0xbd58c632	-0.05292339
175	0x3cba008e	0.022705343
176	0x3c394992	0.011309044
177	0xbd67dff4	-0.056610063
178	0x3b57f648	0.0032953192
179	0x3cfe78b6	0.031063419
180	0xbd66ae55	-0.0563186
181	0x3cb53907	0.02212192
182	0x3c7f8eed	0.015598041
183	0x3d1af419	0.037830446
184	0x3b61123a	0.003434314
185	0x3d6c9c63	0.05776633
186	0x3d817587	0.06321245
187	0x3cd94bbe	0.026525375
188	0x3cf514f0	0.02991721
189	0xbdbee201	-0.093204506
190	0x3c606216	0.0136952605
191	0xbbf51bc3	-0.007480116
192	0xbd8b4114	-0.06799522
193	0xbd0e17a4	-0.034690514
194	0xbc85656c	-0.016283713
195	0xbd8bfc9c	-0.06835291
196	0xbd3d016e	-0.04614394
197	0xbd820490	-0.063485265
198	0x3af98207	0.0019035944
199	0x3d60e940	0.054909945
200	0xbd8bb689	-0.06821925
201	0x3d84dfcf	0.064880006
202	0x3c89559d	0.016764456
203	0xbce0acac	-0.027426086
204	0x3bd0acaf	0.0063682417
205	0x3caba27e	0.020951506
206	0xbd3f6419	-0.04672632
207	0x3cc6beff	0.024260996
208	0x3d1fd605	0.039022464
209	0x3d8e110d	0.06936846
210	0x3c90edd3	0.017691528
211	0xbd67ad39	-0.056561682
212	0xbda2a53e	-0.07941674
213	0xbd1ebb42	-0.0387528
214	0xbc9a4269	-0.018830495
215	0xbda0cd3a	-0.07851644
216	0xbd71b76b	-0.05901281
217	0xbc7227ec	-0.014780026
218	0x3be04c62	0.006845043
219	0xbc1b8040	-0.009491026
220	0xbcd4917c	-0.025948279
221	0x3c9e2b54	0.01930777
222	0xbd0b6e09	-0.034040485
223	0xbd892752	-0.06696953
224	0x3a1372f0	0.0005624732
225	0xbdc2ad41	-0.09505702
226	0xbba2a282	-0.00496322
227	0x3d53e087	0.051727798
228	0x3ac1740b	0.0014759315
229	0x3d12f1e2	0.03587521
230	0xbc2641e9	-0.01014755
231	0xbd776e18	-0.060407728
232	0xbc84f494	-0.016229905
233	0x3c510752	0.012758093
234	0xbc4e27fc	-0.012582775
235	0x3cbbe5ac	0.022936665
236	0x3cf0ae89	0.0293801
237	0xbc8e37b2	-0.017360542
238	0xbdbf9560	-0.09354663
239	0xbd19d2c7	-0.03755453
240	0xbd1fe971	-0.039040986
241	0xbce1def7	-0.027572138
242	0xbd0aee5c	-0.033918723
243	0xbd915d38	-0.07097858
244	0xbd75cf80	-0.06001234
245	0xbd271f22	-0.040801175
246	0xbd3c3dae	-0.04595726
247	0xbd0cf0ad	-0.034409214
248	0xbd142888	-0.036171466
249	0xbbf2d13a	-0.0074101957
250	0xbd6bf9a6	-0.05761113
251	0x3c45571c	0.012044694
252	0xbda6ccc4	-0.08144525
253	0x3d4ba066	0.049713515
254	0xbd5acec6	-0.05341985
255	0x3c383ec5	0.011245434

action_model._discrete_distribution.branches.0.bias f4 [3]
0	0x3d163c7e	0.036678784
1	0x3d91da73	0.07121744
2	0xbe622cd0	-0.22087407

action_model._discrete_distribution.branches.1.weight f4 [3, 256]
0	0x3d4652c8	0.04841879
1	0x3cb528d6	0.022114199
2	0xbdba59af	-0.09099137
3	0xbd10594a	-0.035241403
4	0x3cc38c5d	0.023870641
5	0xbd6525d5	-0.055944283
6	0xbda4ddf4	-0.08050147
7	0xbcdb2b41	-0.026754024
8	0xbda1be66	-0.07897644
9	0xbda6c3c2	-0.081428066
10	0xbd0cf4c4	-0.034413114
11	0xbd80eafe	-0.06294821
12	0x3d84a265	0.06476287
13	0xbc9a485b	-0.01883333
14	0xbdaa39a5	-0.08311776
15	0x3b8e4bfd	0.0043425546
16	0xbdb2877c	-0.08717248
17	0x3ae9a08e	0.0017824338
18	0x3e156e96	0.14592966
19	0xbae76af5	-0.0017655777
20	0xbd0530c0	-0.032517195
21	0x3b1adbd2	0.0023629558
22	0xbd1e3000	-0.038619995
23	0x3bbf85e7	0.00584482
24	0x3d23e887	0.040016677
25	0xbc8e5f44	-0.01737941
26	0x3cc9f04d	0.024650717
27	0xbc8760c8	-0.016525641
28	0x3d5aeb97	0.053447332
29	0xbdb9fcde	-0.09081434
30	0xbd087864	-0.03331794
31	0xbca2342d	-0.01980027
32	0xbcd5aff7	-0.026084883
33	0x3a4992dc	0.0007689425
34	0xbd33551b	-0.043782335
35	0xbd401adc	-0.046900615
36	0x3d067cc6	0.032833837
37	0xbc8d2a52	-0.017232094
38	0xbd00f5a5	-0.031484265
39	0xbda390f7	-0.07986634
40	0x3ddc3f66	0.1075428
41	0xbcbd9700	-0.023143291
42	0xbce2f589	-0.02770497
43	0x3bb75fc5	0.0055961334
44	0xbdcf8da3	-0.10134437
45	0x3dd96e62	0.10616757
46	0x3c19a8de	0.00937864
47	0x3c1b7087	0.009487278
48	0xbb5770d7	-0.0032873654
49	0xbcc831bf	-0.024437783
50	0x3c88ca6d	0.016698087
51	0x3d0b0484	0.033939853
52	0x3c808076	0.015686255
53	0xba541861	-0.0008090791
54	0xbdcd7dd1	-0.10033763
55	0x3d1abf1f	0.037779924
56	0x3db418f8	0.08793825
57	0x3d03e799	0.03220329
58	0xbd0f8a96	-0.035044275
59	0x3d288628	0.041143566
60	0xbcb9ac63	-0.022665208
61	0x3aec8157	0.0018043917
62	0xbce08aaa	-0.02740987
63	0x3d0ad9b6	0.03389903
64	0xbd940ca1	-0.07228971
65	0xbd820281	-0.06348134
66	0xbd088010	-0.033325255
67	0xbdc539da	-0.09630175
68	0xbd1e9c50	-0.03872329
69	0x3cbb5dd7	0.022871895
70	0xbdbd7099	-0.09249992
71	0x3b8b86a0	0.004257992
72	0x3d8e7d0a	0.06957443
73	0xbd2055e3	-0.039144408
74	0xbcb578f3	-0.0221524
75	0xbd893fb3	-0.06701603
76	0x3cb000e6	0.021484803
77	0x3c96d5e8	0.018412545
78	0xbc490a31	-0.012270496
79	0xbd9bc5e0	-0.07606101
80	0xbd840396	-0.064459965
81	0xbce9ba95	-0.028531352
82	0xbcdf276f	-0.027240483
83	0xbd314e44	-0.04328753
84	0xbc3d60b8	-0.011558704
85	0x3cced948	0.025250092
86	0xbd1a893c	-0.037728533
87	0x3c0a79bf	0.008451878
88	0xbc22ae81	-0.0099293
89	0xbdb25882	-0.08708288
90	0x3d33ae16	0.043867193
91	0xbd203de8	-0.03912154
92	0xbd156550	-0.036473572
93	0x3d032e4b	0.03202657
94	0xbd6657b2	-0.056235977
95	0x3d092ace	0.033488087
96	0x3ceb2626	0.028704714
97	0xbe23479e	-0.15945289
98	0x3c9ee246	0.019395005
99	0xbd98106d	-0.07425008
100	0x3d8d2be5	0.06893138
101	0x3b88e844	0.004178079
102	0x3cd701ff	0.026246069
103	0xbac93c39	-0.0015353031
104	0xbcd71931	-0.02625713
105	0x3cb3a872	0.021930907
106	0xbd314e77	-0.04328772
107	0xbd37636a	-0.044772543
108	0xbda4f944	-0.08055356
109	0xbded78a3	-0.11595275
110	0xbdafaa48	-0.085774004
111	0xbcba86ea	-0.02276941
112	0xbd5a0867	-0.05323067
113	0xbd857e28	-0.06518203
114	0xbbaa8a4f	-0.005204476
115	0xbd486a6c	-0.048929617
116	0x3d74ba4d	0.059747983
117	0xbd07e72a	-0.03317944
118	0x3c1f8d4a	0.009738276
119	0x3d3c5c06	0.045986198
120	0xbd5a999a	-0.053369142
121	0xbdb4adfe	-0.08822249
122	0xbde957ae	-0.11393677
123	0x3d3b1788	0.045676738
124	0xbd65d57f	-0.05611181
125	0xbbc580a6	-0.006027299
126	0xbd7125a0	-0.058873773
127	0xbc6ece20	-0.014575511
128	0xbcfd17dc	-0.030895166
129	0x3d63efc8	0.055648595
130	0x3d17cea0	0.037062287
131	0xbd6be36c	-0.057589933
132	0xbd45911f	-0.0482341
133	0xbc2687ca	-0.010164211
134	0xbd6dbc10	-0.05804068
135	0x3b891c76	0.004184301
136	0xbd616a4f	-0.055033024
137	0xbcd870ec	-0.026421033
138	0xbb1daefe	-0.0024060602
139	0xbb4f3b6e	-0.0031621116
140	0x3b335ea0	0.0027369633
141	0x3bd0152f	0.0063501815
142	0x3def8a13	0.116962574
143	0xbd266fda	-0.040634014
144	0x3b5e2f2a	0.0033902624
145	0xbd2c8940	-0.04212308
146	0x3c6fe372	0.0146416295
147	0x3c5a2984	0.013315562
148	0xbd866395	-0.065619625
149	0xba3574a5	-0.00069219834
150	0x3b8b0086	0.0042420058
151	0xbda4cdbe	-0.08047055
152	0xbc113e54	-0.008864958
153	0x3ca0500f	0.019569425
154	0x3d3753f0	0.044757783
155	0xbd900ddd	-0.07033894
156	0x3cbcc8f3	0.023045039
157	0xbd2024a9	-0.03909746
158	0x3d79c007	0.060974147
159	0xbda3f44f	-0.080055825
160	0xbcc69061	-0.024238767
161	0xbda7cb44	-0.08193067
162	0x3b78acd2	0.0037944806
163	0xbadde497	-0.0016929087
164	0x3ca36712	0.019946609
165	0x3d709ff2	0.058746286
166	0xbc937d66	-0.01800413
167	0x3c16cca8	0.009204067
168	0xbcb71f26	-0.02235372
169	0xbbbbf35a	-0.005735797
170	0x3d9ffd96	0.078120396
171	0xbda62e54	-0.08114305
172	0x3ceab1e3	0.028649276
173	0xbdf2864d	-0.11842022
174	0xbc50a678	-0.012735002
175	0x3c5a7720	0.013334066
176	0xbd6fce9e	-0.058546655
177	0xbd36e687	-0.04465344
178	0xbca9a962	-0.02071065
179	0xbc87d659	-0.016581701
180	0x3d5d7cef	0.054074224
181	0xbb598df3	-0.003319618
182	0x3c80054a	0.015627522
183	0x3ca7a0db	0.020462444
184	0xbb9051c9	-0.004404281
185	0x3c8ead5b	0.017416647
186	0x3cf91871	0.030407162
187	0x3a69c15e	0.00089170586
188	0x3cdde173	0.027085042
189	0xbcef08ac	-0.02917894
190	0x39970ff2	0.00028812845
191	0xbc39a534	-0.011330891
192	0xbd47c9ff	-0.048776623
193	0xbd84514a	-0.06460817
194	0x3c82ef96	0.015983384
195	0xbd699a3c	-0.057031855
196	0xbd9dee76	-0.077114984
197	0xbd0d3df4	-0.03448291
198	0xbc622f3e	-0.013805209
199	0x3d672295	0.056429464
200	0xbdaf87f1	-0.08570851
201	0x3dea4600	0.11439133
202	0x3d13c7c5	0.036079187
203	0xbac3ec72	-0.0014947786
204	0xbb9627d7	-0.004582386
205	0x3d18ba1a	0.037286855
206	0xbdc4f989	-0.096179076
207	0xbcb1eca8	-0.021719292
208	0x3ca6443a	0.020296205
209	0x3dc6c3bd	0.09705303
210	0xbd413647	-0.047170904
211	0xbd90a522	-0.070627466
212	0x3d60bcf2	0.054867692
213	0xbc26945d	-0.0101672085
214	0xbded1e4f	-0.115780465
215	0x3c0eea45	0.008722846
216	0xbd9d9d30	-0.07695997
217	0xbd0cb263	-0.03434981
218	0xbb89ad0d	-0.0042015375
219	0xbd1fadef	-0.038984235
220	0xbcf59e37	-0.02998267
221	0xbc8ffd82	-0.017576937
222	0xbd97fdf2	-0.07421483
223	0x3dae4093	0.0850841
224	0x3d154672	0.036444135
225	0xbd882b7d	-0.0664892
226	0xbde43152	-0.111422196
227	0x3db7f4b1	0.08982218
228	0xbc1b7466	-0.009488201
229	0xb9fb6f76	-0.00047957496
230	0x3c14de24	0.009086166
231	0xbdb6f2b8	-0.08933014
232	0xbdac3f4a	-0.08410509
233	0xbccb15bd	-0.024790639
234	0xbd979459	-0.07401342
235	0x3bab2af5	0.0052236267
236	0xba5c47cf	-0.00084030343
237	0xbd817a17	-0.06322115
238	0x3cdef7b2	0.02721772
239	0xbdbb67cb	-0.09150656
240	0x3cfd92bd	0.03095376
241	0xbd8563df	-0.065131895
242	0xbdf54890	-0.11976731
243	0xbde6f450	-0.11277068
244	0xbcb27965	-0.021786401
245	0xbdf0e14b	-0.11761721
246	0x3cc4c3d2	0.024019156
247	0xbe0f6650	-0.14003873
248	0xbcee77df	-0.029109893
249	0x3a975b6c	0.0011547632
250	0xbdbbf3b2	-0.091773406
251	0xbdb34ad9	-0.087545104
252	0xbd63210b	-0.055451434
253	0x3d5ea2aa	0.054354347
254	0xbda62652	-0.08112778
255	0x3c6fcfe9	0.014636972

action_model._discrete_distribution.branches.1.bias f4 [3]
0	0xbb477d8a	-0.0030439817
1	0xbd31f484	-0.04344608
2	0x3c2dd682	0.010610225

action_model._discrete_distribution.branches.2.weight f4 [2, 256]
0	0xbd2587ce	-0.040412717
1	0x3cd1e307	0.02562095
2	0x3c917acf	0.017758755
3	0x3c818324	0.015809603
4	0xbc9ccba1	-0.019140067
5	0xbda1c462	-0.07898785
6	0xbd86a5de	-0.065746054
7	0x3dba1172	0.09085359
8	0xbcdea876	-0.027179938
9	0xbc8d9acf	-0.017285733
10	0x3c8c5d3d	0.017134303
11	0xbd7262f0	-0.059176385
12	0xbdd70382	-0.10498716
13	0x3e0dab11	0.13834788
14	0xbd284d3f	-0.041089293
15	0xbb08040a	-0.002075436
16	0xbd430b32	-0.0476181
17	0x3d94fee9	0.07275183
18	0xbd0e9700	-0.034811974
19	0x3cb12355	0.021623293
20	0x3d8c1e6c	0.0684174
21	0x3da7cbe3	0.08193185
22	0x3d289347	0.04115608
23	0x3c266f06	0.010158306
24	0xb9bd6276	-0.00036122248
25	0x3b0c935d	0.002145014
26	0xbbfd0a71	-0.007722192
27	0x3c2058cb	0.009786795
28	0xbc541cf7	-0.012946359
29	0xbdc3938f	-0.09549629
30	0xbded7168	-0.11593896
31	0x3d14d21b	0.036333185
32	0xbc51f745	-0.012815301
33	0x3c8dc950	0.017307907
34	0xbd49fbfe	-0.049312584
35	0x3b9222db	0.0044597215
36	0x3bb1c2ab	0.0054248176
37	0x3b82160f	0.0039699147
38	0x3de41d6b	0.111384235
39	0xbddab0ca	-0.10678251
40	0xbd056d67	-0.032575037
41	0xbc912464	-0.017717548
42	0x3d3f5ba4	0.046718255
43	0xbba560d6	-0.005046944
44	0xbd52d1d5	-0.051469643
45	0xbc916e43	-0.017752772
46	0xba58765c	-0.0008257383
47	0x3b67390e	0.003528181
48	0xbb64fc28	-0.0034940336
49	0x3deb6127	0.1149314
50	0x3e83b4ad	0.25723782
51	0xbc268799	-0.010164165
52	0x3dbfca45	0.09364752
53	0xbd92bb68	-0.07164651
54	0xbdcf1b88	-0.10112673
55	0x3bf7f53a	0.007567075
56	0xbd57b685	-0.0526643
57	0x3dd3b77b	0.103377305
58	0xbc21fce6	-0.009886956
59	0xbcd02d1e	-0.025412139
60	0xbcb3f1a9	-0.021965818
61	0x3cb9b9f6	0.02267168
62	0x3d3681d7	0.04455742
63	0x3e04bc0d	0.1296236
64	0xbc37dcf0	-0.011222109
65	0x3c3a4154	0.0113681145
66	0x3bbdef10	0.0057963207
67	0xbd906b8c	-0.07051763
68	0xbda7f0fa	-0.082002595
69	0xbc7b842e	-0.015351338
70	0xbdd09bb7	-0.1018595
71	0x3d8d9333	0.06912842
72	0xbdb8959c	-0.09012911
73	0xbd47b2da	-0.04875455
74	0xba6af1e5	-0.00089624367
75	0xbd0ee626	-0.034887455
76	0xbcc46dc5	-0.023978123
77	0xbc250f64	-0.01007447
78	0x3d973bb2	0.07384433
79	0xbd58a57c	-0.052892193
80	0xbd22b821	-0.03972638
81	0xbce0561a	-0.027384806
82	0x3e3cb847	0.18429671
83	0x3d244f3c	0.040114626
84	0xbd9465c9	-0.072459765
85	0x3c83c268	0.016083911
86	0xbcad89bd	-0.021183843
87	0xbc0b1ff7	-0.008491508
88	0x3cc6ba22	0.024258677
89	0xbd11a043	-0.035553228
90	0xb924f0a5	-0.00015729906
91	0x3caa35af	0.020777551
92	0x3cbab18e	0.022789743
93	0x3cc99e46	0.024611603
94	0xbd09b769	-0.03362218
95	0x3dd4c966	0.10389976
96	0xbc9952bb	-0.018716207
97	0xbd6df8b5	-0.058098514
98	0xbb396a0f	-0.0028291976
99	0xbcac14a4	-0.021005936
100	0xbc67c603	-0.014146331
101	0x3dd83b08	0.10558134
102	0x3dddf57a	0.108378366
103	0xba38b7aa	-0.0007046411
104	0xbccad532	-0.024759863
105	0x3b745383	0.0037281222
106	0xbc00821d	-0.007843521
107	0xbd7f2c43	-0.06229807
108	0x3d95536f	0.07291304
109	0x3ce66fae	0.028129425
110	0xbd0e35bc	-0.034719214
111	0x3d962075	0.073304094
112	0xbdfb243e	-0.12262772
113	0x3d377b9d	0.04479562
114	0xbd10ce97	-0.03535327
115	0x3ccd65de	0.025072988
116	0x3d3bca3a	0.045847155
117	0xbdca923b	-0.098911725
118	0xbc10c2d8	-0.008835517
119	0xbd53bb27	-0.051692154
120	0xbd70a37b	-0.058749657
121	0xbd8533bb	-0.065040074
122	0xbd85f3a4	-0.065406114
123	0x3b12e295	0.0022412885
124	0xbe00e661	-0.12587883
125	0x3d37a0ec	0.0448312
126	0x3dc83da8	0.09777385
127	0x3b618fa0	0.0034417883
128	0x3d6770c4	0.056504026
129	0xbb01963e	-0.001977339
130	0x3c6f9d76	0.014624944
131	0xbdd76e84	-0.10519126
132	0xbd7ef0a2	-0.062241204
133	0xbde3a6a9	-0.11115772
134	0xbda4dc93	-0.08049884
135	0xbd384036	-0.04498311
136	0x3bebdae0	0.007197723
137	0xbcf3d6db	-0.029765537
138	0xbba369ba	-0.004986969
139	0xbd32c7b6	-0.04364749
140	0x3ce1b15b	0.02755039
141	0x3c180004	0.0092773475
142	0xbceb698b	-0.02873685
143	0xbe0af502	-0.13570026
144	0xbb2dc014	-0.0026512193
145	0xbda7b7a5	-0.08189324
146	0x3d9aeedb	0.07565089
147	0x3e43d74b	0.19125096
148	0xbde09f21	-0.109678514
149	0x3d29dfc8	0.04147318
150	0xbb9e1500	-0.0048242807
151	0x3d08d592	0.0334068
152	0x3d948b08	0.072530806
153	0x3e6181bc	0.22022146
154	0x3d4aaff7	0.04948422
155	0xbddf3a1c	-0.10899755
156	0xbc9c34b9	-0.019068109
157	0xbd9f206d	-0.077698566
158	0xbc92b44e	-0.017908242
159	0xbd05943a	-0.032612063
160	0x3baef2c9	0.005339001
161	0xbca445ce	-0.020052817
162	0xbc4f48af	-0.012651606
163	0x3db7bee8	0.08971959
164	0x3d562baf	0.052287754
165	0xbca571fd	-0.020195955
166	0xbba83ccc	-0.0051342007
167	0x3e0c5d8c	0.1370756
168	0xbd1037b9	-0.03520939
169	0xbd96c451	-0.07361663
170	0xbc436d8a	-0.011927972
171	0xbd0e70eb	-0.034775656
172	0x3d11cb3c	0.03559421
173	0xbd1b2251	-0.037874524
174	0xbbc92002	-0.006137849
175	0x3be027b9	0.006840673
176	0xbdc3dae0	-0.095632315
177	0xbda9f12e	-0.082979545
178	0x3be49746	0.006976041
179	0xbb46cdd8	-0.0030335095
180	0xbdd0dd58	-0.10198468
181	0x3b092254	0.0020925002
182	0x3de8ff3e	0.113768086
183	0x3d3b2169	0.04568616
184	0xbcc135e0	-0.02358526
185	0xbca4ea00	-0.020131111
186	0xbb2b36d1	-0.0026125202
187	0xbc0406f1	-0.008058296
188	0x3e5720ba	0.21008578
189	0x3d9fc36c	0.07800946
190	0x3e0dbf0e	0.13842413
191	0xbd24ffd8	-0.040283054
192	0x3c22259d	0.009896663
193	0xbde2c0ab	-0.11071905
194	0xbc549d27	-0.012976921
195	0x3d69ab35	0.05704804
196	0xbdb78a2c	-0.08961901
197	0x3c33044d	0.010926318
198	0x3c904cb0	0.017614692
199	0xbbc7a04f	-0.0060921083
200	0x3ce0f19d	0.02745896
201	0xbd26011a	-0.040528394
202	0xbbcde072	-0.0062828595
203	0xbc68094f	-0.014162376
204	0x3c0c94e4	0.00858042
205	0xbb501eec	-0.0031756712
206	0x3a6b537a	0.00089769776
207	0x3c77a55c	0.015115108
208	0x3e3f341c	0.18672222
209	0xbd01f8bf	-0.031731363
210	0xbd6e03f8	-0.058109254
211	0xbc8bbd0f	-0.017057924
212	0xbd81e431	-0.06342352
213	0x3d9ac8bb	0.075578175
214	0xbdafb272	-0.085789576
215	0x3cac9749	0.021068232
216	0xbc96df1c	-0.018416934
217	0xbe02b17f	-0.12763022
218	0xbc8f9f9c	-0.017532162
219	0xbd9ac254	-0.075565964
220	0x3c95572d	0.018230045
221	0x3c0c3eff	0.008559941
222	0xbdf7e4e2	-0.12104203
223	0xbdb84d8f	-0.08999168
224	0x3e4ba90c	0.19888705
225	0x3c8079a5	0.015683005
226	0x3cdc695c	0.026905708
227	0xbc8affbd	-0.016967649
228	0x3c591219	0.013248944
229	0xbd022b29	-0.031779442
230	0x3d03bcec	0.03216259
231	0xbdd478bd	-0.103745915
232	0xbd988205	-0.07446674
233	0xbb692b8b	-0.0035578932
234	0xbd045cfa	-0.03231523
235	0xbaa1a14d	-0.0012331397
236	0x3ce899c8	0.028393641
237	0xbdf1a27a	-0.11798568
238	0xbd6d693f	-0.0579617
239	0xbdbba49d	-0.09162257
240	0x3e09ee2f	0.13469766
241	0xbc03fc47	-0.008055753
242	0xbdcc6b57	-0.09981411
243	0xbd45d51f	-0.04829895
244	0xbd58ce19	-0.052930925
245	0xbd0120b5	-0.031525332
246	0x3d1290c7	0.0357826
247	0xbd796baa	-0.060893692
248	0xbe09c24b	-0.13453023
249	0x3c0ddddd	0.008658853
250	0x3d287722	0.04112924
251	0x3c7fc159	0.0156100625
252	0xbd0eb0f7	-0.034836736
253	0xbc5b40cd	-0.013382149
254	0xbe0a3a1f	-0.13498734
255	0xbd0ac8a7	-0.033882763

action_model._discrete_distribution.branches.2.bias f4 [2]
0	0x3e0e30e2	0.13885835
1	0xbe0e30e5	-0.1388584
