results/MoveToButton_1/ButtonPress.onnx (onnx, 352736 bytes, 13 tensors)

discrete_act_size_vector f4 [1, 4]
0	0x40400000	3.0
1	0x40400000	3.0
2	0x40000000	2.0
3	0x40000000	2.0

network_body._body_endoder.seq_layers.0.weight f4 [256, 65]
0	0xbc7b43a8	-0.015335955
1	0xbe6fafae	-0.2340686
2	0x3db4cf2f	0.0882858
3	0xbd79d719	-0.06099615
4	0x3e06b590	0.13155198
5	0xbe44d5a5	-0.19222124
6	0xbda37ccf	-0.0798279
7	0xbe0ff4fc	-0.14058298
8	0xbb9adcbb	-0.00472602
9	0xbd033191	-0.032029692
10	0x3de991d2	0.11404766
11	0x3e301e4e	0.1719906
12	0x3d5f7764	0.05455722
13	0xbd9750cc	-0.07388458
14	0xbd746fd7	-0.05967697
15	0x3d7c3918	0.061577886
16	0xbe60c429	-0.21949829
17	0xbd817fa2	-0.06323172
18	0xbd19e5ef	-0.037572797
19	0xbca83c57	-0.020536585
20	0xbe7aeeba	-0.2450513
21	0xbaccab74	-0.0015615062
22	0xbe4653b4	-0.19367868
23	0xbe4601d5	-0.19336636
24	0xbd1c4366	-0.038150214
25	0xbe7dc163	-0.24780802
26	0xbdf0d7f2	-0.11759938
27	0x3ea8e0a8	0.329839
28	0x3c2e1cc7	0.010626978
29	0x3c8aeb13	0.016957795
30	0xbce45414	-0.027872123
31	0xbcdd5864	-0.027019687
32	0x3e695659	0.22786845
33	0x3b9de041	0.004817993
34	0x3e0a916d	0.13532038
35	0x3c1d58ce	0.009603692
36	0xbe10fe95	-0.14159615
37	0xbd51f91c	-0.05126296
38	0x3dca3e36	0.09875147
39	0x3d928e1c	0.071560115
40	0x3caa7f34	0.020812608
41	0x3ec37d5e	0.38181585
42	0xbcfcb2d8	-0.030846998
43	0xbcdf9972	-0.027294848
44	0x3e989c22	0.2980662
45	0xbe24f67f	-0.16109656
46	0xbdae84eb	-0.08521446
47	0xbea73122	-0.32654673
48	0x3d9b40d2	0.07580723
49	0x3cdc34f5	0.02688072
50	0xbe06bef3	-0.13158779
51	0xbdde1059	-0.10842962
52	0x3df14870	0.117813945
53	0xbd91d5b0	-0.07120836
54	0xbe1c60a8	-0.15271246
55	0xbe2fdd11	-0.17174174
56	0x3e005102	0.12530902
57	0xbddbd8bd	-0.10734699
58	0xbdd88b2a	-0.105734184
59	0x3cd9ba8f	0.026578216
60	0x3e0b071b	0.1357693
61	0xbe1ed76f	-0.15511869
62	0x3d27e407	0.04098895
63	0x3e30ffac	0.17285031
64	0x3dbffb67	0.09374123
65	0xbdedf44d	-0.11618862
66	0xbda64b8f	-0.081198804
67	0x3d043392	0.032275744
68	0x3e320b78	0.17387187
69	0x3dc1a625	0.09455518
70	0xbd931a5d	-0.07182763
71	0xbd0ea43d	-0.0348246
72	0xbddba7b0	-0.10725343
73	0xbe55ce98	-0.2087959
74	0x3d3ba8cd	0.045815278
75	0xbdf08fa7	-0.117461495
76	0x3e300da3	0.17192702
77	0x3c8f487a	0.017490614
78	0xbd172482	-0.03690005
79	0x3daa4a2c	0.083149284
80	0xbca7780d	-0.020442987
81	0xbdf30631	-0.11866415
82	0xbe834d9c	-0.2564515
83	0x3e2ad17e	0.16681477
84	0x3d54770b	0.05187134
85	0xbceb8937	-0.028751953
86	0xbd951f80	-0.07281399
87	0xbe1501d0	-0.14551473
88	0x3e5b947f	0.21443366
89	0x3d8df138	0.069307745
90	0xbd80383f	-0.06260728
91	0x3eb7a517	0.3586814
92	0x3eccd7b4	0.40008318
93	0xbe345a74	-0.1761263
94	0xbca53684	-0.020167597
95	0xbdea1394	-0.114295155
96	0x3d679ca9	0.056545887
97	0xbe71b414	-0.2360385
98	0x3df73822	0.12071253
99	0xbe47a24b	-0.19495504
100	0xbe290107	-0.16504298
101	0x3e56e144	0.2098437
102	0x3a6cefef	0.00090384384
103	0xbd9b5a3a	-0.07585569
104	0xbd86d6a7	-0.065839104
105	0x3e1512f1	0.14558007
106	0x3e4f3d70	0.2023828
107	0xbc3e4268	-0.011612512
108	0x3d4d2ec8	0.050093442
109	0xbe19457d	-0.14967914
110	0x3d3d3811	0.046196047
111	0x3e916fff	0.2840576
112	0x3ea0ce96	0.31407613
113	0x3e26cbb9	0.16288652
114	0xbc568af3	-0.0130946515
115	0xbe1016c3	-0.14071183
116	0x3e42b2a4	0.19013458
117	0xbe0a8639	-0.13527764
118	0xbdb844b8	-0.08997482
119	0xbe1a2cbf	-0.15056132
120	0x3d3b745a	0.04576526
121	0x3d2e1864	0.04250373
122	0xbdee5f13	-0.11639228
123	0x3e31ed5b	0.173757
124	0xbcfc683d	-0.030811423
125	0xbc2b1452	-0.010441856
126	0xbe3f9ae1	-0.18711425
127	0x3c8065c8	0.015673533
128	0xbe27080a	-0.1631166
129	0xbdc0e41e	-0.0941851
130	0x3d8c8211	0.06860746
131	0xbc9d10f5	-0.019173125
132	0x3df2e24f	0.11859571
133	0xbdfc40d7	-0.12317055
134	0x3e5023d1	0.20326163
135	0xbddf7fa4	-0.109130174
136	0xbded8522	-0.11597659
137	0x3d616dd9	0.0550364
138	0xbd871d98	-0.065974414
139	0xbc1d02f8	-0.009583227
140	0x3e36cfd1	0.17852713
141	0x3d6677bd	0.056266535
142	0xbe9e085c	-0.30865753
143	0xbc2a5c01	-0.010397912
144	0xbd856b3f	-0.06514596
145	0xbdebcf2e	-0.11514126
146	0x3c3737db	0.011182751
147	0x3e2116f7	0.15731417
148	0xbe503590	-0.20332932
149	0xbdea92cc	-0.114537805
150	0x3d9827bd	0.074294545
151	0xbdb2340d	-0.08701334
152	0xbe1f9150	-0.15582776
153	0x3e09fe27	0.13475858
154	0x3c8819fa	0.01661395
155	0xbcc87bfa	-0.02447318
156	0x3c6a32d2	0.014294343
157	0xbd93af92	-0.07211222
158	0x3e912146	0.28345698
159	0x3e1b565a	0.1516966
160	0x3d45fe99	0.048338506
161	0xbc935ca3	-0.017988509
162	0x3cf3110a	0.02967121
163	0x3e05e3ac	0.13075131
164	0xbc3bf230	-0.011471316
165	0xbd9d1953	-0.07670846
166	0x3dc3d24c	0.09561595
167	0xbe0bb996	-0.13645014
168	0x3cfc0151	0.030762346
169	0xbc7c92af	-0.0154158315
170	0x3c9ecb57	0.01938407
171	0x3ca7955c	0.020456962
172	0x3e570d3f	0.21001147
173	0xbe39a32a	-0.18128648
174	0x3dbb6af5	0.0915126
175	0x3e67f4ed	0.22652026
176	0x3af0bf8c	0.0018367632
177	0x3eba3a56	0.36372632
178	0xbe04d176	-0.12970528
179	0xba89ca2a	-0.001051252
180	0xbc3def61	-0.011592717
181	0x3dbfbc00	0.0936203
182	0xbe6150e9	-0.22003521
183	0x3d99e8c4	0.075151
184	0xbd33a6c2	-0.043860205
185	0xbdb3fe62	-0.08788754
186	0xbe058aba	-0.13041201
187	0xbe8cbce0	-0.2748785
188	0xbdcea8e5	-0.10090808
189	0x3e3405b8	0.17580307
190	0x3e1da4c3	0.15394883
191	0x3dd06c6c	0.1017693
192	0x3da36248	0.0797773
193	0x3d80b3b2	0.06284274
194	0xbddfdf90	-0.10931313
195	0x3e5a208d	0.2130148
196	0xbe7daa05	-0.24771889
197	0x3df2be52	0.11852707
198	0x3dd697af	0.1047815
199	0x3e2e7c0d	0.17039509
200	0x3cb8eb9c	0.022573285
201	0xbdf3d0e9	-0.11905081
202	0xba13cec9	-0.00056384184
203	0x3d9baec5	0.07601694
204	0x3da18669	0.07886965
205	0x3dfa4694	0.12220493
206	0xbe36cfba	-0.17852679
207	0x3db162f5	0.08661453
208	0xbc8d69f1	-0.01726243
209	0xbe04f178	-0.12982738
210	0x3d5685f6	0.05237385
211	0x3e216de9	0.15764584
212	0xbd0b440b	-0.034000438
213	0x3d38ba27	0.045099404
214	0x3ebaad6b	0.36460432
215	0x3e37e058	0.17956674
216	0x3c1dc8a2	0.009630354
217	0xbe1870e8	-0.1488682
218	0xbc66e8d6	-0.014093598
219	0xbe2078b4	-0.15671045
220	0x3e474a72	0.19461992
221	0x3cf9555d	0.030436212
222	0x3d8d352a	0.06894906
223	0x3c1b689d	0.009485391
224	0xbda35dd7	-0.07976883
225	0x3d88e153	0.06683602
226	0x3de57f52	0.11205925
227	0x3e2979be	0.16550347
228	0xbe27c97a	-0.16385451
229	0x3d60fa1c	0.054926023
230	0x3c9d08be	0.019169208
231	0xbde3b061	-0.11117626
232	0x3df3e500	0.11908913
233	0xbdf8fb8e	-0.12157355
234	0xbdc15918	-0.094408214
235	0x3df88204	0.121341735
236	0x3e8bc6fb	0.27300248
237	0xbdb0a38e	-0.086249456
238	0xbcd6f35b	-0.026239088
239	0x3e167bb9	0.14695634
240	0x3de8ea5b	0.11372825
241	0xbdf443f9	-0.11927027
242	0xbe93ae0b	-0.28843722
243	0xbd75e54f	-0.06003314
244	0x3ccb00b2	0.024780605
245	0xbdaa14c4	-0.08304742
246	0xbc644099	-0.013931417
247	0x3ec64f6b	0.38732466
248	0x3d0a71be	0.03379988
249	0xbdb0504d	-0.08609066
250	0xbe6d7115	-0.23187669
251	0x3d8f6b79	0.07002921
252	0x3d526c6a	0.051372923
253	0xbdda213f	-0.106508724
254	0xbdb88dd7	-0.09011429
255	0x3d7523f5	0.059848744

network_body._body_endoder.seq_layers.0.bias f4 [256]
0	0xbd197827	-0.0374681
1	0x3cfc2f68	0.030784324
2	0xbd014a26	-0.031564854
3	0xbb254660	-0.0025218949
4	0x3cebf41b	0.028802922
5	0xbcd53bc8	-0.026029482
6	0xbc848344	-0.016175874
7	0xbcae0387	-0.021241916
8	0xbc8dfb3c	-0.017331712
9	0xbc7938ef	-0.015211328
10	0x3c4aa914	0.012369413
11	0xbc5d0966	-0.01349101
12	0x3ca18371	0.019715996
13	0xbca6253e	-0.02028143
14	0x3cfb9a6c	0.030713283
15	0xbc7c19b7	-0.01538699
16	0xbb09aad7	-0.002100637
17	0x3bc9af51	0.0061549325
18	0xbc67ce01	-0.014148236
19	0xbc3d8cf2	-0.0115692485
20	0xbc309316	-0.0107772555
21	0x3cf13986	0.029446375
22	0xbc81d2ff	-0.015847681
23	0xba47a5b7	-0.0007615941
24	0xbc81cb91	-0.015844138
25	0xbc9b5af2	-0.018964265
26	0xbaba683a	-0.0014221736
27	0xbd6db906	-0.05803778
28	0xbcc4231d	-0.023942525
29	0xbb9ac1a7	-0.004722792
30	0xbc7f3adf	-0.015578001
31	0xbcde292e	-0.027119245
32	0x3d0ad176	0.033891164
33	0xbc7525cf	-0.014962628
34	0xbc932375	-0.017961243
35	0xbcaae8b9	-0.020862924
36	0xbd22ead8	-0.039774746
37	0x3c0d327f	0.008617996
38	0x3c81492a	0.015781958
39	0xbd580972	-0.052743383
40	0xbc131df3	-0.008979308
41	0xbba0db43	-0.0049089505
42	0x3d511c71	0.051052514
43	0x3b9520d7	0.004551034
44	0x3d15da22	0.03658498
45	0x3af89fc0	0.0018968508
46	0xbcb77bf4	-0.022397973
47	0xbd06c495	-0.03290232
48	0x3bf4f15c	0.0074750613
49	0xbbcc1b55	-0.006228844
50	0xbc6b042c	-0.014344256
51	0xbc21a8d6	-0.009866914
52	0xbd90065a	-0.070324615
53	0x3d21ff5e	0.039550178
54	0x3c24e3bb	0.010064061
55	0x3c87adff	0.01656246
56	0xbc8e94e0	-0.017404974
57	0xba9df097	-0.0012049851
58	0xbcb72756	-0.022357624
59	0x3c84f770	0.016231269
60	0x3bcff988	0.006346885
61	0x3cab40d6	0.02090494
62	0xbc02de76	-0.007987609
63	0xbc20163e	-0.009770928
64	0xbb6f22e0	-0.0036489293
65	0xba6165b2	-0.00085982226
66	0xbbe44a7b	-0.0069668866
67	0xbcd69121	-0.02619225
68	0xbd34da0b	-0.044153254
69	0xbbbd5582	-0.0057780156
70	0xbb52595a	-0.0032096715
71	0xbd5993cc	-0.053119466
72	0xbd4cafa6	-0.0499722
73	0xbc29b4db	-0.010358061
74	0xba728967	-0.0009252042
75	0x3c9eb462	0.019373123
76	0xbce60342	-0.028077725
77	0x3c36c547	0.011155433
78	0xbd0ac58b	-0.033879798
79	0xbd2a669e	-0.04160177
80	0xbd34ba0d	-0.044122744
81	0x3c234782	0.009965779
82	0xbc8d1e41	-0.01722634
83	0xbce0fdc5	-0.027464757
84	0x3c72ac2b	0.014811556
85	0x3b750ede	0.0037392895
86	0x3c97de02	0.018538479
87	0xbc28fa49	-0.010313579
88	0x3c8767df	0.016529022
89	0x3c9b112c	0.018929087
90	0x3c9096a4	0.017649956
91	0xbaa73905	-0.0012758082
92	0xbbdac471	-0.0066762497
93	0x3c96c462	0.01840419
94	0xbc1abf87	-0.009445078
95	0xbb214299	-0.0024606346
96	0xbd9bd1ee	-0.076084
97	0xbca2bec6	-0.019866358
98	0x3a206a2a	0.00061193353
99	0xbc88117e	-0.016609903
100	0xbd026e3e	-0.031843416
101	0x3c83c111	0.016083272
102	0xbc173c94	-0.009230752
103	0xbc4d28c1	-0.0125219235
104	0x3d389bba	0.045070387
105	0xbcaa7c6b	-0.02081128
106	0xbaaedf84	-0.0013341759
107	0xbc536d10	-0.0129044205
108	0xbc23b498	-0.009991787
109	0xbc43991a	-0.011938358
110	0x3bf12cc0	0.007360071
111	0xbb0177c0	-0.0019755214
112	0x3cfeb1d7	0.03109066
113	0xbd407f89	-0.046996627
114	0xbe13865d	-0.14406724
115	0x3c8bba58	0.017056629
116	0x3d3244dc	0.0435227
117	0xbc12d784	-0.008962516
118	0x3cadb746	0.021205556
119	0xbb995af7	-0.0046800333
120	0xbc02a06f	-0.007972821
121	0x3c617411	0.013760583
122	0xbc0b2e43	-0.008494916
123	0xbcae3e76	-0.021270018
124	0x3c5fac43	0.01365191
125	0xbc580694	-0.013185162
126	0x3cc8cdf2	0.024512265
127	0xbc99a73c	-0.018756501
128	0xbcb20b1f	-0.021733819
129	0xbd12733c	-0.035754427
130	0xbcab1321	-0.020883145
131	0xbc21f5a2	-0.009885224
132	0xbbb072a3	-0.0053847595
133	0xba0f29c6	-0.0005461242
134	0xbcf39ef2	-0.029738877
135	0xbc85a872	-0.016315673
136	0x3cfd1032	0.030891512
137	0x3cab77d3	0.02093116
138	0xbc4d1709	-0.012517699
139	0xbccc674b	-0.024951598
140	0x3c8b3ea0	0.016997635
141	0xbd1e0a07	-0.03858378
142	0xbbb67551	-0.0055681844
143	0x3c98b6f4	0.018641926
144	0xbcb22f99	-0.021751212
145	0xbd0b1698	-0.033957094
146	0x3d2c7edb	0.042113166
147	0xbaa633dd	-0.0012680251
148	0xbc38d14c	-0.011280369
149	0xbd043d69	-0.032285128
150	0xb98a3108	-0.00026357942
151	0x3bb12d01	0.005406976
152	0x3d23799f	0.03991091
153	0x3b95cd99	0.0045716283
154	0x3af1931d	0.0018430684
155	0xbc8a34ab	-0.016870817
156	0x3d0c4a8c	0.03425078
157	0xbdeb2df5	-0.11483375
158	0xb9b92786	-0.00035315397
159	0xbcac3752	-0.021022473
160	0x3b1d5674	0.002400783
161	0x3c3fe4d5	0.011712273
162	0x3d1781b7	0.03698894
163	0x3b8e2e98	0.0043390505
164	0x3c0bf0cf	0.0085413
165	0x3b32d6b8	0.0027288627
166	0xbc72feb6	-0.014831236
167	0xbd572830	-0.05252856
168	0xbbb240f3	-0.0054398715
169	0xbca57e33	-0.020201778
170	0x3bb72c05	0.0055899643
171	0x3d0b8c92	0.034069605
172	0xbbd7da10	-0.0065872744
173	0x3c28bc31	0.010298775
174	0xbcfdae50	-0.030966908
175	0xbb50e07d	-0.0031872087
176	0x3c5eb2dd	0.013592449
177	0x3d481ea3	0.048857342
178	0xbd15e06f	-0.03659099
179	0xbb0a3db3	-0.0021093905
180	0x3b27ff9e	0.0025634537
181	0xbd2468f9	-0.040139172
182	0xbbb60971	-0.0055553247
183	0x3c7a84be	0.015290437
184	0xbcfa0efc	-0.030524723
185	0xbcbed5bc	-0.023295276
186	0xbcdb6b81	-0.02678466
187	0xbbb4c6d2	-0.0055168653
188	0x3c548f80	0.012973666
189	0xba6b21f2	-0.0008969597
190	0x3c80fbd8	0.015745088
191	0xbccc06a8	-0.024905518
192	0x3cfaad18	0.030600116
193	0x3ce9d24d	0.028542662
194	0xbb8f47cc	-0.0043725725
195	0x39638961	0.00021699585
196	0xbdd0d76e	-0.1019734
197	0xbc8a7484	-0.016901262
198	0xbbe6fd3d	-0.0070492313
199	0x3d18cb9b	0.03730355
200	0x3c23c861	0.0099965045
201	0xb9ad4a55	-0.00033052513
202	0xbc92abc6	-0.017904174
203	0xbd0044a5	-0.031315465
204	0x3c5ce758	0.013482891
205	0xbca768a5	-0.02043564
206	0x3b88f28b	0.004179304
207	0x3c9b3428	0.018945768
208	0x3d1dae79	0.03849647
209	0x3c4b3be4	0.012404416
210	0xbbf024e8	-0.0073286183
211	0xbbe7ecd5	-0.007077793
212	0xbc9a54f1	-0.018839331
213	0xbd2354d3	-0.039875817
214	0xbc84ef3c	-0.016227357
215	0x3c3cd828	0.011526145
216	0x3cf95506	0.03043605
217	0xbd05fcfe	-0.032711975
218	0x3c8822b3	0.016618108
219	0xbc98fd65	-0.018675515
220	0x3c3073cb	0.010769795
221	0xbd3d063f	-0.046148535
222	0x3d0baa06	0.034097694
223	0x3ce67d54	0.028135933
224	0xbc454bfd	-0.012042043
225	0x3cfe8ef7	0.03107403
226	0xbcd6349e	-0.026148137
227	0xbe2dee66	-0.16985473
228	0xbc90fca1	-0.017698588
229	0xbcfb93af	-0.03071007
230	0xbd003161	-0.03129709
231	0xbaa5f56c	-0.0012661642
232	0xbbf52e68	-0.0074823387
233	0x3cbd775c	0.023128204
234	0xbc815c7a	-0.015791167
235	0xbd46f30e	-0.04857164
236	0xbcc4dc42	-0.024030808
237	0xbd55bb1f	-0.052180406
238	0xbb4c24a7	-0.0031149776
239	0xbd19b668	-0.03752747
240	0xbd06f5be	-0.0329492
241	0x3cce8acf	0.025212673
242	0xbc3a7e49	-0.011382648
243	0x3ceffb4f	0.029294638
244	0x3cac2f70	0.021018714
245	0xbd1953d1	-0.03743345
246	0x3bbfc97e	0.005852877
247	0x3b66cbae	0.0035216617
248	0xbca50c2e	-0.02014741
249	0x3cc1b03d	0.023643607
250	0xbc2529f7	-0.010080806
251	0xbcaa8401	-0.020814897
252	0x3c38eb5a	0.011286581
253	0xbc93cc67	-0.018041803
254	0x3c873c90	0.01650837
255	0xbc80fd1a	-0.015745688

network_body._body_endoder.seq_layers.2.weight f4 [256, 256]
0	0xbaa19a14	-0.0012329244
1	0xbd918a1a	-0.07106419
2	0x3d871ea1	0.06597639
3	0xbdd4714d	-0.10373173
4	0xbc28f0f2	-0.010311352
5	0xb9199c65	-0.00014649479
6	0x3db1a9f2	0.086749926
7	0xbc382309	-0.011238822
8	0x3d831cfd	0.064020135
9	0x3d2d7b98	0.042354196
10	0xbe02bc4a	-0.12767139
11	0x3d87c5d3	0.06629529
12	0x3de2023e	0.11035584
13	0xbd242184	-0.040071025
14	0x3e0326fa	0.12807837
15	0x3d94d892	0.0726787
16	0xbe220db7	-0.15825544
17	0xbca49a65	-0.020093152
18	0xbc413874	-0.011793245
19	0x3d9f592f	0.07780682
20	0x3a9761a3	0.0011549484
21	0x3c988f8b	0.018623134
22	0x3d4342e4	0.047671214
23	0xbe3c36a5	-0.1838022
24	0x3d4f91ef	0.050676282
25	0x3da63c9d	0.0811703
26	0x3dca8c78	0.098900735
27	0x3cc91ef3	0.02455089
28	0xbd2d8b1f	-0.042369004
29	0x3e1d6720	0.1537137
30	0xbdfcc00c	-0.123413175
31	0x3da9b15d	0.082857825
32	0x3dfb84a6	0.1228116
33	0x3e006a18	0.12540472
34	0xbce4d31d	-0.027932698
35	0xbcc5d726	-0.024150442
36	0xbc8f558c	-0.017496847
37	0x3ccb2f10	0.024802715
38	0xbdb72369	-0.08942301
39	0xbd2691f2	-0.040666528
40	0xbd0dff78	-0.034667462
41	0xbdb4b552	-0.088236466
42	0x3d40c92f	0.047066864
43	0xbb5db363	-0.0033828847
44	0xbd125927	-0.035729554
45	0xbcf4c4f6	-0.029879075
46	0x3d42602d	0.047455
47	0x3dafc399	0.08582229
48	0xbe047186	-0.12933931
49	0x3dab2ce7	0.08358174
50	0x3ded9743	0.116011165
51	0xbe259bfa	-0.16172782
52	0xbda707ae	-0.08155762
53	0xbd028ec1	-0.031874422
54	0xbd638084	-0.055542484
55	0xbc25a6c5	-0.010110562
56	0x3bb74883	0.005593361
57	0xbdbdbd3e	-0.09264611
58	0x3dee9924	0.11650303
59	0xbb68deb1	-0.0035533125
60	0xbd411717	-0.04714116
61	0x3d57062b	0.052496117
62	0xbc189964	-0.009313915
63	0x3db693a0	0.08914876
64	0xbdb17c66	-0.08666305
65	0x3e2d3d90	0.16918015
66	0xbc9248f7	-0.017857058
67	0x3de73084	0.112885505
68	0x3dc40261	0.09570766
69	0x3da2d297	0.07950323
70	0x3de67a98	0.11253852
71	0xbdc11865	-0.09428481
72	0xbd871902	-0.06596567
73	0xbdba963f	-0.091106884
74	0x3d12880d	0.03577428
75	0x3df16b32	0.11788024
76	0xbd512408	-0.051059753
77	0x3c187f0d	0.009307635
78	0x3bbca757	0.005757253
79	0xbdb2f966	-0.08738975
80	0xbc11e720	-0.008905202
81	0xbdd2b99e	-0.1028931
82	0x3cb2cf7d	0.021827454
83	0xbd9b7589	-0.075907774
84	0xbbbb6385	-0.0057186508
85	0xbd918d0f	-0.07106983
86	0xbda9d1a0	-0.08291936
87	0xbcf3c230	-0.029755682
88	0x3d01ea54	0.031717613
89	0x3c8d4b14	0.017247714
90	0x3dcf72a1	0.101292856
91	0xbcb61a8f	-0.022229461
92	0x3b061f87	0.002046557
93	0x3d15c7ce	0.0365675
94	0xbcbbf7d9	-0.022945331
95	0xbdb55692	-0.088544026
96	0x3ded9c75	0.116021074
97	0x3d05875f	0.032599803
98	0x3ddd4e02	0.108058944
99	0x3c4d639a	0.012535954
100	0xbcdbaf1e	-0.0268169
101	0xbce21967	-0.027600003
102	0xbc257dff	-0.010100841
103	0x3c868d56	0.016424816
104	0xbdaf9d07	-0.085748725
105	0xbd719a6d	-0.058985163
106	0x3d50e23a	0.050996996
107	0xbb3b9204	-0.0028620968
108	0xbdb6434e	-0.08899556
109	0x3d87a02b	0.066223465
110	0x3b7e54e6	0.0038807928
111	0xbccea2c5	-0.025224099
112	0x3dc8516c	0.09781155
113	0x3a18d908	0.000583068
114	0xbddfd7a5	-0.10929803
115	0xbe173ce7	-0.14769326
116	0x3de8a266	0.113591
117	0xbe13ce4a	-0.14434162
118	0x3dd4fe18	0.10400027
119	0x3d67675e	0.056495063
120	0x3dbae9ab	0.091266
121	0xbdd6ac93	-0.10482135
122	0xbd43cf58	-0.04780516
123	0x3ba3822e	0.004989884
124	0xbcc3fee1	-0.023925247
125	0xbda5f7da	-0.081039146
126	0xba7c9b76	-0.00096362026
127	0xbcf6a4d2	-0.03010789
128	0x3d98ceb8	0.074613035
129	0xbd7e37e4	-0.06206502
130	0x3c06d5dc	0.008229699
131	0x3d90716f	0.07052886
132	0xbcc393e3	-0.023874229
133	0x3e09fafb	0.13474648
134	0x3daa4197	0.083132915
135	0x3d040292	0.032229014
136	0x3de187ff	0.11012267
137	0xbd83bbaf	-0.06432282
138	0x3d83fe94	0.06445041
139	0x3c32f912	0.010923641
140	0xbbca0f07	-0.006166342
141	0x3cba9a21	0.022778573
142	0x3daa7576	0.08323185
143	0x3c41272f	0.011789127
144	0x3d066fcc	0.03282146
145	0x3d21725c	0.039415702
146	0x3ccc1faf	0.024917452
147	0xbdc7432e	-0.097296104
148	0xbc4dbf0b	-0.012557755
149	0xbd605bc3	-0.05477501
150	0x3de5cd59	0.112208076
151	0xbe234332	-0.15943602
152	0x3c2237c3	0.00990099
153	0x3d12c677	0.035833802
154	0xbe190661	-0.1494384
155	0xbd96ef96	-0.07369916
156	0x3d9989e7	0.07497006
157	0x3cf6ef00	0.030143261
158	0x3e1c53fd	0.15266414
159	0x3c72dcef	0.0148231825
160	0xbd055e74	-0.03256078
161	0x3d2c2079	0.042023156
162	0xbdb2bca1	-0.08727384
163	0x3dc0b88f	0.09410202
164	0x3d0456bf	0.03230929
165	0x3d96e56a	0.07367976
166	0xbb29972f	-0.0025877466
167	0xbe1ee16f	-0.15515684
168	0xbdfcb513	-0.12339225
169	0xbd8c274b	-0.06843432
170	0x3cb58ac4	0.022160895
171	0xbc149e0e	-0.009070886
172	0x3c8f05b7	0.01745878
173	0xbd98b18b	-0.07455739
174	0xbd8e59f1	-0.06950749
175	0xbdbbc6c2	-0.091687694
176	0xbd4256bc	-0.047445998
177	0x3c45e2cd	0.012077999
178	0xbe1af155	-0.15131123
179	0xbd96cb56	-0.07363002
180	0xbcf9a751	-0.03047529
181	0xbcdf4fdb	-0.027259758
182	0x3dc1fa79	0.09471602
183	0x3dcd3a9d	0.10020945
184	0x3caaad00	0.020834446
185	0xbd1d19ec	-0.0383548
186	0xbce41573	-0.027842259
187	0xbab4b191	-0.0013785829
188	0xbd72b55a	-0.05925498
189	0x3d8b6f91	0.06808389
190	0x3d247755	0.040152866
191	0xbdd61e69	-0.10455019
192	0x3dce7e33	0.10082664
193	0x3cb7839e	0.022401627
194	0xbda743ba	-0.08167215
195	0xbdb0a4c5	-0.08625177
196	0xbc91300b	-0.017723104
197	0xbd7264e5	-0.05917825
198	0xbda59005	-0.0808411
199	0x3db65f1f	0.08904862
200	0x3d3d0db8	0.04615566
201	0x3c8a37b7	0.01687227
202	0x3dab79f0	0.08372867
203	0x3d59d212	0.053178854
204	0x3bfa6554	0.007641474
205	0xbcae28ec	-0.021259747
206	0xbdc67014	-0.09689346
207	0x3d87b43f	0.06626176
208	0xbd69e70a	-0.0571051
209	0x3d60f7ca	0.05492381
210	0x3dc66dcd	0.096889116
211	0xbbc3ec61	-0.0059791063
212	0xbd6a08fe	-0.057137482
213	0x3c7ba0b5	0.01535814
214	0xbcb80091	-0.022461208
215	0xbcdb4e67	-0.026770784
216	0x3d57c189	0.052674804
217	0x3d3e70a8	0.046494156
218	0xbdc35c6b	-0.09539112
219	0xbcd0ce0e	-0.02548888
220	0x3d39b7d9	0.045341346
221	0xbe0f4174	-0.13989812
222	0x3d0a444d	0.033756543
223	0xbcf88106	-0.03033496
224	0xbdc049fa	-0.0938911
225	0xbcc63726	-0.024196219
226	0x3c03caf1	0.0080439905
227	0xbdc1a7fc	-0.094558686
228	0xbc997e9b	-0.018737128
229	0xbe02cccf	-0.12773441
230	0x3c8980a5	0.016784975
231	0xbd5d68a4	-0.05405487
232	0xbcac361f	-0.0210219
233	0x3cac597f	0.021038769
234	0xbd0747ed	-0.03302758
235	0x3a71d81a	0.0009225622
236	0xbcab2ed2	-0.02089635
237	0xbc3960d1	-0.011314587
238	0xbe76bfd2	-0.24096611
239	0xbd677f35	-0.0565178
240	0xbdc47c98	-0.09594077
241	0xbe24f6e2	-0.16109803
242	0xbc2e4a78	-0.010637872
243	0x3d34cf47	0.044142988
244	0x3e21e002	0.15808108
245	0xbc9a8cb1	-0.018865915
246	0xbca59501	-0.020212652
247	0x3d875791	0.06608499
248	0xbdaa6f6e	-0.08322035
249	0x3c95301c	0.018211417
250	0xbcca9a67	-0.024731828
251	0xbb5110ce	-0.0031900886
252	0x3d83a052	0.06427063
253	0x3db065d1	0.0861317
254	0xbd47b537	-0.048756804
255	0xbcacd7f9	-0.021099078

network_body._body_endoder.seq_layers.2.bias f4 [256]
0	0xbc8c7de8	-0.01714988
1	0xbbb95806	-0.005656245
2	0xb9186a30	-0.00014535408
3	0xbc8f7ac4	-0.017514594
4	0xbb0d51d3	-0.0021563664
5	0x3b76ed38	0.0037678014
6	0x3c4bd7c2	0.012441577
7	0xbcf4614d	-0.029831553
8	0xbc89146d	-0.016733373
9	0x3c4abe0c	0.012374412
10	0xbc4489d2	-0.01199575
11	0xbc026150	-0.007957771
12	0x3a29f177	0.00064828194
13	0xbba30a94	-0.0049756262
14	0xbc6226f9	-0.013803237
15	0xbd0987e9	-0.03357688
16	0xbc92f025	-0.017936775
17	0xbc5b0678	-0.0133682415
18	0xbcb7708b	-0.022392532
19	0xbd01eb55	-0.03171857
20	0xbba3ac17	-0.00499488
21	0xbcd54a48	-0.026036397
22	0x3cae0e4a	0.021247048
23	0xbca30252	-0.019898567
24	0xbc6f70fd	-0.014614341
25	0x3c2d3918	0.010572694
26	0xbcf92812	-0.030414615
27	0xb884d302	-6.333554e-05
28	0xbcb645b7	-0.02225004
29	0x3baa1282	0.0051901946
30	0xbbfb16f8	-0.00766265
31	0x3c40c69c	0.011766102
32	0xbc8daadc	-0.017293386
33	0xbd364f80	-0.04450941
34	0xbcb8c97f	-0.022557018
35	0xbc196553	-0.0093625365
36	0xbb2be943	-0.0026231564
37	0xbc38ad3e	-0.011271773
38	0xbc8c2a38	-0.017109975
39	0xbcc998c0	-0.02460897
40	0x3c29e8fa	0.010370487
41	0xbc2dd462	-0.010609718
42	0xbd122863	-0.035683047
43	0xbcbfb044	-0.02339948
44	0xbae7c95f	-0.0017683915
45	0xbcdafe05	-0.026732454
46	0xbc6dc928	-0.014513291
47	0x3c8df7ed	0.017330134
48	0xbcd3037b	-0.025758496
49	0xbb3def85	-0.0028981876
50	0xbc8bd898	-0.017071053
51	0xbb6ab968	-0.0035816077
52	0xbcaefb3e	-0.021360036
53	0xbc520d20	-0.012820512
54	0xbb248069	-0.0025100952
55	0xbc8c4ef8	-0.017127499
56	0xbc95b53b	-0.018274894
57	0xbc2c5536	-0.010518363
58	0xbcb61330	-0.022225946
59	0xbcb07117	-0.0215383
60	0xbb8fd177	-0.004388984
61	0x3ab3293f	0.0013668909
62	0xbbc1047f	-0.0058904286
63	0xbcc71043	-0.024299746
64	0xbcc03368	-0.023462012
65	0xbcdddad9	-0.027081894
66	0xbbc748a5	-0.006081658
67	0x3b521678	0.003205685
68	0xbc44ad2b	-0.012004177
69	0xbcb84479	-0.022493588
70	0xbc0887e6	-0.008333182
71	0xbbdbf44f	-0.0067124735
72	0x3c4511be	0.012028156
73	0xbcda439f	-0.026643572
74	0xbc83c410	-0.0160847
75	0xbca99395	-0.020700255
76	0xbc9865a7	-0.01860316
77	0xbd365383	-0.044513237
78	0xbccc30e4	-0.024925657
79	0x3c8d38c2	0.017238978
80	0x3c031842	0.008001389
81	0x3bb970d0	0.0056592003
82	0xbc9bc59d	-0.019015128
83	0xbc954799	-0.018222617
84	0xbb81028e	-0.003937072
85	0xbd0da6f6	-0.034583054
86	0x3d43776e	0.04772132
87	0xbb1682c5	-0.0022966128
88	0xbd291cd0	-0.041287243
89	0xbccda97a	-0.025105227
90	0x3c00a38a	0.007851491
91	0xbc867d0a	-0.016417045
92	0x3c0e163e	0.008672295
93	0x3c17edf4	0.009273041
94	0xbbaa89ba	-0.0052044066
95	0xbc0ab72d	-0.008466524
96	0xbc18a961	-0.009317727
97	0xbb428e2a	-0.0029686787
98	0xbc702c9e	-0.014659075
99	0xbc550f66	-0.01300416
100	0xbcf06bac	-0.029348217
101	0x3a7f8d85	0.0009748566
102	0x3c64a477	0.013955227
103	0x3ba0b159	0.004903954
104	0xbca66cd9	-0.020315574
105	0x391f2d61	0.00015180327
106	0xba1778da	-0.0005778201
107	0xbc5caba9	-0.013468661
108	0xbce4d147	-0.027931822
109	0xbd0a07aa	-0.033698715
110	0xbbf05f31	-0.0073355664
111	0xbc8c6c8f	-0.017141609
112	0xbc21408b	-0.009842048
113	0xbc5165f5	-0.012780656
114	0xbc88f027	-0.016716076
115	0xbbb58179	-0.005539116
116	0x3b4ba41d	0.003107316
117	0xbc64f581	-0.013974548
118	0x3c5b7105	0.013393645
119	0xbbf6415b	-0.007515115
120	0x3af35488	0.0018564621
121	0x3c9faa20	0.019490302
122	0xbcfc866b	-0.030825814
123	0xbcb3fbb4	-0.021970607
124	0x3bad9ec5	0.005298468
125	0xbc872169	-0.016495423
126	0xbcd14a51	-0.025548132
127	0x3b0cc061	0.0021476971
128	0xbc0bfc41	-0.008544029
129	0xbcbc95d9	-0.023020672
130	0x3c6842b5	0.01417606
131	0xba34e2d2	-0.0006900254
132	0xbca0c521	-0.019625248
133	0xbbf8bc68	-0.007590819
134	0xbad5e107	-0.0016317674
135	0xbc75db54	-0.015005905
136	0xbca49b36	-0.020093542
137	0xbcd9b1ee	-0.026574101
138	0xbc68b6e6	-0.014203763
139	0xbcd09582	-0.025461916
140	0xbbbe8b51	-0.0058149477
141	0xbc5b6c92	-0.013392584
142	0x3b88e81e	0.004178061
143	0xbc871f22	-0.016494337
144	0xbcadad2d	-0.02120074
145	0x3ac2bcdc	0.001485731
146	0xbc9a1a98	-0.018811509
147	0xbcadf0d6	-0.021233004
148	0xbccc234a	-0.02491917
149	0x3c1de7a8	0.009637751
150	0xbcad4052	-0.021148834
151	0xbc92178b	-0.017833492
152	0xbc29c6dd	-0.010362354
153	0xba8e7bf7	-0.0010870685
154	0x3c7c7d94	0.0154107995
155	0x3c000b84	0.007815246
156	0xbc57caf8	-0.01317095
157	0x39c36ca3	0.0003727424
158	0xbcbcd95b	-0.023052862
159	0xbaa2c742	-0.0012419003
160	0xbc8a7dc8	-0.01690568
161	0xbc0abaa6	-0.008467352
162	0xbc8eea39	-0.01744567
163	0xbc9c5aed	-0.019086326
164	0xbcc1b7b0	-0.02364716
165	0xbb9ffa2d	-0.004882118
166	0xbc34b3cc	-0.011029195
167	0x3c87c260	0.016572177
168	0xbd0250a6	-0.031815194
169	0xbc1c8257	-0.00955256
170	0xbc04b602	-0.008100035
171	0xbcfaa509	-0.030596273
172	0xbcd3a5c6	-0.025835883
173	0xbca64aac	-0.020299278
174	0xbd1aba47	-0.037775304
175	0xbafe0b34	-0.0019382001
176	0xbcb5a8b6	-0.022175174
177	0x3bcdb1aa	0.0062772827
178	0xbcbdacbf	-0.02315366
179	0xbcbbde02	-0.02293301
180	0xbcd4f909	-0.025997655
181	0xbaf00daa	-0.0018314619
182	0x3930faff	0.00016878171
183	0x3aa55be0	0.0012615882
184	0xbca6b4b3	-0.020349836
185	0xbcb52fc1	-0.022117497
186	0xbce9d628	-0.0285445
187	0xbcd780fb	-0.02630662
188	0xbaed63a9	-0.0018111366
189	0xbc8074a6	-0.015680622
190	0xbc7bed0c	-0.015376341
191	0x3bc3ba1a	0.005973113
192	0x3b874e2c	0.004129192
193	0xbc91c4e1	-0.017794074
194	0xbb0c5f5a	-0.0021419139
195	0xbc93e2b2	-0.018052433
196	0x3bb66cc0	0.005567163
197	0xbc11929f	-0.008885055
198	0xbd04dbcd	-0.03243618
199	0x3c08c1b7	0.0083469665
200	0xbc229ce5	-0.009925102
201	0xbcc1216f	-0.023575513
202	0x3b0f0688	0.0021823961
203	0xbcdbb747	-0.026820792
204	0xbc79cbe9	-0.01524637
205	0xbd6c5f15	-0.057707865
206	0xb98280b8	-0.00024891435
207	0xbcfa4fd6	-0.030555647
208	0xbb0f82a7	-0.0021897943
209	0xbcb05d77	-0.021528943
210	0x3bdfa2ff	0.0068248506
211	0xbc84e86c	-0.016224109
212	0xbd2bfd83	-0.041989814
213	0xbd0dcb19	-0.034617517
214	0xbc0461a0	-0.008079916
215	0xbd030cd8	-0.03199467
216	0x3c46792a	0.012113849
217	0xbc3c103e	-0.011478482
218	0xbbbf3792	-0.005835482
219	0xbcd91db3	-0.02650342
220	0x3a80c020	0.0009822883
221	0xbba05359	-0.0048927483
222	0xbc442407	-0.01197148
223	0xbc2b3b2b	-0.010451118
224	0x3c5cbfb5	0.013473441
225	0xbbabca57	-0.0052426266
226	0xbc0ad744	-0.008474175
227	0xbc460295	-0.012085577
228	0x3c2e323c	0.010632094
229	0x3b312c29	0.0027034378
230	0xbc4d0d35	-0.012515356
231	0x3ba3823c	0.0049898904
232	0x3b778c63	0.0037772886
233	0xbcbab2bd	-0.022790307
234	0xbcdea4a4	-0.027178116
235	0xbc0d60c7	-0.008629031
236	0xbbe1cfbb	-0.0068912185
237	0xbc4266c0	-0.011865318
238	0xbc118c2b	-0.008883516
239	0xbc8b91d6	-0.017037313
240	0xbc5149a9	-0.01277391
241	0xbce1583d	-0.027507896
242	0xbd04dd6d	-0.03243773
243	0xbcc2ac45	-0.023763785
244	0xbccf5890	-0.025310785
245	0xbc6b3a3d	-0.014357147
246	0x3cb53244	0.022118695
247	0xbd01eff5	-0.03172298
248	0xbc7fe968	-0.015619613
249	0xbcc201ee	-0.02368256
250	0xbbc267ae	-0.0059327697
251	0xbc022bee	-0.007945044
252	0xbbbd4a74	-0.005776698
253	0x3c307996	0.010771176
254	0xbce67125	-0.028130123
255	0xbd04c599	-0.032415006

action_model._discrete_distribution.branches.0.weight f4 [3, 256]
0	0x3a09e77c	0.0005260629
1	0xbcb056fa	-0.021525849
2	0xbda62c47	-0.08113914
3	0xbc979834	-0.018505193
4	0xbd835663	-0.06412961
5	0xbd6ef697	-0.058340635
6	0xbc70321b	-0.014660384
7	0x3c208d30	0.009799287
8	0x3cc414c5	0.023935685
9	0xbd6aac56	-0.05729326
10	0x3d19afc1	0.037521128
11	0xbccdd471	-0.025125714
12	0x3cd608c7	0.026127232
13	0x3c2a5076	0.01039516
14	0x3a2756a2	0.0006383454
15	0x3b3508cd	0.0027623654
16	0xbbc78150	-0.0060884133
17	0xbc50b11e	-0.0127375405
18	0x3ca18fc1	0.019721868
19	0xbca6d4c8	-0.020365134
20	0xba7275fb	-0.0009249148
21	0x3cf588c7	0.029972447
22	0x3c934de8	0.017981485
23	0xbb3e369a	-0.0029024244
24	0xbd15ea54	-0.036600426
25	0xbd145f80	-0.03622389
26	0x3b917777	0.00443929
27	0xbb60797e	-0.0034252102
28	0x3c8ed733	0.0174366
29	0xbcf6196d	-0.03004142
30	0xbd1a4c92	-0.03767068
31	0xbd01e93c	-0.03171657
32	0x3d7ea6be	0.062170736
33	0x392b790a	0.00016352921
34	0x3d715f74	0.05892892
35	0x3c335dca	0.010947654
36	0xbd20970d	-0.039206553
37	0xbcd8f84d	-0.026485587
38	0x3d38bc64	0.04510154
39	0xbd22b40e	-0.039722495
40	0xbd6d6e78	-0.05796668
41	0x3d722c97	0.059124555
42	0x3b9bdf83	0.0047568693
43	0xbb92293a	-0.004460481
44	0x3ce5fa2f	0.028073398
45	0x3cfc3ff0	0.030792207
46	0xbccd95fd	-0.025095934
47	0xbd01a77c	-0.031653866
48	0xbc17c419	-0.009263062
49	0xbd5bd505	-0.053669948
50	0x3cf6f25a	0.03014486
51	0xbcbc541b	-0.022989323
52	0x3ccbf952	0.024899159
53	0x3c96f95f	0.018429456
54	0xbc1aebb9	-0.009455615
55	0xbc645001	-0.01393509
56	0xbd46af76	-0.048507176
57	0xbca915c2	-0.020640258
58	0x3d66afb6	0.056319915
59	0x3c36d485	0.011159067
60	0xbb819514	-0.003954539
61	0xbc878872	-0.016544554
62	0xbd0f4353	-0.034976315
63	0x3ca76fa0	0.02043897
64	0xbb2f75d5	-0.0026773114
65	0xbc9ae3b4	-0.018907405
66	0x3c7a4e69	0.0152774835
67	0xbd612d4e	-0.054974847
68	0x3a383d6d	0.0007028196
69	0x3c65af03	0.014018777
70	0xbd156a6e	-0.036478452
71	0x3c1ba0f8	0.009498827
72	0xbd0f30dc	-0.034958705
73	0xbcffe40f	-0.031236676
74	0x3c221c4e	0.009894444
75	0x3c861fc4	0.016372569
76	0x3cdeacbe	0.02718198
77	0x3c3bed3b	0.011470134
78	0xbc1205a1	-0.008912475
79	0xbca5ef77	-0.020255787
80	0xbcf5e894	-0.030018128
81	0x3cc8428f	0.0244458
82	0x3cd9c3f2	0.026582692
83	0x3c8b6e73	0.01702044
84	0xbd470ed5	-0.04859813
85	0x3b96d27a	0.0046027275
86	0xbd140513	-0.03613765
87	0xbc3d7725	-0.011564051
88	0x3bd699b5	0.006549085
89	0x3d550b0f	0.0520125
90	0xbcaed338	-0.021340951
91	0xbc86034a	-0.01635899
92	0x3c40d8d9	0.0117704505
93	0xbd2c3a09	-0.042047534
94	0xbd18bc99	-0.037289236
95	0x3d3763b0	0.044772804
96	0xbbba9657	-0.0056941914
97	0x3c3cd36a	0.011525014
98	0xbcb539a7	-0.022122217
99	0xbc7abb95	-0.015303512
100	0xbb6e131e	-0.0036327313
101	0xbd13ae4d	-0.036054898
102	0xbd45c700	-0.048285484
103	0xbd94baa6	-0.07262163
104	0x3d1a7f2d	0.03771894
105	0x392eeb3c	0.00016681565
106	0xbd4883c1	-0.048953775
107	0xbca2bd75	-0.01986573
108	0x3c15a44d	0.009133411
109	0x3bc6ba13	0.0060646622
110	0x3c8e0dd1	0.017340573
111	0xbc3ce4f1	-0.011529193
112	0x3b97d8bb	0.0046339906
113	0x3bef94f8	0.0073114596
114	0x3d118b45	0.03553321
115	0x3c885d18	0.016645953
116	0xbcda4f08	-0.026649013
117	0x3c29c712	0.0103624035
118	0x3c27bb10	0.01023747
119	0xbd64a8f7	-0.0558252
120	0xbd71700a	-0.05894474
121	0x3ad7e185	0.0016470408
122	0xbb75940c	-0.0037472276
123	0xbb52e07e	-0.0032177265
124	0x3c048301	0.008087874
125	0x3cd6bcae	0.026213016
126	0xbd72a36c	-0.059237882
127	0xbc54583e	-0.012960492
128	0xbc92a3ec	-0.01790043
129	0xbc43e3d2	-0.011956172
130	0xbd07e676	-0.03317877
131	0xbc974b74	-0.018468596
132	0xbc07fbaf	-0.008299752
133	0x3d53ca9f	0.051706906
134	0xbcd69a2b	-0.02619656
135	0xbbd75353	-0.0065712123
136	0xbc37063a	-0.011170918
137	0xbc5fc1b2	-0.01365702
138	0xbbfd24d3	-0.007725337
139	0x3d29c3cd	0.041446496
140	0xbcbada2d	-0.022809112
141	0x3c47c448	0.012192793
142	0xbcc8ee0c	-0.024527572
143	0x3c9ba718	0.019000575
144	0xbd31971c	-0.043357
145	0xbbfc6d3b	-0.007703451
146	0x3cbcce78	0.02304767
147	0xbd00d459	-0.03145251
148	0x3d16205b	0.03665195
149	0x3d0c2d47	0.034222867
150	0x3c4b4603	0.012406829
151	0x3c7cf866	0.015440082
152	0xbbf52b84	-0.007481994
153	0xbd36a748	-0.044593126
154	0xbc82a9c1	-0.015950086
155	0xbd3f4752	-0.046698876
156	0x3aa87e95	0.0012855107
157	0x3c0e5805	0.008687978
158	0x3b0c079d	0.0021366843
159	0x3ca16be7	0.019704772
160	0x3d14cdc2	0.03632904
161	0xbcd25fc0	-0.025680423
162	0x3c8cd651	0.017192038
163	0xbb27b925	-0.0025592532
164	0xbcbd5cc1	-0.023115518
165	0xbbc9ce76	-0.0061586453
166	0x3ca069ad	0.01958164
167	0x3cf0edd0	0.029410273
168	0x3cd80011	0.02636722
169	0x3cd5f165	0.026116082
170	0x3b969998	0.0045959465
171	0xbd08d993	-0.03341062
172	0xbb42628b	-0.0029660787
173	0xbcbfb778	-0.023402914
174	0x3cb8e965	0.022572229
175	0x3b8f512c	0.00437369
176	0xbd365f6a	-0.044524588
177	0xbc97fa24	-0.018551894
178	0xbc585149	-0.013202974
179	0xbca80e4c	-0.02051463
180	0xbc4ba07c	-0.012428399
181	0xbd181f78	-0.037139386
182	0x3c45fae8	0.0120837465
183	0xbced1fae	-0.02894577
184	0xbc9d6396	-0.019212525
185	0xbcd8635e	-0.02641457
186	0x36c78458	5.946069e-06
187	0x3c976bdc	0.018484049
188	0xbce70881	-0.028202297
189	0xbb6e1d22	-0.0036333282
190	0x3ca41184	0.020027883
191	0xbd802c0f	-0.062584035
192	0x3ca63dbd	0.020293111
193	0xbd07553a	-0.033040263
194	0x3ae24bac	0.0017264984
195	0x3cebbcd3	0.028776562
196	0x3ce08ada	0.02740996
197	0x3d387f05	0.04504301
198	0x3cacc667	0.0210907
199	0x3c73a191	0.014870063
200	0xbcb70ee5	-0.02234597
201	0x3cd1305d	0.025535757
202	0x3cb3c312	0.021943603
203	0xbc83dfb1	-0.016097875
204	0xbc75bce5	-0.014998649
205	0xbb8a8b80	-0.0042280555
206	0xbcd39652	-0.025828514
207	0xbcb2956f	-0.021799771
208	0x3ca791ea	0.02045532
209	0x3d25198b	0.040307563
210	0x3d1ae354	0.037814453
211	0xbbf88e1b	-0.0075852997
212	0x3c4d7d99	0.012542152
213	0x3b547e38	0.0032423865
214	0x3c8b9361	0.01703805
215	0x3d10d895	0.0353628
216	0x3c6095db	0.013707603
217	0x3d52c3a7	0.05145612
218	0xbc8b6506	-0.017015945
219	0x3c9162a4	0.01774723
220	0xbcda988c	-0.026684068
221	0xbd42d453	-0.04756577
222	0x3cef61f4	0.029221512
223	0xbc97ed97	-0.018545909
224	0x3b7bd9dd	0.0038429417
225	0x3c0e9085	0.008701448
226	0xbd186ea8	-0.037214905
227	0xbd163eb8	-0.036680907
228	0x3cc56183	0.024094349
229	0xbce59923	-0.028027123
230	0xbc419340	-0.011814892
231	0xbd502f2d	-0.05082624
232	0x3b9d51ce	0.0048010116
233	0xbc8600df	-0.016357837
234	0xbc696f2d	-0.014247698
235	0x3bd0f07f	0.0063763256
236	0x3c95ba08	0.018277183
237	0xbb8de9c8	-0.0043308474
238	0x3b5767db	0.00328683
239	0x3bf5c269	0.007499982
240	0x3c49a737	0.0123079335
241	0xbc8be6e9	-0.01707788
242	0xbbeb3b3d	-0.0071786926
243	0x3c7ceaa3	0.015436801
244	0xbcc0bdbe	-0.023527976
245	0x3d85f366	0.06540565
246	0x3c37ce57	0.011218629
247	0x3cf4bdbb	0.029875627
248	0xbcdc86ab	-0.026919683
249	0xbca8d3b3	-0.020608759
250	0xbd484f7a	-0.04890392
251	0x3c0c44cc	0.008561324
252	0xbbebc415	-0.0071950057
253	0xbc7a6aa2	-0.015284212
254	0x3c262d54	0.010142643
255	0x3cc5c811	0.02414325

action_model._discrete_distribution.branches.0.bias f4 [3]
0	0xbce42a47	-0.02785219
1	0x3ce995b2	0.028513763
2	0x3b756732	0.0037445542

action_model._discrete_distribution.branches.1.weight f4 [3, 256]
0	0xbd3a0c91	-0.04542214
1	0xbc7f6001	-0.015586854
2	0xbd06aaaf	-0.03287762
3	0xbc5462af	-0.012962981
4	0xbc813c5f	-0.015775857
5	0xbcbdbba1	-0.023160757
6	0xbc87bbbd	-0.016569013
7	0x3b621a07	0.0034500377
8	0x3bd31cdf	0.0064426507
9	0xbdb1eded	-0.08687959
10	0x3d4f6eb0	0.05064267
11	0xbd32c2a2	-0.043642648
12	0x3d4f1372	0.050555654
13	0x3d0dc010	0.034606993
14	0x3cd54d5a	0.02603786
15	0x3d1afa61	0.037836436
16	0xbc67c8a1	-0.014146955
17	0xbc250d67	-0.010073996
18	0x3c14a620	0.00907281
19	0xba2c1744	-0.0006564746
20	0x3d88e0e6	0.06683521
21	0xbd1d925e	-0.038469665
22	0x3d473ad1	0.048640076
23	0x3c701a19	0.01465466
24	0xbd63e207	-0.05563548
25	0x3954008d	0.000202181
26	0xbd4f7efd	-0.050658215
27	0x3ca112a9	0.019662218
28	0xbcfa0503	-0.030519968
29	0xbcc704b3	-0.024294233
30	0xbd2dc2a4	-0.042421952
31	0xbc95cd2a	-0.018286306
32	0x3d0521e2	0.032503016
33	0xbb5fa9e2	-0.0034128358
34	0x3c9553fd	0.018228525
35	0xbbe30420	-0.006927982
36	0xbb9a635e	-0.0047115525
37	0x3d70ecf2	0.05881972
38	0xbb2e755b	-0.0026620242
39	0xbd0b5cd9	-0.034024093
40	0xbd769159	-0.060197208
41	0xbc8053ce	-0.015664961
42	0x3d3b63a2	0.045749314
43	0x3b4f6572	0.003164616
44	0x3be53ea3	0.0069959923
45	0x3d064681	0.03278208
46	0xbcceb5eb	-0.02523323
47	0x3d10e1dd	0.03537165
48	0xbd468179	-0.04846332
49	0xbd072583	-0.03299476
50	0xbcce097a	-0.025151003
51	0x3d9f4c76	0.07778256
52	0xbbc91b0c	-0.0061372574
53	0xba90ffba	-0.001106254
54	0xbd16e530	-0.036839664
55	0x3d11f0de	0.0356301
56	0xbd7d9e47	-0.061918523
57	0x3d1a3876	0.0376515
58	0x3c504d1a	0.012713695
59	0xbd4e4612	-0.050359793
60	0x3b903491	0.0044007977
61	0xbd3e2c3f	-0.046428915
62	0xbcdd801e	-0.02703863
63	0xbcbe7f1a	-0.023253966
64	0xbd0e4e0b	-0.034742396
65	0xbd0d67ff	-0.034523007
66	0xbd0b6e75	-0.034040887
67	0xbd7365b3	-0.05942316
68	0xbc03632a	-0.008019248
69	0xbd438d4c	-0.047742173
70	0xbcd621c6	-0.026139151
71	0xbc3aac2d	-0.011393589
72	0xbd51960d	-0.05116849
73	0xbcf0cdfd	-0.029395098
74	0xbd20c15e	-0.03924691
75	0xbbb73ec9	-0.0055922014
76	0xbcf1acb2	-0.029501293
77	0x3c9aee24	0.018912382
78	0xbc84c6d0	-0.016208082
79	0x3d0290df	0.03187644
80	0x3d1f7067	0.038925555
81	0x3cb4dbd1	0.022077473
82	0x3c4b229b	0.012398387
83	0xbbb12a75	-0.0054066726
84	0x3c2f44a2	0.010697516
85	0x3d04e24a	0.03244237
86	0x3d232f6a	0.03984014
87	0xbc83d078	-0.016090617
88	0x3bd3511f	0.0064488794
89	0xbd236384	-0.039889827
90	0x3d209599	0.039205167
91	0xbd1cac93	-0.038250517
92	0x3b904bce	0.004403568
93	0xbcd96e77	-0.026541932
94	0xbcb10763	-0.021609968
95	0x3cbb26cc	0.022845648
96	0xbc5ee48d	-0.013604295
97	0x3c1052cc	0.008808803
98	0x3cd6d4ae	0.02622446
99	0xbd8d1d0a	-0.068903044
100	0x3d174b59	0.03693709
101	0xbd3412d9	-0.043963287
102	0xbc654239	-0.0139928395
103	0xbc6c0987	-0.014406568
104	0xbd16ac4a	-0.0367854
105	0xbc727c8e	-0.014800204
106	0xbd374c00	-0.044750214
107	0xbd80a6b4	-0.06281796
108	0xbbf10a12	-0.007355937
109	0x3ce6d6ce	0.028178599
110	0xba465bec	-0.0007566798
111	0xbb362091	-0.0027790407
112	0x3da44f76	0.080229685
113	0x3ca61325	0.0202728
114	0xbae0487a	-0.0017111443
115	0x3cc2fea1	0.023803057
116	0xbd93ee88	-0.072232306
117	0xbcdee9fe	-0.027211186
118	0x3cd17246	0.025567185
119	0xbc58d355	-0.013233979
120	0x39e1d5e9	0.0004307472
121	0x3ce69edf	0.028151928
122	0xbb0eb1d6	-0.002177348
123	0xbcf1e891	-0.029529842
124	0x3c5bd263	0.013416859
125	0x3d7999a2	0.06093753
126	0xbca9daa8	-0.020734146
127	0xbc6e81b0	-0.014557287
128	0xbcc697e5	-0.02424235
129	0x3d0638f9	0.032769177
130	0xbc32f903	-0.010923627
131	0xbd72467f	-0.05914926
132	0xbc66843e	-0.014069615
133	0x3d1923a1	0.037387494
134	0xbcea3c97	-0.028593345
135	0xbc359d7d	-0.011084911
136	0x3d96bc94	0.07360187
137	0xbd109774	-0.035300687
138	0xbcae52b2	-0.021279667
139	0xbd09ec92	-0.033672877
140	0xbcc16540	-0.02360785
141	0xbc8eb219	-0.017418908
142	0xbcf840d4	-0.03030435
143	0xbd316734	-0.043311313
144	0xbacf3862	-0.001580965
145	0x3d20400e	0.039123587
146	0x3c898344	0.016786225
147	0xbd6dc39e	-0.058047883
148	0xbbebcd2d	-0.0071960897
149	0xbcd690f1	-0.02619216
150	0xbcc4d62f	-0.024027912
151	0x3c5875aa	0.013211647
152	0xbd56d0e8	-0.052445322
153	0xbc2978b2	-0.010343717
154	0x3d81b68f	0.063336484
155	0x3d56be0d	0.05242734
156	0x3ceed768	0.029155448
157	0x39a3642c	0.00031164417
158	0xb9c99480	-0.0003844835
159	0xbc15e310	-0.009148374
160	0x3c0d9d43	0.008643451
161	0x3d507c1b	0.050899606
162	0xbd4f9e3d	-0.050688017
163	0xbd772538	-0.06033823
164	0x3cf84ee3	0.030311054
165	0x3bcf8eea	0.0063341754
166	0x3b27ccaf	0.0025604179
167	0x3d3be8b1	0.04587621
168	0xbc9f4d33	-0.019445991
169	0x3b648398	0.0034868475
170	0xbd8983d3	-0.067145966
171	0xbd0cde39	-0.034391616
172	0x3cfbcc43	0.030737048
173	0xbcbd00f5	-0.023071745
174	0x3c77cae5	0.015124057
175	0xbd465286	-0.048418544
176	0x3c106ac3	0.0088145165
177	0xbd51ebc9	-0.051250253
178	0xbc83a23b	-0.016068568
179	0xbd150a87	-0.036386993
180	0xbc9bee46	-0.019034516
181	0x3bd9c268	0.0066454895
182	0x3d526313	0.051364016
183	0x3cca8671	0.02472231
184	0xbd0604a8	-0.032719284
185	0x3c285538	0.010274224
186	0xbd31fe10	-0.043455184
187	0x3c35d0a8	0.011097111
188	0x3d81b6ff	0.06333732
189	0xbcd28889	-0.02569987
190	0x3d1da5e5	0.038488287
191	0x3c7b1b0e	0.015326275
192	0x3c39b80c	0.011335384
193	0x3b49c77f	0.0030789075
194	0x3db5e5bd	0.0888171
195	0x3bbc763c	0.0057513993
196	0x3cc62da4	0.024191685
197	0xbbe34366	-0.0069355248
198	0x3d04749d	0.032337774
199	0x3c22e92a	0.009943286
200	0xbd1c0057	-0.03808626
201	0xbd2351c5	-0.039872903
202	0x3c1d44bb	0.009598906
203	0xbce488e2	-0.027897302
204	0x3ad1cd60	0.0016006641
205	0xbbbb99c0	-0.0057251155
206	0xbcc42aab	-0.023946127
207	0xbca7ff3b	-0.020507446
208	0x3d09490b	0.033516925
209	0x3d1f0b42	0.038829096
210	0xbd10bbee	-0.035335474
211	0xbbad3bca	-0.0052866684
212	0x3ce91952	0.028454456
213	0x3cff923d	0.031197662
214	0xbd465b22	-0.048426755
215	0xbce86dd4	-0.028372683
216	0x3d29a4b8	0.041416854
217	0xbc7c300f	-0.015392317
218	0xba933d30	-0.0011233445
219	0xbb806dc7	-0.0039193365
220	0x3983313e	0.00025022955
221	0xbd83ae34	-0.06429711
222	0x3b4ba755	0.003107508
223	0xbb62032f	-0.003448676
224	0x3d339760	0.043845534
225	0x3afeeb41	0.0019448773
226	0xbccf22a9	-0.025285082
227	0xbc41d5d7	-0.011830769
228	0xbb896011	-0.00419236
229	0xba421f17	-0.00074051454
230	0xbcdafcb4	-0.026731826
231	0xbd20eb12	-0.03928668
232	0x3ca9cac6	0.020726573
233	0xbcec1404	-0.028818138
234	0x3cda9105	0.026680479
235	0xbce2f342	-0.027703885
236	0xbcea0081	-0.028564693
237	0x3cb97a39	0.022641288
238	0x3cf76df4	0.030203797
239	0x3c0b3de0	0.008498639
240	0x3d39e37d	0.045382965
241	0xbd15d298	-0.03657779
242	0x3c9229a7	0.017842127
243	0xbd1b6204	-0.03793527
244	0xbd14e03d	-0.036346663
245	0xbc1c2377	-0.00952994
246	0x3c79644f	0.015221669
247	0x3d6dddf1	0.058072988
248	0xbbe0c0ec	-0.0068589356
249	0xbc090351	-0.008362607
250	0xbc66400d	-0.014053357
251	0xbcfd003a	-0.030883897
252	0xbd0801d7	-0.03320488
253	0xbc312c30	-0.010813758
254	0xbc6d6b3b	-0.014490898
255	0x3d44e0fa	0.048066117

action_model._discrete_distribution.branches.1.bias f4 [3]
0	0xbb542ded	-0.0032376007
1	0x3b1a45e6	0.0023540198
2	0x3b61bb31	0.003444385

action_model._discrete_distribution.branches.2.weight f4 [2, 256]
0	0xbbbb6bba	-0.005719629
1	0xbd2a1a53	-0.04152901
2	0xbd4f1736	-0.050559245
3	0xbd206001	-0.039154056
4	0xbce8a0a6	-0.028396916
5	0xbbd9d7c0	-0.006648034
6	0xba60badd	-0.00085727667
7	0xbc611e95	-0.0137402015
8	0x3d84916b	0.06473049
9	0x3a7744fc	0.0009432582
10	0x3d84b7b9	0.06480355
11	0xbcaa7f7c	-0.020812742
12	0x3d6a2079	0.057159875
13	0x3dd4cc46	0.103905246
14	0x3cc40512	0.023928199
15	0xbd1f8511	-0.03894526
16	0x3a99a0d3	0.0011720903
17	0xbbe1c898	-0.0068903677
18	0x3c180363	0.009278151
19	0xbc46ce13	-0.012134093
20	0x3c0f2709	0.008737334
21	0x3b01a04a	0.0019779378
22	0x3dfd760b	0.123760305
23	0x3d0d0b18	0.034434408
24	0xbd8a7ed1	-0.067624696
25	0x3c4ab3f1	0.012372003
26	0xbc28a5d6	-0.010293445
27	0x3d4f11d9	0.05055413
28	0x3c881ac2	0.016614322
29	0xbc172931	-0.009226129
30	0xbcce9bdc	-0.025220804
31	0xbd0bca1b	-0.03412829
32	0xbd26bc57	-0.04070696
33	0xbd12c400	-0.03583145
34	0xbd20514e	-0.03914004
35	0x3db08b07	0.08620267
36	0x3c15f8ae	0.009153528
37	0x3caf00bb	0.021362653
38	0xbcaf3d74	-0.021391608
39	0xbd7b6ebf	-0.061384913
40	0xbc27667f	-0.010217308
41	0xbc85f0c4	-0.016350158
42	0x3b2d3edb	0.002643517
43	0x3caebfce	0.021331694
44	0x3db29732	0.087202445
45	0xbd50c657	-0.0509704
46	0xbb94934c	-0.0045341607
47	0xbc0c6077	-0.008567921
48	0xbcabe9ab	-0.020985445
49	0x3aab4b36	0.0013068679
50	0x3d04a183	0.032380592
51	0x3be974ad	0.0071245045
52	0xbcafc0b5	-0.021454195
53	0xbd050cae	-0.032482795
54	0x3cd5a40b	0.026079198
55	0x3d57ea29	0.052713547
56	0xbd7857bb	-0.06063054
57	0x3c752708	0.014962919
58	0x3aef5a80	0.0018261224
59	0x3cc69d77	0.024245007
60	0x3c8a5a8b	0.016888877
61	0xbc2bd4f0	-0.01048778
62	0xbd768d9e	-0.06019365
63	0xbcb34a78	-0.021886095
64	0xbd0b11cc	-0.03395252
65	0xbd584880	-0.052803516
66	0x3c3f59b6	0.011679104
67	0xbbadab45	-0.005299958
68	0x3c266f53	0.010158378
69	0xbb313fdb	-0.0027046117
70	0xbc4b4b52	-0.0124080945
71	0x3bea9f5c	0.0071601104
72	0x3cff8e0c	0.031195663
73	0xbc4e12ed	-0.012577754
74	0xba5727a2	-0.0008207505
75	0xbca1b95b	-0.019741705
76	0xbd0da604	-0.034582153
77	0xbc61b714	-0.013776559
78	0xbaf52b14	-0.0018704855
79	0x3d89bbe3	0.0672529
80	0x3be653a4	0.0070290137
81	0x3d9b244e	0.07575284
82	0x3d45dea8	0.048308045
83	0x3ba596a1	0.0050533568
84	0x3cd10d5e	0.02551907
85	0xbbec8725	-0.007218259
86	0x3e0816b7	0.13289915
87	0xbae9bf7f	-0.001783356
88	0xbcae97e4	-0.021312661
89	0xbc9c3141	-0.019066455
90	0x3cbd0c6e	0.023077216
91	0xbcae4086	-0.021271002
92	0x3c6b74c9	0.0143711055
93	0x3c9987a2	0.018741433
94	0x3c34c477	0.011033169
95	0xbaaaac01	-0.0013021232
96	0xbd83ed3c	-0.06441733
97	0x3d9ef790	0.077620625
98	0x3d5fa9c8	0.054605275
99	0x3b6ab852	0.003581543
100	0xbbdae363	-0.0066799386
101	0xbd240cb4	-0.040051177
102	0x3cf8cbb5	0.030370573
103	0xbcc38e8f	-0.023871688
104	0xbc56e4f7	-0.013116113
105	0x3c746bcf	0.014918282
106	0xbc82da47	-0.015973223
107	0xbc0632a3	-0.008190784
108	0xbbdd4e52	-0.0067537213
109	0x3cbb5dee	0.022871938
110	0x3d120509	0.035649333
111	0x3d8df749	0.069319315
112	0xbb9f31a6	-0.0048582135
113	0xbbc4d582	-0.0060068974
114	0x3cbd79b0	0.023129314
115	0x3c872cf7	0.016500933
116	0xbd03651f	-0.03207886
117	0xbc7c6bdd	-0.015406576
118	0x3e121e4a	0.14269367
119	0xbd4bd8bd	-0.049767245
120	0xbc3cfba1	-0.011534602
121	0x3e06f178	0.1317805
122	0xbc4200a4	-0.011840973
123	0xbba23e80	-0.0049512982
124	0x3d64b253	0.055834126
125	0x3d2178d1	0.03942186
126	0xbcf7cd4f	-0.030249266
127	0x3c4b7713	0.012418526
128	0xbbb306b6	-0.0054634465
129	0xbb0e3beb	-0.0021703194
130	0x3c936d5a	0.017996479
131	0xbd18099a	-0.03711853
132	0xbd128afd	-0.03577708
133	0xbc631323	-0.013859543
134	0xbcf3b010	-0.02974704
135	0x3d4d0653	0.05005486
136	0x3cdaf1f3	0.026726699
137	0xbbc2503a	-0.005929974
138	0xbbc866f6	-0.0061157895
139	0x3b43fd5c	0.0029905653
140	0x3cc4c5c6	0.024020087
141	0x3cf5b33a	0.029992688
142	0x3be5b194	0.0070096944
143	0xbc972f53	-0.018455183
144	0xbd247c55	-0.040157635
145	0x3dca409e	0.09875606
146	0x3d0d90cf	0.03456193
147	0xbd61a927	-0.055092957
148	0x3c75e4ac	0.015008133
149	0x3b8c87a1	0.004288629
150	0xbc164fc5	-0.009174292
151	0x3d1bb0df	0.038010474
152	0xbd2e95ca	-0.04262332
153	0xbca52ee0	-0.020163953
154	0x3dbaa312	0.091131344
155	0x3cb3c774	0.021945693
156	0x3cae5726	0.02128179
157	0x3bb9bce8	0.0056682713
158	0xbc37b916	-0.0112135615
159	0x3d65cfd6	0.05610641
160	0x3d9d2260	0.07672572
161	0xbc01cd0f	-0.007922425
162	0xbd1935ea	-0.037404932
163	0xbcd7b20f	-0.026330022
164	0x3bccb2c2	0.0062468955
165	0xbb04b6f5	-0.0020250652
166	0x3d819428	0.06327087
167	0xba741ff3	-0.0009312622
168	0x3ca1686c	0.019703113
169	0x3d957086	0.07296853
170	0x3b0630af	0.0020475795
171	0xbd43a754	-0.047767
172	0xbc405a84	-0.011740331
173	0xbcb37a6f	-0.021908967
174	0xba4a28b0	-0.00077117514
175	0x3c22273a	0.009897048
176	0xbcd24054	-0.02566544
177	0xbc0c5e43	-0.008567396
178	0xbcfdf214	-0.03099922
179	0xbc3225d2	-0.010873275
180	0xbd0e3ba9	-0.034724865
181	0xbc3a01e9	-0.0113529945
182	0x3dcffa87	0.10155206
183	0x3c63f146	0.013912505
184	0xbcc4aa1f	-0.024006901
185	0xbd660c54	-0.0561641
186	0x3cb6e7ec	0.022327386
187	0xbd1de5f7	-0.03854939
188	0x3bd1cae1	0.006402359
189	0xbc83c44a	-0.016084809
190	0x3a0fca23	0.0005485138
191	0xbd2460d8	-0.04013142
192	0x3dd0e2ce	0.101995096
193	0x3c8777d5	0.016536633
194	0x3c8c2ac7	0.017110242
195	0xba9e7b41	-0.0012091176
196	0x3d99118e	0.074740514
197	0x3d7e9a55	0.0621589
198	0x3b17d2b8	0.002316637
199	0x3d8c9700	0.068647385
200	0xbd3a9c40	-0.045559168
201	0x3a917758	0.0011098189
202	0x3d1aecbb	0.03782342
203	0x3bacc799	0.0052728173
204	0xbc101989	-0.008795151
205	0xbd404d79	-0.046948884
206	0x3b2759be	0.0025535668
207	0xbd506c62	-0.050884612
208	0x3d02320c	0.03178601
209	0x3c13d02f	0.009021803
210	0x3d044de6	0.032300852
211	0xbd11d5d6	-0.03560432
212	0xbccef242	-0.025262002
213	0xbca86a32	-0.02055845
214	0x3b86e5af	0.004116736
215	0x3d24e75e	0.04025971
216	0x3ddf24aa	0.10895665
217	0x3ba5404c	0.005043065
218	0xbc0e5cd7	-0.008689127
219	0x3c1da4fc	0.009621855
220	0xbc822a06	-0.015889179
221	0xbd01fd4f	-0.031735715
222	0xbc14f392	-0.009091275
223	0xbb1b5233	-0.0023700118
224	0x3d9faae4	0.07796267
225	0x3bf266e6	0.0073975204
226	0xbd87dd12	-0.06633963
227	0xbd18060a	-0.037115134
228	0x3d995e4f	0.07488691
229	0x3c8911a0	0.016732037
230	0xbd44a033	-0.04800434
231	0xbc268c4d	-0.010165286
232	0x3d8cc0b0	0.0687269
233	0x3c26d545	0.010182683
234	0xbce7e165	-0.028305719
235	0x3c422294	0.011849064
236	0x3ae096aa	0.0017134745
237	0x3d124efa	0.03571985
238	0x3c1152bd	0.008869824
239	0x3b22c4be	0.0024836506
240	0x3cf09cd5	0.029371658
241	0xbcf4e79f	-0.029895602
242	0xbba87637	-0.0051410454
243	0x3ca1781d	0.019710595
244	0xbd262c17	-0.04056939
245	0xbcc7765e	-0.024348434
246	0x3e0910c5	0.13385303
247	0xb9cd8c7e	-0.00039205322
248	0x3b0c0069	0.002136255
249	0xbcc77f54	-0.024352707
250	0xbd0b113e	-0.03395199
251	0xbb7ddc88	-0.0038736183
252	0xbce2c063	-0.027679628
253	0xbd0403ae	-0.03223007
254	0xbd0a2bbe	-0.033733122
255	0xbc8f3abe	-0.017484065

action_model._discrete_distribution.branches.2.bias f4 [2]
0	0x3d351933	0.044213485
1	0xbd351934	-0.04421349
