results/buttonPress_2/ButtonPress/ButtonPress-238515.onnx (onnx, 352736 bytes, 13 tensors)

discrete_act_size_vector f4 [1, 4]
3.0 3.0 2.0 2.0
00000000: 0000 4040 0000 4040 0000 0040 0000 0040

network_body._body_endoder.seq_layers.0.weight f4 [256, 65]
0.12816699 -0.058472883 -0.0050806254 0.07565914 -0.16022244 -0.016687164 -0.12123181 0.03948162
0.1874885 -0.05925069 0.18478914 0.006925657 0.079399936 0.03856797 0.14842516 0.07046877
-0.12528083 0.110520385 0.17978698 0.10825592 0.13042417 0.015304784 0.33857727 -0.14168838
-0.19560535 -0.18822157 0.24880365 -0.094809555 -0.052361798 0.026369989 0.13863419 0.16072206
-0.017303076 -0.17891449 -0.034506287 -0.022257302 0.07950774 -0.019862643 0.25504798 0.2395849
0.20940028 0.30387035 0.009941703 -0.051658943 0.087743364 0.023791341 -0.0483038 -0.05998199
0.014318472 0.05997558 -0.060855437 0.05825441 -0.012865912 -0.1460179 0.13382371 0.024538724
0.08902578 0.118858285 0.043036483 -0.020847358 -0.08536443 -0.011292554 -0.12970197 0.08526006
-0.1605563 -0.14399497 -0.14086185 -0.12131859 0.13180713 0.15109804 -0.009163415 0.19689587
0.23653667 0.24375647 -0.1735663 0.07893258 0.0987006 0.027539775 0.15512258 -0.0060490696
0.002363862 0.06690848 0.13980788 -0.018114176 0.103256404 -0.14914204 0.117314264 0.0010823412
-0.2721475 -0.034370854 -0.032791585 -0.07682577 -0.06579974 0.062022787 0.18297611 0.016929287
-0.0028555999 0.1262991 0.18502273 0.08696217 -0.015214229 -0.120452166 0.08701207 -0.11461913
0.099811986 -0.18800716 0.22800933 -0.0043770624 0.028428055 -0.23148295 -0.12098741 0.09820246
0.058045767 0.43494284 -0.08130935 -0.08261058 0.18794988 -0.06929418 0.076229684 0.0658167
-0.2451238 0.0055045225 0.2119214 -0.1661263 0.0020754 0.03454915 0.14550515 0.16667762
-0.100415885 -0.120127894 -0.14652857 -0.013507442 -0.090211734 -0.031403426 -0.047109913 0.164711
-0.084511824 -0.16024296 -0.06877788 -0.12948737 0.009696331 -0.03641864 -0.0008238562 0.054258928
-0.032795854 -0.1236164 0.041419663 0.07113854 0.12686102 -0.011131468 -0.25925115 -0.049421523
-0.10109167 0.16229028 0.081668876 -0.011089358 0.19435868 0.22126806 -0.157912 -0.0027630574
-0.16271108 0.054390784 0.029364277 0.04167608 -0.013803306 -0.02325611 0.042294092 -0.00884964
-0.03587912 -0.0143869165 -0.09937645 -0.06334575 -0.083277464 -0.088740274 0.13187398 0.17546019
-0.23934278 0.19216937 -0.029427102 -0.061862223 -0.3679866 -0.20730983 -0.038562723 -0.0891377
-0.012561619 0.21247278 0.037938 0.09701576 -0.054821055 -0.20061974 -0.00474972 -0.27532163
-0.0070850695 0.09320115 -0.015976468 -0.2126486 -0.2645351 -0.189665 0.035404757 -0.099449605
-0.03414758 -0.054956935 -0.004395529 -0.14570886 -0.11599588 0.1191969 0.011139212 -0.31342074
0.102767535 -0.03861325 0.053255484 -0.16274531 0.10788015 0.022111556 0.041452408 0.056495544
0.04090686 0.11326683 0.19085443 0.20451313 0.18642187 -0.18708445 -0.093024224 0.004153742
-0.12230827 -0.07253497 0.14939024 0.23692387 0.11311245 -0.14592582 -0.0931163 0.25544533
-0.14759323 -0.04728355 -0.10390773 -0.053298473 0.18886575 0.030301468 -0.011195159 -0.1458279
0.35391274 -0.063937075 0.014040633 0.04682551 -0.20679899 0.03016517 -0.07982075 0.11216165
0.025966346 0.2612076 0.13610362 -0.09442012 -0.2513123 -0.18387477 0.02306571 -0.11607097
00000000: 353e 033e 4381 6fbd 607b a6bb 2ef3 9a3d
00000010: 5a11 24be 85b3 88bc 6248 f8bd 7bb7 213d
00000020: fcfc 3f3e dab0 72bd 5d39 3d3e 9ff0 e23b
00000030: 6f9c a23d 73f9 1d3d c4fc 173e ee51 903d
00000040: 9e49 00be 8358 e23d 141a 383e 48b5 dd3d
00000050: ea8d 053e ebc0 7a3c 005a ad3e c216 11be
00000060: c54c 48be 28bd 40be 62c6 7e3e 832b c2bd
00000070: 5379 56bd e005 d83c 1ff6 0d3e 5394 243e
00000080: 2ebf 8dbc 5c35 37be 7756 0dbd f254 b6bc
00000090: f4d4 a23d fbb6 a2bc a695 823e be55 753e
000000a0: 076d 563e e594 9b3e 86e2 223c 5498 53bd
000000b0: cbb2 b33d 0fe6 c23c 35da 45bd adaf 75bd
000000c0: 0698 6a3c f4a8 753d 8d43 79bd 2d9c 6e3d
000000d0: 8ccb 52bc b785 15be 1509 093e 6f05 c93c
000000e0: 2653 b63d f96b f33d 0647 303d 14c8 aabc
000000f0: 8cd3 aebd 6804 39bc 98d0 04be d49c ae3d
00000100: df68 24be 6b73 13be 173e 10be e275 f8bd
00000110: 73f8 063e 72b9 1a3e 2622 16bc 129f 493e
00000120: ab36 723e 4c9b 793e 5dbb 31be 68a7 a13d
00000130: 8a23 ca3d 189b e13c 74d8 1e3e 4637 c6bb
00000140: 06eb 1a3b 5007 893d cc29 0f3e 2e64 94bc
00000150: 1878 d33d b1b8 18be 7642 f03d 58dd 8d3a
00000160: eb56 8bbe 74c8 0cbd 7850 06bd d456 9dbd
00000170: 04c2 86bd 9b0b 7e3d 175e 3b3e 4aaf 8a3c
00000180: 0425 3bbb 8d54 013e 9976 3d3e 3919 b23d
00000190: 1a45 79bc a0af f6bd 6233 b23d 6fbd eabd
000001a0: 3a6a cc3d f384 40be 477b 693e 766d 8fbb
000001b0: f4e1 e83c de09 6dbe 3fc8 f7bd 5f1e c93d
000001c0: 66c1 6d3d d4b0 de3e 8485 a6bd bc2f a9bd
000001d0: ef75 403e 1bea 8dbd 4f1e 9c3d e8ca 863d
000001e0: bc01 7bbe 485f b43b ec01 593e 031d 2abe
000001f0: 6f03 083b 6983 0d3d 4dff 143e 8aad 2a3e
00000200: d8a6 cdbd 9d05 f6bd 960b 16be 514e 5dbc
00000210: eec0 b8bd e1a0 00bd 53f6 40bd 00aa 283e
00000220: 8914 adbd bb16 24be 6bdb 8cbd 5698 04be
00000230: 5cdd 1e3c b62b 15bd 0ef8 57ba 9c3e 5e3d
00000240: f254 06bd 982a fdbd aaa7 293d 15b1 913d
00000250: dbe7 013e c360 36bc 91bc 84be 396e 4abd
00000260: 2609 cfbd 6c2f 263e 0342 a73d 23b0 35bc
00000270: f605 473e 1894 623e afb3 21be 6914 35bb
00000280: bc9d 26be dfc8 5e3d 5a8d f03c 8ab4 2a3d
00000290: 4327 62bc 9983 bebc 923c 2d3d 15fe 10bc
000002a0: fcf5 12bd 1ab7 6bbc e185 cbbd 6bbb 81bd
000002b0: 608d aabd 76bd b5bd f909 073e d6ab 333e
000002c0: 4616 75be 0cc8 443e 1b11 f1bc 3e63 7dbd
000002d0: bd68 bcbe 0749 54be f2f3 1dbd d48d b6bd
000002e0: 40cf 4dbc 7792 593e e064 1b3d 33b0 c63d
000002f0: 0b8c 60bd 436f 4dbe 8aa3 9bbb f5f6 8cbe
00000300: df29 e8bb 3fe0 be3d 15e1 82bc 8ec0 59be
00000310: 2571 87be 8b37 42be 9404 113d 3cac cbbd
00000320: 55de 0bbd 861a 61bd 5f08 90bb b434 15be
00000330: 3f8f edbd 811d f43d 3e81 363c af78 a0be
00000340: c977 d23d ed28 1ebd 6c22 5a3d b5a6 26be
00000350: 45f0 dc3d 4b23 b53c 00ca 293d df67 673d
00000360: f48d 273d 71f8 e73d 586f 433e e46b 513e
00000370: 60e5 3e3e 1193 3fbe 7c83 bebd 1d1c 883b
00000380: c27c fabd 378d 94bd c1f9 183e 2c9c 723e
00000390: 80a7 e73d 946d 15be c2b3 bebd bbc9 823e
000003a0: ae22 17be 65ac 41bd 93cd d4bd 804f 5abd
000003b0: 0666 413e c93a f83c e66b 37bc e953 15be
000003c0: 0d34 b53e 71f1 82bd af0a 663c 1bcc 3f3d
000003d0: 1dc3 53be f21c f73c 1079 a3bd 02b5 e53d
000003e0: 60b7 d43c 01bd 853e bf5e 0b3e 565f c1bd
000003f0: 01ac 80be ab49 3cbe 4df4 bc3c 9eb6 edbd

network_body._body_endoder.seq_layers.0.bias f4 [256]
0.010304714 -0.009096065 0.011277415 0.01538295 0.011595667 0.0161779 0.0037933718 0.0008420696
0.028211173 0.027749414 0.020598384 0.021693088 0.0054451535 0.0033496302 -0.008313892 0.02091229
0.008517202 0.005335912 0.00511822 -0.0008313389 0.01596088 -0.0031304737 0.0075118034 0.009208718
-0.017853087 0.016151762 -0.003462793 0.002008033 0.01297698 0.009387697 -0.0007404057 -0.007635373
0.005843103 -0.016018584 -0.002098519 -3.6228128e-05 0.027968751 0.016359994 0.009835266 0.007807886
0.011206903 0.008307421 0.019817617 0.0038226692 -0.011637865 0.008363254 0.0026223592 -0.0035164116
0.009955362 0.0035991047 0.013944336 0.010088611 -0.029562775 -0.0055633103 -0.014892465 -0.033090614
0.003388718 -0.007010997 0.0033080687 0.0003071483 0.023559334 0.019763954 0.008017441 0.0012521341
-0.02199377 0.00907089 -0.0073279655 0.0046108537 -0.009223795 0.0054123676 0.0045375936 0.020405548
0.0014175483 -0.0045201275 0.020855535 -0.00097382325 -0.010333019 -0.015181126 -0.018586582 -0.014693452
-0.0033217967 0.02973359 -0.0006790869 0.0040124133 -0.02160805 0.019493025 0.037708648 0.0029477812
0.0022455894 0.0033176176 -0.037408777 -0.007687137 0.0014716536 0.004089102 -0.01058962 0.0061894306
-0.0056047826 -0.013456121 -0.0011852897 -0.021569898 0.014660068 0.021353772 0.005813367 0.0023588436
0.0091451835 -0.037861343 -0.013163574 0.03228671 -0.0017178794 -0.0010994296 -0.046544086 0.007952468
0.021482956 0.023023013 -0.00042164096 0.014151513 -0.016417213 -0.003422131 0.007830263 -0.0006388491
0.035200495 0.017195519 -0.010054472 -0.0062383646 0.009424903 0.008950836 -0.016690249 -0.0042854105
0.0061275037 -0.0047216904 0.026904779 0.010164187 -0.022386119 -0.0090107415 -0.0071061417 0.018076185
0.03024782 -0.0137906615 0.029219504 0.016770255 0.024563758 -0.0072400384 0.0071851937 0.02523548
-0.0053251847 0.013268777 -0.002566084 -0.006555878 0.0015825661 0.0057092193 -0.0042171353 0.016095525
-0.0021023997 -0.011799799 0.0058759456 0.00515973 0.044341657 0.031604767 0.026367672 -0.008104647
0.010854824 -0.00044791758 -0.010729214 -0.008084265 0.0014574046 -0.0071194805 0.0044645662 -0.004229487
-0.008261359 -0.035096377 0.024349352 0.018753499 0.022784539 0.0046192403 -0.0056075864 0.0071727885
0.0030599358 0.0049210116 0.010819173 0.007111007 0.0063180267 -0.0015424256 -0.0048953677 0.026160846
0.003755748 0.008762559 0.00673061 0.008409978 0.017986666 0.0031141967 0.0031733913 -0.0013060409
0.0059254947 0.000717648 0.0029898908 0.020452589 0.012845567 -0.009237065 0.018986959 0.017205795
-0.00282767 -0.026678018 0.0047818506 0.013135184 -0.003059947 -0.031403255 0.018176517 0.009370504
0.0030116262 0.016345134 -0.051050242 0.0080497125 0.00942177 0.056541502 -0.015843282 -0.0025774818
0.014608925 0.028891303 -0.0065313736 0.0133557925 -0.03482964 -0.0085728085 -0.040971525 -0.0062132743
-0.011394995 0.025549002 0.008491922 0.0014908919 -0.0093554985 0.0012816548 0.0041712346 0.014490473
0.0020967026 0.013898881 0.011594576 -1.3928016e-05 0.027158855 -0.0314568 -0.0008536759 -0.0041843937
0.016899858 -0.00089702965 0.009456192 0.028316498 0.015170201 0.031603683 0.0007981331 -0.032854512
0.026519246 -0.004009853 -0.028726405 0.018097987 0.00645475 -0.0017180159 0.012858614 0.02181446
00000000: 1ad5 283c a907 15bc e8c4 383c c508 7c3c
00000010: c1fb 3d3c 8487 843c 389a 783b 56be 5c3a
00000020: 1e1b e73c bd52 e33c f1bd a83c b4b5 b13c
00000030: 426d b23b 7885 5b3b fe36 08bc 4050 ab3c
00000040: bc8b 0b3c e0d8 ae3b beb6 a73b 36ee 59ba
00000050: 64c0 823c a228 4dbb 9325 f63b 2ae0 163c
00000060: a340 92bc b350 843c 07f0 62bb 3499 033b
00000070: 669d 543c dbce 193c c917 42ba 2732 fabb
00000080: 8077 bf3b 6839 83bc 4e87 09bb a8f3 17b8
00000090: b91e e53c 6505 863c 1824 213c 4cd9 ff3b
000000a0: 289d 373c d91b 083c 8e58 a23c bf85 7a3b
000000b0: beac 3ebc 0806 093c e3db 2b3b 9973 66bb
000000c0: d11b 233c f5de 6b3b c976 643c b44a 253c
000000d0: a22d f2bc 6e4c b6bb 87ff 73bc 068a 07bd
000000e0: 4115 5e3b 81bc e5bb 2fcc 583b bf08 a139
000000f0: 81ff c03c 04e8 a13c 965b 033c a61e a43a
00000100: 472c b4bc 129e 143c 6e1f f0bb a516 973b
00000110: 661f 17bc 3b5a b13b 18b0 943b 8929 a73c
00000120: 07cd b93a 941d 94bb 3ad9 aa3c 2c48 7fba
00000130: d34b 29bc 42ba 78bc e342 98bc cebc 70bc
00000140: 80b2 59bb dc93 f33c c004 32ba 907a 833b
00000150: 5e03 b1bc d6af 9f3c 6274 1a3d 902f 413b
00000160: bd2a 133b 636c 593b f239 19bd 61e4 fbbb
00000170: 80e4 c03a e0fd 853b 1680 2dbc b5d0 ca3b
00000180: 53a8 b7bb 1077 5cbc b95b 9bba 5bb3 b0bc
00000190: c830 703c 1bee ae3c 0f7e be3b d496 1a3b
000001a0: aed5 153c 7f14 1bbd 08ac 57bc 123f 043d
000001b0: 782a e1ba bc1a 90ba 03a5 3ebd 114b 023c
000001c0: 06fd af3c c29a bc3c b10f ddb9 bfdb 673c
000001d0: 647d 86bc d545 60bb 814a 003c 7078 27ba
000001e0: 652e 103d 9edd 8c3c 83bb 24bc 326b ccbb
000001f0: e96a 1a3c 87a6 123c fdb9 88bc a16c 8cbb
00000200: 3ac9 c83b 69b8 9abb 6967 dc3c b187 263c
00000210: 1863 b7bc caa1 13bc a3da e8bb 8214 943c
00000220: 47ca f73c 3af2 61bc be5d ef3c c661 893c
00000230: ef39 c93c d83d edbb c671 eb3b a3ba ce3c
00000240: e37e aebb 4965 593c bf2b 28bb b1d2 d6bb
00000250: 1b6e cf3a 6714 bb3b e52f 8abb c3da 833c
00000260: 6ac8 09bb f253 41bc 018b c03b f412 a93b
00000270: 999f 353d 0074 013d 0401 d83c 5ac9 04bc
00000280: 6fd8 313c 7bd6 eab9 96c9 2fbc dd73 04bc
00000290: 6206 bf3a 884a e9bb 7f4b 923b 8297 8abb
000002a0: a75a 07bc 38c1 0fbd 4b78 c73c f0a0 993c
000002b0: a4a6 ba3c ff5c 973b d8bf b7bb b609 eb3b
000002c0: 3489 483b 7040 a13b e742 313c 7303 e93b
000002d0: 7307 cf3b 372b caba 5269 a0bb 454f d63c
000002e0: ff22 763b d690 0f3c 738c dc3b 01ca 093c
000002f0: c658 933c 8d17 4c3b acf8 4f3b 762f abba
00000300: a72a c23b 8b20 3c3a 0bf2 433b 308c a73c
00000310: 3776 523c 0f57 17bc 8a8a 9b3c 2bf3 8c3c
00000320: 6e50 39bb dc8b dabc 12b1 9c3b f434 573c
00000330: 6489 48bb b3a0 00bd ebe6 943c be86 193c
00000340: b45e 453b 3be6 853c 0f1a 51bd f1e2 033c
00000350: c55d 1a3c 1098 673d c5c9 81bc f8ea 28bb
00000360: 465a 6f3c 74ad ec3c 2205 d6bb 41d2 5a3c
00000370: 86a9 0ebd f774 0cbc c2d1 27bd b998 cbbb
00000380: 13b2 3abc 244c d13c b421 0b3c 086a c33a
00000390: ce47 19bc 33fd a73a daae 883b 7369 6d3c
000003a0: d568 093b 22b8 633c 2df7 3d3c 60ac 69b7
000003b0: 3f7c de3c d8d8 00bd 38c9 5fba 3d1d 89bb
000003c0: 9271 8a3c a426 6bba 25ee 1a3c 00f8 e73c
000003d0: 6f8c 783c dd72 013d ce39 513a 7492 06bd
000003e0: e43e d93c 1665 83bb a353 ebbc 3b42 943c
000003f0: 5e82 d33b 0c2f e1ba f0ac 523c 3db4 b23c

network_body._body_endoder.seq_layers.2.weight f4 [256, 256]
-0.0044024936 -0.036437202 0.092419885 -0.015146986 -0.033771176 0.17325251 0.02327502 0.046782356
-0.049687613 0.07361947 0.04654974 -0.012995698 -0.016037416 -0.049835756 0.052402902 0.039829697
0.057750113 -0.06961937 0.097288795 -0.12968698 0.041693237 -0.0526725 0.08037516 0.0055706403
0.18308268 -0.033448543 -0.10472091 -0.0074616754 -0.0669053 -0.031047277 -0.07674484 -0.010484754
-0.06559792 -0.015992645 0.017330302 0.11820444 0.039490014 -0.1362881 0.058986668 0.03590143
-0.023772933 -0.14018486 0.05347561 -0.062435534 0.029339034 0.05005652 -0.056445934 -0.02328509
-0.08358365 -0.09494576 0.011440061 -0.025753839 0.09648187 -0.06534765 -0.025578456 0.048581023
0.015489212 0.021770991 -0.016084408 -0.026092518 0.032689285 0.06109657 -0.07965406 -0.0235668
-0.009698211 -0.13857716 0.030364603 0.027747884 0.027609866 0.101857305 0.10414192 0.053195577
-0.0224323 -0.087728076 0.04324504 0.04861811 -0.002344469 0.10306568 -0.061872657 -0.11021754
-0.04152407 0.025749601 0.04702128 -0.14279386 0.029027155 0.008325977 0.04893893 -0.03917188
-0.009155048 0.008717787 0.06288478 0.013495855 -0.017689632 0.0010458636 0.043607656 -0.048994273
-0.023885181 0.026213083 -0.029456781 0.13740672 0.043803908 -0.0965154 -0.023230616 -0.06320407
0.16942234 0.04974705 0.027489843 -0.04209162 0.047428824 -0.017021403 -0.005066912 0.045342125
0.03414979 0.038137984 -0.040902946 0.09400047 -0.0034432155 0.037341405 -0.041885268 -0.015196023
0.06341746 0.12554029 0.024044307 -0.012815214 0.057660367 0.02889664 0.048423175 -0.03826516
0.06124183 -0.038832683 -0.017290939 -0.025998875 0.00846179 -0.12470706 -0.0069961012 0.101993814
0.039574794 -0.03643854 -0.085957006 0.054478146 0.13392262 -0.09993916 0.042655345 0.03863439
0.06968391 0.0019034462 0.074742675 -0.014411054 0.044451628 0.07903656 -0.054737564 0.06242469
0.11426512 -0.07269555 -0.012706918 -0.10752656 0.06519228 0.042354126 0.07299476 -0.020009488
0.006004618 0.041604556 0.07276972 -0.09094993 0.030374866 -0.03286781 0.043510474 0.08593207
-0.119807914 0.18107282 -0.019864352 0.057902202 -0.030700961 -0.08900339 0.026957067 0.075666785
0.011522728 0.13650809 0.011451834 -0.057383362 0.03050435 -0.054064736 0.07255724 0.030962834
-0.11962526 0.07634006 -0.04954279 -0.063793026 0.06577906 -0.09255269 0.10515053 -0.067460105
-0.050667863 -0.068955556 -0.13633382 0.013103409 -0.06972266 -0.015336277 -0.023444328 0.018921424
0.023738459 0.0330902 0.132043 0.035001453 0.07814294 -0.00216403 -0.066344775 0.17292677
-0.05419307 -0.025256885 0.054631207 -0.1513257 0.005640653 -0.11154303 -0.06872688 0.07396422
0.017005956 -0.028252278 -0.055924397 -0.08138681 0.12573005 0.043968014 0.07538927 0.03748361
0.050814178 0.036533814 -0.15165277 -0.049533106 0.0049556075 0.016700137 -0.1127081 -0.003773262
0.0359722 0.02229692 0.024468163 -0.15258886 -0.0072061075 0.035883475 -0.09070086 0.07368337
0.05447522 -0.04913903 0.052523356 0.053776216 0.0021125113 -0.03061769 -0.03303891 0.11341351
-0.002682154 -0.082093894 0.048091598 0.08748722 0.039846957 -0.02145582 -0.08986578 0.02118795
00000000: cb42 90bb 2d3f 15bd a346 bd3d 102b 78bc
00000010: a553 0abd 1b69 313e 41ab be3c db9e 3f3d
00000020: 3d85 4bbd cec5 963d f1aa 3e3d e8eb 54bc
00000030: e660 83bc 9420 4cbd 6da4 563d 7724 233d
00000040: 628b 6c3d 9a94 8ebd 593f c73d aacc 04be
00000050: 87c6 2a3d 1fbf 57bd bb9b a43d eb89 b63b
00000060: 077a 3b3e 5701 09bd eb77 d6bd 1281 f4bb
00000070: a505 89bd dc56 febc 662c 9dbd 3fc8 2bbc
00000080: 3458 86bd 0203 83bc 47f8 8d3c 2b15 f23d
00000090: 48c0 213d 1c8f 0bbe 019c 713d 610d 133d
000000a0: 74bf c2bc 9f8c 0fbe 3e09 5b3d 67bc 7fbd
000000b0: 6a58 f03c 1108 4d3d da33 67bd 60c0 bebc
000000c0: e82d abbd ec72 c2bd 186f 3b3c b7f9 d2bc
000000d0: 4998 c53d fdd4 85bd e989 d1bc e5fc 463d
000000e0: 77c6 7d3c 1459 b23c 73c3 83bc fabf d5bc
000000f0: 33e5 053d 6640 7a3d ab21 a3bd 290f c1bc
00000100: 3fe5 1ebc 2ce7 0dbe 30bf f83c 884f e33c
00000110: 162e e23c 909a d03d 5c48 d53d 9be3 593d
00000120: f1c3 b7bc c7aa b3bd b621 313d c923 473d
00000130: aaa5 19bb 1914 d33d 2f6e 7dbd bcb9 e1bd
00000140: 2515 2abd d4f0 d23c 6399 403d 8e38 12be
00000150: 5bca ed3c ae69 083c 3074 483d b172 20bd
00000160: 0eff 15bc 0dd5 0e3c bcc9 803d b81d 5d3c
00000170: d9e9 90bc 5c15 893a f19d 323d 38ae 48bd
00000180: dbaa c3bc d2bc d63c 594f f1bc 59b4 0c3e
00000190: ba6b 333d dea9 c5bd 224e bebc 2371 81bd
000001a0: 0d7d 2d3e 90c3 4b3d 6132 e13c 4368 2cbd
000001b0: ba44 423d 7870 8bbc 5708 a6bb aab8 393d
000001c0: a6e0 0b3d 9336 1c3d d989 27bd 5283 c03d
000001d0: 92a7 61bb 4df3 183d e38f 2bbd bdf8 78bc
000001e0: 03e1 813d a28d 003e 91f8 c43c e7f6 51bc
000001f0: 472d 6c3d a5b8 ec3c 6157 463d eebb 1cbd
00000200: b7d8 7a3d 050f 1fbd baa5 8dbc 98fb d4bc
00000210: 52a3 0a3c 6a66 ffbd 8d3f e5bb 22e2 d03d
00000220: 2e19 223d 9440 15bd 3a0a b0bd 7a24 5f3d
00000230: 0323 093e e7ac ccbd 5fb7 2e3d 183f 1e3d
00000240: 70b6 8e3d 0e7d f93a b012 993d 571c 6cbc
00000250: e912 363d ecdd a13d 7f34 60bd 08b1 7f3d
00000260: d503 ea3d 68e1 94bd ad30 50bc e336 dcbd
00000270: 8883 853d 857b 2d3d 477e 953d f0ea a3bc
00000280: 63c2 c43b 8a69 2a3d 4a08 953d f543 babd
00000290: b6d4 f83c 66a0 06bd 0a38 323d 27fd af3d
000002a0: da5d f5bd 276b 393e 91ba a2bc dc2a 6d3d
000002b0: 9580 fbbc 6947 b6bd 11d5 dc3c 30f7 9a3d
000002c0: d3c9 3c3c c7c8 0b3e 79a0 3b3c d10a 6bbd
000002d0: 42e4 f93c fc72 5dbd e498 943d c5a5 fd3c
000002e0: 17fe f4bd 2d58 9c3d 61ed 4abd eba5 82bd
000002f0: 2cb7 863d 448c bdbd 2959 d73d 8628 8abd
00000300: 1b89 4fbd 9238 8dbd 189b 0bbe aeaf 563c
00000310: c1ca 8ebd 0245 7bbc 520e c0bc 1a01 9b3c
00000320: 2877 c23c 9789 073d 4836 073e af5d 0f3d
00000330: 6809 a03d 66d2 0dbb c5df 87bd b713 313e
00000340: 8df9 5dbd 87e7 cebc f9c4 5f3d 20f5 1abe
00000350: 3ad5 b83b ac70 e4bd aec0 8cbd 8e7a 973d
00000360: 1350 8b3c 5271 e7bc fb10 65bd 21ae a6bd
00000370: 61bf 003e ce17 343d b165 9a3d 6a88 193d
00000380: 8722 503d 7ba4 153d dd4a 1bbe 3ae3 4abd
00000390: a662 a23b bace 883c 81d3 e6bd d548 77bb
000003a0: 9657 133d 08a8 b63c 7571 c83c 4140 1cbe
000003b0: 3621 ecbb 8dfa 123d 5fc1 b9bd 4fe7 963d
000003c0: 6921 5f3d 0246 49bd bb22 573d 7344 5c3d
000003d0: 0f72 0a3b f3d1 fabc cf53 07bd 5845 e83d
000003e0: 14c7 2fbb d820 a8bd b2fb 443d 802c b33d
000003f0: 9036 233d 1ec4 afbc 8d0b b8bd 5a92 ad3c

network_body._body_endoder.seq_layers.2.bias f4 [256]
-0.032571673 0.0050462037 -0.0025168662 0.008688515 0.013555874 -0.0061994563 0.007041589 0.0005420273
0.011429393 -0.044494443 -0.035550058 -0.037431497 0.011810274 -0.04199581 0.017293962 0.014116025
-0.0332441 -0.022269858 0.006186274 0.00038452668 -0.009075732 -0.03163123 -0.0036460282 -0.03290682
0.008061151 -0.015360919 -0.0037519974 0.0030843827 -0.0017422626 0.0023138826 -0.011683704 -0.038477845
0.005282716 -0.04067062 -0.029718935 -0.03257395 0.011748557 -0.0064778714 0.005088645 -0.026097614
-0.012407699 -0.0005276643 0.0076458654 0.011440781 -0.008525987 -0.0014392647 0.0011342039 -0.002298959
-0.035217915 0.0033482711 0.0038759194 0.00929298 0.0013871371 -0.013090673 0.022449845 -0.014386794
-0.038424335 -0.007514144 0.0019454069 -0.018115697 0.012077282 0.0031848764 -0.029171687 0.001198311
-0.04323046 -0.03964256 0.013659079 0.008204974 0.0148104 0.0042930157 0.00784864 0.001917403
-0.005956871 -4.066297e-05 0.02301318 -0.03534235 -0.006687656 0.022774072 -0.034565464 0.0013334943
0.028358772 0.0122365095 -0.029058786 0.0055800606 -0.043343373 0.030025767 0.02200955 -0.03007246
-0.002016916 -0.00024685598 -0.0025983725 -0.0010519812 -0.00730778 0.008061683 0.012617802 0.025505004
-0.020429282 0.0030307197 -0.024964638 0.020265263 0.00801939 -0.0073069595 0.0010172974 -0.009212383
-0.016148156 0.012511198 0.000507271 0.01052489 0.007158124 0.0034122234 -0.0059231436 -0.0026179138
-0.037642427 -0.019019624 0.0040186993 0.010642677 0.017656147 -0.02692771 0.009791326 0.022474185
0.005644126 0.002323044 -0.02875822 0.013035799 -0.019934142 0.0035014546 0.018167134 0.019601043
0.0060625537 0.005948568 -0.0009744781 0.013041861 -0.038373742 -0.028111545 -0.013601065 -0.038242295
-0.008001314 0.0049369093 0.009887593 -0.005207585 0.010245749 0.011066243 0.01203355 0.0029968084
0.00307901 -0.03817676 -0.03508316 -0.030988919 -0.029624702 0.010817395 -0.003732993 -0.026947081
-0.0073329317 0.007884454 0.0017879868 -0.03423513 0.00392637 0.003870754 0.002351003 0.010257838
-0.0035493479 0.013028399 0.0072248196 -0.027334101 0.009932135 -0.014106161 -0.030062908 -0.0052376557
0.006273095 0.012752376 -0.011837399 0.007313666 -0.032193076 0.003819031 0.0048993654 -0.013493038
0.007649016 0.00046216976 0.019355305 -0.00584286 0.019337092 -0.0056803585 -0.03312228 0.0030244472
-0.028349709 0.005482963 -0.0045728195 0.0021506906 -0.023328163 0.006737153 0.0049789017 0.008646622
-0.006532447 -0.026395945 -0.003607145 -0.022098152 0.009789187 -0.01664026 0.00787059 -0.029253015
0.003493727 0.0074970447 -0.034016836 -0.0010591835 0.025804566 -0.027801188 -0.007020467 0.00090705464
-0.04087494 0.0062420964 -0.028395373 0.004943004 0.009771366 0.006878364 -0.014979437 -0.039948475
0.008692933 0.00196462 0.010082079 -0.016736496 0.02034516 0.0106713725 0.0020164791 -0.009400789
0.0050342437 0.0039698347 -0.002324183 0.012689121 0.011535314 0.01926046 0.008422265 -0.04406825
-0.029096281 -0.025510121 0.009383458 -0.007518176 -0.013981186 0.009412857 0.018427782 0.017526943
-0.007201546 0.016466005 0.0068433164 -0.007851049 -0.040970556 0.0002831268 -0.031346783 0.0035546508
0.004597576 0.000351702 -0.019827044 0.00031595543 0.026555836 -0.042043857 0.0071199336 -0.005790722
00000000: e069 05bd a05a a53b 02f2 24bb 465a 0e3c
00000010: 7519 5e3c cf24 cbbb 21bd e63b d616 0e3a
00000020: 5942 3b3c ce3f 36bd f09c 11bd c551 19bd
00000030: e17f 413c cc03 2cbd 11ac 8d3c e646 673c
00000040: f72a 08bd 476f b6bc 3ab6 ca3b 4c9a c939
00000050: 61b2 14bc c08f 01bd 34f2 6ebb 4dc9 06bd
00000060: eb12 043c 5dac 7bbc 12e4 75bb 5b23 4a3b
00000070: a25c e4ba 82a4 173b 026d 3fbc f29a 1dbd
00000080: a21a ad3b 3c96 26bd 2075 f3bc 436c 05bd
00000090: 057d 403c 5344 d4bb a6be a63b aaca d5bc
000000a0: a949 4bbc f452 0aba 2b8a fa3b 1d72 3b3c
000000b0: 95b0 0bbc b6a5 bcba 91a9 943a 22aa 16bb
000000c0: a940 10bd ab6e 5b3b 2303 7e3b 9541 183c
000000d0: 99d0 b53a 437a 56bc bde8 b73c 96b6 6bbc
000000e0: d662 1dbd 3539 f6bb 06fd fe3a 5f67 94bc
000000f0: cbdf 453c 5cb9 503b 76f9 eebc a510 9d3a
00000100: 6c12 31bd 3d60 22bd 54ca 5f3c 286e 063c
00000110: 52a7 723c 6dac 8c3b 9597 003c 5e51 fb3a
00000120: db31 c3bb 888d 2ab8 2386 bc3c 24c3 10bd
00000130: 2024 dbbb b190 ba3c 8494 0dbd a5c8 ae3a
00000140: a850 e83c a47b 483c b10c eebc f1d8 b63b
00000150: d288 31bd 99f8 f53c 5f4d b43c 855a f6bc
00000160: 3c2e 04bb 736c 81b9 7549 2abb a2e2 89ba
00000170: 1a76 efbb 2615 043c e6ba 4e3c dfef d03c
00000180: 4f5b a7bc 0a9f 463b a482 ccbc 5603 a63c
00000190: c263 033c 386f efbb d656 853a 89ef 16bc
000001a0: 2349 84bc c5fb 4c3c 61fa 043a 9770 2c3c
000001b0: b28e ea3b 9c9f 5f3b ee16 c2bb 4e91 2bbb
000001c0: f22e 1abd 0bcf 9bbc 4baf 833b 9f5e 2e3c
000001d0: a0a3 903c 8097 dcbc cc6b 203c c81b b83c
000001e0: 5cf2 b83b 363e 183b 5c96 ebbc 1b94 553c
000001f0: ed4c a3bc a978 653b 3ed3 943c 5e92 a03c
00000200: 63a8 c63b 35ec c23b 1e74 7fba 88ad 553c
00000210: c92d 1dbd 2f4a e6bc 00d7 5ebc f4a3 1cbd
00000220: f117 03bc ccc5 a13b 92ff 213c 64a4 aabb
00000230: c9dd 273c 304f 353c 5e28 453c 1a66 443b
00000240: 37c9 493b 3c5f 1cbd 5cb3 0fbd 79dc fdbc
00000250: 81af f2bc 713b 313c 3ba5 74bb 20c0 dcbc
00000260: 1749 f0bb cc2d 013c e25a ea3a 233a 0cbd
00000270: c7a8 803b 7aac 7d3b 4913 1a3b 7e10 283c
00000280: 2d9c 68bb 1175 553c 2ebe ec3b c4eb dfbc
00000290: 65ba 223c 871d 67bc 7d46 f6bc a4a0 abbb
000002a0: 898e cd3b 57ef 503c a6f1 41bc 7aa7 ef3b
000002b0: e3dc 03bd b548 7a3b db8a a03b e711 5dbc
000002c0: 99a4 fa3b 604f f239 048f 9e3c 7675 bfbb
000002d0: d268 9e3c 4d22 babb 3aab 07bd ce35 463b
000002e0: a63d e8bc 6daa b33b 97d7 95bb 9af2 0c3b
000002f0: b41a bfbc 56c3 dc3b 0e26 a33b 90aa 0d3c
00000300: 230e d6bb 4f3c d8bc da65 6cbb 2f07 b5bc
00000310: d462 203c 2851 88bc a6f3 003c 05a4 efbc
00000320: 03f7 643b c5a9 f53b 3d55 0bbd 4dd4 8aba
00000330: 1964 d33c 51bf e3bc f20b e6bb 68c7 6d3a
00000340: 7b6c 27bd 808a cc3b 6a9d e8bc ecf8 a13b
00000350: 1418 203c e663 e13b 506c 75bc 03a1 23bd
00000360: ce6c 0e3c dbc0 003b 4e2f 253c fa1a 89bc
00000370: e5aa a63c fbd6 2e3c e826 043b c405 1abc
00000380: 4cf6 a43b 6315 823b 5251 18bb 08e6 4f3c
00000390: 9dfe 3c3c 1dc8 9d3c 8afd 093c e980 34bd
000003a0: 535b eebc 9afa d0bc 13bd 193c 085b f6bb
000003b0: 5811 65bc 6238 1a3c dcf5 963c aa94 8f3c
000003c0: f2fa ebbb b7e3 863c e63d e03b b0a1 00bc
000003d0: bed0 27bd a370 9439 7c65 00bd 25f5 683b
000003e0: 43a7 963b a564 b839 536c a2bc d2a6 a539
000003f0: a08b d93c 2e36 2cbd 554e e93b 19c0 bdbb

action_model._discrete_distribution.branches.0.weight f4 [3, 256]
-0.009398538 0.033096813 0.04307117 0.014107738 0.005600246 0.002473962 0.019000698 -0.021446694
0.00793483 -0.0036709234 -0.0056981794 -0.011266464 0.008854799 -0.011146339 0.004061028 0.0014820639
-0.011440862 -0.009225799 0.001290838 0.020892983 -0.020396216 -0.0060288636 -0.009620001 -0.0058654095
0.008856787 -0.006225603 0.00050882954 0.030555405 -0.011331617 0.015871646 -0.00057919644 0.0011922742
0.026566792 -0.009471459 -0.014331703 -0.0046446966 0.00046425313 0.01953446 0.0008077584 -0.013067439
-0.0013914483 0.0054139225 0.0014761693 0.048764538 0.0044838525 0.00027157846 -0.038237114 0.007313912
-0.0015745544 -0.0023665489 -0.0066589043 -0.003915991 -0.013095425 -0.0072855786 0.00057185313 -0.015876835
-0.0018624881 0.0030978525 -0.012736969 -0.010293767 -0.009853131 0.011713429 -0.0040115486 0.027897594
-0.0018347941 0.003521846 0.008386979 -0.00057243806 -0.0027588978 0.007829247 0.04992649 0.020824514
0.030191267 0.011834249 0.007029201 -3.9238395e-05 -0.0058338903 0.014135849 -0.010687942 0.0059912577
0.011992992 0.010265484 -0.0071491925 -0.019824285 -0.0051556644 0.0019538028 0.003517183 -0.013528183
0.028123127 -0.00013908146 -0.007858335 -0.0012282728 0.00033489199 -0.005779392 -0.0043194727 0.012676961
-0.0024855174 0.034699168 -0.010556461 0.009264811 0.026424896 0.0035300367 0.019664327 -0.0010244993
-0.012461696 0.047145724 0.0049783294 -0.011377257 0.0053397682 0.027939893 0.028631838 -0.017927008
-0.0012654606 -0.027053764 -0.00031180808 -0.004095214 -0.007372009 -0.020564822 0.00061845186 0.0014928131
-0.015204227 0.006544096 -0.020290872 -0.0052527497 -0.0056258454 0.005878527 0.008471482 0.009927405
0.033195857 -0.01060581 -0.00013924853 0.0014482703 -0.006049024 -0.0048616724 -0.0063670934 -0.010996146
-0.0128728375 -0.0052016946 -0.016772527 0.0012167933 -0.0006084525 -0.012151204 -0.00484839 -0.011713826
0.037835915 -0.0038862785 -0.013651602 -0.007791762 -0.007372292 0.015561602 -0.00028628824 -0.017984409
0.0033831561 -0.025722265 0.0076150363 -0.012104088 0.02158312 -0.0021971553 -0.02280263 -0.012146207
0.0254012 0.012758297 0.008974886 0.001575274 0.010502759 0.0018132388 -0.008283195 -0.022852551
0.0058476985 0.01761544 -0.024021871 -0.0019373603 -0.00986403 0.021529093 -0.0041386196 0.005046298
0.006147645 0.009312753 0.0015261204 -0.023477314 0.009326974 -0.0068320725 -0.0063241227 0.034093093
-0.015575651 0.002310673 0.026746238 -0.0028874248 0.003901281 0.0019927179 0.0056751417 -0.0044042575
-0.020964067 -0.0077722105 0.03547152 -0.008882264 -0.0022491282 -0.0116755655 0.0020817914 -0.010275333
-0.012044367 -0.0033457582 -0.0068068462 0.015626384 0.0009009734 -0.005698302 -0.026849147 -0.011590081
-0.016354013 0.0047181053 0.0035303724 0.045757256 0.0015352117 -0.009068614 -0.005132959 -0.015614592
-0.016017653 0.013984433 0.0049000764 -0.005320961 0.0041502025 0.0066288537 -0.008119432 0.002948635
-0.00671615 0.011220789 0.010073767 -0.001622901 -0.004852574 0.0039923205 0.024766317 -0.0071553905
-0.002245362 -0.0020577225 -0.00138736 0.0062116515 0.0050610816 0.0015018219 0.0044745645 0.008592038
0.0061868243 0.013308849 0.0023300548 -0.0015081473 -0.0040888013 -0.00408647 0.00037063178 -0.028568767
-0.008977289 0.0038842405 -0.0045373803 -0.0045319786 0.009411193 -0.007478832 0.008840201 0.007616658
00000000: 53fc 19bc 8690 073d 656b 303d 2424 673c
00000010: 4582 b73b 3222 223b 5aa7 9b3c fab0 afbc
00000020: 1701 023c e093 70bb cbb7 babb fa96 38bc
00000030: b813 113c 229f 36bc 5f12 853b d041 c23a
00000040: 7472 3bbc ce27 17bc 5631 a93a c327 ab3c
00000050: f715 a7bc c68d c5bb 359d 1dbc 9f32 c0bb
00000060: 0f1c 113c 2500 ccbb f962 053a 544f fa3c
00000070: 3fa8 39bc 4105 823c 37d5 17ba 1546 9c3a
00000080: 9aa2 d93c 2e2e 1bbc 85cf 6abc 8a32 98bb
00000090: 0067 f339 bb06 a03c c0bf 533a d018 56bc
000000a0: 4261 b6ba 4667 b13b 067c c13a 53bd 473d
000000b0: 48ed 923b a562 8e39 859e 1cbd 8aa9 ef3b
000000c0: 4761 ceba 1a18 1bbb f032 dabb b751 80bb
000000d0: 328e 56bc ddbb eebb 6ae8 153a 2310 82bc
000000e0: bb1e f4ba 5705 4b3b b8ae 50bc 30a7 28bc
000000f0: 076f 21bc afe9 3f3c 4f73 83bb 7f89 e43c
00000100: 797d f0ba c5ce 663b 8a69 093c ab0f 16ba
00000110: a0ce 34bb 3e46 003c b87f 4c3d 2c98 aa3c
00000120: ad53 f73c 70e4 413c 3655 e63b e893 24b8
00000130: 382a bfbb 0c9a 673c 7a1c 2fbc 5052 c43b
00000140: 417e 443c 9030 283c c643 eabb 8a66 a2bc
00000150: d9f0 a8bb 5f0b 003b 8a80 663b 50a5 5dbc
00000160: 7962 e63c 65d6 11b9 3fc0 00bc fffd a0ba
00000170: 7194 af39 0e61 bdbb 5d8a 8dbb 07b3 4f3c
00000180: 10e4 22bb b720 0e3d 02f5 2cbc 6fcb 173c
00000190: 0679 d83c 3058 673b 1517 a13c 7e48 86ba
000001a0: 242c 4cbc e01b 413d 4121 a33b ad67 3abc
000001b0: 39f9 ae3b 34e2 e43c 518d ea3c a9db 92bc
000001c0: d0dd a5ba db9f ddbc 2c7a a3b9 2531 86bb
000001d0: e590 f1bb 8f77 a8bc 9a1f 223a 7faa c33a
000001e0: 261b 79bc db6f d63b 0b39 a6bc 421f acbb
000001f0: 0359 b8bb a9a0 c03b f9cb 0a3c 8ea6 223c
00000200: 61f8 073d fec3 2dbc 3e03 12b9 e3d3 bd3a
00000210: e436 c6bb aa4e 9fbb 0da3 d0bb 2e29 34bc
00000220: 98e8 52bc fa72 aabb 8a66 89bc cf7c 9f3a
00000230: 8e80 1fba d815 47bc 3edf 9ebb 59eb 3fbc
00000240: d5f9 1a3d efb0 7ebb f8aa 5fbc 0952 ffbb
00000250: 4593 f1bb 17f6 7e3c f518 96b9 0a54 93bc
00000260: f1b7 5d3b 80b7 d2bc 8e87 f93b 3a50 46bc
00000270: 15cf b03c 26fe 0fbb 95cc babc e200 47bc
00000280: 2d16 d03c 2d08 513c 660b 133c 6d79 ce3a
00000290: c413 2c3c 33aa ed3a 3db6 07bc 4635 bbbc
000002a0: 0d9e bf3b 414e 903c 84c9 c4bc 06ef fdba
000002b0: be9c 21bc c85d b03c 429d 87bb 6a5b a53b
000002c0: 2f72 c93b 8494 183c 1a08 c83a 7f53 c0bc
000002d0: 2ad0 183c 94df dfbb 963a cfbb 33a5 0b3d
000002e0: 0431 7fbc a96e 173b ed1a db3c f33a 3dbb
000002f0: a2ac 7f3b 4298 023b 8af6 b93b 9751 90bb
00000300: d6bc abbc 07ae febb 964a 113d ea86 11bc
00000310: 1c66 13bb df4a 3fbc aa6e 083b df59 28bc
00000320: bd55 45bc 8244 5bbb f70b dfbb e702 803c
00000330: 4d2f 6c3a d2b8 babb bef2 dbbc 53e4 3dbc
00000340: daf8 85bc 569a 9a3b d25d 673b f66b 3b3d
00000350: 2839 c93a 8694 14bc 6232 a8bb 58d4 7fbc
00000360: 7437 83bc f71e 653c d290 a03b 755b aebb
00000370: 6cfe 873b db36 d93b 5e07 05bc e33d 413b
00000380: 2613 dcbb 66d7 373c 710c 253c 85b7 d4ba
00000390: 5702 9fbb 03d2 823b bbe2 ca3c c477 eabb
000003a0: ec26 13bb dbda 06bb 14d8 b5ba 1c8b cb3b
000003b0: 6ed7 a53b c8d8 c43a 5e9f 923b 9fc5 0c3c
000003c0: d8ba ca3b 5c0d 5a3c d5b3 183b 07ad c5ba
000003d0: 5afb 85bb cce7 85bb 5b51 c239 0c09 eabc
000003e0: 7b15 13bc be8e 7e3b 4eae 94bb fe80 94bb
000003f0: 6831 1a3c fd10 f5bb 7ed6 103c 2995 f93b

action_model._discrete_distribution.branches.0.bias f4 [3]
0.00820487 0.0013105575 -0.008879192
00000000: b86d 063c 03c7 ab3a 087a 11bc

action_model._discrete_distribution.branches.1.weight f4 [3, 256]
0.0046039377 -0.014125083 -0.030954158 -0.0021913908 0.0044531827 -0.0046472214 -0.008760948 -0.009631716
0.0056339093 -0.004912753 0.00033111146 0.0036678496 0.0014718763 0.010862945 0.0048028175 -0.0022420005
0.0022433365 -0.0024083722 0.011946086 -0.026447138 0.0045832624 -0.005152361 0.012434721 0.004722903
0.007409669 0.0071837753 0.0018573303 -0.036547747 0.018632222 -0.009975229 0.00086120964 -0.003350938
-0.0048799254 0.016627278 0.0008643153 0.0017889012 0.0007201968 -0.019546982 0.0070093726 -0.007990216
0.0014667561 -0.01086271 0.009043571 -0.026392577 -0.012713443 0.0015143238 -0.00012514254 0.0041996557
0.0090815695 0.013328644 0.00095480075 -0.0013524595 0.002604236 0.0011805199 0.0064505003 0.003923671
0.0044116667 -0.005945287 0.006504394 0.0044825077 0.023487218 -0.008692359 -0.009373774 -0.020284932
4.7464604e-05 0.0010537812 0.005066303 -0.001189988 0.0118639935 -0.009811361 -0.014001145 -0.0047376803
-0.03605041 0.00063342036 -0.004002017 0.0005556156 -0.001435022 0.00700893 0.01016979 -0.0008978365
0.0058585526 -0.0076187174 0.004982739 0.008497475 0.009975089 -0.0070047 -0.007535569 0.005848032
-0.008803761 0.005104871 -0.024562787 -0.0028137665 0.009615202 0.006891639 0.008713642 0.0065424847
0.000120492914 -0.0122637665 0.006460126 0.0084105935 -0.01044547 -0.0045101726 0.0041776043 0.002373189
-0.0023022955 -0.0396026 -0.007233069 0.0027903598 0.017996188 -0.031988945 -0.016322533 0.01869999
0.00034588267 0.022491988 0.02251944 -0.0022387232 0.003410554 0.005704464 -0.0035984677 0.0038464316
0.0077959243 -0.0063477703 0.0038725077 0.0063024694 -0.014299229 -0.004520757 -0.0024191597 0.002445651
-0.04548849 0.015128879 0.002190467 0.0012914672 0.0061998665 -0.0006636887 0.0037589117 -0.001210412
-0.009011676 -0.0017540612 0.015116745 -0.0013281759 0.0055176564 0.0050409487 0.012428045 0.01943474
-0.023108276 -0.002879634 0.0019703724 0.006193661 -0.001671531 -0.0032717867 0.012733704 -0.008014149
-0.0005875496 0.018514099 -0.00410851 -0.0031165273 -0.013080847 0.0060920278 0.0061247437 0.004489435
-0.029073872 0.0026076257 0.00019116947 -0.0087358905 0.00428756 -0.009016245 0.0037077682 -0.000983184
0.0045149187 -0.0018918581 -0.00046571993 0.012954553 0.0025942742 -0.015180447 0.005124563 -0.0059995153
0.00688251 -0.007911132 0.010778815 0.00930712 -0.002593394 -0.004013053 -0.007866789 -0.0112151485
-0.0014269798 -0.009539068 -0.011364694 -0.010330357 -0.013078553 0.015229147 0.0016992467 0.011240972
-0.007326844 0.010749272 -0.030609591 0.005845105 0.016700907 0.0008978217 0.0019227349 -0.010036261
-0.0019510397 0.005181646 -0.009604852 -0.012641419 -0.0058126966 0.004117727 0.014795907 0.03239417
-0.00016583361 0.004259123 1.6175873e-05 -0.014908413 0.0068742144 0.0052905255 0.0018815096 -0.011392663
0.001562077 -0.022802835 0.0017650246 -0.0021647299 0.014048914 0.0032511654 0.008065597 -0.007890457
0.0060141785 0.009315693 -0.00080464943 -0.007203282 0.016600098 0.013822944 -0.014181346 -0.0027857937
0.0075654592 0.004952401 0.0075796572 -0.007827771 -0.015821759 0.0061157863 0.008856257 0.0010406402
0.0042588185 0.003096414 -0.008538185 -0.0006747664 0.0075148954 -0.017929608 -0.006898245 0.0021432221
0.008294748 -0.0058922097 0.0033076447 -7.1886105e-05 0.0055784555 0.0020902904 -0.010514684 -0.0070913285
00000000: a1dc 963b e46c 67bc 9393 fdbc 709d 0fbb
00000010: 01ec 913b b847 98bb 148a 0fbc 58ce 1dbc
00000020: a89c b83b 29fb a0bb 0799 ad39 4e60 703b
00000030: f9eb c03a 7efa 313c f460 9d3b 87ee 12bb
00000040: f104 133b c8d5 1dbb 84b9 433c aba7 d8bc
00000050: 312f 963b 23d5 a8bb 00bb 4b3c 95c2 9a3b
00000060: cfcc f23b e065 eb3b aa71 f33a 17b3 15bd
00000070: 9aa2 983c 256f 23bc cdc2 613a 699b 5bbb
00000080: c8e7 9fbb ee35 883c 3893 623a 9079 ea3a
00000090: 97cb 3c3a fe20 a0bc e1ae e53b 65e9 02bc
000000a0: 2b40 c03a 82f9 31bc 7c2b 143c 3f35 d8bc
000000b0: 0b4c 50bc 467c c63a b238 03b9 449d 893b
000000c0: ddca 143c 6360 5a3c 984b 7a3a 0345 b1ba
000000d0: d4ab 2a3b adbb 9a3a b85e d33b 2392 803b
000000e0: be8f 903b afd0 c2bb d022 d53b 00e2 923b
000000f0: 4468 c03c 656a 0ebc 7594 19bc 962c a6bc
00000100: bb14 4738 081f 8a3a 3b03 a63b 5ff9 9bba
00000110: 3261 423c d5bf 20bc 0f65 65bc 8b3e 9bbb
00000120: 98a9 13bd 1f0c 263a 5a23 83bb bba6 113a
00000130: 5917 bcba 2bab e53b 319f 263c ca5c 6bba
00000140: 1af9 bf3b 6fa6 f9bb 3f46 a33b fe38 0b3c
00000150: 8e6e 233c af87 e5bb efec f6bb d9a0 bf3b
00000160: a63d 10bc c346 a73b e637 c9bc 2b67 38bb
00000170: 1589 1d3c 42d3 e13b aac3 0e3c 5762 d63b
00000180: 24b1 fc38 f7ed 48bc 77af d33b 96cc 093c
00000190: 7a23 2bbc 12ca 93bb 49e4 883b 8187 1b3b
000001a0: 1ce2 16bb 5636 22bd 6103 edbb 78de 363b
000001b0: be6c 933c d706 03bd d5b6 85bc b930 993c
000001c0: 9657 b539 1e41 b83c b07a b83c 8bb7 12bb
000001d0: 9a83 5f3b 83ec ba3b 45d4 6bbb 6a14 7c3b
000001e0: f474 ff3b f500 d0bb e6c9 7d3b f284 ce3b
000001f0: 5047 6abc dc22 94bb c48a 1ebb 3747 203b
00000200: 2452 3abd 1edf 773c f08d 0f3b 7346 a93a
00000210: 4028 cb3b 65fb 2dba 1358 763b b0a6 9eba
00000220: b5a5 13bc 87e8 e5ba 39ac 773c 3016 aeba
00000230: 75cd b43b 8b2e a53b 009f 4b3c 9b35 9f3c
00000240: 914d bdbc 3eb8 3cbb 5d21 013b 32f4 ca3b
00000250: 4617 dbba 796b 56bb 07a1 503c c74d 03bc
00000260: c905 1aba e1aa 973c aea0 86bb a73e 4cbb
00000270: 0d51 56bc a29f c73b 13b2 c83b 1c1c 933b
00000280: 542c eebc b3e4 2a3b aa74 4839 fb20 0fbc
00000290: a97e 8c3b dfb8 13bc 07fe 723b 2ede 80ba
000002a0: e2f1 933b 39f8 f7ba df2b f4b9 553f 543c
000002b0: b304 2a3b 69b7 78bc f3eb a73b 9597 c4bb
000002c0: ae86 e13b b19d 01bc a099 303c e47c 183c
000002d0: eef5 29bb ee7f 83bb b4e3 00bc bebf 37bc
000002e0: 7f09 bbba c049 1cbc fb32 3abc a840 29bc
000002f0: 6d47 56bc ac83 793c 42b9 de3a 0e2c 383c
00000300: 0616 f0bb b71d 303c f7c0 fabc 4b88 bf3b
00000310: 57d0 883c cb5b 6b3a 4704 fc3a 216f 24bc
00000320: 07ba ffba ccca a93b ab5d 1dbc f41d 4fbc
00000330: 6f78 bebb ffed 863b 886a 723c c0af 043d
00000340: 9fe3 2db9 1d90 8b3b 6cb1 8737 6b42 74bc
00000350: 1741 e13b 255c ad3b fc9c f63a 4ba8 3abc
00000360: 9bbe cc3a 03cd babc 6658 e73a 24de 0dbb
00000370: 6b2d 663c 8111 553b 9125 043c fa46 01bc
00000380: 9612 c53b d9a0 183c 1cef 52ba 8209 ecbb
00000390: eefc 873c a179 623c e058 68bc dd91 36bb
000003a0: ace7 f73b c047 a23b c65e f83b 0d40 00bc
000003b0: a29c 81bc ef66 c83b d619 113c 1766 883a
000003c0: 8f8d 8b3b 35ed 4a3b bee3 0bbc cee2 30ba
000003d0: 833f f63b 1de1 92bc ac0a e2bb 4d75 0c3b
000003e0: b2e6 073c 7013 c1bb 12c5 583b 8fc1 96b8
000003f0: 7acb b63b 41fd 083b c845 2cbc 605e e8bb

action_model._discrete_distribution.branches.1.bias f4 [3]
0.0002104386 0.005995858 -0.0036488806
00000000: 2ea9 5c39 e778 c43b 0f22 6fbb

action_model._discrete_distribution.branches.2.weight f4 [2, 256]
-0.004548533 -0.004469481 0.01732507 0.0029255464 0.0028063583 0.00782982 -0.0061563244 0.00021601544
0.00087572786 -0.006569991 -0.00538371 -0.013944026 -0.000513944 -0.014126585 0.002659497 -0.0025716112
-0.0093057705 0.008515619 0.042640477 0.022686562 0.022297204 -0.013881859 0.05410886 -0.0014136878
0.0011506816 0.017717637 0.0054453216 0.037334356 0.0072062253 0.0034769857 -0.0012396661 -0.0021791751
0.012060621 -0.015563691 -0.018242536 -0.0010547937 0.02890794 0.02077513 0.01431882 -0.01077717
0.009629271 -0.0051781065 0.011011576 0.016382411 0.00026770955 0.010839319 0.0044558216 -0.0018214529
-0.0038366166 0.040243696 0.020222967 0.03199453 -0.02289366 0.008236909 -0.013482545 -0.0068718796
-0.0128204245 0.0047345757 0.0068175993 -0.001940906 0.014560504 0.0021383157 -0.0017929273 0.007193529
-0.0042317538 -0.010475277 -0.0038528277 0.04080961 0.007662707 0.028435161 0.009463795 -0.01112434
0.013383329 -0.0063922512 -0.0012751995 -0.011866028 0.017888615 -0.0073889885 -0.022089044 0.0012778336
-0.011780868 0.0030077032 -0.0038765804 0.003922846 -0.0038666823 0.011150701 -0.0002786602 0.003360718
0.015400142 0.014634826 0.0033389002 0.015692664 -0.009820144 0.0074678627 0.006005236 0.0026281846
-0.007358693 0.0010844133 -0.01710742 0.0017554532 -0.011249491 -0.0054627834 0.0016396868 -0.0007874334
-0.0090792 0.018127343 0.0025656857 -0.010291495 0.054208875 0.017807694 -0.0001664929 0.023304341
-0.008629329 0.007581351 0.016609862 -0.01789247 -0.0070929313 0.00065064966 0.037451215 -0.00040737767
0.0013809475 0.0027569553 -0.010646376 -0.004718855 -0.0066701155 0.06666341 -0.0050209747 0.0006180115
0.02778226 0.025575913 0.018279767 0.00052612316 -0.00605008 -0.0029996026 -0.00095049187 -0.005518198
-0.007900901 -0.010473131 0.027557371 0.003608932 0.005160343 0.037996653 -0.0071310983 0.024365084
0.014974717 -0.0042695957 -0.0120354565 -0.006232199 -0.012574474 -0.011182825 0.026368307 -0.0010650333
-0.009347767 0.005387758 0.012672072 -0.0035181001 0.0054491386 0.040235274 -0.010244216 0.03666557
0.017088732 0.009836811 0.016632324 -0.0076800846 0.009425375 -0.007111275 -0.0114889555 0.011118811
0.0059244707 -0.017986337 0.00043319148 0.045680374 -0.01419569 0.008477769 0.051019307 0.008521618
0.043046243 -0.0029730052 0.03598703 0.031743336 0.0072903633 0.003355347 -0.0064388034 0.0064261197
-0.00820303 0.054575175 0.012412809 0.013652824 0.0007351274 0.04389852 -0.0029522441 -0.0022978594
0.023388628 -0.0013465219 0.0030978362 0.012756589 0.046825606 0.017875873 0.02812873 -0.008018022
0.029460084 0.056019947 -0.011924679 0.008245623 8.4623265e-05 -0.013568552 -0.019092461 0.027163597
-0.0030504663 -0.002457529 -0.015868995 -0.014868622 0.022310382 0.029691184 0.0026504572 -0.0132911205
0.044675503 0.061299376 -0.005435114 -0.0024314616 -0.0037158641 0.047401503 0.05185012 0.0037319106
0.025694588 0.009467876 -0.0014104332 0.029977972 -0.01694311 -0.005980162 0.0129176155 -0.0053623756
-0.0002103878 -0.0060946727 0.0019807825 0.027490549 0.011274968 -0.0006678347 0.0010753683 0.0086378
-0.008044613 -0.00315958 0.003027149 -0.0015974586 -0.010543986 0.030672202 -0.0013758686 0.05599657
0.03367558 -0.0079957275 -0.013410155 0.009488397 -0.008776952 -0.0014436599 0.014913096 0.044329714
00000000: dc0b 95bb b974 92bb 4eed 8d3c 86ba 3f3b
00000010: e1ea 373b a548 003c feba c9bb 3482 6239
00000020: 1a91 653a 1449 d7bb d569 b0bb 7c75 64bc
00000030: 33ba 06ba 3173 67bc f54a 2e3b 7a88 28bb
00000040: 3b77 18bc 1885 0b3c c8a7 2e3d 2bd9 b93c
00000050: a0a8 b63c bd70 63bc 41a1 5d3d 7e4b b9ba
00000060: 78d2 963a 9424 913c ab6e b23b e9eb 183d
00000070: 3322 ec3b 24de 633b 4b7c a2ba 7ed0 0ebb
00000080: e999 453c dafe 7ebc 5f71 95bc 0141 8aba
00000090: 58d0 ec3c 9b30 aa3c 7c99 6a3c ba92 30bc
000000a0: 17c4 1d3c 1bad a9bb e669 343c 6834 863c
000000b0: 5e5b 8c39 6697 313c 2402 923b d1bd eeba
000000c0: bf6f 7bbb 93d6 243d a3aa a53c b20c 033d
000000d0: 7c8b bbbc 1af4 063c e4e5 5cbc 812d e1bb
000000e0: c20c 52bc 8024 9b3b 2b66 df3b 0066 feba
000000f0: 2e8f 6e3c fc22 0c3b a800 ebba b2b7 eb3b
00000100: 86aa 8abb 7fa0 2bbc b97f 7cbb fa27 273d
00000110: 7217 fb3b dbf0 e83c 090e 1b3c dd42 36bc
00000120: c045 5b3c 1776 d1bb 9824 a7ba bb69 42bc
00000130: 258b 923c 541f f2bb 15f4 b4bc fb7c a73a
00000140: 8b04 41bc e31c 453b 3a0e 7ebb 388b 803b
00000150: 2a68 7dbb 6eb1 363c 2419 92b9 7e3f 5c3b
00000160: e150 7c3c e9c6 6f3c 73d1 5a3b e78d 803c
00000170: abe4 20bc f9b4 f43b 92c7 c43b 9f3d 2c3b
00000180: 3121 f1bb df22 8e3a dc24 8cbc 3c17 e63a
00000190: c94f 38bc 2601 b3bb c2ea d63a c36b 4eba
000001a0: edc0 14bc cb7f 943c 1025 283b a99d 28bc
000001b0: 200a 5e3d 71e1 913c 9994 2eb9 bfe8 be3c
000001c0: 0762 0dbc fb6c f83b 6811 883c 3b93 92bc
000001d0: d26b e8bb 5c90 2a3a 7266 193d 4e95 d5b9
000001e0: e900 b53a 09ae 343b 236e 2ebc a0a0 9abb
000001f0: fc90 dabb d386 883d fd86 a4bb 0d02 223a
00000200: 9f97 e33c 9484 d13c 73bf 953c 87eb 093a
00000210: c03f c6bb fb94 44bb 6e2a 79ba 00d2 b4bb
00000220: c872 01bc 7f97 2bbc ffbf e13c d583 6c3b
00000230: 1818 a93b 61a2 1b3d fdab e9bb 4999 c73c
00000240: 8458 753c f7e7 8bbb 5d30 45bc 7937 ccbb
00000250: 2b05 4ebc 2b38 37bc 5902 d83c 9698 8bba
00000260: 6027 19bc ca8b b03b 869e 4f3c ed8f 66bb
00000270: b08e b23b becd 243d 5bd7 27bc a32e 163d
00000280: abfd 8b3c 932a 213c 8340 883c 38a9 fbbb
00000290: e36c 1a3c b305 e9bb 2c3c 3cbc ac2b 363c
000002a0: 1022 c23b 1558 93bc fa1d e339 581b 3b3d
000002b0: 0a95 68bc 57e6 0a3c 9ff9 503d 429e 0b3c
000002c0: 4251 303d c0d6 42bb 2367 133d 4d05 023d
000002d0: 00e4 ee3b 62e5 5b3b 99fc d2bb 3392 d23b
000002e0: 0066 06bc 388a 5f3d 185f 4b3c 18b0 5f3c
000002f0: 91b5 403a efce 333d 707a 41bb af97 16bb
00000300: 8299 bf3c c77d b0ba 1105 4b3b 0301 513c
00000310: 35cc 3f3d 6c70 923c 396e e63c 065e 03bc
00000320: 4656 f13c 2c75 653d bb5f 43bc a618 073c
00000330: c577 b138 a24e 5ebc cb67 9cbc 3186 de3c
00000340: 55ea 47bb 7f0e 21bb b2ff 81bc 859b 73bc
00000350: 43c4 b63c ed3a f33c 4bb3 2d3b 00c3 59bc
00000360: a9fd 363d 0e15 7b3d 0a19 b2bb 2859 1fbb
00000370: db85 73bb 1428 423d cb60 543d 1293 743b
00000380: 757d d23c 261f 1b3c 49de b8ba 5d94 f53c
00000390: 47cc 8abc 3cf5 c3bb 68a4 533c deb6 afbb
000003a0: 8c9b 5cb9 d2b5 c7bb 04d0 013b dc33 e13c
000003b0: a5ba 383c a111 2fba 5ff3 8c3a 8f85 0d3c
000003c0: 8dcd 03bc f510 4fbb 2263 463b d161 d1ba
000003d0: afc0 2cbc 4544 fb3c 7d56 b4ba a95c 653d
000003e0: 68ef 093d 8300 03bc 44b6 5bbc 3975 1b3c
000003f0: 34cd 0fbc 3039 bdba 0f56 743c 1393 353d

action_model._discrete_distribution.branches.2.bias f4 [2]
0.0029437542 -0.0029437516
00000000: 00ec 403b f5eb 40bb
