results/MoveToButton_2/ButtonPress/ButtonPress-499897.onnx (onnx, 352736 bytes, 13 tensors)

discrete_act_size_vector f4 [1, 4]
00000000: 0000 4040 0000 4040 0000 0040 0000 0040
3.0 3.0 2.0 2.0

network_body._body_endoder.seq_layers.0.weight f4 [256, 65]
00000000: 0908 823d 55fd d6bd 37df 303e 036b 02bd
00000010: 95ba a1bd 086e 1cbe 3700 a1bc d8b7 29be
00000020: 5922 c0bb 3bbf 493c e838 db3a f1a7 64be
00000030: dd09 d4bd 2dc0 233d a6d3 8e3d 7399 32be
00000040: 508e 903d 6414 953d c96a 00be 3588 173d
00000050: 175f a93d d7e4 0e3e 6ab9 4cbd ecd6 debd
00000060: 6e08 173a 818f d8ba 0eca b23d 56b5 513d
00000070: 07b8 9bbe cb6a 2abe 5e80 b03e e341 e23c
00000080: 3bd2 023d 2ee0 07bd 7b58 c8bd a5bb 70be
00000090: bf73 37bd f2f4 f73d 665b 943e 1512 f53d
000000a0: 3baa 04bb 2bed 5abd ffb0 1bbd 8645 963e
000000b0: 47bb b2bd a55e dabd 6460 e53c f25f 893c
000000c0: 0125 593e 94f4 8dbd 95c6 9a3d c0a8 2fbd
000000d0: d35a 8ebe 5d48 da3d 83eb bb3d dbc4 6ebd
000000e0: 129a 89b9 d8a4 083d 1108 e4bd 8c63 8bbd
000000f0: e6a3 6dbe f485 42be c179 09be 21d3 873e
00000100: 9476 e4bd fc06 c3bd 56b4 143b 1e05 64bd
00000110: 5632 5ebd 5e28 0c3e e5c1 8f3d b8bd e9bd
00000120: 5eb2 cfbc 895b 86bd a824 c7bd 9afd 8d3d
00000130: c32a 233e 2493 d83d 3833 74be 5f49 043e
00000140: eb58 9ebe a368 77be 67fe 64be d9a6 ccbd
00000150: 3b36 793e 7824 403e 5a01 fabd 877d 4a3e
00000160: d9e3 d1bc a604 523c ec0d d5bd 1b32 923d
00000170: da7b 07be d4be 16be d7e1 3d3e 3ef0 d4bd
00000180: 97b0 16be 0a1e 533e 2786 15bd 1b86 953d
00000190: df81 90bd e2fd 14be 05d0 043e 7e8b f93d
000001a0: d3f5 363d 1828 a8bd 130f f23d 3c18 33bd
000001b0: 7ef6 72be e977 11be 7d52 fcbd c5e1 d0bd
000001c0: 993a e33d 196a c03d af8b 8cbb aa97 1cbe
000001d0: 692d 2cbd b6a9 c2bd e4e9 a6be 37b8 3dbd
000001e0: 4b4e 1abe 8def e93d 0774 eabc a0a7 823d
000001f0: 96f5 2ebd 07c5 62be 5fcc ae3d 08d9 d03d
00000200: abfe 383e 6c58 693e af8a ae3d 19d5 01be
00000210: 1ac9 f03c f9d9 5e3d c8ce 17be 8c1a 7c3e
00000220: bf24 1c3e 3037 e6bd 3740 13bd 9e4d 3c3e
00000230: 9894 e83d 3426 1dbe 4109 f039 88e6 053e
00000240: 213a 1bbe 7db0 153e fa2f bebd 8cde 48bd
00000250: 4ffb c1bd 82e7 613e 036e 94be 0b3a 763e
00000260: 0827 473d cb45 c13d f5d3 ed3d 134b 473e
00000270: 534a 98bd 184c 1fbe 5c18 4dbd 7600 423d
00000280: 88d6 c03d 518c 38bc c66f b43d 3b15 ce3d
00000290: 814b c53d 0e0f 14be f27e 39be c28c 9a3d
000002a0: b30a cebd 3a8f 3f3e 55e9 e3b9 9c4a 8c3e
000002b0: 8e90 2ebe 182d 77be a7f5 8dbd ef4e 18be
000002c0: 7906 21bd 2b3f 83bc 6651 013d a3c0 9dbd
000002d0: ed67 88be a0a3 a83e 04a4 65bd 3f08 1abe
000002e0: 5cd1 0fbe b72d 7f3d 4bfb 59bd d31f e33d
000002f0: 8a3f 8abd 72f0 273a 9c90 15bd a75b 24bd
00000300: e081 4cbc 04d6 7cbd d9f4 13be 5f77 12bd
00000310: e286 25bd 9c03 fabc c0f3 ad3d 85fb 333e
00000320: b9e1 61be 6360 1c3e 3a51 fc3d c108 273e
00000330: 3b89 7fbd 9d31 f83c e4fc e73d 4bb7 91bd
00000340: c1d8 d23d 644e 1fbe 3e01 7cbc 04fa a93d
00000350: 8526 db3c 5997 8cbd 005f 2fbe dcdf 733d
00000360: 1f36 d03d 9e36 20be f9ad 42bd 485e 2c3e
00000370: 318e 593b 4cd2 da3d 4d28 0fbe c086 f1bb
00000380: 403b 9ebd eb06 743e 35f8 1e3e 5686 e3bd
00000390: 6fdd 8abc 9283 4c3b 154f d53d 136c 3ebe
000003a0: 4036 88bd 2abc 85ba 97a8 18be fc20 afbd
000003b0: 63e6 bebd 2bad 803e 912e 013c b266 c13d
000003c0: 4926 12bd 8773 693d bc81 c1bd b61c 97bd
000003d0: 0366 173e 439c 78bd 0e9a c43d 3eb4 a93d
000003e0: 349f 073e 0857 b43d dfd8 abbd 22cb bcbd
000003f0: 739a 87bd 3c29 693c f284 003e 954e b63e
0.06349189 -0.10497538 0.1727265 -0.031840336 -0.07896916 -0.15276349 -0.019653423 -0.16574037
-0.0058634696 0.012313659 0.0016725333 -0.2232969 -0.10353444 0.039978195 0.069739625 -0.17441349
0.07058394 0.0727928 -0.12540735 0.03699513 0.0827009 0.13954483 -0.049981512 -0.10880837
0.0005761449 -0.001652226 0.08729945 0.051198326 -0.3041384 -0.16642301 0.34472936 0.027619308
0.031938773 -0.03317278 -0.09782501 -0.2350908 -0.04478812 0.121072665 0.2897598 0.119663395
-0.0020243067 -0.053448837 -0.038010594 0.29349917 -0.087271266 -0.10662583 0.028000064 0.016769383
0.21205522 -0.06931415 0.07557408 -0.042885542 -0.27803668 0.106583335 0.0917578 -0.058293205
-0.00026245468 0.033360332 -0.11134351 -0.068060964 -0.23207054 -0.18996412 -0.13425352 0.26528266
-0.111554295 -0.095228165 0.0022690496 -0.055668943 -0.054247223 0.13687274 0.07019404 -0.11413139
-0.025353607 -0.06560428 -0.097237885 0.06933136 0.15934281 0.1057494 -0.23847663 0.12918614
-0.30927214 -0.2416101 -0.22362672 -0.09992761 0.24337094 0.18763912 -0.12207289 0.19774447
-0.025621342 0.012818491 -0.10403046 0.07138463 -0.1323084 -0.14721233 0.18543182 -0.10397385
-0.14715801 0.20616928 -0.03650489 0.07300969 -0.07056021 -0.14549974 0.12969978 0.12184809
0.04466803 -0.08210772 0.118192814 -0.043724284 -0.23726842 -0.14205898 -0.12320421 -0.10199312
0.11095161 0.093952365 -0.0042891125 -0.1529223 -0.042035494 -0.09505026 -0.3260032 -0.04631826
-0.15068929 0.11422644 -0.02861978 0.06379628 -0.042714678 -0.22145472 0.085350744 0.101976454
0.18065898 0.22787637 0.085225455 -0.12678947 0.029392768 0.054407094 -0.14824975 0.24619502
0.15248393 -0.11240995 -0.035949912 0.18388984 0.11356467 -0.15346605 0.00045783262 0.13076222
-0.15158893 0.14618106 -0.092864946 -0.049040362 -0.094717614 0.2206097 -0.28990182 0.24045579
0.048621207 0.0943714 0.11612693 0.19462232 -0.07436051 -0.15556371 -0.05007206 0.04736372
0.094159186 -0.011263923 0.088103816 0.10062643 0.09633542 -0.14458868 -0.18114832 0.07546379
-0.100606345 0.1870698 -0.0004347066 0.27400672 -0.1704733 -0.24138296 -0.0693162 -0.14873861
-0.039312813 -0.016021332 0.03157177 -0.07702758 -0.2664179 0.32937336 -0.05606462 -0.15042208
-0.14044708 0.062299456 -0.053218167 0.11090054 -0.067504 0.00064063736 -0.036514863 -0.04012647
-0.0124821365 -0.06172754 -0.1444887 -0.035758372 -0.040411837 -0.0305193 0.08493757 0.17576416
-0.22058763 0.15271144 0.1232018 0.16311933 -0.062386733 0.030297095 0.11327532 -0.071150385
0.10295249 -0.15557247 -0.015381156 0.0829964 0.026751766 -0.06864805 -0.17126083 0.05953966
0.10166573 -0.15645835 -0.047529195 0.1683284 0.0033196325 0.10684642 -0.13980217 -0.0073708
-0.07726145 0.23830764 0.15524371 -0.11109607 -0.01695129 0.0031206352 0.10415474 -0.18595915
-0.06650972 -0.0010203172 -0.14908062 -0.08551213 -0.093212865 0.25132117 0.007884637 0.09443416
-0.035681043 0.05699494 -0.09448573 -0.07378523 0.14785008 -0.060695898 0.09599696 0.082863316
0.13244325 0.088056624 -0.08390974 -0.09218432 -0.06621256 0.014231022 0.12550715 0.35606828

network_body._body_endoder.seq_layers.0.bias f4 [256]
00000000: 952a 7d3c ced1 4bbc 4d29 c1bb b419 6b3d
00000010: 85a9 e73a 01c3 a3bc 8e4d 7b3c e842 a9bc
00000020: 5398 923c dbcf cbbc 1416 97bc e162 4fbc
00000030: 47f5 e2ba 2b90 253c e000 0bbd 98a7 85bc
00000040: c9d5 e9bc 78a2 003d 1f5f 123b b410 d43c
00000050: 6159 b6bb 47bf 2c3d 32a3 bdbc 5a76 afbc
00000060: 21e1 0a3c dd62 bc3c 776c 9c3d 526b c9bc
00000070: 1cec 7fba c7cc 403d dbc6 21bd 2950 a8bb
00000080: 1167 c7bc d06f 843c 084d d1bc 57a2 973a
00000090: 4084 1cbd 2a95 2c3a 58af e3bd dcd8 91bd
000000a0: acf1 bc3c 3e6a 33bc 1b6c 22bd d8b3 103b
000000b0: 5e44 17bc cdce a2bc 3f51 983c 3f1a b73c
000000c0: d934 21bc 1e70 a43c 8cd6 46bd 564b 0cbd
000000d0: 63ca dbba 117a 423c 26f8 d9bc c20d 9d3c
000000e0: c71d b73b 1c93 9bbc a992 9ebc f9ee 343d
000000f0: bfec 11bc a2dc 49bc a379 2f3d 3ee9 4b3c
00000100: 5a9a 693c 8e41 7fbc f2fb 59bd 87f4 83bb
00000110: a35d b83c 878f 953c 16be 74ba e902 1abd
00000120: c8f3 4fbc 3c16 15bd 12d8 d6bc bd6d ed3a
00000130: 3d58 afbc a101 98bc a884 193c 4d68 48bd
00000140: e3c1 cc3b 1d90 aa3b 2681 b33b ae72 b2bb
00000150: 712a e53b 3dd8 c73c a4e2 f9bc 7ea6 f5bb
00000160: ca92 98bc 820e 99b9 6f86 adbc 2550 263d
00000170: e542 3e3c 52d1 b93b d6bb ecbc 1e05 0abd
00000180: 3495 43bc bf50 25bd 9f07 99bc 60b0 46bd
00000190: 51aa 51bc 8e33 24bc 6b18 493b 8247 033b
000001a0: f883 d1bd 5cfb 0bbd d3e0 253d 1b03 b6ba
000001b0: e7e1 ebbb 03da 34bc 9034 1dbc a4b9 023c
000001c0: b35e b8bc d225 b2bc ca71 08bd dede 5ab9
000001d0: eecb 8cbd 410d eabc 9188 9b3b 6d4a bebc
000001e0: 5577 843b eb40 ed3c 59d0 f63c cfe8 a8bc
000001f0: eb5d 51bc 342c 983c f2e6 e8bc 21b3 96bc
00000200: f1d5 ebbc bdc5 e0bc 9d48 94bc b320 853c
00000210: 7316 fdbc 1cde 7cbc 14d6 acbb 7933 80bb
00000220: 88e6 07bd bf66 20bd c42e a3bc e188 413b
00000230: 5aa6 29bc 1e66 80bc a1d1 eb3b 3da1 ec3b
00000240: a3d1 32bc 4a18 b83c f00e d43a db30 dbbc
00000250: 8fed 97bc 1392 86bc de1a 9dbc b618 af3b
00000260: cfaf 75bc 0925 933a bc42 08bd 93cf c5bc
00000270: 3d4d 61bc 11e0 113a 3baf 8abc 6f00 cbbb
00000280: 848b afbc b6d2 0d3b 14a1 57bd 42a2 1fbc
00000290: b9bd 493d 2a51 afbc d7fb 4a3c d86e afbc
000002a0: fcfb 89ba 49ae 403b e85d 983c 3fbe 77bc
000002b0: 23b1 17bc b077 efbd 23a2 7dbc 60f2 b83c
000002c0: dc88 e739 7e4e 72bb 2e69 07bc 4359 563c
000002d0: 7a7e f3bb c346 27bc 2004 913c 5227 5cbc
000002e0: 73c2 f3bb 65af a2bc ec04 7dbc 1c54 14bc
000002f0: 46c7 8e3b a791 3dbc de69 1c3c 1e6a ad3b
00000300: b13c b5ba 8867 babc 63b7 7b3c be4d 833c
00000310: 1531 f83c 6672 9c3c dc6f 463c 2109 0dbd
00000320: c086 13bd c1a4 03bc 618e 19bd 38a4 a8bc
00000330: bcdc 13bd a545 493d fe49 30bb 28a7 953b
00000340: 5970 17bd db21 923c f8a7 13bd b783 b33c
00000350: 73cc 1d3d 5ce2 8a3c 2a3e 8abc 975f e8bc
00000360: 445a 153c 916b 393c dfbc 0e3b 2566 41bc
00000370: 13a8 23bd 5571 a5bc 73af edbb 978a b9bc
00000380: ca2a c73c bf9d eebc 24ae 06bd a00c 10bd
00000390: 27e8 77bc 1469 79bc 3ddd b83c 262f b9bc
000003a0: a8d6 fcbc df92 59bc d0a4 9ebb aa20 0dbd
000003b0: 2edc 8fbc 3730 83bd 9c31 0dba f400 bdbc
000003c0: 764b 61bb 30b5 d03b 7a02 953c de31 adbc
000003d0: bcff 73bd 8a17 3cbc 18eb b83c 99c3 043d
000003e0: fc72 b13a 56f7 863c 5d5f 873c 2cb3 7a3b
000003f0: 9ef9 be3c 9476 6dbb 05c2 98bc 8c0f e8bc
0.015452047 -0.012440158 -0.005894816 0.05739756 0.0017674422 -0.019990446 0.015338315 -0.020661786
0.0178949 -0.024879387 -0.018443145 -0.012657852 -0.001731553 0.010105173 -0.03393638 -0.016315266
-0.028544324 0.031404942 0.0022334529 0.02588687 -0.005564854 0.042174604 -0.023149107 -0.02141874
0.0084765265 0.02299636 0.076378755 -0.024587307 -0.0009762661 0.04707029 -0.039496284 -0.005136509
-0.024341138 0.016166598 -0.025549427 0.0011568767 -0.03821206 0.00065835065 -0.111174285 -0.07121441
0.023064457 -0.010950623 -0.03965388 0.0022079851 -0.009232609 -0.019874 0.018593429 0.022351382
-0.00983926 0.020072993 -0.04854445 -0.034251533 -0.001676869 0.011869923 -0.026607584 0.0191716
0.0055882665 -0.018991046 -0.019357042 0.044173215 -0.008906542 -0.012320669 0.04284061 0.012445746
0.014257992 -0.015579594 -0.05321879 -0.0040269527 0.022505587 0.018256916 -0.00093361863 -0.03760043
-0.012692399 -0.036398157 -0.026226077 0.001811437 -0.02140438 -0.018555464 0.009370007 -0.048927594
0.006248699 0.005205168 0.005478042 -0.0054458 0.006993585 0.024395103 -0.030503578 -0.007496654
-0.018624682 -0.00029193243 -0.021182267 0.040603776 0.011612629 0.005670705 -0.02889816 -0.033696286
-0.011937428 -0.04036021 -0.018680392 -0.048508048 -0.012796954 -0.010022057 0.003068472 0.0020031636
-0.10230249 -0.03417526 0.040497612 -0.0013886424 -0.0071985605 -0.011038306 -0.009595051 0.0079788305
-0.022506094 -0.02174655 -0.033311643 -0.00020873125 -0.06874834 -0.028570773 0.0047465046 -0.023228848
0.004042546 0.02896162 0.030128645 -0.020618824 -0.012778739 0.018575765 -0.028430436 -0.018395962
-0.028788539 -0.027438039 -0.018101031 0.016250944 -0.030894494 -0.015433814 -0.0052745435 -0.003912386
-0.033178836 -0.039160486 -0.01991976 0.002953105 -0.010354603 -0.015673693 0.0071966206 0.0072213695
-0.010914239 0.02247252 0.0016178768 -0.026756695 -0.018545894 -0.016427075 -0.01917785 0.005343522
-0.014995529 0.0011226247 -0.033266768 -0.02414683 -0.013751325 0.00055646995 -0.01692926 -0.00619512
-0.02142883 0.0021640486 -0.05264385 -0.009743275 0.0492532 -0.021401007 0.012389145 -0.02141516
-0.0010527368 0.0029400757 0.018599465 -0.015121042 -0.009258541 -0.116927505 -0.015480551 0.02257651
0.00044161722 -0.0036973055 -0.008264823 0.013082805 -0.0074308487 -0.010209742 0.017702162 -0.013437109
-0.0074389516 -0.019859025 -0.015443068 -0.009053256 0.0043572513 -0.011570371 0.009546725 0.005292191
-0.0013827292 -0.022754446 0.015363547 0.016028281 0.030296842 0.019097518 0.01211163 -0.034432534
-0.03601718 -0.008034886 -0.0374893 -0.020586118 -0.03609918 0.049138684 -0.0026899572 0.0045670457
-0.036972377 0.01783841 -0.03604886 0.021913392 0.038525056 0.01695364 -0.016875345 -0.028365893
0.009115759 0.01131715 0.0021780056 -0.011804138 -0.03995521 -0.020195642 -0.007253581 -0.022649093
0.024312396 -0.029127954 -0.032880917 -0.03516829 -0.015131033 -0.0152228065 0.022566432 -0.02260549
-0.030864075 -0.013279646 -0.0048414245 -0.03445498 -0.017561045 -0.064056806 -0.00053861155 -0.023071744
-0.0034377254 0.0063692555 0.018189657 -0.021141943 -0.05957006 -0.0114802215 0.022573039 0.0324131
0.0013538296 0.01647536 0.016524965 0.0038253767 0.023312386 -0.0036234008 -0.018647203 -0.028327726

network_body._body_endoder.seq_layers.2.weight f4 [256, 256]
00000000: aa66 063c befe 00be ac34 cbbd cf22 65bd
00000010: c87b 3dbd 1892 da3d 9cef 4a3c 1b67 6bbb
00000020: e0aa 42bd 5f34 d9bd f0e2 8abd 7dd8 c3bc
00000030: c505 963d b136 293d 1389 4b3d 4660 c73d
00000040: 84a0 7abd c996 3dbe bee3 06bd 34f3 92bd
00000050: f105 1c3d a4f6 62bd 8a72 49bd afb4 733d
00000060: 5b54 35be 9582 cd39 c1f7 fa3c f316 d7ba
00000070: 1ab4 23bc 947a 22be b4e1 bcbc 2dd5 8fbc
00000080: 8397 12bd 15c0 703d 24f2 21bd 7baa 7ebd
00000090: bd46 43bd 2495 f83b 02a4 e53d b591 a6ba
000000a0: 38a5 3c3d 5297 a3bd c2d8 1cbd 959b e7bb
000000b0: 93fa babc 52cb 233c 0523 103d 9b55 01be
000000c0: da43 023d d66e 85bd ffd8 b9bd e368 bcbd
000000d0: 6aa4 f53a 70a9 c7bd fd9c 01bc ccad 00be
000000e0: 291a 473c 4ac8 9dbd 9df9 883d 931a 5ebe
000000f0: 7a19 f7bc 3f4e 133d 5f12 003d 57c4 9a3c
00000100: 9c3f 25bd 18c7 183d ea23 783d f8d3 953d
00000110: f3f9 fdbd fbc4 bebd 93f0 e6bc a37e a0bd
00000120: e57e 6fbd 4881 e93d a4d3 9dbd 420e 90bc
00000130: 2aaf 9738 4a6d c73c a5a3 81bc f13c 14be
00000140: 6811 563d d3fe 823d 7940 843b 3781 c4bd
00000150: 0cb7 c0bd 8dc4 64bd 63d3 ffbd 8781 1cbd
00000160: c755 efbc 6736 e8bc 9e39 10bc f46b f2bc
00000170: 1291 2fbc 532f d33b 73bf 853d a818 17bc
00000180: a80d 303e d16d 833d 4fab 14bc dc3c 8c3d
00000190: b056 373d 9f79 2dbd 5c04 b2bc 505b c23d
000001a0: 7808 6dbc b9cc 593d ad08 5cbd da63 9ebd
000001b0: 7f39 103e e667 dbbd fff9 ae3d b1ef 9c3c
000001c0: b2dc 6dbd 9f69 82bd 4f77 273d fd00 1bbc
000001d0: 1372 8a3d 02bd 02bd 85a5 943d 8738 60bd
000001e0: fd13 b03d 37fe aabd 5d03 a2bc 4618 6f3d
000001f0: 74bf bcbc 94db a0bd f899 513d b3d1 8b3b
00000200: f3c3 5e3d 0d13 f13c 9dfa 003d 408b 263c
00000210: 4586 25bd 08ec e23a 75c1 85bd 584f d7bd
00000220: 9c21 06bd f20c 31bd fd31 fabc 0658 04be
00000230: d0ea 993d cb5a 9b3c 76aa 14be 91f1 7a3d
00000240: cefc 40bd 01ae 92bc fd5e 6ebc 4efd 2c3e
00000250: d65f 4e3e 178f be3d 2160 58bd 2fe8 a9bd
00000260: af58 33bd f9af 3f3d 86dc 57bb 9d3d cd3d
00000270: 2d1a 043d 2d53 e33b 6ff4 1bbc b758 e6bd
00000280: 7ee7 283d 1d21 5abd 3a85 b1ba fab8 f8bc
00000290: a83f fc3c 4274 2b3d 1a0f cabc 9a1b 063d
000002a0: 3157 153d 3ee6 d3bd 6719 443e f5f7 8abd
000002b0: e311 1f3d bf5a 173d 7090 893d d231 113d
000002c0: e6a8 d0bd cc10 b13c 8d64 b53b 401c 15bc
000002d0: df5a 523b 7992 e53c c7af a6bc 56d8 6ebd
000002e0: df46 1d3e 880c 023d 83fd 3ebd 289d ab3c
000002f0: 8b87 273e e6b0 6dbd 01ba 8cbd f8e5 913d
00000300: 0f18 35bb a637 bebd 8746 d6bb 4f36 41bd
00000310: c93f d13d 7b20 7ebd aafe 2ebd 904e e83c
00000320: 4733 2d3d 270c 743d 0ab1 a8bd a500 4ebd
00000330: 11ed fbbc abec ec3c 66b6 dcbc 54e8 37be
00000340: ee52 c53d 9ba7 923d f7b5 783c 9881 97bc
00000350: 337c 38bd 65ef a73c b7f2 903c ffbf a83c
00000360: dff4 7cbc 4554 10be c19f c7bb aa3e 0b3d
00000370: dac3 8bbd d0cf 3abc 0b78 383c 0c06 4dbd
00000380: 585e 823d 3a5b 173d 2e09 dbbc 1af9 50bd
00000390: f7db a3bd 4e42 cb3c 04f9 7d3d c049 b53d
000003a0: e0bb a63b c701 b3bd 53d8 b23d 8520 303d
000003b0: 58d9 78bd 4601 203c 8da0 dc3d ec63 c33d
000003c0: 789f 0cbd 191a 9abd a59d 6e3d b646 89bd
000003d0: 4b07 d73c acff bebd 942d d7bc 0320 11be
000003e0: b53b f4bc 5088 81bc e726 14bc d344 a13d
000003f0: 35a6 c83d ab2c edbd 611d 8c3d 2168 4cbe
0.008203188 -0.12597176 -0.09922156 -0.0559414 -0.046260625 0.106723964 0.012386229 -0.003591961
-0.04752624 -0.10605692 -0.06781566 -0.02390694 0.07325319 0.041311923 0.04969127 0.097351596
-0.061188236 -0.18514551 -0.032932036 -0.071752936 0.038091604 -0.055410996 -0.0491815 0.059498485
-0.1770796 0.00039197938 0.030635716 -0.0016410038 -0.00999167 -0.15867072 -0.023056842 -0.017557705
-0.035789024 0.058776934 -0.039537564 -0.0621743 -0.047674883 0.0075861383 0.11212923 -0.0012708219
0.046056002 -0.079878464 -0.038292654 -0.0070681074 -0.022824561 0.009997206 0.035189647 -0.12630312
0.03180299 -0.06515281 -0.09074592 -0.09199693 0.0018741016 -0.097491145 -0.007910964 -0.12566298
0.012152233 -0.07704218 0.06688235 -0.21689825 -0.030163515 0.035963293 0.03126752 0.01889245
-0.040343866 0.037299246 0.060581125 0.073158205 -0.1240119 -0.09314915 -0.028190887 -0.07836654
-0.058470625 0.114016116 -0.07706383 -0.017584924 7.232868e-05 0.024344105 -0.015825102 -0.14476372
0.052262694 0.0639626 0.004036006 -0.09594958 -0.094099134 -0.055851508 -0.12491491 -0.038209464
-0.029215707 -0.028346254 -0.0088027995 -0.029592492 -0.01071574 0.0064448505 0.06530657 -0.009222187
0.1719271 0.0641743 -0.009074046 0.068475455 0.044760406 -0.042352315 -0.021730594 0.09490073
-0.014467351 0.053173754 -0.05371921 -0.07733889 0.14084433 -0.107131764 0.08543777 0.019157263
-0.0580718 -0.06367802 0.040885266 -0.009460685 0.06760039 -0.031918533 0.07258133 -0.05474141
0.085975625 -0.08349269 -0.019776994 0.05837276 -0.02304051 -0.07854381 0.051172227 0.0042669415
0.05438609 0.02942803 0.031489003 0.010165036 -0.040411253 0.0017312774 -0.065310396 -0.105131805
-0.032746896 -0.043225236 -0.030541414 -0.12924203 0.0751549 0.018964192 -0.1451815 0.061265532
-0.047116093 -0.017905237 -0.014549014 0.16893503 0.20153746 0.09304636 -0.05282605 -0.08296239
-0.043785747 0.04679868 -0.0032937839 0.100215174 0.032251526 0.0069374056 -0.009518727 -0.1124739
0.041236393 -0.053254236 -0.0013543733 -0.030361641 0.030792072 0.04185892 -0.024665404 0.032741167
0.036460105 -0.103466496 0.19150315 -0.06785575 0.038835417 0.036951777 0.067170024 0.035447903
-0.10188465 0.021614455 0.005535668 -0.009100974 0.003209762 0.028023945 -0.020347489 -0.058311783
0.15359066 0.031750232 -0.046628486 0.020948961 0.163603 -0.05803003 -0.06871415 0.07123941
-0.0027632748 -0.09287958 -0.0065391692 -0.047170933 0.10217244 -0.062042695 -0.042723335 0.028357774
0.04228523 0.059581902 -0.082368925 -0.050293583 -0.03075269 0.028921446 -0.026942443 -0.1795972
0.09634958 0.071608745 0.015180103 -0.018494412 -0.04504032 0.020499894 0.01769386 0.020599363
-0.015439241 -0.14094646 -0.006092042 0.033995308 -0.06824465 -0.011402085 0.011259089 -0.050054595
0.06365651 0.036952235 -0.026737776 -0.05101881 -0.08000939 0.02481189 0.062005058 0.08851957
0.0050883144 -0.087405734 0.08732667 0.042999763 -0.06075415 0.009765929 0.1077281 0.09540543
-0.03433177 -0.07524509 0.05825581 -0.0670294 0.026248595 -0.09326109 -0.02626685 -0.14172368
-0.029813627 -0.01581207 -0.009042478 0.07874455 0.097973265 -0.11580785 0.06841541 -0.19961597

network_body._body_endoder.seq_layers.2.bias f4 [256]
00000000: 4c50 1dbc f376 153c 4696 6abc 2772 9abc
00000010: a092 c2bc 67dd 54bc e105 983b 7d0b 59bc
00000020: 991a ebbc 9506 e53b 9ca7 803c 3e27 bdba
00000030: f86f 753a 2c37 4d3c 7924 653b 98d4 5cbc
00000040: a4c6 14bc 3996 babc 4f75 12bc 77d7 18bd
00000050: 66af 243c 3b82 53bb 6486 2ebc 8677 ca3b
00000060: 719c 13bc 3242 bab8 dc44 1bbd 0fff bcbc
00000070: a9bd f9bc 7c98 a73c b4c8 33bb 9eff b13b
00000080: c62a 81bc 779b 8bbc c506 cbbb 6dd7 1a3b
00000090: b57b 33bb eeac d7bc 2d03 9e3b 27fb bebc
000000a0: ce15 9b3c f1a9 40bc cb32 3f3c a7c1 943b
000000b0: ce56 9abc 6539 af3a 162f 89bb d6f7 b53a
000000c0: 84a9 ddbc 1151 043c 2bf2 20bd ca3a 203b
000000d0: c02c b2b9 13b8 68bc 1bf2 6f3c 3018 fb3a
000000e0: 48b0 3bbc 4062 93bc e816 cabc 8c7b 72bb
000000f0: 549b b1ba 1a13 12ba d443 963b 30ab d53b
00000100: 3936 42bb d187 42bc 9491 fd3a a353 c43b
00000110: 4488 8dbb ef98 1dbd ee4e 463b 5ba5 e1bc
00000120: 1deb cebc 9297 88bc 9b95 6cbc c463 883b
00000130: 561f 41bb aba5 efbc c46f 34bc 600c 06bc
00000140: 730a 0abd 4259 63bb 8c26 ffbc eb69 1abc
00000150: 806f a03c e9d0 253c 0b67 46bc ab7f 0ebd
00000160: def6 82bc 0217 1f3c 05df 143b 9c33 c438
00000170: 08da 80bc a14b 1dbb e0e3 e8bb 6dba 53bc
00000180: f6ae c73b c041 09bc 48c5 3bbc 43fe cbbc
00000190: a4d0 8dbc c09e 0d3a 231b b6bc 2f17 92bc
000001a0: 0a52 69bc 8a86 6339 27de 1ebc 5092 f0bb
000001b0: ef99 e1bb 3da6 83bc 0d98 783b 8036 63bc
000001c0: 318c 563b 9919 c5bc 34b8 813c 710c 6c3b
000001d0: ad0c a3bc 0613 d8bc ce9a 8bbc b565 0dbb
000001e0: e909 d7bc a979 01bc f24d 64bb 8867 943c
000001f0: c74e 50bc 41cd 823b f960 41bc 872f 873c
00000200: 93ad b4bb 5700 71bc 099e 1ebc bdb3 80bc
00000210: deed 77bc 8f19 8fbb 0e03 03bb e1b0 d9bb
00000220: 170a 55bc bb6a 0c3c fb43 093b 9674 cdbb
00000230: 619e dd3b 8e85 153c 6edd 7b3b 2a2c 16bc
00000240: 147b 17bc 749f e3bb 9423 9d3a 0a2f f8ba
00000250: 67ec 293c f00b 8bbb 22bb 813b 871b 79bc
00000260: ffe6 e5bc a0b7 e83b 1e32 67bb fc6b 57bc
00000270: 51c4 ecbb bd46 5bbc 925e 97bc 4abf 723b
00000280: 88f7 cfbc 19cc 26bc b719 78bc 9fe4 453b
00000290: d484 15bb f88f 8dbc 17f2 ccbb 77c5 303c
000002a0: b6c0 0fbd d4af 4dbc 34de a6bc d2d7 9dbb
000002b0: 2ef8 69bc 0616 8a3c cce4 65bc bf50 a9bb
000002c0: 3268 d53b 075c 70bc ffc6 58bc 361b 31bc
000002d0: 1da6 28bc 64bf ce3b 8003 d4bc 0e70 1ebc
000002e0: 9555 9f3b f1bb 0c3c 2c1a 16bc 3b6b a1bc
000002f0: f7e0 543c 3086 f3b9 ff82 bebc d4d2 c7bb
00000300: daec 44bc 147d e4bb c4cc a8bb c47e 4dbc
00000310: 6729 5cbc 999d 93bc 4120 74bc e7ce c8bc
00000320: 6ba8 f239 f8e4 0abc b8ed 34bb 5ad8 88bc
00000330: 3075 40bc 85ff bbbb 2d30 08bd 340f 0bbc
00000340: 62aa d83a fd8f cdbb 2147 ccbb 16c5 0fbc
00000350: 519d 96bc 68ff 80bc ddf5 7e3b a868 e4bc
00000360: 4406 2f3c 3052 46bc 4968 103c 86cd 3cbb
00000370: d773 39bc ded5 9bbc 53f1 4a3c 9bd5 353c
00000380: c453 e93a 5470 8e3a a2ff fe3b a754 283b
00000390: fafd ebbb 5a48 17bc 882c 40bc ebc9 d7bb
000003a0: 1942 7fbc 098b 3abc ea8e c2bc c8e4 22bb
000003b0: 59f7 51bc 85cb 71bc ad26 52bc 4602 6ebc
000003c0: 5617 343c ef5b f0bc 5058 b3bc 77a0 45ba
000003d0: 71a4 573c 4e85 10bb 8dbf 843c d646 a7bc
000003e0: a37e d6bb c4ae a93b 3029 afb9 75aa 2dbc
000003f0: a467 67bc f7fc a03c b023 05bc c0f2 12bc
-0.009601664 0.009122598 -0.014318055 -0.01885326 -0.023751557 -0.01299224 0.0046393727 -0.013247368
-0.028699206 0.00698931 0.015704922 -0.0014431251 0.0009362693 0.012525361 0.0034964366 -0.013478421
-0.009080563 -0.02277671 -0.008939101 -0.03731486 0.010051584 -0.0032273668 -0.010652158 0.006178799
-0.0090094665 -8.881501e-05 -0.037907466 -0.02307084 -0.030485945 0.020458452 -0.002743286 0.0054320833
-0.015767466 -0.017041905 -0.0061958754 0.002362694 -0.0027386968 -0.026327576 0.004822156 -0.023313118
0.018931296 -0.011759267 0.011669825 0.0045396867 -0.01884022 0.0013368545 -0.0041865213 0.0013883065
-0.02705837 0.008075968 -0.03929345 0.0024449104 -0.00033984147 -0.014204043 0.014645125 0.0019156989
-0.011455603 -0.017991185 -0.024669126 -0.003699991 -0.001355032 -0.00055723044 0.0045857225 0.0065206513
-0.002963437 -0.0118732015 0.0019345754 0.0059914156 -0.0043192226 -0.038475927 0.0030259448 -0.027544668
-0.025258595 -0.016673837 -0.014439966 0.0041622836 -0.002946814 -0.029253801 -0.011012975 -0.008181661
-0.03370137 -0.0034690653 -0.03114631 -0.009424667 0.019584417 0.010120609 -0.012109528 -0.034789722
-0.015986856 0.009710075 0.0022715938 9.355621e-05 -0.015728965 -0.0024001377 -0.007107243 -0.012922865
0.006093855 -0.008377492 -0.01146061 -0.024901515 -0.017311402 0.0005402379 -0.022229737 -0.01783332
-0.014240751 0.00021698527 -0.00969652 -0.0073416606 -0.0068848054 -0.01607048 0.0037932426 -0.013867974
0.003273737 -0.024060057 0.015834905 0.0036018158 -0.019903505 -0.026376259 -0.01704159 -0.0021575515
-0.026249843 -0.007902541 -0.0034836498 0.018115774 -0.0127140945 0.0039917533 -0.011802905 0.016502155
-0.0055138557 -0.014709554 -0.009681233 -0.015710706 -0.015132396 -0.0043670605 -0.0019990834 -0.0066434
-0.013002894 0.008570368 0.002094506 -0.0062700016 0.006763265 0.00912608 0.0038431543 -0.009165803
-0.009245653 -0.0069464985 0.0011988753 -0.0018934917 0.010371304 -0.0042433664 0.0039590755 -0.015204317
-0.02806425 0.007101968 -0.0035277675 -0.013148304 -0.007225551 -0.013383565 -0.018477712 0.0037040287
-0.025386587 -0.010180497 -0.01514285 0.0030196083 -0.0022814767 -0.017280564 -0.0062544453 0.010789267
-0.035095893 -0.012554128 -0.020369627 -0.0048169876 -0.014280362 0.016856205 -0.0140316 -0.0051670964
0.006512665 -0.0146703785 -0.013231038 -0.01080971 -0.010293511 0.0063094366 -0.025880575 -0.009670271
0.004862497 0.008589731 -0.009161513 -0.019704452 0.012993089 -0.0004644855 -0.023255823 -0.0060981307
-0.01201936 -0.0069729183 -0.005151363 -0.01254243 -0.013437605 -0.018019484 -0.014900268 -0.024512721
0.00046283318 -0.008477442 -0.0027607512 -0.016704727 -0.01174669 -0.0057372474 -0.03324907 -0.008487511
0.001653027 -0.0062732683 -0.006234065 -0.008775016 -0.018385561 -0.015746787 0.003890387 -0.027881935
0.010682646 -0.012104556 0.008813926 -0.0028809025 -0.011319122 -0.019022878 0.012386638 0.011098291
0.0017801453 0.0010867217 0.0077819386 0.0025685222 -0.007201907 -0.009233559 -0.011729367 -0.00658535
-0.015579724 -0.011385688 -0.023749787 -0.0024855603 -0.01281532 -0.0147579955 -0.012826604 -0.014526909
0.010991892 -0.029340712 -0.021892697 -0.0007538865 0.0131617645 -0.0022052112 0.01620462 -0.02041952
-0.006545858 0.0051783044 -0.00033409288 -0.010599722 -0.014123831 0.019651873 -0.008126184 -0.008969009

action_model._discrete_distribution.branches.0.weight f4 [3, 256]
00000000: 018f 0cbb 760b c5ba 430f d73c 4545 adbc
00000010: 74d9 073c d0b3 32bc d4bb 50bd cc9f 03bd
00000020: 02ba 023d 3ea9 1dbd 44ed 0ebd e239 d3bb
00000030: 4775 43bc b876 0f3c d962 cebb 5970 f43c
00000040: e6b6 603d 71c9 2fbc 401a c1bc 78d3 7f3c
00000050: 4e78 17bd c449 1abd dc45 ca3c 1988 4fbd
00000060: e5da 19bd 4bb4 47bd 845f f83c 1fed 63bc
00000070: 9481 9abb 9475 3bbc 3c5b c3bb ca3f e13b
00000080: 8214 f3bc be80 50bc 48df 8fbc 3dc3 15bc
00000090: 1717 a63c 2fe7 24bd d1dd 54bd b67f 413d
000000a0: e888 2dbb 42b3 c0bc 2898 2fbc bf99 27bd
000000b0: 9a99 a13c 7ee5 02bd ab24 b3bc 811c 423d
000000c0: de80 81bc e3e0 8039 888d 893c ed48 36bc
000000d0: f901 bb3c 8858 253d 1332 45bd 6b90 ccbb
000000e0: d688 5e3c 2128 b43c c6dc c83c ae30 9f3b
000000f0: 456f 0abc 2cc3 b83c 38a4 c1bb 1e79 1abd
00000100: 15fa f0bc ba9f 3c3d 3ae0 dc3c 9e6a cdbb
00000110: c5b9 1dbd eeb2 cb3c b552 d7bc 72d5 c03b
00000120: 78b8 76bc be7a d03c afc2 9ebc 8e5a 25bd
00000130: 08ab 713b 03e7 f53c 2289 9ebb bc6e 3dbc
00000140: 9b2a 7b3c 328d ebbc 23b4 d6bb bbcd 54bb
00000150: b463 12bd e151 afbc 9e66 bcbc d118 943c
00000160: a0da 843c 3bb6 23bd 85a5 663d 2512 dd3b
00000170: 76d2 6abc 35eb a33b 5eeb 1c3d c08f 6cbc
00000180: bea2 d4bc 5184 05bc 62b6 b13c 6f4d c5bb
00000190: 88da 2e3c f0f9 93bc 5acc 2d3d 8b50 96bc
000001a0: 7927 14bd 627a 9fbc ac42 9a3b cc46 153c
000001b0: 5ab2 6b3c 6479 143d fff9 1ebc 16d7 ccbc
000001c0: adba a9bc 1d6e a73c bacb f6bb 131c 58bc
000001d0: 8f7c b8bb 74bf 323d 5696 3fbc d275 58bc
000001e0: 800a 05bd 4de5 003d 1437 3dbc 7722 0dbd
000001f0: 5d1e ac3c b668 8abc b3ea 263c 56c2 eebc
00000200: 34bd 723b 16cc ae3c 4e38 cdbc 57be 033d
00000210: 304f dd3c 87f9 24bc 7892 303c 01cc 04bd
00000220: c248 bf3c 866d a63d 6730 25bc 05ec 273d
00000230: 1136 bdbc 3921 7cbc 1cce c7bc 83ae 0c3d
00000240: 0e14 60bc b3d9 de3b 3791 0dbd 28d0 023d
00000250: a05f f9bc ec45 fbbc 1cdc bbbc afc8 f8bc
00000260: 46cf d03c f701 323c 5846 90bc 6411 b7bc
00000270: 6fba fabc faaf 0e3b c26e 80ba 420b 62bc
00000280: 26d2 f93c 9269 05bd 345d 9f3c 52ba 13bc
00000290: 58e3 89bc d017 463c d0d7 82bb 43be 3e3c
000002a0: e8c7 ec3c 11e3 9c3c bbda 963c ea79 4ebb
000002b0: 5bc9 27bd 18e5 2bbc de1d 693c 1a31 f43b
000002c0: 5106 e7bc dba1 00bd 08e4 2a3c a625 cabb
000002d0: 092f b7bc 09d7 223d e784 95bb 3d19 443d
000002e0: 3506 62bd 7883 ecbb 2cf9 71ba b20f ffbc
000002f0: 1563 ccbc 4b29 853c 7e81 a63c 5dfa f3bc
00000300: c082 9fb9 27f0 16bd 6c7c 11bc 20e1 9e3c
00000310: fb6c a4bc 2af7 46bc 045c 083d 4aad d23c
00000320: 2eae 0f3d 908c f83c a391 ffbc b143 f4bc
00000330: b771 183c 8665 f1bc 45b8 98ba b788 db3b
00000340: d3a5 1c3c 5638 90bc 7e30 09bd 22a9 e93c
00000350: fd74 33bc 2505 873c 8858 59bc dcc5 d63c
00000360: de36 e6bc 032c febb 6acd 01bd 6226 7d3c
00000370: bc50 dc3c 587d 18bc 05ea 723b 59b3 c0bc
00000380: 198a d7bc a6ee f5bc ea2d cfbc d6e6 e53b
00000390: dbfb 2dbc c844 cc3b d3b6 06bd 5634 733b
000003a0: 43a5 88bc 61f1 08bd cfc8 c039 6ad4 39bd
000003b0: 3c3d 95bb ec42 11bd 0e42 3d3b 8af4 91bc
000003c0: be15 143d a98f 943c 833b 793d a595 12bc
000003d0: 16fb 8fb9 afea 1b3d ef18 4abc 18b9 d2bb
000003e0: bf24 cfbb 39f4 baba 990c 093b 5370 993b
000003f0: 3e31 2bbc 862f 26bd 763b 0dbd e23d d0bb
-0.0021447542 -0.0015033323 0.026252395 -0.021151194 0.008291591 -0.010907128 -0.050960377 -0.032134816
0.031915672 -0.03849148 -0.034894243 -0.006446109 -0.011929817 0.008756332 -0.0062984047 0.029838728
0.054861926 -0.01072918 -0.023572087 0.015614383 -0.036979966 -0.037668005 0.024691515 -0.050666902
-0.03756227 -0.048755925 0.030318983 -0.013911515 -0.004715154 -0.011441607 -0.0059618037 0.0068740593
-0.029672865 -0.012726007 -0.017562523 -0.009140787 0.020274682 -0.040259536 -0.051969353 0.047240935
-0.0026479308 -0.023522977 -0.010717429 -0.040918108 0.019726563 -0.031957142 -0.02186807 0.047390465
-0.015808519 0.00024581616 0.01679112 -0.011125785 0.02282809 0.040367633 -0.048143458 -0.006242802
0.013582429 0.021991791 0.024519335 0.004858098 -0.00844938 0.022554003 -0.005909469 -0.037713163
-0.029416123 0.046050765 0.026962388 -0.0062688133 -0.03850724 0.024865594 -0.026284555 0.0058848197
-0.015058629 0.025449153 -0.019379942 -0.040369563 0.0036875624 0.030017382 -0.004838125 -0.011562046
0.015329982 -0.02875385 -0.0065522357 -0.0032471258 -0.035739616 -0.021401348 -0.02299815 0.01807824
0.01621753 -0.03996871 0.056310195 0.0067465478 -0.014332404 0.005002404 0.0383104 -0.01443857
-0.025956508 -0.0081492225 0.021693412 -0.0060211937 0.010672219 -0.018063515 0.042431213 -0.018348953
-0.036170457 -0.019467536 0.004707655 0.009111118 0.014385784 0.03624858 -0.009703158 -0.025004905
-0.020718897 0.020438248 -0.0075316103 -0.013190287 -0.005630083 0.043639615 -0.011693558 -0.013211684
-0.032480717 0.03146868 -0.011548776 -0.034456696 0.021010572 -0.016895633 0.010187793 -0.029145401
0.0037039043 0.02133755 -0.025051262 0.032163944 0.027015299 -0.010069258 0.010777108 -0.032421116
0.023350123 0.08126359 -0.010082341 0.04099657 -0.02309707 -0.01538878 -0.024390273 0.034346115
-0.013676656 0.006800854 -0.034562316 0.031936795 -0.030441105 -0.03067299 -0.022932105 -0.03036913
0.02548946 0.010864726 -0.017611668 -0.02234716 -0.030606477 0.002177237 -0.0009798633 -0.013796629
0.030495714 -0.032571383 0.019453622 -0.00901659 -0.016832039 0.012090638 -0.003993012 0.011642042
0.028903916 0.019151242 0.018414846 -0.0031505772 -0.040963512 -0.010491632 0.014228312 0.0074521424
-0.028201254 -0.031404357 0.010430343 -0.006169039 -0.022361295 0.039755855 -0.0045629623 0.04787563
-0.0551817 -0.0072178207 -0.000923055 -0.031135414 -0.02494959 0.016255042 0.020325419 -0.029782468
-0.0003042426 -0.03685012 -0.008879762 0.019394457 -0.020071497 -0.012143889 0.033290878 0.025717396
0.03507822 0.030340463 -0.031197375 -0.029817434 0.0093044555 -0.029467355 -0.0011651596 0.0066996473
0.00956102 -0.017604988 -0.03349351 0.028523032 -0.010953185 0.016481945 -0.013265736 0.026217394
-0.028102335 -0.0077567114 -0.03169004 0.015451046 0.026893966 -0.009307228 0.0037065756 -0.02352302
-0.026310967 -0.030021023 -0.025290448 0.007016043 -0.010619129 0.0062337853 -0.0328892 0.0037110052
-0.016680365 -0.033433322 0.00036770708 -0.04536859 -0.004554419 -0.035464212 0.0028878483 -0.0178168
0.036153547 0.018134909 0.06084777 -0.008946811 -0.0002746216 0.03806561 -0.012335046 -0.0064307563
-0.006321519 -0.0014263458 0.002091205 0.0046825795 -0.010448752 -0.040572666 -0.034480534 -0.0063550333

action_model._discrete_distribution.branches.0.bias f4 [3]
00000000: ad96 ce3b 56ab 113d 7c71 21bd
0.006304583 0.03556379 -0.039414868

action_model._discrete_distribution.branches.1.weight f4 [3, 256]
00000000: 2c2a e5bc 22e8 783b d62e 41bb b990 ff3c
00000010: 5838 a1bc 2528 263d 1daf 453d f396 183b
00000020: 3228 cebc 6235 c83c 028c 193c 7b49 193d
00000030: e569 263d 6888 32bb cded a3bb 4394 94bc
00000040: d090 743c 7e4e aebc a041 df3c 9200 8abc
00000050: d45d 953a 1cf0 003d f72f 573c c0cb 223d
00000060: 3168 babc 99b2 0abc 0522 49bd 1460 2ebd
00000070: b819 07bd 2bbe 70bb db5f 8f3d e698 57ba
00000080: fd6a 7abc f1d8 e83c de7d 993c 98f0 6fbc
00000090: bc6a 6dba 68fd 83bc a6c2 593d 24dd e5bc
000000a0: bc87 063d 34d6 d93a f08e af3c 9118 233d
000000b0: 5af6 92ba 4f04 b93c 05e8 4cbc 7468 bb3c
000000c0: 432a 2abc 2efd 96bc 270f 14bd 50b8 ae3c
000000d0: c70e 693d e5bf d9bb 6eb5 993c bd73 d43c
000000e0: 30a7 8c3b 4854 94bc b2af 65bc 1eff a13c
000000f0: 0280 503d 4d42 d7bb 1c7f 9d3c 38d9 3c3d
00000100: f0f3 203d f588 f5bb 67d5 c53c 51da 353d
00000110: c04b 59bc 53ca 2bbd 9c13 0e3d 3aeb fb3b
00000120: 3a48 e53b 3802 a93c a74b 7bbc 7d97 aebc
00000130: 9544 173c 86ea 53ba 4e3e 1e3c 65db a6bb
00000140: dac7 efbc 9169 ae3c 54f3 313c f6a8 5dba
00000150: 21c6 523d 3c42 a2bc 4f48 fc3c 2f98 79bc
00000160: 8009 983c 8852 a2bb 7c44 523d 27f7 8ebc
00000170: be4e 0d3d 3d81 02bd 432c 2a3d ac47 ac3b
00000180: c723 e13c 70d1 a7bc 7723 b3bc b07f 2bbc
00000190: 5dee d03c 61da cc3b de5b 53bd 30f7 f2bc
000001a0: 7df5 af3b 5f8b 6c3d 6483 cf3c a8fb adbb
000001b0: a008 2f3d af5a cc3c 271e 403c d83d b7bc
000001c0: 2406 0c3d bea9 843c 9158 0f3c 6efa 653d
000001d0: 243c 27bd f48a 3ebd e0e3 923b a102 0a3d
000001e0: 7779 75bc ce5b 113d 9ff4 87b9 33e6 7d3c
000001f0: 25da 8b3b 157e 6d3c de6b 12bd 7c98 713d
00000200: 945e b73c dc8e c3bb 5957 893c dcfe a13c
00000210: 59d2 f5bb a710 fb3c 4ec8 4abc ee52 7c3c
00000220: 5fe3 efbc c2c1 67bc 0657 99bc ec0f 483c
00000230: e6b9 763c 101e e4bc 49e6 12bc d5d7 2f3c
00000240: bb31 15bd 2e85 0ebc a35d 493d db2e e33c
00000250: 1d4c 1e3d e27c 9abb 66ef 683d 334c f03c
00000260: 1af9 17bd 97e2 373d b189 2dbd fce8 423d
00000270: 394c 0cbd e69f b73c 1a4c 84bc 1d2f 483c
00000280: 3080 3bbd 7148 11bd 0fed 82bc e20d 273d
00000290: 22f6 273d 83e2 edbc a943 eb3b 4b82 c43b
000002a0: 25ee f1bc 1ea5 453d 73b5 0dbd 07cf 963a
000002b0: 571c 24bc 5642 dd3c 7870 8abc 9867 87bc
000002c0: 7baa 0a3d 82a0 ff39 3524 21bd 0486 acbc
000002d0: 6be1 6c3c 7528 2f3d 33d4 60bc f77c 43bd
000002e0: 75b9 023d 60cc 0ebc faa5 50bc 410d ba3b
000002f0: e1c8 d23b 28f1 0cbd c1e8 cbbc 372e 83bc
00000300: 6db5 9cbb 52de 113d 8c4a c5bb aa1b c1bc
00000310: b071 4b3d 53df 81bc fb0a c9bc 92dc 2fbd
00000320: 995b da3b d242 4bbc bdda 00bc bce1 b0bc
00000330: 4cd6 4abc 9ef9 493d e6a6 c33b 474a acbc
00000340: 95b5 403d 436a 06bc 3aab b33c 30b5 273c
00000350: b510 1a3d 7d18 ebbc b471 b9bc 59b9 10bd
00000360: 6524 983d bd26 893b f067 2ebd fd14 a93c
00000370: d738 453c 6c45 073c 6914 143d 1c06 a23c
00000380: bc73 dc3c a41c 9f3a e05c 8d3d 2530 9a3c
00000390: 3321 813c 652c e73c d1c7 993b 630c a1bc
000003a0: 561a c4bc 3755 8db9 3b5d 09bc e531 aa39
000003b0: d301 2c3c 32c4 e5bc 218f 823b e4f7 1bbc
000003c0: 1ceb 193d 30a6 eabc 0e17 12bd 9ef7 d83c
000003d0: 7d72 8fbc e806 563c 9e35 723d 8ae7 eebb
000003e0: b686 18bd f247 40bb 2c88 263d b7ab 133d
000003f0: cb7f ce3c 29c7 133d d752 3fbb 2529 f3bc
-0.02797421 0.0037980159 -0.002947738 0.031196939 -0.019680187 0.04056563 0.048262704 0.0023283332
-0.025165651 0.024439517 0.009371759 0.037423592 0.040628333 -0.002724195 -0.0050027133 -0.018137103
0.014927104 -0.021277662 0.027252972 -0.016845975 0.0011395761 0.031478986 0.013133994 0.039745092
-0.02275476 -0.008465433 -0.04910471 -0.042572096 -0.03298351 -0.0036734443 0.07000705 -0.0008224383
-0.015284297 0.028423758 0.018736776 -0.014644764 -0.0009056737 -0.016112044 0.053164147 -0.02805955
0.03284429 0.0016619624 0.021430463 0.03981835 -0.0011212335 0.022585062 -0.01250649 0.022876956
-0.010386053 -0.018431272 -0.036147263 0.021328121 0.05689886 -0.00664519 0.01876327 0.025934095
0.0042923912 -0.018106595 -0.01401894 0.01977497 0.050903328 -0.006569183 0.01922565 0.046105593
0.039295137 -0.007493133 0.02414961 0.044397656 -0.013262689 -0.041941 0.03468667 0.0076879533
0.0069971355 0.02063094 -0.015337861 -0.02131247 0.00923266 -0.0008083958 0.009658409 -0.005092072
-0.029270101 0.021290572 0.010861237 -0.0008455658 0.05145848 -0.019806974 0.030796198 -0.015234037
0.018559217 -0.004953686 0.051334843 -0.017451836 0.034498923 -0.031861532 0.041546118 0.0052575674
0.02748288 -0.02048561 -0.021867497 -0.010467455 0.025504285 0.0062516187 -0.051601283 -0.029658884
0.0053698407 0.057750102 0.025331207 -0.005309541 0.042732835 0.024945585 0.011725939 -0.022368357
0.034185544 0.01619422 0.008749143 0.05614703 -0.04082884 -0.046519235 0.004482731 0.033693913
-0.014982573 0.035487942 -0.00025931463 0.015496778 0.004267948 0.014495392 -0.0357474 0.05898331
0.022383966 -0.005967958 0.016765283 0.019774847 -0.007501882 0.030647589 -0.012376858 0.015400631
-0.029283224 -0.014145317 -0.018718254 0.012210827 0.01505897 -0.027846366 -0.008966037 0.010732611
-0.03642438 -0.008698745 0.049161565 0.027732303 0.038646806 -0.004714594 0.056868933 0.02933321
-0.037102796 0.044893827 -0.04236764 0.047585472 -0.03425238 0.022415113 -0.01614957 0.012218264
-0.045776546 -0.035469476 -0.015982179 0.040784724 0.041006215 -0.029038673 0.0071796966 0.0059969774
-0.029532501 0.04825317 -0.03459687 0.0011505791 -0.010016522 0.02700917 -0.016899332 -0.01652889
0.03385399 0.00048756978 -0.03934117 -0.021059997 0.014458041 0.042763192 -0.013722467 -0.047726598
0.031915147 -0.008715719 -0.012734884 0.0056778495 0.006432638 -0.034409672 -0.02489126 -0.016013248
-0.00478237 0.03561241 -0.0060208496 -0.023572762 0.049668968 -0.01585356 -0.024541369 -0.04293496
0.0066637513 -0.012406068 -0.007864651 -0.021592014 -0.012380194 0.04931032 0.0059708236 -0.021031512
0.04704817 -0.008204046 0.021932233 0.01023607 0.03761359 -0.0286982 -0.022637226 -0.03533301
0.07428817 0.004185526 -0.04257959 0.02063989 0.012037477 0.008256298 0.036152277 0.019778304
0.026910655 0.0012139273 0.0690248 0.018821785 0.015762901 0.028219411 0.0046930094 -0.019659227
-0.02393834 -0.00026957106 -0.008384044 0.000324621 0.010498482 -0.028047655 0.0039843475 -0.009519551
0.037577733 -0.028643698 -0.035666518 0.02648526 -0.017510647 0.01306317 0.059133165 -0.007290785
-0.037237845 -0.0029339758 0.040657207 0.036052432 0.02520742 0.036078606 -0.0029193664 -0.029682705

action_model._discrete_distribution.branches.1.bias f4 [3]
00000000: 3dbb e13c 9bb8 f0bc 86f8 793b
0.027555102 -0.029384902 0.0038142516

action_model._discrete_distribution.branches.2.weight f4 [2, 256]
00000000: 6676 3b3d 7035 273d d5db af3c 6462 69bc
00000010: 3f1b 073d abd5 55bc 5eea 2ebc f692 c3bb
00000020: 4e11 d5bc 2ac8 3bbd b848 0c3c c0db fabc
00000030: 31c4 d0bc 631f 62bc dffc 0cbd 4fd4 10bd
00000040: dcae d1bc 2549 603c bcac 853c 2da8 d33c
00000050: af9c 2dbc ae26 4ebc c20a ed3a 72fe 5c3c
00000060: dd76 353d 861a 043d c90f 4cba 011d 243d
00000070: c0a1 0d3d 3c14 1fbb bd43 66bc 24d2 193d
00000080: 6841 353c aa50 b7bb 76d3 0ebd 69a9 0a3d
00000090: 3b5d 103d a226 d23c b8e1 71bc 84bf cebc
000000a0: 930f 8abc 9aad d4ba fdfc 063c cd08 93bc
000000b0: 7ad7 04bb eb23 f2ba bc08 ea3c fd95 c9bc
000000c0: 2e07 903b ec36 853b 47c4 023d 1cb2 b53c
000000d0: 636a 2abd 0ff5 a7bc 290d 843c 0d84 c03c
000000e0: 3a92 40bc ea2a 0ebc 3f8b cebc b65b 85bb
000000f0: 9d6b 583b b815 5e3c 190e 073c 2069 7cbc
00000100: 70e9 dbbb 8a25 3abd 4845 aebc a3d5 0dbc
00000110: 325f a33c 4d85 403b dd06 af3a c650 09bb
00000120: a8e5 9f3b 6f31 9bbc 53f7 8b3c a5f6 c13c
00000130: 75d3 093d bc06 b0bc b7c7 7d3c 1ce0 1abc
00000140: f61b 153c 8fda a83b 2cff 113b ccd5 a9ba
00000150: 43f0 62bb d5ba 223d 91e3 a2bc 11d0 5aba
00000160: fba7 9ebc 87cc 083d c62b 10bc 9183 093d
00000170: cba0 80bc 091b a53c c9d4 b3bc 002f ad3c
00000180: 4c04 50bb 1cf5 563d 0db0 203d 4726 5ebc
00000190: 02f7 9e3b 15e7 793c 04f4 29bd 8573 fa3b
000001a0: 07d1 a23b d2b2 c5bb 7b41 a9bb 73ba 323d
000001b0: 7ea4 d0bb 2b45 8abc db78 af3c 30fc be3c
000001c0: 6878 eebc 6463 77bc baa4 9bbb 35a6 e6bc
000001d0: 8acd b53b 0e3c 33bb 8937 133c bbca 5f3b
000001e0: 5582 6c3c 8b66 30bc 1564 1b3c 4ec4 873b
000001f0: 5751 c8bb 0369 363c 6f04 0e3d 5212 4abc
00000200: c500 7dbc 6f36 02bd 3f61 5e3c 3315 eabc
00000210: 8c31 06bd ea1b 453c df62 c2bb 5f02 5d3c
00000220: 4290 cd3c 2e25 57bd 981c 123d 8261 c4bc
00000230: 59a5 cd3c ae75 2e3d caad de3c 05d8 00bd
00000240: 4d8a ba3c b77f 033d 7417 b1bb 93b8 7cbb
00000250: 3222 78bc 336b 483c 4bdf b1bc 6627 9b3a
00000260: fe94 5d3c 1ee3 6abc ea94 363d b2a8 a9bb
00000270: 0642 0f3d af14 05bb 005f c53c 220d 49bc
00000280: 5d5f af3a e312 543c f4ec 7e3b 6105 c2bc
00000290: 3f86 63bc b688 dd3c 6020 f73c 9ffe 46bc
000002a0: 1ad3 2abb 8435 e1bc 657a 273b 9cb6 313d
000002b0: ff0d 9a3c d7ce 0abc 5f4d 44bd be72 213d
000002c0: 2905 163c d958 cc3c 77b3 b93c e952 0ebd
000002d0: 3abd 5f3b c4e8 aebc c454 d93c bfad 98bc
000002e0: ddce 61bb b80e a2bc f0ae ad3c f4d9 d2bb
000002f0: 10b7 b3bb 8cc8 493d 162a 0a3d f3c5 033d
00000300: eb73 12ba 94a4 8b3b 0cd3 9c3c 25da f63c
00000310: 1a80 efbb 3443 f23c e854 023d c1d2 df3a
00000320: 9e25 50bc 1a0c c0bc 5469 073d 8a88 2a3d
00000330: 9919 5d3c c577 a0bc 534f 59bc 5299 2a3d
00000340: 9e91 d3bc 687c a03c 20fb 93bc f713 32bd
00000350: 34dc b5bc 9c91 fe3c 7924 d8bc 0ca7 a0bc
00000360: ed04 05bd 1c57 babb 8f9b 933c 07a5 dabc
00000370: 4a7c d9bc e43c 81bc 0391 b2bc 8649 d03c
00000380: 55d6 2bbc 3f67 7a3b a0f0 cdbc 144a 4cbb
00000390: 9fc7 113a 31d9 493b 5294 fb3c a5f0 da3c
000003a0: a2a0 a33c 0a8a 043d 9a07 efbb 14da f43b
000003b0: df03 993c b28a 223d e36a 053d a754 5f3b
000003c0: 0178 f1bc c0ac a4bc 1327 eabc ef94 2abc
000003d0: c71e d53c 8893 63bd e7af a0bc 3b7b 383c
000003e0: 174b 02bc 64bc 0abd 9712 11bd 3b24 05bd
000003f0: 8034 6abb d81b 49bc f179 0c3c 7553 713d
0.04576721 0.040822446 0.021467129 -0.01424465 0.03298497 -0.013051431 -0.010675995 -0.005968447
-0.026009228 -0.04584519 0.008562259 -0.030622363 -0.025484176 -0.0138014285 -0.034420844 -0.035358723
-0.025596075 0.013689314 0.016317718 0.025837028 -0.010596438 -0.012582464 0.0018084871 0.013488399
0.04430281 0.032251857 -0.00077843346 0.040066723 0.034578085 -0.0024273535 -0.014054236 0.03755392
0.011062957 -0.0055943327 -0.034869634 0.03385297 0.03524516 0.025653187 -0.014763288 -0.025237806
-0.01685313 -0.0016226054 0.008239028 -0.017948532 -0.0020270036 -0.0018473839 0.028568618 -0.024607653
0.004395387 0.004065385 0.031925466 0.022179656 -0.041605365 -0.020502595 0.016119557 0.023500467
-0.011753613 -0.008677224 -0.025212882 -0.0040697707 0.0033023127 0.013554983 0.008243107 -0.015405923
-0.0067111775 -0.045445956 -0.02127327 -0.008656892 0.019942854 0.0029376328 0.0013353486 -0.0020952686
0.004879672 -0.01894447 0.017085707 0.02367718 0.033648927 -0.021487586 0.01548951 -0.009452846
0.009100905 0.0051530073 0.0022277338 -0.0012957393 -0.003462807 0.03972896 -0.019883903 -0.00083470443
-0.019367209 0.033398177 -0.008799499 0.033572737 -0.015701672 0.020154493 -0.02195205 0.021140575
-0.0031740842 0.05247985 0.039230395 -0.013558931 0.004851223 0.015252848 -0.041492477 0.0076431655
0.0049687657 -0.00603328 -0.0051652766 0.043634843 -0.0063672652 -0.016878685 0.021419933 0.023313612
-0.029110149 -0.01509938 -0.0047498615 -0.028155426 0.005548184 -0.0027349028 0.008985409 0.0034147936
0.01443537 -0.010766636 0.009484311 0.0041432744 -0.006113212 0.011133435 0.034672197 -0.012333469
-0.015442078 -0.031790193 0.01357299 -0.028574562 -0.032762095 0.012030581 -0.0059321965 0.013489335
0.025093202 -0.05252569 0.0356718 -0.023972277 0.025103258 0.042592697 0.027182478 -0.031456012
0.022771025 0.03210422 -0.005404407 -0.0038562163 -0.015144872 0.01223259 -0.02171292 0.0011837303
0.013524292 -0.0143363755 0.04457561 -0.0051775808 0.034975074 -0.0020306518 0.024093151 -0.0122711975
0.0013379861 0.012943956 0.003889856 -0.023684205 -0.013886987 0.027042728 0.030166805 -0.012145667
-0.0026065768 -0.027491339 0.002555513 0.04338704 0.018805502 -0.008472166 -0.04792535 0.039416067
0.009156504 0.02494471 0.022668583 -0.034747038 0.0034139887 -0.021351226 0.026529677 -0.018637536
-0.0034455576 -0.01978241 0.02120158 -0.0064346734 -0.0054844692 0.049263522 0.033731543 0.0321712
-0.0005586731 0.0042615626 0.019143604 0.030133316 -0.007308972 0.02957306 0.031819254 0.0017076359
-0.012704281 -0.02344327 0.033059433 0.04163412 0.0134948725 -0.01958836 -0.013263541 0.041650124
-0.025826272 0.019590572 -0.018064082 -0.04347607 -0.022199728 0.031075291 -0.026384579 -0.019610904
-0.0324754 -0.005686654 0.018018512 -0.02669002 -0.026548523 -0.015776105 -0.021797663 0.025425684
-0.010488112 0.0038208512 -0.025139153 -0.0031172084 0.0005561057 0.0030799622 0.030710373 0.026726076
0.019974057 0.032358207 -0.0072946073 0.007472286 0.018678604 0.03968305 0.03257264 0.0034077556
-0.029476168 -0.020101905 -0.028583085 -0.010411485 0.026015652 -0.05556062 -0.019615127 0.011259849
-0.007952473 -0.03387107 -0.03541812 -0.032505255 -0.003573686 -0.012274705 0.008573995 0.05891748

action_model._discrete_distribution.branches.2.bias f4 [2]
00000000: 63f2 13bc 6ff2 133c
-0.0090299575 0.009029969
