results/ButtonPress2/ButtonPress/ButtonPress-499952.onnx (onnx, 496098 bytes, 13 tensors)

discrete_act_size_vector f4 [1, 4]
3.0 3.0 2.0 2.0
00000000: 0000 4040 0000 4040 0000 0040 0000 0040

network_body._body_endoder.seq_layers.0.weight f4 [256, 205]
0.0084286975 0.19143106 -0.063359804 -0.038324296 -0.062111285 0.040815942 0.04383051 0.121265806
-0.12555961 -0.1599701 0.07184179 0.13066018 0.07846697 -0.18646674 -0.12486837 -0.02233632
0.13765924 0.21735786 -0.21100469 -0.028480817 0.0010576077 0.119025916 -0.026228895 -0.0004949837
-0.14363627 0.08263889 0.023288567 0.08706772 -0.19949062 0.011200149 -0.13309686 0.06559803
-0.016239181 -0.18866134 -0.064530425 -0.018899398 0.08194257 -0.013678064 0.013833491 0.022086661
-0.023168404 0.16645086 0.0025196022 -0.25725964 -0.03582543 -0.13434313 0.1275664 0.059678484
-0.049376108 -0.061228108 0.09709221 0.163719 0.031567246 -0.068896756 -0.15523553 -0.013963886
0.10869734 0.039111406 0.015484079 -0.0849585 0.006823548 0.122598305 -0.031575717 -0.009304539
-0.17540278 0.09508918 -0.07257578 -0.055809 -0.014565866 -0.0044267876 0.010551119 0.17311862
-0.043247785 -0.08589256 -0.0028330719 0.11095049 -0.007810469 0.16238722 -0.05501987 -0.14145063
-0.005905359 0.18213242 -0.092640534 0.12851438 0.031275798 0.026376769 0.1072587 -0.03081096
-0.014425385 -0.15825298 -0.013040565 0.12083196 -0.0519898 0.043729953 0.018831696 0.05851083
0.13706791 0.1630334 -0.023134457 -0.110285215 0.11205598 0.07803298 0.079794995 -0.053040925
-0.0034625072 0.0750765 0.06872061 0.17474736 -0.13458249 -0.06561839 0.091929615 -9.6316166e-05
0.13694203 0.0051528644 -0.07303542 0.08897848 0.19730791 0.06380745 0.055922706 -0.022836603
-0.037005644 -0.082636476 0.09542898 -0.06442096 -0.036637213 0.0059799203 0.14835316 -0.11696198
-0.23012587 0.033019286 -0.080069035 0.12591515 0.056399167 0.004731235 -0.033092104 0.023551814
0.2488445 -0.15635182 -0.021478781 -0.010722321 -0.08050573 0.0063398276 0.048440784 0.04964235
0.09443222 0.08561213 0.07644778 0.071021296 0.07241231 -0.038720254 0.06093376 0.050520226
-0.07406307 -0.00705698 0.095461786 0.05957619 0.05482033 0.02394484 0.013252439 0.0008378053
-0.015855804 0.0044944817 0.12249623 0.009304542 -0.063696854 0.05563004 0.08721005 -0.054222394
0.12109348 0.0852711 0.02963475 0.07993079 0.0059247534 0.089735664 0.003992111 -0.066079855
0.17058381 -0.06584273 -0.024703529 0.13387774 0.043198984 0.061277743 0.17426267 0.038517147
0.08806927 0.042804964 0.17206883 -0.0007622329 -0.027784536 -0.09079196 0.00973542 -0.040479463
0.119647235 -0.038018774 0.08261161 -0.041987464 0.102742754 0.0012986967 -0.10905015 0.11723305
0.047462527 0.053403504 0.023560207 -0.046315156 0.012343748 0.025219992 0.0072789877 0.061046205
0.11729863 0.0021660128 -0.009412851 -0.11951829 0.22756562 -0.011567323 -0.099665724 -0.062921874
-0.17167033 0.15913248 0.120292805 -0.07471584 -0.05770541 0.08167168 0.23669785 0.009635262
0.053378277 -0.020264052 -0.12401238 0.043263156 0.04923738 0.05016306 -0.10137254 -0.08510947
0.075417385 0.08698152 0.13558808 -0.014106256 0.0017733427 0.02335504 -0.0017276952 0.005570416
-0.04889734 -0.07048906 0.061248083 -0.013050661 -0.02455698 -0.027592968 -0.066692024 -0.16428101
0.112743154 -0.025935438 0.11077904 -0.1438469 0.005971302 -0.015162147 0.15946421 -0.0130188465
00000000: 8518 0a3c 8106 443e c9c2 81bd f0f9 1cbd
00000010: 6768 7ebd 9e2e 273d 9f87 333d 355a f83d
00000020: b392 00be 34cf 23be ca21 933d c8cb 053e
00000030: 4ab3 a03d 23f1 3ebe fdba ffbd a8fa b6bc
00000040: 8bf6 0c3e 0f93 5e3e 9d11 58be 9a50 e9bc
00000050: 6d9f 8a3a dcc3 f33d fbdd d6bc cbc1 01ba
00000060: 6315 13be 943e a93d aac7 be3c 9050 b23d
00000070: 4547 4cbe d480 373c 8b4a 08be 4358 863d
00000080: 0808 85bc 7030 41be 8728 84bd e9d2 9abc
00000090: 82d1 a73d f519 60bc dea5 623c 16ef b43c
000000a0: aacb bdbc 1872 2a3e e91f 253b 89b7 83be
000000b0: b0bd 12bd 3f91 09be c4a0 023e 6d71 743d
000000c0: 9a3e 4abd 53ca 7abd 48d8 c63d f4a5 273e
000000d0: a84c 013d be19 8dbd 10f6 1ebe c8c8 64bc
000000e0: b69c de3d 4833 203d efb0 7d3c b9fe adbd
000000f0: 1298 df3b d214 fb3d 8a55 01bd 1172 18bc
00000100: c99c 33be 1ebe c23d 9ca2 94bd fa97 64bd
00000110: aca5 6ebc 960e 91bb 9ade 2c3c 0246 313e
00000120: 9724 31bd 70e8 afbd 0fab 39bb 033a e33d
00000130: f6ee ffbb d648 263e 845c 61bd 6fd8 10be
00000140: be81 c1bb ec80 3a3e 52ba bdbd 4699 033e
00000150: 0d1b 003d 1814 d83c 73aa db3d 4467 fcbc
00000160: 7358 6cbc 120d 22be 18a8 55bc bf76 f73d
00000170: 42f3 54bd 2e1e 333d ee44 9a3c 0da9 6f3d
00000180: 885b 0c3e 3af2 263e 7984 bdbc 37dd e1bd
00000190: 9b7d e53d c1cf 9f3d 8f6b a33d 7141 59bd
000001a0: 3beb 62bb b5c1 993d 64bd 8c3d f9f0 323e
000001b0: fecf 09be ef62 86bd 9845 bc3d 59fd c9b8
000001c0: 883a 0c3e 5cd9 a83b 9893 95bd 593a b63d
000001d0: 160b 4a3e 7bad 823d 350f 653d d413 bbbc
000001e0: 3b93 17bd 503d a9bd 4570 c33d 23ef 83bd
000001f0: e710 16bd 35f3 c33b e4e9 173e c389 efbd
00000200: 1ea6 6bbe 3b3f 073d 3cfb a3bd e7ef 003e
00000210: d002 673d 7a08 9b3b 968b 07bd bcef c03c
00000220: 18d1 7e3e b11a 20be 45f4 afbc adac 2fbc
00000230: 30e0 a4bd 54be cf3b d869 463d c755 4b3d
00000240: ae65 c13d 6a55 af3d a790 9c3d 9d73 913d
00000250: e84c 943d 2199 1ebd ae95 793d 4cee 4e3d
00000260: 61ae 97bd 3d3e e7bb 7881 c33d 2a06 743d
00000270: 488b 603d f827 c43c c220 593c 29a0 5b3a
00000280: 08e4 81bc 7246 933b 4edf fa3d 1472 183c
00000290: 7f73 82bd 53dc 633d 2f9b b23d 4d18 5ebd
000002a0: dcff f73d 9da2 ae3d 93c4 f23c c1b2 a33d
000002b0: 6f24 c23b 55c7 b73d 41d0 823b e054 87bd
000002c0: 86ad 2e3e 8ed8 86bd 0e5f cabc 3f17 093e
000002d0: 6bf1 303d 5ffe 7a3d ea71 323e 28c4 1d3d
000002e0: a95d b43d 4254 2f3d d032 303e 96d0 47ba
000002f0: 659c e3bc 23f1 b9bd 5081 1f3c cbcd 25bd
00000300: 9c09 f53d 93b9 1bbd 4730 a93d 0cfb 2bbd
00000310: cb6a d23d 0839 aa3a af55 dfbd e217 f03d
00000320: 1168 423d a2bd 5a3d 5601 c13c f6b4 3dbd
00000330: 6e3d 4a3c 289a ce3c 9384 ee3b 960b 7a3d
00000340: 443a f03d aaf3 0d3b 5c38 1abc 01c6 f4bd
00000350: f606 693e de84 3dbc 8b1d ccbd 2fdd 80bd
00000360: 59ca 2fbe a0f3 223e 135c f63d 9e04 99bd
00000370: 825c 6cbd 7b43 a73d ec60 723e 38dd 1d3c
00000380: 2ea3 5a3d cc00 a6bc 34fa fdbd b534 313d
00000390: 23ad 493d c877 4d3d 689c cfbd e04d aebd
000003a0: 6e74 9a3d 5e23 b23d 9ad7 0a3e ed1d 67bc
000003b0: 826f e83a 1253 bf3c d573 e2ba 0988 b63b
000003c0: 9448 48bd 915c 90bd 45df 7a3d 71d2 55bc
000003d0: b82b c9bc a60a e2bc d495 88bd 4839 28be
000003e0: e2e5 e63d 8e76 d4bc 1fe0 e23d 9a4c 13be
000003f0: e9aa c33b a76a 78bc 964a 233e 004d 55bc

network_body._body_endoder.seq_layers.0.bias f4 [256]
0.05244822 0.02112441 -0.008660795 0.009087438 0.016806064 -0.0021685474 0.00869181 0.00764496
-0.021760458 0.0032605547 0.019138174 0.011404632 0.010035038 0.0045648413 -0.013154796 0.0017412261
-0.02625751 -0.015890125 -0.009880583 0.024646599 0.010912343 -0.012149644 0.005408063 -0.00072403357
-0.0048773214 -0.0027143518 -0.008735655 -0.017645303 0.006851796 0.0070261057 0.062297083 -0.004854629
-0.00557729 -0.010960141 0.013494666 -0.0067624883 0.008229898 0.004400073 0.0035445113 0.007634088
0.008977379 -0.00399534 -0.007329613 -0.014598992 -0.012308565 0.004608812 -0.014413671 -0.006671695
0.023774542 -0.0061256858 0.024399457 0.005414146 0.0052481703 0.00011482373 0.02017922 0.0111457845
-0.00078700203 -0.005707428 -0.012832196 -0.012027718 -0.0014973573 -0.0029381565 -0.0076627885 0.004488104
-0.0071470826 0.0053754165 -0.011921308 -0.019392768 0.00716307 0.004815428 0.01012034 0.0060386527
0.021172287 -0.009773372 -0.0020740202 -0.0027612157 0.0040780883 0.0006938438 0.0030748162 0.005746445
-0.019705703 0.005331155 -0.055388425 0.010609241 -0.0023813066 -0.014568709 -0.0031934627 -0.008681455
0.007916514 -0.008634987 -0.004047052 0.008467139 0.0062294533 0.00641617 0.011044932 0.017120382
-0.00067073427 -0.0067907735 -0.0190454 0.002768219 -0.017390104 -0.003146611 -0.019526036 0.013574549
0.0012500997 0.013571339 0.0010293612 -0.00069252413 -0.013948915 0.019596247 0.0014935023 -0.0061576883
-0.009088559 0.0040130657 -0.002878163 -0.0028318772 -0.0046444777 -0.002488638 0.010485647 -0.009320821
-0.0048678988 -0.0024699029 -0.009200983 -0.008951917 0.00044743388 -0.006344382 -0.013830376 0.030133424
-0.0050210133 -0.0040608062 -0.0041961623 0.0002753648 0.0329808 0.006268628 0.0055200714 -0.00025890538
-0.00085322314 -0.0006071643 -0.0077527375 -0.0062286207 -0.0012658249 0.01208926 -0.019606622 -0.018851362
0.013224779 0.008178077 -0.016680075 -0.004995441 0.011695766 -0.018548742 -0.0033273837 0.006172935
-0.01284276 -0.0017248276 -0.0032898008 -0.0012845394 -0.002903153 -0.0066622184 0.0025114906 0.01625885
-0.009477529 0.0022091537 0.007598036 0.0017507626 -0.009507934 0.004735632 -0.003796478 0.01598624
-0.017020222 -0.0047842744 -0.0022234053 -0.010878228 0.003955237 -0.001856019 -0.0011337817 0.009616117
3.360401e-08 0.0066451356 0.003958903 -0.0014028542 0.0017328345 0.010832379 0.011295363 0.015044121
0.024019988 0.00031655727 0.0022716704 -0.03308159 0.0033354661 0.0056486386 0.015077051 0.010367883
0.020819005 0.0017100667 -0.0061771176 0.0073426096 0.0076254862 0.020075746 -0.008996342 -0.0073009073
0.0042904792 0.013173806 -0.012720392 0.018879263 0.0031222578 0.012672586 0.004570937 -0.0062979446
0.0074690254 -0.00957833 0.008355995 0.018072497 -0.011321766 -0.0014340044 0.0027427962 -0.015805854
0.013157426 -0.0036244295 0.008107322 0.010436796 -0.008297038 -0.0010287942 -0.054786805 -0.0057375035
-0.0035338188 -0.002746092 0.0009979436 -0.020424671 0.003268758 -0.019965064 0.0077555007 -0.021645514
0.0042598182 -0.012456863 0.013396029 -0.007352657 0.016243223 0.008806311 -0.0048209946 0.0023761592
0.007112671 0.01595877 -0.021250842 -0.02880818 0.010041664 0.0055373767 -0.0028531866 -0.0022369728
-0.00864443 -0.0063163615 -0.008947586 0.010477479 -0.0247562 -0.0028513065 0.0027929833 -0.004438112
00000000: f2d3 563d 190d ad3c 02e6 0dbc 7ae3 143c
00000010: dfac 893c 301e 0ebb 1868 0e3c 9382 fa3b
00000020: fd42 b2bc 08af 553b a9c7 9c3c 7eda 3a3c
00000030: 006a 243c aa94 953b 3787 57bc da39 e43a
00000040: fd19 d7bc 022c 82bc 2be2 21bc aae7 c93c
00000050: afc9 323c 4d0f 47bc 1f36 b13b 12cd 3dba
00000060: f0d1 9fbb 44e3 31bb fe1f 0fbc e28c 90bc
00000070: 0885 e03b 3f3b e63b 3a2b 7f3d 9413 9fbb
00000080: b3c1 b6bb 2a92 33bc bb18 5d3c dd97 ddbb
00000090: b2d6 063c 7d2e 903b 084b 683b 5f27 fa3b
000000a0: db15 133c 57eb 82bb 402d f0bb 9c30 6fbc
000000b0: dda9 49bc 8405 973b 5127 6cbc 3c9e dabb
000000c0: d4c2 c23c fab9 c8bb 5fe1 c73c 2669 b13b
000000d0: d8f8 ab3b 85cd f038 e44e a53c cf9c 363c
000000e0: d04e 4eba 6005 bbbb 223e 52bc e80f 45bc
000000f0: f942 c4ba 168e 40bb 2118 fbbb f210 933b
00000100: 1332 eabb 4324 b03b 9751 43bc 95dd 9ebc
00000110: 30b8 ea3b bdca 9d3b c8cf 253c e4df c53b
00000120: 8171 ad3c 7e20 20bc 49ec 07bb 83f5 34bb
00000130: 7ca1 853b 12e3 353a db82 493b ad4c bc3b
00000140: db6d a1bc f8b0 ae3b f9de 62bd 62d2 2d3c
00000150: b20f 1cbb 98b1 6ebc 6a49 51bb a93c 0ebc
00000160: 44b4 013c c379 0dbc 229d 84bb c1b9 0a3c
00000170: 7120 cc3b bc3e d23b cdf5 343c 0b40 8c3c
00000180: 37d4 2fba 2385 debb 1905 9cbc 026b 353b
00000190: b175 8ebc 5f37 4ebb 11f5 9fbc c967 5e3c
000001a0: 63da a33a 525a 5e3c a1eb 863a 828a 35ba
000001b0: fd89 64bc 4f88 a03c 9fc1 c33a 6fc6 c9bb
000001c0: 2ee8 14bc 0980 833b 909f 3cbb 0497 39bb
000001d0: b430 98bb 6b18 23bb fecb 2b3c 5bb6 18bc
000001e0: e582 9fbb 18de 21bb b8bf 16bc 10ab 12bc
000001f0: 8f95 ea39 89e4 cfbb cd98 62bc 5fda f63c
00000200: 5087 a4bb 8310 85bb f67f 89bb d65e 9039
00000210: e016 073d 1069 cd3b b7e1 b43b b1bd 87b9
00000220: d6aa 5fba 1b2a 1fba ad0a febb 7519 ccbb
00000230: 09ea a5ba 0812 463c 119e a0bc 2c6e 9abc
00000240: beac 583c 57fd 053c a7a4 88bc ccb0 a3bb
00000250: 999f 3f3c 88f3 97bc 3c10 5abb 5546 ca3b
00000260: 716a 52bc 9c13 e2ba b399 57bb fd5d a8ba
00000270: d342 3ebb bd4e dabb d297 243b 4831 853c
00000280: a347 1bbc 73c7 103b f2f8 f83b d879 e53a
00000290: 2ac7 1bbc 5c2d 9b3b 55ce 78bb 93f5 823c
000002a0: fe6d 8bbc 67c5 9cbb 8db6 11bb 983a 32bc
000002b0: ef9a 813b aa45 f3ba 679b 94ba eb8c 1d3c
000002c0: 0054 1033 70bf d93b afb9 813b fadf b7ba
000002d0: 4720 e33a 4a7a 313c 3010 393c 9e7b 763c
000002e0: 91c5 c43c 99f7 a539 4ee0 143b 9080 07bd
000002f0: d697 5a3b 3718 b93b bc05 773c 0ede 293c
00000300: 9e8c aa3c 5124 e03a 6b69 cabb 469a f03b
00000310: 37df f93b e475 a43c 6565 13bc 733c efbb
00000320: 2697 8c3b f2d6 573c 3169 50bc afa8 9a3c
00000330: cb9e 4c3b aea0 4f3c ccc7 953b fd5e cebb
00000340: babe f43b 6eee 1cbc 95e7 083c c60c 943c
00000350: ee7e 39bc 34f5 bbba 7cc0 333b 477b 81bc
00000360: 3f92 573c d687 6dbb 93d4 043c 18ff 2a3c
00000370: 4df0 07bc 9bd8 86ba 2168 60bd ab01 bcbb
00000380: a497 67bb c7f7 33bb 6ecd 823a a451 a7bc
00000390: a938 563b c68d a3bc db21 fe3b ef51 b1bc
000003a0: f295 8b3b df17 4cbc 057b 5b3c 8fee f0bb
000003b0: 8210 853c 5848 103c 6ff9 9dbb 56b9 1b3b
000003c0: 6911 e93b f7bb 823c 3f16 aebc 22ff ebbc
000003d0: cb85 243c e272 b53b 87fc 3abb 2d9a 12bb
000003e0: 5ea1 0dbc 7bf9 cebb e598 12bc bba9 2b3c
000003f0: 84cd cabc fcdc 3abb 7c0a 373b 956d 91bb

network_body._body_endoder.seq_layers.2.weight f4 [256, 256]
0.01921789 -0.02203069 -0.12010628 0.06377673 -0.04496523 0.025022166 0.0012882431 -0.07030597
0.012957885 -0.05833243 -0.00700388 -0.030558286 0.041723948 -0.14833161 -0.08764656 0.012038418
-0.06731358 0.049041577 0.054352622 0.0030366075 -0.05145953 0.10937494 -0.012878628 -0.0022261825
0.08427925 -0.010429571 0.04753643 -0.041061062 0.024758823 -0.08388294 -0.038440026 0.13080609
0.007942076 -0.034415837 -0.016645724 -0.013946036 0.010186334 -0.09177713 -0.09307002 -0.011720422
-0.042902477 0.05077602 0.013253418 -0.041400116 0.08975057 0.015311669 -0.04316114 0.15581758
-0.057462808 -0.020577801 -0.006312414 -0.09054697 -0.06843496 0.036352724 0.019711945 -0.057538364
0.0176868 0.13095582 -0.07418632 -0.011391525 -0.046982538 0.100805156 -0.02939574 0.038121846
-0.028515426 -0.0048875953 0.009837749 0.04194821 -0.13821864 0.053329602 -0.051430732 -0.019023914
0.061279442 -0.039984338 -0.09603197 -0.024903048 0.06666448 0.04225122 -0.025185846 -0.045336448
-0.03522962 0.0021367308 0.03691564 0.036283463 -0.024545329 0.04951471 -0.028757993 -0.05553822
0.012163786 -0.006813683 -0.036879074 0.03517182 -0.050422873 -0.037383333 -0.14410695 0.009830544
0.06989563 -0.03095288 0.007524466 -0.040609 0.084202334 -0.013828073 0.024147183 -0.040494382
-0.02048731 -0.031696986 0.044679374 0.05102746 0.013980274 -0.03566197 0.013898877 0.15190619
-0.014244173 -0.028196944 -0.016223518 -0.07193906 0.014982101 -0.071841925 -0.12845767 -0.008402301
0.092439175 0.09617681 0.07345067 0.07382911 -0.027831255 -0.18282987 0.17213544 -0.12374777
-0.021471022 -0.10973221 0.005120442 -0.11104611 -0.01772633 0.12617092 0.0708655 0.09345845
0.08353362 -0.087673895 0.10921736 -0.06554577 0.05753341 -0.05188512 -0.16237004 -0.044685673
-0.043715693 -0.092899814 0.08468064 -0.10524494 -0.056795757 0.0018244769 -0.042336382 0.12151338
-0.029624883 -0.0030516179 -0.16396578 0.0017960025 0.06719877 0.1297445 -0.021046188 -0.027920282
-0.07297567 -0.055339098 0.009265118 0.00075211463 -0.07174906 -0.08150394 -0.028563617 0.073083855
-0.10381798 0.012200709 -0.017837157 -0.0456245 -0.10556312 0.092797495 -0.06696768 0.0047630253
-0.023200467 0.0053452416 -0.016854538 -0.053363733 -0.12554485 0.09890696 -0.02684814 -0.042625032
-0.07496818 0.0915518 -0.033032123 -0.0036721395 0.045377452 0.16045205 0.0032758666 0.027406044
-0.14948 -0.038611013 -0.14306371 -0.009285924 0.090728894 -0.017999018 -0.08137029 0.0060550636
-0.043414883 0.086399056 0.0030693342 -0.12109187 -0.013994665 -0.11863903 0.0027347403 0.02605007
-0.03484282 0.044404637 -0.08421711 -0.016096134 0.0009231756 0.037379764 0.006344565 -0.100059055
0.11715372 -0.08578748 0.05268857 -0.118362024 0.06703008 -0.030365383 0.036081035 -0.034266043
-0.11861578 -0.07703406 -0.003651174 0.045359686 -0.059218664 0.040078443 0.017105795 -0.018631421
0.026295526 -0.026420968 -0.0930462 -0.037667386 -0.12065508 0.032351546 0.007046705 -0.07895299
-0.051880196 -0.046799444 -0.15697344 0.044766534 -0.08089757 -0.04300709 0.02435288 0.02697038
-0.0328753 0.12540334 0.115187064 -0.01588885 0.044181988 0.027642183 -0.043364502 -0.07649911
00000000: d66e 9d3c b579 b4bc 48fa f5bd 609d 823d
00000010: 762d 38bd 49fb cc3c 44da a83a 94fc 8fbd
00000020: 4f4d 543c fced 6ebd ce80 e5bb 5f55 fabc
00000030: bbe6 2a3d 3ee4 17be 0a80 b3bd c93c 453c
00000040: b4db 89bd d2df 483d dba0 5e3d d201 473b
00000050: 3ac7 52bd f8ff df3d e200 53bc 25e5 11bb
00000060: 999a ac3d cbe0 2abc 8fb5 423d a52f 28bd
00000070: 04d3 ca3c d2ca abbd 4a73 1dbd 08f2 053e
00000080: 7b1f 023c 9ff7 0cbd 9d5c 88bc ea7d 64bc
00000090: 95e4 263c a6f5 bbbd 7f9b bebd 0307 40bc
000000a0: 82ba 2fbd 84fa 4f3d dd24 593c 2b93 29bd
000000b0: 26cf b73d cbdd 7a3c bcc9 30bd a58e 1f3e
000000c0: 1f5e 6bbd c792 a8bc 5ed8 cebb b170 b9bd
000000d0: a127 8cbd 98e6 143d f27a a13c 59ad 6bbd
000000e0: e8e3 903c 4819 063e ffee 97bd 85a3 3abc
000000f0: c370 40bd ef72 ce3d 56cf f0bc a725 1c3d
00000100: 2f99 e9bc 1f28 a0bb 832e 213c e3d1 2b3d
00000110: 3089 0dbe 2470 5a3d 08a9 52bd 0ad8 9bbc
00000120: 2700 7b3d 9ec6 23bd 69ac c4bd 7a01 ccbc
00000130: 6387 883d 9e0f 2d3d 8c52 cebc b6b2 39bd
00000140: ef4c 10bd 6508 0c3b db34 173d f89d 143d
00000150: 4913 c9bc f0cf 4a3d e295 ebbc 0b7c 63bd
00000160: 9e4a 473c 5145 dfbb 830e 17bd 5410 103d
00000170: 3788 4ebd 441f 19bd c690 13be 4a10 213c
00000180: 7125 8f3d e590 fdbc cc8f f63b 9f55 26bd
00000190: 4672 ac3d 248f 62bc 50d0 c53c 70dd 25bd
000001a0: 01d5 a7bc b3d4 01bd b801 373d 2b02 513d
000001b0: 850d 653c 4912 12bd 1eb8 633c 4c8d 1b3e
000001c0: 6460 69bc 47fd e6bc 2fe7 84bc c954 93bd
000001d0: 7c77 753c dc21 93bd 688a 03be cea9 09bc
000001e0: c050 bd3d 59f8 c43d 4e6d 963d b733 973d
000001f0: 5ffe e3bc c137 3bbe 4644 303e 796f fdbd
00000200: ffe3 afbc 48bb e0bd 61c9 a73b 256c e3bd
00000210: cf36 91bc f332 013e ee21 913d 2567 bf3d
00000220: ad13 ab3d 5f8e b3bd 5aad df3d dc3c 86bd
00000230: 27a8 6b3d 7e85 54bd 5544 26be 5308 37bd
00000240: 3a0f 33bd 4242 bebd 0b6d ad3d a98a d7bd
00000250: aba2 68bd 4923 ef3a ea68 2dbd 02dc f83d
00000260: e2af f2bc a7fd 47bb a5e6 27be d867 eb3a
00000270: 829f 893d bedb 043e 0e69 acbc 13b9 e4bc
00000280: 4574 95bd 40ab 62bd b9cc 173c 8f29 453a
00000290: 2cf1 92bd 8aeb a6bd 3ffe e9bc fdac 953d
000002a0: 859e d4bd 7ce5 473c 3b1f 92bc c1e0 3abd
000002b0: 7a31 d8bd 9d0c be3d 5a26 89bd 2713 9c3b
000002c0: e80e bebc 2327 af3b 8712 8abc ee93 5abd
000002d0: d48e 00be bb8f ca3d a1f0 dbbc 9697 2ebd
000002e0: eb88 99bd 837f bb3d b14c 07bd 47a8 70bb
000002f0: b5dd 393d 8b4d 243e ecaf 563b a482 e03c
00000300: 4911 19be 9526 1ebd 4b7f 12be fd23 18bc
00000310: 12d0 b93d ad72 93bc 77a5 a6bd 8e69 c63b
00000320: ced3 31bd fdf1 b03d e226 493b 04ff f7bd
00000330: e149 65bc 05f9 f2bd 5439 333b f566 d53c
00000340: 58b7 0ebd a3e1 353d 057a acbd 0adc 83bc
00000350: 4401 723a 861b 193d 12e6 cf3b c3eb ccbd
00000360: 4aee ef3d 59b1 afbd f8cf 573d ca67 f2bd
00000370: 1147 893d d3c0 f8bc b5c9 133d 8d5a 0cbd
00000380: d4ec f2bd 09c4 9dbd 8948 6fbb 14cb 393d
00000390: 458f 72bd 4b29 243d 7421 8c3c eca0 98bc
000003a0: b769 d73c c970 d8bc 028f bebd 1e49 1abd
000003b0: 031a f7bd 0e83 043d 0ce8 e63b 1bb2 a1bd
000003c0: 5480 54bd c6b0 3fbd a5bd 20be 1d5d 373d
000003d0: a0ad a5bd 3428 30bd b17f c73c fdf0 dc3c
000003e0: 40a8 06bd bc69 003e 32e7 eb3d 5529 82bc
000003f0: 2cf8 343d dc71 e23c fa9e 31bd 91ab 9cbd

network_body._body_endoder.seq_layers.2.bias f4 [256]
-6.86609e-05 0.025167435 -0.0022275522 0.0384117 -0.023893226 0.021792678 -0.020776225 0.021343172
-0.0056846994 0.020750774 0.015004511 0.014836034 -0.019238334 -0.001599786 -0.0057297284 -0.015118488
-0.0064161485 0.018302925 0.023740761 0.006102481 0.026790274 -0.0016036971 -0.004940928 -0.024951229
-0.016137972 0.016344454 -0.001744824 -0.017643888 -0.0068260296 -0.027259609 -0.016880829 0.023047287
-0.028885897 -0.024739573 -0.014298143 -0.016786613 -0.021261318 -0.024750292 -0.004135362 -0.0050013284
0.023077939 -0.013898045 0.01756666 0.010647458 -0.029048672 0.023574555 0.021880884 -0.012141208
0.00541884 -0.019129513 0.016300002 0.0032107823 -0.0033946503 -0.018443 -0.0044151274 0.007070969
0.020636287 -0.02093782 -0.012612094 -0.020062562 0.0072497125 0.0036672023 -0.016908063 -0.0028730656
0.0020997275 -0.018703533 0.012729298 0.006049235 -0.026546063 0.016827786 0.013061953 -0.023515502
0.0020372095 0.014400302 -0.0013288814 -0.014171887 0.009974499 0.009496345 0.028898053 0.009437214
0.022843527 0.015332737 -0.009259936 0.0027808119 0.010666778 0.018039072 0.0076167695 0.023007337
0.015023656 -0.0086857965 -0.010157851 -0.004665191 -0.02188886 -0.028278753 0.00050795503 -0.013665618
-0.0026682357 -0.028542459 0.003625627 0.0010540094 0.00607596 0.0068549486 0.0024271954 -0.008708727
-0.03150813 -0.0029805205 -0.006789483 0.008182357 0.0025230886 -0.020408085 0.01060785 0.0053670052
-0.0077093616 -0.0037060748 -0.008258216 -0.0056603784 0.0030163338 0.012591258 0.013584761 -0.034781385
0.00377973 -0.013760994 0.0033562507 0.005788633 -0.030599194 -0.001788459 0.006577886 0.017155511
0.015629819 -0.0046015517 -0.00822394 -0.028161393 -0.004562574 0.006801137 -0.015507557 0.032539345
-0.02159669 0.004216032 -0.017964097 -0.0045483606 0.012356996 -0.015415777 -0.0011602641 -0.014393751
-0.023338087 -0.025577692 -0.0044992827 -0.0030223124 -0.014610855 -0.00024433757 -0.0023117969 -0.005546444
-0.008997399 -8.026443e-05 0.012068268 0.0081822 -9.53123e-05 -0.017070256 -0.016084658 -0.0021647427
-0.00016639632 -0.013274648 -0.0030486519 -0.0055309436 -0.0021601266 0.006381194 -0.004734293 -0.015400234
-0.008901962 -0.017391387 -0.003158701 0.04093187 -0.0006471243 -0.022025915 -0.02857424 -0.0099957725
0.007426165 0.036915157 0.010524651 -0.023496222 -0.011666491 -0.026723497 -0.011948961 0.0047510136
0.008888736 -0.0027985335 0.002557716 -0.0014294747 0.0072390325 -0.043714274 -0.012251849 -0.028951557
0.0023666127 0.0044496832 0.014004269 -0.0069690286 -0.028207898 0.0013496649 -0.0005290801 0.005397372
-0.02824701 -0.0127297 -0.016044637 0.016388334 -0.013916404 -0.0036926232 -0.024032144 0.012688913
0.006303372 0.03419048 0.0020244047 0.002981104 -0.018457675 -0.015875522 -0.019426094 0.023583261
-0.0012409122 -0.007798485 0.017588032 0.02795067 0.032847133 -0.022199087 -0.01342636 -0.015655054
0.024166906 0.008676325 -0.015614816 0.018613348 -0.014538159 0.0077855177 0.003004183 0.0064867144
-0.006744043 -0.017849786 -0.011962163 -0.013244035 -0.009043984 -0.006537846 0.0076177213 0.011049271
-0.0083561335 -0.0128700975 -0.002345444 0.010630427 0.0023187883 0.014070895 0.027023878 0.006797522
-0.015471864 0.01145103 -0.0014973418 -0.014740262 -0.012927193 0.0019819853 0.018456068 -0.014173504
00000000: 0afe 8fb8 f02b ce3c 20fc 11bb 9655 1d3d
00000010: babb c3bc 8f86 b23c e732 aabc e0d7 ae3c
00000020: b746 babb 87fd a93c 7bd5 753c d612 733c
00000030: b699 9dbc e9af d1ba 72c0 bbbb 89b3 77bc
00000040: 8e3e d2bb 04f0 953c fc7b c23c 52f7 c73b
00000050: 4777 db3c 2533 d2ba 82e7 a1bb 8566 ccbc
00000060: c833 84bc cee4 853c 94b2 e4ba ea89 90bc
00000070: e3ac dfbb 8b4f dfbc aa49 8abc aacd bc3c
00000080: 1ea2 ecbc a5aa cabc c242 6abc 1484 89bc
00000090: 372c aebc 20c1 cabc ee81 87bb 2fe2 a3bb
000000a0: f20d bd3c a0b4 63bc f5e7 8f3c ad72 2e3c
000000b0: 7bf7 edbc 6d1f c13c 8a3f b33c ebeb 46bc
000000c0: 8690 b13b 7fb5 9cbc 9587 853c fd6b 523b
000000d0: c878 5ebb c615 97bc c6ac 90bb 96b3 e73b
000000e0: 6e0d a93c cb85 abbc f5a2 4ebc 3e5a a4bc
000000f0: ff8e ed3b 7255 703b c782 8abc 0b4a 3cbb
00000100: 959b 093b 2738 99bc 8c8e 503c a938 c63b
00000110: 2177 d9bc 6dda 893c cd01 563c 95a3 c0bc
00000120: b482 053b 3fef 6b3c dc2d aeba 3431 68bc
00000130: 156c 233c 8f96 1b3c 9cbb ec3c 8b9e 1a3c
00000140: 5922 bb3c 2936 7b3c fdb6 17bc 483e 363b
00000150: b6c3 2e3c adc6 933c 1896 f93b e279 bc3c
00000160: c825 763c df4e 0ebc 1d6d 26bc 75de 98bb
00000170: 4450 b3bc d8a8 e7bc 4928 053a c2e5 5fbc
00000180: 91dd 2ebb e0d1 e9bc ed9b 6d3b b026 8a3a
00000190: d918 c73b 7a9f e03b 9511 1f3b 0caf 0ebc
000001a0: ab0e 01bd d654 43bb 507a debb 4b0f 063c
000001b0: 675a 253b db2e a7bc 8ccc 2d3c b4dd af3b
000001c0: d09e fcbb 9ee1 72bb 784d 07bc b27a b9bb
000001d0: afad 453b 904b 4e3c 9e92 5e3c ed76 0ebd
000001e0: 59b5 773b cb75 61bc 8bf4 5b3b 93ae bd3b
000001f0: 29ab fabc ba6a eaba 4f8b d73b b789 8c3c
00000200: 1b0a 803c 9dc8 96bb b4bd 06bc b9b2 e6bc
00000210: a581 95bb 12dc de3b 6913 7ebc fa47 053d
00000220: 8beb b0bc a426 8a3b 7129 93bc 6a0a 95bb
00000230: ff74 4a3c 7592 7cbc 0114 98ba c4d3 6bbc
00000240: 842f bfbc 4f88 d1bc b86e 93bb fd11 46bb
00000250: 5e62 6fbc 6f1a 80b9 8481 17bb f2be b5bb
00000260: d469 13bc a353 a8b8 fcb9 453c a20e 063c
00000270: 67e2 c7b8 ecd6 8bbc f9c3 83bc 5bde 0dbb
00000280: ac7a 2eb9 e97d 59bc e4cb 47bb eb3c b5bb
00000290: e990 0dbb 5619 d13b 2122 9bbb 4351 7cbc
000002a0: 89d9 11bc 6278 8ebc 3502 4fbb 2da8 273d
000002b0: c7a3 29ba b16f b4bc 8614 eabc 4fc5 23bc
000002c0: 3057 f33b 5934 173d 966f 2c3c 267b c0bc
000002d0: cf24 3fbc 3ceb dabc 93c5 43bc 64ae 9b3b
000002e0: 10a2 113c 9a67 37bb 5b9f 273b 365d bbba
000002f0: 6835 ed3b bd0d 33bd fbbb 48bc d12b edbc
00000300: 2c19 1b3b a6ce 913b 2972 653c 735c e4bb
00000310: 4014 e7bc 3de7 b03a f7b1 0aba 70dc b03b
00000320: 4666 e7bc 3b90 50bc 0b70 83bc d440 863c
00000330: a101 64bc f0ff 71bb 0fdf c4bc 29e5 4f3c
00000340: 848c ce3b 510b 0c3d e0ab 043b a05e 433b
00000350: 8d34 97bc 620d 82bc 7923 9fbc af31 c13c
00000360: 1ba6 a2ba 6f8a ffbb c714 903c cef8 e43c
00000370: b78a 063d dcda b5bc 3cfa 5bbc 073f 80bc
00000380: adf9 c53c 2527 0e3c 49d5 7fbc 057b 983c
00000390: 7531 6ebc a81d ff3b d4e1 443b 818e d43b
000003a0: 22fd dcbb b739 92bc f3fc 43bc 82fd 58bc
000003b0: 382d 14bc 6d3b d6bb 149e f93b 0008 353c
000003c0: 2ae8 08bc 1add 52bc 05b6 19bb 3e2b 2e3c
000003d0: d0f6 173b 9c89 663c 2e61 dd3c bfbd de3b
000003e0: b37d 7dbc 1a9d 3b3c 7442 c4ba 2481 71bc
000003f0: 94cc 53bc 32e4 013b 2e31 973c fc37 68bc

action_model._discrete_distribution.branches.0.weight f4 [3, 256]
0.044833325 0.00910011 -0.041596394 0.012387074 -0.020360384 -0.010602973 -0.012489631 0.009176786
-0.0014279309 0.019906731 -0.01419429 -0.010056214 0.021558069 0.034679685 0.022807961 0.027095754
-0.019238736 -0.004842869 0.042255092 0.025937516 0.029434403 0.01449615 0.012828069 0.01176412
-0.005392725 0.00055297726 0.0351088 0.002394325 0.02862027 0.0041574533 0.0015958215 0.0066715004
-0.009151769 0.024883345 0.027381234 -0.037742697 0.016344365 0.020338377 -0.018053949 0.027184831
0.018963534 0.028366262 0.033870853 0.021976326 0.03345251 0.025087565 0.024406994 0.0061206413
-0.037315745 -0.017388657 0.03167221 0.014518321 -0.038881097 -0.027163044 -0.0007714623 0.010835522
0.033802085 0.0001828655 0.0007949233 -0.013983538 0.025040139 -0.010393674 4.727515e-05 0.00935625
0.0136126485 0.013692624 0.019442819 -0.0029820038 -0.020749342 -0.021672707 0.0085991435 0.009304284
0.036133308 -0.022455191 0.021896811 0.020930853 0.0024824496 0.019331302 -0.0006474203 0.007885472
0.024863966 0.009778112 0.017977614 -0.010397288 0.002073589 0.008341122 0.0036916023 0.023155695
0.00620999 0.026176754 -0.03621537 -0.021588273 -0.009345816 -0.010727369 -0.02226228 -0.03554254
0.01790855 -0.014578517 0.00811204 0.025961746 -0.0074531077 0.039743207 -0.0033565708 0.005860235
0.021810211 -0.023736952 0.017846163 0.012247022 0.0029580868 -0.0002759827 -0.0018245761 -0.019197509
0.019554984 -0.028824309 -0.034769967 -0.00036860447 -0.020232167 0.008269565 0.019147813 -0.025731746
-0.056581583 0.0022288412 0.009888662 -0.01147048 -0.021050453 0.017970167 -0.02717817 -0.014703622
-0.0023503692 0.012389795 -0.0036828567 -0.018558837 0.01999652 0.016047645 -0.011780131 -0.0060470556
-0.0061803483 0.0026831997 -0.02928261 0.015061508 -0.009047712 0.010878626 -0.0025870032 0.014034938
-0.026721792 -0.01794254 0.03348089 0.030626176 0.023724 -0.013407907 0.02312856 -0.04776657
-0.009948883 0.031778663 0.008007044 -0.015196991 -0.008161951 0.024919415 -0.003866298 0.023771701
-0.023472585 -0.013938504 0.021025935 -0.018450808 0.030387066 -0.021992637 0.005751037 0.022638898
0.022006843 0.028210122 -0.0068825954 0.0030870533 0.009179834 0.033422373 -0.008529085 -0.017070808
0.0034994164 0.008856979 0.00058650883 -0.00505826 -0.011567982 0.027308771 -0.02704786 0.0055160457
-0.037418183 0.03243147 0.0040914663 -0.046237174 0.026515745 -0.027457718 0.019294998 -0.009233971
0.024967896 0.006955565 0.004437862 0.022587197 0.027282843 -0.02761154 -0.027307281 -0.011918259
-0.0142411655 0.0018709189 0.011433337 -0.0016591985 -0.000687633 -0.004410013 0.010256513 -0.035615176
0.023717577 0.03895641 0.0049577197 -0.0059656207 0.01353297 -0.0146406 0.0036346184 0.00067820854
-0.024629226 -0.017660957 -0.0042194575 -0.0086925905 0.015993046 0.008546662 -0.013860449 0.01962091
0.0030503355 0.035505664 -0.012839733 0.031311054 0.018144052 0.025699137 0.0101918075 -0.008299631
0.021303633 0.02669118 -0.029549878 0.007920239 -0.0013405626 0.005534841 0.003508473 0.027918378
0.017451942 -0.031882122 -6.108816e-06 0.018615387 0.024926307 0.01790236 0.012155715 -0.00081262225
0.0015532569 -0.033942826 -0.0016390135 0.007609771 0.0070080045 0.0028177372 0.015167594 0.014150408
00000000: 26a3 373d a118 153c fb60 2abd 27f3 4a3c
00000010: d2ca a6bc 18b8 2dbc 4fa1 4cbc 3b5a 163c
00000020: 6929 bbba 7113 a33c 2b8f 68bc d2c2 24bc
00000030: 8c9a b03c 490c 0e3d c3d7 ba3c eaf7 dd3c
00000040: 8e9a 9dbc eeb0 9ebb ad13 2d3d ea7a d43c
00000050: 6b20 f13c 4381 6d3c d22c 523c 4cbe 403c
00000060: 75b5 b0bb adf5 103a 3fce 0f3d 1cea 1c3b
00000070: 0e75 ea3c 3f3b 883b e22a d13a 9a9c da3b
00000080: 4df1 15bc 28d8 cb3c 9c4e e03c 1698 1abd
00000090: 9ee4 853c ab9c a63c e0e5 93bc b9b2 de3c
000000a0: 6a59 9b3c 5d60 e83c 2abc 0a3d b207 b43c
000000b0: 8005 093d 7084 cd3c 2df1 c73c a98f c83b
000000c0: 65d8 18bd a872 8ebc b8ba 013d 40de 6d3c
000000d0: c941 1fbd 0885 debc f53b 4aba 7987 313c
000000e0: 0e74 0a3d 95bf 3f39 6662 503a 361b 65bc
000000f0: fa20 cd3c 3a4a 2abc 4e49 4638 f54a 193c
00000100: 9607 5f3c 0757 603c 8c46 9f3c b96d 43bb
00000110: 86fa a9bc f68a b1bc 6ce3 0c3c ff70 183c
00000120: 8500 143d f3f3 b7bc f160 b33c 2e77 ab3c
00000130: 98b0 223b ae5c 9e3c a4b7 29ba 1132 013c
00000140: 84af cb3c 6034 203c ca45 933c 6359 2abc
00000150: 0de5 073b 34a9 083c cfee 713b 03b1 bd3c
00000160: 2c7d cb3b a270 d63c 9156 14bd e4d9 b0bc
00000170: 321f 19bc d9c1 2fbc 635f b6bc 0e95 11bd
00000180: f4b4 923c bbda 6ebc 5de8 043c baad d43c
00000190: 3339 f4bb c6c9 223d eaf9 5bbb 3707 c03b
000001a0: 54ab b23c ff73 c2bc 1e32 923c bca7 483c
000001b0: 76dc 413b c5b1 90b9 9d26 efba 1844 9dbc
000001c0: c631 a03c f520 ecbc f46a 0ebd 4141 c1b9
000001d0: eebd a5bc 127d 073c e0db 9c3c 62cb d2bc
000001e0: 17c2 67bd c011 123b 0e04 223c aeee 3bbc
000001f0: 0072 acbc 2c36 933c c1a4 debc 76e7 70bc
00000200: a708 1abb 91fe 4a3c 155c 71bb b408 98bc
00000210: becf a33c 5a76 833c 7301 41bc 6126 c6bb
00000220: 8584 cabb 9fd8 2f3b 16e2 efbc 8bc4 763c
00000230: db3c 14bc 443c 323c b68a 29bb ccf2 653c
00000240: a9e7 dabc 3cfc 92bc 4223 093d bfe3 fa3c
00000250: d658 c23c d7ac 5bbc 1b78 bd3c e1a6 43bd
00000260: a400 23bc 582a 023d fa2f 033c cdfc 78bc
00000270: b4b9 05bc cd23 cc3c b761 7dbb dfbc c23c
00000280: 9449 c0bc 535e 64bc 953e ac3c 2626 97bc
00000290: 4cee f83c e729 b4bc 3273 bc3b 3675 b93c
000002a0: b247 b43c ea18 e73c 6587 e1bb 2950 4a3b
000002b0: 0467 163c e6e5 083d 93bd 0bbc 14d8 8bbc
000002c0: 7756 653b dd1c 113c f1bf 193a c3bf a5bb
000002d0: a287 3dbc a5b6 df3c 7993 ddbc f2bf b43b
000002e0: cf43 19bd dcd6 043d b511 863b 3163 3dbd
000002f0: 8c37 d93c 02ef e0bc 8b10 9e3c 154a 17bc
00000300: 7989 cc3c 82eb e33b 7c6b 913b c908 b93c
00000310: 4580 df3c 9931 e2bc 85b3 dfbc cd44 43bc
00000320: c753 69bc 9f39 f53a e452 3b3c 7779 d9ba
00000330: 4542 34ba df81 90bb ef0a 283c 38e1 11bd
00000340: 5d4b c23c c290 1f3d 5e74 a23b 417b c3bb
00000350: 64b9 5d3c 21df 6fbc c732 6e3b cec9 313a
00000360: 3bc3 c9bc b6ad 90bc 6043 8abb 5e6b 0ebc
00000370: d903 833c 4c07 0c3c f016 63bc 08bc a03c
00000380: 23e8 473b 636e 113d be5d 52bc 0540 003d
00000390: d6a2 943c ff86 d23c 8afb 263c 2dfb 07bc
000003a0: f584 ae3c 76a7 da3c 9612 f2bc e4c3 013c
000003b0: d1b5 afba 9d5d b53b 69ee 653b 15b5 e43c
000003c0: 60f7 8e3c d496 02bd 54fa ccb6 4c7f 983c
000003d0: 4132 cc3c f8a7 923c c428 473c 2806 55ba
000003e0: a796 cb3a a207 0bbd 2bd4 d6ba 635b f93b
000003f0: 67a3 e53b c9a9 383b 8081 783c 1dd7 673c

action_model._discrete_distribution.branches.0.bias f4 [3]
-0.0007378507 0.028566452 -0.0375665
00000000: 536c 41ba 3104 ea3c 55df 19bd

action_model._discrete_distribution.branches.1.weight f4 [3, 256]
0.0051427274 -0.005428055 0.009346279 -0.020943314 0.0074850256 0.047171447 0.007488737 -0.009833716
0.002235928 -0.038824946 -0.0211845 0.0022455954 0.022644438 0.016954469 0.014996987 0.028613478
0.013563738 0.018119339 0.022159487 -0.045144808 -0.043381322 0.02209896 -0.02086372 0.010588592
-0.013041612 0.011573756 -0.0020998095 0.016912997 -0.0014144707 -0.0057315696 0.010865825 0.0054638158
-0.009192842 -0.029591003 0.021346364 -0.029368332 -0.035853356 0.012471764 -0.021891372 0.022810536
0.011923922 -0.038504772 0.021551087 -0.018726481 -0.020640759 -0.049862765 0.016702183 0.009141579
0.016357442 -0.038547307 0.0062229084 -0.027823485 0.015789514 -0.0080214 -0.030137869 -0.0012456302
-0.0068163835 -0.024485972 -0.0069268006 -0.045400325 0.030375948 -0.03310846 0.012616512 -0.058481373
0.04427367 0.02126611 -0.009567916 0.0020669536 0.010022226 -0.026346777 -0.0050689774 0.0015721719
-0.010359964 -0.024460021 -0.001012239 0.027224177 0.0069234553 -0.026608601 0.0036340712 -0.055738643
-0.007085122 0.006828708 0.006913109 -0.00463513 0.027540606 0.0026365023 -0.0082952455 -0.011764435
-0.0032602584 -0.009372548 -0.027865581 0.002930306 -0.06471838 -0.032630328 0.0040730783 -0.013578624
0.0085880365 -0.009154151 0.024130095 0.031129366 -0.0018122368 0.0022318994 -0.01151006 -0.044194955
0.031578407 -0.02712579 -0.028627846 0.0016401092 -0.00336996 0.013726826 -0.042125907 -0.025644112
-0.00700408 -0.029917255 0.03184142 0.008909004 -0.0064798845 -0.050825518 -0.017022515 0.0015893684
0.032906212 -0.011645867 -0.00094300596 0.03602814 0.004765535 -0.028315714 -0.011490647 -0.02220715
0.034224935 0.0015816763 0.044546235 0.015743872 -0.037479695 0.011725391 0.023933802 -0.0049105524
-0.002374299 -0.0022499235 0.021105856 0.015381852 0.04862572 -0.021390166 -0.017036032 -0.027207373
-0.022810714 -0.028054252 0.0075419187 0.012965586 0.0060404814 0.011727213 0.017776756 -0.002724496
0.023184666 0.038391057 0.034331437 -0.021707637 -0.010340471 0.018592909 0.02155581 0.010984848
0.035482604 0.014997032 -0.007131376 0.003607131 -0.03968897 -0.008129509 -0.019835325 0.016489485
0.029946415 -0.027910596 -0.009933853 0.02254556 -0.0022335334 0.004592839 -0.005507754 0.009233134
-0.015113427 -0.03170463 0.023400357 0.012011962 0.002163101 0.018806323 0.024086047 0.021106219
0.022061752 0.0001884569 0.019628657 -0.028989624 0.015926955 0.0072114505 -0.033963878 -0.0041896254
-0.011541204 0.012670962 0.00059123867 -0.014742557 -0.022107482 -0.014692758 0.031173823 0.0153984
0.0129837515 -0.0063594375 0.0023113904 -0.007997597 0.02326849 -0.02298994 -0.007763674 0.021672629
0.024401873 -0.0078043905 -0.025197277 0.033109084 0.020351054 0.028383639 -0.013645961 -0.018495332
-0.020915229 0.013743156 0.01278354 0.047173187 0.016992016 0.01366522 0.049227614 0.0037833247
-0.011241191 0.012730984 0.0075456137 -0.042145424 0.013143442 0.01641871 -0.020944819 -0.0042255824
-0.0035466978 0.016842723 0.027267007 -0.009301987 -0.022942733 0.011866929 0.009465543 -0.013534187
-0.011678361 0.0282332 0.0027758577 -0.01647734 -0.06775486 -0.027187588 -0.011020961 -0.07508134
-0.029700644 0.023730738 0.004386457 -0.012460484 0.0027023063 -0.0117726885 -0.017267555 -0.022257583
00000000: 5384 a83b d3dd b1bb 2321 193c 5091 abbc
00000010: f244 f53b d936 413d 1464 f53b 981d 21bc
00000020: a688 123b e806 1fbd 1e8b adbc d72a 133b
00000030: d480 b93c 19e4 8a3c ecb5 753c d066 ea3c
00000040: 713a 5e3c 026f 943c d087 b53c c3e9 38bd
00000050: 9db0 31bd e108 b53c 64ea aabc c67b 2d3c
00000060: 7cac 55bc da9f 3d3c f59c 09bb 208d 8a3c
00000070: c365 b9ba e4cf bbbb 9306 323c cf09 b33b
00000080: 939d 16bc d568 f2bc 92de ae3c db95 f0bc
00000090: f8da 12bd 5f56 4c3c 8955 b3bc 29dd ba3c
000000a0: 8e5c 433c 2eb7 1dbd e88b b03c 4768 99bc
000000b0: cf16 a9bc e63c 4cbd 04d3 883c 90c6 153c
000000c0: 0b00 863c c8e3 1dbd 8ae9 cb3b 14ee e3bc
000000d0: 0359 813c 316c 03bc b1e3 f6bc 6a44 a3ba
000000e0: f85b dfbb ce96 c8bc 37fa e2bb b1f5 39bd
000000f0: fbd6 f83c bd9c 07bd 7db5 4e3c 2a8a 6fbd
00000100: 4f58 353d 4436 ae3c c0c2 1cbc ba75 073b
00000110: 4334 243c 32d5 d7bc aa19 a6bb 5611 ce3a
00000120: d7bc 29bc 6260 c8bc 1bad 84ba 3d05 df3c
00000130: 27de e23b 48fa d9bc 9929 6e3b 344e 64bd
00000140: 502a e8bb 5bc3 df3b 5d87 e23b 4ae2 97bb
00000150: d69c e13c 2bc9 2c3b c8e8 07bc 9ebf 40bc
00000160: 0faa 55bb 518f 19bc 5c46 e4bc 600a 403b
00000170: 128b 84bd 61a7 05bd 7577 853b e178 5ebc
00000180: d6b4 0c3c 4bfb 15bc 7aac c53c 0303 ff3c
00000190: 9488 edba 0f45 123b b194 3cbc c505 35bd
000001a0: 5c58 013d e836 debc f284 eabc eff8 d63a
000001b0: 8cda 5cbb 7be6 603c 378c 2cbd 9a13 d2bc
000001c0: 7b82 e5bb 0815 f5bc 266c 023d 12f7 113c
000001d0: 3655 d4bb 6b2e 50bd cd72 8bbc 5b52 d03a
000001e0: aac8 063d 4ece 3ebc 0f34 77ba 3e92 133d
000001f0: 3428 9c3b 5bf6 e7bc 4443 3cbc c5eb b5bc
00000200: 722f 0c3d 4050 cf3a 1d76 363d 4bf9 803c
00000210: 4f84 19bd db1b 403c d210 c43c b3e8 a0bb
00000220: 219a 1bbb 7473 13bb 30e6 ac3c 2a04 7c3c
00000230: c32b 473d 6e3a afbc 268f 8bbc ffe1 debc
00000240: 89dd babc 08d2 e5bc 3322 f73b 9c6d 543c
00000250: 3bef c53b 7f23 403c 8fa0 913c 758d 32bb
00000260: c5ed bd3c f13f 1d3d 1f9f 0c3d 37d4 b1bc
00000270: 146b 29bc 2850 983c cf95 b03c cbf9 333c
00000280: 3556 113d 1cb6 753c 51ae e9bb 9e65 6c3b
00000290: e790 22bd a231 05bc b17d a2bc f514 873c
000002a0: 2f52 f53c c3a4 e4bc 99c1 22bc 77b1 b83c
000002b0: 7960 12bb 877f 963b 647a b4bb 9246 173c
000002c0: 4f9e 77bc b7dc 01bd 1bb2 bf3c d2cd 443c
000002d0: d0c2 0d3b b80f 9a3c 1a50 c53c f3e6 ac3c
000002e0: d9ba b43c 849c 4539 47cc a03c a67b edbc
000002f0: 3f79 823c 084e ec3b b51d 0bbd 2049 89bb
00000300: 5117 3dbc de99 4f3c 5bfd 1a3a c48a 71bc
00000310: c01a b5bc e5b9 70bc 3f60 ff3c 9249 7c3c
00000320: cdb9 543c d462 d0bb b27a 173b 5a08 03bc
00000330: 8f9d be3c 6655 bcbc 6b66 febb cc8a b13c
00000340: 70e6 c73c f9bb ffbb 856a cebc 649d 073d
00000350: 41b7 a63c ce84 e83c 4f93 5fbc 8683 97bc
00000360: 6a56 abbc f92a 613c 0e72 513c ac38 413d
00000370: d732 8b3c 16e4 5f3c e5a2 493d a8f1 773b
00000380: f92c 38bc 9e95 503c 3241 f73b aea0 2cbd
00000390: 9757 573c 8880 863c 7894 abbc c176 8abb
000003a0: b76f 68bb c0f9 893c 0f5f df3c 5c67 18bc
000003b0: 66f2 bbbc 826d 423c 5d15 1b3c 7fbe 5dbc
000003c0: 9956 3fbc 5049 e73c 2aeb 353b 7dfb 86bc
000003d0: 0fc3 8abd 81b8 debc 4391 34bc 3fc4 99bd
000003e0: c44e f3bc f766 c23c 45bc 8f3b 0f27 4cbc
000003f0: 2d19 313b 3ce2 40bc b074 8dbc 8955 b6bc

action_model._discrete_distribution.branches.1.bias f4 [3]
-0.022070175 0.022778068 -0.00047656478
00000000: 83cc b4bc 1299 ba3c 71db f9b9

action_model._discrete_distribution.branches.2.weight f4 [2, 256]
-0.034402207 -0.0006729119 0.049068794 0.008482826 -0.029667256 0.05671289 0.0026670902 0.007883909
0.017623683 0.025272874 0.046894748 0.04799081 -0.011859711 -0.08071536 0.0060993806 -0.011652106
0.07081702 0.040296104 -0.014765352 0.0211832 0.03204331 -0.04258373 -0.02426297 -0.015426768
0.011678138 0.014805312 -0.017621234 0.0031423075 -0.044950515 -0.030928403 -0.034051057 0.020809276
0.0071115782 -0.0062630796 -0.045473564 0.011020649 -0.023910513 -0.0389869 0.040199082 -0.050356593
0.020679127 0.0040151505 -0.022186583 -0.015219954 -0.026836228 0.025698835 0.023173682 0.05615145
0.08570615 0.017585061 -0.009253383 0.011363594 0.11844423 0.037550874 0.038579296 0.0052376296
0.013065101 0.033881217 0.05757157 0.020116603 -0.010130525 0.012437346 0.013307762 0.005713689
-0.05054648 -0.051746164 0.018866677 0.023209311 0.00537776 0.017327942 -0.003253854 -0.0030683558
-0.02794727 0.054878403 -0.03163866 -0.03403836 0.009179961 -0.0018343253 0.05472305 0.0298297
0.012359949 0.009547867 -0.051414855 0.046316486 0.0025252434 0.039370798 0.0044785757 0.04121267
0.04965792 -0.010982758 0.026616232 0.014442607 -0.04507817 -0.019980337 0.014005249 0.0075183236
0.0047995877 -0.010982888 0.004027946 -0.035803176 0.019701665 -0.042341534 0.023792265 0.02246705
-0.053702198 0.033246033 0.009383613 0.03401463 -0.0006967508 -0.025142979 0.018028423 0.019961827
-0.017302556 0.041760165 0.023358643 -0.0010460091 0.04598771 0.02983978 0.0265693 -0.004564655
0.04130739 -0.00809549 0.01362488 0.018714154 0.011098133 -0.0114221 0.048130635 0.028596273
0.047418162 -0.01592616 0.0066902796 -0.006147451 -0.019053783 0.0052077915 0.029837402 0.07122283
-0.0048950887 0.01880443 0.038221415 -0.007767845 0.04275798 -0.0076463814 0.040266212 -0.02032412
0.017824477 0.0031326138 -0.06424673 -0.06974356 -0.009387047 0.029527996 -0.035132032 0.094649106
0.019050136 -0.06696028 0.032403603 0.06655831 0.07640983 -0.037586283 0.0126889255 -0.002965612
0.041031215 -0.004427675 0.005283129 0.07787835 0.020220738 0.04755114 0.023010833 0.001450496
-0.032730095 -0.026555862 0.014367367 0.02790774 -0.012584676 -0.029624954 0.0010959748 0.018148193
0.043239765 0.02602037 0.03901663 -0.0011684333 0.014723894 -0.048679274 0.013328809 0.012300252
0.12691136 -0.071960814 0.055455953 0.038281105 -0.025256349 -0.0071595735 0.006974094 -0.018930983
-0.0033281737 0.008730879 0.069165476 -0.0071622687 -0.004576735 0.044217866 0.048891198 0.08923011
-0.022675136 0.00016567286 -0.027373843 0.053945027 -0.029755197 -0.0042017866 -0.032728788 0.08072687
0.0072747474 -0.0006164626 -0.01042205 0.027000993 0.010176254 0.0033167347 0.015322434 0.05332089
0.0597342 0.02311571 0.033687137 0.007880053 -0.005335052 -0.0342384 0.01361904 -0.03614631
0.035422444 -0.025752805 0.02743396 0.06338822 -0.019408759 -0.045311075 0.03833663 0.09004405
-0.013983589 -0.03850745 0.10691111 -0.029710533 0.0056767855 -2.6239592e-05 0.047079343 0.027943574
-0.0041566263 0.09950304 0.024825303 -0.0057653813 0.014764079 -0.015290703 0.015554359 0.02607613
-0.02750268 0.047354534 0.0096591385 0.014019772 -0.010101627 -0.014229337 0.022245865 -0.013042808
00000000: 54e9 0cbd 5a66 30ba 5cfc 483d 8dfb 0a3c
00000010: bf08 f3bc c64b 683d 59ca 2e3b 832b 013c
00000020: 8b5f 903c 0f09 cf3c b514 403d 0392 443d
00000030: 3c4f 42bc 184e a5bd 50dd c73b 7ae8 3ebc
00000040: 8408 913d 870d 253d 60ea 71bc 6488 ad3c
00000050: d93f 033d 476c 2ebd 23c3 c6bc 8ec0 7cbc
00000060: a955 3f3c fb91 723c 685a 90bc 2cef 4d3b
00000070: 081e 38bd 905d fdbc 1f79 0bbd 3778 aa3c
00000080: 3e08 e93b 853a cdbb 7d42 3abd f48f 343c
00000090: fbdf c3bc bab0 1fbd cba7 243d b742 4ebd
000000a0: 4667 a93c 8691 833b a3c0 b5bc 1d5d 79bc
000000b0: a6d7 dbbc 5d86 d23c bcd6 bd3c 10ff 653d
000000c0: b586 af3d 8c0e 903c 809b 17bc 5e2e 3a3c
000000d0: e392 f23d f2ce 193d 5305 1e3d 6ca0 ab3b
000000e0: 010f 563c 08c7 0a3d 2bd0 6b3d 93cb a43c
000000f0: 80fa 25bc 03c6 4b3c cd08 5a3c e639 bb3b
00000100: d309 4fbd c9f3 53bd 4a8e 9a3c 7421 be3c
00000110: ec37 b03b 54f3 8d3c 9d3e 55bb 7816 49bb
00000120: acf1 e4bc 2dc8 603d 8a97 01bd cf6b 0bbd
00000130: 8c67 163c be6d f0ba 4725 603d 6a5d f43c
00000140: 6281 4a3c a86e 1c3c 6298 52bd 5bb6 3d3d
00000150: 8e7e 253b 4643 213d 04c1 923b 9ece 283d
00000160: 1a66 4b3d 07f1 33bc 490a da3c afa0 6c3c
00000170: e3a3 38bd cead a3bc 4676 653c 455c f63b
00000180: dc45 9d3b 92f1 33bc dcfc 833b 5aa6 12bd
00000190: 6365 a13c 516e 2dbd ffe7 c23c d20c b83c
000001a0: d6f6 5bbd fe2c 083d babd 193c ed52 0b3d
000001b0: 28a6 36ba a6f8 cdbc 58b0 933c fc86 a33c
000001c0: 17be 8dbc b50c 2b3d a05a bf3c 3e1a 89ba
000001d0: 9c5d 3c3d 8e72 f43c dca7 d93c 1a93 95bb
000001e0: f031 293d f2a2 04bc e43a 5f3c 6d4e 993c
000001f0: f2d4 353c c223 3bbc a124 453d bb42 ea3c
00000200: 8c39 423d 9477 82bc 223a db3b 8e70 c9bb
00000210: ae16 9cbc 1fa6 aa3b 916d f43c 46dd 913d
00000220: fb66 a0bb bf0b 9a3c 0f8e 1c3d 6889 febb
00000230: fe22 2f3d 7f8e fabb 2fee 243d c57e a6bc
00000240: a304 923c 8a4c 4d3b ca93 83bd b6d5 8ebd
00000250: 21cc 19bc b2e4 f13c 9be6 0fbd 64d7 c13d
00000260: 080f 9c3c 7922 89bd a4b9 043d b94f 883d
00000270: c27c 9c3d 13f4 19bd 36e5 4f3c b75a 42bb
00000280: 5910 283d 0816 91bb 191e ad3b af7e 9f3d
00000290: f6a5 a53c fcc4 423d 3781 bc3c 921e be3a
000002a0: fe0f 06bd ae8b d9bc 1b65 6b3c c69e e43c
000002b0: f52f 4ebc 08b0 f2bc d0a6 8f3a 85ab 943c
000002c0: 2e1c 313d ac28 d53c e7cf 1f3d 1e26 99ba
000002d0: 7d3c 713c eb63 47bd 1461 5a3c ff86 493c
000002e0: 0df5 013e 3160 93bd c825 633d a6cc 1c3d
000002f0: 67e6 cebc db9a eabb f186 e43b 2615 9bbc
00000300: 7d1d 5abb f60b 0f3c a1a6 8d3d 77b1 eabb
00000310: 70f8 95bb cb1d 353d 2342 483d 47be b63d
00000320: 35c1 b9bc 78b8 2d39 1c3f e0bc 76f5 5c3d
00000330: 2cc1 f3bc 24af 89bb 9f0e 06bd 2154 a53d
00000340: 0161 ee3b 1b9a 21ba 3fc1 2abc 3031 dd3c
00000350: 4eba 263c 935d 593b f20a 7b3c 0167 5a3d
00000360: d9ab 743d 285d bd3c 86fb 093d 561b 013c
00000370: a9d1 aebb 913d 0cbd 6522 5f3c 270e 14bd
00000380: 2017 113d 8cf7 d2bc 2fbd e03c afd1 813d
00000390: 1eff 9ebc 1b98 39bd df06 1d3d 0469 b83d
000003a0: 6c1b 65bc fdb9 1dbd 36f4 da3d 8163 f3bc
000003b0: 5404 ba3b 181d dcb7 45d6 403d ece9 e43c
000003c0: 4f34 88bb 40c8 cb3d 6f5e cb3c 86eb bcbb
000003d0: 09e5 713c db85 7abc b6d7 7e3c 9c9d d53c
000003e0: 4d4d e1bc d4f6 413d 5d41 1e3c 30b3 653c
000003f0: 4b81 25bc 2a22 69bc f63c b63c 80b1 55bc

action_model._discrete_distribution.branches.2.bias f4 [2]
0.014258095 -0.014258088
00000000: c99a 693c c19a 69bc
