results/ButtonPress2/ButtonPress/ButtonPress-1450320.onnx (onnx, 496098 bytes, 13 tensors)

discrete_act_size_vector f4 [1, 4]
0	0x40400000	3.0
1	0x40400000	3.0
2	0x40000000	2.0
3	0x40000000	2.0

network_body._body_endoder.seq_layers.0.weight f4 [256, 205]
0	0x3c0a1885	0.0084286975
1	0x3e415660	0.18880606
2	0xbd82aee8	-0.06381017
3	0xbcda02e0	-0.026612699
4	0xbe0dddf3	-0.13854198
5	0x3d272e9e	0.040815942
6	0x3d29d4e9	0.041462813
7	0x3de29ac0	0.110646725
8	0xbdd2baa8	-0.10289508
9	0xbe781fb6	-0.24230847
10	0x3d9321ca	0.07184179
11	0x3e02714f	0.12738536
12	0x3da208d7	0.07911842
13	0xbe26ea57	-0.16300331
14	0xbe3f637d	-0.18690296
15	0xbcb6faa8	-0.02233632
16	0x3e061eb0	0.13097644
17	0x3e6607ba	0.22463885
18	0xbe316022	-0.17321828
19	0xbdcd5e31	-0.10027731
20	0x3a8a9f6d	0.0010576077
21	0x3dfb60e4	0.1227434
22	0xbc06e83f	-0.008234083
23	0x3c289541	0.010289491
24	0xbe4d45a1	-0.20046093
25	0x3da93e94	0.08263889
26	0x3d08c677	0.033392396
27	0x3de5b6b5	0.11216489
28	0xbe5836ed	-0.21114703
29	0xbdaa4bbb	-0.08315226
30	0xbe084a8b	-0.13309686
31	0x3d970fbb	0.07376047
32	0xbc7e6815	-0.015527745
33	0xbe486505	-0.19569786
34	0xbe02b8e5	-0.12765844
35	0xbc9ad2e9	-0.018899398
36	0x3db80b0b	0.08986481
37	0x3d9ff67a	0.078106835
38	0xbc8d95a7	-0.017283274
39	0xbd9c49f6	-0.076312944
40	0xbcbdcbaa	-0.023168404
41	0x3e15054b	0.145528
42	0x3da7d41d	0.08194754
43	0xbe4c75dc	-0.19966835
44	0xbd3a19b8	-0.045434684
45	0xbe09913f	-0.13434313
46	0x3dfc1fa1	0.1231072
47	0x3e513d81	0.20433618
48	0xbd39b422	-0.045337804
49	0xbe014c52	-0.1262677
50	0x3dc6d848	0.09709221
51	0x3e036b40	0.12833881
52	0x3e47ebef	0.19523595
53	0x3c152b80	0.0091046095
54	0xbe132ade	-0.14371821
55	0xbc64c8c8	-0.013963886
56	0x3dea84ed	0.11451135
57	0x3e27410c	0.16333407
58	0x3a6665aa	0.0008788953
59	0xbe1e2740	-0.1544466
60	0x3bdf9812	0.006823548
61	0x3dad1346	0.08450942
62	0x3dba6dc1	0.09102965
63	0x3d8d92dd	0.069127776
64	0xbe2457bd	-0.16049094
65	0x3dc2be1e	0.09508918
66	0xbd7f42dc	-0.06231962
67	0x3d7931c5	0.06083848
68	0xbd1f6ec8	-0.03892401
69	0xbd8d6450	-0.06903899
70	0x3c2cde9a	0.010551119
71	0x3e105ab5	0.14097102
72	0x3d79d37e	0.06099271
73	0xbbe1a246	-0.0068857996
74	0x3caa09f9	0.020756708
75	0x3de33a03	0.11095049
76	0x39bfb223	0.0003656308
77	0x3e8c0f19	0.2735527
78	0xbda43fb9	-0.08019967
79	0xbe4a256e	-0.19740841
80	0xbbc181be	-0.005905359
81	0x3e10f344	0.14155298
82	0xbdabfb83	-0.083975814
83	0x3e63c093	0.2224143
84	0x3d885d95	0.06658474
85	0x3cd81418	0.026376769
86	0x3e12f2f6	0.14350495
87	0x3d81f822	0.06346156
88	0xbd63dc33	-0.05562992
89	0xbe5e3958	-0.21701562
90	0xbc55a818	-0.013040565
91	0x3de10d17	0.10988825
92	0xbd292b4a	-0.04130105
93	0x3da92853	0.08259644
94	0x3c75c451	0.015000419
95	0x3d6fa90d	0.05851083
96	0x3e214450	0.15748715
97	0x3e851d4e	0.2599892
98	0xbd35585e	-0.044273727
99	0xbe1469fc	-0.14493555
100	0x3de57d9b	0.11205598
101	0x3d57b9ad	0.05266731
102	0x3e30a635	0.17250903
103	0xbb88fcfd	-0.004180549
104	0x3c73425b	0.014847363
105	0x3d99c1b5	0.0750765
106	0x3dd75857	0.10514896
107	0x3e8d32a1	0.2757769
108	0xbe2567f3	-0.16152935
109	0xbdcc8400	-0.099861145
110	0x3dbc4598	0.091929615
111	0xbbfb878f	-0.007676072
112	0x3e2717cd	0.16317673
113	0x3cb303d9	0.02185242
114	0xbd9e7828	-0.07737762
115	0x3db63a59	0.08897848
116	0x3e5246fa	0.20534888
117	0x3d8bff03	0.06835749
118	0x3d85a5d0	0.06525767
119	0xbcacadee	-0.02107903
120	0xbd17933b	-0.037005644
121	0xbd8d4242	-0.06897403
122	0x3e62e510	0.22157693
123	0xbd944c9b	-0.07241174
124	0xbd682ccd	-0.05668335
125	0x3bc3f335	0.0059799203
126	0x3e1aec93	0.15129308
127	0xbdccfdfd	-0.10009382
128	0xbe5e7571	-0.21724488
129	0x3d25a3f1	0.04043955
130	0xbda3fb3c	-0.080069035
131	0x3e078f23	0.13238196
132	0x3e0dbf7d	0.13842578
133	0x3bd31a60	0.006442353
134	0xbd28df1e	-0.041228406
135	0x3cc0efbc	0.023551814
136	0x3e7428e5	0.23843725
137	0xbdf40e9b	-0.11916848
138	0xbac8a7b6	-0.0015308771
139	0x3bc4ba8e	0.0060036844
140	0xbda4e030	-0.08050573
141	0xb70a512a	-8.2443385e-06
142	0x3db01067	0.085968785
143	0x3d80824a	0.06274851
144	0x3dcba74d	0.099440195
145	0x3daf556a	0.08561213
146	0xbaf55f39	-0.0018720395
147	0x3dceab5d	0.10091279
148	0x3de6b8ca	0.112657145
149	0xbb666ea8	-0.003516117
150	0x3d7995ae	0.06093376
151	0x3d48919b	0.048966985
152	0x3b20db97	0.0024544948
153	0x3a94b246	0.0011344634
154	0x3dcb8546	0.09937529
155	0x3d74062a	0.05957619
156	0x3c1d919a	0.009617234
157	0x3d8570d2	0.065156594
158	0x3d162b33	0.03666229
159	0x3cac63f1	0.02104375
160	0xbc81e408	-0.015855804
161	0xbc5b5c42	-0.013388695
162	0x3e13951a	0.14412346
163	0x3cd024c1	0.02540815
164	0xbd52dd4c	-0.051480576
165	0x3d63dc53	0.05563004
166	0x3dcf7162	0.10129048
167	0xbd9703c9	-0.07373769
168	0x3e002a53	0.12516145
169	0x3db69cf5	0.08916656
170	0x3cf2c493	0.02963475
171	0x3d5c63b9	0.05380604
172	0x3c7ee095	0.015556474
173	0x3de80431	0.113289244
174	0x3cc4bd14	0.02401594
175	0xbd8754e0	-0.066079855
176	0x3e3b7ae8	0.18308604
177	0xbda9c72e	-0.08289944
178	0xbca8c5bd	-0.020602101
179	0x3e0ce166	0.13757858
180	0x3d30f16b	0.043198984
181	0x3d75f2c0	0.060045958
182	0x3e83c9b8	0.25739837
183	0x3d4c29e2	0.04984463
184	0x3dc8a495	0.097970165
185	0x3d2f5442	0.042804964
186	0x3e253349	0.16132845
187	0xbd1ac8f5	-0.037789304
188	0xbc949cc4	-0.018141158
189	0xbda69111	-0.08133138
190	0x3c1f8150	0.00973542
191	0xbce49008	-0.02790071
192	0x3e412e0b	0.1886522
193	0xbd17064a	-0.036871232
194	0x3daa9230	0.08328664
195	0xbd2bfb0c	-0.041987464
196	0x3e0e7984	0.13913542
197	0x3c1d5846	0.009603566
198	0xbde05331	-0.109533675
199	0x3df52284	0.11969474
200	0x3d426811	0.047462527
201	0x3df1179d	0.11772082
202	0x3d6eeb73	0.05833001
203	0xbd7961f6	-0.06088444
204	0xb9998558	-0.00029281783
205	0x3cce9a28	0.025219992
206	0xbca44ad9	-0.020055221
207	0xbd0ccf35	-0.034377296
208	0x3e09b95a	0.13449612
209	0x3c1eae3a	0.009685094
210	0xbc1a385c	-0.009412851
211	0xbe08c667	-0.13356934
212	0x3e07fd32	0.1328018
213	0x3b3338d8	0.0027347114
214	0xbdc0d3b1	-0.09415377
215	0xbd80dd2f	-0.062921874
216	0xbe3ddc2a	-0.18541017
217	0x3d53ebcf	0.051738556
218	0x3e0b2716	0.13589129
219	0xbd8a1c5c	-0.0674369
220	0xbd6c5c82	-0.05770541
221	0x3d8b0e99	0.06789894
222	0x3e2d08c6	0.16897878
223	0x3c960b49	0.018315928
224	0x3d628813	0.05530555
225	0xbca600cc	-0.020264052
226	0xbdcddcfa	-0.100519136
227	0xbd2e6808	-0.04257968
228	0x3d48a6ef	0.048987325
229	0x3d3a5c35	0.04549809
230	0xbdcf9c68	-0.10137254
231	0xbdc7b4c4	-0.09751275
232	0x3add1bb0	0.0016869213
233	0x3dbd933f	0.092566006
234	0x3e0b0cb4	0.13579065
235	0xbc671ded	-0.014106256
236	0x3c8749c4	0.016514666
237	0xbd6b8434	-0.057499126
238	0xbbd08a73	-0.0063641607
239	0xbb76eba5	-0.0037677076
240	0xbd484894	-0.04889734
241	0xbd9f7b3c	-0.07787177
242	0xbd8a720e	-0.067600355
243	0xbbb09034	-0.005388284
244	0xbcc4c222	-0.024018351
245	0xbce20aa6	-0.027592968
246	0xbda11712	-0.078657284
247	0xbeaae180	-0.33375168
248	0x3df2d656	0.118572876
249	0xbcebe96e	-0.028797831
250	0x3de2e01f	0.11077904
251	0xbe1dff43	-0.15429406
252	0xbe131ab3	-0.14365654
253	0xbc19704d	-0.0093651535
254	0x3e2277c9	0.15866007
255	0xbc554d00	-0.0130188465

network_body._body_endoder.seq_layers.0.bias f4 [256]
0	0x3d67b016	0.056564413
1	0x3c931087	0.017952217
2	0xbc017d17	-0.007903359
3	0x3c14f590	0.00909175
4	0x3c898dab	0.016791185
5	0xbab4f109	-0.0013804744
6	0x3cd32cd6	0.025778215
7	0xbbe900b2	-0.0071106786
8	0xbca38ce8	-0.01996465
9	0xb7994b91	-1.827421e-05
10	0xbac5bb79	-0.0015085778
11	0x3aa5e614	0.001265707
12	0x3c5a1121	0.013309748
13	0x3c237619	0.009976887
14	0x3b4ecadb	0.0031554017
15	0x3bb6c62f	0.0055778245
16	0xbcbf1072	-0.023323271
17	0xbcab7889	-0.0209315
18	0xbc259835	-0.01010709
19	0x3cddfc25	0.027097771
20	0x3bca667c	0.006176768
21	0xbca2acfc	-0.019857876
22	0xbae65885	-0.0017573988
23	0x3b8b8086	0.0042572645
24	0xbbf7b47f	-0.0075593586
25	0xbcc895bc	-0.024485461
26	0xbbda2841	-0.0066576307
27	0xbcb14958	-0.021641418
28	0x3c29c413	0.010361689
29	0x3bb69e6f	0.005573086
30	0x3d52d50f	0.05147272
31	0xbc06f62a	-0.008237401
32	0xbb9bf0c4	-0.004758926
33	0xbc9444d8	-0.018099234
34	0x3c97b2e1	0.018517913
35	0x3b75efde	0.0037527005
36	0xbc9331c9	-0.017968075
37	0xbc3074a4	-0.010769997
38	0xbc855974	-0.016278006
39	0x3bcf56a3	0.0063274666
40	0x3ca6b967	0.020352079
41	0xbafacd6b	-0.0019134706
42	0x3bdb7216	0.0066969497
43	0xbc5711a5	-0.013126765
44	0xbc9ef6f5	-0.019404868
45	0xbc8bc3cb	-0.017061135
46	0xbc0f7c7a	-0.008757705
47	0xbb13ceb2	-0.002255362
48	0x3cb1d42d	0.021707619
49	0xbc558df2	-0.013034331
50	0x3ce947d9	0.028476642
51	0xbc918b21	-0.017766537
52	0x3b92b39a	0.0044769766
53	0x3bae04bf	0.0053106244
54	0x3cf5da28	0.030011252
55	0xbc98874b	-0.0186192
56	0xbbf2400d	-0.0073928894
57	0xbba23cb1	-0.0049510826
58	0xbc78e3b8	-0.015191011
59	0x397a9e3b	0.00023900803
60	0xbcb126b0	-0.021624893
61	0x3bc0db6a	0.005885531
62	0xbc8a73e1	-0.016900958
63	0x3b720a3c	0.003693237
64	0xbbbd59f8	-0.0057785474
65	0xbc5d66fa	-0.013513321
66	0xbc8bb655	-0.017054716
67	0xbc8861b8	-0.016648158
68	0x3cba3978	0.022732481
69	0xba4e5dc9	-0.00078722514
70	0x3c68451e	0.014176635
71	0x3c114e59	0.008868777
72	0x3ceadb12	0.028668914
73	0xbc951958	-0.018200561
74	0x3b739f34	0.003717375
75	0xba17e9d3	-0.00057950354
76	0x3bb9fa5e	0.005675598
77	0xbcef0497	-0.029176993
78	0x3c0594dd	0.008153168
79	0x3c121761	0.008916707
80	0xbc7f43bd	-0.015580115
81	0x3c2ac0aa	0.010421911
82	0x3c685061	0.01417932
83	0xbc124724	-0.008928094
84	0xbc9a2cae	-0.018820133
85	0xbc49a716	-0.012307903
86	0x3bbcbb65	0.005759644
87	0xbbc86b10	-0.0061162785
88	0x3bc0f430	0.0058884844
89	0x39f82fa8	0.00047337753
90	0xbc9187f6	-0.017765027
91	0x3c03fb65	0.008055543
92	0x3c17d47d	0.00926697
93	0x3b6f6a4d	0.0036531866
94	0x3bfaef7d	0.0076579438
95	0x3c2e0ffb	0.010623927
96	0xbbe5c43b	-0.007011918
97	0xbcc96e16	-0.024588626
98	0xbc420561	-0.011842103
99	0x39b28b8b	0.00034054773
100	0xbb34a246	-0.0027562543
101	0xbc221144	-0.009891812
102	0xbba63adc	-0.0050729346
103	0xbb4663a1	-0.0030271786
104	0x3bb34f31	0.005472087
105	0x3cb49b26	0.022046637
106	0x3c4234e7	0.011853433
107	0xbb87a3d9	-0.004139405
108	0xbcbe2840	-0.023212552
109	0x3cc8f64f	0.024531512
110	0xbc48a98e	-0.012247456
111	0xb9f9e118	-0.0004766069
112	0xbc9265c9	-0.0178708
113	0x3b845800	0.0040388107
114	0x3aee0fcb	0.0018162666
115	0xb97db2b5	-0.00024194534
116	0x3b9dd89e	0.0048170825
117	0xbc66a207	-0.014076716
118	0xbca1808c	-0.019714616
119	0xbc66f84e	-0.014097286
120	0xbc578294	-0.013153691
121	0xbc95bca1	-0.018278422
122	0xbc72c5f6	-0.014817705
123	0xba2c4ad8	-0.0006572432
124	0xbc6fb0a1	-0.014629514
125	0xbc5951d3	-0.013264137
126	0xbc6bfc75	-0.014403452
127	0x3c8fc7c4	0.01755131
128	0xbc2dc63c	-0.010606345
129	0x3ab25c4f	0.0013607832
130	0x3bcb57de	0.006205543
131	0xbc76bdbd	-0.015059886
132	0x3c9f4c1d	0.019445473
133	0x3c3f2253	0.011665898
134	0xbb9aa4e1	-0.004719362
135	0xbca227ea	-0.019794423
136	0xbc30ac50	-0.01078327
137	0xbaf2b82d	-0.0018518023
138	0x3bab23ec	0.005222788
139	0xbc4b226e	-0.012398345
140	0x3bb15962	0.0054122666
141	0x3bc6f31c	0.0060714614
142	0xbcbe39eb	-0.023220977
143	0xbcd50e74	-0.026007868
144	0x3c8d801c	0.017273001
145	0x3c6fa37e	0.014626382
146	0xbc6bd0bb	-0.014393027
147	0xba39ca68	-0.0007087351
148	0xbbe7c80f	-0.0070734094
149	0xbc8c7aae	-0.017148342
150	0x3b5dd599	0.0033849238
151	0x3c0a57e0	0.008443803
152	0xbc6b0f58	-0.01434692
153	0xbb3db06f	-0.0028944274
154	0xbba2c6ea	-0.00496756
155	0x3a962263	0.001145434
156	0x3b00184f	0.001954574
157	0xbbf5665f	-0.00748901
158	0xbc1a11db	-0.009403671
159	0x3bb1226e	0.0054057157
160	0xbb85db52	-0.004084983
161	0xbc8b0196	-0.01696853
162	0x3c24f7ed	0.010068876
163	0xbab6663f	-0.001391597
164	0xbb428aba	-0.0029684738
165	0x3b0f90af	0.0021906307
166	0xbaeb9e66	-0.0017976284
167	0x3c9051e1	0.017617168
168	0xbc1d3288	-0.009594567
169	0xbc5a8383	-0.013337019
170	0xbb41b0fc	-0.0029554954
171	0xbce6c218	-0.028168723
172	0x39d85af8	0.00041266507
173	0x3b00e594	0.001966809
174	0x3ab9dd77	0.0014180382
175	0x3c8b3feb	0.016998252
176	0x3c2d6af7	0.010584584
177	0xbb8c0841	-0.004273445
178	0xbac294a5	-0.0014845325
179	0xbc571672	-0.01312791
180	0xbb3c0261	-0.0028687941
181	0x3ce06fc3	0.027397042
182	0x37236448	9.738906e-06
183	0x3b33c8b2	0.0027432856
184	0x3cf3d44c	0.029764317
185	0xbbb66b15	-0.0055669644
186	0x3c1e7243	0.009670797
187	0xbd069c03	-0.032863628
188	0x3c51fe1f	0.012816935
189	0x3bf85f13	0.007579693
190	0x3c941330	0.018075556
191	0x3c42ff06	0.011901623
192	0x3a7b05f6	0.00095757784
193	0xbc2f0fc0	-0.010684907
194	0xbbf90fbe	-0.0076007536
195	0x3ba214f2	0.0049463445
196	0xbb5928df	-0.0033135933
197	0x3c272dd7	0.0102038
198	0xbbba2c59	-0.005681556
199	0xbc6526bf	-0.013986289
200	0xbc1cb8a3	-0.009565505
201	0xbb4e0b47	-0.0031439827
202	0xbc8feec4	-0.017569907
203	0x3c162213	0.009163397
204	0xbb02fdd0	-0.001998771
205	0x3cb93a93	0.022610938
206	0x3ba35f0d	0.004985696
207	0xbbab8665	-0.005234527
208	0x3c1eeb64	0.009699676
209	0xbd0c78b8	-0.034294814
210	0x3c2f420e	0.010696901
211	0x3b751c52	0.0037400913
212	0xbc520af1	-0.012819991
213	0xbbf5f6a4	-0.0075062085
214	0xbc7f4158	-0.015579544
215	0xbcaaf69a	-0.020869542
216	0xbc31457c	-0.010819789
217	0xbba2bed3	-0.0049665957
218	0x3b6dab59	0.0036265461
219	0x3c49db9f	0.012320428
220	0xbbf04ff9	-0.0073337522
221	0xbaee1208	-0.0018163333
222	0xbae5fa45	-0.00175459
223	0xbbbb4d7c	-0.005716024
224	0xbcbaedd8	-0.02281849
225	0x3bee0665	0.007263946
226	0xbabb43f5	-0.001428722
227	0xbbf7d4f8	-0.0075632297
228	0xbc9a7485	-0.018854389
229	0xbcaa0147	-0.020752562
230	0xbb8c97e5	-0.004290568
231	0xbc965ea8	-0.018355682
232	0xbc2cb6f6	-0.010541668
233	0xbc80e918	-0.015736148
234	0x3cc11b4a	0.023572583
235	0xbc841d59	-0.016127275
236	0x3ca2c4eb	0.019869288
237	0xbc763412	-0.015027063
238	0x3bf56aa5	0.0074895197
239	0x3bb94eaf	0.005655132
240	0x3c3d4b23	0.0115535585
241	0x3c758517	0.014985344
242	0xbaa1cbb3	-0.0012344032
243	0x3bbd0e02	0.005769492
244	0x3b1beaed	0.002379115
245	0xbbcdaf31	-0.006276988
246	0x3bc39732	0.0059689516
247	0xbcacb206	-0.021080982
248	0x3b9a9171	0.004717045
249	0xbb8790c1	-0.004137129
250	0xbbaa9bbc	-0.0052065533
251	0x3c217af0	0.009855971
252	0xbcbde50f	-0.023180513
253	0xbb8bf3f5	-0.0042710253
254	0x3c2dc4a8	0.010605969
255	0xbbf6bb09	-0.0075296205

network_body._body_endoder.seq_layers.2.weight f4 [256, 256]
0	0x3ce8ba2f	0.028409092
1	0xbd00fa2c	-0.031488582
2	0xbe033f49	-0.1281711
3	0x3d84dc92	0.06487383
4	0xbd6d31b6	-0.057908736
5	0x3c96fd45	0.018431315
6	0x3d03872e	0.03211134
7	0xbd634226	-0.055483006
8	0x3c57b8d9	0.01316663
9	0xbd4f1fa8	-0.0505673
10	0xbcbd06b2	-0.023074482
11	0xbce41066	-0.02783985
12	0x3d8c4867	0.06849747
13	0xbdc8f24e	-0.09811841
14	0xbdab090b	-0.08351334
15	0xbc41d8ab	-0.011831443
16	0xbda0ab8f	-0.07845222
17	0x3d23162a	0.03981606
18	0x3d8d55ed	0.06901155
19	0xbc86c283	-0.016450172
20	0xbd8e0125	-0.06933812
21	0x3db9467c	0.09046647
22	0xbc1c31af	-0.00953333
23	0x3cbe07d3	0.02319709
24	0x3d98cfad	0.07461486
25	0xbc0f18a5	-0.008733903
26	0x3dcc37e3	0.09971597
27	0xbc9348d5	-0.017979065
28	0x3cac99b0	0.021069378
29	0xbe0df958	-0.13864648
30	0xbd84bbbc	-0.0648112
31	0x3e083114	0.13299972
32	0x3c1c52b6	0.009541204
33	0xbc18c96b	-0.009325366
34	0xbc542062	-0.012947174
35	0x3b768ff3	0.0037622422
36	0x3b31ab47	0.0027110146
37	0xbd6e3c93	-0.058163237
38	0xbd76a145	-0.060212392
39	0xbd30c868	-0.043159872
40	0xbc52b8a1	-0.012861402
41	0x3d920c72	0.0713128
42	0x3b173cb0	0.0023076944
43	0xbc8b8d45	-0.017035136
44	0x3dfa88f4	0.12233153
45	0x3cea45f9	0.028597819
46	0xbd5055a6	-0.05086293
47	0x3e312fea	0.17303434
48	0xbd3eeb2a	-0.04661099
49	0xbbf43c78	-0.0074534975
50	0xbc43baa6	-0.011946356
51	0xbdd1ef71	-0.10250748
52	0xbd905967	-0.07048302
53	0xbcb322a5	-0.021867106
54	0x3be8f6dd	0.0071095065
55	0xbd54a765	-0.051917452
56	0x3b9ef525	0.004851001
57	0x3e0b72b6	0.13617977
58	0xbd280bc5	-0.04102685
59	0xbc9d4ae1	-0.019200744
60	0xbc01af8c	-0.007915389
61	0x3e1aae62	0.15105584
62	0xbc6376d6	-0.013883313
63	0x3cb04577	0.021517498
64	0xbc6ce81d	-0.014459637
65	0xbcef19af	-0.029187052
66	0x3d8c4a38	0.068500936
67	0x3cc2016c	0.023682319
68	0xbe0ba212	-0.13636044
69	0xbb62c9dd	-0.0034605183
70	0xbd803b7a	-0.06261344
71	0xbd346f80	-0.044051647
72	0x3dab7569	0.083720036
73	0xbdb87ebb	-0.09008547
74	0xbdf6996f	-0.12040984
75	0xbc808800	-0.01568985
76	0x3dafa5da	0.085765556
77	0x3c8c8dd2	0.017157469
78	0xbd1f1135	-0.03883477
79	0xbd8f98f5	-0.07011596
80	0xbd2679cc	-0.0406435
81	0x3b8b9da4	0.0042607356
82	0x3d0cbe9e	0.034361474
83	0x3cb9c0c6	0.02267493
84	0x3bb4d472	0.0055184895
85	0x3dc94d36	0.0982918
86	0xbd9aa253	-0.07550492
87	0xbc781eb3	-0.015144038
88	0x3c8cc6c8	0.01718463
89	0x3bbdfcfb	0.00579798
90	0xbd4cbe93	-0.049986433
91	0x3dbff4b0	0.09372842
92	0xbd7527be	-0.059852354
93	0xbce7666b	-0.028247079
94	0xbe0589f2	-0.13040903
95	0x3c582781	0.013193012
96	0x3cb166a3	0.021655386
97	0x39f12818	0.00045996974
98	0x3d7788a7	0.060433056
99	0xbd82856f	-0.06373107
100	0x3d9c7b17	0.07640665
101	0x3c626825	0.013818775
102	0xbc000d3d	-0.007815656
103	0xbd765b7e	-0.060145847
104	0xbc9056f2	-0.017619584
105	0xbb1c036c	-0.002380575
106	0x3dabf114	0.083955914
107	0x3d8bd362	0.068274274
108	0x3ce64253	0.028107798
109	0xbcdcf930	-0.02697429
110	0xbb90cfc0	-0.004419297
111	0x3e0617c9	0.13095011
112	0xbb8289c2	-0.003983707
113	0xbd4ed169	-0.050492678
114	0xbb33dd54	-0.0027445154
115	0xbd871b37	-0.06596988
116	0xba41654a	-0.0007377459
117	0xbd688a21	-0.056772355
118	0xbdfb1782	-0.12260343
119	0xbd36c943	-0.044625532
120	0x3dde6136	0.10858385
121	0x3d9ca6ae	0.07648979
122	0x3dfd92c9	0.12381513
123	0x3d1ddaf8	0.038538903
124	0xbd256189	-0.04037622
125	0xbe4e1170	-0.2012384
126	0x3e32be31	0.17455365
127	0xbde77a72	-0.113026515
128	0xbce3b516	-0.02779631
129	0xbdd6cbd1	-0.10488094
130	0x3cd44079	0.02590965
131	0xbd410647	-0.047125127
132	0xbcef265d	-0.029193098
133	0x3de87149	0.113497324
134	0x3dc080f0	0.09399593
135	0x3da3cafe	0.07997702
136	0x3d42ac8c	0.047527835
137	0xbe01f5cf	-0.12691425
138	0x3d99a213	0.07501616
139	0xbd0fba04	-0.035089508
140	0x3dba8c02	0.091087356
141	0xbd651517	-0.055928316
142	0xbe4374c4	-0.19087511
143	0xbd4f7d06	-0.05065634
144	0xbcbc3f66	-0.02297945
145	0xbd663a5a	-0.056207992
146	0x3d7337fc	0.059379563
147	0xbdb8e552	-0.090281144
148	0xbd60c49c	-0.054875
149	0xbbb829fb	-0.005620239
150	0xbd52818c	-0.051393077
151	0x3de19467	0.110146336
152	0xbd22fc59	-0.03979144
153	0x3c73140c	0.0148363225
154	0xbe0da3ba	-0.13831988
155	0x3ca18a2b	0.019719204
156	0x3dd94532	0.10608901
157	0x3e0bfe10	0.13671136
158	0xbd1698e3	-0.036766898
159	0xbcb4cf13	-0.022071397
160	0xbd363191	-0.044480864
161	0xbd9ec306	-0.077520415
162	0x39e7b14f	0.0004419186
163	0xbd352d93	-0.044232916
164	0xbda6a972	-0.08137788
165	0xbe1f8c3a	-0.15580836
166	0xbc443df7	-0.011977664
167	0x3dc7da7f	0.09758472
168	0xbdc65cb7	-0.09685653
169	0x3aa07f16	0.0012244906
170	0x3ccc67de	0.024951871
171	0xbd7cbca9	-0.061703358
172	0xbdde7fb9	-0.10864205
173	0x3e0848e1	0.13309051
174	0xbda1fcf6	-0.079095766
175	0x3c6e710d	0.014553321
176	0xbc8a8448	-0.01690878
177	0xbcdd61c3	-0.027024155
178	0xbc767b4f	-0.0150440475
179	0xbd98507d	-0.07437227
180	0xbe124116	-0.14282641
181	0x3dce5ee0	0.1007669
182	0x3b1e9e7f	0.0024203358
183	0xbd8b8f02	-0.06814386
184	0xbda275b7	-0.079326086
185	0x3dcc240e	0.099678144
186	0xbdb1c5bd	-0.08680294
187	0xba63fd6a	-0.00086971244
188	0x3d6d6725	0.057959694
189	0x3e6164d1	0.22011115
190	0x3d2d7c28	0.042354733
191	0x3d0bd079	0.034134362
192	0xbe2bda1c	-0.16782421
193	0xbd58257d	-0.052770127
194	0xbe1d6980	-0.15372276
195	0x3d3735b7	0.04472896
196	0x3d62cb90	0.055369914
197	0xbcd80e4a	-0.026374001
198	0xbdc5a50b	-0.0965062
199	0x3bfe52df	0.007761344
200	0xbd69eeb0	-0.057112396
201	0x3d9d8106	0.07690625
202	0xbc445822	-0.011983903
203	0xbe334457	-0.17506538
204	0xbd82e7d1	-0.06391872
205	0xbdf47bc7	-0.11937671
206	0x3cc2a232	0.023758981
207	0x3c75c14f	0.014999702
208	0xbd749353	-0.05971081
209	0x3d0a7ffc	0.03381346
210	0xbd78d5b0	-0.060750663
211	0xbd399f7c	-0.04531811
212	0xbd089e0e	-0.033353858
213	0x3c2af176	0.010433545
214	0x3c272bfc	0.010203358
215	0xbdb2707a	-0.087128595
216	0x3ddab503	0.106790565
217	0xbd9fa9bd	-0.07796047
218	0x3d2c4009	0.042053256
219	0xbdfd6d0f	-0.12374317
220	0x3de165f7	0.110057764
221	0xbc1ee9f8	-0.009699337
222	0x3d750e3f	0.05982804
223	0xba3373bc	-0.0006845554
224	0xbe08545e	-0.13313434
225	0xbdbbbc2a	-0.09166749
226	0xbcfaa2e2	-0.030595247
227	0x3ca2c05d	0.019867117
228	0xbd3aeb78	-0.045634717
229	0x3da0a2fc	0.07843587
230	0x3c95d875	0.018291691
231	0xbd36f533	-0.044667434
232	0x3ce98bf1	0.028509112
233	0xbd130e78	-0.03590247
234	0xbda99726	-0.082807824
235	0x3c63f2aa	0.013912836
236	0xbe1ea05b	-0.15490858
237	0x3d4f2cf1	0.05057997
238	0x3b270d1c	0.0025489992
239	0xbdbea5ad	-0.09308944
240	0xbd83adb9	-0.06429619
241	0xbd6c2fde	-0.057662837
242	0xbe3e210b	-0.18567292
243	0x3d6132e4	0.054980174
244	0xbdd1c130	-0.10241926
245	0xbd992f7f	-0.07479762
246	0x3c7eae64	0.015544508
247	0x3c7c1df3	0.015388
248	0xbc331357	-0.010929904
249	0x3e36dddb	0.17858069
250	0x3ddda386	0.10822205
251	0xbc3fad4c	-0.011699032
252	0x3c928c02	0.017889027
253	0x3d0d847c	0.034550175
254	0xbd13fcb4	-0.03612967
255	0xbdbf54d9	-0.09342355

network_body._body_endoder.seq_layers.2.bias f4 [256]
0	0x3c2a5cad	0.010398072
1	0x3d1b36df	0.037894126
2	0xbc81387b	-0.015774002
3	0x3d5a4d35	0.053296287
4	0xbd8e26f6	-0.06941025
5	0x3d3858c1	0.045006517
6	0xbd6500ce	-0.05590897
7	0x3bd8c543	0.0066153123
8	0xbc8cebe4	-0.017202325
9	0x3beb8132	0.007187032
10	0x3d039d04	0.032132164
11	0x3c67cfa1	0.014148624
12	0xbd42a53c	-0.04752086
13	0xbd199385	-0.0374942
14	0x3d061002	0.03273011
15	0xbb47d7b4	-0.003049356
16	0x3ab74373	0.0013981893
17	0x3cdc02f0	0.02685687
18	0x3d1be14a	0.03805665
19	0xbc83f27f	-0.016106842
20	0x3d6f464c	0.05841665
21	0xbcc249b5	-0.023716787
22	0xbd22bff5	-0.039733846
23	0xbd7ae061	-0.06124914
24	0xbd4d99d3	-0.050195526
25	0xbc61180c	-0.013738643
26	0x3c18bf59	0.009322965
27	0xbd16dfba	-0.036834456
28	0xbc8eac3a	-0.017416108
29	0xbd27895c	-0.04090248
30	0xbd635573	-0.055501413
31	0x3cef219e	0.029190835
32	0xbd8e4a74	-0.069477946
33	0xbd8c38ad	-0.068467475
34	0xbc859e33	-0.016310787
35	0xbcc3731e	-0.023858603
36	0xbd8e2d01	-0.069421776
37	0xbc550e97	-0.013003967
38	0xba540d8a	-0.00080891757
39	0xbd05c279	-0.032656167
40	0x3d64400a	0.055725135
41	0xbd0b1e9e	-0.033964746
42	0x3cc72808	0.02431108
43	0x3d0cf758	0.034415573
44	0xbd61c665	-0.055120844
45	0x3b23b105	0.0024977338
46	0x3d875d07	0.066095404
47	0xbc90f90b	-0.017696878
48	0x3c2b374c	0.0104501955
49	0xbd74c120	-0.05975449
50	0x3cee68db	0.029102733
51	0xbcadc065	-0.021209905
52	0x3cb0ade3	0.02156729
53	0xbcc75408	-0.024332061
54	0xbb9dc32a	-0.004814525
55	0xbaaf7f88	-0.0013389448
56	0x3cd872f3	0.026422
57	0xbd1a11f3	-0.037614774
58	0xbbdda0a5	-0.006763535
59	0xbd2d9fa4	-0.042388573
60	0x3cdd3402	0.027002338
61	0xbabf2151	-0.0014582073
62	0xbd2a0c17	-0.041515436
63	0xbd48d7aa	-0.0490338
64	0xbcb5cc8b	-0.02219226
65	0xbd030dc1	-0.03199554
66	0x3cc0b983	0.023525959
67	0x3bb988a8	0.0056620426
68	0xbd33ca60	-0.04389417
69	0xb9c0f8ce	-0.00036806468
70	0xbb8fb578	-0.0043856464
71	0xbda131c0	-0.07870817
72	0xbc2ae56d	-0.010430676
73	0x3d25eacc	0.040507123
74	0x3b9d5dbf	0.004802435
75	0xbc95b2f8	-0.018273816
76	0xbc07cd21	-0.008288653
77	0xbb2b9e91	-0.0026187042
78	0x3c83d945	0.016094813
79	0xbc82e125	-0.015976498
80	0x3d3acb05	0.04560377
81	0x3c68c777	0.014207712
82	0x38ab41da	8.166181e-05
83	0xbc0ede39	-0.008719974
84	0x3c30ca8c	0.010790478
85	0x3c57f5a1	0.013181121
86	0xbc1d22d9	-0.009590828
87	0x3c93c947	0.018040312
88	0x3c65c6ab	0.014024417
89	0x3c3ae6d6	0.011407575
90	0xbbe30834	-0.006928468
91	0xbd221da8	-0.039579064
92	0xbd89a814	-0.067215115
93	0xbd95af7f	-0.07308864
94	0xbc3c0532	-0.011475848
95	0xbccc44e3	-0.024935191
96	0x3c8ac9ce	0.016941931
97	0xbd9dfea6	-0.07714586
98	0x3cb4f8ec	0.022091351
99	0xbb878e5e	-0.0041368445
100	0xbc55842d	-0.013032001
101	0x3b3ac4a8	0.0028498564
102	0xbc212af9	-0.009836906
103	0xbd8693cc	-0.06571159
104	0xbd0298e7	-0.0318841
105	0x3cd35ed3	0.025802052
106	0xbd18d3f0	-0.037311494
107	0x3c38bca5	0.011275445
108	0x3a46230d	0.00075583236
109	0xbd6ff6c4	-0.058584943
110	0x3c3a3aa8	0.011366524
111	0xbc76faa3	-0.015074405
112	0xbcda8920	-0.026676714
113	0x3c8abfd9	0.016937183
114	0xbd1790bc	-0.037003264
115	0xbd09bbe3	-0.03362645
116	0x3c67bd54	0.01414426
117	0x3cf12e19	0.029440926
118	0x3d09e557	0.03366598
119	0xbda5457a	-0.08069892
120	0x3c213c1f	0.009840994
121	0xbd405e13	-0.046964716
122	0x3c4fa42e	0.012673421
123	0xbc8926ff	-0.016742228
124	0xbd8b69d1	-0.06807292
125	0xbb2b92cd	-0.002618003
126	0x3c8d8b08	0.01727821
127	0x3b0e62fc	0.002172648
128	0x3d08b7c0	0.033378363
129	0xbd453f93	-0.048156332
130	0xbc487553	-0.0122350035
131	0xbd904581	-0.07044507
132	0xbd619c12	-0.05508048
133	0x3cb841c9	0.022492306
134	0xbcbb6e2f	-0.022879688
135	0x3da85270	0.08218849
136	0xbda54610	-0.08070004
137	0xbc7dcdfa	-0.015491003
138	0xbc9da211	-0.019242318
139	0xbc32b4a9	-0.010907331
140	0x3c35a12c	0.01108579
141	0xbcfa808d	-0.030578876
142	0xbb2deac0	-0.0026537627
143	0xbd224874	-0.039619878
144	0xbd68db24	-0.056849614
145	0xbda4580b	-0.08024605
146	0xbd02177d	-0.03176068
147	0xbcf2124f	-0.029549746
148	0xbca615ad	-0.020274008
149	0xbcce5a1b	-0.02518945
150	0x3b507ac4	0.0031811455
151	0x3cb29bb3	0.021802759
152	0xbc2a06fe	-0.010377644
153	0xbca08e45	-0.01959909
154	0x3d4b3d81	0.0496192
155	0x3c99a009	0.018753069
156	0x3cc05355	0.023477236
157	0xbcfce9ce	-0.030873206
158	0xbd4678c2	-0.048455007
159	0xbb94e255	-0.0045435824
160	0xbc36c4ba	-0.011155302
161	0xbd754dd5	-0.05988868
162	0x3c0c2035	0.008552601
163	0x3bf026fa	0.007328865
164	0xbacf6ec4	-0.0015825857
165	0x3bf39e77	0.007434662
166	0xbc8609d4	-0.016362108
167	0xbc8fa517	-0.017534776
168	0xbc5efad0	-0.013609603
169	0xbd78906e	-0.060684614
170	0xbce4e9b1	-0.027943464
171	0x3d8ebadf	0.069692366
172	0xbcfab006	-0.030601513
173	0xbcf4c564	-0.02987928
174	0xbd8a5314	-0.06754127
175	0xbc412be0	-0.011790246
176	0x3b9296e2	0.004473553
177	0x3d30a5e5	0.04312696
178	0xbba850a4	-0.0051365662
179	0xbd8a00a6	-0.06738405
180	0x3b924226	0.004463452
181	0xbd8199d9	-0.06328172
182	0xbd0cab90	-0.034343302
183	0x3c256a47	0.010096139
184	0x3d1e5849	0.038658414
185	0xbcd6975a	-0.026195217
186	0x3c917fda	0.01776116
187	0xbce4abb9	-0.027913915
188	0x3cdb7b2b	0.02679213
189	0xbdc88106	-0.09790234
190	0xbd729c7d	-0.05923127
191	0xbdc9af6b	-0.098479114
192	0xbca3f77d	-0.020015473
193	0x3d11da2d	0.03560846
194	0x3d350dfd	0.044202793
195	0xbd1629fa	-0.036661126
196	0xbd93b6df	-0.07212614
197	0x3c56d6aa	0.013112703
198	0x398d09d5	0.0002690094
199	0x3cf525c5	0.029925236
200	0xbd9c7d1a	-0.07641049
201	0xbd5c76ef	-0.05382436
202	0xbd51beaa	-0.051207222
203	0x3c3528c3	0.011057082
204	0xbd258f10	-0.04041964
205	0xbcfd4d07	-0.030920519
206	0xbd4b29f7	-0.049600568
207	0x3cc62c00	0.024190903
208	0x3d2e19aa	0.042504944
209	0x3d7e16e9	0.062033568
210	0xbd2dbf49	-0.042418752
211	0x3c154146	0.009109801
212	0xbc2f3834	-0.010694552
213	0xbcf231bc	-0.02956473
214	0xbd2dde3b	-0.042448264
215	0x3d2d2ba5	0.04227795
216	0xbc1e8f22	-0.00967768
217	0xbcc04076	-0.023468237
218	0xbaa522d3	-0.0012598879
219	0x3ca24d89	0.019812362
220	0x3d2b7c77	0.041866746
221	0xbda81ae4	-0.08208254
222	0xbd55d356	-0.0522035
223	0xbd7580f7	-0.059937444
224	0x3c3ae9d1	0.011408285
225	0x3d24afa7	0.040206578
226	0xbbd2d237	-0.006433751
227	0x3d1156b3	0.035483073
228	0xbccffb6c	-0.025388442
229	0x3a353617	0.0006912662
230	0x3bc21b7e	0.0059236875
231	0x3caedd4b	0.021345755
232	0xbd00c8c4	-0.031441465
233	0xbd8b2a30	-0.06795156
234	0x3c96d8ff	0.018414019
235	0xbd4485b4	-0.04797907
236	0xbc422406	-0.011849409
237	0xbbcc3221	-0.006231562
238	0xbb3a257d	-0.0028403692
239	0x3d333da0	0.043759942
240	0x3bf1b2d1	0.007376053
241	0x3c8f0889	0.017460125
242	0xbb905726	-0.00440492
243	0x3cf13d2d	0.029448116
244	0xbcf1466b	-0.029452523
245	0x3b1a1d89	0.002351614
246	0x3c9a8fb6	0.018867355
247	0xbcea8fee	-0.028633084
248	0xbd64a2f0	-0.05581945
249	0x3c04917f	0.00809133
250	0xbc8d316a	-0.017235477
251	0x3a66c6ad	0.0008803409
252	0xbd949284	-0.07254508
253	0xbc7c9660	-0.015416712
254	0x3d4fad5a	0.05070243
255	0xbd8a85c2	-0.067637935

action_model._discrete_distribution.branches.0.weight f4 [3, 256]
0	0x3da71f63	0.081602834
1	0x3c95b878	0.018276438
2	0xbda73ad0	-0.081655145
3	0x3d070207	0.032960918
4	0xbc3d6088	-0.011558659
5	0x3be04ae8	0.006844867
6	0xbd522a68	-0.051309973
7	0x3cf0f8d5	0.029415527
8	0xbdab64e7	-0.08368855
9	0xbd54b0ad	-0.051926304
10	0xbc7d5dd5	-0.015464266
11	0xbcf2302f	-0.029563991
12	0x3d5f3928	0.054497868
13	0x3cdd82c7	0.027039899
14	0x3d53a12d	0.05166738
15	0x3d330154	0.04370244
16	0xbd3bcebf	-0.045851465
17	0x3b3d71e9	0.0028907007
18	0x3d833a1a	0.06407566
19	0x3cb81e7a	0.02247547
20	0x3d3b57d7	0.045738067
21	0xbcf24dc1	-0.029578092
22	0x3cc9b366	0.024621677
23	0xbd147fe7	-0.03625479
24	0xbcb37301	-0.021905424
25	0x3d0a8f13	0.033827852
26	0x3d7f7974	0.062371686
27	0x3c2d8201	0.010590077
28	0x3da4559f	0.080241434
29	0x3b1fedad	0.002440314
30	0xbc3fb68b	-0.0117012365
31	0xbc76bff6	-0.0150604155
32	0xbd3370cb	-0.04380874
33	0x3d0d5486	0.034504436
34	0x3d4becba	0.049786307
35	0xbd69a09a	-0.057037927
36	0x3d061d6c	0.032742903
37	0x3d65e3c3	0.056125414
38	0xbd718e79	-0.058973763
39	0x3d236e4a	0.0399001
40	0x3ce10438	0.027467832
41	0x3d2614fd	0.04054736
42	0x3d54f912	0.051995344
43	0x3d339590	0.043843806
44	0x3d13bf45	0.03607108
45	0xbc3b6f35	-0.011440088
46	0x3d2fd214	0.042924955
47	0xbd9b5cea	-0.07586081
48	0xbd47f136	-0.04881402
49	0xbd8664c2	-0.06562187
50	0x3d46450e	0.0484057
51	0x3d84d4af	0.06485879
52	0xbda1e07a	-0.07904144
53	0xbd801c72	-0.062554255
54	0xbd57e327	-0.052706864
55	0xbd93d12f	-0.07217633
56	0x3d2164a3	0.039402615
57	0xbd3ec9b9	-0.046579096
58	0xbd48c33d	-0.04901432
59	0xbd3aa27f	-0.045565125
60	0x3d735ee4	0.059416667
61	0xbd9a0919	-0.075212665
62	0xbc0b45fa	-0.00850057
63	0xbd38b682	-0.045095928
64	0xbc33b12e	-0.010967536
65	0x3cece4ea	0.028917748
66	0x3cca5efb	0.024703493
67	0xbd29d69b	-0.04146443
68	0xbddd9719	-0.10819835
69	0xbdb71299	-0.08939094
70	0xbc0d7f72	-0.008636342
71	0xbc9041c6	-0.017609488
72	0x3d2ace18	0.041700453
73	0xbdd9c17b	-0.106326066
74	0x3d1f8cdd	0.038952697
75	0x3d4cb3be	0.049976103
76	0xbc8ad619	-0.016947793
77	0x3c4b5f0b	0.012412797
78	0xbd3a8bd8	-0.04554352
79	0x3bbe252c	0.005802771
80	0x3d1a7ee4	0.03771867
81	0xbd0c85eb	-0.0343074
82	0x3d2fad94	0.042890146
83	0xbdbbbb00	-0.09166527
84	0x3d0f6b99	0.035014722
85	0xbc4fa500	-0.012673616
86	0xbc220e09	-0.009891042
87	0xbcd07938	-0.025448427
88	0xbd1b779e	-0.037955873
89	0x3da15ca3	0.07878997
90	0xbe0d46ca	-0.13796535
91	0xbd02c164	-0.031922713
92	0x3bd25ded	0.006419888
93	0xbd5e2741	-0.054236654
94	0xbda98ce6	-0.08278827
95	0xbdf2cdf8	-0.11855692
96	0x3d1c779b	0.038200002
97	0xbd07b4db	-0.03313146
98	0x3d37915a	0.044816352
99	0x3d50a610	0.05093962
100	0xbd0fee96	-0.035139643
101	0x3d72cd77	0.059277978
102	0xbd8c9e75	-0.06866161
103	0xbd292a57	-0.041300144
104	0x3db13138	0.08651966
105	0xbe00409d	-0.12524648
106	0xbd37c96f	-0.044869836
107	0xbc9e1eef	-0.01930186
108	0xbd99cb0e	-0.07509433
109	0xbca700cf	-0.020386128
110	0xbdfb6955	-0.1227595
111	0xbd4e640b	-0.050388377
112	0x3d7d3a8f	0.061823424
113	0xbd857190	-0.06515801
114	0xbd528a5e	-0.05140149
115	0xbd870796	-0.06593244
116	0xbd687bc7	-0.05675867
117	0xbc220c8b	-0.009890686
118	0xbd55dc47	-0.052212026
119	0xbd61c08f	-0.05511528
120	0xbe04288a	-0.1290609
121	0xbd78cdce	-0.060743146
122	0x3cb8f8e2	0.022579614
123	0x3b563cb6	0.0032689995
124	0xbd8fef29	-0.07028038
125	0x3d4206ee	0.04736989
126	0xbdbff248	-0.09372383
127	0xbddc8c59	-0.10768957
128	0x3d21704e	0.039413743
129	0xbc830b07	-0.01599647
130	0x3cde9dc6	0.027174842
131	0xbd6729bd	-0.05643629
132	0x3cc2e05e	0.023788627
133	0xbc029662	-0.007970424
134	0xbbedfb35	-0.007262612
135	0xbd25513a	-0.040360667
136	0xbca04594	-0.019564427
137	0xbca06add	-0.019582206
138	0xbd3b85e2	-0.045781977
139	0xba583283	-0.0008247273
140	0x3d1ea2c6	0.03872945
141	0x3992d068	0.00028002565
142	0xbdaf961c	-0.08573553
143	0xbd1f4df0	-0.038892686
144	0xbd85b576	-0.065287516
145	0xbd869fc8	-0.065734446
146	0x3d51e417	0.051242914
147	0x3d4a800f	0.049438532
148	0x3bd457e7	0.0064802053
149	0xbd22c283	-0.039736282
150	0x3d3fb549	0.046803746
151	0xbe28533b	-0.16438
152	0xbcc6269a	-0.024188329
153	0x3d68c366	0.05682697
154	0x3d2fe46c	0.04294245
155	0xbdf4301d	-0.119232394
156	0xbd8e8782	-0.0695944
157	0x3c2bec7a	0.010493392
158	0xbd2d565b	-0.042318683
159	0x3d41b78a	0.047294177
160	0xbd90c976	-0.070696756
161	0xbcb249ee	-0.021763768
162	0xbd3a08cc	-0.045418546
163	0xbdaa00c1	-0.08300925
164	0x3ceab342	0.02864993
165	0xbe25ab57	-0.16178642
166	0xbd1ca3d7	-0.038242187
167	0x3c4d897f	0.012544989
168	0x3d54e48b	0.051975768
169	0x3cf1d328	0.029519632
170	0x3cb79874	0.022411563
171	0x3d13ae34	0.036054805
172	0xbc6d2856	-0.014474949
173	0x3d8b5442	0.0680318
174	0xbd1989ab	-0.037484806
175	0xbdc27621	-0.094951876
176	0xbcfa4aa0	-0.030553162
177	0xbc81f673	-0.015864586
178	0x3ac30f99	0.0014881968
179	0xbd2096db	-0.039206367
180	0xbdedd2b4	-0.11612454
181	0xbc21f9b5	-0.009886195
182	0xbd7e26a8	-0.062048584
183	0x3c593a29	0.013258495
184	0xbdca1010	-0.09866345
185	0x3d00c759	0.031440113
186	0xbb3841ae	-0.002811532
187	0xbd901fb6	-0.070372984
188	0x3d3b6344	0.045748964
189	0xbd8e2c4f	-0.06942045
190	0x3c738a35	0.014864494
191	0xbd72a8eb	-0.059243124
192	0xbc29c43e	-0.010361729
193	0x3c091a5f	0.008368104
194	0x3b67b126	0.0035353391
195	0x3b9b89ff	0.004746675
196	0x3cba749d	0.022760684
197	0xbe1716cf	-0.14754795
198	0xbd0ae1b8	-0.03390667
199	0xbde0dcd0	-0.10979617
200	0xbc3b5053	-0.011432725
201	0xbb994a0e	-0.0046780175
202	0xbcf65cbc	-0.030073516
203	0xbcd05430	-0.025430769
204	0x3ad6bc18	0.0016382961
205	0xbd53471c	-0.051581487
206	0x3cb4d399	0.022073554
207	0xbdfda3ef	-0.123847835
208	0x3d7d14a0	0.061787248
209	0x3d838816	0.06422441
210	0xbcc0dbc9	-0.023542302
211	0x3cdbb383	0.026818996
212	0x3d013fcd	0.031554986
213	0xbd8f2c0f	-0.069908254
214	0xbd014c1f	-0.031566735
215	0x3b40822d	0.0029374466
216	0xbdb43f02	-0.0880108
217	0xbd4dc76a	-0.050239004
218	0xbd136f31	-0.035994712
219	0x3d420729	0.04737011
220	0x3cc535a9	0.024073439
221	0xbd0876f1	-0.033316556
222	0x3c18039e	0.009278206
223	0xbb0950cd	-0.0020952702
224	0xbbbd61c8	-0.0057794787
225	0x3d8c9fb0	0.068663955
226	0xbd17b505	-0.037037868
227	0xbb891cf8	-0.0041843615
228	0x3cf99215	0.030465165
229	0x3d51c163	0.05120982
230	0xbd38de43	-0.04513384
231	0xbde9bcca	-0.11412962
232	0x3c628b54	0.013827164
233	0xbcce770b	-0.025203248
234	0xbd92c0b4	-0.071656615
235	0x3b8b231f	0.00424613
236	0xbae93922	-0.0017793516
237	0xbad66ac2	-0.0016358721
238	0xbd958614	-0.07300964
239	0x3d04d62a	0.032430805
240	0x3cac2d76	0.021017771
241	0xbda62338	-0.08112186
242	0xbd9af413	-0.07566085
243	0x3d05d177	0.032670464
244	0x3cc898a7	0.024486853
245	0x3d869687	0.065716796
246	0xbac3d055	-0.0014939407
247	0xbbd3f681	-0.0064685945
248	0x3bdd6325	0.0067562037
249	0xbd968ddb	-0.073512755
250	0xbc83af3a	-0.016074765
251	0x3d375ee2	0.04476822
252	0xbc999826	-0.018749308
253	0xbcb29dce	-0.021803763
254	0x3c5d239d	0.01349726
255	0xbce35a74	-0.027753092

action_model._discrete_distribution.branches.0.bias f4 [3]
0	0x3d201586	0.039083026
1	0x3c9a61f2	0.018845532
2	0xbde197ad	-0.11015258

action_model._discrete_distribution.branches.1.weight f4 [3, 256]
0	0x3ba8a4f0	0.005146615
1	0xbc0863d4	-0.008324582
2	0x3d20a63e	0.03922104
3	0xbcb0c8d6	-0.021580141
4	0x3d0a0429	0.033695374
5	0x3d5f321f	0.05449116
6	0x3d80f8ba	0.06297441
7	0xbbb40ccc	-0.0054946896
8	0x3cb0906f	0.021553246
9	0x3c9e60e7	0.019333316
10	0x39a1ed00	0.00030884892
11	0x3c6b121e	0.014347581
12	0x3d657033	0.056015205
13	0x3cebaf4d	0.028770113
14	0xbb830971	-0.0039989282
15	0x3cb5685d	0.02214449
16	0x3b83cd88	0.004022304
17	0x3b17223e	0.0023061181
18	0x3c32b791	0.010908023
19	0x3bdb4a0c	0.0066921767
20	0xbca6ac10	-0.020345718
21	0x3cca4442	0.024690751
22	0xbc5397fa	-0.012914652
23	0x3cbe607a	0.023239363
24	0xba60ffc2	-0.0008583033
25	0x3c96e761	0.018420877
26	0x3c383414	0.011242885
27	0x3c2db8f0	0.010603175
28	0xbcf2375a	-0.02956741
29	0x3d01ba1f	0.03167164
30	0x3d3a6e12	0.045515127
31	0x3d33c7ff	0.043891903
32	0x3c2048da	0.009782994
33	0xbd32caeb	-0.04365055
34	0x3c3bfd88	0.011474021
35	0xbd16faef	-0.036860403
36	0xbcfce012	-0.030868564
37	0x3bc2c418	0.0059437864
38	0x3cdc51bb	0.02689444
39	0x3ce5701b	0.028007558
40	0x3cc195d6	0.023631018
41	0xbd82377a	-0.063582376
42	0x3ca657e9	0.02030559
43	0xbcce9193	-0.0252159
44	0x3c9495c1	0.018137814
45	0x3d3c1dec	0.045926973
46	0x3c4401c8	0.011963315
47	0x3d03dfc8	0.032195836
48	0x3c51c39c	0.012802985
49	0xbcc38d33	-0.02387104
50	0x3c6445a7	0.013932622
51	0xbbcfe0fd	-0.0063439594
52	0x3c3a5233	0.011372137
53	0x3a4df39e	0.0007856431
54	0xbc964ca5	-0.018347094
55	0x3c45b256	0.012066444
56	0xbb8e748f	-0.004347391
57	0x3c463dbb	0.012099679
58	0xbbe4556f	-0.0069681923
59	0xbd9649ca	-0.07338293
60	0x3c38db52	0.011282759
61	0xbd236373	-0.039889764
62	0x3c943570	0.018091887
63	0xbca0e21c	-0.019639067
64	0x3d5ddaca	0.05416373
65	0x3d1ccb8a	0.038280047
66	0xbc06a929	-0.008219042
67	0x3ca6047e	0.020265814
68	0x3aa6e341	0.0012732522
69	0x3caaea94	0.020863809
70	0x3d804c33	0.06264534
71	0x3dc79845	0.0974584
72	0x3ca9375f	0.020656286
73	0x3bdc5be2	0.0067248205
74	0x3c2b3786	0.01045025
75	0x3c7a24a4	0.015267525
76	0x3cc2afb2	0.023765419
77	0xbc819a49	-0.01582064
78	0x3c11982b	0.008886377
79	0xbdc95791	-0.09831155
80	0x3c0155d6	0.007894
81	0x3d1f8977	0.038949456
82	0x3c18bfa8	0.009323038
83	0x3c995e79	0.018721806
84	0x3a93fc0a	0.0011290323
85	0x3cd73575	0.026270607
86	0x3bbd0edc	0.0057695936
87	0x3d412139	0.047150824
88	0x3c7d362a	0.015454808
89	0xba7ffb1d	-0.0009764897
90	0xbd01b403	-0.031665813
91	0xbc162228	-0.009163417
92	0xbd05e498	-0.032688707
93	0xbc408c07	-0.011752135
94	0x3d068408	0.03284076
95	0xbca3baa4	-0.019986458
96	0xba24df27	-0.0006289356
97	0x3c767212	0.015041845
98	0x3c9bb987	0.019009365
99	0x3cd29f5c	0.025710754
100	0x3cb74473	0.022371506
101	0xb6dddf61	-6.612318e-06
102	0x3c93ca78	0.01804088
103	0xbbcd6e05	-0.006269219
104	0x3c84adbb	0.016196122
105	0xbbda7307	-0.0066665444
106	0x3d348efe	0.04408168
107	0x3b5fe70e	0.003416482
108	0xbdd22ddc	-0.10262653
109	0x3d12199b	0.03566895
110	0xbd4619dd	-0.04836451
111	0x3c42828d	0.011871946
112	0xbcd511ae	-0.026009407
113	0xbca5aab9	-0.020223008
114	0x3dc7c35a	0.09754057
115	0x3cddd001	0.027076723
116	0x3c9ee187	0.01939465
117	0xbcb2def5	-0.02183483
118	0x3d34b9d0	0.044122517
119	0x3ca8146d	0.020517552
120	0x3d08d532	0.033406444
121	0x3c4efe5b	0.012633885
122	0xbc2c39e4	-0.010511849
123	0x3de66bfa	0.11251064
124	0x3cbdce19	0.023169564
125	0xbbeb50ca	-0.0071812617
126	0x3b5c855e	0.003364883
127	0x3d13b5dc	0.036062106
128	0x3d09b08d	0.033615638
129	0x3d16cf46	0.036818765
130	0xbacb7d6d	-0.0015525051
131	0x3d0746ab	0.03302638
132	0xbbb0043c	-0.0053715985
133	0xbc0d870f	-0.0086381575
134	0x3cb84cda	0.022497583
135	0x3d6d8ad4	0.057993725
136	0xbb64f089	-0.003493341
137	0xbbf9b454	-0.0076203737
138	0x3c8b075c	0.016971283
139	0x3c81f449	0.015863555
140	0x3d54b19a	0.051927187
141	0xbbfab9c1	-0.007651538
142	0xbac81507	-0.0015265056
143	0xbb9b7f6d	-0.004745415
144	0xbc37baa3	-0.011213931
145	0xbbc35496	-0.005961011
146	0x3c99519a	0.018715668
147	0x3ca09d8a	0.01960637
148	0x3d6bbda1	0.05755389
149	0x3d50d1b8	0.050981253
150	0x3aa04435	0.0012227359
151	0x3c3f80b5	0.011688401
152	0x3caee837	0.021350963
153	0x3cd934c6	0.026514422
154	0x3ce9dd04	0.028547771
155	0xbc0b5cea	-0.008506039
156	0xbbdef125	-0.006803649
157	0x3c7dcf0a	0.0154912565
158	0x3c409e5e	0.011756508
159	0x3ce20bf9	0.0275936
160	0x3cf31df7	0.029677374
161	0x3d2149c0	0.039376974
162	0xbcb44eac	-0.02201017
163	0x3c08d6bb	0.008351977
164	0xbdac3289	-0.08408076
165	0xbbebac14	-0.007192144
166	0xbc58c328	-0.013230123
167	0xbace3837	-0.0015733306
168	0x3c5e8318	0.01358106
169	0x3939589a	0.00017675982
170	0xbab542e3	-0.0013829138
171	0x3ce9b7f6	0.028530102
172	0x3c82a499	0.015947627
173	0x3b36de0b	0.0027903344
174	0x3c7a811a	0.015289569
175	0xbcfe9be9	-0.031080203
176	0xbab24a9c	-0.0013602558
177	0x3bc02ce6	0.0058647273
178	0x3c719562	0.014745088
179	0x3cccd889	0.025005596
180	0xbda0dd77	-0.07854741
181	0x3c3b88d4	0.011446197
182	0x3d5b22a0	0.053499818
183	0x3c090d5d	0.008365002
184	0x3ce01de3	0.027358001
185	0x3c290d82	0.010318162
186	0x3cb492f4	0.022042729
187	0xbc314d60	-0.01082167
188	0x3c6f3b9a	0.014601612
189	0x3ca7fde2	0.020506803
190	0xbbd6a349	-0.006550227
191	0x3c8c7518	0.017145678
192	0xbc822cd1	-0.01589051
193	0x3c314eed	0.01082204
194	0x3b1ffcc3	0.0024412132
195	0x3d4a62c9	0.049410615
196	0x379f048d	1.8956396e-05
197	0xbd869a3d	-0.06572387
198	0x3ce94a3f	0.028477786
199	0x3c3356d7	0.010945997
200	0x3d336bce	0.043803982
201	0x3d88ac97	0.06673544
202	0x3c946080	0.018112421
203	0x3b6462ac	0.0034848852
204	0x3d80b40d	0.06284342
205	0xb9fa6d9a	-0.00047765375
206	0x3c87177e	0.016490694
207	0x3dd231e2	0.10263421
208	0x3bacc33a	0.0052722963
209	0xbc08086c	-0.008302789
210	0x3c240f7a	0.0100134555
211	0xbb4eb47b	-0.003154068
212	0x3c63e635	0.013909866
213	0x3d895594	0.06705776
214	0x3d2d0d0d	0.042248774
215	0xbca9e6a7	-0.020739866
216	0xbc2a6246	-0.010399407
217	0xbb059110	-0.0020380653
218	0x3d4be3f1	0.04977793
219	0x3cd2c240	0.025727391
220	0x3ca24446	0.019807946
221	0x3ce1c713	0.027560746
222	0x3dc03dee	0.09386812
223	0x3ce24b57	0.027623815
224	0x3ccb7243	0.024834758
225	0xbb466bd4	-0.0030276673
226	0x3bb679c9	0.005568717
227	0xbc12a467	-0.008950329
228	0x3c83f31a	0.01610713
229	0x3c1b56e1	0.009481163
230	0xba9f7fb5	-0.0012168797
231	0xbbbf0b68	-0.005830217
232	0x3c6fd578	0.014638297
233	0x3d07331e	0.033007734
234	0x3cf772a1	0.030206027
235	0x3c0a8533	0.008454609
236	0xbc3e0dc3	-0.011599961
237	0xbc6f5974	-0.01460873
238	0x3d3cb365	0.04606952
239	0x3bc4b408	0.0060029067
240	0x3b658c18	0.003502613
241	0x3d22cca1	0.03974593
242	0x3bd920cb	0.0066262237
243	0xbc43e3a4	-0.011956129
244	0xbd586c3e	-0.052837603
245	0xbd186e7c	-0.03721474
246	0x3c87848f	0.016542701
247	0xbdc07eb5	-0.093991674
248	0x3ceb3b98	0.02871494
249	0x3c401a65	0.011725043
250	0xbc8a0ac8	-0.016850844
251	0xbd07730c	-0.0330687
252	0x3ce9ca63	0.028538888
253	0x3cb69494	0.022287644
254	0xbb0bb4e2	-0.0021317531
255	0x3bb1a190	0.005420871

action_model._discrete_distribution.branches.1.bias f4 [3]
0	0xbd1fb725	-0.03899302
1	0x3d565ff1	0.05233759
2	0xbc80d964	-0.01572866

action_model._discrete_distribution.branches.2.weight f4 [2, 256]
0	0x3cc3541d	0.02384382
1	0x3cd08cc5	0.02545775
2	0x3ce1d62a	0.027567942
3	0x3cf59042	0.029976014
4	0xbda9de5b	-0.08294364
5	0x3d4a360f	0.04936796
6	0xbd310bcb	-0.043224137
7	0xbbe5acdd	-0.0070091323
8	0xbd019724	-0.03163828
9	0x3d298fcf	0.041396912
10	0x3c969570	0.018381804
11	0x3d007e82	0.031370647
12	0x3c17956f	0.009251936
13	0xbb8a0b7e	-0.0042127958
14	0x3d585b16	0.05282124
15	0x3d4a71aa	0.049424805
16	0x3d05f3c2	0.03270317
17	0x3d5f4c17	0.054515924
18	0x3cc9c511	0.024630101
19	0x3c343422	0.010998758
20	0x3cdacc36	0.026708703
21	0xbd0bbb98	-0.03411445
22	0xbd65d893	-0.056114744
23	0xbd8b1bbe	-0.06792401
24	0xbd042ff2	-0.032272287
25	0xbc767407	-0.0150423115
26	0x3ccf815c	0.025330238
27	0xbca1f91b	-0.019772103
28	0xbc83dcce	-0.016096499
29	0xbd88a549	-0.06672151
30	0xbdd5f2da	-0.10446711
31	0x3d0f1209	0.03492931
32	0xbd798b0c	-0.06092362
33	0xbd96f537	-0.0737099
34	0x3c446bac	0.011988562
35	0xbd04ea69	-0.032450113
36	0xbda4fcb1	-0.080560096
37	0x3c8a177d	0.016856903
38	0x3d4d8df9	0.050184224
39	0x3be845bf	0.0070883925
40	0x3d7b6102	0.06137181
41	0xbd2853ee	-0.041095667
42	0x3ca3ea07	0.020009054
43	0x3d06e834	0.03293629
44	0xbd353b6a	-0.044246115
45	0xbc7f746f	-0.015591725
46	0x3d53d25d	0.05171429
47	0x3d347b43	0.044062864
48	0x3d06f19f	0.03294527
49	0xbd23c10e	-0.039979033
50	0x3cd35a1a	0.0257998
51	0xbc00fe04	-0.007873062
52	0x3df4334a	0.11923845
53	0xbc2bfaae	-0.010496778
54	0x3c9ae0ae	0.018905964
55	0xbca6b86e	-0.020351615
56	0x3cdb7746	0.026790272
57	0x3bf95951	0.0076095243
58	0x3d6b2561	0.057408694
59	0xbc4298c5	-0.011877243
60	0x3d1ad1b1	0.037797634
61	0xbca228ec	-0.019794904
62	0xbcf68e42	-0.03009713
63	0xbd4731fa	-0.048631646
64	0xbc815de4	-0.01579184
65	0xbcf6aaac	-0.03011068
66	0x3cb35f3e	0.021896001
67	0x3c65aede	0.014018742
68	0xbdb0cb6e	-0.08632551
69	0xbd12ba04	-0.03582193
70	0xbd0b6161	-0.034028415
71	0xbc8d3527	-0.01723726
72	0xbd3acf43	-0.045607816
73	0x3d94daf4	0.072683245
74	0x3cb27e16	0.021788638
75	0x3c5c943a	0.013463074
76	0x3c3dbf95	0.011581321
77	0xbc00721a	-0.007839704
78	0x3d8e2b89	0.069418974
79	0xbc6011f7	-0.013676158
80	0x3d442271	0.04788441
81	0x3b5e7cdb	0.0033948931
82	0x3ca5aba0	0.020223439
83	0xbcdc4107	-0.026886476
84	0x3c42d2a5	0.011891042
85	0xba81dc9f	-0.0009907669
86	0xbc3842f1	-0.011246429
87	0x3d64ce25	0.055860657
88	0x3d420306	0.047366165
89	0x3cc056d8	0.02347891
90	0xbb8d61e3	-0.0043146475
91	0xbd29697c	-0.041360363
92	0xbd976bdd	-0.0739362
93	0xbdac9940	-0.084276676
94	0xbd084bbc	-0.03327535
95	0xbd6953c5	-0.056964654
96	0x3cf32b45	0.029683718
97	0xbdafa438	-0.08576244
98	0x3d44eb1b	0.048075777
99	0x3ca126ed	0.019671882
100	0x3ca5c3cb	0.020234963
101	0x3c11cd80	0.008899093
102	0xbd08bea6	-0.03338494
103	0xbc68742d	-0.014187855
104	0x3c6cb779	0.01444804
105	0x3d08c2a7	0.03338876
106	0xbcb3c4cd	-0.021944428
107	0x3c8ebb0a	0.017423172
108	0xbd450e27	-0.0481092
109	0xbdd8b92d	-0.105821945
110	0xbd0aca8a	-0.033884563
111	0xbca710bb	-0.02039372
112	0xbbe34e04	-0.0069367904
113	0x3cb65a2d	0.022259796
114	0xbc4cf04c	-0.012508463
115	0xbd5cbe74	-0.053892568
116	0x3ca5b2ec	0.020226918
117	0x3d5b68e2	0.05356682
118	0x3d5b90a0	0.053604722
119	0xbda9724e	-0.08273755
120	0x3c89dd17	0.016829057
121	0xbd6dd33b	-0.058062773
122	0x3c833ab6	0.016019206
123	0xbc32c1e8	-0.010910489
124	0xbd644c59	-0.055736873
125	0xbb3a1f47	-0.002839999
126	0x3d2fdd8d	0.042935897
127	0xbd4d7216	-0.05015763
128	0x3d3816bd	0.04494356
129	0xbda90120	-0.08252168
130	0x3cd4cff7	0.025978072
131	0xbd857a76	-0.06517498
132	0xbd622384	-0.05520965
133	0xbcb6756d	-0.02227279
134	0x3ccf09dd	0.025273258
135	0x3df80bc5	0.1211162
136	0xbd67c0c0	-0.056580305
137	0xbd05e6d5	-0.03269084
138	0x3c19f0fa	0.009395832
139	0x3c64bf5d	0.01396164
140	0x3cc920ad	0.024551714
141	0x3bfbbf40	0.007682711
142	0x3c7d9dcb	0.015479515
143	0xbd97b54a	-0.07407625
144	0xbcee4c3b	-0.029089084
145	0xbd51d3c1	-0.051227335
146	0x3b85f12c	0.004087588
147	0xbb8f0574	-0.0043646637
148	0xbd0a574a	-0.03377465
149	0x3a9b9ed2	0.0011872894
150	0x3c372133	0.011177349
151	0x3dee2281	0.11627675
152	0xbc3e1bf6	-0.011603346
153	0xbacd0e8e	-0.0015644596
154	0x3d91a8f3	0.07112303
155	0x3d2dd7ae	0.042442016
156	0x3dd14e56	0.102200195
157	0x3be5e91d	0.0070163147
158	0xbc7d098d	-0.015444172
159	0xbc521f47	-0.01282484
160	0xbc354589	-0.011063942
161	0xbd4eb1fe	-0.050462715
162	0xbb2cc4dd	-0.0026362457
163	0x3d7bc994	0.061471537
164	0xbc41c1f3	-0.011826026
165	0x3c8e22f8	0.017350659
166	0x3c8d0c2c	0.017217718
167	0x3c10c42c	0.0088358335
168	0x3cb9e21b	0.022690823
169	0xbd8d9816	-0.06913774
170	0x3b063e73	0.0020484
171	0x3d86de67	0.06585389
172	0xbd09f670	-0.033682287
173	0xbba2ca79	-0.0049679843
174	0xbd712ea9	-0.05888239
175	0xbd01ec83	-0.031719696
176	0x3d6c0845	0.057625074
177	0x3c90a50b	0.017656824
178	0xbbae8c48	-0.0053267814
179	0xbd73b2d0	-0.0594967
180	0xbd52ce46	-0.05146625
181	0xbaa1902f	-0.0012326295
182	0xbd3fadb8	-0.04679653
183	0x3ca08dd5	0.01959888
184	0x3e370b87	0.17875491
185	0xba1cb022	-0.00059771736
186	0x3d81014e	0.06299077
187	0x3b7b2a8e	0.0038324925
188	0x3d1613c8	0.03663996
189	0xbd8a2cbd	-0.067468144
190	0xbd09229e	-0.03348028
191	0xbda23a1a	-0.07921238
192	0xbd14c605	-0.03632166
193	0x3d244611	0.040105883
194	0x3db571e6	0.08859615
195	0xbd2d8a27	-0.04236808
196	0xbd80457f	-0.06263255
197	0x3ba8d1d3	0.005151966
198	0x3bc90565	0.0061346763
199	0x3dfc7eaa	0.12328847
200	0xbdb2b8b9	-0.08726639
201	0xbd40b9e7	-0.04705229
202	0xbd6cf61c	-0.057851896
203	0x3bef725c	0.007307334
204	0xbda5501a	-0.08071919
205	0xbd3a6ee0	-0.045515895
206	0xbd9ba765	-0.07600287
207	0x3df4af53	0.11947503
208	0x3d3fef42	0.046859033
209	0x3d01e157	0.03170904
210	0xbd1a7fc4	-0.037719503
211	0x3c80a117	0.015701814
212	0x3caa7615	0.020808259
213	0xbcc08e3a	-0.023505319
214	0xbb77273c	-0.0037712594
215	0x3d6bc8a0	0.057564378
216	0x3c6bc0cc	0.014389228
217	0x3ca87178	0.020561919
218	0xbd15f012	-0.036605902
219	0x3cb5ff10	0.02221635
220	0x3cd60e70	0.026129931
221	0xbda96c4a	-0.082726076
222	0x3c11d5b5	0.008901049
223	0xbcd2de0c	-0.025740646
224	0xbbe87eec	-0.0070952084
225	0x3cb45312	0.022012267
226	0x3c202f55	0.00977691
227	0x3d4a24ab	0.049351376
228	0xbc22030d	-0.009888423
229	0x3becd6ca	0.0072277533
230	0x3cbab524	0.022791453
231	0x3de10893	0.109879635
232	0xbcd37b84	-0.025815733
233	0xbdb27fc4	-0.087157756
234	0x3e136c43	0.14396767
235	0xbd6cc812	-0.05780799
236	0xbc018b33	-0.007906723
237	0xbbfb077c	-0.0076608043
238	0xbc286757	-0.010278544
239	0x3d54590e	0.05184274
240	0x3d7245df	0.059148666
241	0x3dd321e9	0.10309202
242	0xbc54c450	-0.012986258
243	0x3bcfc670	0.0063407943
244	0xbca2495a	-0.019810367
245	0xbb8a65fd	-0.0042235837
246	0xbc1f48ff	-0.0097219935
247	0xbcb43815	-0.021999398
248	0xbd83d481	-0.06437016
249	0x3c0d81b6	0.0086368825
250	0xbcde6cd2	-0.027151499
251	0x3d07ce90	0.033155978
252	0xbda474d0	-0.08030093
253	0xbc202c5a	-0.009776199
254	0x3cc120b4	0.023575164
255	0xbd534d9f	-0.051587697

action_model._discrete_distribution.branches.2.bias f4 [2]
0	0x3d9b6cab	0.07589086
1	0xbd9b6ca7	-0.07589083
