results/ButtonPress2/ButtonPress/ButtonPress-999990.onnx (onnx, 496098 bytes, 13 tensors)

discrete_act_size_vector f4 [1, 4]
00000000: 0000 4040 0000 4040 0000 0040 0000 0040
3.0 3.0 2.0 2.0

network_body._body_endoder.seq_layers.0.weight f4 [256, 205]
00000000: 8518 0a3c 2596 4d3e 7b99 6dbd 380a d5bc
00000010: 7935 b5bd 9e2e 273d 2e1b 633d 975d fc3d
00000020: bd25 f6bd ae5f 46be ca21 933d 3b34 113e
00000030: e250 9d3d 3ce1 35be 78ad 1bbe a8fa b6bc
00000040: 185b 163e 97c1 713e 7f86 4dbe 4378 6abd
00000050: 6d9f 8a3a 4ea7 093e 9145 bcbc 404e ebb9
00000060: e3e8 34be 943e a93d ec9a 253d 3171 e63d
00000070: e0db 52be c581 efbc 8b4a 08be 13c4 a93d
00000080: ebcf 8e3c e18e 4bbe 017c d7bd e9d2 9abc
00000090: 01f0 bf3d 734e 483d 9693 103c f8b1 76bc
000000a0: aacb bdbc a089 2f3e 72fe 4e3d edd9 72be
000000b0: 02dc 54bd 3f91 09be b538 093e a4b7 2d3e
000000c0: bd14 3abd 2165 b7bd 48d8 c63d b352 213e
000000d0: 5941 0e3e efa1 08bd 9ab9 20be c8c8 64bc
000000e0: dac9 f03d e651 013e c9e4 b03c 77c9 dabd
000000f0: 1298 df3b a721 eb3d a90d 713d d2f8 de3c
00000100: 2231 32be 1ebe c23d 1dc4 88bd 1fc8 c03b
00000110: 11d4 5ebb 09f8 8cbc 9ade 2c3c 1192 293e
00000120: 591d 783d 0335 4abd 730b e33a 033a e33d
00000130: 84e6 c03b 7b8d 3a3e 710b 51bd 60e2 20be
00000140: be81 c1bb 6f86 313e b960 48bd f673 2e3e
00000150: 7555 263d 1814 d83c 2eae 063e 618a 0dbd
00000160: ceb8 a3bc 4688 34be 18a8 55bc f741 f13d
00000170: b8b3 1cbd b848 963d 71fe aa3c 0da9 6f3d
00000180: b5a6 1c3e 96fb 283e 8d4b b3bc db24 f4bd
00000190: 9b7d e53d 49a6 893d 9b52 2d3e 1cc5 9cbc
000001a0: 2751 2a3c b5c1 993d ba75 c73d d20b 533e
000001b0: 58b2 12be 3513 a5bd 9845 bc3d cf6f 0e3a
000001c0: a623 0a3e 0cb3 b43c c816 91bd 593a b63d
000001d0: a773 653e 16fd 903d 2910 5d3d 9d84 efbc
000001e0: 3b93 17bd 8b02 95bd 8a0a 403e 4259 71bd
000001f0: 15ec 20bd 35f3 c33b 5317 273e 3f4b c9bd
00000200: a075 63be 0b6f 193d 3cfb a3bd 2843 123e
00000210: e899 e03d 121c ad3b e3e9 1abd bcef c03c
00000220: 4fae 7f3e a5e2 06be 6fca b1bb a59a 663b
00000230: 30e0 a4bd f20b ad3c a98c ad3d 3d5e 523d
00000240: f79e bd3d 6a55 af3d 7c51 9d3c cd24 be3d
00000250: 94e4 dd3d d4cb c7bb ae95 793d 98ad 753d
00000260: 38e7 153b 5964 67b9 0253 cf3d 2a06 743d
00000270: 0e9b 16bc 889a 833d 22d8 3f3d 3e89 033d
00000280: 08e4 81bc d60d e73b bed3 383e 2c73 db3c
00000290: 7b25 42bd 53dc 633d 6a73 0e3d 6a87 69bd
000002a0: 89fa 163e 41e4 e13d 93c4 f23c c1a5 813d
000002b0: 45c6 0ebc 569d ef3d 83a9 f03c e054 87bd
000002c0: bc22 1e3e 6ee6 adbd 43e9 06bc 35e9 183e
000002d0: 6bf1 303d 7a7f 603d badc 343e e4ff 713d
000002e0: d217 de3d 4254 2f3d 154d 213e 74f1 413c
000002f0: 3d1c 4dbc 0e9f 9bbd 5081 1f3c 947b 7dbd
00000300: 2068 013e 955b 59bc 902b da3d 0cfb 2bbd
00000310: 8b72 1b3e 66ea d03c 0ffc d9bd 6aa8 f93d
00000320: 1168 423d 1ff2 9c3d 71ea a03c 5a7d 0fbd
00000330: 2983 c93c 289a ce3c d21a 96bc e081 5b3b
00000340: 5a9f 043e 3520 1c3c 5c38 1abc e215 0ebe
00000350: 28de 1b3e a9b7 b23a df70 babd 2fdd 80bd
00000360: cd1a 3dbe 6d0b b23d d76e 073e 3dd1 8abd
00000370: 825c 6cbd 4400 7a3d 7b3f 373e bb44 b13c
00000380: ee96 7e3d cc00 a6bc 2df6 01be d29b 91bc
00000390: c4b5 673d d995 5f3d 689c cfbd 7507 d7bd
000003a0: d031 293a 56ea c83d ec06 133e ed1d 67bc
000003b0: 3092 04bc 460c cfbd 7ab0 f43b 6678 1e3c
000003c0: 9448 48bd 4bba b1bd 503d 0fbd 1f01 39bb
000003d0: 35d9 93bc a60a e2bc 3553 c1bd d350 a4be
000003e0: 8c23 fd3d 98de adbc 1fe0 e23d 40cd 25be
000003f0: ec98 f2bd f800 83bb 9516 2b3e 004d 55bc
0.0084286975 0.20076807 -0.0580077 -0.02600585 -0.0884809 0.040815942 0.055445842 0.12322538
-0.12018917 -0.19372436 0.07184179 0.1418008 0.07681443 -0.17761701 -0.15202892 -0.02233632
0.14683187 0.23609005 -0.20070837 -0.057243597 0.0010576077 0.13442728 -0.02298239 -0.00044880994
-0.17666964 0.08263889 0.04043095 0.11252058 -0.20591688 -0.029236684 -0.13309686 0.08289351
0.017433127 -0.19878723 -0.10521699 -0.018899398 0.09371949 0.04890294 0.00882425 -0.0150570795
-0.023168404 0.17142344 0.050535627 -0.23715945 -0.05196763 -0.13434313 0.13400538 0.16964585
-0.045429934 -0.08954836 0.09709221 0.15754203 0.13892116 -0.033357557 -0.15695801 -0.013963886
0.1175725 0.12628898 0.021593468 -0.106829576 0.006823548 0.11481028 0.058850918 0.027218256
-0.17401555 0.09508918 -0.06678031 0.0058832313 -0.0034000913 -0.017208116 0.010551119 0.16559626
0.060574863 -0.049366962 0.0017322138 0.11095049 0.0058868546 0.18218033 -0.051036302 -0.15711355
-0.005905359 0.17336439 -0.048920367 0.17036423 0.040608842 0.026376769 0.13152382 -0.034555797
-0.019985583 -0.17630109 -0.013040565 0.1178016 -0.03825733 0.07338089 0.02087328 0.05851083
0.15297969 0.16502222 -0.021886611 -0.11921092 0.11205598 0.067211695 0.16926043 -0.019136958
0.010395325 0.0750765 0.097392514 0.20609978 -0.14325845 -0.08060304 0.091929615 0.0005433531
0.13490161 0.022058032 -0.07084423 0.08897848 0.22407399 0.07079522 0.05397049 -0.02923804
-0.037005644 -0.07275876 0.1875402 -0.058923014 -0.039287645 0.0059799203 0.16317491 -0.09828805
-0.22212839 0.037459414 -0.080069035 0.1428343 0.10966855 0.0052828873 -0.037820708 0.023551814
0.24968837 -0.13172396 -0.0054257433 0.003518739 -0.08050573 0.02112386 0.084740944 0.051359404
0.09258836 0.08561213 0.019203894 0.09284363 0.108346134 -0.0060972963 0.06093376 0.059980005
0.0022873413 -0.00022067259 0.10123254 0.05957619 -0.009192241 0.06425959 0.04683698 0.032113306
-0.015855804 0.00705121 0.18049523 0.026788317 -0.047399025 0.05563004 0.034778036 -0.057013907
0.14744009 0.11029864 0.02963475 0.06330443 -0.008714263 0.11699931 0.029377704 -0.066079855
0.15442938 -0.084912166 -0.008234325 0.14932711 0.043198984 0.05480907 0.17662326 0.059081927
0.10844387 0.042804964 0.1575206 0.011837352 -0.01251894 -0.07598697 0.00973542 -0.06188543
0.12637377 -0.013266464 0.1065284 -0.041987464 0.15180413 0.025502395 -0.106437795 0.121903256
0.047462527 0.076633684 0.01964304 -0.035031654 0.024598675 0.025219992 -0.018323336 0.003349416
0.12951413 0.009529163 -0.009412851 -0.13875535 0.15221465 0.0013635057 -0.0910356 -0.062921874
-0.18467255 0.086935855 0.13225876 -0.0677819 -0.05770541 0.06103541 0.1789531 0.021639219
0.062155657 -0.020264052 -0.12691565 -0.017774496 0.05656983 0.054586265 -0.10137254 -0.10499469
0.0006454261 0.09810321 0.14358109 -0.014106256 -0.008091494 -0.10109763 0.0074673267 0.00967226
-0.04889734 -0.08678111 -0.03497058 -0.0028229428 -0.018047908 -0.027592968 -0.094396986 -0.32092914
0.12360296 -0.021224305 0.11077904 -0.16191578 -0.11845574 -0.003997918 0.16707833 -0.0130188465

network_body._body_endoder.seq_layers.0.bias f4 [256]
00000000: 23ba 853d ac87 b13c 365e c1bc d8ad fd3b
00000010: 9d14 953c d0a5 33bc 5a7f ad3c 4aaa ef3b
00000020: 296d 4fbc 3809 e63b c406 043c 409c 123c
00000030: f0e0 3d3c 7944 a83b cf1f eebb cf74 e53b
00000040: 7022 c6bc a08d 67bc 2f8f 30bc e759 d13c
00000050: d68f f43b f234 7ebc d286 7eba 2185 aa3a
00000060: dea4 0fbc e164 95bc 3844 c4bb 3276 abbc
00000070: 14f4 0c3c 1dc0 4a3c c1e7 8a3d 1a2d 56bb
00000080: 60e9 9abb c8e9 38bc bc42 863c f1c3 46bb
00000090: d4f7 993a eca9 d93a 0617 04bc f4fe 1c3c
000000a0: abab 933c ae47 8abb e0a3 5cb9 ba7c 97bc
000000b0: b3c1 4dbc e874 21bb 71cb 9abc ccca 10bb
000000c0: 5acc b13c 53f6 24bb 74e2 e63c 0c82 f9bb
000000d0: 7fb8 273c 4eb0 923b 7073 ad3c 1c4c 6bb9
000000e0: 1554 10bc 6d85 babb ad0e 4abc 5d10 11bb
000000f0: 4024 58bc 025d 763b 75af 6ebc ce38 c33b
00000100: c08d 3ebc dcf7 c2b9 08e1 47bc 76aa 12bc
00000110: c802 643c ddcd 8b3b 5e33 423c c532 dc3b
00000120: a013 b23c 7ab0 a2bb 3a64 463b 0695 923a
00000130: c021 db3b 8f16 3bbc aa24 133c df04 743b
00000140: 65c8 77bc fe5d bd3b ca81 84bb 4487 f83b
00000150: 064b 79bc 567c 82bc 0f1a 263a 0a41 d4bb
00000160: b4c8 fd3b 44a4 91bb ea51 97bc 5000 163c
00000170: 7bea 2a3c 8558 ac3b b1f7 f83b c4d6 823c
00000180: 706a 0fbb 0360 3ebc 30a9 0cbc 39d0 1e3b
00000190: a220 79bc 7c99 a9ba 7812 30bc c365 273c
000001a0: b889 bc3b 59f8 9e3c 52bd d33b 21ea 2cbb
000001b0: 7cb0 c1bc 70b0 da3c 0964 bcba 0e2d edbb
000001c0: 8c74 3ebc a922 0d3b 7185 863a c401 cbba
000001d0: 56e1 a7ba 4172 4dbc d0aa 85ba 2c44 11bc
000001e0: 1105 23bc 46ca 55bc 9a2a 61bc 65eb 0ebb
000001f0: 27a4 65bc dcc9 63bc beb4 5ebc fe6b ed3c
00000200: 93ba b4bb f865 15bb 5646 ee3b 3600 c0ba
00000210: 3200 133d 634e 2f3c ce7d 08b9 a652 13bc
00000220: 1a08 a7b9 1edb b1ba a472 02bb 54e4 47bc
00000230: 28c3 ad3b 175e 373c cfbb 34bc bd23 98bc
00000240: acd7 5f3c ea90 563c 6526 84bb 0c8d 0cbc
00000250: 7936 5239 b665 46bc fe9f f43a 29a2 9e3b
00000260: 72df b8bc e666 bdb7 d261 b7bb c822 403a
00000270: de38 023b b167 0abc 8f08 ddbb 197c 4a3c
00000280: 8835 90bb a1e7 ccbb fe52 d63b d3f8 af3a
00000290: 9340 b0bb a6b1 a23b b5ee b338 58ef ad3c
000002a0: 7f6f afbc 0a48 28bc 89d0 dcbb 1caf a0bc
000002b0: 3c92 8dba 230f 843b 99ba edbb 72a2 763c
000002c0: 5df7 a13b e99b eb3b 7469 d03b dfed a1bb
000002d0: 39cb 1c3b 948a 1a3c 256b 403c e78d 493c
000002e0: 6919 203d 7dd4 38bc 5565 fd3b db22 0fbd
000002f0: f57a 383c eef7 163c 3309 9a3c 1a5b 433c
00000300: d7e4 0e3c 6d7f 8fbb 9895 19bc 0a35 133b
00000310: 98ea a33b b0b1 953c 4117 adbb c1fd 4ebc
00000320: 916e cfbb d3cf 373b e029 9fbc 7e9c 7f3c
00000330: f72e 1d3b 4533 9d3c 40b7 183c 97dc 73bc
00000340: 0b95 2f3c e097 c9bc 7a49 8f3b 55de 9c3c
00000350: 4471 b7ba e1fb 143b cf11 e5bb 2cfb 99bc
00000360: ed62 f33b c615 08bc d1d1 413c 8a17 833b
00000370: e027 e5bb 9868 e4bb a223 9abc 649e 33bc
00000380: ebda 8cbc e0d0 dd3a 9c77 b6bb 8a3e 9fbc
00000390: 5eb7 04bc 4b90 8bbc c353 603b 0723 6ebc
000003a0: 4000 2a3b 41c1 a6bc 47e5 763c 2ff4 67bc
000003b0: 0de5 803c 3fec b83b e037 b039 a54d 123b
000003c0: 6985 323c 72f6 9a3c 765f 4fbb 125d 85bc
000003d0: da4e 243c 43e3 553b 9341 be3b b31c 17bc
000003e0: 7a66 d83a d591 38bb e607 503b 1eac 613c
000003f0: 62eb bebc 08be d1bb 6b42 1b3c e562 3abc
0.065296434 0.021671139 -0.023604494 0.007741671 0.018198306 -0.010964826 0.02117889 0.007314001
-0.012660303 0.007020142 0.008058254 0.008948386 0.011589274 0.0051351157 -0.0072669755 0.00700245
-0.024186343 -0.014132887 -0.010776325 0.025555564 0.0074634356 -0.015515553 -0.0009709421 0.0013009646
-0.008767335 -0.01823658 -0.0059895776 -0.020930383 0.008603115 0.012374905 0.06782485 -0.0032680691
-0.0047275275 -0.011286207 0.016389243 -0.0030329193 0.0011746832 0.0016606427 -0.00806213 0.00958227
0.018026194 -0.0042199707 -0.00021041883 -0.018492091 -0.0125583885 -0.0024636332 -0.018895837 -0.0022093533
0.021703888 -0.0025171235 0.028184153 -0.0076143797 0.010236858 0.0044765836 0.021173209 -0.000224397
-0.008809109 -0.005692175 -0.012332601 -0.0022134997 -0.013192236 0.0037592058 -0.014568199 0.0059576994
-0.0116304755 -0.00037187233 -0.012199648 -0.008951774 0.013916679 0.004266484 0.011853067 0.0067199194
0.021737874 -0.0049648853 0.0030272142 0.0011183328 0.006687373 -0.011418953 0.008980909 0.0037234349
-0.015123461 0.005779027 -0.0040437924 0.0075844843 -0.015215641 -0.015928429 0.00063362805 -0.00647748
0.007744873 -0.004444631 -0.018471677 0.009155348 0.010431881 0.005259576 0.0075978865 0.015971549
-0.002188351 -0.011619571 -0.008585259 0.0024232997 -0.015205534 -0.0012939419 -0.010746591 0.010217133
0.005753722 0.01940553 0.0064617777 -0.002638467 -0.023643725 0.02669546 -0.0014373075 -0.007238037
-0.011624467 0.0021535552 0.0010263157 -0.0015488197 -0.0012808244 -0.012539447 -0.0010198001 -0.008866351
-0.009949938 -0.013048714 -0.013743067 -0.0021807787 -0.014016188 -0.0139031075 -0.013592897 0.028982159
-0.0055154054 -0.0022796374 0.0072715683 -0.00146485 0.03588886 0.010699841 -0.00013016837 -0.008991873
-0.00031858758 -0.001356933 -0.0019904757 -0.012200434 0.0053028055 0.011191866 -0.011031105 -0.018571729
0.01366226 0.013096074 -0.0040328973 -0.00857855 0.00020047453 -0.012109211 0.0018663404 0.0048411083
-0.022567485 -2.2578472e-05 -0.005596378 0.00073294016 0.0019870321 -0.0084475735 -0.006745405 0.012358689
-0.0044009127 -0.0062531983 0.006540655 0.0013425596 -0.0053787916 0.004965025 8.579848e-05 0.021232292
-0.02141547 -0.010271082 -0.0067387265 -0.019614749 -0.0010801028 0.0040301247 -0.00725491 0.015053378
0.004942818 0.007190217 0.0063602272 -0.0049416865 0.002392484 0.009432454 0.011744295 0.012301899
0.039086733 -0.01128113 0.007733027 -0.03494535 0.011259784 0.0092143845 0.018803215 0.011923576
0.008721552 -0.004379204 -0.009374045 0.0022462034 0.005002331 0.018273205 -0.005282313 -0.012633742
-0.006330319 0.0028047457 -0.019429147 0.0156012755 0.0023984292 0.019189486 0.009321034 -0.014884136
0.010716687 -0.024608552 0.0043727728 0.019148985 -0.0013995548 0.002273314 -0.0069906483 -0.018796526
0.0074275644 -0.008305972 0.011829809 0.004000609 -0.006993279 -0.0069704764 -0.01881582 -0.010963056
-0.017194232 0.0016923212 -0.005568458 -0.019439 -0.008100359 -0.017036578 0.0034229613 -0.014534718
0.002594009 -0.020355823 0.015069312 -0.014157339 0.01573422 0.005643397 0.00033610966 0.0022324112
0.010896065 0.018916342 -0.0031642593 -0.016279731 0.010028565 0.003263668 0.005806157 -0.009223151
0.0016510033 -0.0028163095 0.003174299 0.013773946 -0.023305599 -0.0064008273 0.0094762845 -0.011376117

network_body._body_endoder.seq_layers.2.weight f4 [256, 256]
00000000: 512a bf3c 161a ffbc d838 0cbe 70e1 a33d
00000010: e137 1bbd 0526 f73c 67da f53c 8e53 11bd
00000020: b7f5 d33b dee5 6bbd 05df 89bc a548 8ebc
00000030: 3589 623d f613 cfbd 7646 bfbd 52db 05bb
00000040: 6283 a5bd 15f8 0d3d 1c7a 833d ca30 50bb
00000050: b217 7abd a47a db3d f696 7abb 58ba 993c
00000060: da14 be3d 6df4 433c edc1 9a3d d01e b4bc
00000070: 15b9 6b3c 885d eebd 3681 29bd a050 f73d
00000080: 83ce 383c 2bd4 b9bc afd0 c83a 0a35 9dbc
00000090: bf13 a63c 6e38 8dbd c9c0 87bd b981 e1bc
000000a0: 0e7d 9fbc 8866 803d 99b6 a8bb 218f 9fbc
000000b0: d622 c93d 29b0 ef3c d25a 36bd 0cf5 2c3e
000000c0: 3cfb 1abd 8883 76bc c672 00bc 0f8c bebd
000000d0: 4af8 97bd 941e 4c3c 2b9d c63b 1099 51bd
000000e0: 7532 c639 e0d4 013e a3c4 78bd 0117 c8bc
000000f0: 6741 67bc b85a 153e cffd c2bc f653 033d
00000100: c6fd e5bc 27d9 9cbc a72e 1d3d 3126 cd3c
00000110: 3f33 2abe 39b6 6a3c e680 56bd e461 1cbd
00000120: 6568 973d 9897 84bd 0908 e9bd fc7b be3a
00000130: a2c3 c93d ae15 273d f5c5 f8bc 2a8c 87bd
00000140: 98cc 4bbd 3522 2b3c 0b3d 3c3d 4a00 b93c
00000150: 6658 74b9 c399 833d 96d5 8cbd 390a efbc
00000160: cc84 913c e66d 1d3b 7b0a 65bd cd60 863d
00000170: 2673 46bd 9b30 c3bc 8e24 14be 2b25 973c
00000180: b8d6 3b3d 69cd 32bc 360b 273d 1b3f 65bd
00000190: df72 a73d 5a5f 693c 56eb 373c 15e4 11bd
000001a0: 43d3 1fb9 a99d 06bd 808d 973d 8409 583d
000001b0: d338 b03c d9fa b5bc 6022 423c de99 0b3e
000001c0: 371f 25bc 0d94 65bd bc44 48bb a13e 84bd
000001d0: d126 3f3c acae 2ebd fd71 f8bd 3300 0fbd
000001e0: 4ed7 b63d fad8 bc3d b736 ae3d ef1b 4f3d
000001f0: 0a06 31bd 0309 50be 4e62 2c3e cdfd e9bd
00000200: 1d2a 9bbc 12a4 d4bd 50bc 583c 82ea 94bd
00000210: a4bb aebc fd81 d53d 1a87 b73d 2fc6 b23d
00000220: d5b0 793d 952c d5bd 56f9 963d aab6 7cbd
00000230: e6f5 843d 61c3 25bd bb22 34be e988 5fbd
00000240: a20d f4bc 7c88 3ebd f76b 993d 28db 92bd
00000250: 3248 67bd 6de0 6bbc 0d27 5bbd 318a d73d
00000260: 8c69 35bd 2131 983c 55f2 e8bd 4ad0 143d
00000270: c7bb a03d 98cd 0e3e a5f1 ebbc 6a80 bbbc
00000280: 3526 40bd 91b5 9cbd 16d5 03bc 8833 aabc
00000290: be74 a6bd bbac e6bd 9399 81bc 68d9 c33d
000002a0: f866 e3bd ddd5 ea3a c701 833c febf 54bd
000002b0: d62d d8bd a2c3 f23d 9756 a0bd 500a 22bc
000002c0: 464e c3bc ae69 e2bb 21f5 40bc fbbf 79bd
000002d0: bffe 05be c0d1 c43d d0b3 94ba 74b0 62bd
000002e0: 437b 9cbd 8a3c ae3d d5ba 4abd 99d8 5fbc
000002f0: bf26 6f3d 7367 443e 0711 333d 2936 fd3c
00000300: 753e 24be 410e 3fbd 0035 09be 74c2 9c3b
00000310: 56fb 893d 5990 82bc 9049 c4bd ae9b f539
00000320: 9cb4 38bd d674 c63d ad33 32bc 652f 05be
00000330: 91ca 1bbd 8375 d0bd 2714 853c 05d7 513c
00000340: 9778 8dbc 2524 3b3d 1221 82bd cbbb a7bc
00000350: b8af 5bbc f6b9 d53c a914 b73c 0b09 cfbd
00000360: f3ea d43d 5dff c3bd bac4 843d eead f4bd
00000370: 3c0c b13d 2f7d 36bc 62e0 253d 12f0 21bc
00000380: e53a 07be c64c bebd cc5f 01bd 2192 163d
00000390: 878f 35bd d74e 763d 80da 063d 9e90 00bd
000003a0: 8d6f e63c a136 21bd 5613 c7bd cd09 e6bc
000003b0: 4c54 05be 3de5 653d 1e3e 0c3c d228 88bd
000003c0: 8261 6abd d090 5cbd bd55 35be fa9e 3b3d
000003d0: 71b6 69bd 3776 44bd 03e3 463c 2469 813c
000003e0: 82e2 eebc d2a2 1a3e ca84 de3d fc33 bf3b
000003f0: 09da b33c fea6 2c3d 28fe 0cbd 002d c2bd
0.023335608 -0.031140368 -0.13693559 0.08001983 -0.037895087 0.030169496 0.030011369 -0.035480075
0.0064685005 -0.057592265 -0.016829977 -0.017368624 0.055306632 -0.10111229 -0.09339611 -0.0020424915
-0.080817 0.034660418 0.06419775 -0.0031767362 -0.061057754 0.10716751 -0.0038236952 0.018765613
0.09281321 0.011960131 0.0755652 -0.021987349 0.014387389 -0.116389334 -0.04138299 0.12075925
0.011279705 -0.022684177 0.0015320982 -0.01919033 0.020273088 -0.06895529 -0.06628568 -0.027527677
-0.01946881 0.06269556 -0.0051487205 -0.019477429 0.098210976 0.029258804 -0.044520207 0.16890353
-0.037837252 -0.015046008 -0.007839864 -0.09304058 -0.07420404 0.012458462 0.0060612164 -0.051171362
0.00037803096 0.12678862 -0.060734402 -0.024425032 -0.014114714 0.14585388 -0.023802666 0.032062493
-0.02807511 -0.019146515 0.03837457 0.025042625 -0.16621111 0.014325672 -0.05236902 -0.038179293
0.073929586 -0.06474227 -0.11378486 0.00145328 0.09851767 0.04079216 -0.03036783 -0.06618531
-0.049755663 0.010445167 0.045956653 0.022583146 -0.00023302584 0.06425812 -0.06876676 -0.02917968
0.017763518 0.0024021803 -0.055918198 0.06561432 -0.048449658 -0.023826888 -0.1446707 0.01845034
0.04585907 -0.010913231 0.040782176 -0.055968385 0.08176207 0.014243925 0.011225542 -0.035617907
-0.00015242123 -0.0328652 0.07400036 0.05274345 0.02151147 -0.02221434 0.011849016 0.13632914
-0.010078243 -0.056049395 -0.0030558547 -0.06457258 0.011666969 -0.04264705 -0.121311165 -0.0349123
0.08927785 0.092210725 0.0850653 0.05056375 -0.04321865 -0.20315938 0.16834375 -0.11425362
-0.01894098 -0.103828564 0.013228491 -0.07271291 -0.021329708 0.10425184 0.089613155 0.08729207
0.060959656 -0.10408894 0.07371776 -0.06169764 0.06492214 -0.04046953 -0.17591374 -0.054573927
-0.029791657 -0.04651688 0.07491296 -0.07170707 -0.056465335 -0.014396769 -0.05350404 0.10524405
-0.04429011 0.018578114 -0.11374346 0.036331452 0.07848316 0.13945615 -0.028801749 -0.022888381
-0.046911437 -0.076518185 -0.008046409 -0.020776525 -0.081277356 -0.112634145 -0.0158203 0.09562951
-0.11103624 0.001791652 0.015992058 -0.05194091 -0.105556175 0.1185372 -0.07829016 -0.009890154
-0.023841035 -0.0069095707 -0.011777193 -0.060974102 -0.13085459 0.09610319 -0.0011345092 -0.05534406
-0.07640698 0.08507641 -0.049494583 -0.013662481 0.05838656 0.19180088 0.04371741 0.030909615
-0.1603945 -0.046644453 -0.13399124 0.004783923 0.06737392 -0.015937971 -0.095843434 0.00046846032
-0.045094118 0.096902534 -0.010876578 -0.13006361 -0.03803498 -0.101786636 0.016244961 0.012807612
-0.017269416 0.045688767 -0.06353964 -0.020475289 -0.013408594 0.02608965 0.022348719 -0.10109147
0.103963755 -0.09570191 0.06482835 -0.11947237 0.08644912 -0.0111382445 0.04049719 -0.009883897
-0.1320606 -0.09291987 -0.0315855 0.036760453 -0.04432633 0.06013378 0.03292322 -0.031387918
0.028129363 -0.03935874 -0.09720485 -0.028080845 -0.13020438 0.05612682 0.008559732 -0.06648411
-0.057221897 -0.05384904 -0.17708488 0.04580591 -0.057058755 -0.0479643 0.012139085 0.015797205
-0.029160742 0.15101174 0.10865171 0.0058350544 0.021954553 0.042151444 -0.03442207 -0.09481239

network_body._body_endoder.seq_layers.2.bias f4 [256]
00000000: 74ab 523c 283d 2e3d ed2b fcbb f475 633d
00000010: 6c87 74bd 7570 0d3d 833e 1abd 9926 973c
00000020: 93e6 4bbb 131a c33c 47a4 b83c 2242 bb3c
00000030: 9374 f3bc 85c2 90bc 487a f03c 5c80 a93b
00000040: 9fed ea3a 0f61 ef3c 2413 333d 2b98 a3bb
00000050: f77a 443d c8a9 b0bc c22c a6bc 4f42 6bbd
00000060: 5793 12bd d2ed 0f3c 1b4d 213c 34a8 acbc
00000070: 98d0 99bb 347f 24bd d364 63bd 9ed7 033d
00000080: d344 81bd 6cbc 7abd c449 27bc 4f25 e9bc
00000090: f0c4 7bbd cdde 79bc 47ad a53b d6c5 8dbc
000000a0: 5c79 413d fe80 42bc 75e0 023d 9af5 0e3d
000000b0: 05e4 34bd ac32 683c 1ffc 6d3d 390d 4abc
000000c0: e6a9 863c 2dcd 4ebd f25c 013d 64e1 143b
000000d0: 27ee 1a3c b214 c1bc 996c ec39 d94f 673b
000000e0: 236c 1f3d 7d1b e4bc 1136 2838 5e66 22bd
000000f0: a3da f93c 8c3e 5e3b 97dc bbbc df76 41bd
00000100: f99c 78bc 83ea fbbc 97d2 e83c e4b6 653c
00000110: 98a7 14bd 582d ae39 8bb5 be3b e176 72bd
00000120: 9b39 dabb 2455 c73c 9ac1 163c e388 31bc
00000130: 9f0a 1a3c 5c51 f13b 3fef 193d 2951 1dbc
00000140: 474d 433d c30e 753c 1d9c 98bb 1452 d23a
00000150: 179a 903c ccef cc3c b9ad c03b 9eae fe3c
00000160: 5b25 a23c b818 ca3b ce76 a23b 96a6 c3bc
00000170: cc2c 37bd df74 a7bd 739e 6ebc b4b3 f4bc
00000180: 946b ab3c ba18 8fbd 56af 8d3c cdce ac3b
00000190: b7ce d63b 335d 093c 4fb8 80bb fc30 39bd
000001a0: 4210 19bd a150 a33c 9068 bbbc f11d 2f3c
000001b0: 9ec6 28bc 6e94 83bd 8fca ba3b 6a06 3ebb
000001c0: 8861 55bc d5c8 8a3c c26c b2bc 1458 febc
000001d0: 6b5e f13b 33c8 e83c 612c e83c aa07 97bd
000001e0: 8604 4a3c 2be0 65bd 5c6e 843c 5cf9 69bb
000001f0: d3a7 8abd 20d3 ba3b ad27 9a3c 006f 8d3c
00000200: 9134 ea3c db7a 50bd a15e 81bb 14c8 64bd
00000210: 1dd5 00bd f175 243c 2afe 21bc 48a2 853d
00000220: a501 64bd ef46 e5ba f71c 7ebc b888 253b
00000230: 55b9 513c a209 aebc 9d9e 8b3b ebab 57bd
00000240: 1779 53bd bd0a 6ebd 6aa1 97bc 4c36 8bbc
00000250: ab09 a3bc d832 7fbb d132 a33b 178f 983a
00000260: 13dd 18bc 5ddf 70bc 4ea2 213d 5366 c73c
00000270: ebea 203c df68 b0bc ebb0 c2bc 8fa7 0d3b
00000280: 33a5 aa3b 5801 33bd d80f c23b 0ebb 303a
00000290: 8010 9b38 4d99 a53b 1ffb 99bb fb04 71ba
000002a0: d1ce 65bb 943d 2bbd 1604 41bc 55c3 693d
000002b0: de44 bcbc 77a8 9dbc 1eef 81bd 4226 a9bc
000002c0: 43dc 853c 3942 323d f3e0 363c f667 86bd
000002d0: bc93 71bc 0403 20bd 85cb f1bc 607c ad3c
000002e0: 1b74 4e3c 4304 5abc 1e6b 763c e28e 25bb
000002f0: ea22 da3c b995 a4bd ac28 39bd 1017 acbd
00000300: 0092 59bb 93f2 ed3c 5124 f93c a1e3 79bc
00000310: 30f4 8bbd 5ea7 ec3b 94b4 f63a d452 953c
00000320: a35f 84bd 88f1 2dbd 08e0 39bd b86f bb3c
00000330: 8239 0ebd 830d cebc ba3f 1ebd d2f5 2e3c
00000340: 95a2 2c3d e09c 723d 7046 75bc e05b 5d3c
00000350: c98f b4bb dfb0 8cbc 0a81 0ebd c259 163d
00000360: 53fa bdbb f3b6 27bb cc12 673c a8db dc3c
00000370: b7dc 393d ab31 97bd 17e0 f0bc 5e03 29bd
00000380: 9875 e83c 6c6e 0d3d 0a7c c23a e1d5 ea3c
00000390: 3efd b0bc 4443 de3b 3464 f93b d483 193c
000003a0: 2313 a2bc a237 77bd ef1b 2e3b 5e37 3dbd
000003b0: 9e4f 92bc b35e 473b e5e3 a43b 965c 1c3d
000003c0: 567b 113b 3e96 333b 573c 423c 0968 083d
000003d0: 0354 0fbc f1a9 ad3c 7071 f93c 7056 7dbc
000003e0: dce9 22bd a395 483c 3663 bfba 68ec 803b
000003f0: 13f4 85bd 68ff 50bc bcb4 2f3d d322 6dbd
0.01285826 0.042538792 -0.007695666 0.05553241 -0.05969946 0.034531076 -0.037657272 0.018451022
-0.0031112775 0.023816144 0.022539271 0.022858683 -0.029718673 -0.01767088 0.029355183 0.0051727723
0.00179236 0.029221086 0.043719426 -0.004992505 0.04796883 -0.021565333 -0.020285014 -0.057436284
-0.035785045 0.008784728 0.0098450435 -0.0210763 -0.0046940558 -0.040160373 -0.055516075 0.03218805
-0.06311955 -0.06121485 -0.010210458 -0.028460173 -0.06146711 -0.015250874 0.0050560567 -0.01730625
0.047234878 -0.011871574 0.03195234 0.034902193 -0.04416277 0.014172237 0.05810177 -0.012332254
0.016438436 -0.05048864 0.03158278 0.002271735 0.009456194 -0.023569439 0.0004509434 0.0035295396
0.038921487 -0.027845139 4.0104675e-05 -0.039648406 0.030499762 0.0033911793 -0.022932334 -0.047232505
-0.015174144 -0.030751472 0.02842073 0.014020655 -0.036292642 0.0003322165 0.0058199815 -0.059195403
-0.006659699 0.02433259 0.009201432 -0.010835859 0.009401946 0.007364435 0.03758168 -0.00960187
0.04768112 0.014957133 -0.004657282 0.001604619 0.0176516 0.025016688 0.0058800844 0.031089123
0.019793203 0.0061674975 0.0049580103 -0.023883145 -0.044720456 -0.08176588 -0.014564144 -0.029870845
0.02092532 -0.06987138 0.01729552 0.005273676 0.006555404 0.008384037 -0.0039282213 -0.04521273
-0.03736902 0.019935908 -0.022877008 0.010688291 -0.01030126 -0.06424795 0.0057004164 -0.0028995522
-0.013023742 0.016941467 -0.021780375 -0.031047858 0.007365992 0.028415775 0.028341474 -0.07374509
0.01233018 -0.056121986 0.016165905 -0.0035701608 -0.06770291 0.0057014376 0.018817747 0.017264843
0.028589519 -0.050898414 -0.003948048 -0.055854872 -0.03145324 0.010037885 -0.009887258 0.06525093
-0.05566563 -0.0017492453 -0.015509835 0.0025258493 0.012800534 -0.021244828 0.0042608515 -0.052654188
-0.051629152 -0.05811571 -0.018509585 -0.016993664 -0.019902071 -0.0038940217 0.004980423 0.0011639324
-0.009330052 -0.014701691 0.039461426 0.024340784 0.009821634 -0.021534381 -0.023766002 0.0021614765
0.0052076816 -0.043702453 0.005922299 0.00067417405 7.394049e-05 0.0050536753 -0.0046991254 -0.00091941626
-0.00350659 -0.041806772 -0.011780759 0.05707105 -0.022982057 -0.01924537 -0.06344436 -0.020648126
0.01634038 0.043520186 0.0111620305 -0.06562798 -0.014744695 -0.039065376 -0.029515991 0.02117747
0.012600924 -0.01330668 0.015040187 -0.0025262167 0.026627976 -0.0803637 -0.045204803 -0.08402836
-0.0033198595 0.029046332 0.030412825 -0.015252025 -0.068336844 0.0072221 0.0018822127 0.018227972
-0.06463554 -0.04246667 -0.04537967 0.02288042 -0.034722812 -0.025152927 -0.038634993 0.010678725
0.042147238 0.05923164 -0.014970407 0.013510674 -0.0055103046 -0.017174182 -0.03479103 0.036706693
-0.0057976632 -0.0025591224 0.014103603 0.026960209 0.045376506 -0.0738252 -0.02940373 -0.041262977
0.028376386 0.034529135 0.0014837992 0.028666439 -0.02160513 0.006782921 0.007610822 0.009369809
-0.019784516 -0.06035579 0.0026566943 -0.04619538 -0.01786023 0.0030421435 0.00503205 0.038174234
0.0022198758 0.0027402784 0.011855206 0.03330234 -0.008748057 0.021199198 0.030449599 -0.015462503
-0.039773807 0.012242707 -0.0014601711 0.003934432 -0.06540694 -0.012756206 0.04289697 -0.05789454

action_model._discrete_distribution.branches.0.weight f4 [3, 256]
00000000: 2fa4 b53d 2e72 343d 2df9 8dbd cd2e 0c3d
00000010: f938 31bd 1e4b 79bc d7c4 cabc cad8 5e3c
00000020: d3a3 76bd a4c6 66bd 91b7 27bc 729c 30bd
00000030: 7565 6f3d 7192 1d3d 9141 853d 6c1e 7b3d
00000040: e675 48bd b15d 813c 5151 9d3d bb42 ae3c
00000050: 6a98 343d a05a 5cbc 00ad 7c3a d868 05bd
00000060: 7c77 27bd 8b08 533c fa92 603d a7d1 1fbc
00000070: acff 593d 1fc9 90bc de3a 13bd 9547 3ebd
00000080: 4b71 48bd 0ccd aa3b c69a 953d a742 9cbd
00000090: f855 ea3b 7739 583d 777e bdbd df24 6e3d
000000a0: 76aa 0b3d a04b 8e3c 58b0 883d 1700 803d
000000b0: 6129 733c 6fe8 c9ba 744c 4d3d 38e6 43bd
000000c0: b306 86bd e65c 78bd a692 4a3d 0e0e 083d
000000d0: 8e0c a4bd 6c89 69bd 198e 88bd 974a 93bd
000000e0: 2c2d 143d bfdb 58bd a6e7 68bc c2c3 73bd
000000f0: 5518 8f3d 7a60 8ebd 5251 1dbd 9351 14bd
00000100: aa08 ecb8 e7dd 8b3c c166 013d 3728 3abd
00000110: 52db ccbd 8966 79bd c55e c1bc af3f 9cbc
00000120: 6aca b53c dbd3 a4bd c88d 623d 6ae7 de3c
00000130: 407d 0dbd 9a47 ed3b 63c3 19bd afff 63bc
00000140: 1e6a 543d cf7f 75bd 1ddc 553d e410 a6bd
00000150: dbfe 3e3d 8727 1abc b057 f6bc 67ec 08bd
00000160: 2cfd 1abc d2da 463d 1347 f8bd 5233 55bd
00000170: be13 a3bc 3ca3 44bd df41 8ebd 539d e0bd
00000180: 339d 4e3d 3b12 41bd 73e5 483d 513d 793d
00000190: 74d2 ddbc 7463 9b3d 3bb9 5ebd 6400 3bbd
000001a0: 9014 6c3d ce85 d5bd abdf 09bd a38c 01bc
000001b0: e805 8dbd 65a4 14bd 39ea dcbd f032 62bd
000001c0: e86b 313d f61b babd a48f 36bd 65c0 7abd
000001d0: c816 9fbd 537a 893b bfe0 9fbd 550f 85bd
000001e0: 2a9d d3bd d5a1 66bd 1b72 213d 0fe4 843c
000001f0: 0621 82bd 1bf3 423d 795f c3bd df9d 8ebd
00000200: 2181 8a3c 9bb6 fabc 7ee7 443d dcdd 79bd
00000210: 7a9b 0d3c 371e a03c 6c97 1e3b a040 8ebd
00000220: 6881 f6bc c5e3 efbb 6094 edbc 351a af3c
00000230: c6e1 513b ec5e 13bc 275f c1bd 4895 debc
00000240: 190c 97bd 1b9b 79bd 6708 7a3d ff75 613d
00000250: 7b34 d8bb a904 bcbc 6f09 8a3d 756b 02be
00000260: ad0b 2bbb 3f76 813d b961 473d 7e8d e4bd
00000270: 9f3b 59bd 268b 433d e43b 3abd dcf7 5d3c
00000280: e0c5 5fbd f22b 2fbd 1d11 ebbc 4876 bbbd
00000290: 34d6 073c 372f ecbd 0ff4 d4bc e8ff 063d
000002a0: 20ac 843d be9a 2a3c 0002 4c3c ca6b d93c
000002b0: 189f ccbc 252c 443d 7e47 3ebd f68f acbd
000002c0: faf7 dabc d7e8 28bd bdbb 12bc ce0a 22bd
000002d0: d654 d8bd ee48 943a aa4d 3cbd 5787 ed3c
000002e0: 3c95 ebbd 5b60 303d b3f2 8d3b d729 debd
000002f0: 1ed6 863d 36e4 8ebd ead6 73bc e39e 59bd
00000300: 3447 9bbc 4bec 053d 5230 023c 4242 4bba
00000310: 67b4 77bc 35f7 07be dc83 2cbd 3d3c 9cbd
00000320: 21b3 29bd 33b8 9bbc beb5 a6bc 06fc e3bc
00000330: 35cf d5bc d0d6 20bd 1089 93bb f343 c4bd
00000340: b78c 9f3d 7f29 833d 8b6a bbbc 6fe9 1f3d
00000350: 24d7 043d a48d debc 8517 22bd 3e3b 5abb
00000360: d0f9 adbd 18d8 50bd 3a45 c7bc 3714 d63c
00000370: ccb1 1a3d f65e 06bd 315b 883c b298 33ba
00000380: 45c0 12bc 0f2a a13d ad3a 45bd e486 183b
00000390: 250b 113d 389e 6f3d bc5f 3fbd be76 b1bd
000003a0: 29ed 20bc 6f73 b5bc 1792 aebd 2045 8bbc
000003b0: fa34 b3bc d7bd 03bc 81d5 36bd 52e4 2c3d
000003c0: 31aa f93c 1bc4 cbbd 2c48 b4bd 233e 163d
000003d0: b5eb 863b 2abb 4c3d fa0e d2b9 6605 efbc
000003e0: 4360 6ebc 1d26 b8bd 8632 08bd 4a0b 173d
000003f0: f66d 17bd ebc2 bdbc cc50 0c3d d39d e1bc
0.08869206 0.044054203 -0.06932292 0.03422432 -0.043267224 -0.015215663 -0.024752064 0.013601491
-0.06021483 -0.056341782 -0.010236637 -0.043117948 0.058446366 0.038469736 0.065066464 0.06130831
-0.04894056 0.015791746 0.076815255 0.021272054 0.044090666 -0.013449341 0.0009638816 -0.03257069
-0.040885434 0.012880455 0.054827668 -0.009754575 0.053222343 -0.017674027 -0.035944812 -0.046454985
-0.04893617 0.005212432 0.07304911 -0.076299004 0.0071513616 0.052789178 -0.09252637 0.05814063
0.03409811 0.017370045 0.0667426 0.06250017 0.0148414085 -0.0015404354 0.05012174 -0.047826976
-0.065442465 -0.06063547 0.04945626 0.03321653 -0.08010207 -0.05701582 -0.06667728 -0.07191961
0.03617589 -0.05294394 -0.014215386 -0.05951286 0.06987063 -0.06951995 -0.03840763 -0.036210608
-0.00011254971 0.017073585 0.031592134 -0.045448508 -0.100027695 -0.0608888 -0.02360476 -0.019073335
0.022191245 -0.08048221 0.055310994 0.027209956 -0.034543276 0.0072412016 -0.03753985 -0.01391594
0.051859014 -0.05993634 0.05221187 -0.081086904 0.046629768 -0.009408838 -0.03007111 -0.033428576
-0.009459775 0.048548527 -0.12122931 -0.052050896 -0.019906875 -0.048007235 -0.06946158 -0.10967507
0.050442886 -0.047136527 0.049046945 0.06084949 -0.027077891 0.075873286 -0.05437587 -0.04565467
0.057636797 -0.10425912 -0.033660572 -0.007907066 -0.06885892 -0.03628959 -0.10786862 -0.05522436
0.043315798 -0.090873644 -0.04457058 -0.061218638 -0.07768017 0.0041954904 -0.07806539 -0.06497065
-0.10332711 -0.05630668 0.03941546 0.016222028 -0.06353955 0.047595125 -0.09539694 -0.06963705
0.016907277 -0.030604651 0.04807233 -0.061002597 0.0086430255 0.019545658 0.0024199141 -0.0694592
-0.030091003 -0.0073208534 -0.029001415 0.021374801 0.003202544 -0.008994799 -0.09441977 -0.027170792
-0.07375354 -0.060938936 0.06104317 0.05504417 -0.006598053 -0.02295144 0.067400806 -0.12736304
-0.0026099489 0.06321382 0.04867718 -0.111598 -0.053035375 0.047740124 -0.045467272 0.013547864
-0.054632068 -0.04276652 -0.028694684 -0.0915342 0.008290816 -0.11532443 -0.025995282 0.032958895
0.06478143 0.01041287 0.012451649 0.026540656 -0.024978206 0.047893662 -0.0464549 -0.08425896
-0.026729573 -0.04123768 -0.008955893 -0.039561085 -0.10563056 0.0011313239 -0.045972504 0.0289952
-0.115030736 0.04306064 0.0043319105 -0.10847824 0.06583808 -0.069771215 -0.0148827825 -0.05313004
-0.01895485 0.03269605 0.007946091 -0.00077537086 -0.015118695 -0.13277896 -0.04211794 -0.07628677
-0.041430596 -0.019008731 -0.020350333 -0.027830135 -0.02609978 -0.03926736 -0.004502423 -0.09583273
0.07790511 0.06404399 -0.022877952 0.03904098 0.032431737 -0.027167149 -0.03957321 -0.0033299471
-0.084949136 -0.050987333 -0.024325002 0.026132686 0.037767217 -0.032805406 0.016645046 -0.00068510615
-0.008956973 0.0786935 -0.04815166 0.002327376 0.03541102 0.0585005 -0.04672216 -0.086652264
-0.009822168 -0.02214977 -0.08523958 -0.017000735 -0.021875847 -0.008040867 -0.044637207 0.04220993
0.030476661 -0.099495135 -0.08802828 0.036680352 0.004117454 0.04998318 -0.0004006548 -0.029177379
-0.014549318 -0.089916445 -0.033251308 0.036876 -0.0369701 -0.023164233 0.03425674 -0.027541077

action_model._discrete_distribution.branches.0.bias f4 [3]
00000000: bc65 0a3d c74b 4b3c cdbd bcbd
0.033788428 0.012408203 -0.09215889

action_model._discrete_distribution.branches.1.weight f4 [3, 256]
00000000: 53af a7bb 1c54 c3bc 3be7 143d f04f d4bc
00000010: b90f a23c 738e 463d 9012 433d 7271 25bb
00000020: cf6e 9e3c a47e eb3c 65b5 063c 424b 9c3c
00000030: ca96 073d 8d0e 983c 20ce 03bc 80c2 b73c
00000040: 234b 833c 7c23 783c 4f70 e73b d9db 443c
00000050: 5ad4 d3bc 30fd c43c a9eb 9abc 7f52 cf3c
00000060: 523d 9abb f490 293c adb7 4c3b 8764 9b3c
00000070: a215 b8ba 9d8b e03b 04fb f53c c9ee 1e3d
00000080: 3023 f53b 8395 ecbc a35a 9f3b f519 8fbc
00000090: 7e3d b5bc c03e a83b f30b cc3c 6992 3f3c
000000a0: 15e8 5d3c 2107 21bd 565d fb3b 86c3 08bd
000000b0: f2e0 8cba e08a bd3b f0c2 5f3b 8576 da3c
000000c0: 162d 8d3c aa7f aabc 5c1d 393b c56e 2abc
000000d0: 2835 043c e23e 3abc 2900 b43b 6f98 543c
000000e0: 5d3f ed3a d84b 623c a115 2dbc e03b 12bd
000000f0: 574e f83b 54a3 c5bc 6c40 8e3a 8838 86bc
00000100: dca2 423d 00df c23c cd30 99bc f5d4 d03c
00000110: edcb ec3b b51e 49ba 9cfb 233d 2a68 113d
00000120: e4d2 a93b 1960 913c 58fc 96bb 2525 903c
00000130: 2996 8b3c 894f d0bb ea65 813c e1cd 94bd
00000140: 29ac 1f3b 9691 e73c 7dab 62bb 1758 ae3b
00000150: d151 9c3b 4396 8c3c 2adb d73b cedf 3a3d
00000160: ee9f ff3b 90da b5ba 4b2b aebc 988e 01ba
00000170: 94d2 30bd 9550 7abc 90e0 7f3c eb56 0ebc
00000180: fed8 11bb e3c2 333c 9d69 fb3b 4662 893c
00000190: 89ee 233c adb4 37bc 4ca5 403c 1f85 99bb
000001a0: 6b53 523c a7b7 c83a ce7d f43c d906 ac3c
000001b0: 9398 6dbd a082 cf3c a5ba 05bd 870a 233c
000001c0: 0d20 d5bc 8551 10bc 11ba 493d 00ce d03c
000001d0: 824a b43c 870b c7bc 1445 323d ae3d 863c
000001e0: 1d65 e23c 27ef 153c 5375 66bc c04a 7d3d
000001f0: 399f a23c 2240 46bc 306d a0bb 178c 523c
00000200: 7c9d 053d 2f24 b43c ec61 033c 58bd f43c
00000210: e505 7ebc 5324 6dbb d0df 9d3c 3dba 543d
00000220: e769 e2bb faf4 40ba ab1d 983c c1d5 883c
00000230: c8e7 3d3d 47a4 b13b 2efc 9cbb a079 25bc
00000240: b4c0 14bc 184a adba a631 a73b da5a aa3b
00000250: dfee f23c 1d2e ec3c 4dc2 aa3b 3cef ce3c
00000260: 4e55 8d3c 349a 9a3c 65eb 8d3c 5135 983b
00000270: 4c0f 1fbc 06b8 1e3b 23f1 c03c 385c 063c
00000280: bc8b 0f3d dcf3 eb3c 94df afbc e9cf 2c3c
00000290: c842 84bd acb9 a43b ff38 1f3a 4a67 383b
000002a0: a828 e73b 8d36 4bbc 052c c73a 1a10 893c
000002b0: 1173 d33b eabf da3a c298 463c e858 a9bb
000002c0: e24d 2239 869e dc3a ec2a e33c 20ee e23c
000002d0: 4d86 febc 31d5 033c 5971 373d 7a0b 7a3c
000002e0: d5d5 ab3c aac7 ecba 1e1c 9b3c 7891 6abb
000002f0: e29b d93b cf0e d93c 6893 6239 f0cf 5c3c
00000300: b3f5 6abc 48af b63b 35dc fa3a f8d3 ff3c
00000310: 279d d5bb 6dd8 06bd a61c de3c 3834 e03b
00000320: 9815 f93c 35b4 673c 6d57 7b3c 149c f93b
00000330: fb2f 2c3d 0bfb 1ebc 71dc 18bb be04 963d
00000340: 4d82 153b 8e93 18bc 8d38 2b3b 42b3 5e3a
00000350: 13d5 8b3b ff5b 9d3c 901b 353d 4c64 b5bc
00000360: efa3 8cbc f9c2 463c 428d bf3c 6c5a 073d
00000370: 2a13 313c 0f5b 003d c9a3 653d c879 953c
00000380: 3724 853c 1832 cebb 6516 e53b 6685 ebbb
00000390: 04e4 8c3b 75c6 dcb9 f2b3 ac3b a131 e9bb
000003a0: b89e 183c 3e1d f73c d58f d83c afc3 2b39
000003b0: d9e7 29bc 040f b53b f456 993c 2dfe 14bb
000003c0: 1b55 b4bb c4d4 e93c 09b6 f7ba 98cb 56bc
000003d0: 0cc0 3cbd 0c18 2abd 6c7a 3a3c 1f5f 90bd
000003e0: 42b3 0dba ce72 f23c a3be 03bd f8d5 f3bc
000003f0: 9165 af3c 5ddc e33c da5d 70bb 0b85 0a3b
-0.005117336 -0.023843817 0.03635333 -0.025917023 0.019782888 0.048475694 0.047625124 -0.002524462
0.019339947 0.02874691 0.008221959 0.019078854 0.033102788 0.018561626 -0.0080447495 0.022431612
0.016027039 0.015145179 0.007062949 0.012015306 -0.025858093 0.02404651 -0.0189112 0.025307892
-0.004707017 0.010349501 0.003123741 0.018968834 -0.0014044533 0.0068525807 0.03002692 0.038801942
0.0074810013 -0.028879886 0.0048630997 -0.017468432 -0.022124048 0.0051344335 0.024908042 0.011692622
0.013544102 -0.03931344 0.0076710386 -0.03338959 -0.0010748191 0.0057843775 0.0034143291 0.026667843
0.017233413 -0.020812828 0.002824626 -0.010402386 0.008069314 -0.0113675315 0.005493183 0.012975796
0.0018100549 0.013812028 -0.010564239 -0.035701632 0.007577698 -0.024125732 0.001085294 -0.016384378
0.047518596 0.023787975 -0.018700028 0.02549217 0.0072264583 -0.0007672117 0.040034875 0.03549973
0.005182611 0.017746018 -0.0046077184 0.017595837 0.017039375 -0.0063571376 0.015795667 -0.07265831
0.002436409 0.028267663 -0.0034587078 0.0053205597 0.0047704955 0.017161494 0.0065874057 0.045623593
0.0078010475 -0.0013874341 -0.021260878 -0.00049422076 -0.043169573 -0.015278001 0.015617505 -0.008687715
-0.0022254582 0.010971758 0.007672502 0.016770493 0.010005602 -0.01121251 0.01175816 -0.0046850587
0.012837271 0.0015313522 0.029845145 0.020999359 -0.058006834 0.025330842 -0.0326487 0.00995124
-0.02601626 -0.008808498 0.049249712 0.025488853 0.022008184 -0.024297489 0.04352291 0.016386833
0.027636105 0.009151257 -0.014066058 0.061838865 0.019851314 -0.012100251 -0.0048958287 0.012850783
0.032620892 0.02198991 0.008018952 0.029875442 -0.015504335 -0.003618498 0.019271761 0.051935423
-0.006909597 -0.0007360723 0.018568834 0.016703488 0.046363622 0.0054211947 -0.0047908043 -0.010099798
-0.009079147 -0.0013220934 0.005102354 0.0051988186 0.029654918 0.028830582 0.0052111507 0.02526056
0.01725259 0.018872358 0.017324159 0.0046450277 -0.009708237 0.0024218573 0.023552483 0.008200698
0.03504537 0.028802805 -0.021468915 0.0105476165 -0.0645805 0.0050270166 0.0006073862 0.0028137737
0.007054407 -0.012403143 0.0015195614 0.01673131 0.006452926 0.0016689275 0.012121381 -0.005168069
0.00015478538 0.0016831912 0.027730428 0.027701437 -0.031069899 0.008046434 0.04478583 0.015261525
0.020975986 -0.0018064876 0.018934306 -0.0035792273 0.006640897 0.02649632 0.00021607953 0.013477311
-0.014340806 0.0055750944 0.0019139113 0.031229004 -0.006518978 -0.032921243 0.02711327 0.0068421625
0.030405805 0.014142086 0.015340668 0.007617483 0.042037945 -0.009703408 -0.0023324753 0.07325123
0.002281326 -0.0093125235 0.0026126236 0.00084953394 0.004267344 0.019208906 0.04421574 -0.022142552
-0.017168013 0.012131446 0.023382787 0.033045217 0.010807792 0.03133684 0.0560644 0.018246546
0.01625262 -0.0062925927 0.006991195 -0.007187533 0.0042996425 -0.00042109532 0.0052704746 -0.007116512
0.009315185 0.030165311 0.026435772 0.00016380729 -0.010370218 0.0055254716 0.01871822 -0.0022734508
-0.0055033094 0.028543837 -0.0018898855 -0.013110064 -0.046081588 -0.04152684 0.011381727 -0.07049393
-0.00054054346 0.029595759 -0.032164227 -0.029765114 0.021410735 0.027815038 -0.0036677034 0.0021136429

action_model._discrete_distribution.branches.1.bias f4 [3]
00000000: 3b33 17bd 8015 313d b777 d5bb
-0.03691409 0.043233395 -0.0065145153

action_model._discrete_distribution.branches.2.weight f4 [2, 256]
00000000: 73e7 6d3c 4713 103d 970b fb3c 60d0 053d
00000010: 6c1c 7ebd e3d9 643d 5c9a b7bc 7b0f ab39
00000020: 481b 8bbc cde5 c03c 8070 0b3d 6d38 373d
00000030: 61f0 563c eefb 7bbc 1977 473d efe4 473d
00000040: 173b 343d 0c5b 803d c42c 8d3c ccb0 adbb
00000050: 2b92 0d3d c409 97bc 790b 33bd 33db 35bd
00000060: 4f16 e1bc 9da9 80bc 2ba0 a03c 1b2b 673b
00000070: 3bf1 e13b d04a 7bbd ed8e 84bd fc25 423d
00000080: ee94 02bd 8e56 4cbd 04b5 053c 6e7d cfbc
00000090: 96c1 6cbd 978f c73c 468f 843d 4a95 8f3a
000000a0: 7bd7 2f3d 4528 9dbc ad1f 2c3c e051 bb3c
000000b0: c784 28bd 02e2 c4bb f14d 243d e152 403d
000000c0: 47c1 6e3d 4bec 9fbc 30c3 4f3c e4c9 503c
000000d0: ccda 093e 755c 313c 7960 293c 0452 853c
000000e0: 9b6b bc3c 5cd8 463c 0353 803d 549d 54bc
000000f0: 1f1e e13c c923 813c fa14 a03b b88a d4bc
00000100: f044 66bc 254b 10bc 778f 353d a45d 933c
00000110: 6bb3 00bd 82ab 9dbc 8f6c e3bc 669d 82bc
00000120: 27cc 21bd e6d3 a83d f931 833c 5cb2 8b3c
00000130: 6157 063d 7327 3c3a a5cf 683d 1fb2 7fba
00000140: 1b45 333d 480e b83c 407d 603c 9de3 5b3c
00000150: 5e80 b23c 3168 103c 2c87 1bbb 627f bc3c
00000160: e000 1d3d 19da 0a3d 0c76 a53c 6270 9bbc
00000170: e3d3 8ebd 0cd1 66bd 9d10 b0bc 8f16 a0bc
00000180: 8ed4 023d 5bd2 47bd 5f8c 193d 23fb 823c
00000190: e6cd be3c 68f1 843a 5dec 72bc 0298 30bc
000001a0: 790e 183c 1c16 2a3d 2634 9abc 2cd4 1e3b
000001b0: cd66 36bc 2ce0 79bd c685 663b 4549 1fbb
000001c0: 5b1c a63b 4ccb 373d de83 f4bb 6b1d ecbc
000001d0: 5c8a ef3c fa22 313d 2536 7e3d 3381 1ebd
000001e0: 2a96 ef3c 8877 18bd 9a6d d23c 436d 1cbb
000001f0: d0ba d9bc 7674 d33b 6f94 953d f451 e7bb
00000200: fa69 303d 9196 31bd 2bea 013d d162 2ebd
00000210: 8443 35bd 9968 c0ba 39e2 093d 0242 f83d
00000220: b5d5 03bd 32f6 92bc 5605 313d e46a f93c
00000230: 404e 273d 763d c7bb d708 563d 8908 58bd
00000240: ab25 65bc af1c debc 0468 d2bb 6eda 15bc
00000250: ade1 e8bc c7fb 6eba e625 673c 4ff8 093e
00000260: 1d36 1b3c 2177 f6bb 03d9 713d b670 863d
00000270: 35fe bb3d 5022 423c 2a72 40bb 5602 033c
00000280: 3098 203c f9b1 06bd 040b 273d 15ec 4c3d
00000290: e92f cfbb 8881 453d 63b4 473c 79a1 073d
000002a0: 7568 673c edaa 6abd a722 61bc cb78 483d
000002b0: e0cd aabc 97c6 5a3c 69ad 0bbd 9332 983b
000002c0: c946 583d dd9f 053d 82f3 553c 378d 01bd
000002d0: ca0f 45bc 317b 803b 28e1 a3bc f9c3 063d
000002e0: c889 253e 353d 02bc a5c0 6e3d 783b 1d3c
000002f0: 66d7 fd3c 1daf 34bd 6391 bfbc 7eac 46bd
00000300: 8082 4b3c 5bd7 ee3c e5f8 953d 2e00 b4bc
00000310: 0f8c 32bd e2f9 243d d557 d23c bf15 e53d
00000320: 9cc2 5abd 1fd8 06bd 1a2c 18bd 0d2c 8a3c
00000330: 791a 62bd 8874 bcbc 78e0 84bd ed11 f93d
00000340: e5ea 123d f204 e13c 9d52 14bd eb73 1a3d
00000350: 7ad7 163d 0244 2abc 678f 3e3b 2de2 873d
00000360: 7e5b 253d e70a 033c 505b 92bb c80e de3c
00000370: 99ea 853c 7b29 69bd cf59 643c 4338 d5bc
00000380: 0998 ac39 a550 523c 691d 803c 2eae 713d
00000390: 9623 943c e076 3aba dc38 913c f110 cf3d
000003a0: a54b 753b f1f6 6cbd e55c 063e 018b a4bc
000003b0: b24d d6bb bc27 1cbc 30d7 103b 2158 1b3d
000003c0: e027 3c3d 3fc0 d93d 7a57 c33c 1037 303c
000003d0: bc93 b3bb 107a de3b 198e 4dbb dbb9 bebb
000003e0: f6eb 6cbd 4dfc da3c 14fb ad3c 19f7 013d
000003f0: 449c 3bbd d9c0 ebba ae2d 133d 6bc3 d9bc
0.014520514 0.035174634 0.030645175 0.032669425 -0.062038824 0.055871855 -0.022412471 0.00032627195
-0.016980782 0.023547078 0.034042835 0.044731546 0.013118834 -0.015379889 0.048697565 0.048802312
0.044001665 0.06267366 0.01723326 -0.005300617 0.034563225 -0.018437274 -0.043712113 -0.044398498
-0.027476458 -0.015705878 0.019607624 0.0035273496 0.006895212 -0.061350644 -0.064725734 0.047399506
-0.03188031 -0.049887232 0.008160833 -0.025328364 -0.057801805 0.024360461 0.0647264 0.0010954526
0.042930108 -0.019184241 0.010505599 0.02286619 -0.04114225 -0.0060083875 0.040113393 0.04695404
0.058289792 -0.019521853 0.012680814 0.012743447 0.1346237 0.010825266 0.010337942 0.01627446
0.023000529 0.012136545 0.06265833 -0.012976963 0.027480183 0.015764134 0.004885313 -0.025945053
-0.014054522 -0.008806978 0.04432627 0.017988987 -0.031421106 -0.01924682 -0.027761726 -0.015944194
-0.039501335 0.082435414 0.01601504 0.017052822 0.032798175 0.0007177509 0.05683865 -0.000975402
0.043767076 0.022467747 0.013701737 0.013420966 0.021789726 0.008813904 -0.0023731692 0.02300996
0.038330913 0.0338994 0.02019789 -0.018974487 -0.06974008 -0.056351706 -0.021492297 -0.019542007
0.03194099 -0.048784595 0.037487384 0.015988892 0.02329154 0.0010142745 -0.014826861 -0.010778429
0.009280794 0.04152499 -0.018823694 0.002423535 -0.011132908 -0.061004803 0.003517495 -0.0024305147
0.005069298 0.044871613 -0.007462009 -0.028822621 0.02924078 0.043246247 0.062063355 -0.038697433
0.029246408 -0.03722337 0.025687028 -0.0023868836 -0.026578337 0.006453092 0.07303702 -0.00705933
0.043069817 -0.043356482 0.03171746 -0.042574707 -0.04425384 -0.001467961 0.03366301 0.12121965
-0.03218623 -0.01793966 0.04321798 0.030446477 0.04084611 -0.0060803248 0.052254524 -0.052742515
-0.0139860315 -0.027113287 -0.006421091 -0.009146316 -0.028427923 -0.0009116497 0.014108157 0.13473628
0.009473351 -0.0075215255 0.05904485 0.06564467 0.091793455 0.011849001 -0.0029364922 0.007996162
0.009801909 -0.03288457 0.04078199 0.050029833 -0.00632285 0.048219234 0.012189004 0.033112977
0.014124026 -0.057291914 -0.013741172 0.048943322 -0.020850122 0.013353012 -0.034100924 0.004644701
0.05280188 0.03262316 0.013058545 -0.031628814 -0.01202769 0.0039209356 -0.020004824 0.032901738
0.1616584 -0.007949163 0.05828919 0.009596698 0.030986499 -0.044112314 -0.023384755 -0.048504345
0.01242125 0.029155424 0.073228635 -0.021972742 -0.0435906 0.04027737 0.025676647 0.11185788
-0.05340825 -0.032920953 -0.037151434 0.016866708 -0.055201028 -0.023004785 -0.064881265 0.12161622
0.035868544 0.027468178 -0.0362116 0.037708204 0.03682659 -0.010392191 0.0029077174 0.066349365
0.040370457 0.007998205 -0.0044664517 0.027106658 0.016347216 -0.056924324 0.013937428 -0.026027804
0.00032919672 0.01283661 0.015639024 0.059004 0.018083375 -0.00071130507 0.017727308 0.10110653
0.003742912 -0.05785269 0.13121374 -0.020085813 -0.0065400237 -0.009530958 0.0022100918 0.037925843
0.045936465 0.10632371 0.023845423 0.010755315 -0.005480258 0.0067894533 -0.0031365214 -0.0058204955
-0.057842217 0.026731635 0.021237887 0.03172979 -0.045803323 -0.001798655 0.035932235 -0.02658244

action_model._discrete_distribution.branches.2.bias f4 [2]
00000000: ab53 563d af53 56bd
0.052325886 -0.0523259
