results/MoveToButton_7/ButtonPress/ButtonPress-499979.onnx (onnx, 352736 bytes, 13 tensors)

discrete_act_size_vector f4 [1, 4]
3.0 3.0 2.0 2.0
00000000: 0000 4040 0000 4040 0000 0040 0000 0040

network_body._body_endoder.seq_layers.0.weight f4 [256, 65]
-0.1024104 0.048059955 -0.2532709 0.019728014 -0.04120897 -0.024136895 0.08843229 -0.03613202
-0.19068652 -0.098331556 0.013423146 0.31235644 0.26207635 -0.120973945 -0.15453985 0.009543301
0.42402565 0.1111119 0.14301503 0.11761786 -0.15710618 0.22213317 -0.019879084 -0.022147767
0.051626626 -0.18641913 0.106624566 0.08779992 -0.1682385 -0.32747436 0.07070735 0.2031705
0.07362977 -0.19434261 -0.051982544 0.011196227 0.20875882 -0.01533077 -0.076252334 -0.20090908
-0.209185 0.07591505 0.13684297 -0.18273883 -0.03227043 -0.14664067 -0.1125235 0.11995778
0.0022659022 -0.15742199 0.23515984 0.22066185 -0.15750381 -0.12239412 -0.11908168 -0.0951895
-0.1608246 0.17111166 0.014945343 -0.2963926 -0.034365542 0.17278212 -0.06211801 -0.0006213478
-0.002659764 0.112574466 0.13904175 -0.008213996 -0.16087705 0.22989558 0.08618182 0.07974674
-0.10857528 0.06555899 -0.08415306 -0.034895208 -0.22774938 0.0047714156 0.20355672 0.107155986
-0.13748448 0.34202808 -0.13609706 -0.11318528 -0.17202109 -0.022426369 0.050334778 -0.15454681
-0.08665443 -0.07706809 0.11131619 0.06355486 -0.09745871 -0.22138418 -0.09676318 -0.19360372
-0.08502902 -0.2702931 0.13120459 -0.08711824 0.20239758 0.04981124 -0.09036613 0.06482504
0.2183647 0.15303096 -0.0056732115 0.09579704 -0.05847977 0.1853054 0.14081146 0.1312583
0.10117378 -0.17143506 -0.0072579016 0.06964654 -0.18724036 -0.0030389442 0.25882182 -0.09156298
-0.11779454 0.036521547 0.058765244 0.027963134 0.19013712 -0.14995381 0.0005108204 -0.17661567
0.25749645 -0.16279915 -0.18095939 -0.24542825 0.23216495 -0.27769625 0.00924351 -0.0025421507
-0.034932856 -0.0012698862 0.07741513 -0.0011661521 0.009794545 0.023966804 0.23870695 -0.1490043
-0.08603042 -0.009193403 -0.0022652787 0.27457213 -0.085934415 -0.012806622 0.10174615 -0.039312243
0.056751583 -0.12654975 0.14770152 -0.05766716 0.09085694 -0.0031631477 0.12990408 0.047394395
0.1456685 0.14559747 0.032005563 -0.14760374 4.531945e-06 -0.019114474 0.08505436 0.054264642
0.18472396 0.116679646 -0.2163682 -0.059693176 -0.04145107 -0.053657357 0.0038145871 -0.04262257
-0.23806769 0.113348335 0.00021311593 -0.004796439 0.2391355 0.12026623 0.010373804 -0.21162395
-0.097549565 0.20301113 -0.19601019 -0.09667259 0.097655065 0.09521651 -0.09215566 0.08911911
0.006835015 0.12972532 0.1666634 0.011074114 0.02339538 -0.10862531 0.05283991 0.07760235
0.111004844 -0.31526285 -0.11904504 -0.03803257 0.0039632334 -0.0051316232 0.24577622 0.29297376
0.010631229 -0.10939631 0.017840546 0.020079358 -0.27796584 0.11905888 0.010271248 -0.1015229
0.029696349 0.039765153 -0.2003541 -0.06000709 -0.16906634 -0.02820683 -0.045955308 -0.011795344
0.13130987 0.011914773 -0.033731014 -0.06342301 -0.17163113 -0.14660302 -0.13388672 0.086120844
-0.2523321 -0.13174649 -0.3138398 -0.11701516 0.106285006 0.13381955 -0.09896298 0.21520138
-0.1596752 0.084733635 -0.06331714 0.15358089 0.06177433 0.027938548 -0.29228207 -9.466779e-05
-0.093662776 -0.008002552 -0.07128806 -0.019258982 -0.41508725 0.14698003 0.039570455 -0.15137626
00000000: 8bbc d1bd 84da 443d b9ac 81be a59c a13c
00000010: bdca 28bd bdba c5bc fd1b b53d 2bff 13bd
00000020: 5443 43be 0e62 c9bd c1ec 5b3c 2fed 9f3e
00000030: df2e 863e 30c1 f7bd b23f 1ebe 815b 1c3c
00000040: e419 d93e a38e e33d 8872 123e a2e1 f03d
00000050: 71e0 20be e176 633e 76d9 a2bc 3c6f b5bc
00000060: 7176 533d a8e4 3ebe fb5d da3d 72d0 b33d
00000070: b746 2cbe b8aa a7be 04cf 903d ed0b 503e
00000080: 34cb 963d c001 47be a6eb 54bd 6170 373c
00000090: dfc4 553e e92d 7bbc 2f2a 9cbd 1cbb 4dbe
000000a0: 9834 56be 5a79 9b3d 9020 0c3e e31f 3bbe
000000b0: 002e 04bd f928 16be b972 e6bd 6dac f53d
000000c0: 887f 143b 3b33 21be becd 703e 2ef5 613e
000000d0: ae48 21be c5a9 fabd 19e1 f3bd b6f2 c2bd
000000e0: 34af 24be e537 2f3e 50dd 743c c5c0 97be
000000f0: e2c2 0cbd cced 303e 746f 7ebd f2e1 22ba
00000100: 6f4f 2ebb 718d e63d f660 0e3e ff93 06bc
00000110: f4bc 24be bf69 6b3e 1880 b03d 4252 a33d
00000120: b75c debd cb43 863d 7158 acbd 47ee 0ebd
00000130: 2237 69be 8959 9c3b 2c71 503e 9974 db3d
00000140: bbc8 0cbe 4e1e af3e 075d 0bbe afcd e7bd
00000150: 4c26 30be 81b7 b7bc d72b 4e3d 8541 1ebe
00000160: e177 b1bd e0d5 9dbd bef9 e33d 0d29 823d
00000170: 6f98 c7bd 89b2 62be c62b c6bd 0e40 46be
00000180: b223 aebd db63 8abe 7f5a 063e 0c6b b2bd
00000190: 5041 4f3e df06 4c3d e111 b9bd fec2 843d
000001a0: ff9a 5f3e 26b4 1c3e 59e6 b9bb 3d31 c43d
000001b0: 7c88 6fbd b3c0 3d3e e130 103e 9368 063e
000001c0: 3334 cf3d ac8c 2fbe b1d3 edbb d8a2 8e3d
000001d0: f0bb 3fbe 0629 47bb 4b84 843e 5f85 bbbd
000001e0: 443e f1bd 9e97 153d d3b3 703d f112 e53c
000001f0: 4eb3 423e 7e8d 19be 94e8 053a bdda 34be
00000200: 93d6 833e d2b4 26be 6b4d 39be 8b51 7bbe
00000210: a6bc 6d3e 342e 8ebe 1772 173c 369a 26bb
00000220: c115 0fbd 4f72 a6ba d38b 9e3d 92d9 98ba
00000230: 4d79 203c 0856 c43c 986f 743e 9594 18be
00000240: b830 b0bd ed9f 16bc 1275 14bb b894 8c3e
00000250: 62fe afbd ded2 51bc 4960 d03d e005 21bd
00000260: 5974 683d 4296 01be 113f 173e 6634 6cbd
00000270: 3413 ba3d d04c 4fbb 9305 053e a020 423d
00000280: 202a 153e 8117 153e 4418 033d 6f25 17be
00000290: 1c11 9836 f595 9cbc fb30 ae3d 9a44 5e3d
000002a0: 4728 3d3e bdf5 ee3d a08f 5dbe d580 74bd
000002b0: 99c8 29bd d1c7 5bbd 27fe 793b 0195 2ebd
000002c0: 04c8 73be 2c23 e83d df77 5f39 722b 9dbb
000002d0: f0df 743e 244e f63d e3f6 293c f3b3 58be
000002e0: 11c8 c7bd 26e2 4f3e e5b6 48be 47fc c5bd
000002f0: 61ff c73d e000 c33d 1bbc bcbd 1484 b63d
00000300: 43f8 df3b b7d6 043e cfa9 2a3e 3370 353c
00000310: aba7 bf3c f276 debd a96e 583d fbed 9e3d
00000320: 8256 e33d 226a a1be e3cd f3bd 0ac8 1bbd
00000330: 03de 813b 2d27 a8bb c3ac 7b3e a800 963e
00000340: 9b2e 2e3c 2c0b e0bd 5626 923c 777d a43c
00000350: 8a51 8ebe 24d5 f33d bd48 283c 3deb cfbd
00000360: c245 f33c c9e0 223d a029 4dbe ffc9 75bd
00000370: ba1f 2dbe 0312 e7bc a23b 3cbd 4241 41bc
00000380: 1876 063e 2e36 433c 8829 0abd ece3 81bd
00000390: 12c0 2fbe 1a1f 16be 9a19 09be 2060 b03d
000003a0: ac31 81be 8de8 06be 9caf a0be a5a5 efbd
000003b0: f4ab d93d fe07 093e 1aad cabd c05d 5c3e
000003c0: e581 23be d488 ad3d 6bac 81bd 4f44 1d3e
000003d0: 1407 7d3d 62df e43c ffa5 95be 6288 c6b8
000003e0: 45d2 bfbd 231d 03bc 79ff 91bd 03c5 9dbc
000003f0: 5186 d4be ef81 163e a114 223d 6102 1bbe

network_body._body_endoder.seq_layers.0.bias f4 [256]
-0.08105123 -0.049626797 0.020480609 0.04082849 -0.0036963418 0.015803186 -0.028180389 0.019665493
-0.014132913 -0.01949116 -0.019939167 -0.005131108 -0.026976958 0.015705911 -0.17130308 0.01788827
-0.027776195 0.027528986 -0.011819487 0.046016004 0.014214287 0.014411603 0.0052791415 -0.0160836
-0.03481109 0.022631448 0.0015611808 0.018658847 -0.0707499 -0.19475895 0.010924896 0.004724398
0.02195784 -0.008120024 0.014192251 -0.014466701 0.007803421 -0.017383585 -0.018464854 -0.0017816171
-0.007671057 0.024980653 0.021197652 -0.0056246053 -0.009359836 -0.04097492 0.016862476 -0.010415587
0.028954921 0.028148854 -0.005223691 -0.05064031 0.028114349 0.0452675 0.051184632 -0.016334355
-0.008902788 0.023061456 -0.061384164 -0.029931063 -0.010447165 0.026504617 -0.015677087 -0.021796491
-0.0063603343 -0.0121476455 -0.013379728 0.011430801 0.014881346 0.068977736 0.042920187 0.0346099
0.033091016 0.015983762 0.042850163 -0.01655339 -0.030950973 0.028202528 -0.033507425 -0.03103751
0.025629587 0.011502019 0.037848115 -0.0037997242 -0.03786534 0.053093325 0.042085875 0.008215061
0.0006075869 -0.009355275 0.023710774 0.012083945 0.011384909 0.018141605 0.01438326 -0.008811204
-9.840478e-05 0.021177275 0.011162383 -0.021239566 -0.01412029 0.010567329 -0.0006841859 -0.018172733
-0.03930436 -0.0048468104 -0.024803681 0.040698953 -0.027422955 0.0118325865 0.03357313 -0.0056259003
0.02702192 -0.008088582 0.023404252 -0.006442091 -0.0134168025 0.012653764 -0.028208451 -0.012728766
-0.000836903 -0.07012254 0.007403565 -0.0038262927 -0.0012941624 0.011981202 0.03333177 -0.0047333324
-0.12701562 -0.010597645 -0.007087313 0.031946328 -0.007479217 -0.026036581 -0.1711257 -0.032156147
0.03270422 -0.0069131786 -0.018203836 -0.026110426 -0.040311728 0.0019871066 0.009233294 0.03514849
0.011013575 0.009644376 -0.09368754 0.0030875215 0.014494177 0.02460606 0.01317689 0.0085216705
-0.045417696 -0.0044199177 -0.014217272 -0.014628846 0.025055269 -0.042907435 -0.05475449 0.008857618
0.02292293 0.040553365 0.025511032 0.060189787 0.008899143 0.003575096 0.034326144 -0.13279006
0.015023699 -0.01391178 -0.01771533 0.01621996 0.0047448743 0.038557738 -0.040433846 0.057532072
0.015791407 0.00021272736 -0.03501995 0.03168151 0.025905648 0.04116849 0.01156304 0.0101698795
-0.046144027 -0.027521554 0.0069383527 0.03122891 0.021230048 0.024754247 -0.0025785775 -0.011308697
-0.0123732565 0.042253446 -0.0027267158 -0.003039657 0.026698608 -0.03656405 -0.0019566775 -0.110828176
0.012553563 0.025384959 0.05506771 -0.010370378 0.041402042 -0.026597928 -0.039634813 -0.00039711667
0.03371478 -0.09872024 0.01612008 -0.019169513 -0.006766859 -0.023146573 0.037907884 0.017848052
-0.0027581428 0.02020923 0.037031732 0.03518424 0.08743209 -0.010562166 0.007919455 -0.045281734
-0.034240663 0.005230245 -0.034250297 -0.035388995 0.04113452 -0.0036824637 -0.025478011 -0.0073371143
-0.043356404 -0.060318016 0.00203149 0.0111335935 -0.0060600988 -0.019520564 -0.032372355 0.028731087
-0.048812397 0.040420234 -0.0042344523 -0.024954008 -0.00036124166 -0.016015032 -0.036053963 -0.033866182
0.0017276339 -0.036103375 0.0002835963 -0.016830908 0.00043006698 0.005674735 -0.033343695 -0.022655692
00000000: 30fe a5bd 7845 4bbd f3c6 a73c c63b 273d
00000010: 533e 72bb af75 813c 8fda e6bc 8719 a13c
00000020: bc8d 67bc edab 9fbc 7757 a3bc db22 a8bb
00000030: c8fe dcbc afa9 803c 136a 2fbe 6c8a 923c
00000040: e78a e3bc 7884 e13c 86a6 41bc 477b 3c3d
00000050: 0ae3 683c a51e 6c3c a6fc ac3b c1c1 83bc
00000060: 1396 0ebd 9665 b93c 89a0 cc3a 70da 983c
00000070: 53e5 90bd e46e 47be 56fe 323c 1fcf 9a3b
00000080: eee0 b33c d909 05bc 9d86 683c be05 6dbc
00000090: d7b3 ff3b 0568 8ebc 9b43 97bc 2685 e9ba
000000a0: 7d5d fbbb 3aa4 cc3c b3a6 ad3c 9c4e b8bb
000000b0: ff59 19bc 51d5 27bd 2d23 8a3c 23a6 2abc
000000c0: df32 ed3c 6d98 e63c 7f2b abbb 376c 4fbd
000000d0: 1050 e63c 6a6a 393d faa6 513d a0cf 85bc
000000e0: 00dd 11bc 61eb bc3c f66d 7bbd fd31 f5bc
000000f0: 962a 2bbc 3620 d93c 3c6d 80bc 8e8e b2bc
00000100: 5a6a d0bb eb06 47bc a636 5bbc 4148 3b3c
00000110: e4d0 733c 3344 8d3d 14cd 2f3d 1cc3 0d3d
00000120: 728a 073d 61f0 823c a783 2f3d fa9a 87bc
00000130: e58c fdbc fd08 e73c 153f 09bd 6042 febc
00000140: 24f5 d13c f772 3c3c a006 1b3d cb04 79bb
00000150: b018 1bbd 6378 593d 3d62 2c3d 7798 063c
00000160: 7746 1f3a de46 19bc 193d c23c bdfb 453c
00000170: c587 3a3c b49d 943c c4a7 6b3c de5c 10bc
00000180: aa5e ceb8 f77b ad3c 6de2 363c 99fe adbc
00000190: ca58 67bc 9722 2d3c f05a 33ba fcde 94bc
000001a0: 9cfd 20bd fed1 9ebb 1731 cbbc f2b3 263d
000001b0: 1ba6 e0bc 77dd 413c fa83 093d 7959 b8bb
000001c0: 135d dd3c f985 04bc 46ba bf3c 2d18 d3bb
000001d0: 26d2 5bbc bc51 4f3c 6915 e7bc 508c 50bc
000001e0: 9c63 5bba 689c 8fbd 9b99 f23b 8ac2 7abb
000001f0: e2a0 a9ba ce4c 443c e586 083d 121a 9bbb
00000200: 6210 02be bfa1 2dbc b13c e8bb 27da 023d
00000210: 3814 f5bb ab4a d5bc 933b 2fbe 2ab6 03bd
00000220: dcf4 053d f287 e2bb 3620 95bc 88e5 d5bc
00000230: e91d 25bd 1e3a 023b 3e47 173c ddf7 0f3d
00000240: 4872 343c 7203 1e3c 41df bfbd 0458 4a3b
00000250: fc78 6d3c a692 c93c e2e3 573c 7a9e 0b3c
00000260: e807 3abd f5d4 90bb 90ef 68bc d4ad 6fbc
00000270: b540 cd3c b5bf 2fbd 3e46 60bd 8b1f 113c
00000280: dec8 bb3c 491b 263d 83fc d03c 9189 763d
00000290: b6cd 113c 284c 6a3b 9299 0c3d 1efa 07be
000002a0: f625 763c 3cee 63bc bd1f 91bc b9df 843c
000002b0: e47a 9b3b b8ee 1d3d f69d 25bd c0a6 6b3d
000002c0: fb5c 813c 910f 5f39 1471 0fbd 79c4 013d
000002d0: 1538 d43c 4aa0 283d e872 3d3c 919f 263c
000002e0: 8501 3dbd e274 e1bc 1f5b e33b c5d3 ff3c
000002f0: a3ea ad3c 6bc9 ca3c 5afd 28bb 1d48 39bc
00000300: 33b9 4abc f311 2d3d b3b2 32bb fb34 47bb
00000310: 0ab7 da3c 2fc4 15bd 9a3b 00bb e2f9 e2bd
00000320: 76ad 4d3c 1ef4 cf3c ae8e 613d 85e8 29bc
00000330: 3095 293d e6e3 d9bc 1d58 22bd 1934 d0b9
00000340: 8218 0a3d d62d cabd 420e 843c 6209 9dbc
00000350: 87bc ddbb e29d bdbc 4c45 1b3d 1436 923c
00000360: f5c1 34bb d48d a53c 96ae 173d 5a1d 103d
00000370: 980f b33d ef0c 2dbc 9ac0 013c 5779 39bd
00000380: f03f 0cbd 7a62 ab3b 0a4a 0cbd 0df4 10bd
00000390: ac7c 283d 7d55 71bb 43b7 d0bc 2d6c f0bb
000003a0: 7c96 31bd 0610 77bd bf22 053b ad69 363c
000003b0: cb93 c6bb 97e9 9fbc e098 04bd 755d eb3c
000003c0: 82ef 47bd b08f 253d 29c1 8abb 596c ccbc
000003d0: 0965 bdb9 f531 83bc 52ad 13bd 44b7 0abd
000003e0: c671 e23a 22e1 13bd a7af 9439 f9e0 89bc
000003f0: 9d7a e139 21f3 b93b 6693 08bd 6e98 b9bc

network_body._body_endoder.seq_layers.2.weight f4 [256, 256]
-0.07583527 0.07910559 -0.060825437 -0.021924945 -0.018579302 0.13338493 -0.07197185 -0.07772178
0.07163016 0.06353524 0.12599887 0.007830437 -0.022404602 -0.04008371 -0.039420158 0.15994932
0.004471326 -0.018433414 -0.050990928 -0.015287095 -0.038006987 0.014434601 0.06312631 -0.054178126
-0.0054433513 0.045704637 -0.06644042 -0.048855033 -0.11789386 -0.16572677 -0.042406 0.025716027
-0.051896505 0.072833814 0.016541515 0.19610783 -0.029485846 0.007473759 -0.08018396 -0.031319793
-0.014236862 -0.07323113 -0.1440738 -0.035301358 0.06797233 0.063879386 -0.0007082989 0.10095905
0.086346924 -0.10121372 0.06332301 -0.105604574 0.023997232 0.010706077 -0.053838708 0.04674542
0.06768566 0.11749559 -0.07401253 0.028211277 -0.00886794 0.058850013 0.079447135 0.0039605303
-0.008449746 -0.13949046 -0.13548182 0.07218615 -0.08977665 0.23222975 0.008460995 0.039030727
0.029116109 0.07405256 0.17959687 0.1301803 0.12398947 0.019341502 -0.06700246 -0.07687811
-0.00895784 -0.023727112 0.114764675 0.06506455 0.009561868 0.08989611 0.11916533 0.044525586
0.056662746 0.09964145 0.07456413 0.1348703 0.08155795 0.053916812 -0.07603301 -0.0957236
-0.18311419 0.06378645 -0.035996955 0.14301024 -0.13335733 -0.0624703 -0.08672106 0.118578956
-0.03716617 0.06734228 0.0059291897 0.083817184 0.14184816 0.033314157 0.002830198 -0.050924346
-0.03821985 0.093152985 0.0740055 -0.019545177 0.009232764 0.011575191 -0.11813298 0.028286926
-0.0035957205 0.06284233 0.024972852 0.059212904 -0.057641324 0.14414304 0.058431115 0.0041197552
-0.060506765 0.123930246 -0.02479527 0.0070699747 -0.06949527 0.007986965 0.07699414 0.044987194
-0.21540739 -0.076477736 0.08530336 -0.036774885 0.089878656 0.02655809 0.07714864 -0.011679885
-0.047944665 0.10550468 -0.07580174 0.022380395 -0.06353912 -0.015381119 0.01826681 -0.0050258418
0.12339074 0.05460484 -0.077084534 -0.08305359 -0.03421141 -0.09045672 -0.0029716813 -0.042019542
0.031634394 0.04351954 -0.08355126 -0.07275238 0.07408024 0.08894246 0.026861105 0.0034887737
-0.12326254 0.07398896 0.071889326 0.1754159 -0.011777094 0.042976856 -0.04188514 0.0024416656
0.084531605 0.056850396 0.07533641 -0.005937005 0.12508273 0.06175541 0.08691517 0.019215252
-0.056711335 0.06069857 -0.032332055 -0.022805016 0.07591999 0.045005675 -0.06676042 0.013913499
0.0720231 0.10844291 0.058609694 -0.2013052 0.01693016 0.011366335 -0.0077633113 -0.045079727
0.0980294 0.06430107 0.03417127 -0.01651696 0.10490514 0.091034 0.05867747 0.12900195
-0.0990302 -0.030737039 0.076997705 0.115027115 -0.042259555 -0.05433206 0.04310781 -0.08603319
-0.0060558254 -0.06597482 0.003172005 0.12755594 0.007212702 0.052604064 -0.04442912 -0.12012588
0.023442483 -0.110894814 -0.13229194 -0.0477258 0.022073919 0.0010373872 0.009745843 0.079548314
0.037908416 0.05003199 -0.09866221 -0.06400972 -0.06563687 0.15729056 -0.00043329396 0.13595717
-0.003379573 0.007985285 -0.050180554 0.06942448 0.071404666 0.035023026 0.0902858 -0.0013787865
-0.067118555 -0.007834637 0.067026034 0.20461175 -0.030814407 0.04685368 -0.13090406 -0.017207783
00000000: 864f 9bbd 1d02 a23d 1824 79bd f19b b3bc
00000010: 9f33 98bc 0f96 083e fa65 93bd 992c 9fbd
00000020: d5b2 923d c41e 823d d905 013e 3c4b 003c
00000030: db89 b7bc d12e 24bd 0877 21bd c1c9 233e
00000040: 3384 923b ac01 97bc dddb 50bd b976 7abc
00000050: 37ad 1bbd 1b7f 6c3c 5e48 813d e2e9 5dbd
00000060: 245e b2bb c934 3b3d ea11 88bd 371c 48bd
00000070: 5672 f1bd 47b4 29be eab1 2dbd 6baa d23c
00000080: 6e91 54bd e529 953d 1282 873c 7ed0 483e
00000090: 4d8c f1bc 6fe6 f43b 7d37 a4bd 2f49 00bd
000000a0: ba41 69bc 34fa 95bd 1588 13be 2898 10bd
000000b0: 1435 8b3d 32d3 823d 22ad 39ba 9ec3 ce3d
000000c0: a8d6 b03d 2449 cfbd 7faf 813d 3647 d8bd
000000d0: d895 c43c 8b68 2f3c fa85 5cbd 2078 3f3d
000000e0: c89e 8a3d 87a1 f03d e293 97bd 561b e73c
000000f0: d64a 11bc b60c 713d 2eb5 a23d 56c7 813b
00000100: ce70 0abc 96d6 0ebe bfbb 0abe 55d6 933d
00000110: d2dc b7bd a3cd 6d3e fc9f 0a3c afde 1f3d
00000120: e884 ee3c dea8 973d 3ee8 373e fc4d 053e
00000130: 31ee fd3d 1272 9e3c 9638 89bd 4572 9dbd
00000140: e7c3 12bc 5c5f c2bc be09 eb3d 9040 853d
00000150: 62a9 1c3c 741b b83d f40c f43d 7660 363d
00000160: 3217 683d d110 cc3d 14b5 983d 711b 0a3e
00000170: db07 a73d e0d7 5c3d 32b7 9bbd bc0a c4bd
00000180: 4982 3bbe 78a2 823d 8b71 13bd 4771 123e
00000190: d38e 08be dbe0 7fbd d09a b1bd 86d9 f23d
000001a0: 8e3b 18bd c0ea 893d a649 c23b 58a8 ab3d
000001b0: a540 113e 6d74 083d d87a 393b 0c96 50bd
000001c0: 6b8c 1cbd fec6 be3d 3290 973d 351d a0bc
000001d0: 0545 173c dfa5 3d3c b4ef f1bd fcb9 e73c
000001e0: 2ea6 6bbb 7bb3 803d de93 cc3c 3b89 723d
000001f0: 4f19 6cbd 3c9a 133e 7755 6f3d 03ff 863b
00000200: f1d5 77bd 24cf fd3d 731f cbbc 3fab e73b
00000210: 8953 8ebd c2db 023c 1baf 9d3d 7e44 383d
00000220: c193 5cbe 5ca0 9cbd 87b3 ae3d 43a1 16bd
00000230: 4d12 b83d 5a90 d93c 1b00 9e3d fd5c 3fbc
00000240: a061 44bd d612 d83d f13d 9bbd 1757 b73c
00000250: cc20 82bd 1701 7cbc 47a4 953c d1af a4bb
00000260: 49b4 fc3d 53a9 5f3d 7fde 9dbd 0018 aabd
00000270: 4321 0cbd 5f41 b9bd 8ac0 42bb af1c 2cbd
00000280: 1193 013d 8c41 323d ec1c abbd 33ff 94bd
00000290: 62b7 973d 7727 b63d d20b dc3c e9a3 643b
000002a0: 1271 fcbd 8687 973d b63a 933d 3aa0 333e
000002b0: b6f4 40bc 8008 303d c18f 2bbd 5a04 203b
000002c0: e81e ad3d f6db 683d fa49 9a3d 358b c2bb
000002d0: b015 003e 3ef3 7c3d 9500 b23d 4e69 9d3c
000002e0: 254a 68bd 109f 783d 9e6e 04bd 96d1 babc
000002f0: f17b 9b3d df57 383d b0b9 88bd 72f5 633c
00000300: d980 933d 5117 de3d b810 703d f322 4ebe
00000310: 1eb1 8a3c dd39 3a3c 6063 febb 85a5 38bd
00000320: a3c3 c83d 48b0 833d 2cf7 0b3d 934e 87bc
00000330: 82d8 d63d 0970 ba3d c957 703d 1619 043e
00000340: 58d0 cabd 3ecc fbbc f9b0 9d3d 5693 eb3d
00000350: 5b18 2dbd 4b8b 5ebd d191 303d 2b32 b0bd
00000360: f26f c6bb ce1d 87bd 6ae1 4f3b 069e 023e
00000370: 8858 ec3b 5c77 573d 4ffb 35bd 8f04 f6bd
00000380: 730a c03c d21c e3bd 8a77 07be 217c 43bd
00000390: 5dd4 b43c f0f8 873a 07ad 1f3c 3aea a23d
000003a0: db45 1b3d 58ee 4c3d 6a0f cabd 8717 83bd
000003b0: a06c 86bd c710 213e bb2b e3b9 5b38 0b3e
000003c0: d47b 5dbb b6d4 023c 208a 4dbd 6c2e 8e3d
000003d0: 9c3c 923d 4e74 0f3d c3e7 b83d 66b8 b4ba
000003e0: 7475 89bd d95c 00bc f244 893d be85 513e
000003f0: 7f6e fcbc a5e9 3f3d b70b 06be 56f7 8cbc

network_body._body_endoder.seq_layers.2.bias f4 [256]
0.03751686 0.0080468515 0.017926313 0.021853166 0.014520883 -0.05002372 -0.016353104 -0.02119576
-0.033006538 0.017410276 0.04068615 0.019299505 -0.045452613 0.009134793 -0.023659011 0.0041785846
-0.0050102463 0.046102624 0.021733327 -0.030506326 -0.029963218 -0.016140781 0.01633275 0.019373208
-0.042259034 0.025457898 0.054331496 -0.02629776 -0.038212754 0.022329628 -0.019344976 -0.03416393
-0.0013097216 0.038730696 0.004896705 -0.019960696 0.038718216 0.017970977 0.02364321 0.01165722
-0.015054429 0.024614302 0.029004004 0.04597391 -0.0013471002 -0.02751597 -0.023908732 0.00673827
-0.008752603 0.0057973387 0.007856281 0.0032171868 0.053629544 -0.036398597 0.040034086 0.028973382
0.015121916 0.035076275 -0.022062266 0.0165444 0.0037121347 0.029831452 -0.0004531704 -0.006177547
-0.008515581 0.028192654 -0.019821271 -0.024677271 0.015820978 0.015266451 0.013766033 0.015435538
0.027152903 -2.0971875e-06 0.0071367244 0.013974462 -0.015681664 0.0051997295 0.017931892 0.006229183
0.01971335 0.007384594 -0.0043218983 0.02085984 0.016489996 -0.0017322976 -0.008990301 -0.0044908514
-0.015673418 0.016033392 -0.053181894 -0.031736318 -0.060596354 -0.013287807 -0.026985297 -0.010183292
0.021875007 -0.028558496 -0.01216387 0.0091510415 -0.00868333 -0.012713879 -0.007026531 0.013895619
0.0014682552 -0.01986768 0.0037712625 0.02902712 -0.0034301062 0.01374713 -0.010959369 -0.02776268
0.02053148 0.036578447 0.043330736 -0.016544769 -0.0185861 -0.018331043 0.008319703 0.0062919427
-0.03345917 -0.04426585 0.034015723 0.036520403 -0.060660776 0.01881701 -0.001351829 0.0047608973
0.046816677 -0.025534619 0.042084668 -0.03007852 0.04456499 0.01787279 -0.027233832 -0.021822516
0.0017375284 0.0061608623 0.028619675 -0.014285233 -0.0069310768 0.014138642 -0.012307506 0.0083824415
0.035180565 0.0023238277 0.041025333 0.01132778 0.019923443 -0.037857585 -0.02092827 -0.0077611734
-0.013251312 -0.013419256 0.011363452 -0.011587132 0.010917823 -0.0025840842 -0.039480332 0.035735007
-0.017152334 0.019501852 -0.026813593 0.033836897 -0.012262091 0.010703906 -4.0397765e-05 -0.038690377
0.019116687 0.028674472 -0.024579218 -0.0070623644 0.039360695 -0.041890506 0.0032494257 0.015023564
0.019123672 0.01333424 0.019192679 -0.011343505 -0.03670163 -0.010067861 0.030686906 0.030374704
-0.029139755 -0.023000393 0.032458063 0.008045301 -0.05016734 -0.050365645 0.0044085486 0.032808594
-0.04331636 0.038703892 0.029012825 -0.0027528708 -0.015605113 -0.022068707 0.03526969 -0.034921784
0.0077077895 0.013923639 0.041080363 -0.014645304 0.044207722 0.018274637 -0.037508484 0.059861965
0.0058275904 -0.014037013 0.008074856 -0.037337046 -0.047264844 0.032175805 0.007891715 0.0133140115
0.026155515 -0.025135087 -0.0010369216 -0.008122938 0.034444522 0.010463534 -0.009377848 0.003418715
0.028374055 -0.014756091 0.005940998 -0.0114065325 0.01714935 -0.0330606 0.010017516 0.01649386
4.7179205e-05 -0.005175565 0.04409331 -0.009344097 -0.0058928593 -0.035266645 -0.011808104 0.00050091057
-0.03201203 0.0032959406 0.0681918 0.05433185 -0.04111723 0.016955128 -0.059090912 0.011623537
0.0063511836 -0.037401754 -0.010531456 -0.030825518 -0.01691879 -0.014189468 -0.0098206205 -0.029829431
00000000: 47ab 193d f1d6 033c 34da 923c 6905 b33c
00000010: ffe8 6d3c ace5 4cbd f2f6 85bc bba2 adbc
00000020: dd31 07bd ff9f 8e3c 85a6 263d ff19 9e3c
00000030: 852c 3abd 19aa 153c 8bd0 c1bc 82ec 883b
00000040: fe2c a4bb 1bd6 3c3d 170a b23c 67e8 f9bc
00000050: 6c75 f5bc ac39 84bc 42cc 853c 90b4 9e3c
00000060: cf17 2dbd 158d d03c b48a 5e3d 666e d7bc
00000070: fa84 1cbd a0ec b63c 5b79 9ebc 7aef 0bbd
00000080: f7aa abba 14a4 1e3d 8a74 a03b 9d84 a3bc
00000090: fe96 1e3d df37 933c 68af c13c edfd 3e3c
000000a0: daa6 76bc efa3 c93c ce99 ed3c 234f 3c3d
000000b0: 2f91 b0ba 2c69 e1bc 3fdc c3bc b5cc dc3b
000000c0: 1467 0fbc 9af7 bd3b a1b7 003c 70d7 523b
000000d0: a7aa 5b3d b216 15bd c8fa 233d 9659 ed3c
000000e0: eac1 773c 24ac 0f3d edbb b4bc 1f88 873c
000000f0: 4947 733b 1761 f43c 8097 edb9 056d cabb
00000100: ef84 0bbc 48f4 e63c 3860 a2bc fd27 cabc
00000110: ff9a 813c 2320 7a3c ed8a 613c 57e5 7c3c
00000120: c46f de3c 68bd 0cb6 2fdb e93b 24f5 643c
00000130: d576 80bc 7e62 aa3b e7e5 923c 2d1e cc3b
00000140: e47d a13c 77fa f13b b69e 8dbb 41e2 aa3c
00000150: 0716 873c 430e e3ba 0e4c 13bc fe27 93bb
00000160: 8a65 80bc 7658 833c 42d5 59bd f1fd 01bd
00000170: e233 78bd 1ab5 59bc 4510 ddbc d3d7 26bc
00000180: 3733 b33c 82f3 e9bc f84a 47bc 40ee 153c
00000190: 8744 0ebc e04d 50bc d03e e6bb 73aa 633c
000001a0: 7872 c03a 8bc1 a2bc 4927 773b 48ca ed3c
000001b0: a2cb 60bb a43b 613c ed8e 33bc 8f6e e3bc
000001c0: a231 a83c 48d3 153d 927b 313d e588 87bc
000001d0: e041 98bc fc2a 96bc 5d4f 083c a42c ce3b
000001e0: 7c0c 09bd 1c50 35bd 1254 0b3d 6b96 153d
000001f0: 6f77 78bd 2126 9a3c db2f b1ba 4d01 9c3b
00000200: d8c2 3f3d fa2d d1bc f960 2c3d 3a67 f6bc
00000210: c789 363d f569 923c 7c19 dfbc 22c5 b2bc
00000220: c7bd e33a 0fe1 c93b cf73 ea3c 9c0c 6abc
00000230: 161e e3bb c3a5 673c 6ca5 49bc 8256 093c
00000240: 7f19 103d 5c4b 183b 2e0a 283d 2798 393c
00000250: 7d36 a33c 8e10 1bbd c371 abbc 7151 febb
00000260: 081c 59bc 70dc 5bbc c62d 3a3c f4d7 3dbc
00000270: abe0 323c bd59 29bb 21b6 21bd df5e 123d
00000280: 0d83 8cbc 59c2 9f3c 2ea8 dbbc 8f98 0a3d
00000290: f0e6 48bc 705f 2f3c c570 29b8 cd79 1ebd
000002a0: 999a 9c3c bae6 ea3c 5b5a c9bc 686b e7bb
000002b0: ae38 213d 6195 2bbd 51f4 543b 6525 763c
000002c0: 3fa9 9c3c db77 5a3c f739 9d3c 1cda 39bc
000002d0: 7354 16bd abf3 24bc 1b63 fb3c 5fd4 f83c
000002e0: 7fb6 eebc 526b bcbc bff2 043d 70d0 033c
000002f0: 457c 4dbd 354c 4ebd 9675 903b 4e62 063d
00000300: 7f6c 31bd f987 1e3d 4eac ed3c 8269 34bb
00000310: 96ac 7fbc 6fc9 b4bc f376 103d 250a 0fbd
00000320: a091 fc3b fa1f 643c e243 283d dbf2 6fbc
00000330: 2813 353d b1b4 953c 7fa2 19bd d231 753d
00000340: 5ff5 be3b 80fb 65bc 674c 043c bbee 18bd
00000350: c898 41bd c7ca 033d 404c 013c 0323 5a3c
00000360: 1744 d63c 19e8 cdbc 51e9 87ba 1216 05bc
00000370: b315 0d3d 3e6f 2b3c 8ca5 19bc 850c 603b
00000380: b570 e83c 88c3 71bc b4ac c23b 77e2 3abc
00000390: cb7c 8c3c 8d6a 07bd 8220 243c 221e 873c
000003a0: 49e2 4538 c997 a9bb 309b 343d fc17 19bc
000003b0: e318 c1bb c273 10bd c776 41bc 8a4f 033a
000003c0: 0c1f 03bd b500 583b 24a8 8b3d 138b 5e3d
000003d0: 8a6a 28bd 7be5 8a3c 5009 72bd a670 3e3c
000003e0: 971d d03b 9532 19bd 218c 2cbc cc85 fcbc
000003f0: 4699 8abc f17a 68bc abe6 20bc da5c f4bc

action_model._discrete_distribution.branches.0.weight f4 [3, 256]
0.070129566 -0.015594578 0.012995381 -0.04887353 -0.0041768313 -0.021713577 -0.03361075 0.019148733
0.015125311 0.037049767 0.025150957 0.026414702 0.014352553 -0.011692742 0.039520282 -0.029778574
-0.000107517284 0.03351579 -0.011667917 0.005874964 -0.002277266 0.018647322 -0.00038125325 -0.030642834
-0.01835908 -0.011529929 0.026341774 0.019572765 -0.030741706 0.01412431 0.020320335 0.032184444
0.012250329 0.0037125936 -0.0019033648 0.03751414 0.004790943 0.001413649 -0.005923298 -0.023285482
-0.0041201683 -0.013743733 0.021240732 0.029722663 0.016852431 -0.00872514 -0.0069990177 0.033388644
0.06277582 0.031098576 0.01555083 -0.02379391 0.017454172 -0.021883259 0.022154553 0.036289256
0.028963007 0.01671653 -0.016332999 -0.044036232 0.008573294 -0.012493193 -0.004607578 0.011892952
-0.0022312608 0.05233591 -0.0027625351 0.021121481 0.019034967 -0.024510572 0.010921515 0.035178535
0.0059647406 0.01735341 -0.00043103987 0.01368704 0.003819514 0.029037628 0.008618261 -0.018093873
0.016421594 -0.015406235 -0.014850652 -0.029495252 0.0024546734 0.012117712 0.0068781604 -0.024738325
-0.013322133 0.054334715 -0.016400155 0.017036276 -0.025942804 -0.013520105 0.0013995756 0.011815476
-0.01688003 0.026878743 -0.02747597 -0.0071539185 -0.030342985 0.009125222 -0.0018302867 -0.023136474
0.017794019 -0.0016722467 0.0047082216 0.048729207 -0.009762523 -0.014918867 0.009525016 0.024312165
-0.020300657 -0.0051017446 0.004527427 0.011270127 -0.0018852069 0.048256364 0.0515193 0.0040991837
0.015548333 0.002454233 -0.016692096 0.024417952 -0.022138625 0.021382034 0.0041598915 -0.07538179
0.0030898913 0.015461019 0.025250014 -0.0024152463 0.013038373 -0.007892578 0.0032105916 0.014886067
-0.01791502 0.017795661 0.05826778 0.048764616 0.008562655 0.00892664 0.027651139 0.0006620926
0.038557447 0.011368321 0.02142078 -0.0028501381 0.02787617 -0.037240595 0.012639353 0.008553881
-0.026005885 0.012856376 0.022609761 0.011881125 0.02032328 0.0276145 -0.021914324 -0.021083403
0.041878693 0.035489358 -0.017631983 -0.0072336784 0.0138316555 0.012714124 0.011084974 -0.031346012
0.008825094 0.010970002 -0.015560732 0.036173727 0.013217949 -0.0226144 0.0020330928 0.0018797939
-0.0065468973 -0.04650377 0.015141538 0.02197925 -0.001881753 -0.035822917 0.036482926 -0.004425795
-0.0007891166 0.026188752 0.011234081 0.00983082 0.021997439 -0.008113225 0.016854009 0.010339028
-0.042676467 0.031522866 0.018673446 0.038692757 0.021548228 -0.001444614 0.0124701755 0.015079518
0.03335994 -0.01981284 0.045618694 0.009947906 -0.0008318175 0.0066780923 -0.014632478 -0.00030893335
0.0018075118 0.043083902 -0.013743095 -0.02715723 -0.0026416306 -0.008289738 0.008858765 0.0007681814
0.029909696 0.039017286 -0.03512305 0.0028350826 0.0054856073 -0.017492551 0.028557114 -0.051726963
0.021967817 0.000525052 0.0043906746 -0.045139365 0.044168435 -0.012902181 -0.019445116 0.023568476
-0.025797177 -0.0054488215 -0.0140821235 -0.045544643 -0.018413711 0.014619524 0.026771007 -0.053813677
-0.03564385 0.031155711 0.027917234 0.02730728 -0.008460568 0.0073742964 -0.022205792 0.014550059
0.00417403 -0.018754084 -0.0027487024 -0.005624581 0.021880625 0.00021966212 0.015749805 -0.009852089
00000000: 17a0 8f3d 6780 7fbc 94ea 543c 9c2f 48bd
00000010: cddd 88bb ace0 b1bc 6dab 09bd cedd 9c3c
00000020: 27d0 773c 7fc1 173d 6109 ce3c a563 d83c
00000030: f826 6b3c ea92 3fbc 05e0 213d 32f2 f3bc
00000040: e77a e1b8 da47 093d ca2a 3fbc c582 c03b
00000050: 2f3e 15bb 45c2 983c f2e2 c7b9 ae06 fbbc
00000060: c865 96bc 07e8 3cbc b4ca d73c 1057 a03c
00000070: 08d6 fbbc a669 673c d576 a63c d6d3 033d
00000080: 9bb5 483c fc4e 733b 537a f9ba 6da8 193d
00000090: 58fd 9c3b 304a b93a 3a18 c2bb 32c1 bebc
000000a0: 7a02 87bb 652d 61bc 0b01 ae3c f17c f33c
000000b0: 1c0e 8a3c e4f3 0ebc 0458 e5bb 88c2 083d
000000c0: 9c90 803d 71c2 fe3c e9c8 7e3c 72eb c2bc
000000d0: 0dfc 8e3c 8544 b3bc 777d b53c 0ba4 143d
000000e0: d443 ed3c 1bf1 883c c8cc 85bc 565f 34bd
000000f0: 0077 0c3c 40b0 4cbc 2afb 96bb a8da 423c
00000100: 583a 12bb 2e5e 563d a60b 35bb f506 ad3c
00000110: 38ef 9b3c 65ca c8bc 27f0 323c 5e17 103d
00000120: df73 c33b bd28 8e3c 31fd e1b9 9b3f 603c
00000130: d050 7a3b 52e0 ed3c 9b33 0d3c 9a39 94bc
00000140: 9486 863c 6f6a 7cbc 2650 73bc 07a0 f1bc
00000150: 96de 203b 5e89 463c 3162 e13b 07a8 cabc
00000160: 1345 5abc 148e 5e3d 9e59 86bc a98f 8b3c
00000170: 0186 d4bc 6e83 5dbc f771 b73a b395 413c
00000180: fd47 8abc cf30 dc3c 4915 e1bc 6b6b eabb
00000190: da91 f8bc f581 153c 3be6 efba b488 bdbc
000001a0: c3c4 913c 4a2f dbba 6d47 9a3b 4798 473d
000001b0: fdf2 1fbc 436e 74bc d00e 1c3c 4e2a c73c
000001c0: 904d a6bc 892c a7bb cf5a 943b 57a6 383c
000001d0: 0c19 f7ba 77a8 453d e705 533d 7252 863b
000001e0: 6fbe 7e3c 32d7 203b ddbd 88bc 2808 c83c
000001f0: 105c b5bc 6029 af3c b34f 883b c561 9abd
00000200: c67f 4a3b 3750 7d3c 1ed9 ce3c 1c49 1ebb
00000210: e69e 553c df4f 01bc ca68 523b b1e4 733c
00000220: 85c2 92bc 35c8 913c 32aa 6e3d 68bd 473d
00000230: 614a 0c3c 0b41 123c a484 e23c 4890 2d3a
00000240: 6aee 1d3d 3242 3a3c a27a af3c 62c9 3abb
00000250: 915c e43c 9889 18bd 4a15 4f3c 9425 0c3c
00000260: 4b0a d5bc 8da3 523c 1b38 b93c 0da9 423c
00000270: 027d a63c ce37 e23c ab85 b3bc 1ab7 acbc
00000280: fe88 2b3d 4a5d 113d f370 90bc 7e08 edbb
00000290: 2b9e 623c e74e 503c c09d 353c ad64 00bd
000002a0: 2197 103c 86bb 333c 71f2 7ebc e72a 143d
000002b0: 1990 583c d641 b9bc a33d 053b 6b63 f63a
000002c0: 5b87 d6bb bd7a 3ebd 3714 783c d40d b43c
000002d0: 27a5 f6ba 0dbb 12bd 1f6f 153d 4206 91bb
000002e0: b8dc 4eba cb89 d63c 270f 383c 7311 213c
000002f0: f933 b43c 55ed 04bc 6b11 8a3c 0765 293c
00000300: 85cd 2ebd 1f1e 013d 0ef9 983c 4c7c 1e3d
00000310: e985 b03c 3459 bdba b54f 4c3c 1510 773c
00000320: 6fa4 083d 894e a2bc abda 3a3d 8bfc 223c
00000330: 540e 5aba e6d3 da3b 10bd 6fbc 55f8 a1b9
00000340: 08ea ec3a bf78 303d b82a 61bc d778 debc
00000350: 351f 2dbb aed1 07bc 5a24 113c c85f 493a
00000360: 2e05 f53c 97d0 1f3d 30dd 0fbd cbcc 393b
00000370: 9cc0 b33b 8a4c 8fbc 9cf0 e93c a7df 53bd
00000380: daf5 b33c a5a3 093a a6df 8f3b 0ee4 38bd
00000390: f6e9 343d ab63 53bc 5d4b 9fbc ad12 c13c
000003a0: 9a54 d3bc 078c b2bb b5b8 66bc 058d 3abd
000003b0: 5ad8 96bc ba86 6f3c df4e db3c bb6b 5cbd
000003c0: 49ff 11bd 433a ff3c afb2 e43c 84b3 df3c
000003d0: 329e 0abc 15a4 f13b ece8 b5bc 5f63 6e3c
000003e0: 4dc6 883b 2aa2 99bc 9323 34bb 684e b8bb
000003f0: ff3e b33c 1a55 6639 bc05 813c a86a 21bc

action_model._discrete_distribution.branches.0.bias f4 [3]
0.033730667 0.022462277 -0.07554377
00000000: 2b29 0a3d cf02 b83c b1b6 9abd

action_model._discrete_distribution.branches.1.weight f4 [3, 256]
-0.020662239 0.035074566 0.020816244 -0.046760812 0.022486433 -0.011878485 0.008563108 0.0009260923
-0.0001542952 0.0007097476 -0.022386124 -0.008232982 0.015479183 -0.03304497 0.049735285 0.049848933
-0.029389175 0.0118930405 0.022798194 0.024581429 0.005338074 -0.02127131 -0.032514755 -0.013788622
0.0019302723 -0.030270373 -0.02250795 -0.001988857 0.009811909 -0.013615217 0.02700632 0.014012032
0.03813764 -0.076439485 -0.013602568 0.042543676 -0.07413444 0.014708331 -0.053143132 -0.04097346
0.050369088 -0.026594335 0.020247892 0.023425972 -0.002115896 -0.0016284672 -0.020294469 0.01777267
0.037057918 -0.023953347 -5.2906424e-05 0.028313093 -0.02453513 0.010143931 -0.03650641 -0.007652159
0.03198183 -0.0046361983 -0.04120155 -0.06623862 -0.00070278026 0.024791995 0.0070422455 0.003175268
-0.007674445 -0.027798004 -0.006247263 0.0135653885 -0.030042933 0.0128043145 0.005957755 0.01421429
-0.0061020795 0.020851675 -0.028595293 0.015158831 0.0075614695 -0.016498998 0.012097656 -0.037024297
0.030493619 -0.031234693 0.03642883 -0.06459928 0.011395889 0.0022583394 0.0032288895 -0.0074820393
0.011863313 -0.016110891 0.0046365885 0.03164743 -0.006536295 -0.022882292 -0.0035631398 0.03517209
-0.048325326 -0.002635422 0.025240723 -0.0036795868 -0.022346187 0.035101 -0.011921723 -0.02608048
0.0026243809 0.035825748 -0.014504924 0.002546284 -0.0122146215 -0.009959757 -0.012867531 0.00045241736
0.007065285 -0.049300525 0.024162497 -0.025820278 0.011810224 0.0042920294 -0.009870638 -0.0013963657
-0.015385264 0.00735144 0.014958031 -0.046595715 -0.0010081573 0.0062502045 -0.036664147 -0.0598888
-0.005729657 0.036607675 0.023846343 -0.0061011356 -0.043549128 -0.07155045 -0.012782244 0.0090112435
-0.01485552 -0.035025623 0.033684522 0.037471317 -0.009666104 -0.0046529206 0.024043782 -0.036852606
-0.022875715 0.00891458 -0.02538927 0.025216741 -0.005031073 -0.009845905 -0.011220636 0.024130998
-0.01883968 -0.015291736 -0.016326575 0.009519777 -0.009273178 0.018606747 -0.016792234 0.017934198
-0.0028474669 0.02553397 0.007061263 -0.0026236044 0.020466201 -0.0026106664 -0.023003658 0.021751022
-0.021039829 -0.04019094 -0.011721636 -0.01191793 0.018601486 0.00746852 0.04217461 -0.011217241
0.011037472 -0.03186509 0.038373306 0.0574343 0.027439993 0.02928099 0.028162412 0.03879086
0.01230726 -0.008562995 0.036026195 -0.007925727 0.05113928 0.029125674 -0.015454764 0.002900268
0.009081042 -0.0032285708 0.009823261 0.011311362 0.018421547 0.03204102 0.040968567 0.026340708
-0.010971557 -0.034379274 -0.05289485 -0.00890459 0.006403495 -0.043271106 0.00635533 -0.01092198
0.033747304 -0.00035972695 -0.03132253 0.010742314 0.031039342 -0.008568846 0.04824409 0.017295826
0.036386326 0.011567123 0.0337009 -0.0015131242 0.03962665 0.017007377 0.011751275 -0.042604156
-0.049306463 0.012583531 -0.03634472 -0.012740441 -0.008851345 -0.012656251 0.012231076 0.012387613
-0.037068214 -0.010094887 -0.052576624 -0.035549127 -0.027066266 0.0025017988 0.014069667 -0.03122349
-0.0018158987 0.0039205626 0.0056878994 -0.0083148675 0.003876565 -0.027162416 -0.00082854135 -0.012800395
-0.01111308 0.037827376 0.019487271 -0.02072101 -0.0018971121 0.02533941 0.024781438 0.0063513876
00000000: db43 a9bc 59aa 0f3d d486 aa3c 4488 3fbd
00000010: 7835 b83c fa9d 42bc 474c 0c3c 01c5 723a
00000020: 4dca 21b9 5b0e 3a3a 1b63 b7bc a1e3 06bc
00000030: 669c 7d3c 2a5a 07bd 3ab7 4b3d 652e 4c3d
00000040: 91c1 f0bc 07db 423c 47c3 ba3c fe5e c93c
00000050: 03eb ae3b 2c41 aebc 312e 05bd ace9 61bc
00000060: 3101 fd3a 93f9 f7bc 9862 b8bc 7c57 02bb
00000070: 21c2 203c 5c12 5fbc 5c3c dd3c b992 653c
00000080: 3736 1c3d 4e8c 9cbd 4edd 5ebc 4742 2e3d
00000090: ccd3 97bd 36fb 703c 9dac 59bd c9d3 27bd
000000a0: d14f 4e3d 5ddc d9bc e8de a53c d3e7 bf3c
000000b0: d8aa 0abb 4b72 d5ba 9640 a6bc fe97 913c
000000c0: 0bca 173d cf39 c4bc d7e7 5db8 dcf0 e73c
000000d0: e6fd c8bc bb32 263c bf87 15bd f6be fabb
000000e0: 61ff 023d 40eb 97bb f5c2 28bd 1da8 87bd
000000f0: c93a 38ba 9518 cb3c a3c2 e63b 2818 503b
00000100: e979 fbbb a4b8 e3bc d7b5 ccbb 5d41 5e3c
00000110: 991c f6bc 30c9 513c 4539 c33b 0ee3 683c
00000120: f4f3 c7bb 22d1 aa3c ad40 eabc bf5c 783c
00000130: 34c6 f73b e828 87bc 3f35 463c caa6 17bd
00000140: c1cd f93c e6df ffbc 6636 153d a14c 84bd
00000150: d3b5 3a3c a600 143b c79b 533b e52b f5bb
00000160: 575e 423c fdfa 83bc 86ee 973b bca0 013d
00000170: 6b2e d6bb a573 bbbc 9183 69bb 9c10 103d
00000180: c7f0 45bd 0bb7 2cbb a2c5 ce3c 3925 71bb
00000190: 5a0f b7bc 11c6 0f3d 5553 43bc bba6 d5bc
000001a0: cefd 2b3b 05be 123d 10a6 6dbc 8fdf 263b
000001b0: d61f 48bc 402e 23bc 56d2 52bc 6e32 ed39
000001c0: e883 e73b 59ef 49bd 6ef0 c53c 0c85 d3bc
000001d0: ab7f 413c 27a4 8c3b 75b8 21bc 4206 b7ba
000001e0: 7912 7cbc 59e4 f03b 8712 753c 26db 3ebd
000001f0: 2524 84ba 84ce cc3b 252d 16bd f54d 75bd
00000200: d9bf bbbb eef1 153d 6859 c33c 09ec c7bb
00000210: 9260 32bd 0b89 92bd 9e6c 51bc e5a3 133c
00000220: 9164 73bc 0777 0fbd c8f8 093d 867b 193d
00000230: 945e 1ebc 8777 98bb 77f7 c43c c2f2 16bd
00000240: da65 bbbc 750e 123c 29fd cfbc 5793 ce3c
00000250: b3db a4bb b850 21bc c2d6 37bc 5fae c53c
00000260: ac55 9abc 318a 7abc 4fbf 85bc d7f8 1b3c
00000270: 87ee 17bc 2d6d 983c de8f 89bc bdea 923c
00000280: 919c 3abb 9e2c d13c 2b62 e73b c7f0 2bbb
00000290: bca8 a73c b717 2bbb 2b72 bcbc 332f b23c
000002a0: b85b acbc 419f 24bd 1b0c 40bc 6c43 43bc
000002b0: 2562 983c 7dba f43b 49bf 2c3d 85c8 37bc
000002c0: 83d6 343c f884 02bd 542d 1d3d 3b40 6b3d
000002d0: d6c9 e03c b0de ef3c dcb4 e63c 2ae3 1e3d
000002e0: 64a4 493c ce4b 0cbc 3490 133d e9da 01bc
000002f0: 6c77 513d f798 ee3c fa35 7dbc 6c12 3e3b
00000300: a7c8 143c 6e96 53bb bef1 203c 4a53 393c
00000310: c9e8 963c 723d 033d a8ce 273d 78c8 d73c
00000320: 0cc2 33bc 48d1 0cbd 45a8 58bd 8fe4 11bc
00000330: 69d4 d13b 0b3d 31bd 5f40 d03b 1bf2 32bc
00000340: 9d3a 0a3d bc99 bcb9 0e4c 00bd 8800 303c
00000350: 3846 fe3c 5864 0cbc 989b 453d faaf 8d3c
00000360: d409 153d 0884 3d3c f409 0a3d 0654 c6ba
00000370: 8e4f 223d 0e53 8b3c 6b88 403c b281 2ebd
00000380: 93f5 49bd 282b 4e3c 33de 14bd 48bd 50bc
00000390: 3b05 11bc 2a5c 4fbc da64 483c 6af5 4a3c
000003a0: d7d4 17bd 0665 25bc 965a 57bd f69b 11bd
000003b0: 13ba ddbc 38f5 233b 7684 663c 68c8 ffbc
000003c0: 7303 eeba 1078 803b 8f61 ba3b 153b 08bc
000003d0: f80d 7e3b b783 debc 7832 59ba bfb8 51bc
000003e0: a313 36bc e1f0 1a3d c5a3 9f3c 1cbf a9bc
000003f0: 85a8 f8ba 9894 cf3c 7102 cb3c 4d1f d03b

action_model._discrete_distribution.branches.1.bias f4 [3]
0.016977612 0.0009863974 -0.020844711
00000000: a214 8b3c 014a 813a 87c2 aabc

action_model._discrete_distribution.branches.2.weight f4 [2, 256]
-0.010168432 -0.001135982 -0.029588992 -0.018104536 -0.0062915636 -0.0018076452 0.0013779706 -0.026988488
0.0272439 -0.044180427 -0.043607682 -0.008328102 0.002016216 -0.0169507 0.013291324 0.038734645
-0.020175206 -0.024422426 0.0016002309 0.03973942 -0.037457507 -0.0081392145 -0.048517317 0.0218471
-0.020103136 -0.039346557 -0.041208703 0.018558405 0.0043867207 -0.0134775145 -0.015127113 -0.016726306
-0.013860196 -0.03081102 -0.04566434 -0.0073969495 -0.0036382563 -0.005659158 -0.03863916 -0.03378752
-0.00825805 0.021219121 0.0023562037 -0.0065420545 0.03588104 -0.010422803 0.018301243 -0.022148272
0.0013613997 0.014548976 0.00671875 0.022906303 -0.019142807 0.010366603 -0.03867174 -0.04977379
-0.0054911245 -0.023762755 -0.0058832215 -0.02224279 -0.011080827 0.026079824 0.0013733369 -0.009190184
-0.029258285 -0.042077243 0.0005913084 0.005588997 -0.03705918 0.019262146 -0.023494456 -0.021920653
-0.015143229 0.01614688 -0.024075054 -0.026152015 0.009391388 0.017021693 -0.00057350396 0.008024049
0.013206326 -0.020364493 0.041994937 -0.041755214 -0.0017038517 -0.009413368 0.0010874405 0.013239715
-0.03646221 -0.016382392 -0.011383101 0.0028382197 -0.032912724 0.007241552 -0.025141407 0.01102914
-0.03479458 -0.008730256 0.005266658 -0.043129798 0.020179087 0.04436786 0.0026288375 -0.010581183
0.01694669 0.008396421 0.021992967 -0.019317068 -0.010926435 -0.014886501 -0.02284093 -0.008848032
0.004709002 -0.034956206 0.023416832 0.0001317963 -0.02407587 0.028317405 0.06248469 -0.03970292
0.009915558 0.0071317605 0.026357241 0.022218397 -0.024350822 -0.025370564 0.011357622 -0.003816287
-0.00025196432 -0.0022750285 0.017107287 -0.024090977 -0.0034580892 -0.054985616 0.027127977 0.013861172
0.001345387 -0.046848863 -0.038225938 -0.047571775 -0.022174846 -0.025575733 0.0015981996 -0.029683983
-0.005424299 -0.0172723 -0.0008284461 0.014864201 -0.02771957 -0.0023790237 0.005069809 0.022556093
-0.032878492 -0.028381553 -0.07507754 -0.007900886 0.012657014 -0.008508268 -0.011931399 0.042324234
-0.010028039 0.012296144 -0.036021624 -0.013106062 -0.0072769886 -0.037341435 -0.05761759 -0.038428813
-0.031442195 -0.010075035 0.0117196925 0.013194555 -0.015525641 0.000786776 0.0018781547 0.010344535
-0.0063437563 -0.010040121 0.009221013 -0.0124225225 -0.026427947 0.033623673 -0.013444565 0.027490173
0.018925916 -0.021300044 0.01509292 -0.039930947 0.0038244862 -0.0035963047 -0.003211396 0.0014477408
-0.021378048 0.012659271 0.01632513 -0.07782013 -0.03366356 0.013756706 0.006509235 -0.013545821
0.019077303 -0.03436531 -0.039419215 0.0064327978 -0.0037662552 -0.010031063 -0.021658177 0.0032321298
0.0127911065 0.028855992 0.011511527 0.009614854 -0.013460245 0.011889191 0.014266458 -0.006895653
0.006603649 0.016587578 0.019411867 -0.018499574 0.027446205 0.0057568923 0.024109095 0.04474454
-0.009456772 0.0064816596 0.011305982 -0.038342442 0.024553576 -0.008366509 0.0030414385 -0.039680593
-0.009147853 -0.01790221 -0.007824691 0.0029489363 0.022435822 0.0043653063 0.004798536 0.013039516
0.017924294 0.027496262 -0.02142616 -0.019183792 -0.003835679 -0.056213673 -0.031064529 -0.06666052
0.019002926 0.004848683 -0.035734177 0.0044551217 0.007705971 -0.0067548673 0.023818657 -0.009796576
00000000: 7f99 26bc 3be5 94ba 9d64 f2bc f74f 94bc
00000010: 7629 cebb 82ee ecba 059d b43a f616 ddbc
00000020: 992e df3c 89f6 34bd f89d 32bd 9772 08bc
00000030: 7e22 043b 32dc 8abc dac3 593c 38a8 1e3d
00000040: 7946 a5bc 8a11 c8bc d7be d13a cdc5 223d
00000050: 0b6d 19bd 575a 05bc 18ba 46bd b1f8 b23c
00000060: 55af a4bc db29 21bd 75ca 28bd cc07 983c
00000070: 7bbe 8f3b cbd0 5cbc b6d7 77bc 9b05 89bc
00000080: e015 63bc 6467 fcbc 880a 3bbd 1c62 f2bb
00000090: d06f 6ebb 7570 b9bb 1944 1ebd c864 0abd
000000a0: c64c 07bc b9d3 ad3c 8a6a 1a3b bb5e d6bb
000000b0: fff7 123d 68c4 2abc 7dec 953c 4b70 b5bc
000000c0: fe70 b23a d45e 6e3c f628 dc3b 00a6 bb3c
000000d0: 60d1 9cbc afd8 293c 4266 1ebd 9adf 4bbd
000000e0: e4ee b3bb 1caa c2bc 0ac8 c0bb 8336 b6bc
000000f0: 5b8c 35bc 5ba5 d53c 8a01 b43a 6d92 16bc
00000100: 12af efbc 3059 2cbd 0902 1b3a e823 b73b
00000110: 5ecb 17bd a6cb 9d3c 7277 c0bc f192 b3bc
00000120: 4e1b 78bc 7646 843c 0c39 c5bc c03c d6bc
00000130: 56de 193c 1471 8b3c 3357 16ba 4d77 033c
00000140: 595f 583c 70d3 a6bc e202 2c3d 8407 2bbd
00000150: c753 dfba 873a 1abc 7388 8e3a 64eb 583c
00000160: 6659 15bd 5e34 86bc 3080 3abc 6d01 3a3b
00000170: 7ecf 06bd 8b4a ed3b 5af5 cdbc 91b3 343c
00000180: c384 0ebd 5909 0fbc ee93 ac3b dfa8 30bd
00000190: 9d4e a53c 13bb 353d 9348 2c3b b35c 2dbc
000001a0: c9d3 8a3c 2491 093c 982a b43c d43e 9ebc
000001b0: ca04 33bc 83e6 73bc e71c bbbc 56f7 10bc
000001c0: f94d 9a3b 3d2e 0fbd a8d4 bf3c cd32 0a39
000001d0: c23a c5bc e7f9 e73c f2ef 7f3d 879f 22bd
000001e0: dd74 223c 8bb1 e93b 24eb d73c 5b03 b63c
000001f0: 607b c7bc eed5 cfbc 5215 3a3c ac1a 7abb
00000200: 141a 84b9 a518 15bb 9524 8c3c 715a c5bc
00000210: 1ca1 62bb 9938 61bd 7e3b de3c f819 633c
00000220: b257 b03a 98e4 3fbd cd92 1cbd 9fda 42bd
00000230: 06a8 b5bc 3384 d1bc ae7a d13a d32b f3bc
00000240: 51be b1bb a37e 8dbc 142c 59ba fa88 733c
00000250: 2714 e3bc 65e9 1bbb a420 a63b 8ec7 b83c
00000260: 99ab 06bd 6e80 e8bc 41c2 99bd b872 01bc
00000270: 5d5f 4f3c 4366 0bbc ea7b 43bc 2d5c 2d3d
00000280: a54c 24bc c475 493c 698b 13bd cfba 56bc
00000290: ce73 eebb 55f3 18bd 6c00 6cbd 8867 1dbd
000002a0: 88c9 00bd c211 25bc f403 403c fa2d 583c
000002b0: 425f 7ebc a53f 4e3a 6a2c f63a 207c 293c
000002c0: 49df cfbb 527f 24bc bb13 173c d687 4bbc
000002d0: 6c7f d8bc fab8 093d 9846 5cbc 1233 e13c
000002e0: 860a 9b3c 6e7d aebc 4b48 773c a28e 23bd
000002f0: 3ba4 7a3b fbaf 6bbb 4976 52bb 1fc2 bd3a
00000300: 0421 afbc d568 4f3c 47bc 853c 2960 9fbd
00000310: cde2 09bd cf63 613c 6c4b d53b 4bef 5dbc
00000320: 0148 9c3c a4c2 0cbd 0b76 21bd 38ca d23b
00000330: 47d3 76bb 5459 24bc 7d6c b1bc 24d2 533b
00000340: ca91 513c 6763 ec3c d89a 3c3c 9f87 1d3c
00000350: 5c88 5cbc e2ca 423c ddbd 693c eef4 e1bb
00000360: 6c63 d83b ace2 873c a305 9f3c 6b8c 97bc
00000370: ddd6 e03c 50a4 bc3b 7080 c53c 0d46 373d
00000380: 94f0 1abc 1a64 d43b ba3c 393c f70c 1dbd
00000390: 9524 c93c af13 09bc df52 473b 1e88 22bd
000003a0: e0e0 15bc a8a7 92bc 2233 00bc f142 413b
000003b0: 54cb b73c d80a 8f3b 0a3d 9d3b b2a3 553c
000003c0: f8d5 923c d73f e13c ea85 afbc 5427 9dbc
000003d0: 0460 7bbb 4f40 66bd 0a7b febc 5085 88bd
000003e0: 06ac 9b3c b3e1 9e3b 005e 12bd 45fc 913b
000003f0: 5f82 fc3b ef57 ddbb 581f c33c d181 20bc

action_model._discrete_distribution.branches.2.bias f4 [2]
0.010039946 -0.010039949
00000000: 967e 243c 997e 24bc
