results/MoveToButton_6/ButtonPress.onnx (onnx, 352736 bytes, 13 tensors)

discrete_act_size_vector f4 [1, 4]
3.0 3.0 2.0 2.0
00000000: 0000 4040 0000 4040 0000 0040 0000 0040

network_body._body_endoder.seq_layers.0.weight f4 [256, 65]
0.04499274 -0.20654204 -0.1396166 -0.109630466 0.10552241 0.012599667 -0.11893509 -0.014055584
0.2918232 -0.16503991 0.010346674 -0.127165 0.022434872 0.11267667 -0.0008789771 0.2070105
-0.25159928 -0.15282543 0.04242821 0.016037617 -0.15635155 -0.0429613 0.06496641 -0.20076148
-0.034641277 -0.11049691 0.34885147 0.12953594 -0.037692275 -0.08896828 -0.08807573 0.06085241
-0.07740419 0.14539295 0.07548603 -0.23219386 0.12006239 -0.04487048 0.24225023 0.09118856
-0.323714 -0.018919136 0.14064728 0.16093335 0.031424943 -0.08963619 -0.27806196 -0.055065177
0.08381871 -0.12324815 -0.0024995124 -0.06713924 0.082799554 0.055254802 -0.017360356 0.12979451
-0.14248534 -0.15554106 0.10061454 -0.21522868 0.03437539 0.120096706 0.055650152 0.21732754
-0.21718317 0.15596314 0.25014699 -0.016513757 -0.04644846 -0.08062942 -0.120928325 0.092656046
-0.05875048 -0.06538794 -0.16420096 0.19560434 0.14224504 0.12487017 -0.047625203 -0.23802315
0.28057572 0.14540184 -0.10493998 -0.049738795 -0.2751152 0.013101968 0.30007926 0.080659755
-0.2878299 -0.08978445 0.043743692 0.32243782 0.103967495 -0.18371871 -0.36521512 -0.05360999
0.25492465 -0.028153881 -0.09761029 -0.33994347 -0.07617078 -0.020336295 -0.044005327 -0.18976815
-0.19701323 -0.11722539 0.076763004 0.06268292 -0.17166439 0.048509732 -0.07844431 0.23286994
-0.026883094 -0.08964379 -0.11952917 0.01854273 -0.23957245 -0.036411308 -0.14041992 -0.09659784
-0.019160036 0.19323015 -0.020554382 -0.008425019 -0.19280423 -0.17448747 0.30707842 -0.069917746
-0.09689185 0.0013459581 -0.044125125 0.25673664 -0.0797431 -0.097677894 0.064451024 0.042233337
0.3035084 -0.05803882 -0.108076304 -0.04454742 -0.012867574 0.29854956 -0.2753757 -0.31747547
0.2496933 0.12871651 0.020291958 -0.12478032 -0.043140437 0.26011795 -0.16488262 0.4642091
-0.21596195 0.17913651 1.8751445e-05 0.2776276 -0.009656206 -0.0037504125 0.08000262 -0.12646748
-0.24022661 0.07277655 0.070399255 0.047622856 -0.037052557 -0.03266812 0.08605794 -0.27277905
-0.15938552 -0.027720453 0.059814084 0.28350702 -0.23939143 0.22663622 -0.13598889 -0.015227309
0.015105071 0.0018519831 0.118060775 0.03213534 -0.050190244 -0.047191788 0.014368255 -0.061822787
0.009271182 0.23446114 0.3158268 0.24526156 0.092092425 -0.079480626 0.26763183 0.28071958
0.25776926 -0.17437424 0.06141589 -0.11680736 0.14788258 -0.18997344 -0.1483326 0.075354874
-0.009033989 -0.0150304735 -0.02286941 -0.21761082 0.00822156 -0.007818645 0.123260304 -0.22033145
0.18232033 -0.15385921 -0.02856818 -0.0029672054 -0.1369153 0.19148922 -0.23415403 -0.0351492
0.28148618 0.10670205 -0.3509099 -0.07215785 0.062223934 -0.23088486 0.057046916 -0.1517203
0.14733364 -0.1423288 0.28834444 -0.18226157 0.115928605 0.110091604 -0.19072069 -0.0993602
0.07929023 0.092980936 0.24364944 -0.079647705 0.24544117 -0.13955742 0.014601817 -0.112795144
-0.054608468 0.15922779 0.17293471 0.15966001 0.17453334 0.041663777 0.24165016 -0.008647369
-0.06185199 -0.13514364 0.11099405 -0.059790194 -0.073554024 -0.018392008 0.113898404 -0.11277582
00000000: 4f4a 383d c27f 53be a7f7 0ebe f085 e0bd
00000010: 221c d83d d56e 4e3c 3e94 f3bd 6449 66bc
00000020: da69 953e 3900 29be 1985 293c 8b37 02be
00000030: 56c9 b73c 07c3 e63d 286b 66ba 8ffa 533e
00000040: 9fd1 80be 457e 1cbe 34c9 2d3d 5261 833c
00000050: 9f1a 20be 30f8 2fbd 1c0d 853d 6b94 4dbe
00000060: 03e4 0dbd 344c e2bd a99c b23e 12a5 043e
00000070: 3763 1abd 0035 b6bd 0c61 b4bd 6040 793d
00000080: 1786 9ebd e4e1 143e 6b98 9a3d 3ac4 6dbe
00000090: 45e3 f53d 1cca 37bd 7210 783e 11c1 ba3d
000000a0: d7bd a5be 4efc 9abc d705 103e b6cb 243e
000000b0: 71b7 003d 2e93 b7bd 235e 8ebe 068c 61bd
000000c0: 25a9 ab3d 8769 fcbd dcce 23bb 4c80 89bd
000000d0: d092 a93d dc52 623d 4e37 8ebc dae8 043e
000000e0: ade7 11be 2846 1fbe ff0e ce3d e864 5cbe
000000f0: 35cd 0c3d 43f5 f53d 6af1 633d 1c8b 5e3e
00000100: 4465 5ebe cdb4 1f3e 4413 803e dc47 87bc
00000110: be40 3ebd 0a21 a5bd 45a9 f7bd 74c2 bd3d
00000120: 58a4 70bd 1dea 85bd 4c24 28be 814c 483e
00000130: afa8 113e efbb ff3d a512 43bd 57bc 73be
00000140: 9fa7 8f3e 38e4 143e c6ea d6bd e8ba 4bbd
00000150: e6db 8cbe a3a9 563c fda3 993e f130 a53d
00000160: 715e 93be e9e0 b7bd 962c 333d 9216 a53e
00000170: e9ec d43d c220 3cbe 7afd babe 2696 5bbd
00000180: 7c85 823e f8a2 e6bc e7e7 c7bd 120d aebe
00000190: 6dff 9bbd 4d98 a6bc ee3e 34bd 9552 42be
000001a0: d6bd 49be de13 f0bd ec35 9d3d e75f 803d
000001b0: cac8 2fbe 24b2 463d 69a7 a0bd 7575 6e3e
000001c0: ef39 dcbc 2a97 b7bd b6cb f4bd ece6 973c
000001d0: 7b52 75be 0624 15bd 3dca 0fbe 17d5 c5bd
000001e0: 82f5 9cbc 20de 453e aa61 a8bc 1709 0abc
000001f0: 796e 45be d8ac 32be 6239 9d3e 0931 8fbd
00000200: 3c6f c6bd dc6a b03a 8cbc 34bd fc72 833e
00000210: 5a50 a3bd 590b c8bd e6fe 833d ddfc 2c3d
00000220: 7465 9b3e 1dba 6dbd 1c57 ddbd 5b77 36bd
00000230: 84d2 52bc 7ddb 983e 0bfe 8cbe 258c a2be
00000240: 9aaf 7f3e 43ce 033e 523b a63c d38c ffbd
00000250: 07b4 30bd 2e2e 853e fdd6 28be d1ac ed3e
00000260: 2125 5dbe 906f 373e 6c4c 9d37 3425 8e3e
00000270: 1035 1ebc 7bc9 75bb 6ad8 a33d b180 01be
00000280: f7fd 75be df0b 953d 7c2d 903d 2f10 433d
00000290: 6cc4 17bd 02cf 05bd 253f b03d b2a9 8bbe
000002a0: f535 23be 0116 e3bc 9dff 743d d527 913e
000002b0: 0723 75be 5313 683e ac40 0bbe f77b 79bc
000002c0: 427b 773c 3ebe f23a d9c9 f13d 59a0 033d
000002d0: 4994 4dbd 2d4c 41bd d468 6b3c e439 7dbd
000002e0: 28e6 173c 9516 703e 0db4 a13e d925 7b3e
000002f0: f49a bc3d bdc6 a2bd 0a07 893e 7aba 8f3e
00000300: 55fa 833e 298f 32be 3a8f 7b3d b238 efbd
00000310: 886e 173e 6688 42be 80e4 17be a853 9a3d
00000320: 4c03 14bc 6042 76bc a158 bbbc 5fd5 5ebe
00000330: b9b3 063c c619 00bc e66f fc3d 919e 61be
00000340: 2eb2 3a3e 458d 1dbe d107 eabc 7275 42bb
00000350: 8633 0cbe c015 443e 13c6 6fbe 9cf8 0fbd
00000360: f51e 903e 9b86 da3d 76aa b3be 7fc7 93bd
00000370: 86de 7e3d 156d 6cbe 07aa 693d 915c 1bbe
00000380: a1de 163e a4be 11be e2a1 933e c7a2 3abe
00000390: fa6b ed3d b577 e13d 494c 43be 5c7d cbbd
000003a0: eb62 a23d ca6c be3d 3d7f 793e 561e a3bd
000003b0: ee54 7b3e 24e8 0ebe 763c 6f3c 2401 e7bd
000003c0: 21ad 5fbd 9c0c 233e cc15 313e ea7d 233e
000003d0: deb8 323e a3a7 2a3d 2473 773e b2ad 0dbc
000003e0: 8358 7dbd 1863 0abe d950 e33d 90e6 74bd
000003f0: 7ea3 96bd d6aa 96bc 9143 e93d 02f7 e6bd

network_body._body_endoder.seq_layers.0.bias f4 [256]
0.045031786 -0.030199299 0.068881765 0.007041651 -0.00024464575 -0.058253784 -0.0045461296 -0.037899174
-0.030452745 -0.014419249 0.093480825 -0.01733543 -0.018867845 0.063191384 -0.024252968 0.0064230897
0.0066570397 0.03746538 0.0022734436 0.005889992 0.0015488515 -0.008027825 -0.03150874 0.0017517521
0.041778605 -0.040127836 0.0061719446 -0.0120620215 0.029715022 0.024783446 -0.0397458 -0.0048494665
-0.008661775 0.019842677 0.00088625797 -0.01623941 0.009519324 -0.03012642 -0.008672297 -0.0060108616
0.0012696614 -0.005586185 -0.016329348 0.022171875 0.02337826 -0.0019699135 -0.015859226 -0.006316939
0.029929006 -0.036558505 -0.012271222 -0.004582421 0.0008103567 0.009709282 0.03100303 -0.008186622
0.011936973 -0.014013185 0.0026399929 0.02432817 -0.021470807 0.013678281 0.0014783641 0.015117562
-0.0073527168 -0.028175058 -0.034987994 0.011352539 -0.042615943 -0.004715091 -0.103179894 -0.030714912
0.0008182467 -0.02976621 -0.005194709 -0.020749083 0.021786746 -0.037089758 0.011200958 -0.045182955
-0.019896949 0.007749672 0.03317005 0.03184818 0.013600959 -0.013862548 0.03356761 0.0006684817
-0.007502742 0.016714115 -0.01804659 -0.00029302464 -0.0052982364 -0.014203736 -0.016046615 -0.0075460034
-0.042160533 0.021386407 -0.028820401 0.026673734 -0.0045603258 0.017393243 0.035104558 0.051331278
0.05325414 0.011666424 0.02101364 -0.040031526 0.0053401617 0.012741271 0.012236346 0.028714212
-0.0050530983 0.028333403 0.01128262 -0.0543412 0.028273478 0.00618178 0.0074856863 -0.017941436
0.010251926 0.051899567 0.07528686 -0.0026694094 0.038652014 0.007859075 -0.06712444 -0.00677104
0.027585547 0.0053932467 0.018209193 -0.009622842 0.015430192 -0.0627472 0.045252662 0.002941726
-0.0075467187 -0.0078420825 0.0064148116 0.024393924 0.047019493 0.004631974 -0.0017594453 0.0024989417
0.018948898 -0.0120566245 0.018959135 0.014827967 -0.04402431 0.0067856624 0.016240288 -0.008345371
-0.04426848 -0.03139391 0.01080569 -0.0012705589 0.0047064545 -0.00015300362 0.005328931 -0.016664555
0.002950562 0.009168098 -0.005371408 -0.013546043 0.011432769 -0.04646839 -0.017620249 0.01969727
0.02814057 0.0032175083 0.037001662 -0.017059017 0.012965119 0.0020728412 0.013408511 0.032866783
-0.007324472 0.0076583484 0.011627018 0.005386873 0.01093949 -0.016872488 0.0008905256 -0.029626792
-0.027033836 -0.014442284 -0.005957995 0.031802274 -0.03224411 0.014059437 -0.022336124 -0.022431975
0.017482314 -0.01898738 -0.036707174 -0.024301702 -0.0074839275 0.023365306 0.00097048836 0.0070229457
0.012015598 0.03519204 0.016675645 0.008760202 0.009686663 -0.017141905 0.034293428 -0.017977169
0.0014840547 0.014672487 -0.009893295 0.022224553 -0.02456593 -0.0001408621 -0.02268347 -0.016401727
0.034554165 -0.024096621 -0.05419741 -0.029346734 -0.045705054 0.012652009 -0.023079623 0.009744825
-0.0052623968 0.013585268 -0.01006979 -0.010548601 0.018915502 0.015279219 0.026596453 0.025759138
-0.00023719275 0.016506558 0.021093586 -0.024928348 -0.0041470747 0.00063060015 -0.00160353 -0.016195957
0.014912521 0.0030599616 0.0104005905 -0.024956519 -0.015453513 0.011500613 -0.012868768 0.02049498
0.009997058 -0.03006481 -0.0052421843 0.03938616 -0.008431222 0.024814054 -0.10708921 -0.031789288
00000000: 4073 383d 8564 f7bc e211 8d3d a6bd e63b
00000010: cc43 80b9 859b 6ebd b3f7 94bb 2a3c 1bbd
00000020: 0978 f9bc b73e 6cbc e072 bf3d 0803 8ebc
00000030: bd90 9abc 7c6a 813d 29ae c6bc c878 d23b
00000040: 4c23 da3b 4c75 193d 0efe 143b d600 c13b
00000050: d502 cb3a 2387 03bc 4f0f 01bd 0c9b e53a
00000060: 0b20 2b3d 165d 24bd 063e ca3b c99f 45bc
00000070: eb6c f33c a706 cb3c 7ecc 22bd 46e8 9ebb
00000080: 1eea 0dbc 1c8d a23c c453 683a 8308 85bc
00000090: f0f6 1b3c afcb f6bc 4016 0ebc c3f6 c4bb
000000a0: c46a a63a 510c b7bb 20c5 85bc cba1 b53c
000000b0: c483 bf3c aa19 01bb 35eb 81bc 53fe cebb
000000c0: ad2d f53c 5fbe 15bd 3c0d 49bc 2228 96bb
000000d0: 1e6e 543a ae13 1f3c 11fa fd3c 2e21 06bc
000000e0: 4b93 433c 8f97 65bc bb03 2d3b df4b c73c
000000f0: 8ce3 afbc de1a 603c abc5 c13a a7af 773c
00000100: 0fef f0bb 61cf e6bc 924f 0fbd 0000 3a3c
00000110: 0e8e 2ebd 0d81 9abb fb4f d3bd d79d fbbc
00000120: 9b7f 563a 44d8 f3bc 6138 aabb fbf9 a9bc
00000130: 1e7a b23c 6eeb 17bd 3984 373c c311 39bd
00000140: edfe a2bc f6f0 fd3b 51dd 073d 3d73 023d
00000150: 8fd6 5e3c be1f 63bc 317e 093d 0c3d 2f3a
00000160: 90d9 f5bb 0aec 883c 71d6 93bc 1aa1 99b9
00000170: d49c adbb c9b6 68bc 3174 83bc 7744 f7bb
00000180: 86b0 2cbd 8c32 af3c c318 ecbc e082 da3c
00000190: c96e 95bb 467c 8e3c ccc9 0f3d bf40 523d
000001a0: 0321 5a3d 8724 3f3c cc24 ac3c 19f8 23bd
000001b0: 86fc ae3b c4c0 503c f47a 483c 113a eb3c
000001c0: 7694 a5bb 741b e83c bdda 383c e194 5ebd
000001d0: c89d e73c 8790 ca3b 7d4a f53b ebf9 92bc
000001e0: b2f7 273c a494 543d ff2f 9a3d 42f1 2ebb
000001f0: 9351 1e3d 5ac3 003c 8a78 89bd 9adf ddbb
00000200: 16fb e13c d5b9 b03b 722b 953c 20a9 1dbc
00000210: ebce 7c3c 9b81 80bd db5a 393d f9c9 403b
00000220: 774a f7bb 147c 00bc 5733 d23b c4d5 c73c
00000230: 8397 403d d0c7 973b 309d e6ba 49c5 233b
00000240: b83a 9b3c 2689 45bc 3050 9b3c 00f1 723c
00000250: d652 34bd 435a de3b 5a0a 853c 06bb 08bc
00000260: de52 35bd e796 00bd 590a 313c e288 a6ba
00000270: 9a38 9a3b 996f 20b9 509e ae3b 1b84 88bc
00000280: 375e 413b ca35 163c a302 b0bb 39f0 5dbc
00000290: 8250 3b3c a355 3ebd 5758 90bc 2b5c a13c
000002a0: 0d87 e63c d5dc 523b 0e8f 173d 5abf 8bbc
000002b0: a76b 543c 81d8 073b 5faf 5b3c 529f 063d
000002c0: 2002 f0bb e2f2 fa3b 407f 3e3c 5e84 b03b
000002d0: 8c3b 333c 2c38 8abc 2972 693a e3b3 f2bc
000002e0: 1076 ddbc 549f 6cbc 493b c3bb 1a43 023d
000002f0: 6612 04bd 8e59 663c 3ffa b6bc 43c3 b7bc
00000300: 1237 8f3c 6c8b 9bbc 435a 16bd 5d14 c7bc
00000310: bc3b f5bb 9968 bf3c 5f68 7e3a bd20 e63b
00000320: 12dd 443c 8725 103d 5d9b 883c f386 0f3c
00000330: cfb4 1e3c 2e6d 8cbc 4477 0c3d db44 93bc
00000340: 9d84 c23a df64 703c 7d17 22bc 4410 b63c
00000350: 7d3e c9bc 62b4 13b9 afd2 b9bc ea5c 86bc
00000360: ab88 0d3d 4766 c5bc 1afe 5dbd 9068 f0bc
00000370: 3935 3bbd 5f4a 4f3c 7a11 bdbc c2a8 1f3c
00000380: 2f70 acbb be94 5e3c c3fb 24bc 0ad4 2cbc
00000390: aff4 9a3c b055 7a3c cee0 d93c d404 d33c
000003a0: f2b6 78b9 c338 873c 75cc ac3c 8936 ccbc
000003b0: 2fe4 87bb dc4e 253a 8a2d d2ba 62ad 84bc
000003c0: a553 743c a389 483b 3d67 2a3c 9d71 ccbc
000003d0: bb30 7dbc 116d 3c3c 86d7 52bc 17e5 a73c
000003e0: b3ca 233c 7a4a f6bc a1c6 abbb 6253 213d
000003f0: 1c23 0abc d846 cb3c 9651 dbbd 7c35 02bd

network_body._body_endoder.seq_layers.2.weight f4 [256, 256]
-0.013721599 0.052775964 -0.043921005 0.11331457 0.04192421 0.024227012 0.032487016 -0.026613599
-0.0245109 0.05895087 -0.06856351 -0.007767741 -0.030168796 -0.09336589 -0.03790091 0.04774097
-0.108832404 0.07506009 0.21921095 -0.00411283 0.058863178 -0.10246724 0.12347752 -0.16659008
-0.008277123 0.025415445 0.060378265 -0.046017405 -0.12890975 -0.022533275 -0.087721646 0.029692115
0.021125818 0.04537823 0.01953857 -0.055175472 0.007127981 0.02859801 0.12652694 0.09294121
-0.07961401 -0.034705084 0.004743738 -0.10566907 0.053077653 -0.029601682 0.11822455 -0.0031400754
0.056946017 -0.10750672 0.12040208 -0.14211588 -0.0085133035 -0.030262988 0.019286318 0.012882236
-0.044743057 0.024028437 -0.005904993 0.020297382 -0.026629006 0.1264709 -0.030012859 -0.05057137
-0.1220461 0.15512973 -0.03161351 -0.009643188 -0.11790435 -0.06735183 0.09803064 0.106296584
0.06016604 -0.03225651 -0.040430706 -0.07943787 -0.06805361 -0.14271726 0.033318266 0.02532455
0.09860738 0.068328306 -0.041164223 -0.02697179 0.09522705 0.095309354 -0.13483074 -0.07423186
0.028251138 -0.07630465 0.15286754 -0.00899238 0.12784436 0.094016075 0.08385644 -0.06287779
-0.027092071 0.09333923 0.00571989 -0.040281374 -0.06193836 -0.014085958 0.09759071 -0.028174408
-0.04002261 -0.070066825 0.012552338 -0.050903413 0.0061333617 0.07406637 0.03919741 -0.0644585
-0.09067067 -0.012398833 -0.11608332 -0.15008959 0.0221029 -0.10342871 0.07010648 -0.10392742
0.14221036 -0.038639177 0.04854671 0.099569365 0.10549269 0.12958334 0.03417392 -0.027153175
0.076356106 -0.0011259057 -0.0818539 0.10033484 0.0005888017 0.030906899 0.038689084 -0.11615958
0.05684718 0.04370761 0.07041403 0.0014462684 0.08287828 0.15087514 -0.042306818 -0.003074346
0.057756647 0.053055305 -0.099968255 -0.1285962 0.0028783346 -0.0069933683 0.07909399 0.05469067
-0.03416428 0.10650482 0.109868184 -0.13626793 0.01661812 0.033380494 0.09766232 0.165496
0.018911706 -0.13274588 -0.13682444 0.025413968 -0.09078297 0.059982855 0.11303694 -0.061324682
-0.07086593 0.06055884 -0.07178576 -0.014507014 -0.06096907 0.08490248 0.13847536 0.061494254
0.00079518405 0.019078404 -0.08139319 0.015493375 -0.084397376 -0.02949142 -0.037401773 0.0466428
0.083957024 0.006695123 -0.13604276 -0.0110381255 -0.07692572 0.11093952 -0.029984722 0.10733484
-0.03695559 0.12906335 -0.090486325 -0.015803976 0.066693924 -0.012742794 0.014628377 -0.028308652
-0.10816639 -0.017099872 -0.098283514 -0.06378439 0.032959927 0.030861031 -0.05176327 -0.028244166
-0.11801999 -0.050877202 -0.013970629 0.025280127 0.031851713 0.011678966 0.06847637 0.036616355
-0.07819176 -0.08359462 -0.15870954 -0.1135266 0.049441755 -0.0041383468 -0.07199767 -0.025612358
0.015456519 -0.08654592 -0.13303453 -0.04857517 -0.09775643 0.121393085 -0.09167305 0.06885394
0.011741768 0.065061495 0.041093316 0.00222297 -0.028434144 -0.039562486 -0.0618932 -0.11702327
-0.04001685 0.07952559 0.06657753 0.0531112 0.036767345 0.00054978364 -0.043475248 -0.079892084
-0.14127345 0.063285455 -0.09406608 0.03704776 0.10901043 0.043419253 0.0676693 -0.019739367
00000000: 8fd0 60bc 9c2b 583d 83e6 33bd 7811 e83d
00000010: b8b8 2b3d ba77 c63c 1b11 053d c304 dabc
00000020: 15cb c8bc 7876 713d 076b 8cbd 8988 febb
00000030: 8d24 f7bc 9e36 bfbd fc3d 1bbd 098c 433d
00000040: 86e3 debd 1bb9 993d d678 603e ebc4 86bb
00000050: 841a 713d 58da d1bd c8e1 fc3d 9796 2abe
00000060: c59c 07bc 0d34 d03c 334f 773d bf7c 3cbd
00000070: eb00 04be b497 b8bc 68a7 b3bd e13c f33c
00000080: 0d10 ad3c 86de 393d 5a0f a03c adff 61bd
00000090: d791 e93b 6046 ea3c 4790 013e f657 be3d
000000a0: ac0c a3bd eb26 0ebd 5c71 9b3b 0669 d8bd
000000b0: f467 593d 3a7f f2bc b61f f23d b9c9 4dbb
000000c0: 3a40 693d 7c2c dcbd 5e95 f63d d386 11be
000000d0: 627b 0bbc 16ea f7bc 57fe 9d3c 0410 533c
000000e0: 7f44 37bd 49d7 c43c ac7e c1bb b246 a63c
000000f0: 1325 dabc 9681 013e 87dd f5bc ed23 4fbd
00000100: 4ef3 f9bd 54da 1e3e 2b7d 01bd 76fe 1dbc
00000110: d677 f1bd c2ef 89bd 4ac4 c83d 06b2 d93d
00000120: aa70 763d 671f 04bd ab9a 25bd 52b0 a2bd
00000130: b15f 8bbd 7924 12be bc78 083d 6e75 cf3c
00000140: abf2 c93d b6ef 8b3d d19b 28bd f1f3 dcbc
00000150: 6606 c33d 8d31 c33d 1211 0abe e006 98bd
00000160: ee6e e73c 9d45 9cbd 4f89 1c3e c754 13bc
00000170: a2e9 023e 808b c03d edbc ab3d 12c6 80bd
00000180: 31f0 ddbc a328 bf3d ea6d bb3b 15fe 24bd
00000190: 14b3 7dbd cac8 66bc a3dd c73d 04ce e6bc
000001a0: c0ee 23bd 327f 8fbd 52a8 4d3c 1980 50bd
000001b0: 5efa c83b 1cb0 973d 778d 203d d102 84bd
000001c0: 8bb1 b9bd 7a24 4bbc 17bd edbd 16b1 19be
000001d0: 2411 b53c 6ed2 d3bd fc93 8f3d e6d7 d4bd
000001e0: 989f 113e 1d44 1ebd ead8 463d 06eb cb3d
000001f0: 8d0c d83d 7fb1 043e f4f9 0b3d 5670 debc
00000200: 9760 9c3d 2093 93ba 04a3 a7bd 5a7c cd3d
00000210: d059 1a3a 7730 fd3c 7278 1e3d 13e5 edbd
00000220: 97d8 683d c006 333d 3b35 903d b790 bd3a
00000230: 16bc a93d 037f 1a3e ea49 2dbd f87a 49bb
00000240: 3c92 6c3d 8550 593d 28bc ccbd b9ae 03be
00000250: 71a2 3c3b a028 e5bb 08fc a13d 5303 603d
00000260: d8ef 0bbd 331f da3d 9202 e13d d289 0bbe
00000270: b922 883c fcb9 083d 2f03 c83d c977 293e
00000280: b9ec 9a3c 89ee 07be b51b 0cbe f430 d03c
00000290: 6cec b9bd 95b0 753d e97f e73d 972f 7bbd
000002a0: 2822 91bd 8c0c 783d 6a04 93bd d4ae 6dbc
000002b0: b4ba 79bd 5ae1 ad3d 7ccc 0d3e 66e1 7b3d
000002c0: e673 503a 504a 9c3c 79b1 a6bd edd7 7d3c
000002d0: 88d8 acbd fe97 f1bc 9a32 19bd 850c 3f3d
000002e0: a9f1 ab3d c362 db3b cb4e 0bbe 41d9 34bc
000002f0: 3b8b 9dbd 4234 e33d 85a2 f5bc 5ed2 db3d
00000300: bf5e 17bd 2f29 043e e550 b9bd 5777 81bc
00000310: d396 883d 27c7 50bc dcab 6f3c 8ce7 e7bc
00000320: 5786 ddbd 0815 8cbc de48 c9bd 64a1 82bd
00000330: fd00 073d 46d0 fc3c b905 54bd 4f60 e7bc
00000340: 77b4 f1bd 9d64 50bd 11e5 64bc 4518 cf3c
00000350: f176 023d 2259 3f3c 573d 8c3d 08fb 153d
00000360: 0023 a0bd a833 abbd c184 22be a280 e8bd
00000370: 7083 4a3d f89a 87bb 8473 93bd 02d1 d1bc
00000380: 573d 7d3c fd3e b1bd 343a 08be c2f6 46bd
00000390: 8634 c8bd f09c f83d 14bf bbbd 4b03 8d3d
000003a0: 8b60 403c f63e 853d 7751 283d 3faf 113b
000003b0: b9ee e8bc 460c 22bd b983 7dbd e5a9 efbd
000003c0: b5e8 23bd 50de a23d cd59 883d 218b 593d
000003d0: 5b99 163d 5b1f 103a 1a13 32bd 769e a3bd
000003e0: fda9 10be ce9b 813d b8a5 c0bd 64bf 173d
000003f0: dc40 df3d 63d8 313d 3496 8a3d 74b4 a1bc

network_body._body_endoder.seq_layers.2.bias f4 [256]
-0.01677645 -0.050373606 0.019929545 -0.007820145 2.6944515e-05 -0.0008628813 0.011644144 -0.002896551
0.0087596765 0.022317285 0.004729919 -0.0032909943 -0.03624107 -0.0049200556 0.018001307 -0.028538955
-0.0007676296 -0.0024034616 0.012100795 0.008437256 0.0016909901 -0.002851181 -0.005980605 0.017135317
0.0114270635 0.014062295 -0.008855634 -0.048440576 -0.0076830387 -0.012130544 0.008590833 0.040560495
-0.038004152 -0.008541698 0.023794595 -0.00837993 -0.014132576 0.040349483 0.03655459 0.034787674
0.004054901 -0.01088975 0.0034252896 -0.03788884 -0.021733953 0.001764488 -0.0075265956 -0.020479547
-0.01512551 0.026603723 -0.043935936 0.018859226 -0.0048129484 0.007874705 -0.020426355 0.011343866
0.010828997 0.026435887 0.013598268 0.007317225 -0.026218362 0.018779885 -0.019583352 -0.0092963865
-0.016621739 -0.006694334 0.009196588 0.013489856 0.020312432 0.04150603 0.04217735 0.008748238
0.030728843 -0.016655752 0.0018168822 0.016267298 0.012994199 0.019621184 -0.014432029 -0.00854402
0.00062314473 -0.0043008085 0.00092793605 0.032473534 0.025668776 -0.0074529573 0.0044107237 0.001113043
0.019749302 0.0058350554 0.019400498 -0.04826556 0.01365457 0.030980892 0.012223129 0.031163417
0.026501577 0.014365793 0.011560109 0.011755047 0.014101203 0.031398915 0.023288557 -0.03709364
-0.0012042267 0.009704073 -0.030717243 -0.012955634 -0.0042514266 -0.008368358 0.018297419 -0.022335572
-0.0088484 -0.024287263 -0.032210827 -0.0052063037 0.017037272 0.002855788 -0.060952716 -0.013858318
-0.009452147 -0.019467603 0.0135563295 -0.066523634 0.016340716 0.014633371 0.036313634 0.0049110283
0.026731562 -0.030077651 -0.0077659786 0.019087296 0.019228203 -0.019107487 0.0009822379 0.011658544
0.0030681065 0.010337943 -0.06870875 0.0041214647 -0.029987358 -0.0010072571 0.025842974 -0.021269353
0.018599518 0.01105913 0.008521008 -0.023054658 -0.03295255 -0.011647802 -0.030739339 -0.043373868
0.014409189 0.003220226 -0.0169703 -0.019840742 0.0076095336 0.03229777 0.0019682394 0.0022372652
0.020708645 0.03287 0.004887384 -0.017564913 0.0101181725 -0.04788259 0.016152145 0.010308916
-0.007950478 0.025102612 0.010601238 -0.026212143 0.023807062 -0.007910386 -0.0027775913 -0.0044231853
-0.027172415 -0.0050791996 0.015149131 -0.0032604195 0.017691936 0.009932735 -0.00978998 -0.0028339275
0.008390053 0.033989504 0.020911727 0.002424014 -0.013753742 -0.0047914824 -0.0027592576 0.014687693
0.038821127 -0.003590062 0.014925781 0.00021078518 -0.04876207 -0.025667004 0.028536947 0.010753007
0.017834717 -0.00937267 -0.03289826 0.020730097 -0.0028248993 -0.029126193 0.009082037 0.0086243665
0.027103921 0.02269674 -0.0039872164 0.048450183 -0.027995232 0.014059192 -0.020327657 -0.016122686
0.021741694 0.015645938 0.0501346 -0.029730039 0.0047711693 -0.008123195 -0.020403503 -0.004022988
-0.011831002 0.012191837 0.009130046 0.0079177525 -0.023185298 -0.021344762 0.04605324 0.008100682
-0.007704811 0.020574374 -0.012634429 0.019638658 0.018940002 0.030026698 -0.015028758 -0.0024988258
-0.017158633 0.025047652 -0.00795153 0.0025013487 -0.021717355 0.015592147 0.031520404 -0.04920691
0.0044102585 0.006362854 0.0018012003 -0.0007025344 -0.021452589 -0.0026550256 0.00662015 -0.00571972
00000000: c46e 89bc 8e54 4ebd 4943 a33c 1120 00bc
00000010: e806 e237 fc32 62ba 14c7 3e3c 10d4 3dbb
00000020: bf84 0f3c bdd2 b63c 70fd 9a3b b9ad 57bb
00000030: 8471 14bd 6b38 a1bb 7a77 933c 87ca e9bc
00000040: c03a 49ba 6583 1dbb 6a42 463c 6b3c 0a3c
00000050: 36a4 dd3a e1da 3abb f3f8 c3bb 5d5f 8c3c
00000060: 9438 3b3c 8a65 663c 3917 11bc a069 46bd
00000070: 00c2 fbbb 30bf 46bc 91c0 0c3c c322 263d
00000080: 3eaa 1bbd 7af2 0bbc e2ec c23c f94b 09bc
00000090: 528c 67bc 8045 253d 44ba 153d 857d 0e3d
000000a0: fade 843b ec6a 32bc d37a 603b 5431 1bbd
000000b0: 670b b2bc 6546 e73a a9a1 f6bb b9c4 a7bc
000000c0: fdd0 77bc 0df0 d93c 2bf6 33bd aa7e 9a3c
000000d0: f0b5 9dbb e804 013c 2c55 a7bc 9fdb 393c
000000e0: 1b6c 313c 1390 d83c 45cb 5e3c 55c5 ef3b
000000f0: e4c7 d6bc 46d8 993c 446d a0bc df4f 18bc
00000100: 502a 88bc 255c dbbb 49ad 163c 8f04 5d3c
00000110: 4266 a63c 3a02 2a3d 28c2 2c3d c554 0f3c
00000120: 0ebb fb3c a571 88bc 7324 ee3a ff42 853c
00000130: 9fe5 543c 9bbc a03c 5174 6cbc 38fc 0bbc
00000140: 895a 233a cced 8cbb bc40 733a f802 053d
00000150: 5347 d23c f037 f4bb d587 903b 87e3 913a
00000160: 4ac9 a13c fe33 bf3b cbed 9e3c 1cb2 45bd
00000170: 6bb7 5f3c a4cb fd3c 8543 483c 6c4a ff3c
00000180: d619 d93c 815e 6b3c 9d66 3d3c 3e98 403c
00000190: bb08 673c 269c 003d a5c7 be3c 80ef 17bd
000001a0: 25d7 9dba d5fd 1e3c baa2 fbbc de43 54bc
000001b0: 8d4f 8bbb 701b 09bc 78e4 953c 17f9 b6bc
000001c0: e1f8 10bc 15f6 c6bc 80ef 03bd a499 aabb
000001d0: c091 8b3c 2c28 3b3b 8ea9 79bd 000e 63bc
000001e0: 2edd 1abc 867a 9fbc 5e1b 5e3c 8b3d 88bd
000001f0: f7dc 853c cec0 6f3c 9bbd 143d b1ec a03b
00000200: 26fc da3c 6865 f6bc c079 febb f65c 9c3c
00000210: 7784 9d3c 4e87 9cbc 6fbe 803a 7a03 3f3c
00000220: 4912 493b 7a60 293c 2cb7 8cbd 5a0d 873b
00000230: 0ca8 f5bc f105 84ba a5b4 d33c 113d aebc
00000240: 045e 983c 5a31 353c b39b 0b3c 1fdd bcbc
00000250: 41f9 06bd 6cd6 3ebc 11d1 fbbc cca8 31bd
00000260: 8514 6c3c 6d0a 533b 4c05 8bbc 0d89 a2bc
00000270: 6559 f93b ab4a 043d 94fd 003b 159f 123b
00000280: 2da5 a93c b1a2 063d 5926 a03b 4be4 8fbc
00000290: b1c6 253c 8920 44bd 8151 843c bae6 283c
000002a0: b942 02bc fea3 cd3c d1b0 2d3c d9ba d6bc
000002b0: 0707 c33c 909a 01bc 4008 36bb 5ef0 90bb
000002c0: af98 debc 6a6f a6bb 1034 783c c3ac 55bb
000002d0: aeee 903c e9bc 223c 2766 20bc 6ab9 39bb
000002e0: 6f76 093c 9438 0b3d 124f ab3c 35dc 1e3b
000002f0: 6057 61bc de01 9dbb a9d4 34bb a6a4 703c
00000300: e702 1f3d 3f47 6bbb 438b 743c 3706 5d39
00000310: bcba 47bd 9c43 d2bc 51c6 e93c 612d 303c
00000320: 1d1a 923c d48f 19bc 53c0 06bd 2ad2 a93c
00000330: f221 39bb 0e9a eebc d3cc 143c 374d 0d3c
00000340: 0b09 de3c 84ee b93c 32a7 82bb b373 463d
00000350: 4256 e5bc 8658 663c 3086 a6bc b913 84bc
00000360: a31b b23c e92b 803c f059 4d3d 698c f3bc
00000370: 7857 9c3b 2617 05bc 3f25 a7bc 45d3 83bb
00000380: d2d6 41bc 45c0 473c 3096 153c 76b9 013c
00000390: 18ef bdbc 36db aebc 52a2 3c3d b9b8 043c
000003a0: a478 fcbb 978b a83c a300 4fbc 40e1 a03c
000003b0: 1028 9b3c 8dfa f53c 2e3b 76bc 57c3 23bb
000003c0: 4390 8cbc bc30 cd3c 2247 02bc abed 233b
000003d0: 98e8 b1bc 3476 7f3c 8a1b 013d 2f8d 49bd
000003e0: ee83 903b 7d7f d03b 4116 ec3a 492a 38ba
000003f0: 57bd afbc f0ff 2dbb d8ed d83b 7d6c bbbb

action_model._discrete_distribution.branches.0.weight f4 [3, 256]
-0.000832832 0.040650174 -0.06922318 0.033680167 -0.00874197 -0.041184466 -0.021233734 -0.038459647
-0.014620518 -0.068540625 -0.025608355 -0.0038242957 0.038493417 -0.02001971 -0.053483248 0.0342032
-0.06792671 -0.0073909396 -0.0271815 -0.037578326 -0.030153498 -0.055342115 -0.04629351 0.023820264
-0.0105412025 -0.03728915 -0.025381817 0.028823715 -0.057848904 -0.049337607 -0.024516545 -0.048881583
-0.005349449 -0.04569378 -0.04082409 -0.061774746 -0.0032781002 -0.028985977 -0.02812248 -0.08385081
-0.02728118 0.016831711 -0.025328366 0.030425975 0.021395206 -0.030891217 -0.01875612 -0.038736504
-0.058716983 -0.03781465 0.037018944 -0.020924859 -0.055402555 -0.04578403 -0.048375603 -0.023601344
-0.025570953 -0.015728403 -0.02952901 -0.020065792 -0.013540899 -0.02745845 -0.035074808 -0.008587729
-0.014721638 -0.046764903 -0.0036353779 -0.05634297 -0.019838342 -0.012278639 -0.016621536 -0.048190657
-0.040420473 0.013772444 -0.042497728 -0.011183446 -0.007562866 -0.02519727 0.0073237424 0.0047998917
-0.0516021 -0.028686298 -0.035874188 -0.02741148 -0.012164278 -0.01876564 -0.029714659 -0.03965485
0.0070636817 -0.010772275 -0.040511705 0.021052971 -0.05572188 -0.03561388 -0.027399678 -0.028473549
-0.052435722 -0.016583161 -0.03761848 -0.03366923 -0.08096001 -0.019238181 -0.033643067 0.021116493
0.012969257 -0.07498172 -0.0014210636 -0.030648496 0.013287707 -0.051360164 -0.014449869 -0.0060743275
-0.04343922 0.018923039 0.009785085 0.023526318 -0.01603958 -0.031630896 0.030784117 0.009968965
-0.04121628 0.012879309 -0.027842311 0.045799464 -0.0417119 -0.017320156 -0.05208623 -0.033856034
-0.051366113 0.023339313 -0.061835915 -0.030672885 -0.030357067 -0.017739797 -0.06961978 -0.0329566
-0.017523851 -0.030224893 0.030767705 -0.031402044 -0.039419066 -0.041216765 -0.06748504 0.023809958
-0.046639435 -0.050248213 -0.028145103 0.01120391 -0.016532011 -0.04909607 0.017374543 0.020333147
-0.022605278 -0.02242693 0.015906386 -0.0019756875 -0.027313197 -0.06464221 -0.053383633 -0.024061183
-0.019134693 -0.01858673 -0.01291438 0.009038501 -0.026173536 -0.006323287 -0.018590456 -0.028089873
-0.035360493 -0.029795332 -0.05661102 -0.04081068 -0.048922785 -0.04443849 0.0044485233 -0.05257135
0.02737631 -0.04056514 -0.044314105 -0.024346178 -0.021889193 -0.02015772 -0.017763939 -0.014906217
-0.015422969 -0.0103655355 -0.016420094 0.0029497554 -0.003763871 -0.029792082 0.0030440206 0.036181703
-0.041192908 0.022034828 -0.028841408 -0.01551421 0.008943497 0.024262263 -0.016032593 -0.045283873
-0.0068039354 0.013380705 0.00119931 -0.02023779 0.017342284 0.016376382 -0.012400198 -0.013845635
-0.045526575 -0.048840158 0.00095867354 -0.008607578 0.025998844 -0.0619873 -0.009142568 -0.030748136
-0.014835736 -0.032357514 -0.019718591 0.02637419 -0.014526466 -0.009045402 -0.012661839 -0.06399411
-0.020750362 -0.029546339 -0.034505825 -0.017534133 -0.0037478062 0.024212927 -0.044859372 -0.052173946
-0.01691325 -0.035123978 0.026168812 -0.053227514 -0.03643728 -0.066279046 -0.012677618 -0.009918391
-0.008831557 -0.024763467 -0.03627779 0.0082423845 0.012259592 -0.003361281 -0.025240188 0.020330466
0.0067562074 0.040090624 -0.053300984 0.014277299 0.033303015 -0.005836615 -0.020172752 -0.045871112
00000000: 6952 5aba cc80 263d e2c4 8dbd 37f4 093d
00000010: 7b3a 0fbc 0bb1 28bd 5ef2 adbc dd87 1dbd
00000020: e68a 6fbc 075f 8cbd 9dc8 d1bc 09a1 7abb
00000030: 46ab 1d3d 6000 a4bc 4011 5bbd a818 0c3d
00000040: 291d 8bbd b22f f2bb bdab debc bbeb 19bd
00000050: 7804 f7bc 6aae 62bd 439e 3dbd b722 c33c
00000060: 02b5 2cbc 82bc 18bd 87ed cfbc b61f ec3c
00000070: f9f2 6cbd 3b16 4abd ecd6 c8bc 0e38 48bd
00000080: 6e4a afbb 6729 3bbd 2937 27bd 8407 7dbd
00000090: 65d5 56bb 0074 edbc 1d61 e6bc f9b9 abbd
000000a0: c87c dfbc a8e2 893c 6f7d cfbc e53f f93c
000000b0: 0045 af3c 940f fdbc 6fa6 99bc 2baa 1ebd
000000c0: 3881 70bd 89e3 1abd 2da1 173d 9c6a abbc
000000d0: caed 62bd 0988 3bbd 7f25 46bd 9b57 c1bc
000000e0: 2d7a d1bc dad8 80bc d3e6 f1bc 0461 a4bc
000000f0: a6da 5dbc 8bf0 e0bc 9aaa 0fbd 8cb3 0cbc
00000100: 0633 71bc 8e8c 3fbd 853f 6ebb e3c7 66bd
00000110: 0584 a2bc 582c 49bc e329 88bc 9163 45bd
00000120: f08f 25bd d1a5 613c 1912 2ebd c63a 37bc
00000130: ebd1 f7bb 816a cebc 01fc ef3b 6948 9d3b
00000140: b95c 53bd 87ff eabc d0f0 12bd 0a8e e0bc
00000150: ae4c 47bc 66ba 99bc 286c f3bc 206d 22bd
00000160: 7576 e73b 327e 30bc 9aef 25bd 4877 ac3c
00000170: a03c 64bd dcdf 11bd 4a75 e0bc 5c41 e9bc
00000180: d7c6 56bd 69d9 87bc d615 1abd bfe8 09bd
00000190: 5dce a5bd 6499 9dbc 50cd 09bd 7ffc ac3c
000001a0: 027d 543c 0490 99bd fb42 baba 8e12 fbbc
000001b0: afb4 593c 095f 52bd 25bf 6cbc 270b c7bb
000001c0: 53ed 31bd 7d04 9b3c 9f51 203c 44ba c03c
000001d0: 7065 83bc 668f 01bd f92e fc3c df54 233c
000001e0: 67d2 28bd bd03 533c 8f15 e4bc 3898 3b3d
000001f0: 19da 2abd 00e3 8dbc 5f58 55bd a0ac 0abd
00000200: 4665 52bd 1632 bf3c a847 7dbd b445 fbbc
00000210: 62af f8bc 0d53 91bc d194 8ebd 80fd 06bd
00000220: 2e8e 8fbc 329a f7bc 8e0c fc3c 6e9f 00bd
00000230: e375 21bd e9d2 28bd 9935 8abd 1a0d c33c
00000240: fe08 3fbd 12d1 4dbd 8f90 e6bc 9b90 373c
00000250: 246e 87bc f618 49bd 0f55 8e3c b391 a63c
00000260: b42e b9bc aeb8 b7bc 1c4e 823c 897a 01bb
00000270: edbf dfbc 2363 84bd cca8 5abd f51b c5bc
00000280: 5cc0 9cbc 3343 98bc d696 53bc 3916 143c
00000290: e269 d6bc 9333 cfbb 034b 98bc bc1c e6bc
000002a0: 2ad6 10bd 5715 f4bc f5e0 67bd 1929 27bd
000002b0: 4263 48bd 2205 36bd ebc4 913b 0e55 57bd
000002c0: 4944 e03c a227 26bd b582 35bd a371 c7bc
000002d0: f750 b3bc ce21 a5bc ae85 91bc 3539 74bc
000002e0: 9fb0 7cbc 35d4 29bc 6f83 86bc af50 413b
000002f0: 47ab 76bb 860e f4bc 317e 473b 4433 143d
00000300: e5b9 28bd 6282 b43c d144 ecbc 502f 7ebc
00000310: bf87 123c a7c1 c63c c956 83bc 957b 39bd
00000320: 8cf3 debb bf3a 5b3c 2a32 9d3a b9c9 a5bc
00000330: 6811 8e3c c327 863c 332a 4bbc cdd8 62bc
00000340: 137a 3abd 9e0c 48bd 7e4f 7b3a cd06 0dbc
00000350: 87fb d43c 65e6 7dbd b6ca 15bc 84e3 fbbc
00000360: 9611 73bc 5089 04bd e288 a1bc af0e d83c
00000370: 6a00 6ebc 2a33 14bc 9a73 4fbc 580f 83bd
00000380: aafc a9bc 2a0b f2bc fb55 0dbd bea3 8fbc
00000390: c19d 75bb 305a c63c 76be 37bd 59b4 55bd
000003a0: a88d 8abc 29de 0fbd fa5f d63c 1805 5abd
000003b0: 423f 15bd 4fbd 87bd c9b5 4fbc bf80 22bc
000003c0: 3cb2 10bc c1dc cabc 0598 14bd 110b 073c
000003d0: 75dc 483c f048 5cbb 83c4 cebc 148c a63c
000003e0: 2d63 dd3b 1136 243d 2252 5abd 55eb 693c
000003f0: be68 083d 1341 bfbb 5441 a5bc 59e3 3bbd

action_model._discrete_distribution.branches.0.bias f4 [3]
-0.016741207 -0.015708743 0.036936037
00000000: db24 89bc 9faf 80bc 3e4a 173d

action_model._discrete_distribution.branches.1.weight f4 [3, 256]
0.020470627 -0.015638484 0.024962375 0.040076092 -0.0889759 -0.07904377 -0.01673565 0.006460451
-0.06033153 0.014819009 -0.012592403 0.04242758 0.030065838 -0.0010524936 0.026251761 0.003281903
-0.024892485 -0.018618073 0.075329326 -0.010675318 -0.012555819 0.046961877 0.047085725 0.008367239
0.030197978 -0.06984965 0.022553658 0.006188378 0.0041950424 -0.028767982 -0.058557495 -0.0063362853
-0.0034329596 -0.041130763 -0.09572989 -0.02217013 -0.03995025 0.04943126 0.0038635626 -0.028604712
-0.017558435 0.017818972 -0.03443013 -0.03173112 0.013227599 0.015808985 0.020902406 -0.05653416
-0.05564382 0.0283895 -0.006199428 -0.07736636 0.017022233 0.06416401 -0.0744941 -0.0034509676
-0.04109431 0.010071141 -0.0036870555 0.0229523 -0.045667842 -0.0124391895 -0.07625398 -0.035004854
-0.025983775 0.024006128 -0.00069708296 0.0016580785 -0.012723322 0.0059206104 -0.0010110564 -0.053068545
-0.115555435 0.03584424 -0.007853389 -0.007428425 -0.10749568 0.024810389 -0.010685733 -0.011044074
-0.059312463 -0.043340076 -0.06566308 0.019805325 0.010050686 -0.114233606 0.009986639 0.05225774
-0.0029431046 -0.02693772 0.09789221 0.03112421 0.027708951 0.011896748 -0.024183292 0.015315152
-0.07493939 0.021106035 -0.024431486 -0.016811684 0.0128659215 0.0035237847 0.018549277 0.03767657
0.0014619726 0.0132313995 -0.019233406 -0.06362052 0.025668383 -0.033913568 -0.0006266176 0.04572103
-0.115023926 -0.0726936 -0.028063416 0.080595516 -0.030831233 -0.07109344 -0.007210689 -0.0031512105
-0.06111336 0.04580112 -0.013821729 -0.005802691 -0.06560059 -0.01642085 0.04107658 -0.014738087
-0.10504049 0.00940551 0.017477013 -0.015075611 0.03703121 -0.032763295 0.0048331064 0.016888127
-0.04779554 -0.11093293 -0.006214706 0.039635237 -0.009155256 0.026330076 -0.0071648173 0.03821645
0.018415015 -0.018971264 -0.09252261 0.039210726 -0.010461683 -0.004275368 -0.06332397 0.025827842
-0.03001064 -0.10873842 0.03347202 0.0070898687 0.01879493 -0.04677095 -0.008271449 0.039952986
-0.0036137612 -0.007757849 -0.07324181 -0.03849062 0.0081654405 -0.025521673 -0.021054583 0.02258662
-0.05714594 -0.019980023 0.03702033 0.0046072616 0.012229244 0.021388171 0.030289136 -0.017089225
0.051952124 0.01989904 -0.0016170677 -0.030731717 -0.0398681 0.043772113 0.015299252 -0.11146488
0.056196943 -0.015361955 0.01664374 -0.099934414 -0.02930069 0.018329611 0.037739784 0.0032678756
0.00078187586 0.04030037 -0.050210387 -0.076523215 -0.0031866496 0.032985013 -0.06800932 0.03300241
-0.037708074 0.029203964 0.022654157 0.028482318 0.053314775 0.0476682 -0.03348099 -0.09456997
-0.022155996 -0.07039185 -0.071120776 0.0068483055 0.046303812 -0.015027093 0.0029218136 -0.024613304
0.018999986 0.003353299 0.030277973 0.029362028 -0.039100375 -0.008203413 -0.038434245 -0.045403674
-0.039134428 -0.015172329 0.05242515 -0.0021899121 -0.05927424 0.0084200725 0.050911218 0.023044227
-0.0067033474 -0.08646393 0.024750885 0.027695516 -0.027683917 0.04306017 -0.0012177264 -0.023492983
0.02273055 0.003896216 0.01843543 -0.016961949 -0.06383234 0.014167361 0.0016564272 -0.016733304
0.093157694 -0.0005571941 0.020030713 -0.04460894 0.028352048 0.006981094 -0.055265903 -0.017835319
00000000: 04b2 a73c 471c 80bc e57d cc3c d426 243d
00000010: ff38 b6bd b3e1 a1bd 3419 89bc 31b2 d33b
00000020: 321e 77bd 6ecb 723c 5e50 4ebc 8bc8 2d3d
00000030: a24c f63c d3f3 89ba ef0d d73c 3215 573b
00000040: 53eb cbbc ee84 98bc 4346 9a3d 87e7 2ebc
00000050: ecb6 4dbc 195b 403d f6dc 403d be16 093c
00000060: c061 f73c 550d 8fbd 73c2 b83c e1c7 ca3b
00000070: 9176 893b d5aa ebbc fcd9 6fbd 9da0 cfbb
00000080: 81fb 60bb bb78 28bd 080e c4bd 229e b5bc
00000090: e0a2 23bd 6f78 4a3d d333 7d3b 6e54 eabc
000000a0: b5d6 8fbc 18f9 913c 9c06 0dbd 7ef8 01bd
000000b0: 92b8 583c d881 813c 863b ab3c 5d90 67bd
000000c0: c6ea 63bd 1991 e83c 9224 cbbb 4172 9ebd
000000d0: 3672 8b3c 6c68 833d 5d90 98bd a129 62bb
000000e0: 8252 28bd 6d01 253c 87a2 71bb 7606 bc3c
000000f0: 340e 3bbd becd 4bbc 0c2b 9cbd 4061 0fbd
00000100: eddb d4bc 80a8 c43c 72bc 36ba e253 d93a
00000110: 7b75 50bc ae01 c23b 6c85 84ba 675e 59bd
00000120: 54a8 ecbd 69d1 123d 80ab 00bc 256a f3bb
00000130: b226 dcbd 283f cb3c 3613 2fbc 34f2 34bc
00000140: a0f1 72bd 5d85 31bd 5d7a 86bd c73e a23c
00000150: a2ab 243c 4ff3 e9bd 009f 233c 360c 563d
00000160: 1ae1 40bb 7eac dcbc b67b c83d 33f8 fe3c
00000170: e2fd e23c 94ea 423c 0a1c c6bc 67ec 7a3c
00000180: d379 99bd 90e6 ac3c 8a24 c8bc a8b8 89bc
00000190: 96cb 523c 4cef 663b a7f4 973c bf52 1a3d
000001a0: a99f bf3a 83c8 583c 608f 9dbc 7a4b 82bd
000001b0: 8046 d23c f4e8 0abd 9843 24ba fa45 3b3d
000001c0: aa91 ebbd 62e0 94bd 40e5 e5bc 430f a53d
000001d0: c891 fcbc 7099 91bd a547 ecbb 8a84 4ebb
000001e0: 0152 7abd f599 3b3d 8974 62bc 8024 bebb
000001f0: 9a59 86bd 0585 86bc ea3f 283d 0478 71bc
00000200: 781f d7bd 9119 1a3c f42b 8f3c b2ff 76bc
00000210: 0aae 173d ce32 06bd 095f 9e3b f858 8a3c
00000220: 42c5 43bd ce30 e3bd bca4 cbbb 8f58 223d
00000230: edff 15bc 2cb2 d73c d8c6 eabb da88 1c3d
00000240: 16db 963c a069 9bbc 7f7c bdbd 6d9b 203d
00000250: 7b67 2bbc 6318 8cbb ffaf 81bd e994 d33c
00000260: e0d8 f5bc 40b2 debd f519 093d 2152 e83b
00000270: d3f7 993c e592 3fbd f984 07bc bea5 233d
00000280: dad4 6cbb 8e35 febb cdff 95bd 57a8 1dbd
00000290: 57c8 053c d412 d1bc a97a acbc 9307 b93c
000002a0: dc11 6abd 25ad a3bc a1a2 173d 83f8 963b
000002b0: 2b5d 483c 3f36 af3c ec20 f83c b4fe 8bbc
000002c0: c0cb 543d 5003 a33c caf3 d3ba 15c1 fbbc
000002d0: bc4c 23bd 634a 333d b7a9 7a3c b347 e4bd
000002e0: c42e 663d b6b0 7bbc 7458 883c 6aaa ccbd
000002f0: 0008 f0bc fb27 963c 0895 1a3d db29 563b
00000300: cdf6 4c3a 0012 253d 68a9 4dbd 34b8 9cbd
00000310: 1cd7 50bb 4b1b 073d 7848 8bbd 892d 073d
00000320: c873 1abd 273d ef3c 3695 b93c c053 e93c
00000330: 9860 5a3d bb3f 433d 5d23 09bd e7ad c1bd
00000340: 7e80 b5bc 9a29 90bd c5a7 91bd c067 e03b
00000350: 11a9 3d3d 3234 76bc e67b 3f3b d7a1 c9bc
00000360: dca5 9b3c 06c3 5b3b 8309 f83c a388 f03c
00000370: b727 20bd 9c67 06bc 3a6d 1dbd 34f9 39bd
00000380: 6c4b 20bd 5c95 78bc c1bb 563d a184 0fbb
00000390: 8cc9 72bd 58f4 093c 4888 503d 3fc7 bc3c
000003a0: c1a7 dbbb 0014 b1bd 5ec2 ca3c b5e1 e23c
000003b0: 62c9 e2bc dc5f 303d 1e9c 9fba 5b74 c0bc
000003c0: 6b35 ba3c a857 7f3b e605 973c c9f3 8abc
000003d0: 88ba 82bd 381e 683c 791c d93a 4814 89bc
000003e0: 76c9 be3d aa10 12ba 7317 a43c ddb7 36bd
000003f0: 8e42 e83c a9c1 e43b 805e 62bd 601b 92bc

action_model._discrete_distribution.branches.1.bias f4 [3]
-0.010824112 -0.00049683393 0.013408873
00000000: 9e57 31bc f63d 02ba e4b0 5b3c

action_model._discrete_distribution.branches.2.weight f4 [2, 256]
0.0021935795 0.032033242 -0.0017683349 0.018884245 -0.024012165 0.02678369 0.009356052 -0.020703536
0.096208036 0.106058456 0.08238311 -0.005845445 -0.005295264 0.106488094 0.09654873 -0.0048933234
0.08826552 -0.03466562 -0.10369335 0.10204864 -0.07727707 0.08446835 -0.002674745 0.09377745
0.0443147 0.037943482 -0.013052929 -0.054846764 0.023672905 0.06775819 0.003778217 0.056548785
0.00017977387 -0.065595165 0.07340421 -0.063623235 0.0852608 0.14011222 0.15785697 0.09119509
-0.03414647 -0.008039647 0.07063141 -0.056684766 -0.021011284 0.0144086415 -0.024083214 -0.010557846
-0.005943614 0.10583574 -0.07944001 -0.004934064 0.009350731 -0.03580436 -0.021107348 0.09104269
0.116477445 0.12492308 0.027380109 0.04208737 0.012420134 0.10021087 0.023897152 0.018078493
0.03276266 -0.026670462 0.12135998 0.0025774685 0.1276262 0.1504353 0.16096647 -0.0059429137
0.07364965 0.014877951 0.03422122 0.033804767 0.089328475 0.1068182 -0.048811466 -0.0555347
0.028510185 0.017648049 -0.0010129884 0.13655925 0.13111883 0.07334905 -0.049315654 0.009483244
0.07029748 -0.013074749 -0.046329603 -0.05552412 0.04532707 0.12936594 0.116316065 0.12802799
0.03554102 0.09929618 0.010644698 0.058288187 0.08991498 0.14659943 0.094504185 -0.026902497
0.0020648197 0.09713886 -0.073660195 -0.003213826 -0.019332297 0.07022462 0.1576637 -0.022078363
0.0147621045 -0.026579116 0.051771577 -0.088798195 0.123562865 0.080610216 -0.087900504 -0.009589756
0.043479767 0.023039939 0.12791692 -0.06507005 0.059180617 0.037441287 0.15675943 -0.05564424
0.10043988 -0.059246045 -0.017736135 -0.019896124 0.07473123 0.03319145 0.049943924 -0.112805925
-0.029575527 0.03617943 -0.094827585 0.017442122 -0.03855935 -0.12778015 0.105080344 -0.039842363
0.101002894 -0.08019718 0.014095626 -0.0069013634 0.053114776 -0.07964959 -0.055372965 0.014560004
0.04309453 0.017279726 0.06551665 0.036865868 0.0576602 0.08705683 -0.033596396 0.01600058
0.119699 0.098935306 0.072653405 0.0013702036 0.09410692 0.04625368 0.048191383 0.03672656
0.018405145 0.02696794 0.034153644 0.013645087 0.13746153 0.07140636 0.0048117335 0.023255471
-0.05063841 0.019664112 0.0945784 0.058580667 0.08558514 -0.090531275 -0.013432239 0.046889473
0.0080028 0.1228865 0.117078565 0.033720165 0.04568066 -0.07032207 -0.0058644344 0.07402833
0.14563683 -0.026162567 -0.028251102 0.022639748 -0.076043144 -0.008168508 -0.0026023048 0.037534438
0.11723171 0.036370657 -0.07340858 0.124108054 -0.07766068 -0.020858767 -0.03434442 0.02853284
0.012716824 0.059422556 0.043253265 0.17179915 -0.030502573 0.082115 -0.027551608 -0.066588484
0.123513795 0.11629224 0.17524594 -0.009514554 -0.041496698 0.13678174 -0.039202496 -0.050787583
-0.025761724 0.10114146 -0.09893181 0.031138593 -0.03999904 -0.0924132 0.0020781867 0.004966293
-0.00057347 -0.004948049 0.009585617 0.097148485 0.053253856 0.063905835 -0.01206278 0.04746267
-0.0052121496 0.11869547 0.027958388 0.034485955 0.016685907 0.07049407 0.123217665 -0.09433215
-0.105438806 0.02107942 -0.11603422 -0.0074216565 0.026037304 0.05184113 0.095236324 -0.074858084
00000000: 28c2 0f3b 4a35 033d 79c7 e7ba 22b3 9a3c
00000010: 29b5 c4bc 7869 db3c 204a 193c 769a a9bc
00000020: b808 c53d 2d35 d93d 7ab8 a83d 268b bfbb
00000030: e583 adbb 6e16 da3d 57bb c53d 2c58 a0bb
00000040: 8ec4 b43d 8afd 0dbd 2e5d d4bd e1fe d03d
00000050: 7143 9ebd befd ac3d c64a 2fbb 640e c03d
00000060: 5583 353d a06a 1b3d f4db 55bc 00a7 60bd
00000070: aeed c13c cec4 8a3d f69b 773b b39f 673d
00000080: ae81 3c39 c256 86bd f254 963d e64c 82bd
00000090: 379d ae3d 9479 0f3e 42a5 213e 7ec4 ba3d
000000a0: 2bdd 0bbd b9b8 03bc 33a7 903d 492e 68bd
000000b0: db1f acbc 3912 6c3c 294a c5bc d1fa 2cbc
000000c0: a6c2 c2bb 69c0 d83d 72b1 a2bd eead a1bb
000000d0: cf33 193c 98a7 12bd 51e9 acbc 9774 ba3d
000000e0: ba8b ee3d acd7 ff3d 404c e03c ce63 2c3d
000000f0: d17d 4b3c 5b3b cd3d f6c3 c33c 5919 943c
00000100: 2432 063d 037c dabc 958b f83d bfea 283b
00000110: 71b0 023e b60b 1a3e 65d4 243e c6bc c2bb
00000120: a1d5 963d a6c2 733c 8d2b 0c3d de76 0a3d
00000130: d9f1 b63d 80c3 da3d 88ee 47bd 5b78 63bd
00000140: 318e e93c a492 903c 40c6 84ba 30d6 0b3e
00000150: 0444 063e 0738 963d 36ff 49bd 9c5f 1b3c
00000160: 20f8 8f3d 7937 56bc 1cc4 3dbd 426d 63bd
00000170: e1a8 393d 8178 043e 1e37 ee3d c519 033e
00000180: 7693 113d cc5b cb3d 1967 2e3c 98bf 6e3d
00000190: 5825 b83d 291e 163e 698b c13d a062 dcbc
000001a0: ed51 073b bdf0 c63d 28db 96bd 0e9f 52bb
000001b0: c45e 9ebc edd1 8f3d 9872 213e afdd b4bc
000001c0: c1dc 713c 72bc d9bc 6f0e 543d d4db b5bd
000001d0: 870e fd3d f816 a53d 2e05 b4bd 5a1e 1dbc
000001e0: d717 323d 41be bc3c a7fc 023e 7243 85bd
000001f0: 6067 723d 095c 193d 8b85 203e 37eb 63bd
00000200: 6cb3 cd3d fbab 72bd 5f4b 91bc 32fd a2bc
00000210: b00c 993d c2f3 073d 0092 4c3d cb06 e7bd
00000220: 6048 f2bc e230 143d f734 c2bd c8e2 8e3c
00000230: 69f0 1dbd cdd8 02be 5d34 d73d bf31 23bd
00000240: 9bda ce3d 6b3e a4bd 57f1 663c d524 e2bb
00000250: e18e 593d 531f a3bd c3ce 62bd 158d 6e3c
00000260: e483 303d 368e 8d3c 982d 863d aa00 173d
00000270: 1a2d 6c3d da4a b23d 609c 09bd a613 833c
00000280: c024 f53d 989e ca3d 4fcb 943d 6798 b33a
00000290: 21bb c03d 8074 3d3d 5464 453d 976e 163d
000002a0: 63c6 963c dfeb dc3c b1e4 0b3d a58f 5f3c
000002b0: b7c2 0c3e 7f3d 923d bfab 9d3b 4282 be3c
000002c0: 396a 4fbd a216 a13c 52b2 c13d 48f2 6f3d
000002d0: 4347 af3d 7668 b9bd e512 5cbc 2d0f 403d
000002e0: 2d1e 033c ebab fb3d e3c6 ef3d 281e 0a3d
000002f0: a51b 3b3d 0405 90bd 712a c0bb 2a9c 973d
00000300: d221 153e e152 d6bc db6e e7bc fe76 b93c
00000310: 82bc 9bbd 35d5 05bc 6e8b 2abb b6bd 193d
00000320: 2e17 f03d 66f9 143d 3d57 96bd 5d2c fe3d
00000330: 900c 9fbd 01e0 aabc bcac 0cbd b4bd e93c
00000340: 3a5a 503c 1165 733d 562a 313d 1eec 2f3e
00000350: 88e0 f9bc e92b a83d e9b3 e1bc 8b5f 88bd
00000360: cdf4 fc3d a02a ee3d ac73 333e efe2 1bbc
00000370: 71f8 29bd 8310 0c3e cc92 20bd a406 50bd
00000380: 400a d3bc 4123 cf3d c39c cabd 5d16 ff3c
00000390: 09d6 23bd 2243 bdbd 3032 083b 49bc a23b
000003a0: ec54 16ba 3e23 a2bb fe0c 1d3c c9f5 c63d
000003b0: b720 5a3d 10e1 823d f7a2 45bc 3768 423d
000003c0: aeca aabb 9c16 f33d fd08 e53c 2541 0d3d
000003d0: e2b0 883c 325f 903d 8b59 fc3d 3731 c1bd
000003e0: 4df0 d7bd bfae ac3c 59a3 edbd 5e31 f3bb
000003f0: 2f4c d53c 5d57 543d 430b c33d 324f 99bd

action_model._discrete_distribution.branches.2.bias f4 [2]
0.06305759 -0.06305654
00000000: 5624 813d ca23 81bd
