Assets/Neural Network/Test/ButtonPress.onnx (onnx, 399878 bytes, 13 tensors)

discrete_act_size_vector f4 [1, 4]
0	0x40400000	3.0
1	0x40400000	3.0
2	0x40000000	2.0
3	0x40000000	2.0

network_body._body_endoder.seq_layers.0.weight f4 [256, 111]
0	0x3c6c0475	0.0144053595
1	0xbf15ff93	-0.585931
2	0x3d2c35d9	0.04204354
3	0x3e34209d	0.17590566
4	0x3d316ce1	0.043316726
5	0x3d6c7db7	0.05773708
6	0xbed2be5d	-0.4116086
7	0xbd9283e7	-0.071540646
8	0x3db8a1f2	0.090152636
9	0x3d34eddf	0.044172164
10	0x3dd2f495	0.103005566
11	0xbe6acaa8	-0.2292887
12	0x3d0cb49a	0.034351923
13	0xbcf8bfa1	-0.030364813
14	0x3ca22d2c	0.01979693
15	0x3dfcfa53	0.12352433
16	0xbf133219	-0.5749832
17	0xbdb36050	-0.087586045
18	0x3d58d576	0.052937947
19	0x3c2cd62e	0.010549111
20	0xbd6ba4eb	-0.057530325
21	0xbecbf23d	-0.3983325
22	0xbe4dec84	-0.20109755
23	0xbd8968fd	-0.06709478
24	0xbd979c1e	-0.07402824
25	0x3e00d520	0.125813
26	0xbef69d96	-0.48167104
27	0xbd0f1652	-0.034933396
28	0xbd67a50f	-0.056553897
29	0xbd3d939d	-0.046283353
30	0xbd3d0f9b	-0.04615746
31	0xbf0b0391	-0.54302317
32	0xbb90f68a	-0.004423921
33	0xbd8e0ff4	-0.069366366
34	0xbe12658b	-0.14296548
35	0x3ded6559	0.11591596
36	0xbec457ef	-0.38348338
37	0xbe048b6b	-0.12943809
38	0xbcd08058	-0.025451824
39	0xbd87f940	-0.066393375
40	0xbb35e22f	-0.0027753224
41	0xbf0372a1	-0.51346785
42	0x3a44012c	0.0007476981
43	0x3e5ba537	0.21449743
44	0x3d09aa94	0.03360994
45	0xbe8984f2	-0.26859242
46	0xbf30fcc8	-0.69135714
47	0x3d30d5a6	0.0431725
48	0x3e70ca1a	0.23514596
49	0xbc9e3244	-0.019311078
50	0xbd58a2ef	-0.05288976
51	0xbf0c11d7	-0.5471472
52	0x3d9b7ffc	0.075927705
53	0x3d7028c5	0.05863263
54	0x3e43b5fe	0.19112393
55	0x3c62ac74	0.013835061
56	0xbe9b292e	-0.30304855
57	0x3e248471	0.16066147
58	0xbe0a322a	-0.13495699
59	0x3da6b06a	0.08139117
60	0xbe5ba259	-0.2144865
61	0xbed38648	-0.41313386
62	0xbd1ed26e	-0.0387749
63	0x3e419907	0.18906032
64	0x3d621bf9	0.055202458
65	0xba40b9cc	-0.00073519046
66	0xbe1617c1	-0.14657499
67	0xbe06017c	-0.13086504
68	0x3bb47862	0.005507515
69	0xbcebfc04	-0.028806694
70	0x3cb9a161	0.02265996
71	0xbe937720	-0.28801823
72	0xbe469e55	-0.19396336
73	0xbd1b6586	-0.037938617
74	0xbd976e83	-0.07394125
75	0x3d21a0d1	0.039460007
76	0xbe2c7397	-0.16840969
77	0x3dc07672	0.09397592
78	0x3cf7b3c9	0.030237095
79	0xbd8409f6	-0.064472124
80	0x3d02d4c4	0.03194119
81	0xbefa220b	-0.48854098
82	0x3c8afa0f	0.01696494
83	0xbdee6f9f	-0.11642384
84	0xbd161e03	-0.036649715
85	0x3daa0996	0.083026096
86	0xbdc82c9f	-0.09774136
87	0xbd9a3001	-0.07528687
88	0xbcd0e044	-0.025497563
89	0x3d46e7d5	0.048560936
90	0x3d655edc	0.055998668
91	0xbea9e4af	-0.33182284
92	0x3d1cdbb3	0.03829546
93	0xbab71e83	-0.0013970885
94	0xbd3c9588	-0.04604104
95	0xbd899def	-0.067195766
96	0xbe62a117	-0.22131763
97	0x3d870d0b	0.065942846
98	0x3e345f2d	0.17614432
99	0xbdc105db	-0.09424945
100	0xbd9190dc	-0.07107708
101	0xbe861224	-0.26185715
102	0x3d8b6a55	0.068073906
103	0x3cfca694	0.03084115
104	0x3c36e842	0.011163773
105	0xbddb6a1b	-0.107135974
106	0x3da97846	0.082748935
107	0xbdf04769	-0.117323704
108	0x3cc6747c	0.024225466
109	0xbd21a3dd	-0.039462913
110	0x3d45d720	0.048300862
111	0x3dcc899e	0.09987186
112	0xbd7ea5cc	-0.062169835
113	0xbc3d6f5b	-0.011562194
114	0x3d706194	0.058686808
115	0xbdbfeed3	-0.09371724
116	0x3d8b95f1	0.068157084
117	0xbe9468b0	-0.2898612
118	0xbe95fdcc	-0.29295194
119	0x3e0f86d4	0.14016277
120	0x3d28b2d4	0.04118617
121	0x3e1c24e6	0.1524845
122	0xbd882937	-0.06648486
123	0x3d8eaa67	0.069660954
124	0x3d722faa	0.059127487
125	0xbc9bbe0d	-0.019011522
126	0x3ccb9e3c	0.024855725
127	0xbdeaf02b	-0.1147159
128	0xbe80628a	-0.2507518
129	0xbd4a8cdc	-0.04945074
130	0x3e17d9f7	0.1482924
131	0xbd196706	-0.037451766
132	0x3d45baa7	0.04827371
133	0xbdc8ea33	-0.09810295
134	0xbdb1913c	-0.086702794
135	0xbdcb3037	-0.099213056
136	0xbe19cd75	-0.15019782
137	0xbf0fa9f3	-0.56118697
138	0xbd889daa	-0.06670697
139	0x3c68d142	0.014210047
140	0xbd947bc8	-0.07250172
141	0x3daf899a	0.08571167
142	0xbe65914f	-0.22418712
143	0xbb84838d	-0.0040440024
144	0xbdba479e	-0.09095691
145	0xbb0b2bc2	-0.0021235798
146	0x3d5820c0	0.052765608
147	0xbd4abaae	-0.049494438
148	0xbb390709	-0.0028232953
149	0x3c619bfa	0.013770098
150	0x3d489d9e	0.04897844
151	0xbce36ca8	-0.027761772
152	0xbc1e4bfe	-0.009661673
153	0x3e2b3be0	0.16722059
154	0xbe51776a	-0.20455709
155	0xbdab5f37	-0.0836777
156	0xbe13ece8	-0.14445841
157	0xbe57f7db	-0.21090643
158	0x3d18a480	0.037266254
159	0x3dcf7f4a	0.101317
160	0x3d5b655a	0.053563453
161	0x3d8c55aa	0.068522766
162	0xbc81c112	-0.015839133
163	0xbbf948f9	-0.007607576
164	0xbdf8ed61	-0.121546514
165	0x3d171a76	0.03689047
166	0xbe5078c2	-0.20358565
167	0xbe837e74	-0.25682414
168	0xbd96a753	-0.07356133
169	0x3da69d59	0.081354804
170	0x3e141e39	0.14464654
171	0xbdc9c328	-0.09851676
172	0xbe3df3aa	-0.18549982
173	0xbd65e7e0	-0.056129336
174	0xbdd2cbc7	-0.10292774
175	0x3e384be9	0.17997707
176	0x3e38dce7	0.18053018
177	0xbd8367a0	-0.06416249
178	0xbc6a2590	-0.014291182
179	0x3d04f729	0.032462273
180	0xbd069166	-0.032853507
181	0xbc0feb39	-0.008784109
182	0xbde9d9c1	-0.114184864
183	0xbc3470e8	-0.011013247
184	0x3e10ffcc	0.14160079
185	0x3ded2977	0.115801744
186	0xbc0c2725	-0.008554255
187	0xbe1fee8e	-0.15618345
188	0xbe2f96e3	-0.17147402
189	0xbe463b11	-0.1935847
190	0x3e14237e	0.14466664
191	0xbb049cf8	-0.0020235162
192	0x3e945d7c	0.28977573
193	0x3e4e32fb	0.20136635
194	0xbddf1da0	-0.108943224
195	0xbd4d0261	-0.050051097
196	0xbd8a26e5	-0.067457
197	0xbe2e4036	-0.17016682
198	0x3ea27ee0	0.31737423
199	0xbcc7535e	-0.024331745
200	0xbda1fbd8	-0.079093635
201	0x3e0f3f45	0.13988979
202	0x3e33e2ff	0.17567061
203	0x3ce5e220	0.028061926
204	0xbded300b	-0.11581429
205	0xbd088504	-0.03332998
206	0x3ddea737	0.108717375
207	0xbe242fd9	-0.16033877
208	0xbd7f6258	-0.062349647
209	0x3e38f46a	0.18061987
210	0x3cc2dd70	0.02378723
211	0xbe0ed03b	-0.13946621
212	0x3e913539	0.28360918
213	0x3e36a230	0.17835307
214	0xbdf244cb	-0.118295275
215	0x3d0994dd	0.033589233
216	0x3d316e32	0.04331798
217	0xbde5b88c	-0.1121684
218	0x3d9a36e7	0.07530003
219	0xbdbc80ca	-0.09204252
220	0xbd479f0f	-0.048735674
221	0x3cb9668c	0.022631906
222	0xbe27f86b	-0.16403358
223	0x3d3d3217	0.046190348
224	0x3e0cde48	0.13756669
225	0xbd931f64	-0.07183722
226	0xbe39c4d4	-0.1814149
227	0x3e27d918	0.16391408
228	0x3dafd039	0.08584637
229	0x3dd96729	0.10615379
230	0xbe1585d7	-0.14601837
231	0x3e21f849	0.1581737
232	0xbd25eada	-0.040507175
233	0x3d4e6a18	0.050394148
234	0x3e166fb7	0.14691053
235	0xbd244f85	-0.0401149
236	0xbc6ffc82	-0.014647605
237	0xbce6ff32	-0.028197858
238	0x3c7e3c82	0.015517356
239	0xbd09842c	-0.033573315
240	0xbdc3f2d0	-0.09567797
241	0xbc153ffa	-0.0091094915
242	0xbdb9c774	-0.09071246
243	0x3d8e74dd	0.06955884
244	0xbbdf37e6	-0.0068120835
245	0xbd9dbd44	-0.07702115
246	0xbcc202d7	-0.023682995
247	0xbe150799	-0.1455368
248	0x3d2e3ce6	0.042538546
249	0xbe3fd558	-0.18733728
250	0xbc822501	-0.015886785
251	0x3d9b109c	0.07571527
252	0xbe0e5542	-0.13899711
253	0x3e3cb986	0.18430147
254	0xbc34f902	-0.011045696
255	0xbd660350	-0.056155503

network_body._body_endoder.seq_layers.0.bias f4 [256]
0	0xbc8165fe	-0.015795704
1	0x3bfcc4ce	0.0077138906
2	0xbc83ad4f	-0.01607385
3	0xbc96772b	-0.01836737
4	0xbb924605	-0.0044639134
5	0xbc57ffeb	-0.013183574
6	0x3cbba651	0.022906454
7	0x3b12303a	0.0022306577
8	0xbc22e712	-0.009942787
9	0xbca368bc	-0.019947402
10	0xbca14b14	-0.01968912
11	0xbc766fd3	-0.015041309
12	0x3b97b2b9	0.0046294597
13	0xbaf07a69	-0.0018347028
14	0x3c7e593d	0.015524206
15	0x3bd4638b	0.006481593
16	0x3bc7d168	0.006097961
17	0xbb73b0a4	-0.0037184143
18	0xbbbb462c	-0.0057151522
19	0x3cbd8091	0.023132594
20	0xbccbcfcb	-0.024879357
21	0x3b0695e4	0.002053612
22	0xbcdf5cb6	-0.027265888
23	0x3bd44a57	0.0064785886
24	0xbc702c0c	-0.014658939
25	0x3c14e153	0.009086925
26	0xbc46478b	-0.012102018
27	0xbc5d4eed	-0.013507587
28	0x3d897b2f	0.067129485
29	0xbbe8666b	-0.0070922873
30	0xbcaf8dbe	-0.021429893
31	0xbdd3b0cd	-0.103364564
32	0x3d7960e1	0.060883407
33	0xbc077798	-0.0082682595
34	0xbbf2b4cb	-0.007406806
35	0xbc0467d3	-0.008081394
36	0x3c3f89fe	0.011690615
37	0xbcb51ca1	-0.022108378
38	0xbbde4d5a	-0.0067841234
39	0x3be8c23b	0.007103232
40	0x3c7d3140	0.015453637
41	0xbad6f35e	-0.0016399433
42	0x3c2c74d9	0.0105259055
43	0xbce74f9b	-0.028236201
44	0x3cf72c75	0.030172566
45	0x3c6d15f8	0.01447057
46	0x39f2fbdc	0.00046345487
47	0xbc0b56ba	-0.008504564
48	0x3b4b303f	0.0031004099
49	0xbc87d435	-0.01658068
50	0x3c9f99b4	0.019482471
51	0xbc57734e	-0.013150049
52	0xbce32f92	-0.027732644
53	0x3b709d96	0.0036715022
54	0xbbe0308b	-0.0068417243
55	0xbbd263a2	-0.0064205686
56	0xbc7def00	-0.015498877
57	0xbb8132fd	-0.003942846
58	0x3b0e1d33	0.0021684885
59	0xbbdf914d	-0.006822741
60	0xbc1a4df2	-0.009417998
61	0x3c8c0b9f	0.017095385
62	0x3ab4c4e8	0.0013791593
63	0xbc230462	-0.009949775
64	0xba2a1ad8	-0.00064889854
65	0x3b9c4cc6	0.0047698943
66	0xbbd73dd8	-0.0065686516
67	0xbd0c6ae2	-0.03428162
68	0xbb652e8a	-0.0034970366
69	0xbb30eb0e	-0.0026995572
70	0xbbcaa9cb	-0.0061847917
71	0xbcb06b9f	-0.021535693
72	0xbc38cfef	-0.011280044
73	0x398a809b	0.0002641723
74	0x38c25e65	9.268223e-05
75	0x3ba8b96c	0.005149057
76	0xbc525e8a	-0.012839923
77	0x3aee7bc0	0.0018194839
78	0xbc87d71a	-0.01658206
79	0xbcbdf7e3	-0.02318949
80	0x39f6149c	0.00046936132
81	0xbb0643a3	-0.0020487092
82	0xbc9915e3	-0.018687194
83	0x3bf3ac8f	0.007436342
84	0x3bc2231d	0.005924596
85	0x3c43ccb7	0.011950663
86	0x3c8b1668	0.016978458
87	0xbc1cf184	-0.009579066
88	0x3cdf394e	0.027249005
89	0x3c6b8501	0.014374972
90	0xbc06f1eb	-0.008236389
91	0xbbe592b8	-0.0070060156
92	0xbc9fa6fb	-0.019488802
93	0xbc011d75	-0.007880558
94	0x3b7e19b7	0.0038772651
95	0x3cb3859e	0.0219143
96	0x3b4a2169	0.0030842668
97	0xbca57476	-0.020197134
98	0xbca32f85	-0.01992012
99	0xbac06b11	-0.0014680346
100	0x3ba83ede	0.0051344475
101	0x3c69a0b5	0.014259507
102	0x3d5262a7	0.051363613
103	0x3ba7a60e	0.005116231
104	0xbc64eb44	-0.013972107
105	0x3c0f4298	0.0087439045
106	0x39eb8f49	0.0004492945
107	0x3b58c0a0	0.0033073798
108	0xbc3b915e	-0.011448232
109	0x3bc5b5e2	0.006033645
110	0x3c5828cc	0.0131933205
111	0x3b20ec79	0.0024555011
112	0xbc6908c3	-0.01422328
113	0x3bab30dd	0.005224331
114	0xbb96225a	-0.0045817317
115	0x3acc9c1e	0.0015610491
116	0xbc785e2a	-0.015159169
117	0x3c48b915	0.012251158
118	0x3c25c870	0.010118589
119	0xbc87839c	-0.016542248
120	0xbbbcf16f	-0.005766086
121	0x3bf15add	0.007365568
122	0xbc875854	-0.01652161
123	0xbcdb3e23	-0.026763028
124	0x3c9a4c60	0.018835247
125	0xbc77119e	-0.015079884
126	0xbc7d309b	-0.015453483
127	0xbb0acb12	-0.0021178168
128	0x3c5d06b4	0.013490368
129	0x3be12b8b	0.006871646
130	0x3c5c463f	0.013444482
131	0xbbe26111	-0.006908544
132	0x3bd67c0b	0.006545549
133	0x3c55f800	0.013059616
134	0xbb9e4295	-0.0048297145
135	0x3cf14442	0.029451493
136	0xbbbb67b8	-0.0057191513
137	0xbb96d319	-0.0046028015
138	0xb9ebe3e8	-0.00044992496
139	0xbdfa28dc	-0.122148246
140	0xbba28edc	-0.004960878
141	0xbc8b3c99	-0.016996669
142	0xbb78f9e2	-0.0037990739
143	0xbb802778	-0.003910955
144	0x3c4395f6	0.011937609
145	0x3c643dbd	0.013930735
146	0xbc22e044	-0.009941164
147	0x3c6f3e56	0.014602264
148	0xbde68e2b	-0.11257585
149	0xbc8cb785	-0.017177353
150	0xbc88cbe9	-0.016698794
151	0x3cedc798	0.029025838
152	0x3c06abb6	0.00821965
153	0x3b82cad8	0.003991466
154	0xba97d954	-0.0011585155
155	0xbc17b80c	-0.009260189
156	0x3c9b1529	0.018930988
157	0xbca49b24	-0.020093508
158	0x3bb3f30e	0.005491621
159	0xbb15e66f	-0.0022872945
160	0xbcd6d2f6	-0.02622364
161	0xbc912485	-0.01771761
162	0x3b341223	0.002747663
163	0x3c43a21d	0.011940506
164	0x3c8542ff	0.016267298
165	0xbb1d35fd	-0.0023988478
166	0x3b2a1d6a	0.0025957474
167	0xbcbbf368	-0.022943214
168	0xbc78b053	-0.015178758
169	0xbbb72e17	-0.005590211
170	0x3c257b22	0.010100158
171	0xbbf1be7d	-0.0073774443
172	0x3cc815c6	0.024424445
173	0x3c98e93d	0.018665904
174	0xbce7c5ef	-0.028292624
175	0x3a2d76e0	0.000661714
176	0xbca2b34f	-0.019860892
177	0x3cdc73b9	0.02691065
178	0xbdc23378	-0.09482473
179	0xbbd5655e	-0.006512328
180	0xbc9742a7	-0.0184644
181	0xbcc2c17a	-0.023773897
182	0xbc9cb432	-0.019128893
183	0x3c898d4e	0.016791012
184	0xbad9aa89	-0.001660661
185	0xbc31b64f	-0.010846688
186	0xbc8c5a6d	-0.017132962
187	0xbc8c0e9a	-0.017096806
188	0xbc132bce	-0.008982612
189	0x3ccb52f5	0.02481983
190	0x3c2e111d	0.010624197
191	0xbb1b4beb	-0.0023696374
192	0x3c997341	0.018731715
193	0xbbbff6b6	-0.0058582677
194	0x3c14bd49	0.009078332
195	0xbab04c7d	-0.001345053
196	0xbccff1f9	-0.025383936
197	0xbb16917c	-0.00229749
198	0xbcaa8098	-0.020813271
199	0x3af8b212	0.0018973968
200	0x3c43226e	0.011910064
201	0xbc92f459	-0.01793878
202	0xbcfd8e75	-0.030951718
203	0xbc9c428e	-0.019074704
204	0xbcd5c4e0	-0.026094854
205	0x3bde7831	0.0067892303
206	0x3cac9694	0.021067895
207	0x3c0a48f1	0.008440242
208	0xbca74a1e	-0.020421084
209	0xba009551	-0.00049050624
210	0x3d975e71	0.0739106
211	0xbc9feb20	-0.019521296
212	0xbc86191a	-0.016369391
213	0xbc69bacc	-0.014265727
214	0xbc2db3cb	-0.010601948
215	0xbbcd009b	-0.0062561757
216	0xbc39d6d2	-0.011342721
217	0x3c846227	0.016160084
218	0x3c9c9401	0.019113543
219	0x3cb14d90	0.02164343
220	0x3cb32195	0.0218666
221	0xbc20fdd5	-0.009826143
222	0xbc9e84d7	-0.019350452
223	0x3bd2f0ef	0.006437413
224	0x3c7669d9	0.0150398845
225	0xbc2bf1c9	-0.010494658
226	0x37fe2f8e	3.0301304e-05
227	0xbc223482	-0.009900214
228	0x3ad18cec	0.0015987433
229	0xbaa88698	-0.0012857495
230	0xbbe2c908	-0.0069209374
231	0x3c97eadf	0.018544612
232	0xbd1478ac	-0.036247894
233	0xbbaa77f3	-0.0052022873
234	0x3c34d68d	0.011037481
235	0x3b57f730	0.0032953732
236	0xbb0cb483	-0.0021469898
237	0x3bfd0665	0.0077217096
238	0x3ae07c07	0.0017126807
239	0xbc474403	-0.012162211
240	0xbc9986c7	-0.018741025
241	0xbcc17640	-0.023615956
242	0x3cc32d44	0.023825295
243	0xbb218887	-0.0024648027
244	0xbc5513b0	-0.013005182
245	0xbbd887fd	-0.006608008
246	0xbad5d535	-0.0016314151
247	0xbbf61cf7	-0.007510777
248	0xbb9b1c25	-0.0047335797
249	0xbc0c4b00	-0.008562803
250	0x3a0e017c	0.00054170913
251	0xbb92866b	-0.0044715903
252	0x3c16ce35	0.009204437
253	0x3c4253db	0.011860813
254	0xbcc24a0f	-0.023716955
255	0x3c575a3d	0.013144073

network_body._body_endoder.seq_layers.2.weight f4 [256, 256]
0	0x3d43f962	0.04784525
1	0x3daa7ba1	0.083243616
2	0xbda35ede	-0.07977079
3	0x3c509107	0.01272989
4	0xbc2eda70	-0.010672197
5	0xbcc57558	-0.024103805
6	0x3c7551a3	0.014973077
7	0x3c3eab59	0.011637532
8	0x3d33782a	0.04381577
9	0xbd42d153	-0.04756291
10	0x3c28ccf7	0.010302774
11	0x3d05ff4d	0.032714177
12	0x3ddaa291	0.10675538
13	0x3d0f2edf	0.03495681
14	0x3df0bd15	0.117548145
15	0x3e031826	0.1280218
16	0x3db1b673	0.086773776
17	0x3d4f4898	0.05060634
18	0x3d1f0491	0.038822714
19	0xbd1e647b	-0.038670044
20	0xbc9811bb	-0.018563142
21	0xbdafa2a5	-0.08575944
22	0x3d90dc5d	0.07073281
23	0x3cc3bfdc	0.023895197
24	0x3ce58144	0.02801574
25	0x3cef8904	0.029240139
26	0x3d4cb811	0.049980227
27	0x3d496c1f	0.049175378
28	0xbdad1a75	-0.08452312
29	0xbc27e263	-0.010246846
30	0xbd56ebfc	-0.052471146
31	0xbdca2565	-0.09870414
32	0x3bebf10c	0.007200366
33	0xbda05185	-0.078280486
34	0xbcb48c24	-0.02203948
35	0x3d07d725	0.033164162
36	0x3d0d74a2	0.034535058
37	0xbcfde973	-0.030995106
38	0x3d6f2867	0.05838814
39	0x3dc973a6	0.09836511
40	0xbdda6697	-0.10664099
41	0xbe181b75	-0.14854224
42	0xbe0a11e3	-0.13483386
43	0x3d15105a	0.036392547
44	0x3e0c0dee	0.13677189
45	0xbdcae777	-0.0990743
46	0xbb7b7ceb	-0.0038374017
47	0xbe2dbc4d	-0.16966362
48	0x3e491ff5	0.19641097
49	0xbd7783e6	-0.060428523
50	0x3b065749	0.0020498803
51	0x3d84ab78	0.064780176
52	0xbbfe5032	-0.007761025
53	0xbca93132	-0.020653341
54	0xbc6dc1d2	-0.014511542
55	0xbd8a6bb9	-0.06758828
56	0x3da050c1	0.078279026
57	0xbd0b230d	-0.033968974
58	0x3d840991	0.06447137
59	0x3d2534b4	0.040333465
60	0x3e1b1073	0.15142994
61	0x3d6c8ec9	0.057753358
62	0xbce7a63d	-0.02827751
63	0x3d8d5c55	0.069023766
64	0x3df0c59e	0.117564425
65	0x3ca8fd27	0.020628525
66	0x3d6d8c47	0.057995107
67	0x3da93c07	0.082634024
68	0xbd22f6ea	-0.039786257
69	0xbd201cc5	-0.039089937
70	0xbc97007b	-0.018432846
71	0x3da3a2fe	0.07990073
72	0x3d82b05e	0.063812956
73	0x3dcf8843	0.10133412
74	0xbc12d1ca	-0.00896115
75	0x3d8388ca	0.06422575
76	0x3d0a1779	0.03371379
77	0x3d4ef9eb	0.05053131
78	0x3d392e92	0.04521043
79	0xbd039f40	-0.032134295
80	0xbd4c50ad	-0.049881626
81	0xbd24551e	-0.040120237
82	0x3d944675	0.07240001
83	0x3ceb2801	0.028705599
84	0xbd83531f	-0.064123385
85	0x3dfe8853	0.124283455
86	0x3c5c862b	0.0134597225
87	0x3d17a15a	0.03701911
88	0xbdb8f29d	-0.0903065
89	0xbd081164	-0.03321971
90	0x3de005bf	0.10938596
91	0xbd9f5259	-0.077793784
92	0xbd9336fb	-0.07188221
93	0xbda6e711	-0.08149541
94	0xbd408cd3	-0.0470093
95	0x3c600832	0.013673829
96	0xbce02655	-0.027362028
97	0xbd700a2c	-0.05860345
98	0x3e563e28	0.20922148
99	0x3e334652	0.17507294
100	0x3dfff42b	0.12497743
101	0xbe09478f	-0.13406204
102	0xbd8633f3	-0.06552877
103	0xbd699180	-0.057023525
104	0x3dae3061	0.08505321
105	0x3db29615	0.08720032
106	0x3d7a4f4e	0.061110787
107	0xbdc79384	-0.09744933
108	0x3cc5d0bd	0.024147386
109	0x3d24fd9e	0.04028093
110	0x3d9bfb0d	0.076162435
111	0xbdd16f78	-0.10226339
112	0xbd1e26eb	-0.038611334
113	0xbd14315c	-0.036179885
114	0xbd813f76	-0.06310932
115	0x3c2594ae	0.010106249
116	0xbdc810e6	-0.09768848
117	0xbe07fdd7	-0.13280426
118	0xbb88f371	-0.004179411
119	0x3cf0fc93	0.029417312
120	0xbd2f619f	-0.042817708
121	0xbd117a06	-0.03551676
122	0xbd1e9b23	-0.03872217
123	0xbcfb9da7	-0.030714823
124	0x3e212f26	0.15740642
125	0x3d13cecc	0.03608589
126	0xbdb6cb0b	-0.08925446
127	0x3dd258d9	0.102708526
128	0x3d6a57c9	0.057212625
129	0x3c9f7d1b	0.019468835
130	0x3df31c18	0.11870593
131	0xbd759e95	-0.05996569
132	0xbd4a2fd6	-0.049362026
133	0x3d26ddc6	0.040738843
134	0xbe302028	-0.17199767
135	0x3d95ce42	0.07314731
136	0x3d1c19e2	0.03811062
137	0xbd1735eb	-0.036916655
138	0x3da7eb47	0.081991725
139	0x3dba31c5	0.09091524
140	0x3d4b2f75	0.049605805
141	0x3c88f43c	0.016718023
142	0x3a5f1df8	0.00085112406
143	0xbc5adc09	-0.0133581245
144	0xbd52bcd4	-0.05144961
145	0x3ce9d363	0.02854318
146	0xbd859579	-0.0652265
147	0x3c8dc527	0.017305924
148	0x3b302bdd	0.0026881613
149	0x3c5b4ce3	0.01338503
150	0xbcaeda74	-0.021344401
151	0x3e27b59b	0.1637787
152	0xbd590169	-0.05297986
153	0xbddcf1d3	-0.10788312
154	0x3ce0fc94	0.027464189
155	0x3d2b2195	0.041780073
156	0x3ceb2ab8	0.028706893
157	0xbddc63b6	-0.10761206
158	0xbd634805	-0.055488605
159	0xbce52f38	-0.027976617
160	0xbdc8f8f5	-0.0981311
161	0xbc8cea5e	-0.017201599
162	0xbd7293e1	-0.05922306
163	0xbd95f711	-0.07322515
164	0x3d4918b8	0.04909584
165	0x3cd1e72d	0.025622929
166	0xbc8b0792	-0.016971383
167	0xbd98f3c3	-0.07468369
168	0xbdacfc87	-0.08446603
169	0x3d23c555	0.039983112
170	0xbe12d863	-0.14340357
171	0x3d3c3fac	0.04595916
172	0xbcbfd1f9	-0.023415552
173	0xbd9dba0a	-0.077015
174	0xbdb0c23c	-0.08630797
175	0xbd7116aa	-0.058859505
176	0x3e09d063	0.134584
177	0x3ce887d8	0.028385088
178	0x3c0321bf	0.008003651
179	0xbd8b0057	-0.06787174
180	0x3daebe96	0.08532445
181	0x3d8840b7	0.066529684
182	0xbd506872	-0.050880857
183	0x3dd3e89b	0.103471
184	0x3d8da0e7	0.06915455
185	0xbc31aa07	-0.01084376
186	0x3e144676	0.14480004
187	0x3b672bf3	0.0035273999
188	0xbc308458	-0.010773741
189	0xbd6062ba	-0.054781653
190	0xbd6f9444	-0.058491006
191	0x3d075768	0.03304234
192	0xbc134f55	-0.008991082
193	0x3b9a6db6	0.0047127856
194	0x3d0b400f	0.033996638
195	0xbd870d23	-0.065943025
196	0xbca01032	-0.019538973
197	0x3d3bf1ed	0.045885015
198	0x3d76dced	0.060269285
199	0x3d809d8c	0.0628005
200	0x3cf6a5f2	0.030108426
201	0xbb06c440	-0.0020563751
202	0x3da30834	0.07960549
203	0xbd407f2d	-0.046996284
204	0xbd657802	-0.05602265
205	0xbc5220f2	-0.012825238
206	0xbbd9409d	-0.006630017
207	0xbdcc203a	-0.09967084
208	0x3d058daf	0.032605823
209	0x3d535e4c	0.0516036
210	0xbc9eead1	-0.019399079
211	0x3de47861	0.11155773
212	0xbd2e76b7	-0.042593684
213	0xbca6806b	-0.020324906
214	0x3d510bf7	0.0510368
215	0xbd26c31f	-0.040713426
216	0x3cec7f7d	0.028869385
217	0xbc140922	-0.009035381
218	0x3ba745f4	0.0051047746
219	0xbd99ba60	-0.07506251
220	0xbc94cc79	-0.018163906
221	0x3d617839	0.055046294
222	0x3dc26a2e	0.094929084
223	0xbca75a72	-0.02042887
224	0xbd90e32f	-0.07074582
225	0x3bef2cd1	0.0072990437
226	0x3d00f7f5	0.03148647
227	0xbc53746c	-0.012906175
228	0x3cc9b5b0	0.024622768
229	0xbd81ad5f	-0.06331896
230	0x3de5b1ab	0.11215528
231	0x3ca28907	0.01984073
232	0xbcd81262	-0.026375953
233	0x3e36f77a	0.17867842
234	0xbd8f0385	-0.06983093
235	0x3de78b8b	0.113059126
236	0xbd865909	-0.06559951
237	0xbd77ed4b	-0.060529035
238	0x3cf7493a	0.030186284
239	0x3bb5bf4c	0.005546486
240	0x3d395f84	0.045257106
241	0x3d28f0bd	0.04124521
242	0xbaff5ca6	-0.0019482567
243	0xbd787f8d	-0.060668517
244	0x3d02efde	0.031967036
245	0xbd8fb0a4	-0.070161134
246	0x3de9f1b9	0.11423058
247	0xbe1be536	-0.15224156
248	0x3d81bb0c	0.063345045
249	0xbe0c7d12	-0.13719586
250	0x3cf0329a	0.029321004
251	0xbbc31daf	-0.0059544663
252	0xbd735f62	-0.059417136
253	0x3d91fdf2	0.07128514
254	0xbe00ee81	-0.12590982
255	0xbac21006	-0.0014805801

network_body._body_endoder.seq_layers.2.bias f4 [256]
0	0xbb6b57e7	-0.0035910548
1	0x3ca6f252	0.02037922
2	0x3c0f0d80	0.008731246
3	0x3abe1e54	0.0014504888
4	0x3a03de94	0.000503042
5	0xbd26bee3	-0.040709388
6	0x3d26844f	0.040653523
7	0x3aaad7c5	0.0013034275
8	0xbb008c78	-0.0019614976
9	0x3d5983be	0.053104155
10	0x3d0c75d8	0.034292072
11	0xbb6878cd	-0.0035472394
12	0x3d0e9767	0.034812357
13	0x3ca1b8fe	0.019741531
14	0xbd214006	-0.039367698
15	0xbcafa6f7	-0.02144192
16	0x3c3e1e22	0.011603864
17	0x3c5320c6	0.012886232
18	0x3c564bd1	0.0130795995
19	0x3c7e07df	0.015504806
20	0x3b1242f1	0.0022317732
21	0x3bcbed98	0.0062233917
22	0x3d251e5c	0.040312156
23	0x3d4a12da	0.049334385
24	0xbd21bb86	-0.039485477
25	0xbaf2be3b	-0.0018519828
26	0x3c15bcbc	0.009139236
27	0x3b2a6a22	0.0026003201
28	0x3bdfa354	0.00682489
29	0xbd0931f9	-0.033494923
30	0x3b901f6d	0.0043982775
31	0x3c17a77b	0.009256239
32	0x3d00df85	0.031463165
33	0x3d0aa417	0.033847895
34	0x3c2e88ee	0.010652764
35	0x3c75f287	0.015011436
36	0xbd01ed89	-0.03172067
37	0x3b9e6c2f	0.004834674
38	0x393de2bd	0.00018108911
39	0x3cdcd5d6	0.026957434
40	0x3ba33d04	0.004981639
41	0xbc0c8a78	-0.008577935
42	0xbb13cec3	-0.002255366
43	0xbb466f73	-0.0030278831
44	0x3c5258ed	0.012838584
45	0xbc8cde14	-0.017195739
46	0xbc9183bf	-0.017763017
47	0x3c27fce9	0.01025317
48	0x3c2538b6	0.010084322
49	0x3ccf1256	0.025277298
50	0xbc3854fe	-0.0112507325
51	0x3c5d55a5	0.013509189
52	0xbc1f62fd	-0.0097281905
53	0xbbb87d41	-0.005630166
54	0xbc577427	-0.0131502515
55	0x3d379953	0.044823956
56	0xbc284a3a	-0.010271603
57	0x3c92d4fd	0.017923826
58	0x3c7e314e	0.015514685
59	0x3d0fc335	0.035098273
60	0x3cac4f3b	0.021033874
61	0x3cc4e013	0.024032628
62	0xbc0f88c9	-0.0087606395
63	0xb9b0b067	-0.00033700766
64	0x3cda1acb	0.026624104
65	0x3d1c949a	0.038227655
66	0x3cab84d2	0.020937357
67	0xbcef9938	-0.029247865
68	0xba9488c0	-0.0011332259
69	0xbb87b283	-0.0041411533
70	0x3c055a49	0.008139201
71	0x3c00985c	0.007848825
72	0x3cd407fc	0.025882713
73	0x3c629eaa	0.013831774
74	0xbcd666ea	-0.02617212
75	0xbc9703d1	-0.018434437
76	0x3ce99880	0.0285151
77	0x3ccd7d66	0.025084209
78	0xbb32811d	-0.0027237602
79	0x3ccee806	0.025257122
80	0x3c9fdcd4	0.019514479
81	0x3bb61c89	0.005557601
82	0xbcd03f43	-0.02542079
83	0xbbceec72	-0.0063148076
84	0x3c54ab4d	0.012980294
85	0x3d71cc1e	0.059032552
86	0x3b68fb75	0.003555027
87	0xbc478078	-0.012176625
88	0x3cc08193	0.023499286
89	0x3c540a14	0.012941856
90	0x3d5f0451	0.054447476
91	0xbcc5d06b	-0.024147233
92	0xba159360	-0.00057058595
93	0x3c83ec96	0.016104024
94	0x3c8d99df	0.017285286
95	0xbc387c0e	-0.011260046
96	0xbcb588b9	-0.022159921
97	0x3c71490b	0.014726887
98	0x3cbea33b	0.023271194
99	0xbc6c58f2	-0.014425503
100	0xbc823392	-0.015893731
101	0xb9f26f42	-0.0004624073
102	0xbd2158f4	-0.039391473
103	0xbc02d29f	-0.007984786
104	0x3c9fee7a	0.019522894
105	0x3ca8a530	0.02058658
106	0x3d11e70f	0.035620745
107	0x3d4b9b22	0.049708493
108	0x3c860502	0.01635981
109	0xbd39fc03	-0.045406353
110	0x3bac63cf	0.0052609215
111	0x3c9fe495	0.019518176
112	0x3c9cba09	0.019131677
113	0x3c462e60	0.012096018
114	0xbd37520f	-0.04475599
115	0x3cdc9eba	0.026931155
116	0x3d4a1bba	0.04934285
117	0xbcd446cf	-0.02591267
118	0x3b04b8e6	0.002025181
119	0xbcb92f94	-0.022605695
120	0x3bb0932e	0.005388639
121	0x3cb720dd	0.022354538
122	0xbcb7ca7d	-0.022435421
123	0xbc56cc93	-0.013110298
124	0xbbc328ef	-0.0059558074
125	0x3d4e8615	0.05042084
126	0x3cd4da38	0.025982961
127	0xbcb22d5e	-0.021750148
128	0x3aec2384	0.0018015956
129	0xbbbf1785	-0.005831661
130	0x3cab6532	0.020922277
131	0x3c5fd8b9	0.013662511
132	0x3c869255	0.016427198
133	0x3c6b783d	0.014371929
134	0x3c0cc0bf	0.008590876
135	0xbce70db4	-0.028204776
136	0x3c58e418	0.013237976
137	0xbc9f1f48	-0.019424096
138	0x3c00ce40	0.007861674
139	0x3b1d0a36	0.0023962385
140	0x3c825a69	0.015912252
141	0x3c1a786c	0.009428125
142	0xbc49196b	-0.0122741265
143	0x3b836878	0.0040102564
144	0x3c254fad	0.010089797
145	0x3b5370ce	0.0032263282
146	0x3cb64541	0.02224982
147	0xb8e3cc6c	-0.0001086228
148	0x3cb8c059	0.022552656
149	0x3d0138d1	0.031548325
150	0x3cd7fc22	0.026365343
151	0xbce36821	-0.027759613
152	0x3cc9485d	0.024570638
153	0xbbda0235	-0.006653095
154	0x3c365bd5	0.011130293
155	0xbb25b3a9	-0.0025284088
156	0xbb104d50	-0.0022018738
157	0x3c68ca7c	0.014208432
158	0x3c35c555	0.011094411
159	0x3c4644e1	0.012101383
160	0x3cb0f277	0.021599991
161	0xbbf7bf5e	-0.0075606545
162	0xbcbb19e3	-0.022839492
163	0x3bb809bc	0.005616395
164	0x3c28e8cf	0.010309412
165	0x3d1642dc	0.036684856
166	0x3cacca8f	0.021092681
167	0x3d04b781	0.032401565
168	0xbc99fbb5	-0.018796781
169	0xba1a6663	-0.00058898906
170	0x3c7f4c7d	0.015582201
171	0x3cec1084	0.028816469
172	0x3c96ad23	0.018393105
173	0x3c861489	0.016367214
174	0xbcf354e8	-0.029703572
175	0x3c82d5d0	0.015971094
176	0x3cbd8afe	0.023137566
177	0xbd30c5a7	-0.043157246
178	0xba9e2f30	-0.0012068506
179	0xbc903f57	-0.017608328
180	0x3c2c1354	0.010502655
181	0x3cc3c022	0.023895327
182	0xbd12ae53	-0.03581078
183	0x3c1da3de	0.0096215885
184	0x3b5446e2	0.0032390882
185	0x3c7a4d9d	0.0152772935
186	0x3ca89962	0.020580951
187	0xbc583167	-0.013195372
188	0x3c2a10e8	0.010380007
189	0x3ad70557	0.001640479
190	0x3cae4dde	0.021277364
191	0x3b8402e9	0.004028667
192	0x3ccaa1d5	0.02473537
193	0x3bb18d45	0.005418452
194	0x3c90cca9	0.017675715
195	0x3c9976b0	0.018733352
196	0x3aab29b0	0.0013058688
197	0xbca488ad	-0.020084703
198	0x3c767b1e	0.015044002
199	0xbc7f1162	-0.015568109
200	0x3ca6e11a	0.020371009
201	0xbce82641	-0.028338553
202	0x3c2f4814	0.010698337
203	0xbb3c8c23	-0.0028770051
204	0x3d0ba147	0.034089353
205	0xbc923c62	-0.017851058
206	0x3c42cb51	0.011889295
207	0x3d14e647	0.036352422
208	0x3c73361f	0.014844446
209	0x3bd6f009	0.006559376
210	0x3cfb3a16	0.030667346
211	0x3be78672	0.0070655877
212	0x3bf30db0	0.007417403
213	0x3c59d787	0.013296015
214	0x3c00509b	0.007831718
215	0xbc0ab11e	-0.00846508
216	0x3b38b97a	0.0028186725
217	0x3c3465c3	0.01101059
218	0x3c2c0bb9	0.010500842
219	0xbced0781	-0.028934242
220	0xbc8a15c8	-0.01685609
221	0x3cfb41cb	0.030671021
222	0x3c8d883b	0.017276874
223	0x3ccb7129	0.024834232
224	0xbc020a85	-0.007937078
225	0x3c613d0d	0.013747466
226	0xbc05a5db	-0.008157219
227	0x3c2b3f9e	0.010452179
228	0x3c6d92f9	0.014500373
229	0xbca466a8	-0.020068482
230	0x3bd0b41d	0.0063691274
231	0xbd105c15	-0.035244066
232	0x3a61863c	0.00086030713
233	0x3c9204da	0.017824579
234	0x3bf5aba1	0.0074972664
235	0x3a3ca522	0.00071962376
236	0x3cf8ffc3	0.030395394
237	0x3d32bd3c	0.0436375
238	0x3cbe44dc	0.023226194
239	0x3d684aec	0.056712076
240	0x3be25475	0.0069070407
241	0x3c5edcde	0.0136024635
242	0x3c2c1fcd	0.010505629
243	0xbcb40b3d	-0.021978015
244	0x3c90e241	0.017686011
245	0x3bacbfe3	0.005271898
246	0x3c248462	0.010041328
247	0x3cf409e4	0.029789872
248	0x3c6cca79	0.01445257
249	0x3bb6ced9	0.0055788574
250	0x3d2a6335	0.041598517
251	0xbaef3dc2	-0.0018252658
252	0xba3a49c7	-0.00071063306
253	0x3bcdc89a	0.006280017
254	0x3c945200	0.018105507
255	0xbc2352fd	-0.009968516

action_model._discrete_distribution.branches.0.weight f4 [3, 256]
0	0xbcf296bf	-0.029612897
1	0x3c7200f4	0.014770735
2	0xbd045c90	-0.032314837
3	0xbcbc2d3d	-0.02297079
4	0x3bfbd99a	0.0076858522
5	0x3cd1ed4f	0.025625853
6	0x3cd37359	0.025811838
7	0x3cdaaf27	0.026694847
8	0xbc65335e	-0.013989298
9	0x3d2c3283	0.04204036
10	0xbc92cc32	-0.017919634
11	0x3c9426d8	0.018084928
12	0x3c884cc0	0.01663816
13	0x3c23c690	0.009996071
14	0x3c81bf5e	0.015838321
15	0x3c3fd1b4	0.011707712
16	0x3c7af1a2	0.015316399
17	0xbce4da59	-0.027936148
18	0x3c21db2f	0.009878918
19	0xbc45a590	-0.012063399
20	0x3ae0ade4	0.0017141667
21	0x3af0e771	0.0018379522
22	0x3c445ea4	0.011985455
23	0x3c9c9f34	0.019118883
24	0xbab829b5	-0.0014050516
25	0xbd3bcc82	-0.04584933
26	0xbcffe087	-0.031234993
27	0x3cc05733	0.02347908
28	0xbb968250	-0.004593171
29	0xbb2b0455	-0.0026095111
30	0xbd42a0e3	-0.047516715
31	0xbb953825	-0.004553812
32	0xba8675ff	-0.0010258554
33	0xbc47494f	-0.012163474
34	0xbd155179	-0.03645465
35	0xbccc8dd9	-0.024969982
36	0x3b1a86e9	0.0023578948
37	0xbca24a42	-0.0198108
38	0x3cde9af2	0.027173493
39	0xbc1532be	-0.009106336
40	0x3c9e7d64	0.0193469
41	0x3d042000	0.03225708
42	0x3d0f04e5	0.034916777
43	0xbc500bd9	-0.012698137
44	0x3c0c76fd	0.008573291
45	0x3c299088	0.0103494
46	0x3c997dfc	0.018736832
47	0xbc8c8495	-0.017153064
48	0xbc27a116	-0.010231277
49	0x3cd1d8ae	0.025616016
50	0xbc6bb642	-0.014386715
51	0x3d0559ae	0.03255623
52	0x3cb999f6	0.022656422
53	0xbcc389c3	-0.0238694
54	0xbc1857a5	-0.00929824
55	0xbc3f6992	-0.011682885
56	0xbbecd6cc	-0.007227754
57	0x3a026eba	0.0004975606
58	0xbbfaf955	-0.007659117
59	0xbc808942	-0.01569045
60	0xbd14fa5a	-0.036371566
61	0x3c8bf946	0.017086636
62	0x3b670f1d	0.003525681
63	0xbc73140f	-0.014836325
64	0x390b332e	0.00013275139
65	0x3bf5fc8b	0.007506912
66	0x3a9dc10e	0.0012035684
67	0x3c9d847f	0.019228218
68	0xbca7b846	-0.02047361
69	0xbd3bbccd	-0.04583435
70	0xbc32020a	-0.010864744
71	0x3c2c2939	0.010507875
72	0xbc4722da	-0.012154305
73	0x3b7c6f0e	0.0038518342
74	0x3b72eec6	0.003706859
75	0x3c4412a4	0.011967335
76	0xbcbdd903	-0.023174768
77	0xbb28c00b	-0.0025749232
78	0xbace8355	-0.0015755693
79	0xbc2c4c78	-0.010516278
80	0x3ccd3345	0.025048861
81	0xbcc9f143	-0.024651175
82	0x3c0c352b	0.008557598
83	0x3befc08e	0.0073166555
84	0xbc3a90b8	-0.011387043
85	0x3d00dfb3	0.031463336
86	0xbbbacd54	-0.0057007466
87	0x3bad55c8	0.005289767
88	0x3d29c87a	0.041450955
89	0xbc5b6a2c	-0.013392013
90	0x3cab2582	0.020891909
91	0x3c525af5	0.012839069
92	0x3c3513f2	0.011052119
93	0x3c958dcc	0.01825609
94	0xbc0f30f6	-0.008739701
95	0xbce09a0a	-0.027417202
96	0xbc0ddb16	-0.008658191
97	0xbcba2519	-0.022722768
98	0xbcdab075	-0.02669547
99	0xbc955184	-0.018227346
100	0x3b0e8417	0.0021746212
101	0xbac9dc47	-0.0015400731
102	0x3bcc9723	0.006243603
103	0x3c587eb7	0.013213805
104	0xbb857371	-0.0040725996
105	0xbccdc3df	-0.025117813
106	0x3be181a8	0.0068819113
107	0x38e3f3f4	0.00010869643
108	0x3c19b7b9	0.009382182
109	0xba0a5fba	-0.00052785466
110	0x3c24cf3f	0.010059177
111	0xbbaf3f3e	-0.005348115
112	0x3c905881	0.017620327
113	0xbc610422	-0.0137338955
114	0x3c82b66d	0.015956128
115	0x3be75962	0.007060216
116	0x3c58c19e	0.013229756
117	0x3a624809	0.000863195
118	0x3c921d18	0.017836139
119	0x3cf4b0a9	0.029869394
120	0x3c144122	0.009048732
121	0xbc647e6e	-0.013946159
122	0xbca1f1d3	-0.019768631
123	0xbd022baa	-0.031779923
124	0x3c23e31f	0.01000288
125	0x3cc4441d	0.02395826
126	0x3b44951f	0.002999611
127	0x3ba7e818	0.0051241033
128	0xbcfc7c57	-0.030821009
129	0x3ba3b577	0.0049959975
130	0xbc25482a	-0.010088006
131	0x3cee61d0	0.029099375
132	0x3cac260f	0.021014242
133	0xbbb5fbe1	-0.005553708
134	0xbd49bbdc	-0.049251422
135	0x3c9d720d	0.019219423
136	0x3c974820	0.018467009
137	0xbd20c59a	-0.039250948
138	0xbd38e3e7	-0.04513922
139	0xbb092e82	-0.0020932262
140	0xbba18d00	-0.0049301386
141	0x3b3ece49	0.0029114655
142	0xbd103e69	-0.03521577
143	0x3c4ad8aa	0.012380758
144	0x3d02886d	0.031868387
145	0xba47ea27	-0.0007626139
146	0xbc9b94a4	-0.018991776
147	0xbcaabb00	-0.020841122
148	0x3aa8f1a7	0.0012889401
149	0xbb7d55d0	-0.0038655885
150	0x3c3e7b54	0.011626083
151	0xbcb1367e	-0.02163243
152	0xbb4ccb3d	-0.003124907
153	0x3cded28a	0.027200002
154	0xbcd741d8	-0.026276514
155	0x3c066edc	0.008205142
156	0x3ccf89c2	0.025334243
157	0xbaa10f56	-0.0012287896
158	0x3b39ef6b	0.0028371464
159	0x3b102d8e	0.002199981
160	0xb9dc925d	-0.0004207072
161	0x3c34ffd2	0.01104732
162	0xba9be19b	-0.0011892797
163	0xbcfec6d3	-0.031100666
164	0xba8bf0d3	-0.001067663
165	0x3c813ac6	0.015775096
166	0x3c37ad86	0.011210805
167	0xbaadb58f	-0.0013252961
168	0x3cdb9f1a	0.026809264
169	0xbc551292	-0.013004916
170	0xbc42a924	-0.011881147
171	0x3cb05bca	0.021528143
172	0x3cad398d	0.021145606
173	0xbc15794f	-0.0091231605
174	0xbcb76bd7	-0.02239029
175	0x3ca2b0f0	0.019859761
176	0x3c77bae5	0.015120243
177	0xbc93551d	-0.017984921
178	0xbbf9a754	-0.007618824
179	0x39515488	0.00019963284
180	0x3a8f5492	0.0010935238
181	0x3cbd0525	0.023073742
182	0x3c3e71c8	0.011623807
183	0xbc8095fc	-0.015696518
184	0xbc62eb64	-0.013850067
185	0xbcb29c0e	-0.021802928
186	0xbc587805	-0.013212209
187	0x3c3ae9a1	0.011408241
188	0x3c47ba53	0.012190419
189	0xbc82d9bb	-0.015972963
190	0x3cdf5b10	0.027265102
191	0xbc5c9275	-0.013462652
192	0xba919e99	-0.0011109888
193	0xbc80b8ad	-0.01571306
194	0x3bbb5a7b	0.005717573
195	0x3d0872cb	0.0333126
196	0x3c63d946	0.0139067825
197	0x3b76ee38	0.003767861
198	0xbbbba1b8	-0.0057260655
199	0xbbce7de5	-0.006301629
200	0xbca232ee	-0.019799676
201	0x3bb84492	0.0056234086
202	0xbd0afc39	-0.033931945
203	0xbb73b94e	-0.0037189308
204	0x3d74d0d4	0.059769467
205	0xbc89aafc	-0.016805165
206	0xbcdc14b2	-0.026865337
207	0x3c9a04e2	0.018801156
208	0xbca387d0	-0.019962221
209	0x3c9712b4	0.018441536
210	0x3d031303	0.032000553
211	0xbc4cafd4	-0.012493093
212	0xbca127ab	-0.019672235
213	0x3c96b2c0	0.018395782
214	0x3cae6e04	0.021292694
215	0x3c7f4fbf	0.015582978
216	0xbccbde80	-0.02488637
217	0x3bfc0bc9	0.0076918346
218	0xbcf77664	-0.03020782
219	0x3d21d4a5	0.039509434
220	0x3d42c202	0.0475483
221	0x3cf1c5a7	0.029513193
222	0x3c495a4c	0.012289595
223	0xbc912354	-0.017717041
224	0x3b727de7	0.0037001313
225	0xbc0c35f9	-0.00855779
226	0xbbaab59f	-0.005209639
227	0x3ccf8381	0.02533126
228	0xbc6aa2b2	-0.014321016
229	0x3c2cedcd	0.010554743
230	0x3c4399d5	0.011938532
231	0xbbae88f4	-0.0053263847
232	0x3bfd4d39	0.007730153
233	0xbc2ae3ba	-0.010430271
234	0xbcbaa60f	-0.022784261
235	0xbd5f44da	-0.05450902
236	0x3c088ba0	0.00833407
237	0x3cb547f1	0.02212903
238	0xbb52bba1	-0.0032155293
239	0x3cf779ae	0.030209389
240	0x3cc04044	0.023468144
241	0xbb3e0627	-0.0028995366
242	0x3c9c5ac3	0.019086247
243	0x3cbc5a86	0.022992384
244	0xbcb87703	-0.022517687
245	0xbd5fb6fa	-0.05461786
246	0xbce73986	-0.028225671
247	0x3c10cbc9	0.008837649
248	0x3c7dccc1	0.015490712
249	0xbb08ffdb	-0.0020904455
250	0x3c58636f	0.013207301
251	0x3c15ecf4	0.009150732
252	0xbcce2c6f	-0.025167672
253	0xbc117e6b	-0.008880238
254	0xba690cef	-0.0008890172
255	0x3ba5a3d3	0.0050549298

action_model._discrete_distribution.branches.0.bias f4 [3]
0	0x3cf7417d	0.030182594
1	0x3d3ae102	0.04562474
2	0xbdcf931b	-0.1013548

action_model._discrete_distribution.branches.1.weight f4 [3, 256]
0	0x3b4baed9	0.003107956
1	0x3c7b1b7e	0.015326379
2	0x3b2fd8d3	0.0026832118
3	0x3a96a8a4	0.0011494351
4	0x3c2eea70	0.010676011
5	0xbcb53f9f	-0.022125063
6	0xba5d1d14	-0.0008434814
7	0x3d010fd1	0.031509224
8	0x3c194d2a	0.009356776
9	0x3cf6d653	0.030131495
10	0x3c96a638	0.018389806
11	0xba4e2a8f	-0.0007864618
12	0x3d15a0d1	0.03653032
13	0xbc1a0372	-0.0094002355
14	0xbca2fd3b	-0.01989614
15	0xbcc9983c	-0.024608724
16	0xbbb241fe	-0.005439996
17	0x3b414395	0.0029489745
18	0x3c3a05ae	0.011353893
19	0x3cd2a976	0.02571557
20	0xbc8ddcf8	-0.01731728
21	0xbcb82aba	-0.022481311
22	0x3c8e34d8	0.017359182
23	0x3cb557fa	0.022136677
24	0xbd0be000	-0.03414917
25	0x3be18f18	0.006883513
26	0x3c4c11d9	0.012455427
27	0xbc2b4ab4	-0.010454822
28	0xbc065667	-0.008199311
29	0xbb460d6d	-0.0030220405
30	0x3c22338f	0.009899988
31	0x3c8d4d0f	0.017248658
32	0x3c754e26	0.014972245
33	0x3d078301	0.03308392
34	0x3c785c1b	0.015158678
35	0x3bc899da	0.006121856
36	0xbd0a2650	-0.033727944
37	0x3abd2241	0.0014429764
38	0xbc415178	-0.011799209
39	0x3ca9b919	0.020718144
40	0xbc17918d	-0.009251011
41	0xba4617ec	-0.0007556665
42	0x3c3f164d	0.011663032
43	0x3c13d19d	0.009022144
44	0xbc91e4c3	-0.017809277
45	0xbc3421f8	-0.010994427
46	0xbce4f733	-0.027949905
47	0x3d28a91b	0.041176897
48	0x3b9dc0ef	0.0048142592
49	0x3cb53858	0.022121593
50	0xbc5f5551	-0.013631181
51	0x3cefeb36	0.029286962
52	0xba8e1582	-0.001084015
53	0xbad3230c	-0.0016108467
54	0xba366467	-0.000695771
55	0x3d1fcd1e	0.039013974
56	0x3c427d54	0.011870701
57	0xbcc143d2	-0.02359191
58	0x3c6c1901	0.014410258
59	0x3d7bfa1a	0.061517812
60	0x3c117735	0.008878519
61	0x3d130664	0.035894766
62	0xbd0bde90	-0.0341478
63	0x3c99fa99	0.018796252
64	0x3d21269d	0.039343465
65	0x3c9ff34d	0.019525195
66	0x3b50ea5f	0.0031877977
67	0xbce51aab	-0.027966818
68	0xbc73d073	-0.014881241
69	0xbc03e298	-0.00804963
70	0xbc735cf8	-0.014853708
71	0xbc2426c6	-0.01001901
72	0x3cb1d01b	0.021705678
73	0x3b01009d	0.0019684203
74	0xbb9d73d6	-0.0048050685
75	0xbd1b4f32	-0.037917323
76	0x3d1ea3dd	0.03873049
77	0xbc4e5bf1	-0.012595163
78	0x39092a4a	0.00013081092
79	0xbcc2f3f5	-0.023797968
80	0x3c1e426a	0.009659389
81	0x3a79cef0	0.0009529432
82	0xbcb0011a	-0.0214849
83	0xbc71f4c8	-0.014767833
84	0x3ba6251f	0.005070343
85	0x3d067983	0.032830726
86	0x3cf23e22	0.029570643
87	0xbd06c32c	-0.032900974
88	0x3cf781b4	0.030213214
89	0x3caf0ceb	0.021368464
90	0x3ceb1318	0.028695628
91	0x3ae5c2c4	0.0017529358
92	0xbc95fb5a	-0.01830833
93	0xbcfa261d	-0.030535752
94	0x3c8c59d4	0.017132677
95	0x3d10b245	0.03532626
96	0xbc01e382	-0.007927777
97	0x3af366e6	0.0018570095
98	0xbb2d40d1	-0.0026436339
99	0xbca030dc	-0.019554548
100	0xbae37107	-0.001735241
101	0xbc8ba26e	-0.017045226
102	0xbcd8ca2c	-0.02646359
103	0xbbb39227	-0.005480069
104	0x3b08235c	0.002077303
105	0x3cc4f73b	0.02404367
106	0xbc274873	-0.010210144
107	0x3cbfdfa6	0.023422074
108	0xbc73dc05	-0.014884
109	0xbc900db0	-0.017584652
110	0x3c7283a5	0.014801894
111	0xbc0a7081	-0.008449675
112	0xbb9d04c3	-0.0047918274
113	0xbc4ab46b	-0.012372117
114	0xbcc9f21f	-0.024651585
115	0x3cab51c9	0.020913022
116	0x3ca0ceca	0.019629855
117	0xbc562671	-0.013070689
118	0x3d677555	0.05650838
119	0xbc733c34	-0.0148458965
120	0x3c7e2b31	0.015513227
121	0x3c0fced1	0.008777336
122	0x3b43e57a	0.0029891417
123	0xbc6a832b	-0.014313499
124	0x3b0af259	0.002120158
125	0x3d2b3d95	0.041806776
126	0xbb4d731c	-0.0031349128
127	0xbb05107e	-0.002030402
128	0x3cb588ba	0.022159923
129	0xbbb378cb	-0.005477046
130	0x3caf068f	0.021365432
131	0x3d34b056	0.04411348
132	0xbc9e64c5	-0.01933516
133	0xbc08a1d4	-0.008339364
134	0x3d37d2e2	0.044878848
135	0xbc175674	-0.009236921
136	0x3bb97dd6	0.0056607528
137	0x3c3ef0a0	0.011654049
138	0x3d11f029	0.035629425
139	0xbb93f0b6	-0.004514779
140	0xbb783c1d	-0.0037877627
141	0x3c0f933e	0.008763133
142	0x3c84ea5a	0.016225029
143	0xbc7870e2	-0.015163632
144	0x3c66490d	0.014055503
145	0x3cbfe2d1	0.023423584
146	0x3bcf5ab1	0.00632795
147	0x3c42e08a	0.011894355
148	0x3bb31824	0.0054655243
149	0x3c520f33	0.012821007
150	0x3cc492ef	0.023995845
151	0x3c5c6fe8	0.013454415
152	0x3b3344fc	0.002735435
153	0x3abde310	0.0014487226
154	0x3bc2e5e8	0.005947817
155	0xbbf09a67	-0.007342625
156	0xbd116b80	-0.03550291
157	0x3c8b39b1	0.016995283
158	0xbd166397	-0.03671607
159	0x3bf39e02	0.0074346075
160	0x3d0cf746	0.034415506
161	0xbca1b73c	-0.019740693
162	0xbbf01a43	-0.0073273494
163	0x3c997706	0.018733513
164	0x3c57c1fb	0.013168807
165	0xbc8c4d8f	-0.017126827
166	0x3d189840	0.037254572
167	0x3a111a90	0.0005535269
168	0xbcbae294	-0.022813119
169	0x3c2a2421	0.01038459
170	0xbc32d1b9	-0.01091426
171	0x3d1b8f0e	0.037978224
172	0xbc8ea851	-0.017414244
173	0x3ced79ed	0.028988803
174	0x3c015ff4	0.007896412
175	0x3b30bbd6	0.0026967428
176	0xbc51f7d6	-0.012815436
177	0x3b815d34	0.0039478783
178	0x3c0c6db3	0.008571076
179	0x3ae69553	0.001759211
180	0x3c41eb87	0.011835939
181	0x3ce5c8fb	0.028049937
182	0xbd20cd21	-0.039258126
183	0x3b1724b7	0.0023062655
184	0x3c5d422a	0.013504544
185	0x39ac14a0	0.00032821763
186	0x3ca06fe3	0.019584602
187	0xbcb443ab	-0.022004923
188	0x3cc3380e	0.02383044
189	0xbc5b7783	-0.013395193
190	0x3b88f159	0.0041791615
191	0x3afdc23a	0.0019360252
192	0xbb3a2199	-0.0028401373
193	0x3c8d7e89	0.01727225
194	0x3c135722	0.008992942
195	0xbc35439c	-0.011063483
196	0x3b8cff0e	0.004302866
197	0xbc567cde	-0.013091294
198	0xbb5e58be	-0.0033927406
199	0xbbf88b3d	-0.007584958
200	0x3cd627f1	0.026142092
201	0xbc0d1b93	-0.008612531
202	0x3c3e4487	0.011613018
203	0x3afdbd6b	0.0019358819
204	0x3d0aead8	0.03391537
205	0xbba786ef	-0.005112521
206	0x3cc51cda	0.024061609
207	0x3cee5d98	0.029097363
208	0x3c84e0c4	0.016220458
209	0xbb707975	-0.0036693488
210	0x3b5dd712	0.0033850116
211	0x3c3d3c58	0.011550032
212	0x3cdd1aae	0.02699026
213	0x3bb1161b	0.0054042465
214	0xbbf34a22	-0.007424609
215	0xbc5456af	-0.01296012
216	0x3d00ada2	0.03141559
217	0xbbb8753f	-0.005629211
218	0xbc8920a3	-0.016739195
219	0xbbf3d0e1	-0.007440672
220	0x3bef0929	0.007294793
221	0x3d155502	0.036458023
222	0x3ce0a391	0.027421745
223	0xbab3b347	-0.0013710045
224	0xbb4cff35	-0.0031280045
225	0xbb88b7cf	-0.0041723023
226	0xbca657fa	-0.020305622
227	0x3d16dd6a	0.03683225
228	0xbc0cf9e4	-0.0086045
229	0xbc5e8e10	-0.013583675
230	0xbc8aa8e5	-0.016926238
231	0xbccd1a4f	-0.025036959
232	0xbc146364	-0.0090569
233	0x3bbb4d82	0.0057160268
234	0x3c83213a	0.016007055
235	0x3bc02e63	0.0058649047
236	0x3bdb2279	0.006687459
237	0x3cfb2d97	0.030661387
238	0x3c957b02	0.018247131
239	0x3cc0cf98	0.023536488
240	0xbcb95f5a	-0.022628475
241	0xbc26b6e7	-0.010175443
242	0x3bec3491	0.007208415
243	0xbcd70bef	-0.026250808
244	0x3cbd9af8	0.023145184
245	0x3cff24c1	0.031145455
246	0x3ccb110e	0.024788406
247	0x3d098ade	0.0335797
248	0xbb12a213	-0.0022374436
249	0xbc0340bc	-0.008011039
250	0x3cbe4134	0.02322445
251	0xbc79fa87	-0.015257484
252	0x3c9bb17c	0.01900553
253	0x3d0b5598	0.034017175
254	0x3c111e82	0.008857371
255	0x3bf9e5d0	0.0076262727

action_model._discrete_distribution.branches.1.bias f4 [3]
0	0x3ce4d6a5	0.027934382
1	0xbc072483	-0.008248451
2	0xbca0330f	-0.019555597

action_model._discrete_distribution.branches.2.weight f4 [2, 256]
0	0xbcc46bb0	-0.02397713
1	0x3d53b454	0.051685646
2	0x3d0d5214	0.034502104
3	0x3d4f068a	0.050543346
4	0x3ce95c81	0.028486492
5	0xbbadca1c	-0.0053036343
6	0x3ba7cf8c	0.005121177
7	0xbcfcb17a	-0.030846346
8	0x3cb24b1d	0.021764332
9	0xbbee78bb	-0.007277576
10	0xbbfb7a14	-0.007674465
11	0x3d070bf2	0.032970376
12	0x3cbada23	0.022809094
13	0x3d3c1322	0.045916684
14	0xbafa9e3f	-0.0019120647
15	0xbc879f4b	-0.016555449
16	0x3cbead5d	0.023276025
17	0x3ce78ea2	0.028266255
18	0xbc936bfc	-0.017995827
19	0x3d4b342c	0.0496103
20	0xbc69ea94	-0.014277119
21	0x3d394b18	0.04523763
22	0xbc401fba	-0.011726314
23	0x3c62ac6f	0.013835057
24	0x3bec2eda	0.0072077336
25	0x3a9ee511	0.001212271
26	0x3d820776	0.06349079
27	0x3c825075	0.015907506
28	0xbc4428c6	-0.011972612
29	0x3c17d88d	0.009267938
30	0x3da54ccf	0.08071291
31	0x3bba9045	0.005693468
32	0xbc1b5109	-0.0094797695
33	0x3cb4f9b3	0.022091722
34	0x3d90a3e4	0.0706251
35	0x3d5f4baf	0.054515537
36	0x3b955a34	0.004557872
37	0x3ca09221	0.01960093
38	0xbce5c3cd	-0.028047467
39	0x3d0940a4	0.03350891
40	0x3cb9e088	0.022690073
41	0x3b93ffff	0.004516601
42	0x3c59899e	0.013277439
43	0x3d409448	0.047016412
44	0x3b7555e9	0.003743524
45	0x3b252e88	0.0025204737
46	0xbcc4320b	-0.023949644
47	0x3c548f73	0.012973654
48	0x3d884ec8	0.06655651
49	0xbd053f60	-0.032531142
50	0x3d369a3f	0.044580694
51	0xbd28701c	-0.04112254
52	0x3c92c732	0.01791725
53	0x3d8ccf7a	0.068755105
54	0x3d11fa61	0.03563917
55	0x3d346989	0.04404596
56	0x3d23afd0	0.03996259
57	0x3d97fe33	0.074215315
58	0x3d03e300	0.032198906
59	0x3d079346	0.033099435
60	0x3da1d809	0.079025336
61	0xbd18b098	-0.037277788
62	0xbbb538f6	-0.005530472
63	0x3d33d8f6	0.043908082
64	0x3cc7b1b6	0.024376731
65	0xbcb55dfb	-0.02213954
66	0x3c32c3f7	0.0109109795
67	0xbc033423	-0.008008036
68	0x3d8cd19e	0.06875919
69	0x3d36c20a	0.044618644
70	0x3c0b44e8	0.008500315
71	0x3cc1fff9	0.023681628
72	0x3ce66a9f	0.028127013
73	0xbbb6f176	-0.0055829836
74	0xbbb84ae7	-0.0056241634
75	0xbc7d2c41	-0.0154524455
76	0x3d3e2966	0.0464262
77	0x3dcc119a	0.09964295
78	0x3bfc4f8f	0.007699914
79	0x3dc79a89	0.09746272
80	0xbd4349a1	-0.04767764
81	0x3db37a6d	0.08763585
82	0xbcf4de06	-0.029891025
83	0xbcf0bfa4	-0.029388256
84	0xbbdffdc8	-0.006835673
85	0xbc3e72c7	-0.011624045
86	0x3d43fb43	0.047847044
87	0xbc9c81d5	-0.019104877
88	0x3c359d1f	0.011084824
89	0x3d1194c8	0.03554228
90	0x3c91eb97	0.017812533
91	0x3cc3b33f	0.023889182
92	0x3c56576f	0.013082369
93	0x3d3cac17	0.046062555
94	0x3c82669d	0.01591807
95	0x3cdb56ed	0.026774848
96	0xbbe6b32c	-0.007040402
97	0x3d60391d	0.054741967
98	0x3dcc2f6b	0.09969982
99	0x3d50e35e	0.050998084
100	0x3c00ff3a	0.007873351
101	0x3cd66621	0.026171746
102	0xbc57b77f	-0.0131663075
103	0xbc098193	-0.008392709
104	0x3d00b8d2	0.03142626
105	0x3d30aa4f	0.04313117
106	0x3de348ac	0.110978454
107	0x3bf71d03	0.0075413003
108	0x3d2d8484	0.042362705
109	0xbc49d432	-0.012318658
110	0x3d47c22a	0.048769154
111	0x3dbddee5	0.092710294
112	0x3ca2e328	0.019883707
113	0x3b6cf86b	0.003615881
114	0xba9b81b1	-0.0011864213
115	0x3cb461df	0.022019325
116	0x3c9554eb	0.018228969
117	0x3ba25121	0.004953519
118	0xbcb785e8	-0.022402719
119	0xbd121047	-0.035660055
120	0x3c917728	0.017757013
121	0x3cb918c9	0.022594826
122	0xbc99c9bf	-0.018772958
123	0x3c9f7260	0.019463718
124	0x3d139331	0.036029045
125	0xbb92111f	-0.0044576074
126	0x3d2d859c	0.042363748
127	0x3ca74a72	0.02042124
128	0x3c97b95c	0.018521003
129	0x3bd89339	0.006609347
130	0x3d1020c9	0.035187516
131	0xbc9e42a8	-0.019318894
132	0x3c4e5234	0.012592841
133	0x3d007be2	0.031368144
134	0x3d973a44	0.0738416
135	0xbc3c0bd5	-0.01147743
136	0x3c81d398	0.015847966
137	0x3c08e246	0.008354729
138	0x3d04c683	0.032415878
139	0x3c87408f	0.016510276
140	0x3d95faa2	0.07323195
141	0x3d48cd36	0.04902383
142	0x3c911980	0.017712355
143	0x3c4752e3	0.012165758
144	0xbd21c90a	-0.039498366
145	0x3cc67a6f	0.024228303
146	0x3d3a3ac8	0.045466214
147	0x3d087db4	0.033323005
148	0x3beb29d8	0.007176619
149	0x3dbcee46	0.092251346
150	0x3cfed4ff	0.031107424
151	0xbb8f1154	-0.0043660793
152	0x3d704944	0.05866362
153	0x3cac7c71	0.021055432
154	0x3cecef01	0.02892256
155	0x3a81f220	0.0009914078
156	0x3c831444	0.016000874
157	0x3d776438	0.06039831
158	0x3dc6922a	0.09695847
159	0x3c616397	0.013756654
160	0x3d188634	0.03723736
161	0x3c91965c	0.017771892
162	0xba7eaabb	-0.0009714772
163	0x3d3e5443	0.046467077
164	0x3d6c2c3c	0.057659373
165	0x3dc20a89	0.09474666
166	0x3b010d7a	0.001969187
167	0x3cc8c460	0.024507701
168	0xbc2a4129	-0.010391512
169	0x3d33b933	0.04387779
170	0x3c082d13	0.008311528
171	0x3ac3df11	0.0014943798
172	0x3d01b38b	0.031665366
173	0x3ce10501	0.027468206
174	0x3ca19441	0.019724013
175	0x3d5997da	0.053123333
176	0x3c9c9330	0.019113153
177	0x3a349da0	0.0006889943
178	0xbab8bd4c	-0.0014094501
179	0x3d22fc13	0.039791178
180	0x3da0553d	0.07828758
181	0xbcadeae7	-0.021230174
182	0xbbd9eeaa	-0.0066507654
183	0x3da3b9cc	0.07994422
184	0x3d5ba6c3	0.053625833
185	0xbb8d4380	-0.004311025
186	0x3a9a004a	0.0011749354
187	0x3bcdeced	0.0062843473
188	0x3c9a6372	0.018846247
189	0x3ca534da	0.020166803
190	0x3cd2b5f8	0.025721535
191	0x3d97e2cb	0.07416304
192	0x3d37c82a	0.044868626
193	0x3d5bb8af	0.053642925
194	0xbcbe6600	-0.023241997
195	0x3cd394bc	0.025827758
196	0xbcf671e9	-0.030083613
197	0x3b1d3f08	0.0023993868
198	0x3da455dc	0.08024189
199	0x3c0419c4	0.008062784
200	0x3d344503	0.044011127
201	0x3c18189f	0.009283214
202	0x3c2a4bea	0.010394076
203	0x3ce763d7	0.02824585
204	0xbb56d535	-0.003278089
205	0xbc5a8b11	-0.01333882
206	0x3d9a8f8f	0.07546913
207	0xbc47a2a3	-0.012184772
208	0x3d1e6fde	0.038680904
209	0x3b6fe72c	0.0036606295
210	0x3c4e6fbe	0.012599884
211	0x3d0aa3d3	0.03384764
212	0x3b127060	0.0022344813
213	0xbbba4ce2	-0.0056854347
214	0xbbd10f45	-0.006379994
215	0x3d3275e0	0.043569446
216	0x3c7912d1	0.01520224
217	0x3d1311f4	0.035905793
218	0x3d156fce	0.03648358
219	0x3b49f3dd	0.003081552
220	0xbd75b7a9	-0.059989605
221	0xbc244cc2	-0.010028066
222	0xbd194aa9	-0.037424717
223	0x3d05e575	0.03268953
224	0x3d64bb0f	0.055842455
225	0x3b7d17d3	0.0038618937
226	0xbc45a6a3	-0.012063655
227	0xbd398727	-0.045294907
228	0xbb79d0cf	-0.0038118844
229	0xbbb0b9ee	-0.0053932583
230	0x3cc4d891	0.024029048
231	0x3cc81d4b	0.02442803
232	0x3bdfafcf	0.006826378
233	0x3d825a3b	0.06364866
234	0x3d817de3	0.06322839
235	0x3da7a7a8	0.08186275
236	0x3d048f7e	0.032363407
237	0x3c81aff4	0.015830971
238	0x3c45e2a6	0.012077963
239	0x3cb2b594	0.021815099
240	0x3ca656ec	0.02030512
241	0x3d88245e	0.066475615
242	0x3d9825ca	0.07429083
243	0x3c74f113	0.014950055
244	0x3d054703	0.032538425
245	0x3d42a9c3	0.04752518
246	0x3d14baae	0.036310844
247	0xbc830c09	-0.01599695
248	0x3d3b597e	0.045739643
249	0x3d7c9a19	0.061670396
250	0x3d300ff5	0.042983968
251	0xbc1bbbbe	-0.00950521
252	0x3d240579	0.04004428
253	0x3c8bbcac	0.01705774
254	0x3d000702	0.031256683
255	0x3a31c962	0.00067820225

action_model._discrete_distribution.branches.2.bias f4 [2]
0	0x3b9b8a24	0.0047466923
1	0xbb9b8a5f	-0.0047467197
