results/MoveToButton_7/ButtonPress_2.onnx (onnx, 352736 bytes, 13 tensors)

discrete_act_size_vector f4 [1, 4]
0	0x40400000	3.0
1	0x40400000	3.0
2	0x40000000	2.0
3	0x40000000	2.0

network_body._body_endoder.seq_layers.0.weight f4 [256, 65]
0	0xbdd1bc8b	-0.1024104
1	0x3e11b7f2	0.14230326
2	0xbe52205f	-0.20520161
3	0xbbacf9f3	-0.0052788197
4	0xbd88ea51	-0.06685317
5	0xbcc5babd	-0.024136895
6	0x3e450df5	0.19243605
7	0xbd455a0c	-0.04818158
8	0xbe75cd72	-0.24004152
9	0xbe0d276a	-0.13784567
10	0x3c5becc1	0.013423146
11	0x3ed3e66a	0.4138673
12	0x3e8ca751	0.27471402
13	0xbe1adaad	-0.1512248
14	0xbe341bf5	-0.1758879
15	0x3c1c5b81	0.009543301
16	0x3f063bc8	0.5243497
17	0x3e1fb3ea	0.15595976
18	0x3db957ea	0.090499714
19	0x3da1672e	0.07881008
20	0xbe20e071	-0.15710618
21	0x3e8ce5bd	0.27519026
22	0xbbd96f4e	-0.006635583
23	0xbcd5f7fd	-0.026119227
24	0x3d68a93a	0.056802012
25	0xbe3ee4a8	-0.18641913
26	0x3e4c6893	0.19961767
27	0x3e39b74e	0.18136331
28	0xbe559abd	-0.20859809
29	0xbeb32dca	-0.34995872
30	0x3d90cf04	0.07070735
31	0x3e72890f	0.23685096
32	0x3dcd5c32	0.100273505
33	0xbe3effb6	-0.18652233
34	0xbd20c047	-0.03924587
35	0x3c377061	0.011196227
36	0x3e833b54	0.256312
37	0x3d4f4ad8	0.050608486
38	0xbd9b8070	-0.07592857
39	0xbe481bf9	-0.1954192
40	0xbe563498	-0.209185
41	0x3e25cb88	0.16190922
42	0x3d8e8ce3	0.06960466
43	0xbe2ff224	-0.17182213
44	0xbc6f2dfe	-0.014598368
45	0xbe1628f9	-0.14664067
46	0xbdbef3ce	-0.09323846
47	0x3e760dd3	0.24028711
48	0x3d210071	0.03930706
49	0xbdf0d67c	-0.1175966
50	0x3e70cdbe	0.23515984
51	0x3e76750c	0.24068087
52	0xbe2841cd	-0.16431351
53	0xbdf41216	-0.11917512
54	0xbde23654	-0.110455185
55	0xbdc2f2b6	-0.0951895
56	0xbcc6f984	-0.0242889
57	0x3e8b0365	0.27151027
58	0x3d4e40fe	0.05035495
59	0xbe83fe2b	-0.25779852
60	0xbd0cc2e2	-0.034365542
61	0x3e52b128	0.20575392
62	0xbdce8363	-0.10083654
63	0x3c58e954	0.0132392235
64	0x3c55681b	0.013025309
65	0x3de68d71	0.112574466
66	0x3da24d36	0.07924883
67	0xbcad7f01	-0.021178724
68	0xbe1a7ad9	-0.15085925
69	0x3e65cb46	0.22440824
70	0x3db08018	0.08618182
71	0x3d8319e7	0.06401425
72	0xbe007782	-0.12545589
73	0x3d5611a7	0.05226293
74	0xbdd7deac	-0.10540518
75	0xbd0eee47	-0.034895208
76	0xbe7d485a	-0.24734631
77	0x3d4b0042	0.049560793
78	0x3e40b83d	0.18820281
79	0x3da718c2	0.08159019
80	0xbe0cc8bb	-0.13748448
81	0x3ea2c408	0.31790185
82	0xbe39b6a7	-0.18136083
83	0xbe063c57	-0.13108955
84	0xbe4baf48	-0.19891083
85	0xbcb7b781	-0.022426369
86	0x3c53bf2b	0.012923996
87	0xbe3032c8	-0.17206872
88	0xbdbcd0c6	-0.09219508
89	0xbdc84b74	-0.097800165
90	0x3de3f9be	0.11131619
91	0x3d782711	0.06058413
92	0xbe072dba	-0.13201037
93	0xbe70404e	-0.2346203
94	0xbdebe2de	-0.11517881
95	0xbe46400e	-0.19360372
96	0xbe34f3ef	-0.17671178
97	0xbe8667b9	-0.2625101
98	0x3e06142f	0.13093637
99	0xbdcb17b7	-0.099166326
100	0x3e4f4150	0.20239758
101	0x3d9453ef	0.072425716
102	0xbdd9ec26	-0.10640745
103	0x3d3e2fdf	0.046432372
104	0x3e54b434	0.20771867
105	0x3e1cb426	0.15303096
106	0xbe1a44d2	-0.15065315
107	0x3d85463a	0.06507535
108	0xbd78a1d2	-0.0607012
109	0x3e2aefb5	0.16693003
110	0x3e1030e1	0.14081146
111	0x3df4d802	0.11955263
112	0x3d8ded44	0.069300205
113	0xbe435505	-0.19075401
114	0xbc91c073	-0.017791962
115	0x3d8ea2d8	0.06964654
116	0xbe9c4296	-0.3051955
117	0xbdb86427	-0.090034775
118	0x3e7f3168	0.2492119
119	0xbde418b5	-0.11137525
120	0xbdf13e44	-0.11779454
121	0xbc0c3cc3	-0.008559409
122	0x3d8910ea	0.06692679
123	0x3cc9b0ec	0.024620496
124	0x3e43b890	0.19113374
125	0xbe198d7e	-0.14995381
126	0xbd6d97b9	-0.058006022
127	0xbe7d1d63	-0.24718241
128	0x3e7eacdd	0.2487063
129	0xbe3c3413	-0.1837924
130	0xbe394d6b	-0.18095939
131	0xbe60910d	-0.21930332
132	0x3e6df3c2	0.23237517
133	0xbe97a0e3	-0.29614934
134	0x3b8946c4	0.004189344
135	0xbb269a36	-0.0025421507
136	0xba0671ed	-0.00051286706
137	0xbd02febd	-0.03198122
138	0x3d87be04	0.066280395
139	0xba8b59f5	-0.0010631668
140	0x3c20794d	0.009794545
141	0x3d874b3d	0.066061474
142	0x3e7e224a	0.24817768
143	0xbe2fcac6	-0.17167196
144	0xbdb1cfb1	-0.08682192
145	0xbc169fed	-0.009193403
146	0x3d040ff5	0.03224178
147	0x3ea17933	0.3153778
148	0xbde0266d	-0.10944829
149	0xbcc094b6	-0.02350841
150	0x3dd06049	0.10174615
151	0x3ccdac31	0.025106521
152	0x3d958c94	0.07302204
153	0xbe16af04	-0.147152
154	0x3e1867c2	0.1488333
155	0xbd6c3466	-0.05766716
156	0x3dbf99fc	0.09355542
157	0xbd4b085c	-0.04956852
158	0x3e04d29f	0.1297097
159	0x3d51a403	0.051181804
160	0x3e152a20	0.1456685
161	0x3e184c78	0.1487292
162	0x3dfc680c	0.12324533
163	0xbe2690db	-0.16266195
164	0x3b35e1ab	0.0027752917
165	0xbc9c95f5	-0.019114474
166	0x3e0d5a7a	0.13804045
167	0x3d64dc29	0.055874024
168	0x3e409f98	0.1881088
169	0x3df2784b	0.1183935
170	0xbe5d8fa0	-0.2163682
171	0xbded3830	-0.115829825
172	0xbe03667c	-0.12832063
173	0xbd5a55bc	-0.05330442
174	0x3c8514bf	0.016245244
175	0xbd2e9501	-0.04262257
176	0xbe73d20f	-0.238106
177	0x3e6881e6	0.22705802
178	0xbb9e919f	-0.0048391367
179	0xbc259fd2	-0.010108905
180	0x3e74dff0	0.2391355
181	0x3db816e7	0.08988743
182	0xbc5ba3b5	-0.01340573
183	0xbe62610a	-0.2210733
184	0xbdbb5f2a	-0.091490105
185	0x3e4fe226	0.20301113
186	0xbe945211	-0.28968862
187	0xbc7916f1	-0.015203224
188	0x3dc6d7fc	0.097091645
189	0x3dc0f8ac	0.094224304
190	0xbdbcbc1b	-0.09215566
191	0x3db52492	0.08844866
192	0xbc2f0dc2	-0.010684432
193	0x3e089fe8	0.1334225
194	0x3e384b80	0.17997551
195	0x3c357033	0.011074114
196	0x38d100de	9.966058e-05
197	0xbe25d5b1	-0.16194798
198	0x3d663fd0	0.0562132
199	0x3db5e0de	0.08880781
200	0x3de35682	0.111004844
201	0xbe9fab70	-0.31185484
202	0xbe12a178	-0.14319408
203	0xbd2c16ab	-0.042013805
204	0x3bd1258f	0.006382651
205	0xbba8272d	-0.0051316232
206	0x3e9f613f	0.3112888
207	0x3e99d624	0.3004619
208	0x3bba1566	0.0056788204
209	0xbdbbd14d	-0.0917078
210	0x3c922656	0.017840546
211	0x3ca0b34b	0.019616744
212	0xbe5228b8	-0.20523345
213	0x3e00f36f	0.12592863
214	0x3c9bec21	0.019033493
215	0xbdcfeb3d	-0.1015229
216	0x3df67e11	0.12035764
217	0x3dd39f30	0.10333097
218	0xbe60a300	-0.2193718
219	0xbd4c49c9	-0.049875055
220	0xbe2d1fba	-0.16906634
221	0x3c9f57cc	0.019451044
222	0xbddff62f	-0.10935628
223	0xbc4780c8	-0.0121767
224	0x3e08c55b	0.13356535
225	0x3c43362e	0.011914773
226	0x3da3b1b2	0.07992877
227	0xbcae094e	-0.021244671
228	0xbe492396	-0.19642481
229	0xbe14defc	-0.14538187
230	0xbe09199a	-0.13388672
231	0x3df34fe7	0.118804745
232	0xbead0d1d	-0.33799067
233	0xbdf580a9	-0.119874306
234	0xbe9e6829	-0.30938843
235	0xbdefa5a5	-0.11701516
236	0x3e340bb0	0.17582583
237	0x3d956643	0.072948955
238	0xbdd7d7f9	-0.105392404
239	0x3e6b8e2f	0.23003457
240	0xbe2381e5	-0.1596752
241	0x3dc83024	0.09774807
242	0xbc9a699f	-0.018849192
243	0x3e28ae0e	0.16472647
244	0x3d89706d	0.06710897
245	0x3ce4df62	0.027938548
246	0xbe94e0c2	-0.29077727
247	0x3d8da739	0.06916661
248	0xbdd496ef	-0.10380351
249	0x39132775	0.00014033711
250	0xbd91ff79	-0.07128806
251	0xbdc3fee2	-0.095700994
252	0xbecfc487	-0.40579626
253	0x3e1a73fe	0.1508331
254	0x3d25e5e8	0.04050246
255	0xbe1b0261	-0.15137626

network_body._body_endoder.seq_layers.0.bias f4 [256]
0	0xbdc15070	-0.0943917
1	0xbd7d6554	-0.061864212
2	0x3d2e2a04	0.042520538
3	0x3d5d2a31	0.053995315
4	0xbbdcc619	-0.0067374823
5	0x3c4b93be	0.012425361
6	0xbd158841	-0.036506895
7	0x3d00c4ad	0.031437565
8	0xbcae5f92	-0.021285806
9	0xbcccdac4	-0.02500666
10	0xbd099893	-0.03359277
11	0xbca10271	-0.019654484
12	0xbc845968	-0.016155913
13	0x3d05b110	0.032639563
14	0xbe67b95d	-0.22629304
15	0xbb14f702	-0.0022730236
16	0xbc6875d6	-0.0141882505
17	0x3d3d8169	0.046265993
18	0xbb04de61	-0.002027415
19	0x3d9b4a8c	0.07582578
20	0x3d29c804	0.041450515
21	0x3c29d978	0.01036679
22	0x3c9629b7	0.018330438
23	0x3c747dd1	0.014922575
24	0xbd5d1ba2	-0.05398143
25	0x3c245364	0.0100296475
26	0xbcc3fd60	-0.02392453
27	0x3d296e4d	0.041364957
28	0xbd638b16	-0.055552565
29	0xbe975327	-0.29555628
30	0x3c98d4fd	0.018656248
31	0x3cbcc64f	0.02304378
32	0x3c8eb065	0.017418096
33	0xbcf1485b	-0.029453447
34	0xb93c4649	-0.0001795526
35	0xbba41e23	-0.0050084754
36	0xbccb00b9	-0.024780618
37	0x3ba4f88e	0.005034513
38	0xbccb961c	-0.024851851
39	0xbb886f4a	-0.0041636573
40	0xbc9d3e31	-0.019194694
41	0x3ce5652e	0.028002348
42	0x3c7dce6d	0.01549111
43	0xbc4eaacd	-0.012613964
44	0xbbe257be	-0.0069074323
45	0xbd9a0420	-0.07520318
46	0x3b8cc0e3	0.004295455
47	0xbc5eb843	-0.013593736
48	0x3ce233f1	0.027612658
49	0x3cd4242b	0.025896152
50	0xbc15c6ee	-0.009141667
51	0xbd765f06	-0.060149215
52	0x3d8318c8	0.06401211
53	0x3d77c5b2	0.06049127
54	0x3d82c39f	0.06384968
55	0xbd1cea6f	-0.03830951
56	0xbc82e874	-0.015979983
57	0x3d3c6c41	0.046001676
58	0xbd5f1bde	-0.054469936
59	0xbca46e6b	-0.020072183
60	0x3c7b143b	0.015324648
61	0x3b4d6aa8	0.003134409
62	0xbc0fd25f	-0.008778184
63	0xbce48d46	-0.027899396
64	0xbc8d7d13	-0.017271554
65	0xbcb6f474	-0.022333361
66	0xbc945f01	-0.018111708
67	0xbb76bbbe	-0.0037648524
68	0xbb9b69e2	-0.004742847
69	0x3d94ac3e	0.07259415
70	0x3d92556b	0.071451984
71	0x3d0d207a	0.0344548
72	0x3d7c834c	0.061648652
73	0x3d1b9398	0.037982553
74	0x3d787963	0.06066264
75	0xbcb22fe9	-0.021751361
76	0xbd1f1417	-0.03883752
77	0x3c7ea80d	0.015542996
78	0xbca2dc87	-0.019880546
79	0xbd195e75	-0.037443597
80	0x3c354a0e	0.011065019
81	0x3cc0596c	0.02348014
82	0x3d3cd1f5	0.046098668
83	0x3bdbc004	0.0067062397
84	0xbd769d95	-0.060208876
85	0x3da411af	0.080111854
86	0x3d53d647	0.051718023
87	0x3d23d26c	0.039995596
88	0x3c9a8ffa	0.018867481
89	0xbc4726ca	-0.012155244
90	0x3d2321f2	0.039827295
91	0x3cab2d46	0.020895611
92	0x3b422881	0.0029626193
93	0xbb484819	-0.0030560552
94	0x3cee86db	0.029117038
95	0x3aa70a7c	0.0012744213
96	0xbcb0f155	-0.021599451
97	0x3d37431d	0.04474174
98	0x3ce58338	0.028016672
99	0xbcd9b73a	-0.026576627
100	0x3cbcd51e	0.023050841
101	0x3c41ad23	0.011821064
102	0x3c6d56fc	0.014486071
103	0xbcfbfa64	-0.030759044
104	0xbd508683	-0.05090953
105	0xbc30f660	-0.010800928
106	0xbd2faf97	-0.042892065
107	0x3bb9ab88	0.0056662
108	0xbd2be567	-0.041966822
109	0x3c095cc4	0.008383933
110	0x3d08a4d1	0.033360306
111	0x3c377c02	0.011198999
112	0x3ccd7f7c	0.025085203
113	0xbc9e2cde	-0.019308504
114	0xbb973acd	-0.004615164
115	0x3b151e10	0.0022753514
116	0xbc2f23e4	-0.010689709
117	0x3d17ebbf	0.03709006
118	0xbcebabd4	-0.028768457
119	0xbc8d252b	-0.017229637
120	0xb6650cbe	-3.4131076e-06
121	0xbdb617bb	-0.08891245
122	0x3c9f1f75	0.01942418
123	0x3b9c439c	0.004768802
124	0x3b1d1f9b	0.0023975137
125	0x3cb4e7d6	0.022083204
126	0x3c8eb819	0.017421769
127	0xbc63dbe6	-0.013907408
128	0xbe202e18	-0.15642583
129	0xbd10ab9d	-0.035319913
130	0xbc90d664	-0.017680354
131	0x3d4d3489	0.05009893
132	0xbc6890a4	-0.014194641
133	0xbce19314	-0.027535953
134	0xbe563935	-0.2092026
135	0xbc91d158	-0.017800018
136	0x3d2c380f	0.04204565
137	0xbc43e454	-0.011956293
138	0x3c8dbfe6	0.017303418
139	0xbc232192	-0.009956734
140	0xbd16a321	-0.036776666
141	0xbc12fa3d	-0.008970794
142	0x3d11661f	0.03549778
143	0x3d2b49f3	0.04181857
144	0x3c263f3d	0.010146913
145	0x3c55a299	0.013039255
146	0xbdb86909	-0.09004409
147	0x3c75f705	0.015012507
148	0x3c840bb1	0.016118856
149	0x3c6b696e	0.014368398
150	0x3c9e6ef8	0.019340023
151	0xbb9a954d	-0.004717505
152	0xbd55f4a8	-0.052235276
153	0xbb4a2065	-0.0030842063
154	0xbc66ad98	-0.014079474
155	0xbd11601b	-0.035492044
156	0x3cded376	0.027200442
157	0xbd663c11	-0.056209628
158	0xbd8cf086	-0.06881814
159	0x3b74e28a	0.0037366473
160	0x3d030f29	0.03199688
161	0x3d950eea	0.07278235
162	0x3ce8602f	0.028366176
163	0x3db8002a	0.08984406
164	0x3c24da5f	0.010061829
165	0x3c9ea0fe	0.019363876
166	0x3d214d09	0.039380107
167	0xbe1f19f0	-0.15537238
168	0x3ca33db4	0.019926883
169	0xbb95fbb5	-0.004577125
170	0xbd56c475	-0.05243345
171	0xbba6e213	-0.005092868
172	0x3d3373f4	0.043811753
173	0x3d3958f6	0.045250855
174	0xbd5c176e	-0.05373328
175	0x3d82d755	0.063887276
176	0xbb5f1544	-0.0034039775
177	0xbc102e6b	-0.008800129
178	0xbcdb8428	-0.026796415
179	0x3c32d7d6	0.010915717
180	0x3d3f5d18	0.04671964
181	0x3d19d8b6	0.037560187
182	0x3c60bedd	0.01371738
183	0xbcda240c	-0.026628517
184	0xbd04fd27	-0.032467987
185	0xbd46bc3d	-0.04851936
186	0x3ca4bee1	0.02011055
187	0x3d65397a	0.055963017
188	0x3d0bb4d6	0.034108005
189	0x3c7f91df	0.015598743
190	0xbcc7838f	-0.024354724
191	0xbd00be73	-0.031431627
192	0xbc01a502	-0.007912876
193	0x3d939ff8	0.07208246
194	0xbcc8a32e	-0.024491873
195	0xbc2755fc	-0.010213371
196	0x3cdc13a5	0.026864836
197	0xbd704b26	-0.058665417
198	0x3c86409f	0.016388236
199	0xbe0f15f0	-0.13973212
200	0x3cc22e68	0.023703769
201	0x3d637eee	0.05554097
202	0x3d780611	0.06055266
203	0xbc4136ae	-0.011792822
204	0x3d943a1c	0.07237646
205	0xbd2facdd	-0.042889465
206	0xbd6c07f2	-0.057624765
207	0x3d19e29c	0.037569627
208	0x3cc921c6	0.024552237
209	0xbe1d632c	-0.15369862
210	0x3d11d032	0.03559894
211	0x3bbc5de4	0.0057484973
212	0x3b3b73ba	0.0028602914
213	0xbd135fc2	-0.035979994
214	0x3d5dfd17	0.054196443
215	0x3cf08a9e	0.029362973
216	0x3c5e3955	0.013563474
217	0x3c98734c	0.018609665
218	0x3d17fc3a	0.037105776
219	0x3d7e1eb8	0.062041014
220	0x3ddc1cf9	0.107477136
221	0xbc3a2a0d	-0.011362565
222	0x3c0a715c	0.008449879
223	0xbd48e059	-0.04904208
224	0xbd0bfd7d	-0.034177292
225	0x3c9c9434	0.019113638
226	0xbd41aceb	-0.047284048
227	0xbd732ce2	-0.059368975
228	0x3d49fe5b	0.049314838
229	0x3c8f9265	0.017525861
230	0xbb599f9a	-0.0033206702
231	0xbd200626	-0.039068364
232	0xbd5c4a67	-0.053781893
233	0xbda71347	-0.08157974
234	0xbc07826b	-0.00827084
235	0x3d2f0e20	0.04273808
236	0xbc0792b4	-0.008274723
237	0xbcfcb1aa	-0.030846436
238	0xbd37590b	-0.044762652
239	0x3d51ddf9	0.05123708
240	0xbda09eb8	-0.07842773
241	0x3d3d7917	0.04625806
242	0xbc54d2af	-0.012989684
243	0xbd48f033	-0.049057197
244	0x3c7c8bd6	0.015414199
245	0xbd2a52c6	-0.041582845
246	0xbd5e1868	-0.054222494
247	0xbd4057fb	-0.046958905
248	0x3c8810b3	0.016609525
249	0xbd622928	-0.05521503
250	0x3ceb53ca	0.028726477
251	0xbce5ca66	-0.028050613
252	0x3c318974	0.010835994
253	0xbca9d216	-0.02073006
254	0xbd21a3b7	-0.03946277
255	0xbd1fdd13	-0.039029192

network_body._body_endoder.seq_layers.2.weight f4 [256, 256]
0	0xbdd332ae	-0.10312401
1	0x3d2c5612	0.04207427
2	0xbdc4f1c5	-0.096164264
3	0xbce879df	-0.028378425
4	0xbd9f19d4	-0.07768598
5	0x3d8268fc	0.063676804
6	0xbdb7b9a1	-0.08970953
7	0xbdb33e5e	-0.0875213
8	0x3d0ea9b5	0.034829814
9	0x3c66fa0b	0.014097701
10	0x3dcb53e4	0.0992811
11	0xbbb4872e	-0.0055092787
12	0xbce074cb	-0.027399441
13	0xbd6b0a55	-0.0573829
14	0xbd9d6d47	-0.076868586
15	0x3e41f242	0.1894007
16	0xbd47bcb9	-0.048763964
17	0xbc9befaa	-0.01903518
18	0xbbe94137	-0.00711837
19	0xbd28aef5	-0.041182477
20	0xbd9ee98e	-0.07759391
21	0x3d96b744	0.07359174
22	0x3d0746e1	0.03302658
23	0xbdddc130	-0.10827863
24	0xbc97b39d	-0.018518263
25	0x3d701865	0.058617014
26	0xba946b5d	-0.0011323501
27	0xbd85ccc1	-0.06533194
28	0xbe368122	-0.17822698
29	0xbe779570	-0.241781
30	0xbd87e3e3	-0.06635263
31	0x3c220e02	0.009891035
32	0xbd937f34	-0.072019964
33	0x3da88470	0.082283854
34	0x3ce08993	0.02740935
35	0x3e35e321	0.17762424
36	0x3c1880bc	0.009308036
37	0x3c923e62	0.017852012
38	0xbde80506	-0.11329083
39	0xbcbea1cf	-0.023270516
40	0xbad89714	-0.0016524517
41	0xbd842cbf	-0.06453847
42	0xbdd1ae75	-0.10238353
43	0xbde4f427	-0.11179381
44	0x3a466509	0.0007568156
45	0x3d3b472f	0.045722183
46	0xbba5f3da	-0.0050644698
47	0x3da6e852	0.0814978
48	0x3de44c04	0.11147311
49	0xbdbb0b9a	-0.09133072
50	0xbd4a8ab3	-0.04944868
51	0xbd95d11f	-0.07315277
52	0x3cf5f106	0.030022155
53	0xbd2787bb	-0.040900927
54	0xbda7e944	-0.08198789
55	0x3d2a7d65	0.04162349
56	0x3d805e10	0.06267941
57	0x3dda3691	0.10654939
58	0xbdd9e17a	-0.10638709
59	0x3d242eaf	0.040083583
60	0xbcb7f14e	-0.02245393
61	0x3d5ccb8d	0.05390506
62	0x3d14b05f	0.036301013
63	0x3ce883db	0.028383186
64	0xbb1c6ed4	-0.002386977
65	0xbd9e9dcd	-0.07744942
66	0xbdec9a78	-0.115529
67	0x3e000d08	0.12504971
68	0xbda51f00	-0.080625534
69	0x3e5bc092	0.21460178
70	0x3c81577d	0.015788788
71	0x3cd4ada2	0.0259617
72	0x3d4d47bd	0.050117243
73	0x3dad3099	0.08456535
74	0x3e273810	0.1632998
75	0x3d984acb	0.074361406
76	0x3dfb34a4	0.122659
77	0x3d10105b	0.035171848
78	0xbcb7be1a	-0.022429515
79	0xbd3447f6	-0.04401394
80	0x3cb8e87c	0.022571795
81	0xbd5d3814	-0.05400856
82	0x3db114c2	0.08646537
83	0x3d4c8e43	0.04994036
84	0x3cde7629	0.027155953
85	0x3ddb3a0d	0.10704432
86	0x3dd8a0bf	0.10577535
87	0x3da1c9f4	0.078998476
88	0xbd342595	-0.043981154
89	0x3db29a73	0.08720865
90	0x3d404d93	0.04694898
91	0x3dc6cc3b	0.097069226
92	0x3da74b77	0.08168691
93	0x3b8c7b52	0.004287162
94	0xbd677827	-0.05651107
95	0xbde2ce99	-0.110745616
96	0xbe45da82	-0.19321635
97	0xbb9a9418	-0.004717361
98	0x3d43d428	0.04780975
99	0x3e0865a4	0.13320023
100	0xbdd33d62	-0.10314442
101	0xbd73fbbb	-0.05956624
102	0xbde655f0	-0.1124686
103	0x3d9a27bc	0.0752711
104	0xbdb21c0e	-0.08696757
105	0x3dae10e3	0.08499315
106	0x3d1ab84e	0.037773423
107	0x3da0ec4f	0.07857572
108	0x3dd71837	0.105026655
109	0xbcc5ca04	-0.02414418
110	0x3baa6056	0.0051994724
111	0xbdb28816	-0.087173626
112	0xbd858c0e	-0.06520854
113	0x3d990844	0.0747228
114	0x3d515043	0.051101934
115	0xbdce963a	-0.10087247
116	0x3caece7c	0.021338694
117	0x3ccce4e6	0.025011491
118	0xbdc7204b	-0.09722956
119	0x3cd05ead	0.02543577
120	0x3d2d1092	0.04225213
121	0x3caf2e4d	0.021384383
122	0x3ba1078a	0.004914229
123	0x3de0a0f9	0.10968203
124	0xbc4ef476	-0.012631526
125	0x3de4e8df	0.11177229
126	0x3dbd1d1d	0.092340685
127	0xbc843912	-0.016140494
128	0xbdc4edab	-0.09615644
129	0x3e0cc69f	0.13747643
130	0x3b84d8c4	0.004054161
131	0xbc4d5155	-0.012531598
132	0xbcdeb1ac	-0.02718433
133	0x3d645d4d	0.05575304
134	0x3d4ccea1	0.050001744
135	0x3cba5c45	0.022749076
136	0xbe77cc0d	-0.24198933
137	0xbda8e9b5	-0.08247701
138	0x3dac78b1	0.084214576
139	0xbd550896	-0.05201014
140	0x3d6ed841	0.058311705
141	0xbca07f41	-0.01959193
142	0x3d4a707d	0.049423683
143	0xbc333247	-0.01093728
144	0xbcb4f014	-0.022087134
145	0x3db9a9c5	0.09065584
146	0xbdf224a2	-0.118233934
147	0x3bd93306	0.006628397
148	0xbd6a0a02	-0.05713845
149	0x3c09bf2a	0.0084073935
150	0x3b14ae96	0.002268707
151	0xbd22392c	-0.039605305
152	0x3deb7359	0.1149661
153	0x3d251242	0.040300615
154	0xbd988be1	-0.07448555
155	0xbd9a7c00	-0.075431824
156	0xbcc4cbfd	-0.02402305
157	0xbdf2d659	-0.1185729
158	0xbc9fef8c	-0.019523405
159	0xbd8d649e	-0.06903957
160	0x3d2fe798	0.042945474
161	0xbad9ad54	-0.0016607442
162	0xbdd3dd21	-0.10344911
163	0xbcf2d339	-0.029641734
164	0xbd1656d9	-0.036703918
165	0x3d3465c6	0.04404237
166	0x3bc7e6f1	0.0061005284
167	0xbd6abdfd	-0.057310093
168	0xbdf8ff65	-0.12158088
169	0x3d63f07d	0.05564927
170	0x3d69f865	0.057121653
171	0x3e1b8657	0.15187965
172	0xbcbcd1d0	-0.023049265
173	0xbc8fe133	-0.017563438
174	0xbd25a2f6	-0.040438615
175	0xbc10d24b	-0.0088392
176	0x3dadf46b	0.08493885
177	0x3cf90243	0.030396586
178	0x3d545620	0.051839948
179	0xbd173571	-0.0369162
180	0x3dae0c53	0.084984444
181	0x3db8c6e3	0.0902231
182	0x3dc61825	0.09672574
183	0x3d276c36	0.040874682
184	0xbc748431	-0.014924095
185	0x3d9021e2	0.07037713
186	0xbdb85ae9	-0.09001715
187	0xbd78b699	-0.060721014
188	0x3ce44451	0.027864607
189	0x3d3d57b9	0.046226237
190	0xbd8402cf	-0.06445848
191	0x3baa94f4	0.005205745
192	0x3d3f3676	0.046682797
193	0x3ddaaa70	0.106770396
194	0x3d7c12fb	0.06154154
195	0xbe3519c4	-0.1768561
196	0x3dc6e7c2	0.09712173
197	0x3c2d7def	0.010589107
198	0x3dd712c4	0.10501626
199	0xbdb3be67	-0.08776551
200	0x3d7e5456	0.062092148
201	0x3dad2b89	0.08455569
202	0x3d9822b1	0.07428492
203	0x3b00784f	0.001960296
204	0x3ddac236	0.10681574
205	0x3d5df1f0	0.054185808
206	0x3da4a469	0.08039171
207	0x3e26371a	0.16231957
208	0xbd87f6fe	-0.06638907
209	0xbd932f7e	-0.07186793
210	0x3da6f550	0.081522584
211	0x3e0062e1	0.1253772
212	0x3c931f03	0.017959123
213	0xbd84ab58	-0.06477994
214	0x3d10990c	0.035302207
215	0xbdebfc4f	-0.115227334
216	0x3bc91f1f	0.006137743
217	0xbd731108	-0.059342414
218	0x3a667b27	0.0008792155
219	0x3def5de6	0.116878316
220	0x3ca28a66	0.019841384
221	0x3dcaccdd	0.09902356
222	0xbd6f639e	-0.05844461
223	0xbde8ea60	-0.113728285
224	0xbc6ac894	-0.014330048
225	0xbdd37b8e	-0.103263006
226	0xbe17760c	-0.14791125
227	0xbda61534	-0.08109513
228	0x3cf275a4	0.029597111
229	0xbba2b488	-0.0049653687
230	0xbc4bde4a	-0.012443135
231	0x3dcb166e	0.099163875
232	0x3cbcd6fb	0.02305173
233	0x3daf37eb	0.085555874
234	0xbd8c7cca	-0.06859739
235	0xbca22aa8	-0.01979573
236	0xbd84752d	-0.06467662
237	0x3e3dd45f	0.18538044
238	0xbc67b81c	-0.014143016
239	0x3de48e41	0.11159945
240	0x3d19f93e	0.03759121
241	0x3c07137b	0.008244391
242	0xbcbb4094	-0.022857942
243	0x3d3c4586	0.04596474
244	0x3d903cc3	0.070428394
245	0x3d8b867f	0.068127625
246	0x3dd50cdb	0.104028426
247	0x3d4d8562	0.050176032
248	0xbd336d03	-0.043805134
249	0x3b44f0a1	0.0030050653
250	0x3cf7c5c8	0.030245677
251	0x3e809d0d	0.2511982
252	0xbde7c31f	-0.11316513
253	0x3d90546d	0.07047353
254	0xbdfbeca5	-0.12300996
255	0x3bcaa9da	0.0061847987

network_body._body_endoder.seq_layers.2.bias f4 [256]
0	0x3d8c444b	0.06848963
1	0xbc0f92ec	-0.008763056
2	0x3c58e57d	0.013238308
3	0x3b8380df	0.0040131654
4	0x3cba4241	0.02273667
5	0xbe059733	-0.13045959
6	0xbcef3aa6	-0.02920277
7	0xbd0e465f	-0.03473508
8	0xbd60142d	-0.05470674
9	0x3c11dd1f	0.008902817
10	0x3d72217c	0.059113964
11	0x3cda05a3	0.026614016
12	0xbd8b1eba	-0.0679297
13	0xbd02bef8	-0.031920403
14	0xbd2510d5	-0.040299255
15	0x3c3f92ab	0.011692683
16	0xbd12408c	-0.035706088
17	0x3d908074	0.070557505
18	0x3d0cd45e	0.034382217
19	0xbc94ee18	-0.018179938
20	0xbd15f960	-0.036614776
21	0xbd03e44e	-0.03220015
22	0x3c3b1670	0.011418924
23	0x3cd69f3a	0.026198972
24	0xbd8691fc	-0.06570813
25	0x3c6919ba	0.014227325
26	0x3da0cffd	0.078521706
27	0xbd649c4e	-0.055813126
28	0xbd391d18	-0.04519376
29	0x3cf3b251	0.029748114
30	0xbd0edfdb	-0.034881454
31	0xbd60e979	-0.054910157
32	0xbd2e186c	-0.04250376
33	0x3ccb00ec	0.024780713
34	0xbcee2359	-0.02906959
35	0xbc9f1a3f	-0.019421695
36	0x3d23d13d	0.039994467
37	0x3d0ae9d5	0.033914406
38	0x3b455899	0.0030112623
39	0xbc88cd94	-0.01669959
40	0xbc6668d9	-0.014063084
41	0x3b215ffe	0.0024623866
42	0x3d21a160	0.03946054
43	0x3d6cd445	0.057819624
44	0xbd028b9f	-0.031871434
45	0xbd71942a	-0.05897919
46	0xbca73c1c	-0.020414405
47	0x3c714f8b	0.014728437
48	0x3c6378d2	0.013883786
49	0x3bec5e47	0.007213387
50	0x3cbc9cd4	0.023024
51	0x3ca3c706	0.019992363
52	0x3d87bfd1	0.06628383
53	0xbd899cb8	-0.06719345
54	0x3d2d8c5a	0.042370178
55	0x3d19f8c1	0.037590746
56	0xb6f56428	-7.3132287e-06
57	0x3d3026d2	0.043005772
58	0xbd27b3b5	-0.040942866
59	0xbc737a99	-0.0148607725
60	0xbc01241e	-0.007882146
61	0x3d2305be	0.039800398
62	0x3b504bd1	0.0031783471
63	0xbc878110	-0.016541034
64	0xbd22251a	-0.039586164
65	0x3d53c7f2	0.051704355
66	0xbd513d67	-0.05108395
67	0xbd3a8442	-0.045536287
68	0x3b9cdd9e	0.004787161
69	0x3cabc174	0.02096627
70	0x3c827db5	0.015929082
71	0x3c7f0587	0.015565283
72	0x3cc454c5	0.023966203
73	0xba8be9bf	-0.001067452
74	0xbcd9385d	-0.026516134
75	0xbceb38e6	-0.028713655
76	0xbd1e3692	-0.03862626
77	0xbb8b6eda	-0.004255158
78	0x3d0c9db4	0.034330085
79	0xbc131b65	-0.008978699
80	0x3d05611e	0.03256332
81	0xbbe8d7aa	-0.0071057873
82	0x3b75bb46	0.0037495657
83	0xbc9cb5be	-0.01912963
84	0x3ca7048f	0.020387916
85	0x3b9b1aa2	0.0047333995
86	0xbcf4834d	-0.029847765
87	0x3c955df2	0.018233273
88	0xbce3664f	-0.027758745
89	0x3ca12eb7	0.019675596
90	0xbdd1fc1a	-0.10253163
91	0xbd5ddabf	-0.05416369
92	0xbe0d7fea	-0.13818327
93	0xbd4280f0	-0.047486246
94	0xbd478706	-0.048712753
95	0xbce1b815	-0.027553597
96	0xb8f50694	-0.00011683736
97	0xbd1a9e27	-0.037748482
98	0xbcab35d0	-0.020899683
99	0x3c14241d	0.009041813
100	0xbd30345a	-0.043018676
101	0xbc37924e	-0.011204315
102	0xbd10a60c	-0.035314605
103	0xbae31dc8	-0.0017327601
104	0x39489645	0.00019129466
105	0xbd007af2	-0.03136725
106	0xbcdd34bb	-0.027002683
107	0x3d43a17f	0.047761437
108	0xbce0a58e	-0.027422693
109	0x3c37a875	0.011209597
110	0xbd5db6ed	-0.05412953
111	0xbd51aa40	-0.051187754
112	0x3cb61a75	0.022229413
113	0x3cf3a4db	0.029741695
114	0x3d950a6b	0.07277378
115	0xbd807d14	-0.06273857
116	0xbcd87f35	-0.026427845
117	0xbcac3f7b	-0.021026364
118	0x3bfa6307	0.0076411995
119	0x3b168fce	0.0022973898
120	0xbd945d12	-0.07244314
121	0xbd9ac678	-0.07557386
122	0x3d59bd09	0.053158794
123	0x3d153fe6	0.03643789
124	0xbdef537a	-0.11685844
125	0x3cfa2a2c	0.030537687
126	0x3c899bbb	0.01679789
127	0xbcf429bf	-0.029805062
128	0x3d7cf85a	0.061760284
129	0xbcef4356	-0.029206913
130	0x3d67de7c	0.056608662
131	0xbd8ba7d7	-0.06819122
132	0x3d612427	0.05496612
133	0xbc15d2d3	-0.009144503
134	0xbdabc937	-0.08387988
135	0xbca33a5e	-0.019925293
136	0xbd3680dc	-0.044556484
137	0xbcf43656	-0.029811066
138	0x3ce77f02	0.028258804
139	0xbd2f24f5	-0.042759854
140	0xbd1c2eb7	-0.03813049
141	0x3ca1cac6	0.01975001
142	0xbcc0c617	-0.023531957
143	0xbcdadcbd	-0.026716584
144	0x3d1ec241	0.038759474
145	0xbcd12a5a	-0.02553289
146	0x3d3144e2	0.043278582
147	0x3c34b640	0.01102978
148	0x3c837375	0.016046265
149	0xbd6a4f2f	-0.05720442
150	0xbcc6d65f	-0.024272142
151	0xb9122822	-0.00013938596
152	0xbd19d8eb	-0.037560385
153	0xbce76c89	-0.028249996
154	0xbce35923	-0.027752465
155	0xbcf9d4a8	-0.03049691
156	0x3c45f11a	0.012081409
157	0xbd01f642	-0.03172899
158	0xbdb16d6c	-0.08663449
159	0x3d742566	0.05960598
160	0xbcae3c31	-0.021268936
161	0x3cfb2b31	0.030660244
162	0xbd3cb1eb	-0.046068113
163	0x3d13df5e	0.03610169
164	0xbcd89445	-0.026437888
165	0xbb86a118	-0.0041085593
166	0xbcb590b9	-0.022163736
167	0xbd89b8e1	-0.06724716
168	0xbcd42614	-0.025897063
169	0x3d1199f4	0.03554721
170	0xbd8bb347	-0.06821304
171	0xbd3c8dd3	-0.04603369
172	0x3c5486f9	0.012971633
173	0xbdba95a5	-0.09110574
174	0x3ceed705	0.029155264
175	0x3cba6564	0.022753425
176	0x3ced6b9e	0.02898198
177	0x3ca94829	0.020664291
178	0x3cfc4623	0.030795163
179	0xbcd6ef71	-0.026237221
180	0xbd525b5a	-0.05135665
181	0xbc83dec9	-0.016097443
182	0x3d2ac9e9	0.041696463
183	0x3d61f1bd	0.05516218
184	0xbd554707	-0.05206969
185	0xbd028659	-0.031866405
186	0x3d3cac82	0.046062954
187	0x3c622f25	0.013805185
188	0xbd54f00e	-0.051986746
189	0xbd8b7707	-0.06809812
190	0xbcaaf6ac	-0.020869575
191	0x3d24e1bd	0.040254343
192	0xbda59f9f	-0.08087086
193	0x3cb62832	0.022235963
194	0x3d4f2f97	0.050582495
195	0xbcd870f5	-0.02642105
196	0xbccea584	-0.025225408
197	0xbcc2f50e	-0.023798492
198	0x3d4e991e	0.050438993
199	0xbd719ee4	-0.05898942
200	0xb94955e1	-0.00019200846
201	0x3a7a62f3	0.0009551488
202	0x3d448040	0.04797387
203	0xbd1d09c0	-0.038339376
204	0x3d83bbd4	0.0643231
205	0xbb081048	-0.0020761658
206	0xbda82e0c	-0.08211908
207	0x3d93273e	0.07185219
208	0x3c60602a	0.013694802
209	0xbb020b5b	-0.0019843194
210	0x3c61e930	0.013788506
211	0xbde49e76	-0.111630365
212	0xbda8785d	-0.082260825
213	0x3d6032bb	0.05473588
214	0x3cb4ec0e	0.022085216
215	0x3c8a92c9	0.016915696
216	0x3d2cdc9b	0.042202573
217	0xbccadf4a	-0.024764676
218	0x3919c885	0.00014665916
219	0xbcdf9407	-0.027292265
220	0x3d57051c	0.052495107
221	0x3cb6f2ef	0.022332637
222	0xbcdab219	-0.026696252
223	0xbc8a9519	-0.016916798
224	0x3d136cbe	0.035992377
225	0xbd2e0d5c	-0.04249321
226	0xbca7d78f	-0.020488529
227	0xbd39a4f3	-0.045323323
228	0x3c9b8eef	0.018989054
229	0xbd393bb2	-0.045222946
230	0xbc2fd1a9	-0.010731139
231	0x3c3f5300	0.011677504
232	0xbcdd13a6	-0.026986908
233	0xbd28351c	-0.041066274
234	0x3d786d20	0.060650945
235	0xbd61c2c1	-0.055117372
236	0xbcd2120b	-0.02564337
237	0xbd4b4893	-0.04962976
238	0xbc4896cf	-0.012242987
239	0xbbb44c3d	-0.0055022524
240	0xbddadfe5	-0.10687236
241	0x3c06e2c7	0.008232779
242	0x3dc65b2c	0.096853584
243	0x3da4d029	0.08047516
244	0xbd70a350	-0.058749497
245	0x3bba39b3	0.005683148
246	0xbdf0ef50	-0.11764395
247	0xbc684c5b	-0.014178361
248	0x3c3cf1da	0.011532271
249	0xbd31532e	-0.043292217
250	0xbd0f269a	-0.034948923
251	0xbdacd34e	-0.08438741
252	0xbcc4f005	-0.024040231
253	0xbc5d9c02	-0.013525965
254	0xbb29b414	-0.0025894688
255	0xbd86ad29	-0.065759964

action_model._discrete_distribution.branches.0.weight f4 [3, 256]
0	0x3c90ad09	0.017660635
1	0xbdcb5b30	-0.09929502
2	0xbc50f249	-0.012753078
3	0xbd0df058	-0.034653038
4	0x3c4c67dd	0.012475935
5	0xbd006c95	-0.031353552
6	0xbd60305b	-0.054733615
7	0xbcd33c07	-0.02578546
8	0x3d752924	0.059853688
9	0x3c22eeda	0.009944642
10	0x3afad663	0.0019137379
11	0x3c8d7747	0.01726879
12	0x3c95e85b	0.018299272
13	0x3cbd8f88	0.02313973
14	0xbd183261	-0.03715742
15	0xbc046173	-0.008079874
16	0x3c635fd2	0.013877826
17	0x3be3fe62	0.006957815
18	0xbb6afd0a	-0.003585639
19	0x3b0659f2	0.002050039
20	0xbc4a6420	-0.012352973
21	0x3d0b29c1	0.033975367
22	0xbc9440e0	-0.018097341
23	0x3a0226af	0.0004964871
24	0xbc2c7434	-0.010525752
25	0xbce65078	-0.028114542
26	0x3c756a01	0.014978887
27	0x3d72ea29	0.059305344
28	0xbdc20351	-0.09473289
29	0x3d0fca68	0.03510514
30	0x3d4a04c7	0.049320962
31	0x3d59ccd5	0.05317386
32	0x3c913627	0.017726017
33	0x3cc21857	0.023693247
34	0x3b23836e	0.0024950164
35	0xba2c5692	-0.0006574179
36	0xbd08544d	-0.03328352
37	0x3c944463	0.018099016
38	0xbcd7c764	-0.026340194
39	0x3c90fd92	0.017699037
40	0x3c1a131c	0.00940397
41	0xbde24045	-0.11047415
42	0xbb7eef89	-0.0038900098
43	0x3c80b6ab	0.015712103
44	0x3c1e98da	0.009679997
45	0xbd5fd360	-0.054644942
46	0xbc9037dc	-0.01760476
47	0x3c859e1d	0.016310746
48	0x3da61358	0.08109158
49	0x3d3179f9	0.043329213
50	0x3d2e4c3f	0.042553183
51	0x3b27cfc9	0.0025606027
52	0xbc607f99	-0.013702297
53	0xbc211617	-0.009831927
54	0x3c0aea69	0.008478739
55	0x3be63b79	0.0070261327
56	0xbcbf4aff	-0.02335119
57	0xbc30630e	-0.010765804
58	0xbd06665a	-0.032812454
59	0xbc8892df	-0.016671596
60	0x3ce622cb	0.028092762
61	0xbca7686d	-0.020435536
62	0xbcf83d68	-0.030302718
63	0xbaea5455	-0.0017877916
64	0xbc8e7eba	-0.017394412
65	0xbc73bc72	-0.014876472
66	0x3d18ded4	0.03732188
67	0x3d230b0a	0.03980545
68	0xbbc659f9	-0.006053206
69	0xbbcb3c74	-0.006202275
70	0xbcd02977	-0.025410397
71	0x3caa46b5	0.020785669
72	0x3c55f232	0.013058232
73	0xbd65cb05	-0.056101818
74	0x3c48458f	0.012223615
75	0xbd30b0a5	-0.04313721
76	0x3c577ef9	0.013152831
77	0x3b6540bc	0.0034981212
78	0x3cfb8f4f	0.030707983
79	0xbcf505a1	-0.02990991
80	0x3ba3bb68	0.004996706
81	0x3d3e75c6	0.046499036
82	0xbd10951a	-0.035298444
83	0x3c704f1a	0.014667297
84	0xbc381e70	-0.011237726
85	0x3c747bf2	0.014922129
86	0x3cc30a25	0.023808548
87	0xbcfa95b6	-0.030588966
88	0xbdaab5bd	-0.08335445
89	0x3cafe675	0.021472195
90	0x3b71962d	0.0036863193
91	0x3d3252ea	0.043536104
92	0xbd59fbdf	-0.05321872
93	0x3af22347	0.0018473648
94	0x3c081def	0.008307918
95	0xbd014a6e	-0.031565122
96	0xbb5e7820	-0.0033946112
97	0x3d395398	0.045245737
98	0xbb897b1a	-0.004195583
99	0xbc8c0e65	-0.017096708
100	0xbcc53ac5	-0.024075875
101	0xbce749dd	-0.028233463
102	0xbcc4ca78	-0.024022326
103	0xbd4a342e	-0.04936617
104	0x3bf27ea3	0.00740035
105	0x398085d3	0.0002451377
106	0x3c2a02f1	0.010376678
107	0x3d486d38	0.048932284
108	0x3b48cff9	0.003064154
109	0xbc8c3817	-0.01711659
110	0xbc8953e0	-0.016763628
111	0x3d4db6ee	0.050223283
112	0xbcdcc8b7	-0.026951177
113	0x3caeb7f9	0.02132796
114	0xbb50809a	-0.0031814934
115	0xbab2cdb4	-0.0013641627
116	0xbc91785e	-0.01775759
117	0x3d6f41c6	0.058412336
118	0xbb2be994	-0.0026231753
119	0xbbb42036	-0.005497004
120	0xbbe26a46	-0.0069096414
121	0x3c0c1124	0.0085490085
122	0x3cbbec12	0.022939716
123	0xbd6d0967	-0.057870295
124	0xbd085abe	-0.033289663
125	0x3c574ffb	0.013141627
126	0x3b7469e4	0.003729456
127	0xbd511a68	-0.051050574
128	0xbc7ead08	-0.015544184
129	0x3d0979b0	0.033563316
130	0x3c6ad6ad	0.014333409
131	0x38189dd0	3.63866e-05
132	0xbcdb4d06	-0.026770126
133	0x3d1ddae9	0.038538847
134	0x3cbf9154	0.023384728
135	0x3c54e019	0.012992882
136	0x3c6ad98a	0.014334092
137	0xbcb26656	-0.021777313
138	0x3b497549	0.0030740073
139	0xbd0bebd8	-0.034160465
140	0xbdb637f5	-0.08897392
141	0x3aabd777	0.0013110478
142	0x3d9e953e	0.077433094
143	0xbd0cd4ee	-0.034382753
144	0x3c88a02c	0.016677938
145	0xbc35b2ab	-0.011089961
146	0x3cc37e28	0.023863867
147	0x3b1ca7f2	0.0023903814
148	0x3caa9f42	0.020827893
149	0xbc7df53a	-0.015500361
150	0x3d262caf	0.040569957
151	0x3c5a701d	0.013332394
152	0x3c687f35	0.014190485
153	0x3d06a7ee	0.032874994
154	0x3c8efe83	0.017455345
155	0xbd8616b9	-0.06547303
156	0xbd22cef5	-0.03974815
157	0xbcca5c5c	-0.024702244
158	0xbc5365bb	-0.012902672
159	0xbb82ac1d	-0.0039878027
160	0x3d46aae1	0.048502807
161	0x3d0391cd	0.03212147
162	0xbcc91ad3	-0.024548924
163	0xbbbb293b	-0.005711702
164	0xbba47dbf	-0.005019873
165	0xbb578cff	-0.0032890437
166	0xba02f108	-0.0004995023
167	0xbc995b6c	-0.018720351
168	0xbcef1e8a	-0.029189367
169	0x3c67d1d3	0.014149147
170	0x3c79f793	0.01525678
171	0x3c900afd	0.017583365
172	0xbd137f57	-0.036010113
173	0xbd7acb6f	-0.061229166
174	0x3d2bf749	0.041983876
175	0x3c98569e	0.01859599
176	0xbc334303	-0.01094127
177	0xbd1387dd	-0.03601824
178	0x3c127bef	0.008940681
179	0xbced8e4e	-0.02899852
180	0xbc9f5942	-0.019451741
181	0xbc994902	-0.01871157
182	0x3d30265c	0.043005332
183	0xbc49e517	-0.012322686
184	0xbd4ef00b	-0.05052189
185	0x3d0d4832	0.03449268
186	0xbc9e6908	-0.019337192
187	0xbd8207df	-0.063491575
188	0x3c9b8b67	0.01898737
189	0xbaf3badc	-0.0018595117
190	0x3d2c0f21	0.042006616
191	0x3cc84e8f	0.024451522
192	0xbd1a755d	-0.037709583
193	0x3d0d0112	0.03442485
194	0x3c949084	0.018135317
195	0x3c8ba0a8	0.01704438
196	0xbb94ff18	-0.004547011
197	0x3d112d80	0.035443783
198	0x3929d1b0	0.0001619521
199	0xbd6e67b1	-0.058204357
200	0xbc6f3f05	-0.014602427
201	0xbd509ba4	-0.05092968
202	0x3cad3af1	0.02114627
203	0x3cd2a911	0.025715383
204	0x3a80b54c	0.0009819656
205	0xbc268465	-0.010163401
206	0xbd785177	-0.060624566
207	0x3b85a31f	0.0040782834
208	0xbc8d6803	-0.01726151
209	0x3d023700	0.031790733
210	0xbc4e556f	-0.012593611
211	0xbcd7505b	-0.026283434
212	0x3c89a75c	0.016803436
213	0x3b20c27c	0.0024529984
214	0xbb55eba1	-0.0032641666
215	0x3c08678f	0.008325472
216	0x3c8a57b5	0.016887525
217	0x3d07ebf2	0.033184
218	0xbd817e3a	-0.06322904
219	0x3a140419	0.00056463626
220	0xbbf4382b	-0.007452985
221	0x3b4f0b52	0.003159244
222	0x3d89dbb1	0.06731356
223	0xbd48a857	-0.048988666
224	0xbc8a4430	-0.016878217
225	0x3bf98480	0.007614672
226	0x3d0b532c	0.034014866
227	0xbcb5a569	-0.0221736
228	0x3c9bf8a6	0.019039463
229	0xbcdcabc6	-0.026937377
230	0xbce8bde0	-0.028410852
231	0x3b3d5202	0.0028887992
232	0xbcc0aeb3	-0.023520803
233	0xbd0920bd	-0.033478487
234	0xbb84f510	-0.004057534
235	0x3cdc4a04	0.026890762
236	0xbcef322b	-0.029198727
237	0x3d9076c4	0.07053903
238	0x3cde1233	0.027108287
239	0xbd523d35	-0.051327903
240	0xbd3aa36e	-0.045566015
241	0xbc4e618f	-0.012596502
242	0xbcaff7cf	-0.021480469
243	0x3bb3bfbc	0.005485503
244	0xbd339143	-0.043839704
245	0x3b8064bb	0.003918258
246	0xbd1a4caf	-0.037670787
247	0xbc977ca1	-0.018492045
248	0xbdd80121	-0.1054709
249	0xbcace608	-0.021105781
250	0xbd03e3db	-0.03219972
251	0x3ce2e564	0.027697273
252	0x3d0f323a	0.03496001
253	0xbcd5b219	-0.0260859
254	0x3c80eb02	0.01573706
255	0x3c3b90ee	0.011448128

action_model._discrete_distribution.branches.0.bias f4 [3]
0	0x3d8aa0e8	0.06768972
1	0x3d12ae67	0.035810854
2	0xbe222c26	-0.15837154

action_model._discrete_distribution.branches.1.weight f4 [3, 256]
0	0xbaf20acd	-0.0018466354
1	0x3d37c470	0.04486507
2	0x3cef6a88	0.029225603
3	0xbd59df83	-0.053191673
4	0x3c5ebec2	0.013595285
5	0xbd302ad7	-0.043009605
6	0x3bd69485	0.0065484666
7	0x3ceeb805	0.029140482
8	0xbc830eb1	-0.015998216
9	0xbbfca3a5	-0.0077099376
10	0xbcd73ac6	-0.026273143
11	0x3c8ef3fc	0.017450325
12	0xbc484a8d	-0.012224806
13	0xba851985	-0.00101547
14	0x3bd6a049	0.006549869
15	0x3d77692c	0.060403034
16	0xbd5cd99e	-0.053918473
17	0x3c1823c0	0.009285867
18	0xba064408	-0.0005121832
19	0xbce2d8da	-0.027691294
20	0xbc0c2436	-0.008553555
21	0xbdb666d8	-0.08906335
22	0x3cfef4df	0.031122623
23	0xbb6d59e1	-0.0036216902
24	0xbb83cd5c	-0.0040222835
25	0xbc35d98e	-0.011099232
26	0xbbf637c5	-0.0075139725
27	0xbd2358b3	-0.039879512
28	0x3b90c005	0.0044174218
29	0xbc4508e1	-0.012026043
30	0x3cc4c3c7	0.024019135
31	0x3cb07adf	0.021542965
32	0x3d5ee495	0.05441721
33	0xbcf3093c	-0.02966749
34	0x3c94ddd3	0.01817218
35	0x3d102919	0.035195444
36	0xbd599fbe	-0.053130858
37	0x3cb0d6cf	0.021586804
38	0xbd22558f	-0.039632376
39	0x3c0f4b86	0.008746034
40	0x3d3b6b42	0.045756586
41	0xbc2673e8	-0.01015947
42	0x3c13ea60	0.009028047
43	0x3d1bacbe	0.038006537
44	0x3bd31793	0.0064420193
45	0xba427a5a	-0.00074187445
46	0xbb30442e	-0.0026896107
47	0x3c9fce91	0.019507678
48	0x3d4ea187	0.050447013
49	0xbcba5ad0	-0.02274838
50	0x387e50ec	6.0633683e-05
51	0x3cf3f7ac	0.029781185
52	0xbbdee96b	-0.006802728
53	0x3cc65821	0.024211945
54	0xbcb30043	-0.02185071
55	0xbc4a6156	-0.012352308
56	0x3d181e8f	0.037138518
57	0x3cb22f5e	0.021751102
58	0xbcec56da	-0.028850008
59	0xbd27031f	-0.04077446
60	0x3ce99e3b	0.028517833
61	0x3cbebf89	0.02328469
62	0x3bc33b2d	0.005957982
63	0x3bce5cc1	0.006297678
64	0xbb7b417f	-0.00383386
65	0xbd137327	-0.03599849
66	0x3b018eca	0.0019768947
67	0xbc6890c8	-0.014194675
68	0xbd10bafe	-0.03533458
69	0x3b76a914	0.00376374
70	0x3bbeb60f	0.005820043
71	0x3d1e5736	0.03865739
72	0xbcbac3ac	-0.022798382
73	0xba8b9fef	-0.0010652522
74	0xbd3c0bf5	-0.04590984
75	0xbc4d68f5	-0.012537231
76	0x3ca091fc	0.01960086
77	0xbd068688	-0.032843143
78	0x3c7cba44	0.015425269
79	0xbcee337f	-0.02907729
80	0x3d383051	0.044967953
81	0xbaf2c279	-0.0018521092
82	0x3d810bbd	0.06301067
83	0xbd3e2f33	-0.04643173
84	0x3b87d77a	0.00414556
85	0x3b381083	0.0028086014
86	0xbb487dd2	-0.0030592573
87	0xbc38837f	-0.01126182
88	0x3be5823e	0.0070040515
89	0xbaa4c898	-0.0012571989
90	0x3be80275	0.007080371
91	0x3c0f5d75	0.008750309
92	0xbcfd857b	-0.030947438
93	0xbc5d599a	-0.013510132
94	0xbc915f02	-0.017745499
95	0xbb2c2ad8	-0.0026270654
96	0xbcbed929	-0.02329691
97	0x3a22b650	0.0006206976
98	0x3cbb9941	0.022900226
99	0xbc09edce	-0.008418513
100	0xbd08567d	-0.033285607
101	0x3c0c7e93	0.0085750995
102	0x37ac30dc	2.052675e-05
103	0x3b736726	0.0037140339
104	0x3abf292e	0.0014584416
105	0x3be581e6	0.0070040105
106	0xbc4c9b5a	-0.012488211
107	0x3d086196	0.03329619
108	0xbc92f20a	-0.017937679
109	0xbbed476d	-0.0072411806
110	0xbc4824f3	-0.012215841
111	0xbca43665	-0.020045469
112	0x3d3eaff7	0.046554532
113	0xbbda5bc5	-0.006663772
114	0x3d000549	0.03125504
115	0xbd1f60a1	-0.038910512
116	0x3cb67f73	0.02227757
117	0x3c9bfa3b	0.019040218
118	0x3c097d1a	0.008391643
119	0x3cc7d5da	0.024393965
120	0xbceb0a00	-0.028691292
121	0xbc92a694	-0.017901696
122	0x3c8249b7	0.01590429
123	0x3c6c9c9c	0.014441635
124	0xbbb78b60	-0.0056013316
125	0xbc331d09	-0.0109322155
126	0xbc175dfe	-0.009238718
127	0xbda38546	-0.07984404
128	0x3a3a048f	0.0007096016
129	0xbc9bea86	-0.019032728
130	0x3ce179af	0.027523844
131	0xbcd69547	-0.026194228
132	0xbbcd7fe4	-0.0062713493
133	0xbcfc6c0d	-0.030813241
134	0xbce622ea	-0.02809282
135	0xbcbcf428	-0.023065642
136	0xbc346578	-0.01101052
137	0x3ce534b3	0.02797923
138	0x3d09eefc	0.03367518
139	0x3d04ff72	0.032470174
140	0x3c1b5d83	0.009482744
141	0x3d05cbfb	0.032665234
142	0x3c01f135	0.007931043
143	0xbca7b94e	-0.020474102
144	0xbb7b42db	-0.003833941
145	0x3bd90c6f	0.0066237967
146	0x3c07826a	0.008270839
147	0xbcbb9288	-0.02289702
148	0x3b77776f	0.0037760397
149	0xbcca0898	-0.024662301
150	0xbd0db73e	-0.03459858
151	0x3ca77f3c	0.020446412
152	0x3cb225cd	0.02174654
153	0xbcf4e4a4	-0.02989418
154	0xbace4241	-0.0015736298
155	0x3c125caa	0.008933226
156	0xbc19906c	-0.009372812
157	0x3b8a9e4f	0.0042302976
158	0xbd8ca576	-0.06867497
159	0xbb3922a6	-0.0028249412
160	0x3c04a164	0.008095119
161	0x3d500da8	0.050794274
162	0xbc46a91a	-0.012125278
163	0x3b579774	0.003289667
164	0x3d7de9f0	0.06199068
165	0x3d59b2c2	0.053148992
166	0xbd02266e	-0.03177493
167	0x3d72770d	0.059195567
168	0x3bd14b0e	0.006387121
169	0x3bb6c456	0.0055776043
170	0x3cd7a759	0.026324915
171	0xba6db852	-0.00090682984
172	0xbc58a782	-0.013223531
173	0xbc625c4f	-0.013815953
174	0x3d2707d7	0.04077896
175	0x3b323e30	0.0027197711
176	0x3c8f0ee8	0.017463163
177	0xbd050d62	-0.032483466
178	0x3cf21611	0.029551538
179	0xb935944c	-0.0001731675
180	0x3d13491a	0.035958387
181	0x3d2caa1b	0.042154413
182	0x3d370e2d	0.044691253
183	0x3ce5031c	0.027955584
184	0xbc2504ba	-0.010071928
185	0xbb1f33fd	-0.0024292462
186	0x3d7fc918	0.062447637
187	0x3c05e1e6	0.008171534
188	0x3db7b450	0.08969939
189	0x3d625cd9	0.055264328
190	0xbd4b9898	-0.04970607
191	0x3c312836	0.01081281
192	0x3bac6f92	0.0052623237
193	0x3cf5f0de	0.030022081
194	0x3c2467e1	0.010034532
195	0x3c7b97cc	0.015356015
196	0x3d63839c	0.055545434
197	0xbcf081be	-0.02935874
198	0x3d2303ea	0.039798655
199	0x3aa9040f	0.0012894886
200	0xbc0b0a92	-0.008486407
201	0xbbf65b24	-0.007518189
202	0xbcc7d777	-0.024394734
203	0x3be119fd	0.006869553
204	0x3cdd7b4e	0.027036335
205	0xbb158d05	-0.002281965
206	0xba98aef0	-0.0011648815
207	0x3cded370	0.02720043
208	0x3d0ef99f	0.034906026
209	0xbb8aedd6	-0.004239778
210	0xbcadfcca	-0.021238703
211	0xbc8e7cc3	-0.017393475
212	0x3c7f5184	0.0155834
213	0xbba52413	-0.005039701
214	0x3d3184b7	0.043339457
215	0x3be39629	0.0069453907
216	0x3d029582	0.031880863
217	0xbd1ef0b1	-0.03880376
218	0x3d9332eb	0.07187446
219	0xbc32ad37	-0.010905555
220	0x3d26f4d2	0.040760823
221	0x3b16529c	0.0022937423
222	0xbc05bb4f	-0.008162334
223	0xbce9f7e5	-0.028560588
224	0xbc9597f6	-0.018260937
225	0xb97ea22e	-0.00024283744
226	0xbb25e333	-0.0025312423
227	0xbc4276e2	-0.011869164
228	0x3c25e7e5	0.010126089
229	0xbc783c6e	-0.015151126
230	0xbcd2cff1	-0.02573392
231	0x3cdbbf7e	0.026824709
232	0xbcf81122	-0.030281607
233	0x3c6f601f	0.014610319
234	0xbce29e67	-0.027663423
235	0x3c8b0548	0.016970292
236	0xbd5150e9	-0.051102553
237	0xbcc2ab6a	-0.023763377
238	0xbc4b59b2	-0.012411522
239	0xbd105816	-0.035240255
240	0xbd3b95fa	-0.045797326
241	0x3c28f19b	0.0103115095
242	0xba8e8df5	-0.0010876047
243	0xbbb43c3f	-0.005500346
244	0x3c22379c	0.009900954
245	0xbc1f8cc1	-0.009738148
246	0xbd0d07e8	-0.034431368
247	0xbc68fc31	-0.014220283
248	0x3aa96e7e	0.0012926606
249	0x3d404600	0.046941757
250	0x3c8af143	0.016960746
251	0xbd31231a	-0.043246366
252	0x3b89f73a	0.00421038
253	0xbba8fd95	-0.0051571825
254	0x3cd25439	0.025674926
255	0x3ab45236	0.0013757411

action_model._discrete_distribution.branches.1.bias f4 [3]
0	0x3d5b39bb	0.053521853
1	0xbc90a861	-0.017658414
2	0xbd27dfe9	-0.04098502

action_model._discrete_distribution.branches.2.weight f4 [2, 256]
0	0x3c827abc	0.015927665
1	0x3d0eb912	0.034844466
2	0xbc36e14a	-0.011162112
3	0xbba3c977	-0.0049983817
4	0x3d0fc740	0.03510213
5	0xbd2805d1	-0.041021172
6	0x3d81bc5e	0.06334756
7	0xbceb13b6	-0.028695922
8	0x3c92e2ab	0.01793035
9	0xbd51b24d	-0.05119543
10	0xbd336750	-0.0437997
11	0x3d0a7841	0.03380609
12	0x3c3ac279	0.011398905
13	0x3d6a6ea9	0.05723444
14	0xbcc13c33	-0.023588276
15	0x3da60579	0.081065126
16	0xbceb83d7	-0.02874939
17	0xbc844024	-0.016143866
18	0x3d0fb2c3	0.03508259
19	0x3dfbce9d	0.12295268
20	0xbe0a0214	-0.13477355
21	0xbda2c003	-0.079467796
22	0xbd076b62	-0.033061393
23	0x3d03921b	0.03212176
24	0xbc96475f	-0.01834458
25	0xbd201f41	-0.039092306
26	0xbd10fcb3	-0.035397243
27	0xbbdaae75	-0.006673629
28	0xbd3e24a8	-0.046421677
29	0x3d8126be	0.063062176
30	0xbd2114d1	-0.039326493
31	0xbd642b30	-0.05570525
32	0xbd52ed74	-0.051495984
33	0xbd073898	-0.033012956
34	0xbd357313	-0.044299196
35	0xb979b108	-0.0002381244
36	0x3cd108e3	0.025516933
37	0x3cc24029	0.023712235
38	0xbd18ebe8	-0.037334353
39	0xbd2da7fa	-0.042396523
40	0x3d02c60e	0.03192716
41	0x3d9d7834	0.076889426
42	0x3c903914	0.017605342
43	0x3bb9c8cd	0.0056696893
44	0x3c8cb1e0	0.017174661
45	0xbd678952	-0.056527443
46	0x3c7d07d2	0.015443759
47	0xbc3b81d5	-0.011444529
48	0xbc9a5278	-0.018838152
49	0x3d1d3490	0.038380206
50	0x3d61072f	0.05493849
51	0x3d999886	0.07499795
52	0x3b139034	0.0022516372
53	0xbd2fa179	-0.0428786
54	0xbcf48285	-0.029847393
55	0xbce82f44	-0.02834285
56	0x3c2da949	0.010599443
57	0xbc3a98eb	-0.011388998
58	0xbc7809c8	-0.015139051
59	0x3c36ed96	0.011165043
60	0xbd516559	-0.051122043
61	0x3db252bf	0.08707189
62	0x3d53a5d8	0.051671833
63	0xbd311a57	-0.04323801
64	0xbd6115c9	-0.054952417
65	0xbcae7ade	-0.021298822
66	0x3b190ddd	0.002335421
67	0xbdadf96c	-0.08494839
68	0xbc95f8e9	-0.018307166
69	0x3d39294a	0.045205392
70	0x3c272b85	0.010203247
71	0xbca571cc	-0.020195864
72	0x3d2d19a2	0.042260773
73	0x3d413013	0.047164988
74	0xbd64ed1c	-0.055890188
75	0xbaae9db6	-0.0013322148
76	0xbba7c2ee	-0.005119673
77	0x3d6bb4f8	0.057545632
78	0x3c3d4cac	0.0115539245
79	0x3d8a723b	0.06760069
80	0x3d1bf5f7	0.038076367
81	0xbd612118	-0.0549632
82	0x3df16af3	0.11787977
83	0xbd38dd63	-0.045133006
84	0x3c261b51	0.010138349
85	0x3c5bede6	0.013423419
86	0xbc987907	-0.018612398
87	0x3cc04faf	0.023475496
88	0xbcb9d6a7	-0.022685362
89	0x3cd90347	0.02649082
90	0xbd593a24	-0.053033963
91	0xbaa084cf	-0.0012246611
92	0xbd379276	-0.04481741
93	0x3a9b1e1c	0.0011834535
94	0xbd88fe6f	-0.06689154
95	0xbc99ed8f	-0.018790035
96	0xbd326fb6	-0.043563567
97	0xbdce2124	-0.10064915
98	0xbb971957	-0.004611175
99	0xbd820a57	-0.063496284
100	0x3ca6401c	0.020294242
101	0x3e20696d	0.15665217
102	0xbc9ad74f	-0.018901495
103	0x3bbcba52	0.005759516
104	0x3d3d1884	0.046165958
105	0xbb035a47	-0.0020042823
106	0x3d691b51	0.056910817
107	0xbca1d7c2	-0.019756202
108	0x3c135c06	0.008994108
109	0x3c6e45a7	0.014542974
110	0xbce66018	-0.028121993
111	0xbcb247db	-0.021762779
112	0x3d5c0d30	0.053723514
113	0xbcc8f846	-0.024532449
114	0x3d4a1fef	0.04934686
115	0xbd2f12b9	-0.042742465
116	0xbe0b8e3b	-0.13628475
117	0xbc6b45bb	-0.014359887
118	0x3de5ac19	0.11214466
119	0xbcb3374b	-0.021876952
120	0x3afd54b8	0.0019327616
121	0xbd62e56f	-0.055394586
122	0x3dd32831	0.103104
123	0x3dc37b5c	0.09545013
124	0xbd90d9ca	-0.0707279
125	0x3c5ddea9	0.013541856
126	0x3d863dea	0.06554778
127	0x3aeb1298	0.0017934619
128	0x3c577cb2	0.013152288
129	0x3d7f9040	0.062393427
130	0x3d339832	0.043846317
131	0xbd7dc14a	-0.061951913
132	0x3d61435b	0.054995876
133	0xbcbbe275	-0.022935132
134	0xbc820e7d	-0.01587605
135	0x3d0344ee	0.03204816
136	0xbcc5d87b	-0.024151077
137	0xbca3c09b	-0.019989302
138	0xbd18d888	-0.037315875
139	0xbd6b6c07	-0.05747607
140	0xbcfb951e	-0.030710753
141	0xbc9cb2ba	-0.019128192
142	0xbccd09fa	-0.025029171
143	0xbc5e806a	-0.013580421
144	0x3ab97c10	0.0014151353
145	0xbd8dc662	-0.06922604
146	0x3c936e0b	0.017996809
147	0x3de73536	0.11289446
148	0xbc65f3e9	-0.0140352035
149	0xbb0d5b96	-0.0021569482
150	0x3d420425	0.047367234
151	0x3db698b2	0.08915843
152	0xbd414d13	-0.047192644
153	0xbd8d8607	-0.06910329
154	0xbde80198	-0.11328429
155	0xbc980740	-0.018558145
156	0x3dcd275a	0.10017271
157	0x3d65eb03	0.056132328
158	0xbd2313b6	-0.03981372
159	0x3dc90b59	0.098166175
160	0xbd3e5f33	-0.046477508
161	0x3d290af7	0.041270223
162	0xb99b3870	-0.00029605953
163	0x3c6b8d1b	0.014376904
164	0xbdabc7d6	-0.08387725
165	0x3c1cec36	0.009577801
166	0xbdb53b81	-0.0884924
167	0xbdb5e732	-0.08881988
168	0xbcb9c171	-0.022675248
169	0xbb3a2c05	-0.0028407585
170	0x3b814227	0.0039446536
171	0xbca5670e	-0.020190742
172	0x3b70f56f	0.0036767384
173	0xbbfaf9f5	-0.0076591917
174	0x3c4b7d25	0.0124199735
175	0x3d262d53	0.04057057
176	0x3caac3fe	0.02084541
177	0x3c260124	0.010132108
178	0x3ce2963c	0.027659528
179	0x3b5fd750	0.0034155436
180	0xbd3dc940	-0.046334505
181	0x3de39902	0.11113168
182	0xbc750218	-0.0149541125
183	0x3d5be83d	0.053688277
184	0xbcd2a314	-0.025712527
185	0xbc67c491	-0.014145986
186	0x3d688c77	0.056774583
187	0xbd265d50	-0.040616333
188	0xbc8d631e	-0.017259177
189	0xbcda206a	-0.026626784
190	0xbcebe451	-0.028795393
191	0x3d4cf35e	0.05003678
192	0xbd1a3edc	-0.037657604
193	0xbd0c04af	-0.034184154
194	0x3d4890cc	0.048966214
195	0xbe099072	-0.13434008
196	0xbe067e33	-0.13134079
197	0x3d924cb5	0.07143537
198	0x3cc8a46b	0.024492463
199	0xbd33c2c2	-0.043886907
200	0x3dacf028	0.08444244
201	0xbd31a1e3	-0.043367278
202	0xbcbbd7f1	-0.022930117
203	0xbc8cfdd7	-0.017210884
204	0x3b3711c2	0.0027934168
205	0x3c91482b	0.017734608
206	0xbd217948	-0.039422303
207	0x3c7bcd14	0.015368719
208	0x3d707415	0.058704454
209	0x3d56d4cb	0.05244903
210	0x3db5a406	0.088691756
211	0xbc94c809	-0.01816179
212	0xbc8b3008	-0.016990677
213	0x3d3554f8	0.044270486
214	0x3cd0ce37	0.025488956
215	0x3ca4a6b2	0.020099018
216	0x3c7721e2	0.015083762
217	0x3cf70cea	0.030157525
218	0x3dff9c8f	0.12481033
219	0xbd3af8b3	-0.045647334
220	0x3d21b87a	0.03948257
221	0x3cf7a41d	0.030229622
222	0x3c5d0f60	0.013492435
223	0x3d840fb1	0.064483054
224	0x3d26257a	0.040563084
225	0x3af5de69	0.00187583
226	0x3c850a52	0.016240273
227	0xbcae0e2d	-0.021246994
228	0x3d8f003d	0.06982467
229	0x3c5d6b47	0.013514346
230	0x3d06901d	0.03285228
231	0xbd875a7e	-0.06609057
232	0xbcf34a06	-0.029698383
233	0xbd129165	-0.03578319
234	0x3bc7f7fa	0.006102559
235	0xbc65d38d	-0.014027488
236	0x3d347f05	0.044066448
237	0xb90e2581	-0.00013556147
238	0x3d7a6b23	0.06113733
239	0x3abef0fe	0.0014567671
240	0xbcf18671	-0.029483052
241	0x3daaf6bb	0.08347841
242	0xba27087b	-0.0006371808
243	0x3c5da56b	0.013528208
244	0xbc8ee10b	-0.017441293
245	0xbd8e91a0	-0.069613695
246	0xbd86e8aa	-0.06587346
247	0xbda5611e	-0.08075164
248	0x3dfc999f	0.123339884
249	0x3b179100	0.0023127198
250	0xbd22f3b0	-0.03978318
251	0xbcd7b32c	-0.026330553
252	0xbd8a02b3	-0.06738796
253	0xbc26faf2	-0.010191666
254	0x3cfa35a7	0.030543162
255	0xbcfe657b	-0.031054249

action_model._discrete_distribution.branches.2.bias f4 [2]
0	0x3cd247bd	0.025668973
1	0xbcd247c9	-0.025668995
