results/test_01/SimpleCollector/SimpleCollector-2499999.onnx (onnx, 335103 bytes, 11 tensors)

discrete_act_size_vector f4 [1, 3]
000000 00 00 40 40 00 00 40 40 00 00 00 40
       3.0 3.0 2.0

network_body._body_endoder.seq_layers.0.weight f4 [256, 52]
000000 07 5e 43 bb de ca 0d 3d 06 2b 9c 3d fb 48 61 bd
       -0.0029810683 0.034617297 0.076253936 -0.05500124
000010 eb c4 91 bd d6 99 8d 3e 7c 07 19 3d 85 44 4f 3d
       -0.07117637 0.2765643 0.037360653 0.050602455
000020 a2 35 6b bc 68 d1 8b 3d ed 20 09 be 7b 73 29 3e
       -0.014356049 0.068270504 -0.13391466 0.16547959
000030 4d b7 e6 bd c1 d2 b6 bc c1 26 1e 3d 00 fe 96 3d
       -0.112654306 -0.022317292 0.038611177 0.073726654
000040 71 46 e7 3d 5a 64 0e be 71 32 85 bd 52 1d 44 bd
       0.112927325 -0.13905469 -0.065037616 -0.047879525
000050 c3 52 4f be c5 98 4c be 28 84 09 be 74 df 3e 3e
       -0.20246415 -0.19980152 -0.1342932 0.18639928
000060 64 3e 64 3d b4 3d 4c 3e e6 cc 02 be a8 6e bb 3c
       0.055723563 0.19945413 -0.12773475 0.022879913
000070 53 58 4a bd bc f1 ba bc 91 33 b9 3d 49 d8 60 be
       -0.04940064 -0.022820346 0.09043039 -0.21957506
000080 25 b2 3b be 01 db 57 3e b8 b7 89 bd 75 82 ef bd
       -0.18329675 0.21079637 -0.06724495 -0.116948046
000090 3b 7e 45 be d5 49 1a be 0f 84 ab 3d e0 39 fc 3d
       -0.19286434 -0.15067227 0.083747976 0.12315726
0000a0 ae ce a2 3d 70 c4 cb 3d d4 e5 97 be 58 f0 83 3a
       0.07949577 0.09949577 -0.29667532 0.0010066135
0000b0 75 f4 b8 be 49 86 b7 be 96 ba 9c 3d be 44 04 bd
       -0.36124006 -0.3584464 0.07652776 -0.03229212
0000c0 e2 ea 14 3e 70 fb 91 3d 04 0a 11 3e 7c 55 21 3e
       0.14542726 0.07128036 0.14163977 0.15755266
0000d0 98 47 16 3e 10 96 ea bd 26 4b 97 be b5 b8 e2 3d
       0.14675748 -0.114544034 -0.2954952 0.11070386
0000e0 53 ca 37 bd 26 85 ea bd 9b a1 a3 3d b6 63 b4 3d
       -0.044870686 -0.11451177 0.07989808 0.08808081
0000f0 f5 a0 cd 3a 9a 56 28 be 34 8f 46 be f5 25 53 3e
       0.0015688228 -0.16439286 -0.19390565 0.20619948
000100 ef 1d c8 3e 58 f2 9f 3b 81 11 9f 3d 24 59 80 be
       0.39085338 0.0048811845 0.077670105 -0.2506801
000110 7d 95 8a bd 26 54 7e be 30 24 53 3d af 45 83 bb
       -0.06766794 -0.24836788 0.051548183 -0.0040061097
000120 6b a1 b8 bd 32 61 65 be c0 7a 34 3e ea 2c 29 bd
       -0.09015163 -0.22400358 0.1762495 -0.0413026
000130 0c 33 b4 3d f3 1e a3 3d e9 b6 9e bb 8f fb a7 bd
       0.08798799 0.079648875 -0.004843582 -0.08202278
000140 32 5d 61 be 22 bd e6 bd 2c 90 b4 be 31 be f3 bd
       -0.22008207 -0.11266543 -0.35266244 -0.119015105
000150 96 6f 50 3d 46 b8 51 be cc 45 da 3d 6a d9 61 3c
       0.050887667 -0.20480451 0.10657844 0.013784746
000160 06 96 0b 3e 34 7e bc 3e 0c 6f 54 be 49 55 33 be
       0.13631448 0.36815035 -0.20745486 -0.17513002
000170 d5 74 24 be 3f cc 49 be e5 d1 b9 3e c7 dc a9 3e
       -0.16060193 -0.1970682 0.3629295 0.33176252
000180 fa 55 9e 3d ca d4 81 3d f1 89 53 be 5c 4f aa bd
       0.077312425 0.063394144 -0.20658089 -0.08315918
000190 73 58 8b be 2e 6a 3f be e0 11 28 bd 84 41 de bd
       -0.2721592 -0.18692848 -0.041032672 -0.1085234
0001a0 4a dc e2 be 84 42 f2 3a c3 c1 e8 3d 0a 76 c9 3d
       -0.44308692 0.0018482958 0.11365082 0.09836967
0001b0 4d 9a b4 be b4 c1 b3 3c fa 87 98 3d ca f9 6e bd
       -0.35273972 0.02194295 0.074478105 -0.058343686
0001c0 18 08 11 bd 12 44 a4 bd 7b c2 6c 3e ec fb 16 3e
       -0.03540811 -0.08020796 0.23121063 0.14744538
0001d0 1f 15 3c be a8 5c 66 bd 15 80 04 3e 30 10 37 3c
       -0.18367432 -0.056240708 0.12939484 0.011173293
0001e0 b1 00 f0 be 09 a0 b0 be b2 1b 6a 3e 6f 2e 77 3e
       -0.46875528 -0.34497097 0.22862127 0.24138807
0001f0 58 57 23 3e 0c d7 9b 3e 64 b6 07 bd b7 5e 85 3c
       0.15951288 0.30437505 -0.033132926 0.016280515
000200 da 05 94 3d fb a3 b9 3c 1a 71 a4 3d 6b dc b3 3c
       0.072276786 0.0226612 0.08029385 0.02195569
000210 3c 38 30 3c 95 57 71 3e 44 be 79 bd 13 f5 c0 bd
       0.010755595 0.23568566 -0.060972467 -0.09421744
000220 6e 2f ca be b7 5c 9b 3e ae 28 8f bd 8d 91 f8 3d
       -0.3948931 0.30344173 -0.06990181 0.121371366
000230 a5 55 95 3e be 89 21 3e 27 44 06 be 98 bf 72 be
       0.29166904 0.157752 -0.13111936 -0.237059
000240 05 8a 24 bd b3 7d a1 bd cb 14 72 3d 70 50 a2 3d
       -0.04017069 -0.07885303 0.05910186 0.079254985
000250 20 21 ef 3c d3 b1 73 3d c4 a4 e7 3b d1 47 85 bb
       0.0291906 0.05949576 0.007069202 -0.004067399
000260 63 24 29 3e db f3 42 3e 60 a6 8b bd 4c a0 58 be
       0.16517787 0.19038336 -0.06818843 -0.21154898
000270 2d a9 9b 3e 96 a7 95 bd 1d e1 08 bd be 5b 86 be
       0.30402508 -0.07307355 -0.03341781 -0.2624187
000280 54 16 07 3f 5a 2e ce 3d c9 a1 08 bd c4 78 d1 3d
       0.52768445 0.100674346 -0.033357415 0.10228112
000290 08 b4 1e 3e fc 74 56 be 0a d8 68 bc 22 f4 bb bb
       0.15498364 -0.20943063 -0.014211664 -0.00573589
0002a0 1d 12 80 3e a6 aa d2 bd a9 39 92 be 77 9f 01 be
       0.2501382 -0.10286455 -0.28559616 -0.12658487
0002b0 39 ae 7a bd e7 84 76 be 2c 36 20 3e 1e af 71 bd
       -0.061201308 -0.24074136 0.15645665 -0.059004895
0002c0 80 26 d7 3e 52 8a 6f 3e b2 0b c4 bd e9 e0 fc bd
       0.4202156 0.23392609 -0.09572543 -0.12347586
0002d0 b5 dc da be 12 b2 0a bd 00 97 a7 bc 1a 5d 74 3e
       -0.4274651 -0.033861227 -0.020457745 0.2386364
0002e0 e2 8a 49 3e 3d 91 e5 bb 00 c3 92 3d f3 75 85 3e
       0.19681886 -0.007005839 0.071660995 0.2606655
0002f0 27 0c 74 bd f0 cc 87 be 86 45 a6 3d 9d 64 a3 3d
       -0.059581902 -0.26523542 0.08118729 0.07978175
000300 e0 90 3f 3e 57 32 d4 3d 99 80 ab 3d bd b9 4a bd
       0.18707609 0.10361164 0.083741374 -0.04949354
000310 56 41 a5 be 67 c1 c3 be ba 8c 8b 3d 3a 25 ba bb
       -0.3227641 -0.38233492 0.06813951 -0.0056807073
000320 be 86 6b 3e 27 f1 96 3d 48 dc 4d be 25 9f f4 bc
       0.23000619 0.07370215 -0.20103562 -0.029861042
000330 d2 8b 2d bd 3f 7a e9 be 11 44 8a 3e f3 be 97 bd
       -0.04236967 -0.4560108 0.27005056 -0.074094675
000340 ad 98 10 be ff cb a0 bc 73 45 2f be 19 71 64 3e
       -0.14120741 -0.019628523 -0.17116337 0.22308768
000350 1a c7 52 3d 17 15 c8 3d 9e 69 20 bb e8 38 45 bd
       0.05145941 0.097696476 -0.0024477015 -0.048149973
000360 a4 ed ac be e2 f2 34 3d 0e aa a8 3e da 41 b7 bc
       -0.33775055 0.044176944 0.3294224 -0.022370268
000370 25 eb 6e 3e 79 e0 59 3d ee 4d 07 bf d0 ce 08 be
       0.23331888 0.05319259 -0.52853286 -0.13360143
000380 d2 0c b3 bd 03 9f 83 3e cb 79 77 bd 54 36 5a be
       -0.0874268 0.25707254 -0.060418885 -0.21309787
000390 6d 7b 92 3e fc af 57 bd f5 1c d0 bd 54 02 32 bd
       0.2860979 -0.052658066 -0.10161773 -0.04345925
0003a0 e9 db 8a 3e c3 db 9e bc bd 2c 60 be 89 01 6a 3e
       0.27120903 -0.0193919 -0.21892066 0.22852148
0003b0 e7 48 73 3d 81 ef 68 bd 03 af d0 3d 56 6c 3d 3e
       0.059395697 -0.056869034 0.10189631 0.18498358
0003c0 7b 11 02 3e 50 63 93 bd 94 e7 0b 3e 35 38 1e 3d
       0.12701981 -0.07196677 0.13662559 0.038627822
0003d0 14 47 91 bd ef 14 f4 bd d5 25 15 3e f3 80 28 3e
       -0.07093635 -0.11918055 0.14565213 0.1645544
0003e0 46 40 e1 bc 09 12 ac bd 41 d7 74 ba 22 e9 98 bd
       -0.027496468 -0.084018774 -0.00093399367 -0.074663416
0003f0 09 9e 81 3d 77 f5 0a be 5e 03 24 3e 85 72 02 3e
       0.06328971 -0.135702 0.1601691 0.12738998

network_body._body_endoder.seq_layers.0.bias f4 [256]
000000 43 51 ba bc 9f 40 ea 3a 92 97 6e 3b d5 0c f2 3c
       -0.022743827 0.0017872042 0.003640626 0.029547134
000010 67 92 8f 3b bc 14 2f 3c 99 0d 18 3c 3e 91 27 bb
       0.004381466 0.010686096 0.009280586 -0.0025568749
000020 2d 4d 15 3c 69 9e cd 3c 1a d2 55 3d bb d9 34 bd
       0.009112638 0.02509995 0.05220232 -0.044152956
000030 3e 6e bf 3b 6e 36 5b bd 3f 77 06 bc d6 b3 35 3c
       0.0058419993 -0.053518705 -0.008207141 0.0110902395
000040 cd 8e aa 3c ae fd 91 bc 79 24 7a bc 7e d1 9d bc
       0.020820046 -0.01782116 -0.015267485 -0.019264933
000050 ca 6d f4 bc 1a 5f 27 3c 62 68 87 bc 93 b0 9f ba
       -0.029837508 0.010215545 -0.016529266 -0.001218336
000060 e9 b5 1d bd 63 b8 bb 3a 22 49 47 3d bc 29 89 bc
       -0.03850356 0.0014321919 0.04865373 -0.016743533
000070 ab 4d 89 3a f0 68 e3 3c 7a 31 95 3c dd d4 46 bb
       0.0010475417 0.027759999 0.018212069 -0.0030339279
000080 80 8b 07 3a 02 96 76 bc d0 40 90 bd 31 92 54 3c
       0.00051706284 -0.015050413 -0.07043612 0.012974308
000090 dd a9 b9 3a 52 1b c7 bc 23 2f a9 3c 96 21 60 3c
       0.0014165003 -0.02430502 0.02065236 0.0136798825
0000a0 d5 0e aa 3b d7 e4 1b ba b5 f6 a3 3c 6b 15 50 bd
       0.0051897564 -0.00059468806 0.0200151 -0.050801676
0000b0 e6 a8 0d bb c6 7f ec bc ee 19 d6 bb 2f c4 b4 bc
       -0.0021615564 -0.02886952 -0.006533853 -0.022066204
0000c0 e9 41 38 ba 70 8a 94 bc 5e 5c 09 bd 26 4b ea bb
       -0.00070288643 -0.018132418 -0.033535354 -0.0071500717
0000d0 31 9b 1f bd f1 a0 04 bc 13 0f 0b bd 79 1d a8 3c
       -0.03896636 -0.008095012 -0.033949923 0.020521866
0000e0 e7 fc 97 bc 33 36 50 3c a3 10 4b 3c b4 a9 05 bd
       -0.01855321 0.012708235 0.012394103 -0.032632545
0000f0 6c 86 e5 bc d5 f7 5a bc 57 c6 b3 3c fd 38 8f bd
       -0.028018199 -0.013364752 0.021945162 -0.069932915
000100 bc 12 51 bc 96 d5 a3 3b 2c 24 23 bd bd d6 93 bc
       -0.012760814 0.0049998267 -0.039829418 -0.018046731
000110 d1 76 8e 3c b2 c0 c0 bc 70 6c d2 3b 9b c3 8e 3c
       0.01739064 -0.023529384 0.006421618 0.017427256
000120 3c 07 8c bc 7d fb 4e bd 52 e5 85 bc 72 a2 0f bc
       -0.017093293 -0.050532807 -0.0163447 -0.008766757
000130 ee 81 08 bc 7a 41 97 3c 82 9d e2 3b d1 3e 01 bc
       -0.008331759 0.018463839 0.006915749 -0.007888512
000140 b9 c4 b2 3c 89 c3 fb ba f6 0f 85 3c a7 48 2b 3c
       0.02182232 -0.0019208054 0.016242962 0.010454333
000150 04 76 15 bd 3f c8 8d bb 9d 90 4c 3c 24 83 29 bd
       -0.0364895 -0.0043268497 0.01248565 -0.04138483
000160 52 ef 98 3c 7e e3 04 3d c7 2e 21 bd 06 24 e7 3b
       0.018668804 0.032443516 -0.03935125 0.007053855
000170 91 11 64 3c f9 dd 12 bd fa d6 66 3c 5c 54 6e bc
       0.013920204 -0.03585622 0.01408934 -0.01454648
000180 00 fe 8b 3b 27 dc bc bb 17 37 69 bd ac ec c0 bc
       0.0042722225 -0.005763549 -0.056937303 -0.023550354
000190 ea db 86 3c 9e ae db bc 72 c7 cd bc 6b 8f 89 3c
       0.016462285 -0.026816662 -0.025119517 0.01679202
0001a0 5f 03 3c 3c 2a 0d 93 bd 4d 92 c8 3b 8e 6e 00 bd
       0.011475413 -0.07180245 0.006120956 -0.031355433
0001b0 30 69 da 3c 65 a7 66 3c b9 ef 84 bd fe c8 07 3c
       0.026661485 0.014077996 -0.06491036 0.008287666
0001c0 af 9a cf bc b6 5d b5 ba 62 dc 05 bc b2 e6 1c 3c
       -0.025342314 -0.0013837132 -0.008170219 0.009576486
0001d0 06 0c e0 3c 66 12 18 bd 76 78 bd bd 8b c3 56 bc
       0.027349483 -0.03712692 -0.09251492 -0.0131081445
0001e0 e0 e7 40 bb 0a 4d f6 bb f7 03 4e bd 16 60 a9 3b
       -0.0029435083 -0.007516508 -0.05029675 0.005168925
0001f0 2a 2f 70 3c bf 6a 4d bc e4 36 19 ba ee ea 0f 3c
       0.014659682 -0.012537657 -0.0005844666 0.008784039
000200 81 67 b0 3b 0f fb e0 bc 66 9a 89 bd 3e f7 12 3c
       0.0053834324 -0.027463464 -0.06718902 0.00897008
000210 a4 88 38 bd 69 5a 32 3c b1 5e 0b 3d 14 c6 d3 3c
       -0.045052186 0.010885813 0.03402585 0.025851287
000220 08 57 b0 3b 63 c6 01 bd 9d e3 05 3c 96 b9 7b 3c
       0.0053814687 -0.031683337 0.008171943 0.015364071
000230 80 95 e7 bc f7 68 f2 bb 26 1e c7 bc d4 1e b4 ba
       -0.02826953 -0.0073977667 -0.024306368 -0.0013742098
000240 8e 01 ce 3c b1 fc 9e 3c c0 c6 e2 3c df c3 3d bc
       0.025147226 0.019407602 0.027682662 -0.011582344
000250 1d 7b c0 bb 83 f4 d6 bc fb 48 3a bd 0a dd df b9
       -0.0058740512 -0.02623964 -0.045479756 -0.0004269856
000260 77 d8 da bc 75 b4 57 bc 1a f5 64 bd 46 b5 d5 bc
       -0.026714547 -0.013165583 -0.05589781 -0.026087414
000270 6e a1 53 bc 23 e6 5a 3b e1 91 81 3c 22 e9 9f 3c
       -0.012916906 0.0033401332 0.01581663 0.019520346
000280 e0 f2 23 3d 1e 2d 35 bd 7c b4 97 ba 21 b7 6f bc
       0.040026546 -0.04423248 -0.0011574174 -0.014631064
000290 c0 d7 d7 ba 43 94 11 bd ac 56 3a 3d fe 81 15 bc
       -0.0016467497 -0.035541784 0.045492813 -0.009125231
0002a0 dd 57 82 bc e7 9c 2d 3c 5b e4 5e bc fa 9c 0c bd
       -0.015911037 0.01059649 -0.013604249 -0.034329392
0002b0 7b 10 9a bc e2 55 78 bd f7 5a 7b 3a d6 e5 46 bc
       -0.018806687 -0.06062878 0.0009588445 -0.012139758
0002c0 02 8a 35 bd e5 cb c2 3c 51 3d 9f 3c 80 db 1c bc
       -0.044321068 0.023778865 0.019438418 -0.009573817
0002d0 c2 09 48 bd c9 5b e5 3b d3 26 1b 3c 9b 65 2d bc
       -0.04883743 0.006999467 0.009469706 -0.010583307
0002e0 38 b8 00 bc 49 8d 5c bc d7 4d f0 bc 1d bc 5b 3c
       -0.007856421 -0.013461419 -0.029333992 0.013411549
0002f0 ae ff 68 bc 1f e6 40 bc 19 2d 86 bc 71 4a e0 bc
       -0.014221115 -0.011773615 -0.016378926 -0.027379246
000300 6d c7 15 3d 3d 77 c6 bc a2 4f b3 3a 26 be 44 3b
       0.03656714 -0.02422678 0.0013680349 0.0030020564
000310 3e 3b c1 bc 47 bc ad 3a 81 4f 9b bc 5d 51 23 3d
       -0.02358782 0.0013254964 -0.018958809 0.039872516
000320 a4 8d 3d bc 13 63 90 3c 51 2e a6 ba 92 96 c0 bc
       -0.011569414 0.017625367 -0.0012678598 -0.023509298
000330 71 a6 23 3c 62 ef b6 bc e5 db 38 3b 30 89 bf 3c
       0.009988413 -0.022330943 0.002820724 0.023380846
000340 e7 e3 15 3a ca 01 18 3d fa a5 2c 3d 51 f9 c0 bc
       0.0005717859 0.03711108 0.042150475 -0.023556383
000350 e2 dd 99 bc 40 71 0a bd 9c 36 85 bc 3f 3f 72 bc
       -0.01878256 -0.03379941 -0.016261391 -0.014785587
000360 05 46 f8 3c a8 eb c0 3a fc d9 9a bc 03 8d 12 3d
       0.030306825 0.0014718669 -0.018902771 0.03577901
000370 27 4c 0c 3c cd 5b 32 bd ab a6 c0 3c 05 dd 4a bc
       0.008563078 -0.04354458 0.023516973 -0.012381797
000380 d0 32 b5 3c 7a e6 e3 bc 77 3b 79 3c 2f e2 83 bc
       0.022118956 -0.02781986 0.015211931 -0.016099064
000390 65 97 0d bc 34 11 75 3c 8f 15 06 3c a1 7c 18 bc
       -0.008642052 0.014957715 0.008183851 -0.009307058
0003a0 e8 be 01 3b 17 38 d1 3b fd 55 4a bb c6 f0 13 bc
       0.0019797627 0.0063848603 -0.0030874007 -0.009029573
0003b0 30 06 60 bc 52 32 3c 3c 18 a5 1e bc 85 e5 06 3d
       -0.01367335 0.011486607 -0.009682916 0.03293373
0003c0 c3 eb 59 3c fe 3b 8f bc 75 71 1c bc 33 48 01 bc
       0.013300839 -0.017484661 -0.009548535 -0.007890749
0003d0 1a 77 76 3c 84 38 02 3c e2 84 1c bb 26 90 3a bd
       0.015043044 0.007948045 -0.0023882915 -0.045547627
0003e0 40 95 e1 bc bf a5 16 bd 1c 97 09 3d fc 62 ee bb
       -0.027536988 -0.03677916 0.033591375 -0.0072749835
0003f0 e4 f2 da bb e5 7e 2d bb 42 82 2d bd 3e 71 48 bd
       -0.006681787 -0.002647334 -0.04236055 -0.04893612

network_body._body_endoder.seq_layers.2.weight f4 [256, 256]
000000 40 cd 2c 3d bb 8d 5d 3d 57 8b 6d bd 72 c6 4b 3d
       0.04218793 0.054090243 -0.057994213 0.0497498
000010 14 4a 0e 3d e6 7a a6 bd 27 7e 57 3a 1a 82 2f 3e
       0.034738615 -0.0812891 0.0008220397 0.17139474
000020 19 90 2f 3d d5 07 e5 bd 15 ee 09 3c b2 12 9a bc
       0.04286203 -0.111831345 0.00841858 -0.018807743
000030 3f 86 14 3e b1 b9 3f bd b2 c5 9f 38 44 24 f4 bd
       0.14504336 -0.04680795 7.6185344e-05 -0.119209796
000040 b0 cf f6 bc 73 4d 62 be d0 90 c9 bc c7 42 c3 bd
       -0.03012833 -0.22099857 -0.024605185 -0.09534221
000050 65 ba ed bc b8 13 a1 3d 29 dc 13 bd 94 b8 60 3d
       -0.029019544 0.07865089 -0.036098633 0.054863527
000060 7e 2a 0c be 4c 30 15 be 16 6d 70 bd cf 86 fe bc
       -0.13688084 -0.14569205 -0.058697782 -0.031070141
000070 28 45 b5 bd 52 b7 ea 3c 37 7a 96 3d 1e 2e 41 be
       -0.08851081 0.028651867 0.073475294 -0.18865249
000080 08 e3 1a 3e 67 b7 08 3c 68 66 50 bd d4 0e 3e bd
       0.15125668 0.008344508 -0.050878912 -0.04640086
000090 35 b7 6f 3e 36 ff 1b 3d b5 67 95 3d 2a 6f 53 3e
       0.23409732 0.038085185 0.07295171 0.20647874
0000a0 a7 97 08 be 40 63 22 3d d3 4d a7 bc cb 8d 88 bc
       -0.13339101 0.039645433 -0.020422852 -0.016669175
0000b0 01 37 5b bb d0 f5 6e 3d b5 02 d3 bd e8 cd 19 3d
       -0.0033449533 0.058339894 -0.10303251 0.037549883
0000c0 3e eb e3 3d 8e f1 ec bd 36 ba 76 3d 5b 31 73 be
       0.11128853 -0.115695104 0.06023618 -0.23749296
0000d0 03 92 38 be 96 dd d7 3d 50 58 84 bd 42 41 b3 bc
       -0.18024449 0.10540311 -0.06462157 -0.021881703
0000e0 41 ff eb bd 06 27 4b 3d 72 59 c9 3d 1e b4 9d bb
       -0.11523295 0.049597763 0.098315135 -0.0048127314
0000f0 2e 91 9c bd 94 67 68 bd 0c e9 86 3d 2b de 13 3c
       -0.07644878 -0.056739405 0.06587419 0.009025137
000100 6c 73 db 3d ac 8f 80 bd 91 2f 40 bc 64 bc 77 3d
       0.10715374 -0.06277403 -0.011730091 0.060482398
000110 b9 3b bc bd d9 e3 09 be e8 66 96 bd 14 89 2f bd
       -0.09191079 -0.13465823 -0.073438466 -0.042855337
000120 47 78 46 3d 53 8a 38 be a9 3b d1 3d 9e 43 92 bc
       0.04845455 -0.18021517 0.102164574 -0.017854508
000130 e9 87 bd bd 92 45 fd 3d 2b aa 9f 3d f0 ae 38 be
       -0.092544384 0.12366785 0.07796129 -0.18035483
000140 d7 4b 44 bd 00 63 23 3e 56 bc 0f be 7d 37 b3 bd
       -0.04792389 0.15955734 -0.14036688 -0.08750818
000150 4e 21 14 3e 2f 55 90 3c 7f 84 8e 3a 66 ae 9f bd
       0.1446583 0.017618744 0.0010873227 -0.07796936
000160 a8 66 64 bd cb 8e 78 bb 62 2c cc 3d 7c ee 5d 3c
       -0.055761963 -0.0037926908 0.09969403 0.013545629
000170 b6 e8 95 3c cb e1 8f bd ef 27 26 bd cc 32 df bd
       0.018299442 -0.070254885 -0.040565427 -0.108983606
000180 aa ca 75 3d b9 b6 67 3d 74 05 08 3d dd 73 71 bc
       0.06000773 0.056570742 0.033208326 -0.014737097
000190 22 45 22 be 37 12 c3 3d ac 63 e8 bd e1 cd d7 bd
       -0.15846685 0.095249586 -0.11347136 -0.10537315
0001a0 ec 1d 16 bd c5 4d 09 3d d7 e2 8b bd d3 77 ef 3d
       -0.03664963 0.033521432 -0.06830376 0.116927765
0001b0 ac 1b ef 3d e7 f7 e5 3d 5e e5 15 be a3 be 72 3d
       0.116752 0.11228924 -0.14638278 0.059263837
0001c0 48 fc 79 bc bb 3f 86 be 7b dd 9c bd cf 9e 4e bd
       -0.015257902 -0.26220497 -0.076594315 -0.05044442
0001d0 0a 52 aa bd 7a 8d 9f bd 9d d3 c9 bc 98 61 01 be
       -0.08316429 -0.077906564 -0.024637038 -0.12634885
0001e0 84 fc db bc d5 ed 16 3d 35 03 2c be 90 5b 07 3e
       -0.026853807 0.036847908 -0.16798098 0.13218522
0001f0 1f 56 88 bd 3f a1 90 bd c2 e5 8c 3b f8 24 72 3c
       -0.06657051 -0.07062005 0.00429985 0.014779322
000200 60 98 9a 3d a7 24 51 3c 93 84 0e 3d d8 d7 b3 bd
       0.075485945 0.012765086 0.0347944 -0.08781403
000210 98 1c 02 be d6 54 ae bd 83 88 4b 3e 42 d9 a1 bc
       -0.1270622 -0.08512275 0.19876294 -0.019756917
000220 23 d3 ba 3d a6 80 82 3c 54 f0 ed 3d f6 19 cf bd
       0.091223024 0.015930485 0.116181046 -0.101123735
000230 2d d9 6b bd 18 f7 5b be bd c2 13 be 85 22 70 3d
       -0.05758016 -0.21480978 -0.14429756 0.05862667
000240 2c 89 c5 bd 39 a4 3f be 40 58 c6 3d b5 78 cd bd
       -0.09645304 -0.1871499 0.09684801 -0.10032789
000250 e0 5b ae bc 91 26 81 bd 84 1d e3 3c 5f 8b 2e 3e
       -0.021284044 -0.06306184 0.027724035 0.17045353
000260 97 4f 5d 3b 13 59 38 be 3e 57 4e be 1a 4d a9 3b
       0.0033769363 -0.18002729 -0.20150468 0.005166662
000270 0b c8 0c 3d d7 db 61 bd 36 93 41 3e 19 68 a2 bc
       0.034370463 -0.055141296 0.18903813 -0.019825028
000280 0c 25 a4 3c 4b ba 42 3e af 23 90 bd 92 7f 9f bd
       0.020037197 0.19016378 -0.07038056 -0.07788004
000290 42 b3 48 3d c4 69 11 3d f3 26 c1 bd 5e 5f 82 3a
       0.04899908 0.035501257 -0.09431257 0.0009946635
0002a0 e6 40 76 be a4 c4 8d 3d 0c a1 0f bc 22 50 12 3d
       -0.24048194 0.06922272 -0.008766424 0.03572095
0002b0 24 9f 10 3d e4 de 76 3d 7f 6a 9d bd 09 39 1e 3e
       0.03530802 0.06027116 -0.07686328 0.15451445
0002c0 46 79 a5 3d b9 2d 2f 3c 40 11 69 be a7 8b 6e 3e
       0.08079772 0.0106920535 -0.22760487 0.2329546
0002d0 bb 1e f1 bc 73 f8 4e bd 4b 6e dd 3b e6 e1 22 bd
       -0.029433599 -0.05052991 0.0067575327 -0.039766215
0002e0 30 a4 8e bc 36 b5 39 be 3d 7e fd bd 11 57 02 3e
       -0.017412275 -0.18135533 -0.12377594 0.12728526
0002f0 04 05 2b bc 32 6b 92 3d d3 de 21 3e 91 2b 0b 3d
       -0.010438208 0.07149352 0.15807657 0.033977095
000300 9d 19 ea bd 34 ae 1a 3c 71 84 e7 3d fd a0 89 3d
       -0.114306666 0.009440947 0.11304558 0.06720159
000310 c5 bf ca bd 89 0a 98 bd 0d 41 ac 3e 64 cf 38 3e
       -0.098998584 -0.074238844 0.3364338 0.18047863
000320 22 73 06 be ab b6 64 bc 99 81 2d be 59 87 32 3e
       -0.13129857 -0.013959567 -0.16943969 0.17434444
000330 86 b0 71 3e 06 1f c2 bd 31 43 f1 bc b4 f3 c7 bd
       0.23602495 -0.094785735 -0.029450985 -0.097632796
000340 4e ac df 3d d7 b7 8d 3d 1f 3f 19 3e a8 c4 95 3d
       0.109215364 0.0691983 0.14965485 0.073129
000350 84 80 8f 3d ac eb 09 be e4 92 4d 3d 7e 20 85 3d
       0.07006934 -0.13468808 0.050188914 0.06500338
000360 24 82 4a bd ee 52 06 3d 6d b7 31 3e 52 07 cd 3d
       -0.049440518 0.03279393 0.17355128 0.10011162
000370 23 99 0d be ce 14 d3 3c d2 ee a5 bd 44 f3 0f bc
       -0.13827948 0.025766756 -0.08102192 -0.008786026
000380 d8 d4 43 bd 71 51 5d bc cf 0d 48 be e9 74 c1 3d
       -0.047810405 -0.013508187 -0.19536518 0.09446127
000390 0f 85 93 bd 08 7e 57 3e a9 c4 2b be f9 3e 99 bd
       -0.07203113 0.21044171 -0.16774239 -0.07482714
0003a0 5a 13 84 bd d2 aa 1c be e8 51 0e bc 31 a3 c7 3c
       -0.064490035 -0.15299538 -0.00868652 0.024369808
0003b0 e9 d1 e3 3d f1 e3 4f 3c f5 a1 04 bc 55 1c 04 bd
       0.111240216 0.012688623 -0.008095254 -0.032253582
0003c0 8e 53 92 be 81 b2 a8 bd 63 3c 86 3c 13 c9 13 be
       -0.28579372 -0.08237172 0.016386217 -0.14432172
0003d0 58 d3 e8 bd 2a 3d 1a bd 07 ec 4b 3e a9 3b 84 bd
       -0.113684356 -0.037655987 0.19914256 -0.06456692
0003e0 cc 1b 98 3c c1 ad 76 3c fb 9b ad bd d6 98 c2 bd
       0.018567942 0.015056075 -0.084770165 -0.095018074
0003f0 7e 87 a8 3d e6 b8 8c 3b 44 a8 e0 bd ae e3 16 bc
       0.08228968 0.0042945025 -0.10969594 -0.0092095565

network_body._body_endoder.seq_layers.2.bias f4 [256]
000000 bb cd e0 bc 1e 12 01 3c c6 d3 00 3d 00 11 da bc
       -0.02744185 0.007877855 0.031451963 -0.026619434
000010 09 ad 81 bd 89 7f 20 be be 35 f7 bd 3e 7f 2b bb
       -0.06331832 -0.15673651 -0.120707974 -0.0026168372
000020 40 65 d5 bd 1a 98 8c bc c3 a2 72 bd 0d 35 b5 bd
       -0.104197025 -0.017162371 -0.059237253 -0.08848009
000030 8e 16 24 bd 0a 76 91 3c e0 22 87 bd 42 58 a5 3c
       -0.040060572 0.01775648 -0.06598449 0.020183686
000040 0f d5 b9 bd 95 92 cd bb 28 80 57 bd c9 fb 87 bc
       -0.09073841 -0.0062735775 -0.052612454 -0.016599553
000050 d0 3c 9e 3a fa 47 ce 3c 13 11 f8 bc 62 0a 31 bd
       0.0012072567 0.025180805 -0.03028158 -0.043222792
000060 f2 e2 ef 3a 21 a6 a1 3c 83 18 d3 bc e9 66 89 bc
       0.0018301888 0.019732537 -0.025768524 -0.016772704
000070 62 73 ba bc 77 cf 0a be 08 44 21 be 8d 9e 9b 3b
       -0.022760097 -0.13555704 -0.15748608 0.0047491253
000080 a1 6c a5 3c 97 77 80 3d e5 f4 3b bd 6b 96 92 bb
       0.0201934 0.0627281 -0.045887846 -0.0044734976
000090 cf ff 31 3b 85 6e 10 3d 65 3a c3 bb 6b 3d 05 be
       0.002716053 0.03526165 -0.005957889 -0.1301171
0000a0 14 58 14 3b a4 c0 3c 3d c7 4f 9b 3c e6 73 5d bb
       0.0022635506 0.046082154 0.01895894 -0.0033791005
0000b0 43 2a 9a bd d2 3e 72 3a 93 ef e6 bc df 8b 03 bc
       -0.07527592 0.00092409283 -0.02819041 -0.008028953
0000c0 24 6e a5 3c 19 3a 1b 3d 95 15 1c 3d 86 55 2e bc
       0.02019412 0.037897203 0.03810652 -0.010640508
0000d0 0d 61 de 3c 95 a8 d1 bd 71 dc 26 bd d1 4d 42 bc
       0.027145887 -0.102372326 -0.040737573 -0.011859373
0000e0 23 b4 c5 bc ec 99 bf 3c 9e bd 93 3c d4 65 5d bd
       -0.024133747 0.023388825 0.018034752 -0.05405219
0000f0 e9 78 ba bc 9f 10 f2 bc c9 d6 48 bd 3e 3c a1 3c
       -0.022762733 -0.029548941 -0.04903296 0.019682046
000100 10 34 7b bd 93 04 04 bb f0 c9 f0 bc 58 f3 06 bd
       -0.061328948 -0.0020144328 -0.029393166 -0.032946914
000110 50 59 05 be 14 6c 0a 3d 66 09 b5 bd 17 34 c0 bc
       -0.13022351 0.033794478 -0.08839683 -0.023462338
000120 e3 6a 0b bd 24 4a bc bd b7 c7 07 3d 46 20 9b bd
       -0.034037482 -0.09193829 0.033149447 -0.07574515
000130 a3 e0 7d bd 8d 2b af 3c 35 ba c0 bc cd a2 a9 bd
       -0.06198181 0.021383071 -0.02352629 -0.08283005
000140 19 6f 14 bd 3b 46 16 3d b4 83 27 bc 3b 28 b5 3c
       -0.036238763 0.03668807 -0.010224272 0.02211391
000150 47 cc ab bd e1 c0 9b 3c f3 e2 17 bc d9 12 90 bd
       -0.08388572 0.01901287 -0.0092704175 -0.07034845
000160 4f 54 00 bd f1 cd c6 bd d6 8a 30 3c cf 67 dc 3c
       -0.031330403 -0.09707249 0.010775289 0.026904969
000170 40 53 81 3a ba ec a7 3b 6d c9 58 bd ad 02 bb bc
       0.0009866729 0.0051246556 -0.05292647 -0.022828424
000180 28 ff 2e bc a5 60 af bd cc 6d ab bb e2 f0 df bc
       -0.010680951 -0.08563355 -0.0052315947 -0.027336542
000190 ea e7 01 3c 20 30 b3 39 84 32 c0 3c fd 2a bc bc
       0.007928828 0.00034177396 0.023461588 -0.022969717
0001a0 fe 54 af bc 86 e1 cf bb 4f a3 10 bd cb e9 d6 bd
       -0.021402832 -0.006344023 -0.035311993 -0.10493811
0001b0 83 df b4 3b 7a 10 76 bc 35 be b9 bd ed 04 92 3c
       0.0055198087 -0.015018577 -0.09069482 0.017824614
0001c0 36 50 29 be cd 47 60 bd b2 bb 95 bd 33 ba 05 bd
       -0.16534504 -0.054755975 -0.07311191 -0.032648277
0001d0 d1 bc 85 3d d3 ba 1a be 81 ed b1 3b a1 0f 29 bd
       0.065301545 -0.1511033 0.005429924 -0.04127467
0001e0 a8 14 2b bc 8b 76 a2 bd 34 22 34 bd 42 c7 63 bc
       -0.010441937 -0.079327665 -0.04397793 -0.013902487
0001f0 26 81 03 be 5c 1a f7 3c 69 34 1e 3d 7a ef f8 3c
       -0.12842235 0.030163936 0.0386242 0.030387629
000200 1f 57 38 bb af a5 cf bc 06 1e 6a bc 32 f5 14 be
       -0.00281281 -0.025347559 -0.014289385 -0.1454666
000210 39 ae bb bd 3b d8 a9 bd 14 3a 2b bc bf eb 37 bd
       -0.0916409 -0.08293196 -0.010450859 -0.04490256
000220 93 26 3b bd 4f 73 dd 3c 82 88 76 bc ca 53 a4 bd
       -0.045691084 0.027032522 -0.015047194 -0.08023794
000230 93 ed 82 bc ed bb 11 bd 14 88 ac bb 44 44 16 be
       -0.015982425 -0.03557961 -0.005265245 -0.14674479
000240 f2 b9 98 bd 48 86 02 be e7 ea 68 3c bc 19 4c 3d
       -0.07457341 -0.12746537 0.014216161 0.04982923
000250 d7 19 e7 bd fd ad cf ba 79 55 0c 3d eb c9 b4 3c
       -0.112842254 -0.0015844699 0.0342612 0.022068938
000260 4f 3f 10 bd a7 8a 97 3c 48 0d b3 bc 97 a5 ea bd
       -0.035216626 0.018498732 -0.021856919 -0.11457365
000270 16 bf 27 3b c4 85 cf bd 38 e6 0b 3c 7c e3 a6 bd
       0.0025596074 -0.10132936 0.008538775 -0.08148858
000280 93 8b 76 ba f4 e8 30 bd 49 9c d1 bc 0a 3a 93 b9
       -0.00094049535 -0.04319091 -0.025587218 -0.00028081267
000290 06 4a d0 3c 2e 1d 13 bd 7a 88 d9 bc 9c 57 bb 3a
       0.025425922 -0.0359165 -0.026554335 0.0014293077
0002a0 52 1e 1c bc 8b 12 03 be 4c 5d 29 bc cd 2b 9d bd
       -0.009528713 -0.12800042 -0.010337185 -0.0767437
0002b0 a8 dd de 3c 87 44 8a bd 26 d7 06 bd 9d 89 37 bc
       0.027205303 -0.06751352 -0.032920025 -0.011202243
0002c0 38 61 0e be 46 66 8b bd 65 9a 07 3d 72 5b db 3c
       -0.13904274 -0.068066165 0.033106226 0.026777003
0002d0 21 fb 13 bd a3 53 4e 3b 3f d7 74 3d e6 28 ed 3c
       -0.036128167 0.0031482957 0.059775587 0.028950166
0002e0 27 27 9b bc ad a5 ea bb ce af 8a bd 59 7d 7d 3c
       -0.018939568 -0.0071608634 -0.06771813 0.01547178
0002f0 c2 3a f4 3c 70 d9 02 bd 6d 95 d5 bc 1c 79 6a bd
       0.029813174 -0.031945646 -0.026072228 -0.057244405
000300 f0 14 5a bd d8 d8 be bd b0 aa 00 bd c0 2a 07 3c
       -0.053242624 -0.093187034 -0.03141278 0.0082499385
000310 9e 86 06 be fc 05 1a bd f1 d5 83 3b 7b 2e 80 3b
       -0.1313729 -0.037603363 0.0040233065 0.003911791
000320 8a 2a 1c bc b2 94 a8 bc 51 19 21 bd 80 b6 93 bd
       -0.0095316265 -0.020578716 -0.039330784 -0.072125435
000330 e4 4a b2 bc fa 31 90 bb f4 75 3b bc d8 74 ee b9
       -0.021764226 -0.004400489 -0.011441696 -0.00045481953
000340 f9 e3 de 3c d0 25 84 3c f4 c4 cd bd 11 ab 29 bd
       0.027208315 0.016131312 -0.100473315 -0.041422907
000350 da 64 c2 bc 15 7a 6f 3b bf e5 c5 bd 9e 14 a6 bc
       -0.02372973 0.0036541272 -0.09662961 -0.020273503
000360 2d ae ad bd 9f 58 a4 bd 73 ae a0 bb 19 23 c7 bd
       -0.08480487 -0.08024716 -0.0049036085 -0.09723491
000370 14 e7 18 3c f4 a3 1d 3d c1 d2 16 be 39 6d 35 bd
       0.009332437 0.038486436 -0.14728834 -0.044293616
000380 75 23 3c 3d d0 5f 5c bd 83 72 fc bc 7c 6b c2 bd
       0.045932252 -0.05380231 -0.030816322 -0.09493157
000390 7c 6e 26 bc 76 fd af bd 45 e9 25 3c 79 04 ce bd
       -0.010158177 -0.08593266 0.010126417 -0.10059447
0003a0 ec 42 08 be 68 f7 33 3d 49 51 91 bd a8 b2 c3 ba
       -0.13306779 0.043937117 -0.07095582 -0.0014930563
0003b0 16 36 58 3b 9e 25 09 be 37 b3 44 bd 1f 30 c3 bd
       0.0032991222 -0.13393256 -0.048022475 -0.09530663
0003c0 67 cf 8b 3c d0 af 84 bd 71 f8 bf bd ac ee 06 bd
       0.01706667 -0.06478846 -0.09373558 -0.03294246
0003d0 c7 0d 21 bd c3 4a 4f bd 67 fb 07 bd 9c fb 7b bc
       -0.03931978 -0.050608408 -0.03319874 -0.015379813
0003e0 c9 97 86 bd 94 c9 39 bc b2 3f fc bc b1 b4 da bc
       -0.065719195 -0.011339564 -0.030792091 -0.026697489
0003f0 fd 58 9d bd 4e 20 80 3b a5 c1 07 be e6 30 f1 bc
       -0.07682989 0.003910101 -0.13257463 -0.029442262

action_model._discrete_distribution.branches.0.weight f4 [3, 256]
000000 d5 cb 9f bd 38 05 d6 bc 8f 48 4b bd 48 a5 94 bd
       -0.0780255 -0.026125535 -0.049629744 -0.072580874
000010 a6 47 ae 3c 2a 38 4d 3c 6b 59 83 bd ae 37 af 3c
       0.021274399 0.012525598 -0.064135395 0.021388855
000020 ed 63 10 bc 97 ce 91 bd fa 88 4d bd 8e 1c 81 bd
       -0.008812887 -0.07119482 -0.05017946 -0.063042745
000030 8a 7c 89 bd 3b 73 fb 3a 9f 74 05 3c 30 6f 83 3c
       -0.06713207 0.0019184122 0.00814548 0.01604423
000040 19 c6 72 bd 44 54 da 3b e0 e5 90 3d 11 6e 1d bd
       -0.059270952 0.0066628773 0.07075095 -0.038435046
000050 78 c3 19 bb d5 7b bc bc f2 19 37 bd a9 97 a0 bc
       -0.0023462456 -0.023008266 -0.044702478 -0.019603567
000060 20 9d 12 3d b8 59 24 3d 4a b1 2d 3d d9 6f 21 3d
       0.035794377 0.040124625 0.042405404 0.039413307
000070 64 a6 3d 3d d7 bc 7f bd 04 e4 0e bd 9d 3e 2e 3d
       0.04630126 -0.06243595 -0.03488542 0.04254018
000080 5d f8 4f 3d 18 0c 1d 3d e7 bf 2d bd c2 80 da bd
       0.050773967 0.03834161 -0.04241934 -0.1066909
000090 1e c4 fa 3a a8 85 b3 3c c7 16 fe bc c4 4f 4c bd
       0.0019131934 0.021914318 -0.03101672 -0.049880758
0000a0 b2 8f 7e 3d fb 94 24 3d 76 bf f1 bb 85 46 2e 3c
       0.062148757 0.04018114 -0.0073775603 0.01063693
0000b0 5a a5 2f 3d 40 d3 76 3d 9e 0a ed 3c c3 d3 7f 3c
       0.0428823 0.060260057 0.028935727 0.015614453
0000c0 8f e4 14 bb 4d 92 b1 3c 40 a2 92 38 5f 34 86 3c
       -0.002271924 0.021676207 6.992044e-05 0.016382394
0000d0 f6 38 a7 bb 4a d5 cb bc b6 9c df bd 18 81 99 3c
       -0.005103226 -0.024881978 -0.10918562 0.018738315
0000e0 98 3a b3 3d 80 8d 27 3b a6 6e 89 3c 19 23 39 bd
       0.0875141 0.0025566518 0.016776394 -0.045199487
0000f0 23 60 0d bc 75 02 df bb cd 1f 6a bd d7 23 8e bb
       -0.008628878 -0.006805713 -0.057159234 -0.0043377685
000100 3c fc b4 bd 96 3c 94 3d ec be 33 bc ba 85 13 bd
       -0.088371724 0.07238118 -0.010970812 -0.036016203
000110 4d e6 07 bd 44 94 d1 3c f2 32 a4 bd 11 65 4a bd
       -0.033178616 0.025583394 -0.080175295 -0.04941279
000120 f0 98 89 bd b8 74 2a bd a9 0d 2c 3d 9a df 75 bc
       -0.06718624 -0.041615218 0.042005215 -0.015006924
000130 cb a8 66 bc 10 77 dd 3c f4 61 da bc 52 4f 0a bd
       -0.014078329 0.027034312 -0.026658036 -0.033767052
000140 60 80 fc 3c a5 e2 24 3d b5 9c 57 bd 3d 0b 29 bd
       0.030822933 0.040255208 -0.05263968 -0.041270483
000150 52 31 29 bc 89 f8 8c 3b d4 88 97 bb 3d ff 49 3c
       -0.0103267 0.0043020886 -0.0046244655 0.01232892
000160 10 a1 b9 bc be 4a 34 bd c4 12 8a bd 0c f2 37 bc
       -0.022659808 -0.044016592 -0.067418605 -0.011227142
000170 30 33 3d bc aa 0b 59 bb c2 3d a7 bc 31 4d 0c 39
       -0.011547849 -0.0033118525 -0.02041519 0.00013380196
000180 12 80 8f 3c 9c ee 16 3d dd 29 3f 3d da ff 22 bd
       0.017517123 0.03684865 0.046670783 -0.03979478
000190 2f 77 62 3d 60 b1 47 bd 8f 11 8e bb c2 26 09 bc
       0.055289444 -0.048753142 -0.0043355892 -0.008371057
0001a0 26 e0 a0 bd 26 30 c3 bb ba 21 d1 bc 51 46 2d bd
       -0.07855253 -0.0059566675 -0.025528777 -0.042303387
0001b0 aa ba 86 bd 82 72 78 bd 57 65 1e bd a7 02 a3 3c
       -0.06578572 -0.06065608 -0.038670864 0.019898726
0001c0 79 53 1e bd 69 a7 95 bd f1 33 4d bc d9 6a 02 bd
       -0.038653824 -0.073073216 -0.012524591 -0.03184018
0001d0 1d ad 24 3b 4c 97 32 bc 5b 29 0b 3d 8c 41 87 bd
       0.0025127598 -0.01090033 0.033974987 -0.06604299
0001e0 f5 58 94 3b 95 ef 22 bd 8f db 4f bd 5b 5f 94 bc
       0.004527206 -0.039779264 -0.050746497 -0.018111875
0001f0 52 bb 53 bd f8 9b 07 3a 91 b0 64 bd 86 27 0a 3d
       -0.051692314 0.00051730825 -0.05583245 0.0337291
000200 50 ef e3 3c 96 2f a0 bd 8b 32 26 bd 4a e2 4f bd
       0.027824074 -0.07821576 -0.040575545 -0.050752915
000210 7f 46 e9 bc d0 48 64 bc d7 85 45 3b a9 e6 60 bc
       -0.028475998 -0.0139333755 0.003013959 -0.013726869
000220 45 97 fd bd 61 59 b8 3c 84 c2 73 bc 56 e6 c5 3b
       -0.12382368 0.022503557 -0.014877919 0.006039421
000230 ce ad 93 3c 92 a8 23 3c b9 85 68 3d ee d5 2e bd
       0.018027212 0.009988921 0.056768153 -0.042684488
000240 54 a6 d8 3c 0d c9 bf bc 57 c8 07 3c 1a 39 38 3b
       0.026446499 -0.023411298 0.008287511 0.0028110207
000250 6c 97 12 bd a8 33 d3 3c cb ce 33 3d 89 9c 26 bd
       -0.03578894 0.025781468 0.043898385 -0.040676627
000260 5c 4c 17 bd f1 71 76 3b b6 b7 20 bd 4d e0 69 bd
       -0.036938056 0.0037604535 -0.0392377 -0.057098676
000270 b0 d8 a5 3c bc c6 1f bb ba ff 83 3d 7a c0 36 bd
       0.020244926 -0.002437993 0.0644526 -0.044617154
000280 fc b7 bc 3c 36 eb 62 bd a8 f6 55 bc be 87 61 3c
       0.02303695 -0.055400096 -0.013059296 0.013765274
000290 6b ff ac 3c bf d6 70 bd 3a c2 ea bc 36 b6 82 bc
       0.021117887 -0.058798548 -0.028657068 -0.015956026
0002a0 70 d8 56 3d 9a 81 3a bb df 24 a6 3d 71 86 88 bc
       0.052452505 -0.0028458596 0.08112501 -0.01666567
0002b0 4c be 72 3c 5a 4e 8e bc 1b 6f 27 bd 12 f0 18 3c
       0.014815878 -0.017371345 -0.040877443 0.009334581
0002c0 2c 00 43 3b 4a 65 72 bd e2 94 51 3c 54 54 f1 3c
       0.002975474 -0.059178628 0.012791844 0.029459156
0002d0 85 22 61 bd 9c ff a1 3c 74 7b 15 3c 34 5c 9f 3c
       -0.05496456 0.019775204 0.009123672 0.019453146
0002e0 aa c5 5d bc 59 73 03 3d 4d 6d 5c 3d bc 18 fa 3c
       -0.013535896 0.032092426 0.053815175 0.030529372
0002f0 82 6b 9a 3c 05 d5 eb bd dc b2 a7 bb bb 7f e4 bb
       0.018850092 -0.115152396 -0.0051177572 -0.0069732345
000300 0c 55 7a bd c0 16 41 bd 61 eb 1d bd 5c 54 fe bc
       -0.061116263 -0.047140837 -0.038554553 -0.031046085
000310 66 0d 53 bd f2 84 8b bd 1c ba 9a 3c bf b3 3b 3d
       -0.05152645 -0.06812467 0.018887572 0.045825716
000320 cb 1d 9d bd 42 9a 57 3d c3 96 e7 bc ae 34 0d bd
       -0.07671698 0.052637346 -0.028270131 -0.034474067
000330 72 bc e1 3b 32 95 ce 3c a8 df 68 bd c9 74 0b 3d
       0.0068889195 0.025217626 -0.05685392 0.034046922
000340 76 71 f4 3c 1e 93 7d 3d f3 bd 34 3c 50 4c 81 bd
       0.029839259 0.06190788 0.011031616 -0.063133836
000350 9a dc a1 bd ba f3 84 bc 2e 66 87 bc 9e 49 9b bd
       -0.079034045 -0.0162295 -0.016528215 -0.07582401
000360 bc c6 68 bd 49 2c b3 bc 19 1a 5c 3b a7 b6 f7 bc
       -0.056830153 -0.021871703 0.0033584891 -0.030238463
000370 b8 43 ff bc ae 7f b2 3c 42 7f 15 bd ad 72 87 bd
       -0.03116022 0.021789398 -0.036498316 -0.066136695
000380 06 53 45 bc 1f 68 a9 bd 70 d2 75 bc ad 63 11 3d
       -0.01204372 -0.08271813 -0.0150037855 0.03549545
000390 20 8b d2 39 99 3e 0e 3d dc 09 16 3c f2 b9 6b bd
       0.00040157977 0.034727667 0.009157624 -0.05755038
0003a0 aa 4c c2 bc 7e 84 01 3d 46 0d a3 bc ba fe 19 bc
       -0.023718197 0.031620495 -0.01990379 -0.00939911
0003b0 9d 63 34 3d ba cc ca bc 20 d1 b5 bd d2 de 29 bd
       0.04404031 -0.024755824 -0.08877778 -0.041472264
0003c0 bb 5d 2c bd d6 56 18 bd d9 3e 20 bd f9 d6 98 bd
       -0.042081576 -0.03719219 -0.039122436 -0.07462878
0003d0 6c 97 50 bd 63 be 66 bd b0 74 b3 bc 2c fd 2a bd
       -0.050925657 -0.05633391 -0.021906227 -0.04174535
0003e0 d5 5e 2f bd 00 3a c4 bb 36 28 7e bd 74 7e ad 3a
       -0.04281505 -0.0059883595 -0.062050067 0.0013236539
0003f0 c1 0e 98 bd 4d a5 12 3d cb ea 67 bd c9 1e ff ba
       -0.07424689 0.035802174 -0.0566204 -0.0019464131

action_model._discrete_distribution.branches.0.bias f4 [3]
000000 59 f3 3e 3d 68 64 56 3d 28 a6 2f be
       0.046618793 0.05234185 -0.17153227

action_model._discrete_distribution.branches.1.weight f4 [3, 256]
000000 8b b2 aa 3c 65 b8 38 3d e6 79 cc bd 11 1f 28 bd
       0.020837089 0.045097727 -0.09984188 -0.041045252
000010 39 3c 09 3d 9f ad 51 bd f3 16 a1 bd 0d f7 3c bc
       0.0335047 -0.05119097 -0.07865705 -0.011533511
000020 59 a3 a0 bd 7f 12 a4 bd e7 55 53 bd c9 2e 60 bd
       -0.07843656 -0.0801134 -0.051595595 -0.054732118
000030 f7 32 87 3d d3 65 aa bc 42 a3 70 bd da 9a 0e 3b
       0.06601518 -0.020800507 -0.058749445 0.002175978
000040 89 d1 aa bd ab e7 73 bc 8a df 02 3e 13 4f cd 39
       -0.08340747 -0.014886777 0.12780586 0.00039159562
000050 57 b1 df bc 13 d5 ff 3b ec ff 4e bd 24 fc 01 bc
       -0.027306242 0.007807383 -0.050537035 -0.00793365
000060 80 1c 19 3d e2 86 0f bd 4f ec 49 3c e6 37 40 bd
       0.037380695 -0.035040744 0.012324407 -0.04692831
000070 9d 5b 3f 3d d7 d7 b4 bd 22 a4 0d bd fd 99 59 bd
       0.04671823 -0.08830231 -0.034580357 -0.05312537
000080 b0 6f 22 ba b7 61 22 3c 1d 71 49 bd b7 39 9a bd
       -0.00061964523 0.009910992 -0.04918014 -0.075305395
000090 9c 11 8c 3c 29 c7 fd 3b d5 3a fe bc 7d f0 9c bd
       0.01709824 0.007744689 -0.031033913 -0.07663057
0000a0 96 4f ab 3d a9 9f ae 3a 5f 45 7e bc 64 bd 9f 3c
       0.08364789 0.0013322729 -0.015519469 0.019499488
0000b0 ce 97 95 bd a1 1c a3 3d 8b 74 9a 3c 53 61 6c bb
       -0.07304345 0.07964445 0.0188544 -0.0036068752
0000c0 17 3f fb bb d5 2f d1 bc d2 ab 94 3c 4c 84 0d 3d
       -0.007667433 -0.025535503 0.018148337 0.034549996
0000d0 a8 fa 71 3c 4c ce 84 bc b9 a4 bb bd d9 32 43 3c
       0.014769234 -0.016211651 -0.09162278 0.0119139785
0000e0 97 0b 88 3d 27 ff 4d 3d c6 fc 30 bd 3c ee 4e 3c
       0.066428356 0.05029216 -0.043209814 0.012630042
0000f0 70 3b 96 bc 5e da d5 3a dc df 0e bb fc 07 f1 3c
       -0.018338889 0.0016315689 -0.002180091 0.029422753
000100 b4 ed 87 bd 81 51 1c bd b5 83 38 bd 59 d7 bb bd
       -0.06637135 -0.038163666 -0.04504748 -0.09171934
000110 4a 86 23 bd 4a 55 f0 3c 25 91 ba bd 6a fe 3a 3c
       -0.03992299 0.029337544 -0.09109715 0.011413196
000120 e3 3d 80 3d 9c 6c 24 bd 81 e1 97 b9 19 91 4d bd
       0.06261804 -0.04014264 -0.00028968978 -0.050187204
000130 c9 81 a8 3b 41 c9 37 3d da a9 3f bb 35 f3 98 bd
       0.0051424247 0.044869665 -0.0029245527 -0.07468263
000140 00 63 02 bd f8 3b ad bc 14 7d 86 bc 9e 7e 23 bd
       -0.031832695 -0.02114676 -0.016417064 -0.039915673
000150 52 dd 0a bc 01 2a 82 3c 35 6d 11 bd 54 db 9a 3c
       -0.008475618 0.01588917 -0.03550454 0.018903412
000160 d4 9d 9b bb 46 f5 b8 bd 0b 3c 1e 3d 14 24 27 bd
       -0.004749039 -0.09031157 0.03863148 -0.04080589
000170 86 1c 2f bd 43 ad 91 3c 35 35 87 bd 6d d6 95 bb
       -0.04275181 0.017782813 -0.06601945 -0.0045726807
000180 bc 7a d1 3c f2 63 cb bd 66 6a d7 3c 50 36 94 bd
       0.02557122 -0.099311724 0.026295852 -0.07236922
000190 a4 0f 54 3d cd 3b 97 3c fa b6 77 3c 7d 77 39 bb
       0.05177273 0.018461132 0.015119309 -0.002829998
0001a0 0f 3c 86 3b c6 84 e3 3a 37 6f 39 bd a0 d1 35 bd
       0.004096515 0.0017358295 -0.04527208 -0.044389367
0001b0 b0 18 ab bd 93 bd e2 bd f6 ba b6 bd 26 69 82 bc
       -0.08354318 -0.11071315 -0.08922379 -0.01591928
0001c0 2e 65 51 bd a4 3d 8c bd 7b af 40 bc ed a2 56 bd
       -0.051121883 -0.068476945 -0.011760588 -0.052401472
0001d0 5f e4 73 3d 64 5d 08 bd 34 34 a3 3c 7b 05 1f 3d
       0.059543964 -0.03329219 0.019922353 0.038823586
0001e0 4e c6 92 bd 00 a4 b1 bd b4 f7 e1 bd 76 86 26 3d
       -0.0716673 -0.08673859 -0.11033574 0.040655576
0001f0 50 d2 58 bd 86 a5 22 bc f2 25 59 bc 36 a1 05 3c
       -0.052934945 -0.009927159 -0.013253676 0.008156111
000200 ef 93 4f bc 43 1f 40 3d d4 16 49 3d 89 62 60 bd
       -0.012669547 0.046904813 0.049094036 -0.05478147
000210 e3 cb 45 bd 96 ba 3b bc 6e 97 b5 bd 30 67 b3 3b
       -0.048290145 -0.01145806 -0.088667735 0.0054749474
000220 b3 df 6d bd da 9e 10 bd 74 35 f9 bb c2 fe dc bb
       -0.058074664 -0.035307743 -0.007605249 -0.0067442367
000230 b2 d4 e4 bb bc 17 a9 3b 1a c9 b6 3d ff 8e 1e bd
       -0.006983363 0.0051603 0.08925076 -0.03871059
000240 ef dc 9e 3b 41 88 14 bd 61 62 be ba 48 8b 6f 3c
       0.0048481147 -0.036262754 -0.0014525169 0.01462061
000250 98 69 86 bd 69 ea 25 bb 35 76 88 3c 9c 36 61 bd
       -0.06563109 -0.0025316721 0.016657928 -0.05498372
000260 87 e8 be bc f9 cc a4 3c 87 7d d3 3c b9 06 8a bd
       -0.023304237 0.02011727 0.025816692 -0.067395635
000270 92 50 c7 3b 98 41 31 bd c0 49 4f 3d 42 cf a1 bd
       0.006082603 -0.043275446 0.050607443 -0.079008594
000280 58 ec 64 bc 81 39 9f bd 8e 64 34 3c ba 74 c8 ba
       -0.013972364 -0.0777464 0.011010302 -0.0015293576
000290 1f af cd 3b de 6a 2f 3d dc ca 61 bc dd 47 94 3c
       0.0062769796 0.042826526 -0.013781276 0.018100673
0002a0 9d 59 49 bc 46 cc 80 3b 68 6d 8c 3d f1 f1 a3 bd
       -0.012289432 0.0039306013 0.06856805 -0.08005131
0002b0 b8 80 38 3c 6f a1 ec bd 0e 02 4c bd 3e 03 d0 bb
       0.011261158 -0.115542285 -0.049806647 -0.0063480427
0002c0 d1 dc 74 bd 10 b6 30 bd dd 54 94 bc f3 50 0b 3c
       -0.0597809 -0.04314238 -0.018106872 0.0085031865
0002d0 c4 40 6b 3d 83 6b 0c bc 31 6e 66 3c 5b 9e 29 3c
       0.057434812 -0.008570555 0.014064358 0.010352696
0002e0 c5 80 ce 3b e1 e7 04 3d 0b 64 1c 3d 8a 77 3d 3c
       0.0063019716 0.0324477 0.038181346 0.011564145
0002f0 94 dc df 3c dc 77 86 bc af 12 00 bc 9c 1c 6a bc
       0.02732686 -0.016414575 -0.0078169545 -0.014289048
000300 15 77 5e bd ff 6a 5c bd 13 31 12 3c 4d 64 82 bd
       -0.054312784 -0.053812977 0.008922833 -0.06366787
000310 4a df 98 bd 94 17 56 bc d5 31 2e bd 66 b5 36 3d
       -0.07464464 -0.013067145 -0.042527992 0.04460659
000320 12 a8 b6 bd e3 4f b5 3d 71 6a 38 3c 83 31 2b 3a
       -0.089187756 0.08853128 0.011255846 0.000653051
000330 fb 64 bf 39 e9 92 b3 3c 88 b4 d4 bd b4 07 53 bc
       0.00036505595 0.021920638 -0.10385996 -0.012880255
000340 67 c5 84 3c a0 b3 9f 3d e7 15 3d bd de 78 8e bd
       0.01620741 0.077979326 -0.046163466 -0.06956647
000350 79 ec 84 3d 10 40 f4 bc 0a 3e bc bd 3a 2f e0 3c
       0.06490416 -0.029815704 -0.091915205 0.02736627
000360 32 a8 73 bd 8b 99 01 bd 7b 2e b2 3b ff 48 3e bd
       -0.059486575 -0.03164057 0.00543767 -0.046456333
000370 3c 0d f2 bc ad 08 22 ba b4 61 9b bd ab bd 9d 3d
       -0.029547326 -0.00061811024 -0.07586995 0.07702192
000380 f7 54 18 3d 3e cf 5e bd ee 4c de bd 47 e6 9a 3d
       0.037190404 -0.05439686 -0.10854517 0.07563453
000390 a8 91 9a bc cc f6 61 3c 31 0b 8e bc 08 6a ab bd
       -0.018868282 0.013791751 -0.01733932 -0.08369833
0003a0 4a 54 99 bd b0 8d 7f bc d5 a9 8f bd 75 9a a6 3a
       -0.0748678 -0.015597746 -0.07014815 0.0012710827
0003b0 3e ea 9f bc ef df 7f bd 83 0c e9 3c be e6 b7 bd
       -0.019520875 -0.06246942 0.028448349 -0.089795575
0003c0 8d bf 0e 3d 24 51 89 bd 09 12 ec bd b5 aa da bd
       0.034850646 -0.067049295 -0.115268774 -0.10677091
0003d0 7b e2 84 bd 3e 18 df bd c0 d8 61 3c 8d 12 09 be
       -0.0648851 -0.10893296 0.013784587 -0.13385983
0003e0 1d eb ab bc 41 f1 f3 39 b8 61 a8 bd 58 08 ae bd
       -0.020986134 0.0004652832 -0.08221763 -0.08497685
0003f0 f1 76 88 bd c2 3b 3e 3d 99 09 a3 bd b2 e9 e8 3b
       -0.06663311 0.04644371 -0.07960815 0.007107937

action_model._discrete_distribution.branches.1.bias f4 [3]
000000 a4 2c ac bb 3f ab e6 bc b7 52 fc 3b
       -0.005254345 -0.028157828 0.00770029

action_model._discrete_distribution.branches.2.weight f4 [2, 256]
000000 51 24 8e bd 11 f1 42 3d c4 b8 64 3d 12 40 7a bd
       -0.069405206 0.04759318 0.05584027 -0.06109626
000010 23 17 f7 bc 3f 96 a3 bd 70 8b 6f bd 7c eb 11 3d
       -0.0301624 -0.079876415 -0.058482587 0.035624966
000020 6d 76 8a bc e5 1c 53 bc c0 37 4f bb fc b4 b1 bd
       -0.016902173 -0.012885307 -0.0031618923 -0.08677098
000030 72 ad fc bd 8b 79 1f 3e a3 e5 7f bc 94 37 3c bb
       -0.123377696 0.15573709 -0.0156187145 -0.002871965
000040 9c 34 33 bd 7a 2d 94 3d 8c c9 f8 bc 30 38 91 bc
       -0.043751344 0.072352365 -0.030369543 -0.017726988
000050 22 03 3f 3d 75 dd 48 3d dc 16 c4 3c e9 ad 29 bc
       0.046633847 0.049039323 0.023936681 -0.010356405
000060 d5 44 33 3c 64 f9 b8 3c 5d f1 62 3a 7d c0 af 3c
       0.010941704 0.022579856 0.0008657182 0.02145409
000070 be c5 6b bc 14 5d ae bd 16 4a e0 bd e9 ca 20 3d
       -0.014390407 -0.08513847 -0.10951631 0.03925601
000080 ec b5 71 3c b8 5f b0 3d 59 8d c6 bc 3e 6f c0 3c
       0.014752846 0.08612007 -0.024237322 0.023490544
000090 5a c1 19 3d f3 3f 8a 3b 8a 58 d8 3c 3f 62 c8 bd
       0.03753791 0.004219049 0.026409406 -0.09784364
0000a0 8f 57 f0 bc 24 1c fe bc 83 53 8d 3d ef 2d 09 bc
       -0.029338626 -0.031019278 0.06900694 -0.008372768
0000b0 32 11 be bc f5 29 a9 bc 61 25 27 bc 96 a5 13 bc
       -0.023201559 -0.02064989 -0.010201783 -0.009011647
0000c0 72 9d bb bc b2 11 c9 3d 33 66 1f 3e e6 7c d2 bc
       -0.022902224 0.09817828 0.1556633 -0.025694322
0000d0 b4 96 80 3d 19 56 8e bd 46 10 a5 bd 20 b4 b7 3c
       0.06278744 -0.069500156 -0.080597445 0.022424757
0000e0 28 0c 69 bd 98 20 bd 3d db 8b b4 b9 34 db 43 bd
       -0.05689636 0.092347324 -0.00034436476 -0.04781647
0000f0 01 f3 c1 bc 24 a4 8a bc 18 7c 7b bb 0a 76 d4 3d
       -0.023675444 -0.016923971 -0.0038373526 0.10374077
000100 fa 88 2e bd 15 c0 47 3d dc f2 a5 3b fc 14 42 bd
       -0.0426111 0.048767168 0.0050643515 -0.047383294
000110 6d 00 9b bd 83 57 42 3b da 97 af bd 41 12 0e 3d
       -0.075684406 0.0029654212 -0.08573885 0.034685377
000120 ec e8 fe bd ee e4 3f bd f1 6e 5a 3c c9 ab 7b bd
       -0.1244677 -0.046849184 0.013332115 -0.061443124
000130 41 54 43 bd c6 6c 03 bd a7 aa 54 3d 7c 12 48 bd
       -0.047687773 -0.032086156 0.05192056 -0.048845753
000140 ec f5 2c bc 3f be 8e bb 5b d5 ca 3d ff 76 a5 3d
       -0.010556679 -0.004356175 0.099039756 0.08079337
000150 cb 3a 6f bd 14 ad c8 3b 5b 0b 4f 3c a6 4f 49 3b
       -0.05840568 0.006124148 0.012636985 0.003071764
000160 27 b7 09 bc ca d0 6f bd 1e d5 88 bc aa cb 5f 3d
       -0.008405483 -0.058548726 -0.016703185 0.05463759
000170 e3 3d 43 3d de c7 a4 3b 8f 4a 64 bc a2 5f b3 3d
       0.04766644 0.005028709 -0.013933792 0.08758475
000180 4c 38 af bb 43 2e 21 bd 44 91 94 bb b1 44 84 bc
       -0.0053472873 -0.03935076 -0.0045339186 -0.016146036
000190 27 b9 87 bc c3 f6 80 3d c0 a9 94 3d e6 53 78 bd
       -0.01656778 0.06297066 0.0725894 -0.060626887
0001a0 29 2d 8d bd d4 2a ae 3b 02 1e 3f bc aa ab 65 bd
       -0.06893379 0.005315164 -0.011664869 -0.056071915
0001b0 ba 08 9b 3d e0 b3 2a 3d 1d e3 49 bd a2 73 a7 3d
       0.07570024 0.04167545 -0.049288858 0.08176352
0001c0 97 ce e0 bd 74 b5 b9 bc f3 62 36 bd d4 1a a0 3c
       -0.10976904 -0.022669531 -0.04452796 0.019544043
0001d0 41 3e 71 3d ec cc bb bd 1d ef 92 3c da e2 c9 bd
       0.05889726 -0.09169945 0.017936284 -0.098577216
0001e0 d3 87 53 bd ee 8e be bd 9b ed 1f bd 0e b8 b0 bc
       -0.051643204 -0.093046054 -0.039044958 -0.02157214
0001f0 74 6c e8 bd 28 f0 81 3d 98 e4 ae 3d 70 2c 00 3d
       -0.11348811 0.06344634 0.085396945 0.03129238
000200 23 b0 bf 3c 35 63 e0 3b a8 11 53 3c 5b eb bc bd
       0.023399418 0.006847764 0.012882628 -0.09224578
000210 71 f1 62 bd 2c 63 d7 bd 9d 8b 91 bd 77 98 a6 bd
       -0.055406038 -0.105169624 -0.07106707 -0.08134549
000220 d5 2e 0e bd dc d7 18 3c 73 d2 a6 bc cb 38 db bc
       -0.03471263 0.009328809 -0.020364022 -0.02676048
000230 b9 0c 23 bc 9d 18 29 bc 88 33 ec bc 3a 63 f8 bd
       -0.009951764 -0.01032081 -0.028833166 -0.12128301
000240 ae ad 82 bc f8 1f 93 bd 0c d7 53 3d 17 3b 04 3e
       -0.015951958 -0.07183832 0.051718757 0.12913166
000250 25 47 c5 bd c1 e4 eb 3c f5 8a 2d 3c b9 55 aa 3c
       -0.0963271 0.028795602 0.010592212 0.020792829
000260 7c 13 8f 3c 3a d9 07 3e 33 59 4f 3d 82 e3 af bd
       0.017465346 0.13266459 0.050622176 -0.085883155
000270 b5 56 6a bb 59 5d 92 bd 46 9c c3 bc bf 0b 17 bd
       -0.0035757248 -0.07146711 -0.023878228 -0.036876436
000280 1c b5 08 3d e9 0f a3 bd f9 86 be bc c3 6f a3 3d
       0.033375844 -0.07962019 -0.02325772 0.07980301
000290 3f ee 7d 3d 7c f4 55 bc f4 8a 78 bd fa eb d6 3d
       0.061994787 -0.013058778 -0.06067939 0.10494228
0002a0 b8 4f e4 bc b6 59 6f bd f6 c7 a9 bb 34 87 1f bd
       -0.027870044 -0.058435164 -0.005181308 -0.0389473
0002b0 6c de 58 3d 84 a2 e6 bc ff 55 5e ba 6d bf ef 3a
       0.052946493 -0.028153665 -0.00084814423 0.0018291302
0002c0 2e 08 b1 bd a3 66 82 bd f8 3e 8e 3d 78 58 ad bc
       -0.08644138 -0.06367233 0.06945604 -0.02116035
0002d0 fd c5 f5 bd a7 fb 33 3d 0d 3e c8 3d fc 39 82 3d
       -0.12000654 0.043941166 0.0977746 0.06358716
0002e0 f9 28 ad 39 e9 19 73 bc 1e 99 7c bc 63 a9 15 ba
       0.00033027658 -0.01483772 -0.015417365 -0.00057091395
0002f0 3e 49 11 3e 06 09 dd 3c 43 f0 c5 3d a2 46 49 bd
       0.14188096 0.026981842 0.09664967 -0.049139626
000300 b6 c9 05 bd cb 6e ee bd c7 66 03 bd d1 13 81 3d
       -0.03266307 -0.11642226 -0.032080438 0.06302608
000310 24 0d ae bd 9e 2f 43 bd 77 f9 53 3d 75 6f cf bb
       -0.084986 -0.047652833 0.05175158 -0.0063304254
000320 b0 67 6d 3d 95 7b 22 bd ac a3 4e bd 06 83 ff bc
       0.057960212 -0.03966864 -0.05044906 -0.031190407
000330 21 dd 00 bd be 11 2d 3c b0 29 a2 3b 8b 57 1e 3d
       -0.031460885 0.010563312 0.004948817 0.038657706
000340 6d ad 07 3e f6 6d fc bc 82 6c 54 bd 52 1a 44 bc
       0.1324975 -0.030814152 -0.051861294 -0.011969166
000350 a2 3b b5 bd 81 84 72 3d e6 cb 8c bd 0e a4 8a 3b
       -0.08849265 0.059208397 -0.06874828 0.0042309826
000360 07 96 80 bd ce 9b c8 bd 07 f3 2f bc 32 38 ca bd
       -0.062786154 -0.097953424 -0.010739095 -0.09874
000370 d1 58 73 3d 3a 83 bb bc 87 c7 d4 bd e0 e4 ee bd
       0.059410874 -0.022889722 -0.10389619 -0.11664748
000380 ab c8 00 3e b2 bf 00 bd 47 8d 13 3d 85 85 b3 bc
       0.12576549 -0.031432815 0.036023404 -0.021914253
000390 53 df 33 3c b2 be 10 bd fa 20 45 3d 0d f6 aa bd
       0.010978538 -0.03533811 0.048127152 -0.08347712
0003a0 e9 b7 86 bd 16 0e e5 3b 75 f9 ce bc 35 16 87 bc
       -0.06578047 0.0069902046 -0.025265435 -0.016490081
0003b0 b5 6d 72 3d 7b a9 da bd 0b 51 aa bd 48 40 a7 bd
       0.059186656 -0.10676857 -0.08316239 -0.081665576
0003c0 d2 95 ad 3d 4b 30 ac bc 15 33 ab bd ce 2d 0e bd
       0.084758416 -0.021019122 -0.083593525 -0.03471165
0003d0 92 11 54 bd f2 43 2e bd e0 af 08 bb 70 14 22 bd
       -0.05177457 -0.042545266 -0.0020856783 -0.039570272
0003e0 56 09 01 be d3 74 6a 3c 05 62 f8 3c 7b 15 00 3c
       -0.12601218 0.01431008 0.030320177 0.007817621
0003f0 e3 6b 69 bd 20 e2 c9 bc 79 69 00 be e6 89 a9 bc
       -0.056987654 -0.024643958 -0.12540235 -0.020695638
