results/test_01/SimpleCollector/SimpleCollector-3499972.onnx (onnx, 335103 bytes, 11 tensors)

discrete_act_size_vector f4 [1, 3]
00000000: 0000 4040 0000 4040 0000 0040
3.0 3.0 2.0

network_body._body_endoder.seq_layers.0.weight f4 [256, 52]
00000000: 468d 2bbd 1b3d e83c 4782 b43d 991e 0abd
00000010: 0d23 c0bd 581b 903e 4981 153d ea41 7c3d
00000020: a796 a4bd 31b5 6f3d 333c f7bd 8474 413e
00000030: 7f6f 07be 58e9 abbc b36a 2e3d b8fc 9b3d
00000040: 908b 073e d852 17be d4f1 95bd 40ad 53bd
00000050: 7ed6 63be 74eb 36be 00f9 13be 7f58 343e
00000060: 0822 a13d 4aa8 313e f881 fbbd 6460 f73c
00000070: 37b1 b9bd dbb2 02bd ae94 b83d 0d86 60be
00000080: 98f6 58be ebb7 4d3e 9997 87bd 488a dfbd
00000090: 13d2 6ebe 9204 2cbe a9dd b13d 42c2 fd3d
000000a0: ad91 8dbc 1142 9b3d 2c6f 93be 7883 553c
000000b0: 33e5 aabe 172c bebe c1f4 943d 15d7 2bbd
000000c0: 6b97 f83d d413 423c 2d49 1e3e c312 2e3e
000000d0: 0126 2e3e aae3 0fbe 3ad1 94be 135b e33d
000000e0: ec5e 2cbd 6a33 e2bd 60b6 9a3d 609b a73d
000000f0: eb1e 4f3d 12de 4bbe 14bc 3ebe b6fd 563e
00000100: dcc5 d43e 5bfc 2e3c 83e6 7d3d df37 86be
00000110: b799 dabc e3db 7bbe ef59 4c3d 9fa4 94bb
00000120: c97d 91bd 334b 61be 25a0 2f3e 3eca 46bd
00000130: 8664 d03d def1 d43d 7f2f 42bc 376a b2bd
00000140: 0502 43be af63 05be ca88 b0be 5935 fabd
00000150: 0dd4 093c aca3 39be 96b1 dd3d 0973 853c
00000160: 7006 343e b02d b43e 73eb 4dbe e35d 31be
00000170: ec6a 37be 26db 67be 4211 b93e e494 a93e
00000180: eeb6 613d f622 a23d ebbe 5bbe 5909 a6bd
00000190: 3c42 8dbe eb33 5abe b8c6 35bd fe21 e5bd
000001a0: a98b d8be 80b0 c53c 8bb1 bb3d 5340 9a3d
000001b0: 8efc a9be 868a 223d a700 553d 6c49 9dbd
000001c0: e87e 8bbd 2428 82bd f804 6a3e a5bd 113e
000001d0: 7e8d 5bbe 4464 ccbc 332a e83d ac42 8b3b
000001e0: c031 07bf 097f aabe 366b 673e 0400 7a3e
000001f0: bea3 0c3e 990f ab3e 6114 6fbd cb86 dc3b
00000200: feec 463d 4943 423d 0ee6 713d 39ea ea3b
00000210: e344 dcbc 2424 863e 2b41 a2bd 60c2 cabd
00000220: af4d bdbe 35ff a03e 3e59 b1bd 5f2d e23d
00000230: a690 a63e 92b0 0d3e dbc0 06be 8e83 6cbe
00000240: ce56 cbbc 46bc 8bbd cf97 433d 0395 993d
00000250: b0ba 9ebb 8a79 783d 3932 af3a 0537 78bb
00000260: 91b7 3f3e e245 4d3e 4ee2 9dbd a132 62be
00000270: 8210 b53e c448 d1bd 250f 3ebd 80ed 8bbe
00000280: f253 0c3f c212 953d 4d67 e4bc 444b de3d
00000290: 6c42 673e 48ac 5abe 3552 06bd 698f afbc
000002a0: a77e 913e daa3 f6bd ba0f 93be 64ef f1bd
000002b0: cd39 81bd 7ebe 8abe 67c9 2c3e 9a2d 3fbd
000002c0: b035 e43e c6ac 5e3e 4f7f c5bd b78f eebd
000002d0: 9bda c2be 8edb 41bd d94b abbc aad0 723e
000002e0: 25f6 7b3e ff4c 4dbb 1808 763d 5f26 833e
000002f0: fc7b 86bd 5745 91be 6ef6 a43d 75af 9c3d
00000300: 7cc4 643e e8e4 b43d 6a97 a13d 01fa 4dbd
00000310: 703a dabe 5b74 fdbe 3d44 8b3d 4662 13bc
00000320: 5b1c 513e cdf9 983d dbc3 54be ec74 febc
00000330: 7462 37bd 9638 00bf e8ec 873e 9456 a2bd
00000340: 3414 40be 7ae8 eabc 473d 16be 4a67 713e
00000350: 0305 693d 0b41 ba3d ed4d 4bba a296 32bd
00000360: 806e adbe 1f44 453d bc8e a13e ee39 32bd
00000370: fcd9 843e 08e3 3a3d 40cb 06bf c71a e8bd
00000380: 462a 0abe 29d3 8e3e 698a babd 64d3 78be
00000390: 8b41 9e3e aefb 5ebd 2c89 d5bd a816 18bd
000003a0: b3ef 573e 7672 e2bb 0af3 6cbe e9d0 5e3e
000003b0: 12a6 473c ca41 09bd 1048 a53d 5f8a 2f3e
000003c0: 0f20 423d a84a d4bd 9952 213e 5da1 693d
000003d0: 749c d8bd 86c6 f9bd 895c 183e bc39 2a3e
000003e0: 23e3 b9bd 8563 13be 4dea ba3c 4e42 59bd
000003f0: 085e 733d 5293 b5bd b8e7 163e f4e3 e83d
-0.041882776 0.02834945 0.08813911 -0.033720586 -0.093816854 0.28145862 0.03650025 0.061586298
-0.08036547 0.058522407 -0.12072029 0.18892103 -0.13226126 -0.02098529 0.042582225 0.07616562
0.13236833 -0.14777696 -0.07321516 -0.051678896 -0.22249791 -0.17863256 -0.14450455 0.17611884
0.07867819 0.17349353 -0.12280649 0.03019733 -0.09067004 -0.03190885 0.090127334 -0.21926136
-0.21187818 0.2008969 -0.06620712 -0.10915047 -0.23322324 -0.16798618 0.086848564 0.12390567
-0.017281378 0.075809605 -0.28795755 0.013031833 -0.3337799 -0.37143013 0.072732456 -0.041953165
0.12138256 0.011845548 0.15457602 0.16999345 0.17006685 -0.1405169 -0.29065877 0.111013554
-0.042082712 -0.11044963 0.075543165 0.08183932 0.050566595 -0.19908932 -0.18626434 0.2099522
0.41557205 0.010680283 0.06198741 -0.262145 -0.026684625 -0.24595599 0.049890455 -0.004536226
-0.0710407 -0.22001342 0.17150934 -0.048532717 0.10175423 0.10397695 -0.011852144 -0.08711665
-0.19043739 -0.13026308 -0.34479362 -0.122172065 0.008412373 -0.18128842 0.108248875 0.016290205
0.1758058 0.35191107 -0.20109348 -0.17320971 -0.17911881 -0.22642192 0.3614598 0.33121407
0.055106096 0.079168245 -0.21459548 -0.08107252 -0.27589595 -0.21308868 -0.044378966 -0.11188124
-0.42294052 0.024132013 0.09164723 0.075318 -0.33200496 0.039682887 0.052002575 -0.0768002
-0.06811315 -0.063553125 0.22853458 0.142325 -0.21440694 -0.024950154 0.11336174 0.0042498913
-0.5281029 -0.33300045 0.22599491 0.24414068 0.13734338 0.33410338 -0.058369044 0.0067299358
0.048565857 0.04742745 0.059057288 0.007169035 -0.026888316 0.26199448 -0.07922586 -0.09900355
-0.3697333 0.31444708 -0.086596 0.1104381 0.32532233 0.13836887 -0.13159506 -0.23097059
-0.024821665 -0.0682302 0.047752198 0.07499125 -0.004844032 0.060662784 0.0013366408 -0.003787459
0.18722369 0.2004619 -0.0770918 -0.22089626 0.35364157 -0.10218957 -0.04640116 -0.27329636
0.5481559 0.072789684 -0.027881289 0.108541995 0.22583932 -0.21354783 -0.032793242 -0.021430688
0.2841694 -0.12042971 -0.28722936 -0.11813238 -0.06309853 -0.2709846 0.16873704 -0.04667435
0.4457221 0.21745595 -0.09643423 -0.11648505 -0.38057408 -0.047328524 -0.02091019 0.23712412
0.24605615 -0.003132641 0.060066313 0.25615212 -0.06566617 -0.28373215 0.08054815 0.07650653
0.22340578 0.08832723 0.07890208 -0.05028725 -0.4262271 -0.49502835 0.06800125 -0.008995598
0.20420973 0.07469521 -0.20777838 -0.031061612 -0.044771627 -0.50086343 0.26547933 -0.0792667
-0.18757707 -0.028675307 -0.14671813 0.23574558 0.056889545 0.09094437 -0.00077554473 -0.043600686
-0.33873367 0.04816067 0.3155421 -0.043512277 0.2594756 0.04562667 -0.52653885 -0.113332324
-0.13492689 0.27895477 -0.09108431 -0.24299389 0.3090938 -0.05443924 -0.10426554 -0.03713098
0.21087532 -0.0069106175 -0.23139587 0.2175938 0.01218559 -0.033510007 0.080703855 0.17142628
0.047393855 -0.10365802 0.15754165 0.057038654 -0.10576716 -0.121960685 0.1487905 0.16623586
-0.09076526 -0.14393432 0.022816801 -0.05304175 0.059415847 -0.0886599 0.14736831 0.113716036

network_body._body_endoder.seq_layers.0.bias f4 [256]
00000000: f6b2 dabc 6ef9 2cbb f299 00bb c632 c33c
00000010: c939 133b e8cd ce3c 7bf3 1c3c 1c8f e8bb
00000020: 38ca 073c 6e52 6a3c 16bd 413d c848 50bd
00000030: c86a b73b 22ab 6dbd d6d0 0abc 8f03 d73b
00000040: f031 f63c e5c3 a0bc 292d b3bb 6478 d1bc
00000050: 0c46 09bd ae2a 073b 5698 edbb 924b 1ebb
00000060: 8c5c 26bd 4377 383a d201 403d 6574 c2bc
00000070: d8d8 933c 77bc ee3c 939a 873c c254 ceba
00000080: dde6 04bc 7f3d 4dbc 9898 9ebd 937d f53b
00000090: 9ee3 acba aa47 cdbc d577 a53c d323 7a3a
000000a0: e215 a43c 39cb 09bc 129b a33a 8d98 54bd
000000b0: a6b3 96bb ebf2 09bd 443d d9bb fe75 aabc
000000c0: 94be 853b 8eb9 c2bc 9e75 0ebd bad4 fcbb
000000d0: da81 0bbd afa2 90bc 8c5a c8bc 5ab1 b83c
000000e0: 5ede 87bc 2071 babb 39eb 193b 9b2c e0bc
000000f0: a8fa 0abd efd2 8dbc 2a7e 463c 8c2d 6ebd
00000100: a78c adbc a6d3 f63a 8d7b 46bd 62a9 3ebc
00000110: 6e64 723c 9d5d 92bc 8172 cf3b 6e60 633c
00000120: cec4 81bc 9ccf 4cbd 0aba eabc 248e e5bb
00000130: 1070 afbb b8ba 363c fecb 033b 0e70 b7bb
00000140: e9b1 d73c 6117 1bbc 3175 543c 748b a43b
00000150: a4fa 4dbd ac6d d8bb b418 ca3b 52ff 19bd
00000160: 75a8 ce3c 1f7b f63c a686 08bd a9d1 143c
00000170: 4501 a03c 08e3 e8bc c517 213c 357a 4cbc
00000180: ed44 453a 2998 27bb e8d1 79bd bdc8 debc
00000190: 9eb7 063d f1b7 04bd 0571 f3bc 814c c03c
000001a0: d6c3 ae3b c8a5 96bd fbed bbba a5a8 87bc
000001b0: e6da c43c 8143 cc3c 8e86 82bd d93e 63bc
000001c0: d903 efbc 170f b03c 6a13 26bc 4d73 a03c
000001d0: 7abd de3c ca18 2abd 3e16 d5bd 23a0 a9bc
000001e0: 16a2 79ba 5a3b 60bc 1e42 3abd e0b8 b93a
000001f0: a38d 353c acf5 abbc 08fa 053b 05c3 753c
00000200: c4ef 273c 11cb 0bbd cf94 95bd c8cb ac3c
00000210: b01b 5bbd 2edf 853c 669a a23c 5f46 e63c
00000220: f291 95bb 8272 53bd 7ea6 b1bb 5553 d13c
00000230: 1e2c 12bd 7444 a8bb 066b e1bc 6a70 763b
00000240: 1829 e83c ad32 183c f807 9d3c 8a03 f23c
00000250: e029 cf3b 63ce c1bc c65e 3fbd 2071 87bc
00000260: 66c1 46bc 8324 77bc 8edd 50bd 1fc6 ccbc
00000270: e31d 05bb b891 adba df44 7c3c 52a0 383b
00000280: d923 263d cf0f 72bd 68bd 82ba cb08 8abc
00000290: ed89 91bb 99ca 07bd 219e 323d c5cb 563b
000002a0: bbf9 47bc f0ef 313a dc95 89bc 81bd 23bd
000002b0: 3e97 a2bc 0a8b 93bd 5ee1 d03b 3811 7fbc
000002c0: 4ce2 24bd a351 c73c 8b6d c73c 05e4 79bc
000002d0: 17b0 86bd 657b 3fba b13f 0e3c ee65 34bc
000002e0: 6b44 81bc 5ccd 49bc 3276 1fbd 7b86 613c
000002f0: a139 a8bc 9b2a 8cbc 7bef 9fbc 117a b9bc
00000300: 2793 083d 3cc7 a4bc 27d8 a5bb ee7d 42bc
00000310: bc00 bfbc e517 30bc 22fa 01bd 9253 ed3c
00000320: 1bfc 8ebc 6ebe 733c bcf3 183c 280b b4bc
00000330: f936 473c 83f1 88bc 45d2 8a3a c68b 7b3c
00000340: 758d febb 1096 193d 3689 143d be8f b3bc
00000350: 82a9 01bd 0ba1 18bd e471 e4bb adce 80bc
00000360: 672f b53c ac52 1abc 76ad 15bd 28f8 4c3d
00000370: 3a2c 373c 326f 2cbd cf5e 9a3c 05ce eabc
00000380: 7b14 d93c b9f3 c5bc 5645 f93c 42bf f2bc
00000390: 758a 47bc 1de2 043c aff3 cf3b 1552 dbbb
000003a0: 5ab9 4d3a 43d1 033c 40a6 80bb 064a 25bc
000003b0: 09a6 69bc 4c86 783c bc5d dcbb 7030 043d
000003c0: 53bf 743c 643b 78bb b768 bbbb aeac 8d3b
000003d0: 6153 cb3c 6cc4 ab3b 34ea 42bb 806c 52bd
000003e0: b00e cbbc 7ee4 15bd 4bb2 e23c 6977 c2bb
000003f0: 4313 3b3b bf50 5abc 6f45 35bd 655a 3ebd
-0.026696663 -0.002639379 -0.0019623009 0.023827922 0.0022464863 0.025244668 0.009579535 -0.007097138
0.008287959 0.014301879 0.047299467 -0.05085066 0.005597446 -0.058024533 -0.008472642 0.0065617035
0.030053109 -0.01962466 -0.00546803 -0.025570102 -0.033514068 0.0020624804 -0.007250826 -0.002415393
-0.040615603 0.00070368143 0.046876736 -0.023737142 0.018047735 0.029142601 0.016553199 -0.0015741813
-0.008111683 -0.012526869 -0.07743949 0.0074917763 -0.0013190394 -0.025058586 0.020198742 0.00095420814
0.020029966 -0.008410268 0.0012482128 -0.051903296 -0.0045990525 -0.03367893 -0.006629618 -0.020808216
0.0040815566 -0.02377012 -0.034780137 -0.0077157887 -0.034059383 -0.017655699 -0.024457239 0.022545505
-0.016585525 -0.005689755 0.002348615 -0.02736502 -0.03393045 -0.017312495 0.012115041 -0.058148906
-0.021185232 0.0018831387 -0.04845767 -0.011637064 0.014794452 -0.017866904 0.0063307886 0.013877971
-0.015840914 -0.05000268 -0.028653163 -0.00700547 -0.005353935 0.011152916 0.0020110602 -0.0055980748
0.026329951 -0.009466023 0.012967394 0.005021507 -0.050287858 -0.006604871 0.0061674956 -0.037597008
0.025226811 0.030088006 -0.033331536 0.00908319 0.019531855 -0.02842857 0.009832327 -0.012480308
0.00075252244 -0.0025572872 -0.060991198 -0.027195329 0.032889955 -0.032401983 -0.029716978 0.02347398
0.005333404 -0.07355839 -0.0014337891 -0.016559908 0.02403016 0.024934532 -0.063733205 -0.0138699645
-0.02917664 0.02149157 -0.010136465 0.01958623 0.027189959 -0.041527547 -0.10404633 -0.020706242
-0.0009522749 -0.0136860255 -0.04547321 0.0014169477 0.011081132 -0.020991169 0.002044322 0.01500011
0.010250036 -0.034129206 -0.073037736 0.021093264 -0.0534932 0.016341772 0.019849014 0.028109727
-0.004564517 -0.051622875 -0.0054214587 0.025552431 -0.035686605 -0.0051351134 -0.027516853 0.0037603625
0.028339908 0.009289426 0.019168839 0.029542703 0.0063221306 -0.023657983 -0.046721242 -0.016533434
-0.012131071 -0.015084389 -0.05099254 -0.024996815 -0.0020312003 -0.001324228 0.0153972795 0.002817173
0.04056153 -0.059097107 -0.000997466 -0.016849896 -0.004441491 -0.033152197 0.043607835 0.0032775265
-0.0122055365 0.00067877676 -0.016795091 -0.039975647 -0.019847509 -0.07204254 0.006374522 -0.01556807
-0.040254876 0.02433092 0.024344226 -0.015252118 -0.06576555 -0.0007304459 0.008682177 -0.01101063
-0.015779695 -0.012317028 -0.03893108 0.013764973 -0.020535292 -0.01711016 -0.019523373 -0.022641214
0.03334346 -0.020114534 -0.0050611678 -0.011870844 -0.02331578 -0.010747884 -0.031732686 0.028970513
-0.017454198 0.014876945 0.009335455 -0.021977976 0.012159103 -0.016716724 0.001059123 0.015353149
-0.007768328 0.037496626 0.036263667 -0.021919128 -0.031655796 -0.037262958 -0.0069715846 -0.01572355
0.02211733 -0.009419125 -0.03654238 0.050041348 0.011179978 -0.04209823 0.018844036 -0.02866269
0.026499024 -0.024164068 0.03042857 -0.029632214 -0.012179007 0.00811055 0.006346188 -0.0066931346
0.0007847749 0.008045497 -0.0039260685 -0.010088449 -0.014260777 0.015168738 -0.006725041 0.032272756
0.014938193 -0.0037877196 -0.00571927 0.0043235635 0.024820032 0.005241921 -0.0029741647 -0.051373005
-0.024787277 -0.03659486 0.027672907 -0.005934645 0.0028545416 -0.013324915 -0.04425567 -0.046472926

network_body._body_endoder.seq_layers.2.weight f4 [256, 256]
00000000: 54c3 e4bc 09aa a43d ff2b 55bc 3aa9 e43d
00000010: 8c7e 873d be64 d0bd 8c02 033d 7ce0 283e
00000020: 40ac bb3d 355c ecbd 14b4 f83b bf84 59bc
00000030: 2331 003e e282 58bd 37c1 703c 74f4 d2bd
00000040: 19fc 90bd 42f7 43be c4e2 2bbc 3506 88bd
00000050: df6c 42bd af44 dc3d d070 e8bd dd89 023d
00000060: 8936 b9bd 4a3a 47be 9a63 6abd db7f b53c
00000070: dd59 c9bd eca2 c6bc ac98 c13d 064f 93be
00000080: d8de 203e 18bd 0dbd a2e2 0dbc 2b06 acbc
00000090: 4847 753e eb88 ad3d c42e b03d 6fa2 533e
000000a0: c48b 2ebe 0ec6 2f3d f252 3fbd 927e f8bc
000000b0: 48ab c13a de16 803d a433 8abd 3850 623c
000000c0: 4952 e13d 6751 96bd 2112 a83d 146b 4cbe
000000d0: e1d8 f0bd 6bbd 803d 90f4 bbbd c33d d9bc
000000e0: 35e8 c9bd 0973 da3c 4b64 133e 5b89 45bc
000000f0: ee31 a4bc b05e bbbd f362 233d c456 463d
00000100: 9c63 063e 44db 57bd bfbe 23bb dbe8 053e
00000110: 9ead 0fbd c232 0bbe 6edf 9bbd d7ed f2bc
00000120: 8f10 ac3d d30e 17be fed6 dc3d 5b1a d03c
00000130: a5c5 04be 8142 193e e26d f83d ddd0 42be
00000140: cef0 30bc 6a49 143e 7e95 07be fdc5 06be
00000150: ec9c 053e 3aab 243d 740c 3f3d 1260 afbd
00000160: 430b 1bbe 03e1 32bd caee 853d 26ac d73c
00000170: c13a 323c c1fe c3bd 5883 46bd d46f 15be
00000180: cc54 fe3d 10a2 e53d ae6d 1f3d 4e70 0dbc
00000190: 6095 27be f85b 2a3d d5c3 91bd eb4a f9bd
000001a0: 06a7 8dbc afc5 493d d0b2 cdbc 5a8f ec3d
000001b0: 3582 683d 014f f93d 892f c8bd ddf5 5d3d
000001c0: 771c b5b9 04b8 aabe 97df b1bd 6eca 8fbc
000001d0: b260 abbd b040 52bd 9f2e c73a aa38 ccbd
000001e0: 6f59 aebc 9026 d83b fd07 b6bd 5460 c13d
000001f0: 9770 d4bd 6d4a edbc 2f5d bcbb ca55 b63b
00000200: e8e6 a43d 6140 0b3d 4f83 a83d c64b 58bd
00000210: 1770 e7bd 08d9 96bd 7839 353e 2cac c0bc
00000220: e196 363d 31cc 2d3b 9613 933d c343 20be
00000230: 7f63 933c 5689 21be a6b2 bfbd 4349 7e3d
00000240: 375d 2dbe bf6c 06be 45a9 033e b482 10be
00000250: f02b be3a 07e9 cdbc 0e79 03bc 53f0 383e
00000260: 06b5 773d c8f0 1cbe 30a2 47be c939 9fbd
00000270: e31b 623d b64e 8bbd 592a 253e d1c7 8abd
00000280: ae83 893c 5a15 3e3e de7d e7bc 286e 31bd
00000290: 80eb 6b3c 1960 6d3d ba63 4dbd 38c6 193c
000002a0: fef0 95be bef6 023e 6c0c 3e3d 4c28 a7bb
000002b0: df59 893d 0df4 073d bf0c 8abd bbe9 203e
000002c0: 3aa1 f13d 4911 47bd 478b 4fbe dd9e 6d3e
000002d0: b654 0cbd c7ab a5bd 5c9d e53c 2056 5dbd
000002e0: e582 52bc 0e3d 24be 6455 97bd 705b 383e
000002f0: 431f f43b d0c3 c63d 59db 013e 0235 213d
00000300: b9d3 eabd d972 20bd e197 e83c 0898 953c
00000310: 76c6 19be 29a4 c9bc e240 9e3e f84c 433e
00000320: 5bfd d0bd 5037 07bd 4246 19be fcc9 1c3e
00000330: edee 563e cdc7 07be 2bae 86bd 95ec 02bd
00000340: bf77 c03d 21cd 143d ff18 283e c6c5 ec3d
00000350: 8478 9e3d fa23 a0bd d8a3 283d c52c 8c3d
00000360: 552d c8bc 0464 7c3d 1819 1d3e 1c67 b93d
00000370: 5ab7 d1bd 44b2 8c3c 168d c3bd 966f fabc
00000380: 026f d7bd 14b4 61bd fab5 86be 2476 ef3d
00000390: 1c44 2ebd cce7 4e3e 40ff 04be 6a3c 91bd
000003a0: 275a e4bd e9c7 00be 0636 533c d052 17bc
000003b0: 82f0 133e 2c6a 623d b24f 40bd ec3b a7bd
000003c0: 5fe1 79be a187 26be 0348 e93c a3c0 2bbe
000003d0: e9ee 25be c493 7fbd ee19 fd3d 8c72 0bbe
000003e0: 6187 043d 11a6 063d 70f8 84bd 90cb 08be
000003f0: 2177 113d 2a3d a73b 3eb0 80bd 7df5 81bd
-0.027925171 0.08040244 -0.013010978 0.1116509 0.06615934 -0.10175465 0.03198485 0.16491884
0.091637135 -0.115410246 0.0075898264 -0.013276278 0.12518744 -0.052859195 0.0146945035 -0.10300532
-0.07079334 -0.1913729 -0.010491077 -0.06641809 -0.04746711 0.10755288 -0.11349642 0.031869758
-0.09043605 -0.1945583 -0.057223894 0.022155693 -0.09831593 -0.02424761 0.09452948 -0.28771228
0.15710008 -0.034604162 -0.0086599905 -0.020999035 0.23952973 0.08473381 0.0860267 0.20667432
-0.17045504 0.04291349 -0.046709962 -0.03033379 0.0014775777 0.062543616 -0.06748131 0.013813071
0.11002023 -0.07339745 0.08206583 -0.19962722 -0.11760116 0.062861286 -0.09177506 -0.026518708
-0.09858743 0.026666181 0.14393727 -0.012056674 -0.02004334 -0.091489196 0.039889287 0.04842259
0.13123935 -0.052699342 -0.002498552 0.13077109 -0.035077684 -0.13593581 -0.07610975 -0.029654427
0.08401596 -0.14751749 0.10783194 0.025403192 -0.1296602 0.14966775 0.121303335 -0.19024988
-0.0107996 0.1448113 -0.1324062 -0.13161464 0.13048142 0.040202357 0.046642736 -0.08563246
-0.15141015 -0.04367162 0.06539686 0.026327204 0.010878266 -0.09570075 -0.048465103 -0.1459344
0.124185175 0.112125516 0.038922958 -0.008632733 -0.16365576 0.041591614 -0.0711743 -0.121724926
-0.017291557 0.04926079 -0.025109679 0.1155078 0.0567648 0.12173272 -0.097746916 0.05418955
-0.00034544218 -0.33343518 -0.086852245 -0.01755258 -0.083680525 -0.051331222 0.0015196389 -0.09971745
-0.02128288 0.006596394 -0.088882424 0.09442201 -0.10373037 -0.028966153 -0.005748413 0.005564426
0.08051854 0.033996943 0.0822817 -0.05280664 -0.11300676 -0.07365614 0.17697704 -0.023519598
0.044577483 0.0026519413 0.0718147 -0.15650849 0.01799178 -0.15775046 -0.09360246 0.062081587
-0.1693009 -0.13127421 0.1285754 -0.1411236 0.0014508944 -0.02513553 -0.008024467 0.18060426
0.06047537 -0.15326226 -0.19495463 -0.077746935 0.055202376 -0.06802122 0.16129436 -0.06776393
0.016786423 0.18562832 -0.02825826 -0.043317944 0.014399409 0.057952974 -0.050143935 0.009385638
-0.29285425 0.12789437 0.046398565 -0.0051012393 0.06706595 0.03319173 -0.067407124 0.15714161
0.1179833 -0.04860047 -0.20267974 0.23205133 -0.034260474 -0.080894046 0.028029136 -0.054037213
-0.0128485905 -0.16038916 -0.07389334 0.1800363 0.0074500157 0.09705317 0.1268133 0.039357193
-0.11466164 -0.039172027 0.028392734 0.01826097 -0.15017113 -0.02461441 0.30908877 0.1907233
-0.10204574 -0.033011734 -0.14968207 0.15311426 0.2098958 -0.13259812 -0.06576189 -0.031963903
0.0939784 0.03632844 0.16415785 0.1156116 0.0773783 -0.07819362 0.04117188 0.068444766
-0.024435678 0.06161882 0.15341604 0.0905287 -0.1024005 0.017174847 -0.095483944 -0.030570786
-0.1051922 -0.055103377 -0.26310712 0.116924554 -0.042545423 0.20205611 -0.12987995 -0.07091601
-0.11150008 -0.1257626 0.012891298 -0.009236053 0.14447215 0.055277035 -0.046951003 -0.08165726
-0.24402378 -0.16262676 0.02847672 -0.16772704 -0.16204418 -0.06239678 0.12358461 -0.13617915
0.03235567 0.032873217 -0.06492698 -0.13358903 0.035514 0.005103727 -0.062836155 -0.06345651

network_body._body_endoder.seq_layers.2.bias f4 [256]
00000000: c743 40bd 0b02 843a 6cbd 4b3d d0b3 0abd
00000010: 966a d1bd dbaf 22be eb55 08be 5bed ebbb
00000020: 6650 ffbd a8d1 c1bc bc60 6bbd 3cdf d7bd
00000030: 05e8 54bd 99fc 4dbb 9ae6 d2bd 780c 983c
00000040: 737c fcbd 7c69 febb 1887 50bd 8c10 46bc
00000050: e5e1 273c 4c44 993c 361d bbbc 4bc8 6ebd
00000060: c316 28bd 4f20 253b ed51 84bd 09b5 48bd
00000070: 9596 7fbd 7398 10be db2e 3bbe 9710 63bc
00000080: ffe5 17ba 709e 223d ef1f 7cbd 62e6 b93c
00000090: dd16 fd3b 77de a93c 3a76 353c 9651 04be
000000a0: 06b6 bebb 7245 0b3d 91d3 a83c 82e6 3f3b
000000b0: e5fc bebd fde5 d83c 7061 56bd 31db ddbb
000000c0: f56d fa3c 08b3 ee3c c3d2 533d 2dca ebbc
000000d0: fade 983c 0396 d7bd e8e7 fcbc 48ff bbba
000000e0: 9c76 bbbc 73f6 de3c 9882 463c cc92 0dbd
000000f0: e2ec 5abd 49f4 20bd 07ac 26bd fc30 df3c
00000100: c109 7cbd 26f4 62bc b4cb 79bc 31a7 b9bc
00000110: e7b6 30be cd4b 993c 54df edbd 59c8 9bbc
00000120: 1981 1dbd 2880 0ebe 9ae7 513c 0d6a cebd
00000130: 35ac 46bd 828e d33c 0c17 f3bc 0059 d6bd
00000140: ed35 4dbd 5a80 d73c 538b 19bb 9935 ad3c
00000150: 8519 0bbe 7fbb b53c 6ba1 63bd 522f 1dbe
00000160: 5bfa e7bc 3845 04be 5243 883c 6576 d63c
00000170: e6bc 123a fb2c c93c e86b b1bd 64fc 82bc
00000180: 909b 93bc bb7b b0bd 3b26 4bbd 2eb8 99bd
00000190: 37f9 8e3c 3aea 5b3b c22c 9c3c a11d e3bc
000001a0: fa01 66bc a06b 71bc 256f a1bc 612c 0fbe
000001b0: 983b ab3c 483d 06ba 2619 f7bd a5be b93a
000001c0: 9d71 37be 6ff0 44bd 73d5 a5bd 6cdf 40bd
000001d0: d637 8e3d b09a 35be 2475 31bc 2c8d 31bd
000001e0: dff7 89bc e2ea d9bd 6714 95bd 4b03 91bc
000001f0: 01a0 fbbd 0142 c73c f392 5f3d 36f5 903c
00000200: 2e66 7ebc 3723 adbc 50be 2fbc e3f0 15be
00000210: 6331 07be a50b 07be e837 85bc 5db7 a4bd
00000220: cfc0 0dbd 94d3 b13c 2b8c 99bc 52ef 0ebe
00000230: 310e 06bd f6ba 0abd 2966 453c 6321 1cbe
00000240: 3d0c dbbd 4a2a fcbd a660 28ba 0998 843d
00000250: 83a3 e3bd c0f2 e6bb 26d4 8a3c 771a 2f3d
00000260: 4e6b d4bc 0f74 c73c 4c1f 43bb c343 14be
00000270: d3fe 033c 1dda 11be 7967 42bc e8d5 dcbd
00000280: 50a7 6cbc cb05 58bd 7c79 a3bc adf6 63bc
00000290: 13fc c53c a8e4 cebc b801 c6bc 4be1 2d3b
000002a0: 4882 fabc 9325 27be 58f7 5cbd 4008 c7bd
000002b0: a814 ac3c 8520 94bd fbf8 f3bc b61d 0cbd
000002c0: 812b 0dbe de09 d9bd 8ec4 b73c ce16 0e3d
000002d0: 9f6d 59bd e38d 30bc 1c37 7d3d 59eb f83c
000002e0: 1419 b5bc 266e 55bc 9718 dcbd d7cd 89bb
000002f0: 0ea4 183d 591b b1bc c4ca 10bd 7000 6cbd
00000300: eb45 2fbd 669c cfbd 009d cdbc 3392 c93b
00000310: 5c1f 08be 6fe4 c3bc b84d e2bc 5280 41bc
00000320: b49b f0bb 3cff 09bd 980f cdbc cc4b 76bd
00000330: 1393 26bd 7ae8 01bd bdb3 8dbc 3656 e9bc
00000340: fa29 ec3c 2bca 253c 11d4 0ebe b9e5 8dbd
00000350: f315 9bbc f1c8 63bc 2b5b e9bd 565a 86bc
00000360: b415 a2bd 9862 cdbd fe08 6439 4d38 09be
00000370: c4e6 2f3c 4f63 103d 3446 21be 8199 4dbd
00000380: 7e87 603d 7a1c f9bc c643 07bd 1e79 03be
00000390: bdeb bbbc 92c9 1bbe a068 a9bb 3f36 c3bd
000003a0: 4110 eebd 2b2a de3c 8168 febd 5b19 263c
000003b0: 3dae e839 eaf4 0abe 32d7 81bd 3023 c7bd
000003c0: 72ca d33c 947f b0bd e085 ddbd da79 33bd
000003d0: 9080 ebbc 5188 a0bd bcd5 cabc ebe9 aa3a
000003e0: c0ab 8abd a663 4cbc 2ecf 7ebc 3ae9 9c3c
000003f0: 0441 91bd 8a88 8ebc 4a65 fbbd ca89 8ebc
-0.046939638 0.001007141 0.049741194 -0.03386289 -0.10225408 -0.15887396 -0.13314025 -0.007199926
-0.12466507 -0.023659542 -0.0574653 -0.105406255 -0.051979084 -0.0031431078 -0.1029789 0.018560633
-0.12328424 -0.0077640396 -0.050910085 -0.012088906 0.010246729 0.018709324 -0.022841077 -0.058296483
-0.041037332 0.002519626 -0.064609386 -0.049000774 -0.062399466 -0.14120655 -0.18279593 -0.013858936
-0.0005794465 0.03970188 -0.06155389 0.022692863 0.007723673 0.020735962 0.011075551 -0.12921748
-0.0058200387 0.034001775 0.020608695 0.002928168 -0.093255796 0.026476854 -0.052339017 -0.0067705144
0.03057001 0.029138103 0.05171467 -0.028782928 0.018661011 -0.10526659 -0.0308723 -0.0014343048
-0.022883706 0.027217126 0.012116097 -0.034563825 -0.053448565 -0.03929547 -0.0406914 0.027245037
-0.06153274 -0.013852155 -0.0152463205 -0.02266273 -0.17257272 0.018712902 -0.11614862 -0.019016432
-0.038453195 -0.13916075 0.012811566 -0.10078821 -0.048504073 0.025824789 -0.029674076 -0.10466194
-0.050100256 0.02630632 -0.002342899 0.021143721 -0.13583954 0.022184132 -0.055573862 -0.15350083
-0.028317621 -0.1291703 0.016633663 0.026179502 0.0005597606 0.024557581 -0.086631596 -0.01598949
-0.018018514 -0.0861735 -0.049597006 -0.075058326 0.01745282 0.0033556358 0.019064311 -0.02772409
-0.014038557 -0.014735132 -0.019706318 -0.13981773 0.02090244 -0.0005120826 -0.120653436 0.0014171196
-0.17914434 -0.048080858 -0.08097353 -0.04708807 0.069442436 -0.1773479 -0.010831151 -0.043347523
-0.016841827 -0.106405035 -0.07279282 -0.017701766 -0.12286378 0.024323465 0.0545835 0.01769505
-0.015527291 -0.021134956 -0.010726526 -0.14642672 -0.13202433 -0.13188036 -0.01626201 -0.08042786
-0.034607705 0.021707334 -0.018743595 -0.13958481 -0.032728378 -0.033869706 0.012048283 -0.15247111
-0.10695694 -0.123127535 -0.0006423093 0.06474311 -0.11115172 -0.007047981 0.016946863 0.04274985
-0.025930073 0.024347333 -0.0029773293 -0.14478974 0.00805636 -0.1424336 -0.01186549 -0.10782987
-0.014444187 -0.0527399 -0.01995539 -0.013913793 0.02416805 -0.025255516 -0.024170741 0.002653199
-0.030579701 -0.16322927 -0.053946823 -0.097183704 0.021005943 -0.07232765 -0.02978181 -0.034208022
-0.13786127 -0.10597585 0.022432592 0.034689717 -0.05308306 -0.010776016 0.061820135 0.03038566
-0.022106685 -0.01302675 -0.10746878 -0.004205446 0.03726583 -0.021619486 -0.035349622 -0.057617605
-0.04279129 -0.101372525 -0.025099277 0.0061514615 -0.13293213 -0.023912637 -0.02762495 -0.011810379
-0.00734278 -0.033690676 -0.02503185 -0.06013088 -0.040667605 -0.031715848 -0.01729762 -0.028483491
0.02882861 0.010119001 -0.13948084 -0.06928582 -0.018931365 -0.013902889 -0.11394342 -0.016400497
-0.07914296 -0.10028571 0.00021747124 -0.13400383 0.010736171 0.035250958 -0.15749437 -0.05019522
0.054816715 -0.030409086 -0.03302362 -0.12839171 -0.022939557 -0.15213612 -0.005169943 -0.09531831
-0.11624194 0.027119717 -0.12422276 0.010137881 0.00044380306 -0.1356999 -0.063398734 -0.09723508
0.02585337 -0.086180836 -0.1081655 -0.04381738 -0.028747827 -0.078385 -0.02476012 0.0013039684
-0.0677104 -0.01247493 -0.015552325 0.01915418 -0.07092479 -0.017399091 -0.12275179 -0.017399687

action_model._discrete_distribution.branches.0.weight f4 [3, 256]
00000000: d81f 4fbd ad40 d1bc 0d2d 20bd 8505 7fbd
00000010: bf6f 2e3d 989b eb3c cc8c 44bd 6dc3 79bc
00000020: aa04 313c 8492 47bd d0f8 2cbd b087 11bd
00000030: 39f2 66bd 52d1 893c 8723 833c 6c88 d73c
00000040: f964 1cbd 520e ae3c b851 aa3d 6285 c8bc
00000050: fcfa 863b 508b 71bc 8d23 10bd 044d 4f3b
00000060: ab1d 363d 77dd 093d cffa 5d3d c582 163d
00000070: 9704 763d 447d 4cbd 3bb4 4ebc 1eaf 733d
00000080: 43f6 8c3c 57ad 4f3d 5aaa 14bd e9a6 fcbd
00000090: 5a93 c83c ea02 a73c fb3b 3dbd ee89 0dbd
000000a0: 929e 843d 63ac 0d3d 4e81 223d 45c7 1e3c
000000b0: 84db 373d f81e 7e3d 78de 343d a37f 983c
000000c0: 2ba4 eb3c 5ab5 943c 2e59 db3a ef4d df3c
000000d0: 24ae 733b ebc9 c7bc d3f1 c8bd 6b3c cb3c
000000e0: 4ec0 d43d b760 593b 32ba 973c d96f 80bc
000000f0: 5596 853b cf77 36bc 0a35 08bb 0b42 043c
00000100: edcf a4bd 9cb9 3a3d 1178 8e3b cc2c b7bc
00000110: 754b 6ebc fd00 f43c def2 8abd e5d3 9bbc
00000120: 02c7 50bd a3e8 acbc 9149 093c a8ee d83a
00000130: 8dfe d03c 2e04 183d 1357 c13b 3f50 6abc
00000140: df43 513c 7d41 033d ea9d 54bd e798 58bc
00000150: 0909 1a3c d363 373d d263 7b3c d7aa e83c
00000160: 808d d4ba 28f4 abbc 8168 5bbd a166 883c
00000170: ac90 8939 2195 183d 3784 63bc f59e 283d
00000180: 2b93 133d 85e1 c93c 9c4f 683d 2c2c 9ebc
00000190: 6a81 793d 9eb3 30bd 19ed 4e3b 4d12 8f3c
000001a0: bdbb 73bd a69a 893b abda 18bc 49e1 c3bc
000001b0: e757 29bd 4751 0ebd f68f 87bc 4c35 f33c
000001c0: 5d9a bbbc 570e 8bbd 03ed cd3b fbfe 51bc
000001d0: ec50 bd3b 2130 093c 29e2 133d 5423 50bd
000001e0: 7aca 073d c5af 07bc 4926 fabc 8e02 abbc
000001f0: 7a2d 14bd b604 ea3b 1e48 00bd 70a7 833c
00000200: 86ab 22b9 da05 62bd 663a 2abd d57a 18bd
00000210: f41b 1bbc ecbe df3b c1f3 fe3c 76db 973b
00000220: a2fa 09be 9b9b 5d3d 3f57 953a 071b c33c
00000230: 00f3 8b3c b446 2bbb c581 6e3d b040 ddbc
00000240: 12ff 383d 9bb0 aebb b7c8 d63c a70e 963b
00000250: 0561 9cbc 9511 ed3c 3037 ab3c fd9c 30bc
00000260: c210 02bd 2aaa f73b bb22 023c b609 29bd
00000270: 8b9f 073d 5921 733c e57d ae3d ac6e b9bc
00000280: 7999 e93c 8203 2dbd e480 acbb 47da 9f3c
00000290: 3965 b63c 5df3 49bd 6c76 03bc 2ba8 2fbc
000002a0: f700 253d 1f20 803c f9d8 cf3d cb79 d23b
000002b0: a0fc ac3c cfd5 283b 6dba 16bd d25a ca3c
000002c0: cf01 b93c b2a6 33bd cdbf a63b 78eb 043d
000002d0: 2a40 2fbd 817d af3c 9edb ad3b 302b e73c
000002e0: e72a 493c ab97 5b3d 8e8e 9f3d e6c7 b33c
000002f0: dcd2 953c 5163 b0bd 3259 bf3b f639 7abb
00000300: 932e 5fbd d7c5 d3bc b6ea a8bb e735 58bd
00000310: 3849 0abd 8aa4 4fbd b179 483c e217 6e3d
00000320: 87d8 5fbd dcc0 8a3d f44f 943c a56f 64bc
00000330: 9abf 403c d475 dc3c bdd6 f6bc 391e 143d
00000340: 7c5f f63c a0ab 8d3d fa16 ee3c 944b 32bd
00000350: 8c26 84bd 67cb e2bc bc6d 09bc ba5d 82bd
00000360: 29bc 39bd ba0f 85bb d6b0 8f3c 7edd da3b
00000370: 8d2d 86bc 9295 cd3c 03ba b4bc eef0 4dbd
00000380: b8b8 05bc 3464 a1bd 0f35 f73b dbf5 6d3d
00000390: ea9e fa3c 1fac 493d 8282 093c 0969 42bd
000003a0: 1030 933a 2f20 ce3c aa81 0aba f838 fc3c
000003b0: 8282 e83c 14f0 a6bb ec2f 9cbd 8961 d0bc
000003c0: 6335 2ebd 1904 7dbc 9363 b1bc 0141 68bd
000003d0: 1867 2cbd c342 e2bc 3ed9 ecbc 72ad a9bc
000003e0: 509b c4bc 4f68 1d3c 5515 23bd c15d b03c
000003f0: 4734 87bd 50cf 5b3d 7b6f 28bd 6a77 aa3c
-0.050567478 -0.025543535 -0.039105464 -0.062261123 0.042587038 0.028760716 -0.047985837 -0.015244347
0.010804335 -0.048723713 -0.042229474 -0.035529792 -0.056383345 0.016823445 0.016008152 0.026310168
-0.038182233 0.021247063 0.08316368 -0.024477664 0.004119275 -0.014742687 -0.035190154 0.0031631598
0.044461887 0.03365847 0.054194268 0.036745805 0.06006297 -0.04992415 -0.0126162125 0.059493177
0.01720727 0.05070242 -0.036295272 -0.12336523 0.024484325 0.020387132 -0.04619978 -0.034555368
0.064755574 0.03458823 0.039674096 0.009691064 0.04488708 0.062041253 0.044157475 0.01861555
0.028764805 0.018152881 0.0016734952 0.027258841 0.0037182653 -0.024388274 -0.09811749 0.024809083
0.10388242 0.0033169219 0.018521402 -0.015678333 0.004076759 -0.011136963 -0.0020783567 0.0080723865
-0.08047471 0.045587167 0.004347809 -0.022360228 -0.014544358 0.029785627 -0.067846045 -0.019021938
-0.05097104 -0.021107024 0.008379356 0.0016550617 0.025512004 0.03711336 0.0059002726 -0.014301359
0.012772529 0.032044876 -0.05190841 -0.0132200485 0.009401568 0.044772934 0.015343623 0.028401775
-0.0016216487 -0.020990446 -0.05356646 0.0166505 0.00026238465 0.037251595 -0.013886503 0.04116722
0.036029022 0.024643669 0.056716546 -0.019308172 0.060914434 -0.043140046 0.0031574427 0.017464781
-0.059505213 0.0041993437 -0.009329478 -0.023911135 -0.041343596 -0.03474548 -0.016548138 0.0296885
-0.022900755 -0.067898445 0.0062843575 -0.01281714 0.005777469 0.008373291 0.036104355 -0.05081494
0.03315208 -0.008281653 -0.030535834 -0.020875242 -0.036176182 0.007141675 -0.031318776 0.016071051
-0.00015513421 -0.05518136 -0.0415596 -0.037226517 -0.009467114 0.0068281796 0.03112209 0.004634316
-0.13474515 0.054103475 0.0011393799 0.023816599 0.017083645 -0.0026134672 0.058229227 -0.027008384
0.04516513 -0.0053311116 0.026218755 0.0045793834 -0.019089231 0.028939048 0.020900339 -0.010779616
-0.031754263 0.007558127 0.007942851 -0.041269027 0.033111136 0.014839494 0.08520106 -0.02263578
0.028515564 -0.042239673 -0.0052643884 0.019513262 0.022265064 -0.049304355 -0.008023839 -0.010721247
0.040284123 0.015640317 0.10148806 0.0064232103 0.021116555 0.0025762205 -0.036798883 0.02470151
0.02258387 -0.043860145 0.0050887824 0.032451123 -0.0427858 0.02142215 0.0053057214 0.028218836
0.012278295 0.05361144 0.07790862 0.021945905 0.018289022 -0.08612693 0.0058394903 -0.003818152
-0.054487776 -0.025851173 -0.005154933 -0.05278578 -0.033761233 -0.050694026 0.012236045 0.058128245
-0.054649856 0.06775066 0.01810453 -0.013942634 0.011764431 0.026911654 -0.030131692 0.036161635
0.030074827 0.069175005 0.02906369 -0.04352911 -0.06452665 -0.02768488 -0.008387979 -0.06365533
-0.04534546 -0.0040607126 0.017540377 0.006679236 -0.016379142 0.025095735 -0.022061354 -0.050278597
-0.008161716 -0.0788044 0.007544167 0.058095794 0.030593354 0.049236413 0.008392932 -0.04746345
0.0011229534 0.02516183 -0.00052836037 0.030788884 0.028382543 -0.0050945375 -0.07626328 -0.025437133
-0.042531382 -0.0154428715 -0.021653926 -0.056702618 -0.042090505 -0.027619725 -0.028912183 -0.020712588
-0.02399984 0.009607389 -0.039815266 0.02152908 -0.06601768 0.053664505 -0.04112194 0.020808894

action_model._discrete_distribution.branches.0.bias f4 [3]
00000000: cb46 d83c 3ab4 a33d 2ffb 5abe
0.026400944 0.0799336 -0.21384881

action_model._discrete_distribution.branches.1.weight f4 [3, 256]
00000000: 62fd 293d 3c46 ae3c a0aa bdbd 46db 1ebd
00000010: 6ba1 cb3c 8659 59bd 467e a2bd 4ab4 15bd
00000020: 77a2 a0bd 1d32 a7bd bc31 fbbc 8687 7bbd
00000030: 3ca1 833d 1eed 2cbc e6e3 acbd 0d8a a3bb
00000040: e2c9 afbd 0e16 b53a 9f91 f43d d595 59bc
00000050: 45fb 17bd c507 8dbb cd3a 06bd cb16 bf3c
00000060: 4ef1 0d3d 77c5 02bd 7675 703c 710c 17bc
00000070: 34c8 333d 19c6 b7bd 28ba 04bd 1e34 75bc
00000080: 99ab 16bd f7ef 983b 8b97 35bd 24d6 44bd
00000090: 7251 223d dd98 b9bc e9b0 15bd b46e a1bd
000000a0: 906f b03d 9b29 e7bc 0709 c3bc ca7a 463b
000000b0: f384 c9bd ab9d a33d 2e36 043c d7da 49bb
000000c0: cde9 fd3b ca4a bebc 44f6 863c 2cee f63c
000000d0: 731f 8b3c 6bfc 383c 82a6 cdbd 6d3c 103d
000000e0: 48fb 803d 7e99 0c3d c888 9bbc bd29 573d
000000f0: b92f 91bc 158c 0e3c e82a debc eb79 113d
00000100: cd59 9bbd 43be 78bd d142 30bd b658 c4bd
00000110: 1474 19bd 4c6c a33c d07c bcbd 125d f8ba
00000120: e6e7 803d f3ec 1bbd 0297 37bd 6b91 85bd
00000130: 71b2 b63c 9aff e03b 3101 8bbc 586d 99bd
00000140: 9d47 83bd f2c4 04bd a987 f1bc e9a7 23bd
00000150: 9003 1abc a6e7 cb3c 539f 17bd d5a4 253c
00000160: 9daa 47bc ff07 babd be19 273d 92eb 1abd
00000170: 69b5 27bd a175 093d 935e 68bd 36f9 0f3d
00000180: 5679 ba3c 2d9b 21be b721 993c 874d 99bd
00000190: 74bd 3d3d 4d1b b939 3cfc d53c ab00 6f3c
000001a0: a5f8 a3bc 46ed 553c c105 43bd 703e 32bd
000001b0: 488c a5bd ae9d eebd 59ea adbd 9d25 01bd
000001c0: f824 57bd 1364 7ebd 4174 1e3b 8a77 40bd
000001d0: 2c66 753d 28d4 03bd 133a 043b 0c57 1d3d
000001e0: ff67 88bd 2414 b6bd 53b8 e7bd 7b80 0f3d
000001f0: 757e 61bd 4073 a3bc 6879 44bd 2e33 1ebd
00000200: c733 2bbd d1f4 683d cc5a c23c 260d 69bd
00000210: 10ba 42bd d1fd 0abc 22f9 72bd d1b4 f73b
00000220: 61af 81bd dc95 b9bc 3143 793c 710a 94ba
00000230: 858a 6cbc 0a94 2a3b 31de bb3d a98b 21bd
00000240: 5bd9 0b3b 0c50 24bd f191 253c d658 553c
00000250: 159c 84bd 3118 8dbc 1a99 13bb 7ff5 a7bd
00000260: 7d0d 17bc 7deb a23c 6c5a 4e3d cccc 8cbd
00000270: 1c8d 5e3c 0ffc 1abd 526c 293d 2b0b a2bd
00000280: 76e0 1bbd 5122 a6bd 5513 c13b 5875 43ba
00000290: eeff 9c3c e47e 7b3d 338d 86bc a218 fc3b
000002a0: b40d efbc 531a 8bbb a7fc 793d f306 a5bd
000002b0: 30e9 d83c 2850 f4bd 62a1 6ebc 36c8 493c
000002c0: 37cd 6bbd fcff 31bd d825 f0bc 81c2 c5bc
000002d0: 38fb 603d 5596 26bc 71d2 813c 413d a93c
000002e0: a29b 71bc ced4 593c d84c f03c 6a99 4abb
000002f0: 54f7 e03c ca3a febc 321a 713b b4cf 133b
00000300: b0a2 43bd 63c9 7dbd c159 0b3d e5a4 75bd
00000310: 3717 9bbd 7552 1bbd 6b0d adbb dcb6 253d
00000320: 9ce5 b1bd 2952 ba3d 6ea4 3a3d 2bde 453b
00000330: 50c2 173b a339 c13c accb ccbd f538 0fbd
00000340: 483b a13c 850b 983d 97df 3cbd 653f 8dbd
00000350: 0a94 643d 37c4 dcbb cb89 f7bd c2e5 f83a
00000360: 94a0 8abd 7b0e 02bd 5ed6 a7b9 5540 17bd
00000370: 8e13 eabc 4974 c9bc 9cd8 96bd 6f67 a73d
00000380: c88a 173d d73b 82bd 0f16 e8bd d451 943d
00000390: 48db c2bb 060a d33a efc4 933c 3d58 b5bd
000003a0: 4ae4 a5bd 3374 cfbc 6e6e 95bd 0198 d5bb
000003b0: 49c7 91bb f03e 7cbd 734e b73c b133 b9bd
000003c0: 0f38 f03c c464 83bd 4408 f2bd 526d e6bd
000003d0: f91d c7bc 1e3e ecbd 54e5 bf3c d48e 0fbe
000003e0: 346f dfbc 5502 423b aa86 adbd c6b9 c5bd
000003f0: 952f 61bd abd5 203d ac99 a4bd 95be 1e3c
0.04150141 0.021273725 -0.0926106 -0.038783334 0.024857244 -0.05306389 -0.07934241 -0.03654889
-0.07843488 -0.08163855 -0.030663364 -0.061408542 0.064272374 -0.01055458 -0.08441906 -0.004990822
-0.08583428 0.0013815777 0.119418375 -0.013280352 -0.037104864 -0.0043039047 -0.03277092 0.023326298
0.034653954 -0.0319266 0.014676442 -0.009219275 0.0438921 -0.08973331 -0.032404095 -0.014966039
-0.036784742 0.004667278 -0.044333976 -0.048055783 0.039628454 -0.022655899 -0.036545668 -0.07882443
0.08615029 -0.028218081 -0.023808016 0.003028559 -0.09839811 0.07989057 0.008069558 -0.0030800605
0.0077488185 -0.023229022 0.01647485 0.030142866 0.01698277 0.01129065 -0.100415245 0.035213877
0.06297928 0.03432607 -0.01898612 0.05253004 -0.017722951 0.00870039 -0.027120069 0.03551666
-0.075854875 -0.060728323 -0.04303247 -0.09587233 -0.037464216 0.0199491 -0.092034936 -0.0018948636
0.06294231 -0.03806777 -0.044821747 -0.06521877 0.022301884 0.0068664076 -0.016968342 -0.07491559
-0.064101435 -0.032414384 -0.029483633 -0.039955053 -0.009400263 0.024890732 -0.037017178 0.0101101
-0.0121866735 -0.090835564 0.040796034 -0.037822314 -0.04094449 0.033559445 -0.056730818 0.035149775
0.022762936 -0.15781851 0.018692834 -0.0748549 0.046323255 0.0003530629 0.026121251 0.014587562
-0.020016024 0.013057059 -0.04761291 -0.043516576 -0.08083397 -0.11651169 -0.08491964 -0.03153001
-0.05252549 -0.062107157 0.002417818 -0.046989 0.05991189 -0.03218475 0.0020176216 0.038413092
-0.06660461 -0.0889056 -0.11314454 0.035034638 -0.05505224 -0.019952416 -0.047967345 -0.038623028
-0.041797426 0.0568741 0.023724936 -0.056897305 -0.047540724 -0.008483366 -0.059319623 0.007559397
-0.06332279 -0.022654466 0.015213774 -0.0011294616 -0.0144373225 0.002602818 0.09173239 -0.03943983
0.002133927 -0.0401154 0.010105596 0.013021668 -0.06475083 -0.01722345 -0.0022521676 -0.082011215
-0.009219524 0.01988768 0.0503792 -0.068749994 0.013583448 -0.037838038 0.041363068 -0.07912286
-0.03805586 -0.08112014 0.005892197 -0.0007456145 0.019165006 0.06140031 -0.01642475 0.007693366
-0.029181339 -0.0042450815 0.061031964 -0.08057966 0.02647838 -0.11929351 -0.014564844 0.0123158
-0.057568755 -0.043457016 -0.02931492 -0.024140598 0.05492708 -0.010167678 0.015847417 0.020659091
-0.014746578 0.0132953655 0.029333517 -0.0030914196 0.027461685 -0.031033892 0.0036789295 0.002255422
-0.047762573 -0.061959635 0.034021143 -0.05997171 -0.07572787 -0.037920434 -0.0052811406 0.04045759
-0.08686373 0.09097702 0.04556697 0.0030192237 0.002315659 0.023587054 -0.09999785 -0.034966428
0.019681588 0.07424072 -0.04611167 -0.06896857 0.055805244 -0.006737258 -0.12086829 0.0018989372
-0.06768909 -0.03175209 -0.00032012438 -0.036926586 -0.028573778 -0.024591582 -0.07365534 0.08174025
0.036997586 -0.0635907 -0.11332332 0.0724217 -0.0059465505 0.001610101 0.018038241 -0.08854721
-0.08100183 -0.025323963 -0.072964534 -0.0065183644 -0.0044488055 -0.06158346 0.022376275 -0.090430625
0.029323606 -0.06415704 -0.11817983 -0.1125132 -0.024306284 -0.115352854 0.023424782 -0.14019328
-0.027274705 0.002960344 -0.08472951 -0.09654574 -0.05497702 0.03926627 -0.08037123 0.009688993

action_model._discrete_distribution.branches.1.bias f4 [3]
00000000: f7c9 b5bb 590f 0abd 9d38 2c3c
-0.0055477577 -0.033706043 0.0105115445

action_model._discrete_distribution.branches.2.weight f4 [2, 256]
00000000: b538 45bd 416f 093d a200 b13c a786 1d3b
00000010: 7ba2 ceba 7f16 b1bd 8ef3 74bd edf2 813d
00000020: 31ba a9bc 6685 34bc 4ff7 f43c 23c2 2bbd
00000030: 6125 cbbd 33d9 143e 7915 b1bc 1191 5bbc
00000040: 8156 37bd bdf6 8d3d 5533 e3bc ea90 7c3c
00000050: b35b 6a3d dc24 913d 5d1d 5a3d 4a11 a03c
00000060: 78b3 733c aeed be3b 4d1a ff3a 97e8 573c
00000070: ecb2 9739 8809 b2bd 63f6 e2bd 80eb 0b3d
00000080: b50d 97bc 4d28 df3c 9b35 3fbd 1384 fd3b
00000090: 6f71 de3b 9584 a73b 039f be3d 7c08 cdbd
000000a0: 5885 ccbc 5433 8fbc bd05 4c3d 46c3 9ebb
000000b0: 4382 11bd d8c7 3ebc 6f8e 543c 6bc5 013b
000000c0: c5f6 24bc e3a2 eb3d 0d7e 613e d128 85bb
000000d0: 1b78 a83d 6950 8abd da8c c8bd e14b 033c
000000e0: f965 40bd 3668 d43d aff2 25bc 2582 06bd
000000f0: 86b3 99bc d325 f13c ed4f f33c d1de e63d
00000100: 4096 8dbc e228 bb3c 82d0 963b 77c4 8bbd
00000110: abad 9bbd f719 29bc 3cf2 d3bd 9637 5d3d
00000120: c30f b4bd 83f4 2cbd 17a8 39bb dcef 15bd
00000130: 1896 cbbc 5adf cbbb 3c21 723d dda9 42bd
00000140: 088c b2bc da4d e6bc 95c6 1c3e 6e46 573d
00000150: 0c46 85bd daa0 2dba 0c75 35bc 4cb2 9c3a
00000160: 1d21 983c 8647 acbc a3e1 b53b f7b7 dd3c
00000170: b7fe e53c 768c 8b3c 807c e6bc cfbe c33d
00000180: 08f8 80bc ef5c 3ebd 7191 9e3b 8288 5abc
00000190: e53b 01bc 6fa8 b73d 5cdf c93d 53e7 f1bb
000001a0: 4386 bfbc cb86 cc3b fddb f2bb 0605 6cbd
000001b0: a451 a03d 3ab1 0e3d cc5d 06bd 9c18 a13d
000001c0: 841d ecbd b65f 1d3d 4f24 0bbd f01f 083d
000001d0: 50d2 293d f8c4 bebd 6fc2 cabb 6e2e 48bd
000001e0: 9f4e 5ebd 381c 65bd 0dd5 67bd ac24 233c
000001f0: 6fe2 f3bd 548b 513d a09e cc3d f313 b83b
00000200: f2d1 1e3d 8ed1 e7b8 fa20 c23c d6eb c9bd
00000210: 947f 65bd 5122 d6bd 5d38 a4bd d165 26bd
00000220: 2963 3bbc 865f cdbc 3983 44bc 73d6 12bd
00000230: 57a3 3a3c 0574 2f3c c65d bbbc 373a 03be
00000240: 762e d03b e0c9 a1bd 25ca 8d3d c095 2b3e
00000250: cfe4 d3bd 6895 153d a34e 42bc 6eed 183d
00000260: cc10 993d c45f 433e 11d7 353d 8dec dcbd
00000270: 6201 88bc 20e2 8cbd 45f1 3cbc 7b9b f0bc
00000280: 8f18 343c 52b3 1abd 05d4 47bc a200 a63d
00000290: fc7b 4f3d 9570 3cbc 03fb 88bb b294 fd3d
000002a0: 8d7a 0dbd df80 88bd 874a 79ba d80c e8bc
000002b0: ae72 2b3d 7f9b 04bd 2460 b1bb e9f7 95ba
000002c0: 57b6 babd 4503 a2bd 18b0 7f3c e3b5 dfbb
000002d0: 808d c2bd 090b 063c 36fc c83d 5efe 143d
000002e0: b53f b7bc ad2b 04bc eeb5 c33b 3b5e 36bc
000002f0: 0d84 3d3e c66d 573d 4e97 083e d8ec 27bd
00000300: 552b 00bc ef5f dcbd c9c8 40bc ced6 6c3d
00000310: 085c afbd f4da 083c f73f b63c f2f4 b13a
00000320: 7125 223d 8e19 06bd 92d0 4abc 197c 29bc
00000330: 83ad e03b ad05 953b 9a08 1e3c 87a4 a03c
00000340: fa24 303e 3c64 c6bc 8fc8 57bd 3368 28bc
00000350: 6d7f 6bbd 8aec a53d fef1 72bd 85ee f43c
00000360: 125f 16bd 490d f5bd a658 1abc 1aa7 92bd
00000370: 8e6e ca3c 2c12 ae3a aeca e9bd 73c9 aebd
00000380: c9d1 323e 1382 06bc 220d 103d 5c66 d0bb
00000390: 12c5 2b3c 5cc4 d1bc dc71 203d d6dd c8bd
000003a0: 1edc 8dbd d368 99ba d1e9 d2bc bb47 7dbc
000003b0: 0773 ee3c c2c6 e6bd 048d 4ebd 740b aebd
000003c0: b757 f53d eb83 dcba cd9b c3bd 6883 30bd
000003d0: 0b16 60bd 6e20 8abc 6889 173d ab35 6dbd
000003e0: 314b 05be 02fa 583c 9747 433d 386a 7d3c
000003f0: 4380 49bd 73b2 e9bb 5836 03be db98 cdbc
-0.048149783 0.033553366 0.021606747 0.0024036558 -0.0015764976 -0.08646869 -0.059802584 0.063451625
-0.020718666 -0.011018133 0.029903082 -0.04193319 -0.09919239 0.1453598 -0.021616684 -0.013401286
-0.04476023 0.06931827 -0.027734438 0.01541541 0.057216357 0.070871085 0.05325066 0.019539494
0.014874332 0.0058266735 0.0019462794 0.013178012 0.00028934272 -0.08693224 -0.11082151 0.034160137
-0.018439153 0.027240897 -0.04668198 0.0077366917 0.0067884247 0.0051122406 0.09307673 -0.10011384
-0.024965927 -0.01748053 0.04981016 -0.0048450558 -0.035524618 -0.011644326 0.012973412 0.0019801508
-0.0100686 0.115056776 0.22020741 -0.0040637036 0.08226033 -0.06753618 -0.0979249 0.008013696
-0.04697225 0.10371439 -0.010128661 -0.03283896 -0.018762361 0.029436981 0.029701198 0.112729676
-0.017283559 0.022846643 0.004602493 -0.06824582 -0.07601484 -0.010321132 -0.10348937 0.05400809
-0.08792069 -0.042225372 -0.002832895 -0.0366057 -0.024851844 -0.006221694 0.059113726 -0.047525275
-0.021795288 -0.028113294 0.15310128 0.0525574 -0.06507501 -0.0006623395 -0.011075269 0.0011954992
0.018570477 -0.021030199 0.0055505796 0.02706526 0.028075559 0.01703475 -0.028135538 0.09557878
-0.01574327 -0.046475347 0.0048391153 -0.01333821 -0.007887815 0.08967673 0.098570555 -0.0073823123
-0.02337945 0.0062416545 -0.0074114786 -0.05762198 0.07828072 0.034836985 -0.032804295 0.07866022
-0.11529067 0.038421355 -0.033970173 0.033233583 0.041460335 -0.093149126 -0.006187729 -0.048872404
-0.054274198 -0.055935115 -0.056599665 0.009957474 -0.11908423 0.051158264 0.09991193 0.0056176125
0.03877444 -0.00011053971 0.023697365 -0.09859435 -0.05602987 -0.10455764 -0.08018563 -0.040624443
-0.011437216 -0.025069963 -0.011994177 -0.035849046 0.011391482 0.010708814 -0.022871863 -0.12815176
0.006353195 -0.07899833 0.06923322 0.16756344 -0.10346376 0.036519438 -0.011859569 0.037335806
0.07473907 0.190795 0.044394556 -0.10787306 -0.016602222 -0.068790674 -0.0115321325 -0.029371014
0.010992183 -0.03776867 -0.0121965455 0.081055894 0.05065535 -0.011501451 -0.0041803136 0.12381877
-0.0345407 -0.06665205 -0.00095097016 -0.028326437 0.041857414 -0.032374855 -0.005413072 -0.0011441681
-0.0911681 -0.0791078 0.015605949 -0.0068271025 -0.09499645 0.008181342 0.098137304 0.036375396
-0.022369245 -0.008067054 0.0059726154 -0.011130865 0.18507405 0.052594922 0.13338968 -0.040997356
-0.007822831 -0.107604854 -0.011766621 0.05782204 -0.085624754 0.008352984 0.022247298 0.0013577028
0.03958649 -0.032739215 -0.012378829 -0.010344529 0.0068566217 0.0045477957 0.009645605 0.019609703
0.17201605 -0.024217717 -0.052681502 -0.010278749 -0.05749457 0.08101757 -0.059312813 0.029898891
-0.03671176 -0.119654246 -0.0094205495 -0.07160778 0.02471092 0.0013280562 -0.11415611 -0.08534517
0.17462839 -0.008209723 0.035168774 -0.0063598584 0.010483997 -0.025606327 0.039171085 -0.09807937
-0.0692675 -0.0011704214 -0.025746258 -0.015458996 0.029107584 -0.11268379 -0.05042745 -0.08498278
0.11979621 -0.0016823983 -0.09551201 -0.04309407 -0.05470852 -0.016861167 0.036996275 -0.05791251
-0.13016964 0.0132432 0.047675695 0.015467219 -0.049194586 -0.0071318685 -0.12813699 -0.025097301

action_model._discrete_distribution.branches.2.bias f4 [2]
00000000: 010e 063e 060e 06be
0.1309128 -0.13091287
